Usable_Data/Versuch_3-1/PKWParking.onnx (onnx, 448439 bytes, 15 tensors)

discrete_act_size_vector f4 [1, 2]
4.0 3.0
00000000: 0000 8040 0000 4040

network_body.observation_encoder.processors.0.normalizer.running_mean f4 [45]
0.0074071228 0.020805966 0.109919034 1.496767e-06 0.56290734 0.005769746 0.19733274 0.053295236
5.8374776e-06 0.5454395 0.0052775973 0.06889672 0.062957175 0.00026612348 0.5558447 3.7619113e-05
0.4450463 0.012625627 8.631344e-06 0.4772462 0.00040023497 0.12584108 0.019536156 2.3000599e-05
0.55010617 4.3905306e-06 0.48652998 0.0025928393 1.5915704e-05 0.47601968 0.00077900995 0.10321786
0.004755649 1.277251e-05 0.55990803 0.00041281682 0.0936529 0.0 2.843892e-06 0.5713926
0.00429564 0.006119552 0.0 0.0 0.5742021
00000000: 73b7 f23b 4671 aa3c 3b1d e13d 86e4 c835
00000010: b21a 103f 2310 bd3b 9811 4a3e 1b4c 5a3d
00000020: 8ddf c336 eca1 0b3f b2ef ac3b b919 8d3d
00000030: b1ef 803d 7d86 8b39 d74b 0e3f 37c9 1d38
00000040: 1cdd e33e b8db 4e3c 57cf 1037 9d59 f43e
00000050: a1d6 d139 7cdc 003e 4a0a a03c 69f1 c037
00000060: c2d3 0c3f 5f52 9336 751a f93e a0ec 293b
00000070: b782 8537 dab8 f33e 7936 4c3a e363 d33d
00000080: 46d5 9b3b 8349 5637 2256 0f3f 566f d839
00000090: 17cd bf3d 0000 0000 b1d9 3e36 c946 123f
000000a0: 71c2 8c3b 8686 c83b 0000 0000 0000 0000
000000b0: e9fe 123f

network_body.observation_encoder.processors.1.normalizer.running_mean f4 [105]
0.0 0.007567795 0.0 1.8460283e-06 0.15132554 0.0 0.0074070557 0.0
3.4426082e-06 0.15151796 0.0 0.0075996993 0.0 8.980729e-07 0.15109143 0.0
0.005649043 0.0 1.8759643e-05 0.14520875 0.0 0.00417515 0.0 7.982837e-07
0.1516323 0.0 0.00037723937 0.0 4.0961408e-05 0.14158252 0.0 0.00059587153
0.0 1.9957108e-07 0.15169582 0.0 0.0075701545 0.0 2.0955024e-06 0.1514038
0.0 0.0074092327 0.0 3.6920526e-06 0.15158781 0.0 0.007603529 0.0
1.0477469e-06 0.15113989 0.0 0.0056505874 0.0 1.900903e-05 0.14529604 0.0
0.0041792514 0.0 8.9806616e-07 0.1517235 0.0 0.00037738908 0.0 4.116116e-05
0.14167476 0.0 0.00059901155 0.0 2.4946294e-07 0.15178755 0.0 0.007572642
0.0 2.3449713e-06 0.15151906 0.0 0.0074115125 0.0 3.9414736e-06 0.15166765
0.0 0.0076074186 0.0 1.2473159e-06 0.15118665 0.0 0.005652139 0.0
1.9258385e-05 0.14537202 0.0 0.0041833227 0.0 1.0477503e-06 0.15182327 0.0
0.00037753643 0.0 4.141075e-05 0.14175735 0.0 0.0006022076 0.0 2.9935507e-07
0.15188442
00000000: 0000 0000 44fb f73b 0000 0000 0dc5 f735
00000010: 15f5 1a3e 0000 0000 e3b6 f23b 0000 0000
00000020: 8f07 6736 8627 1b3e 0000 0000 e606 f93b
00000030: 0000 0000 1a13 7135 b6b7 1a3e 0000 0000
00000040: 9b1b b93b 0000 0000 075e 9d37 9ab1 143e
00000050: 0000 0000 b2cf 883b 0000 0000 a349 5635
00000060: 7f45 1b3e 0000 0000 36c8 c539 0000 0000
00000070: facd 2b38 02fb 103e 0000 0000 4334 1c3a
00000080: 0000 0000 ae49 5634 2656 1b3e 0000 0000
00000090: 0f0f f83b 0000 0000 75a0 0c36 9909 1b3e
000000a0: 0000 0000 26c9 f23b 0000 0000 fbc4 7736
000000b0: d639 1b3e 0000 0000 0627 f93b 0000 0000
000000c0: 4fa0 8c35 6ac4 1a3e 0000 0000 9028 b93b
000000d0: 0000 0000 9575 9f37 7cc8 143e 0000 0000
000000e0: 1af2 883b 0000 0000 a312 7135 685d 1b3e
000000f0: 0000 0000 4edc c539 0000 0000 76a4 2c38
00000100: 3013 113e 0000 0000 fc06 1d3a 0000 0000
00000110: eded 8534 326e 1b3e 0000 0000 ed23 f83b
00000120: 0000 0000 4d5e 1d36 d027 1b3e 0000 0000
00000130: 46dc f23b 0000 0000 0041 8436 c44e 1b3e
00000140: 0000 0000 a747 f93b 0000 0000 7369 a735
00000150: acd0 1a3e 0000 0000 9435 b93b 0000 0000
00000160: 118d a137 67dc 143e 0000 0000 4114 893b
00000170: 0000 0000 6da0 8c35 8f77 1b3e 0000 0000
00000180: 15f0 c539 0000 0000 74b0 2d38 d728 113e
00000190: 0000 0000 78dd 1d3a 0000 0000 0cb7 a034
000001a0: 9787 1b3e

network_body.observation_encoder.processors.2.normalizer.running_mean f4 [12]
0.9999854 -0.18096839 -0.025320105 -0.006006665 0.5050401 0.0 0.2872752 0.2872752
0.19991104 0.07499231 0.012174726 0.10987908
00000000: 0bff 7f3f c74f 39be 1c6c cfbc 8fd3 c4bb
00000010: 4f4a 013f 0000 0000 bc15 933e bc15 933e
00000020: 7bb5 4c3e 9195 993d 8178 473c 4808 e13d

network_body._body_endoder.seq_layers.0.weight f4 [256, 162]
0.075184144 -0.12707157 -0.04922878 0.06095835 -0.040769495 0.1759015 -0.02905453 -0.044352256
0.06537876 0.008452947 -0.026754707 0.055060923 -0.058622736 0.06554152 -0.07184346 0.13480256
-0.10445977 0.14398137 -0.09123133 -0.014981332 -0.030149512 -0.14661637 0.010268638 -0.005599098
0.007228761 0.056396097 -0.038087685 0.06328385 0.069635674 0.04247613 0.1801992 0.027066698
0.113566495 0.1292297 -0.0633787 0.13139433 0.022367025 0.04606276 -0.018018503 -0.12878136
0.07836881 -0.19718355 -0.03435658 -0.12337268 0.057928696 -0.17578422 0.09027747 -0.15551825
-0.028381668 -0.15916836 0.09296016 0.09185569 0.014794366 -0.05835482 0.0034020978 -0.08880963
0.12987666 -0.03901231 0.08424834 -0.1765245 0.039718 -0.0617359 -0.018587403 -0.1000495
-0.11625994 0.101420045 0.050542276 0.0039656535 0.038583398 -0.09076003 -0.011055817 0.124346465
-0.13004556 0.047215763 0.08154424 0.11299949 -0.020955952 0.1601921 0.07317665 1.2795139e-05
-0.020099482 0.013837683 -0.010627189 -0.089201614 -0.019946957 -0.11263206 -0.03426211 0.11191735
0.04351631 0.010050482 0.012987795 0.14173149 -0.22294797 0.028408306 0.12185754 0.045093033
-0.02614413 -0.034548204 0.093097664 0.034532886 0.012777048 0.0038869304 0.0039381343 0.13783868
0.09155225 -0.07029985 0.08786539 0.0595106 -0.02303025 0.004543456 -0.066852994 0.037518635
-0.14482875 0.08965283 0.1873339 0.01799379 0.07544532 -0.06689424 0.010950985 0.04445818
-0.053699315 0.0019688832 0.004921942 -0.052132018 -0.010160833 -0.06872463 0.056177005 -0.046346527
0.05667449 0.10069414 0.0073992442 -0.07019012 -0.102500185 -0.064031616 -0.06648861 0.16693564
0.16058597 -0.06418386 -0.041447308 -0.05907353 0.034548514 0.092382856 -0.13186248 0.019691167
-0.18590786 -0.06062025 0.055194583 -0.11782706 -0.20303425 0.10026308 -0.13171035 -0.058257267
0.14443095 0.27825478 0.02079778 -0.023081917 -0.01937703 0.044775542 -0.22501013 -0.07753418
0.110465914 0.086160675 -0.080947645 -0.24061053 -0.22338906 -0.11410945 0.032741833 -0.17238508
-0.04464294 0.08112563 -0.1753858 0.017749995 -0.09393898 -0.16305761 -0.14269428 -0.15238196
0.19194381 0.008528575 -0.042520974 0.20372635 -0.1770725 -0.17847112 -0.1304045 -0.011908968
-0.097525835 0.01578116 0.031856228 -0.09214666 0.36101186 -0.0038693196 -0.25564694 -0.20115219
-0.09758876 0.22940144 -0.28948435 -0.09726302 -0.27731857 -0.08701777 -0.062417988 0.03376876
-0.026655357 -0.026897702 0.0807406 -0.043615293 0.043746896 -0.041119557 0.03589456 -0.09996952
-0.004975455 0.17978056 -0.20577666 0.016866816 0.03547294 -0.2200564 0.09656605 -0.016075544
-0.04137548 -0.03728388 -0.18009731 0.020506969 0.028075978 0.00955161 0.017590027 -0.25057772
0.026996708 -0.21232545 -0.053052817 -0.22610423 -0.10216465 0.04360829 0.03248842 0.0031681505
0.037232343 -0.16379848 0.23398277 -0.018110402 -0.12894814 -0.030549692 -0.1788139 0.05171457
0.086093485 -0.0063167606 0.021861885 -0.11199781 -0.15014565 -0.009988353 0.19130336 0.045951724
-0.18145438 0.062608376 -0.06095451 0.1390873 0.15518129 -0.161248 -0.05622405 -0.05797422
00000000: 25fa 993d 0d1f 02be 1ea4 49bd 76af 793d
00000010: eafd 26bd 861f 343e c403 eebc b6aa 35bd
00000020: 4de5 853d 3b7e 0a3c b02c dbbc 9087 613d
00000030: 651e 70bd a23a 863d aa22 93bd af09 0a3e
00000040: 01ef d5bd da6f 133e 7ed7 babd 4374 75bc
00000050: 1cfc f6bc 9a22 16be ca3d 283c a378 b7bb
00000060: 3edf ec3b 98ff 663d d501 1cbd f79a 813d
00000070: 269d 8e3d 73fb 2d3d 2486 383e fbba dd3c
00000080: 8d95 e83d ca54 043e b1cc 81bd 3c8c 063e
00000090: 0d3b b73c 4eac 3c3d 8a9b 93bc 43df 03be
000000a0: d47f a03d 7cea 49be 7cb9 0cbd d1aa fcbd
000000b0: a446 6d3d c700 34be 65e3 b83d 2d40 1fbe
000000c0: ac80 e8bc 08fd 22be e561 be3d d61e bc3d
000000d0: 1264 723c 7705 6fbd bbf5 5e3b d3e1 b5bd
000000e0: 63fe 043e 5fcb 1fbd 658a ac3d d7c2 34be
000000f0: 57af 223d c8de 7cbd 9c44 98bc c1e6 ccbd
00000100: b119 eebd 50b5 cf3d 6b05 4f3d 50f2 813b
00000110: a009 1e3d 65e0 b9bd 7523 35bc 5ca9 fe3d
00000120: aa2a 05be 5165 413d ab00 a73d 476c e73d
00000130: d1ab abbc 6609 243e a4dd 953d b4aa 5637
00000140: aba7 a4bc 73b7 623c a91d 2ebc 56af b6bd
00000150: cd67 a3bc a3ab e6bd 6d56 0cbd ec34 e53d
00000160: 293e 323d c7aa 243c c3ca 543c 0f22 113e
00000170: 794c 64be 89b8 e83c 7290 f93d 79b3 383d
00000180: 372c d6bc 6b82 0dbd fda9 be3d 5b72 0d3d
00000190: d356 513c dfbb 7e3b 770b 813b 9525 0d3e
000001a0: bf7f bb3d 5ef9 8fbd c5f2 b33d 63c1 733d
000001b0: efa9 bcbc 45e1 943b 39ea 88bd 24ad 193d
000001c0: fd4d 14be e79b b73d 75d4 3f3e b667 933c
000001d0: 1383 9a3d d9ff 88bd c36b 333c c819 363d
000001e0: d0f3 5bbd 6108 013b 3e48 a13b 6288 55bd
000001f0: 9f79 26bc 80bf 8cbd dc19 663d dbd5 3dbd
00000200: 8323 683d bb38 ce3d 5c75 f23b d6bf 8fbd
00000210: 9eeb d1bd 0223 83bd 2e2b 88bd 2df1 2a3e
00000220: a670 243e d472 83bd a7c4 29bd 16f7 71bd
00000230: be82 0d3d 3933 bd3d f506 07be 5f4f a13c
00000240: a15e 3ebe f04c 78bd b713 623d 504f f1bd
00000250: 36e8 4fbe bb56 cd3d 14df 06be 2c9f 6ebd
00000260: b5e5 133e 6977 8e3e 1b60 aa3c 4a16 bdbc
00000270: 94bc 9ebc 8f66 373d 0e69 66be 3dca 9ebd
00000280: f43b e23d 0275 b03d e1c7 a5bd 9b62 76be
00000290: 1ac0 64be 37b2 e9bd 4d1c 063d b785 30be
000002a0: 84db 36bd 3225 a63d 5698 33be 7068 913c
000002b0: 1463 c0bd 93f8 26be 731e 12be 040a 1cbe
000002c0: eb8c 443e 70bb 0b3c 792a 2ebd a49d 503e
000002d0: 7e52 35be 22c1 36be c288 05be d51d 43bc
000002e0: a0bb c7bd 7e47 813c ad7b 023d 63b7 bcbd
000002f0: 8cd6 b83e 6994 7dbb 28e4 82be d7fa 4dbe
00000300: 9edc c7bd 36e8 6a3e 4b37 94be d631 c7bd
00000310: b3fc 8dbe 5f36 b2bd 01aa 7fbd 1c51 0a3d
00000320: 565c dabc 9258 dcbc 545b a53d f3a5 32bd
00000330: f22f 333d fb6c 28bd 2d06 133d d2bc ccbd
00000340: 2409 a3bb 6518 383e 1eb7 52be 472c 8a3c
00000350: 134c 113d 7756 61be 6cc4 c53d dcb0 83bc
00000360: 5679 29bd fbb6 18bd 6e6b 38be 3bfe a73c
00000370: 98ff e53c 5b7e 1c3c f618 903c b94b 80be
00000380: 3328 dd3c d86b 59be e94d 59bd de87 67be
00000390: b33b d1bd 9b9e 323d 9412 053d bfa0 4f3b
000003a0: f180 183d caba 27be 2e99 6f3e 445c 94bc
000003b0: fb0a 04be 5943 fabc fe1a 37be a8d2 533d
000003c0: c851 b03d d4fc cebb b217 b33c 1c5f e5bd
000003d0: c8bf 19be 30a6 23bc 07e5 433e e037 3c3d
000003e0: 2dcf 39be d238 803d 70ab 79bd e76c 0e3e
000003f0: d8e7 1e3e 321e 25be 304b 66bd 6076 6dbd

network_body._body_endoder.seq_layers.0.bias f4 [256]
-0.056349926 0.13370936 -0.22382545 -0.056351587 0.026660465 -0.18900156 -0.12610039 -0.20757924
0.2117299 -0.13976482 0.13688228 -0.10013094 0.08364787 -0.056205247 0.2617372 -0.10719814
0.13100183 0.2163333 -0.22925812 0.17974453 0.15285684 0.21085314 0.2718215 0.0955713
-0.2037093 0.14147605 -0.075585306 -0.09558119 0.048356816 0.16124046 -0.22693937 0.024680883
-0.019369375 -0.0036223717 0.12549044 0.05129292 0.037734084 0.23855728 0.0878751 0.092945404
-0.0030969053 0.11124253 0.21274869 0.124753885 -0.089283735 -0.089820996 0.11399852 0.03120056
-0.15638703 -0.24368851 -0.18331063 0.1754235 0.068269335 0.00846475 -0.0411414 0.049670137
0.1205604 0.18138374 0.008373136 0.09536651 0.05590085 0.081518486 0.09803002 0.050811693
0.25036925 0.010115957 -0.0099468455 0.05747716 0.26662022 -0.056847855 -0.18776809 -0.13758442
0.061037797 0.13690665 0.014956295 0.3033179 0.05443523 0.105195165 0.06737097 0.003870846
-0.009653958 -0.007403361 -0.098701924 0.15212658 0.13256076 -0.18183368 0.07071304 0.079546206
0.38654768 0.00915161 -0.21188778 -0.070079304 0.107288785 -0.24160643 0.15622982 0.2137152
0.22396323 -0.0520067 -0.10379525 0.21532995 0.035191603 0.002761576 0.14904286 0.16723159
-0.10027711 0.083088584 0.1556042 0.12244182 0.12649964 -0.013547301 -0.14453413 -0.16430926
0.3638726 -0.09408231 0.36255392 -0.075867146 -0.17110646 0.03729078 0.3565074 -0.17687473
0.15524398 -0.103651874 -0.016433662 0.1223952 0.025823768 0.11572056 -0.06602668 0.112397045
-0.009807174 0.18499127 0.18724379 0.002172922 0.33323112 0.090300344 0.12509237 0.20914681
-0.09957148 0.04047714 0.27495074 0.06656732 0.05362584 2.9413091e-05 -0.1105212 -0.20856225
0.1132321 0.16717747 -0.076532856 0.14100337 0.10942517 0.030717794 0.03955668 -0.21495269
0.0369738 -0.03982569 0.043335475 0.22854201 0.14138505 0.15127504 0.18292093 0.22126889
0.23606783 0.26006418 0.00063782575 0.07439073 -0.06940734 0.2550508 -0.13261469 0.28144476
-0.027075386 0.03130436 0.2614661 0.18282288 0.0925091 -0.08603896 0.19583246 0.310704
0.14670177 0.08654187 0.102918305 -0.124358855 0.13145493 -0.2732474 0.09580142 0.1938402
-0.10504132 0.20580085 -0.081303164 -0.09183588 0.18918353 0.1246975 0.29491413 -0.0015111775
0.07312081 0.062314946 0.04927511 -0.12554829 0.18677224 0.14611916 0.02848989 -0.033902712
0.10663498 -0.14452353 0.13083433 -0.07623977 0.09250648 0.10363131 0.25557882 0.05473248
-0.051670987 -0.015228481 -0.051099822 0.047195707 0.14650203 0.053257354 -0.09826016 0.12665182
0.072036475 -0.24289997 0.12561801 -0.0076154103 0.16645521 0.1590276 -0.058997955 0.09329809
0.043327313 0.2574791 0.072698206 -0.10826331 0.20263775 -0.018560538 0.034597173 -0.06096272
-0.048982374 0.1571549 -0.13780282 0.29682297 -0.09578734 0.0369635 -0.14192697 -0.12631157
0.2968373 0.13216116 -0.19797094 0.010281756 -0.1557172 0.08507528 0.11223426 0.1376665
0.007494125 -0.010252395 0.2640324 0.06204161 0.10588089 0.11470204 0.048639446 0.11993359
00000000: 2ecf 66bd 1beb 083e 8032 65be ecd0 66bd
00000010: 0c67 da3c a089 41be 7620 01be a78f 54be
00000020: b9cf 583e 821e 0fbe de2a 0c3e 7311 cdbd
00000030: 934f ab3d 7937 66bd 6b02 863e b38a dbbd
00000040: 5825 063e 7a86 5d3e a4c2 6abe f30e 383e
00000050: 8186 1c3e e3e9 573e 302c 8b3e e3ba c33d
00000060: 2c99 50be 19df 103e 78cc 9abd 12c0 c3bd
00000070: cc11 463d 381c 253e cb62 68be 902f ca3c
00000080: 86ac 9ebc 5065 6dbb 9180 003e 8618 523d
00000090: 0e8f 1a3d 5c48 743e dcf7 b33d 295a be3d
000000a0: 73f5 4abb 20d3 e33d cbda 593e f77e ff3d
000000b0: 64da b6bd 12f4 b7bd 0e78 e93d 5198 ff3c
000000c0: ec23 20be 7b89 79be c8b5 3bbe 38a2 333e
000000d0: cbd0 8b3d bcaf 0a3c e283 28bd ea72 4b3d
000000e0: 5fe8 f63d a9bc 393e 7a2f 093c 844f c33d
000000f0: 4af8 643d 2af3 a63d f7c3 c83d ec1f 503d
00000100: 6630 803e 66bd 253c 18f8 22bc 2c6d 6b3d
00000110: 7282 883e 4cd9 68bd 4746 40be eee2 0cbe
00000120: c502 7a3d 4231 0c3e 3f0b 753c 7c4c 9b3e
00000130: 7af7 5e3d 9070 d73d cbf9 893d 05ae 7d3b
00000140: a22b 1ebc e597 f2bb 3c24 cabd 12c7 1b3e
00000150: 02be 073e 9c32 3abe 00d2 903d 1fe9 a23d
00000160: 94e9 c53e a2f0 153c 1cf9 58be bd85 8fbd
00000170: 39ba db3d ad67 77be b6fa 1f3e 28d8 5a3e
00000180: 9e56 653e fa04 55bd 9b92 d4bd 747f 5c3e
00000190: 1225 103d 8ffb 343b b19e 183e c23e 2b3e
000001a0: 165e cdbd 592a aa3d b556 1f3e c7c2 fa3d
000001b0: 1f89 013e 80f5 5dbc c100 14be b040 28be
000001c0: 824d ba3e 3aae c0bd aba0 b93e 3c60 9bbd
000001d0: 8836 2fbe 38be 183d 2388 b63e a61e 35be
000001e0: 47f8 1e3e 6f47 d4bd e39f 86bc 56aa fa3d
000001f0: 5e8c d33c e7fe ec3d ff38 87bd 6c30 e63d
00000200: 45ae 20bc 5a6e 3d3e d6bc 3f3e 9567 0e3b
00000210: 459d aa3e 63ef b83d 3718 003e 952a 563e
00000220: 22ec cbbd 5ccb 253d 58c6 8c3e 7254 883d
00000230: c5a6 5b3d 22bc f637 f058 e2bd 5891 55be
00000240: 3be6 e73d 9230 2b3e 42bd 9cbd 3063 103e
00000250: 4e1a e03d e2a3 fb3c 2f06 223d 8f1c 5cbe
00000260: d771 173d 4320 23bd 8a80 313d eb06 6a3e
00000270: 3ec7 103e d8e7 1a3e a04f 3b3e 5094 623e
00000280: c4bb 713e 2227 853e c333 273a 2b5a 983d
00000290: 6f25 8ebd 0596 823e 25cc 07be 8719 903e
000002a0: 33cd ddbc 0039 003d e2de 853e ec35 3b3e
000002b0: 6975 bd3d 3235 b0bd 4e88 483e 9814 9f3e
000002c0: fd38 163e dd3c b13d d5c6 d23d dbaf febd
000002d0: 1f9c 063e 15e7 8bbe 8933 c43d 0c7e 463e
000002e0: e71f d7bd 75bd 523e 4682 a6bd 7314 bcbd
000002f0: 54b9 413e 6761 ff3d fcfe 963e b412 c6ba
00000300: 5dc0 953d f53d 7f3d b3d4 493d bb8f 00be
00000310: 3941 3f3e 43a0 153e a163 e93c 92dd 0abd
00000320: 7163 da3d fafd 13be 6ff9 053e 9923 9cbd
00000330: 0a74 bd3d a73c d43d 3adb 823e 2a2f 603d
00000340: f5a4 53bd e180 79bc 0c4e 51bd 4950 413d
00000350: a104 163e 6224 5a3d 9f3c c9bd 04b1 013e
00000360: dc87 933d c5ba 78be 02a2 003e b18a f9bb
00000370: 3c73 2a3e 22d8 223e d7a7 71bd 1213 bf3d
00000380: fb77 313d 4dd4 833e cce2 943d 27b9 ddbd
00000390: 4580 4f3e 450c 98bc c4b5 0d3d 0cb4 79bd
000003a0: bea1 48bd 37ed 203e 2f1c 0dbe 2ef9 973e
000003b0: 272c c4bd 0a67 173d 4e55 11be d257 01be
000003c0: 0ffb 973e 4155 073e e5b8 4abe cf74 283c
000003d0: 5474 1fbe f33b ae3d 13db e53d 72f8 0c3e
000003e0: 4791 f53b a9f9 27bc 412f 873e 581f 7e3d
000003f0: 14d8 d83d e7e8 ea3d 283a 473d be9f f53d

network_body._body_endoder.seq_layers.2.weight f4 [256, 256]
-0.029698746 -0.08164068 0.08171019 -0.007364649 0.07103896 0.02296986 0.16619669 -0.034124497
-0.3121631 0.022816014 -0.29957503 0.07959698 -0.16831405 0.22220995 -0.140346 0.11244142
-0.26447916 -0.22844616 0.0017725299 -0.08027709 -0.1728624 -0.13447295 -0.21729158 -0.11185284
0.074825376 -0.22593498 -0.035564974 0.012272769 -0.030668797 -0.22417308 -0.021440173 -0.083611146
-0.12490968 -0.23021567 -0.14998047 -0.122643545 0.021428658 -0.2128562 -0.2628514 -0.12018988
0.11188923 -0.07650663 -0.20352264 -0.06991626 -0.07217838 -0.100402914 0.005210454 -0.012995132
0.19233839 0.00898424 0.1959129 -0.13175835 0.043996595 -0.16795282 0.04364849 -0.017348774
-0.12465021 -0.046132207 -0.28945604 -0.08409621 -0.0764201 -0.17839572 -0.079059154 -0.19572236
-0.074022844 -0.0019375901 -0.08227941 -0.038609758 -0.43795523 -0.040642936 0.05743161 0.15139705
-0.008337892 -0.37823093 -0.04884963 -0.07837193 -0.0013678472 0.07475865 -0.06635701 -0.021228421
0.027422376 0.03163035 -0.2069346 -0.02636606 -0.016742237 0.051437035 0.04646393 0.06244262
-0.16719995 -0.057877347 -0.0048250635 -0.10242925 -0.035700444 -0.048144605 -0.04900398 -0.08449642
-0.06846756 0.05835647 -0.07057347 -0.18470865 -0.18344179 0.038467538 -0.14660136 -0.25406072
-0.112465836 -0.03849721 -0.16909851 -0.15495992 -0.074107304 -0.06478286 0.08239998 -0.034700997
-0.1902468 -0.03427721 -0.2170038 -0.023802307 -0.2051629 -0.07692597 -0.112445466 0.12640351
-0.13354418 0.0041163876 -0.023014134 -0.1349951 -0.07059478 -0.086726256 -0.042843997 -0.15978584
-0.1997652 -0.20030203 -0.13821925 -0.19064158 -0.12047554 -0.16971183 -0.18607298 -0.36379045
-0.02476623 -0.13665105 -0.2298292 -0.016396135 -0.0101747345 0.10681619 -0.0033275718 0.20230038
-0.30833519 -0.12654656 0.049366917 -0.09760248 -0.111782186 -0.18382709 -0.18719263 0.23213413
-0.15563294 0.0072253835 -0.10966875 -0.2609694 0.047627237 -0.08977719 -0.12665989 -0.2090614
-0.05670231 -0.16269825 -0.08831746 -0.040527135 -0.03972787 -0.25393632 0.20755461 -0.13667005
0.0047257575 -0.13232248 -0.031003637 -0.05606829 -0.07394129 0.14308774 -0.23134524 -0.23582518
-0.027242245 -0.10968181 -0.14687575 0.016550487 -0.035914157 -0.019401265 -0.15429847 -0.10231833
0.0510255 -0.20156884 0.10494465 -0.1754095 -0.053997707 -0.09596706 -0.15195303 -0.05020527
-0.32576835 -0.1115524 -0.08038126 0.15930264 -0.23917931 -0.326229 0.0061794673 0.09236638
-0.19321416 0.056271594 -0.0430013 -0.0866902 -0.02939638 -0.25867727 -0.20821042 -0.2896666
-0.1734774 -0.12828799 -0.06082947 -0.05723028 -0.071072534 -0.034455378 -0.017975422 0.016231522
-0.26488966 0.081855565 -0.05529415 0.042597298 -0.21176314 -0.14879127 0.052715942 -0.19094898
0.02346886 -0.06752622 -0.13833037 0.027745176 -0.20579247 -0.025037484 -0.19173467 -0.085997954
-0.025045099 -0.10308732 -0.04787233 -0.3548441 0.04685335 -0.15903361 0.0817504 0.121697016
-0.11201194 -0.26533586 0.13202362 -0.16531385 0.10317575 -0.23347391 -0.10748173 -0.08181535
0.07580931 -0.14269881 -0.2991267 -0.1012861 -0.23965253 -0.29953384 -0.07781192 -0.06469592
00000000: c94a f3bc 3b33 a7bd ac57 a73d 2753 f1bb
00000010: e07c 913d 4a2b bc3c 772f 2a3e 21c6 0bbd
00000020: d8d3 9fbe a6e8 ba3c e661 99be be03 a33d
00000030: 855a 2cbe 018b 633e ddb6 0fbe b047 e63d
00000040: d069 87be caed 69be 3c54 e83a 5168 a4bd
00000050: d702 31be 47b3 09be af81 5ebe 1a13 e5bd
00000060: 0c3e 993d 805b 67be 94ac 11bd b913 493c
00000070: 213d fbbc a18d 65be 4da3 afbc 523c abbd
00000080: a5d0 ffbd a8bd 6bbe 7b94 19be 8a2c fbbd
00000090: 278b af3c faf6 59be 7594 86be 1d26 f6bd
000000a0: 2e26 e53d 82af 9cbd 3d68 50be 4230 8fbd
000000b0: 42d2 93bd 0ba0 cdbd 75bc aa3b 89e9 54bc
000000c0: 5bf4 443e a232 133c 649d 483e a9eb 06be
000000d0: c635 343d d3fb 2bbe c2c8 323d 041f 8ebc
000000e0: 9c48 ffbd 20f5 3cbd 9533 94be a23a acbd
000000f0: 2482 9cbd 5ead 36be c4e9 a1bd 716b 48be
00000100: 4a99 97bd bcf6 fdba 1b82 a8bd 4425 1ebd
00000110: ab3b e0be 3579 26bd 683d 6b3d d407 1b3e
00000120: a79b 08bc 7ca7 c1be 8d16 48bd 7681 a0bd
00000130: 5649 b3ba 101b 993d 2fe6 87bd 3ae7 adbc
00000140: e4a4 e03c d38e 013d aae6 53be a3fd d7bc
00000150: 0427 89bc a4af 523d f650 3e3d d5c3 7f3d
00000160: 7736 2bbe cc10 6dbd 911b 9ebb 6dc6 d1bd
00000170: a13a 12bd 4733 45bd 66b8 48bd 760c adbd
00000180: b838 8cbd 3207 6f3d d388 90bd 4424 3dbe
00000190: 2ad8 3bbe 2390 1d3d ab1e 16be 3f14 82be
000001a0: 7d54 e6bd 40af 1dbd 2928 2dbe d0ad 1ebe
000001b0: 92c5 97bd e0ac 84bd 52c1 a83d a222 0ebd
000001c0: 0fd0 42be 4266 0cbd 3f36 5ebe 0efd c2bc
000001d0: 3916 52be 5d8b 9dbd cf49 e6bd ec6f 013e
000001e0: cebf 08be c3e2 863b 2388 bcbc 283c 0abe
000001f0: ff93 90bd 899d b1bd 307d 2fbd e69e 23be
00000200: 408f 4cbe fa1b 4dbe 5989 0dbe 8c37 43be
00000210: e1bb f6bd f0c8 2dbe ea89 3ebe be42 babe
00000220: 8ce2 cabc 41ee 0bbe 5958 6bbe 3051 86bc
00000230: eeb3 26bc 72c2 da3d 6413 5abb d527 4f3e
00000240: 1cde 9dbe 6c95 01be f734 4a3d cfe3 c7bd
00000250: 0fee e4bd 2b3d 3cbe 6daf 3fbe 92b4 6d3e
00000260: 3e5e 1fbe e9c2 ec3b 029a e0bd c89d 85be
00000270: c714 433d 1add b7bd 21b3 01be 3114 56be
00000280: ae40 68bd 5f9a 26be c9df b4bd c8ff 25bd
00000290: b1b9 22bd f103 82be 3289 543e 3cf3 0bbe
000002a0: 87da 9a3b 8b7f 07be 57fb fdbc dda7 65bd
000002b0: 886e 97bd 9885 123e c4e5 6cbe 287c 71be
000002c0: 212b dfbc dba0 e0bd 9966 16be e394 873c
000002d0: b91a 13bd 67ef 9ebc 6b00 1ebe 468c d1bd
000002e0: 1d00 513d 1068 4ebe 38ed d63d 8c9e 33be
000002f0: b32c 5dbd 618a c4bd 9399 1bbe 0ba4 4dbd
00000300: 1ccb a6be 9675 e4bd ee9e a4bd 3b20 233e
00000310: 6ceb 74be 7d07 a7be 217d ca3b 962a bd3d
00000320: efd9 45be 0b7d 663d 2222 30bd a28a b1bd
00000330: add0 f0bc 5971 84be 1d35 55be 2e4f 94be
00000340: 0fa4 31be ed5d 03be 5328 79bd 4c6a 6abd
00000350: 7a8e 91bd 1521 0dbd 3141 93bc f8f7 843c
00000360: 9e9f 87be e4a3 a73d 1e7c 62bd 817a 2e3d
00000370: 70d8 58be bd5c 18be acec 573d 2188 43be
00000380: c441 c03c 304b 8abd 7aa6 0dbe da49 e33c
00000390: 43bb 52be 691b cdbc 1856 44be b21f b0bd
000003a0: 612b cdbc 721f d3bd c715 44bd 20ae b5be
000003b0: 4ce9 3f3d b5d9 22be c16c a73d 493c f93d
000003c0: 8466 e5bd 1ada 87be 3331 073e 0948 29be
000003d0: cf4d d33d c913 6fbe 621f dcbd ce8e a7bd
000003e0: e941 9b3d a31f 12be 2327 99be 166f cfbd
000003f0: 7967 75be 805c 99be db5b 9fbd 4b7f 84bd

network_body._body_endoder.seq_layers.2.bias f4 [256]
-0.30485442 -0.17925529 -0.26556233 -0.24392058 -0.083302975 -0.15438284 -0.034630146 -0.23863144
-0.08031355 -0.19515999 -0.18778487 -0.07268831 -0.25654426 -0.18560365 -0.26682907 -0.12797025
-0.033859886 -0.17367852 -0.25051367 -0.1345958 -0.16002758 -0.14139119 -0.122196 -0.18862925
-0.11887067 -0.16433196 -0.0436122 -0.08185748 -0.11894107 -0.07653483 -0.19447644 -0.21970083
-0.08642679 -0.13052315 -0.2439534 -0.23761955 -0.101290315 -0.1309486 -0.23302023 -0.12540646
-0.084490195 -0.079577655 -0.2579203 -0.20138183 -0.073682144 -0.18971156 -0.19148067 -0.09146574
-0.11173873 -0.040222414 -0.0989132 -0.1216413 -0.064681515 -0.119645804 -0.18340027 -0.083552174
-0.3347586 -0.022142746 -0.05306 -0.15785685 -0.20770241 -0.22508636 -0.07828679 -0.1015398
-0.23190331 -0.17736363 -0.036884364 -0.13701029 -0.1241948 -0.14089836 -0.23945916 -0.06446924
-0.18111143 -0.22423266 -0.094091505 -0.09666274 -0.19947328 0.024308255 -0.2368936 -0.029065136
-0.12756051 -0.20763376 -0.19055966 -0.29533452 -0.15814956 -0.16383988 -0.09639454 -0.16486143
-0.20151906 -0.23959588 -0.24305585 -0.15663484 -0.16250026 -0.12242475 -0.15502004 -0.090068534
-0.014975645 -0.2571757 -0.24773982 -0.13650832 -0.08783553 -0.12258657 -0.18121947 -0.1245551
-0.22492673 -0.18612777 -0.13060574 -0.18738872 -0.16674471 -0.1881356 -0.20409164 -0.13791382
-0.12292966 -0.10572335 -0.1785741 -0.111600004 -0.013745847 -0.106683634 -0.121409975 -0.19390097
-0.08172058 -0.14417832 -0.14273028 -0.121318676 -0.15971704 -0.119533196 -0.0785808 -0.20314597
-0.045353297 -0.073605046 -0.16223878 -0.173676 -0.17057869 -0.077481866 -0.051577408 -0.2740209
-0.131307 -0.2904247 -0.22113103 -0.11064722 -0.05914989 -0.20489632 -0.22174287 -0.18648647
-0.196054 -0.00908034 -0.05741557 -0.24014662 -0.2080102 -0.0606461 -0.13768508 -0.20796429
-0.035780676 -0.035647724 -0.018336248 -0.06217082 0.04574344 -0.10193371 -0.29650402 -0.04892186
-0.07313204 -0.23078123 -0.11883173 -0.096099064 -0.14706309 -0.05313646 -0.19042858 -0.12920755
-0.17035986 -0.123603106 -0.06651439 -0.14471832 -0.20901722 -0.18093373 -0.06994623 -0.08242796
-0.13588667 -0.1688756 -0.20010917 -0.141183 -0.16770701 -0.101918876 -0.13352723 -0.11259737
-0.27635664 -0.16642198 -0.063719556 -0.06136409 -0.1632872 -0.16301702 -0.1871585 -0.19548468
-0.13042414 -0.13137406 -0.051898837 -0.14933676 -0.24058497 -0.2013873 -0.29166955 -0.07157364
-0.06215382 -0.17359877 -0.11676075 -0.15243728 -0.045683783 -0.021292461 -0.0923914 -0.20510757
-0.067382395 -0.014490704 -0.18780477 -0.18089974 -0.06969256 -0.10548741 -0.30368808 -0.198264
-0.098664366 -0.08107171 -0.012918138 -0.17485128 -0.06606818 -0.16093715 -0.10044765 -0.23573627
-0.086783685 -0.17522968 -0.07026383 -0.23127887 -0.22400041 -0.07643708 -0.17858954 -0.23689818
-0.06887321 -0.15636648 -0.1057163 -0.2556636 -0.16321917 -0.11589153 -0.13430125 -0.15564428
-0.2659336 -0.12305763 -0.071842305 -0.09916539 -0.194966 -0.068950556 -0.10812416 -0.15998077
-0.0513589 -0.10834485 -0.072223656 -0.2807075 -0.04354363 -0.10008668 -0.046551596 0.006324874
00000000: e115 9cbe b38e 37be c9f7 87be 51c6 79be
00000010: c09a aabd 8916 1ebe 57d8 0dbd cd5b 74be
00000020: 6e7b a4bd 05d8 47be ad4a 40be 9cdd 94bd
00000030: c559 83be e20e 3ebe d29d 88be a20a 03be
00000040: aab0 0abd c8d8 31be 5443 80be 7bd3 09be
00000050: 45de 23be dac8 10be e541 fabd 0728 41be
00000060: 7772 f3bd a346 28be b5a2 32bd e5a4 a7bd
00000070: 6097 f3bd 4bbe 9cbd d524 47be 41f9 60be
00000080: 8700 b1bd dca7 05be ecce 79be 8a52 73be
00000090: 4c71 cfbd 6417 06be db9c 6ebe 8d6a 00be
000000a0: 3209 adbd 9cf9 a2bd 210e 84be 0a37 4ebe
000000b0: aae6 96bd bf43 42be 8213 44be 6452 bbbd
000000c0: 46d7 e4bd 42c0 24bd 0193 cabd 131f f9bd
000000d0: be77 84bd dc08 f5bd 48cd 3bbe 671d abbd
000000e0: 7b65 abbe b464 b5bc 7155 59bd 3aa5 21be
000000f0: f1af 54be 0a7d 66be d354 a0bd 19f4 cfbd
00000100: 1078 6dbe d09e 35be 0f14 17bd 6d4c 0cbe
00000110: d859 febd a947 10be c834 75be 7308 84bd
00000120: 4675 39be 3f9d 65be 0cb3 c0bd 1df7 c5bd
00000130: b942 4cbe 1b22 c73c 3c94 72be 021a eebc
00000140: 399f 02be f29d 54be 1222 43be 1636 97be
00000150: f5f1 21be a4c5 27be 806a c5bd 6fd1 28be
00000160: 035b 4ebe 9f58 75be a2e3 78be e264 20be
00000170: 7866 26be d4b9 fabd 93bd 1ebe da75 b8bd
00000180: 685c 75bc 89ac 83be 82af 7dbe d6c8 0bbe
00000190: 1de3 b3bd ab0e fbbd 9991 39be bf16 ffbd
000001a0: 3153 66be 4798 3ebe 83bd 05be d4e2 3fbe
000001b0: 20bf 2abe 9ea6 40be 66fd 50be 4839 0dbe
000001c0: 8cc2 fbbd 7c85 d8bd 21dc 36be 8b8e e4bd
000001d0: 4336 61bc f37c dabd cba5 f8bd fa8d 46be
000001e0: 1f5d a7bd 7ba3 13be e327 12be ed75 f8bd
000001f0: dd8c 23be d2cd f4bd f8ee a0bd 7f05 50be
00000200: 61c4 39bd 3ebe 96bd ec21 26be 1fd8 31be
00000210: 2eac 2ebe d0ae 9ebd d542 53bd 784c 8cbe
00000220: 5875 06be 8cb2 94be 2c70 62be 029b e2bd
00000230: 2847 72bd 57d0 51be 9010 63be 4ff6 3ebe
00000240: 61c2 48be b5c5 14bc 972c 6bbd ffe8 75be
00000250: a000 55be 0c68 78bd 51fd 0cbe 97f4 54be
00000260: c28e 12bd 5903 12bd e635 96bc d4a6 7ebd
00000270: 795d 3b3d 9fc2 d0bd 60cf 97be 4a62 48bd
00000280: 40c6 95bd ea51 6cbe 0d5e f3bd 96cf c4bd
00000290: b597 16be 9ea5 59bd b6ff 42be fc4e 04be
000002a0: d172 2ebe a023 fdbd b238 88bd 0a31 14be
000002b0: 9c08 56be b146 39be f83f 8fbd fecf a8bd
000002c0: e025 0bbe baed 2cbe 6be9 4cbe 4792 10be
000002d0: 63bb 2bbe d8ba d0bd 5dbb 08be 7399 e6bd
000002e0: 9e7e 8dbe 866a 2abe 667f 82bd e958 7bbd
000002f0: c234 27be efed 26be 7aa6 3fbe 232d 48be
00000300: e88d 05be ec86 06be e093 54bd bceb 18be
00000310: e85b 76be 7938 4ebe b655 95be 3395 92bd
00000320: 0195 7ebd e0c3 31be 4320 efbd 8518 1cbe
00000330: eb1e 3bbd 876d aebc b437 bdbd b807 52be
00000340: c8ff 89bd 6b6a 6dbc e54f 40be c83d 39be
00000350: f9ba 8ebd c909 d8bd 017d 9bbe b805 4bbe
00000360: 8b10 cabd ed08 a6bd 99a6 53bc 370c 33be
00000370: c14e 87bd b5cc 24be 7fb7 cdbd d964 71be
00000380: a5bb b1bd 696f 33be 7ce6 8fbd 5ed4 6cbe
00000390: 5d60 65be 0b8b 9cbd 2de0 36be 7095 72be
000003a0: 660d 8dbd 891e 20be ca81 d8bd 57e6 82be
000003b0: ed22 27be 8a58 edbd 4486 09be 3761 1fbe
000003c0: 7328 88be a405 fcbd 0f22 93bd 3917 cbbd
000003d0: 2ba5 47be f335 8dbd 3370 ddbd 00d2 23be
000003e0: b65d 52bd e8e3 ddbd ffe9 93bd e5b8 8fbe
000003f0: ce5a 32bd 3ffa ccbd e3ac 3ebd e340 cf3b

action_model._discrete_distribution.branches.0.weight f4 [4, 256]
-0.0016820399 0.023872579 -0.0060450584 0.041316923 -0.033892065 -0.017310861 -0.10353867 -0.09022264
-0.043551296 -0.02474122 -0.04372133 0.049982343 0.01328103 -0.0066867745 0.031784955 0.020238869
0.008512498 -0.0058894153 0.00079572666 0.010237971 -0.00857206 0.010103134 0.088912405 -0.0477825
-0.05827123 -0.068331726 -0.08985105 -0.031183332 -0.06082343 -0.017070113 -0.0029537533 -0.024099538
0.004843063 -0.062079683 -0.0021156 -0.09457784 0.011539369 0.019350484 0.017476354 -0.003320456
-0.0017008231 -0.080980174 0.032121453 -0.010732537 -0.10712146 0.019376403 0.034562834 -0.08890528
-0.019605258 0.025407841 -0.08880474 0.07832686 -0.010164767 -0.062562995 -0.0899531 -0.03310647
-0.017723784 0.05770303 0.036320526 0.013721973 -0.10832173 0.0051221126 0.0017200419 -0.028536955
-0.012563449 -0.10613454 -0.112748176 -0.02699932 -0.09146866 -0.05108737 0.00761514 0.03340922
0.009393394 0.019566776 0.018555557 -0.021520693 0.032046 0.048079263 0.008436387 0.014874027
0.08251303 -0.0278232 -0.022366889 -0.027575463 -0.045316074 0.012909127 -0.0069845673 0.054428644
-0.017741676 0.011080563 -0.007471441 0.002698598 -0.003877195 -0.083246976 -0.0020025251 -0.07742711
0.019864699 -0.041876856 0.007673159 -0.05898893 0.022944078 -0.01715528 0.015410301 -0.109767504
-0.10821104 -0.055690736 -0.11641781 0.009249437 -0.019469796 0.06917613 -0.026059864 -0.014259002
0.01315835 -0.09790312 -0.026001588 0.061012696 -0.012473852 -0.06549847 -0.08873958 0.03767789
-0.06653659 0.010676651 0.033630054 -0.08717638 -0.035393625 -0.058735207 -0.061090358 -0.027345603
-0.05357086 0.00462064 0.062850975 -5.3664848e-05 -0.02912623 -0.06966914 -0.02946673 -0.05635988
-0.09164006 0.031751968 0.019454138 -0.10333966 -0.091085605 0.0047927075 0.018989667 0.008261561
-0.06805914 -0.059070718 -0.027689727 0.019281376 -0.045555238 -0.02612686 0.08255605 0.016697448
-0.052243564 -0.09928004 -0.050846104 0.060096838 0.016463956 -0.004491373 0.0009722268 -0.08929711
-0.042320184 0.017807256 -0.0053358227 0.0008689342 0.080554225 -0.14797103 0.010134252 -0.048501853
-0.12221791 0.022134673 -0.049538415 -0.05875535 -0.032043032 -0.0795882 0.061908912 0.015611173
-0.028513202 -0.012138191 0.057853878 -0.072612785 0.06670923 -0.0711634 -0.031738937 0.09816656
-0.028401978 -0.10166188 0.13344447 -0.038255364 -0.047516927 -0.02818216 -0.033672508 0.026638927
-0.0328708 -0.043549236 0.078228936 -0.03702237 -0.03429381 0.07574197 0.0014709348 0.07216754
-0.10845815 -0.040166207 0.090079725 -0.021949084 -0.0075768395 -0.03560633 -0.06812575 0.0007878857
-0.10676697 0.006671514 0.05329635 -0.012054834 -0.028824853 -0.0591492 0.0010182613 0.020011244
-0.03681783 -0.08369976 -0.08930649 -0.019574674 -0.013467101 0.0660996 0.04566381 -0.017558975
0.08070152 -0.089121476 0.05635569 -0.006292572 0.017897472 -0.075267136 0.014129564 -0.053857476
0.005074746 -0.024736961 0.026020516 -0.016799578 -0.006332358 -0.06445821 -0.025748895 0.003487421
0.0102038225 0.010184088 0.005241503 -0.077847876 0.0051191445 0.014915742 -0.045327026 0.005559551
-0.0042885295 0.03527504 -0.0023519876 0.006313116 -0.08980573 -0.0473307 -0.06827144 -0.042412013
00000000: e577 dcba 6d90 c33c a015 c6bb ef3b 293d
00000010: 68d2 0abd 82cf 8dbc 150c d4bd a6c6 b8bd
00000020: d862 32bd 19ae cabc 2315 33bd 49ba 4c3d
00000030: ad98 593c bb1c dbbb f130 023d fccb a53c
00000040: 0178 0b3c fffb c0bb 5098 503a 2abd 273c
00000050: d371 0cbc 9e87 253c b517 b63d 95b7 43bd
00000060: d0ad 6ebd 81f1 8bbd d403 b8bd 3074 ffbc
00000070: fd21 79bd 9fd6 8bbc c293 41bb 656c c5bc
00000080: 8fb2 9e3b 4447 7ebd e1a5 0abb 07b2 c1bd
00000090: 9f0f 3d3c e884 9e3c 922a 8f3c 029c 59bb
000000a0: 27ee deba efd8 a5bd c991 033d 86d7 2fbc
000000b0: 7f62 dbbd 43bb 9e3c c291 0d3d f913 b6bd
000000c0: 359b a0bc 1b24 d03c 42df b5bd d569 a03d
000000d0: 1f8a 26bc 0721 80bd 5539 b8bd a69a 07bd
000000e0: 7831 91bc 035a 6c3d d5c4 143d 20d2 603c
000000f0: c8d7 ddbd 65d7 a73b 0773 e13a 55c6 e9bc
00000100: edd6 4dbc 115d d9bd 84e8 e6bd ae2d ddbc
00000110: ec53 bbbd fd40 51bd 6d88 f93b 1bd8 083d
00000120: c0e6 193c 814a a03c d301 983c 2a4c b0bc
00000130: ab42 033d c3ee 443d c638 0a3c 31b2 733c
00000140: 97fc a83d 7bed e3bc c43a b7bc f0e5 e1bc
00000150: 599d 39bd ce80 533c ccde e4bb 92f0 5e3d
00000160: fe56 91bc 408b 353c fdd2 f4bb f6da 303b
00000170: 8a18 7ebb 647d aabd cc3c 03bb 1b92 9ebd
00000180: 4bbb a23c 1187 2bbd 1f6f fb3b 609e 71bd
00000190: 38f5 bb3c 3b89 8cbc 7d7b 7c3c c9cd e0bd
000001a0: c09d ddbd f81b 64bd 766c eebd f38a 173c
000001b0: 1f7f 9fbc 37ac 8d3d 7f7b d5bc 979e 69bc
000001c0: 1f96 573c 6e81 c8bd 4801 d5bc 73e8 793d
000001d0: 215f 4cbc 1024 86bd 19bd b5bd 2254 1a3d
000001e0: 5644 88bd 1fed 2e3c abbf 093d 8889 b2bd
000001f0: e8f8 10bd 5494 70bd e239 7abd e303 e0bc
00000200: 1e6d 5bbd bd68 973b 03b8 803d 3116 61b8
00000210: 229a eebc b2ae 8ebd 3664 f1bc 9ed9 66bd
00000220: c9ad bbbd 5a0e 023d 495e 9f3c bea3 d3bd
00000230: 178b babd 250c 9d3b 3890 9b3c 805b 073c
00000240: 9762 8bbd 23f4 71bd 91d5 e2bc faf3 9d3c
00000250: 2198 3abd ff07 d6bc 2513 a93d 16c9 883c
00000260: 59fd 55bd 5553 cbbd 0144 50bd 1a28 763d
00000270: 6bdf 863c 5e2c 93bb 09dd 7e3a 67e1 b6bd
00000280: ee57 2dbd 86e0 913c 20d8 aebb 30c9 633a
00000290: 9df9 a43d b885 17be 220a 263c e1a9 46bd
000002a0: 624d fabd c653 b53c cbe8 4abd 73a9 70bd
000002b0: 8e3f 03bd 23ff a2bd 3394 7d3d 01c6 7f3c
000002c0: 8594 e9bc 43df 46bc 30f8 6c3d 03b6 94bd
000002d0: d99e 883d 1ebe 91bd b000 02bd 8d0b c93d
000002e0: 44ab e8bc 1b34 d0bd aba5 083e a8b1 1cbd
000002f0: 1ca1 42bd 46de e6bc 2fec 09bd e139 da3c
00000300: 88a3 06bd af60 32bd 7e36 a03d c5a4 17bd
00000310: ab77 0cbd 9b1e 9b3d 62cc c03a 93cc 933d
00000320: 4e1f debd 5285 24bd b87b b83d 91ce b3bc
00000330: 2347 f8bb f1d7 11bd 8385 8bbd 1d8a 4e3a
00000340: a4a8 dabd b79c da3b 464d 5a3d a381 45bc
00000350: 1922 ecbc 6e46 72bd 2e77 853a 9fee a33c
00000360: 4bce 16bd c86a abbd 52e6 b6bd 115b a0bc
00000370: 1ea5 5cbc 3a5f 873d fa09 3b3d d7d7 8fbc
00000380: d746 a53d 5285 b6bd 39d5 663d eb31 cebb
00000390: b89d 923c a825 9abd b07f 673c a899 5cbd
000003a0: 0e4a a63b 2ba5 cabc fa28 d53c 459f 89bc
000003b0: ab7f cfbb aa02 84bd 59ef d2bc 378d 643b
000003c0: ef2d 273c 29db 263c eac0 ab3b b56e 9fbd
000003d0: 7fbe a73b 2861 743c d5a8 39bd e52c b63b
000003e0: cb86 8cbb 8f7c 103d ce23 1abb 41de ce3b
000003f0: 11ec b7bd d6dd 41bd e6d1 8bbd 38b8 2dbd

action_model._discrete_distribution.branches.0.bias f4 [4]
0.13439608 -0.1537619 -0.100657776 0.12842986
00000000: 209f 093e c273 1dbe aa25 cebd 1e83 033e

action_model._discrete_distribution.branches.1.weight f4 [3, 256]
-0.012444215 0.005079137 -0.02385709 -0.00319564 -0.00991589 0.047897916 0.00387685 -0.011264394
0.028941927 0.00034302557 -0.014348691 -0.010432458 -0.014543459 0.0014218683 -0.012676717 0.061253566
0.051607016 0.028576773 -0.01474789 -0.008835408 0.020275446 0.043694846 0.013767418 -0.0030655134
0.0331565 0.057180163 -0.1585282 0.04521319 -0.028177757 -0.064533874 -0.010655841 0.011821936
0.007643618 7.527938e-05 0.0030686983 -0.0064675137 -0.054902226 0.032664903 -0.011128667 -0.06686859
0.04470965 0.0021004698 -0.025068056 -0.027769357 -0.030501766 0.0021820306 -0.011879416 -0.03142831
0.0015276006 -0.026088469 -0.013494622 -0.024106897 -0.05374637 -0.015161277 -0.07518222 0.055818543
-0.0158203 0.005675358 -0.056022525 -0.039077282 -0.015525441 0.026607053 0.02078472 0.027105141
0.017484702 -0.044341397 -0.03408324 0.09404895 -0.00070703524 -0.026422631 -0.010819162 -0.044873662
0.0059831687 -0.0004338767 -0.047149293 0.0055479314 0.01568963 0.032265622 0.006753321 -0.023504771
-0.004654646 0.0062067304 0.019393317 -0.015960554 0.0016452647 0.048905473 0.06895274 -0.025281116
0.006391115 0.011161106 -0.019774389 0.006534653 -0.024404328 0.003044852 0.015799042 -0.034332167
0.025307976 -0.023137707 0.0025917776 0.030831393 0.045943655 0.013500297 0.008130568 -0.15422378
-0.000657298 -0.010768113 -0.15033521 0.008259377 0.035288565 0.026541231 0.06786173 -0.0037987703
0.046170082 0.029607942 -0.0066564367 0.056033503 -0.034253623 -0.032268554 -0.062419135 0.040716782
-0.022409745 0.013904214 0.030937139 -0.08222089 0.010209295 -0.04295162 -0.14282739 -0.01314487
0.02463452 -0.026571741 -0.01343475 0.014228038 0.018084232 0.025256762 -0.093706824 0.0042173704
0.010700343 0.0123853125 -0.02864173 0.048185863 -0.11232267 0.041017756 0.016828315 0.014393491
-0.01592358 0.011938374 -0.012260164 0.022366816 0.00468835 0.08643366 0.02932122 0.0036779346
-0.0049619838 0.038031716 -0.0019046173 -0.02051108 -0.02189737 0.094036505 -0.019994617 -0.019768057
0.002821428 -0.009861376 0.0042796084 0.08323673 -0.059632692 -0.03974532 -0.02395232 0.095722094
-0.07358593 -0.020640831 -0.009029714 0.01173458 -0.0029816718 0.02221007 0.008506643 0.01451826
-0.01456316 0.0031157047 -0.01884219 -0.020649144 0.055636376 -0.019523751 0.019796478 0.030640483
0.015072811 -0.051397625 0.050931945 0.0048323954 -0.058110263 0.031703513 0.006766441 0.010618349
0.013629171 -0.0027987936 0.042172324 0.020827811 -0.007917025 -0.03521232 -0.0048738644 0.08770157
-0.033234335 0.045165807 0.018306077 0.0066426224 0.06283491 -0.00043044603 -0.11837507 -0.015301218
0.044163197 0.11228971 0.017858792 0.043459646 0.0025160774 0.03891607 0.011389312 -0.019106625
0.015022782 0.03963765 -0.01943177 -0.0026538232 -0.022809591 0.0395393 0.0029005967 -0.014782322
-0.13266043 0.021894619 0.06317019 0.0074419756 -0.0013273221 0.07903097 -0.0020284457 0.015638173
-0.013192967 0.014748143 0.09729275 -0.020357328 -0.005659845 -0.040755562 -0.0066134543 -0.03215824
-0.016392542 0.04568844 0.019812547 -0.065199964 0.015024158 0.026764426 0.03930228 0.017515114
0.0322817 0.07689999 -0.03201573 0.033669822 -0.06434483 0.010376534 0.015438022 -0.034446627
00000000: d2e2 4bbc e46e a63b f26f c3bc f16d 51bb
00000010: 4276 22bc 9b30 443d c012 7e3b 4b8e 38bc
00000020: 9f17 ed3c 1dd8 b339 c616 6bbc e6ec 2abc
00000030: b047 6ebc fc5d ba3a 01b2 4fbc 05e5 7a3d
00000040: e161 533d d619 ea3c 22a1 71bc 63c2 10bc
00000050: b118 a63c 5ef9 323d bd90 613c c8e6 48bb
00000060: 1ccf 073d bf35 6a3d 3755 22be 7731 393d
00000070: 0ad5 e6bc 562a 84bd d695 2ebc cbb0 413c
00000080: 5177 fa3b 4fdf 9d38 371c 493b 70ed d3bb
00000090: 28e1 60bd a2cb 053d 0355 36bc 66f2 88bd
000000a0: 7721 373d 09a8 093b 865b cdbc 907c e3bc
000000b0: d7de f9bc 6600 0f3b e2a1 42bc f9ba 00bd
000000c0: c539 c83a 7cb7 d5bc 8c18 5dbc d47b c5bc
000000d0: 2725 5cbd 0167 78bc 23f9 99bd fca1 643d
000000e0: 9399 81bc 5bf8 b93b e077 65bd 800f 20bd
000000f0: 6b5e 7ebc 09f7 d93c b844 aa3c 9a0b de3c
00000100: 143c 8f3c 539f 35bd de9a 0bbd bc9c c03d
00000110: 5558 39ba 4674 d8bc db42 31bc 72cd 37bd
00000120: 750e c43b f279 e3b9 9e1f 41bd 6ccb b53b
00000130: 8a87 803c f528 043d f64a dd3b 148d c0bc
00000140: 0086 98bb d461 cb3b bcde 9e3c b5bf 82bc
00000150: eca5 d73a 1b51 483d 1837 8d3d 581a cfbc
00000160: 8f6c d13b 12dd 363c e6fd a1bc a420 d63b
00000170: 96eb c7bc 248c 473b fe6c 813c e39f 0cbd
00000180: ac52 cf3c 4a8b bdbc d0da 293b 1e92 fc3c
00000190: 6a2f 3c3d 5a30 5d3c 1336 053c d7ec 1dbe
000001a0: 864e 2cba bd6c 30bc 79f1 19be 5752 073c
000001b0: be8a 103d ff6c d93c 17fb 8a3d caf4 78bb
000001c0: d71c 3d3d 5b8c f23c 3d1e dabb 6383 653d
000001d0: 874d 0cbd 082c 04bd 35ab 7fbd a4c6 263d
000001e0: a494 b7bc 80ce 633c e26f fd3c 6d63 a8bd
000001f0: e344 273c 0aee 2fbd 5841 12be 955d 57bc
00000200: 55ce c93c fbac d9bc 6d1d 5cbc b71c 693c
00000210: 6225 943c 45e7 ce3c 5de9 bfbd de31 8a3b
00000220: 7e50 2f3c c4eb 4a3c 10a2 eabc 8a5e 453d
00000230: 6e09 e6bd 3c02 283d 89db 893c add2 6b3c
00000240: 2b72 82bc 2b99 433c dbde 48bc 9d3a b73c
00000250: bba0 993b 2104 b13d 0e33 f03c 8109 713b
00000260: 2398 a2bb 25c7 1b3d 5aa4 f9ba da06 a8bc
00000270: 1d62 b3bc 3696 c03d c0cb a3bc 9ff0 a1bc
00000280: b5e7 383b 9c91 21bc f53b 8c3b 0578 aa3d
00000290: 6941 74bd fdcb 22bd a837 c4bc f209 c43d
000002a0: 38b4 96bd f616 a9bc 5ef1 13bc 6542 403c
000002b0: 2768 43bb e5f1 b53c 725f 0b3c ffdd 6d3c
000002c0: 529a 6ebc da30 4c3b f05a 9abc 6528 a9bc
000002d0: f8e2 633d 46f0 9fbc 392c a23c c001 fb3c
000002e0: f4f3 763c 5186 52bd 049e 503d 1259 9e3b
000002f0: 0705 6ebd 8bdb 013d 05b9 dd3b 95f8 2d3c
00000300: e34c 5f3c f76b 37bb e3bc 2c3d 169f aa3c
00000310: 69b6 01bc cb3a 10bd f0b4 9fbb e19c b33d
00000320: ba20 08bd c8ff 383d a0f6 953c 5baa d93b
00000330: 97af 803d 7dad e1b9 a16e f2bd f6b1 7abc
00000340: 78e4 343d 26f8 e53d 9a4c 923c be02 323d
00000350: c6e4 243b 7566 1f3d 3d9a 3a3c 7f85 9cbc
00000360: 1d22 763c 175b 223d 602f 9fbc c4eb 2dbb
00000370: 2edb babc f6f3 213d f017 3e3b 8d31 72bc
00000380: 23d8 07be 585c b33c 5f5f 813d d1db f33b
00000390: 8af9 adba fdda a13d acef 04bb a01b 803c
000003a0: 5027 58bc 32a2 713c 6c41 c73d 69c4 a6bc
000003b0: 3976 b9bb 4eef 26bd adb5 d8bb 5cb8 03bd
000003c0: a749 86bc cd23 3b3d ec4d a23c 8f87 85bd
000003d0: e327 763c 1241 db3c 6dfb 203d db7b 8f3c
000003e0: d139 043d be7d 9d3d ed22 03bd 5ee9 093d
000003f0: 39c7 83bd 5702 2a3c c2ef 7c3c e817 0dbd

action_model._discrete_distribution.branches.1.bias f4 [3]
0.08836685 -0.04070807 -0.030987045
00000000: aef9 b43d 81bd 26bd 8bd8 fdbc

onnx::Div_88 f4 [45]
0.08575912 0.14273079 0.3127908 0.0012436484 0.047572806 0.07578022 0.3979855 0.22459497
0.0024263596 0.06875754 0.072458826 0.25322658 0.2428553 0.0163115 0.06871422 0.006137321
0.49694934 0.111658946 0.0029463705 0.12837315 0.019998983 0.33168113 0.138411 0.0048003485
0.08104074 0.0021072242 0.4998137 0.05080569 0.0039956495 0.12059999 0.027896764 0.30424473
0.06881279 0.003580728 0.059977125 0.020314183 0.29133824 0.00022336606 0.0017011022 0.02753935
0.06537084 0.078001685 0.00022336606 0.00022336606 0.0222001
00000000: 7aa2 af3d 0528 123e 1e26 a03e ea01 a33a
00000010: b4db 423d a932 9b3d c1c4 cb3e 39fc 653e
00000020: 8f03 1f3b c1d0 8c3d 4b65 943d eaa6 813e
00000030: 0faf 783e b29f 853c 0aba 8c3d 941b c93b
00000040: 2570 fe3e 72ad e43d e517 413b 4074 033e
00000050: e8d4 a33c 1cd2 a93e 9dbb 0d3e 3e4c 9d3b
00000060: b0f8 a53d 5b19 0a3b 95e7 ff3e a119 503d
00000070: f0ed 823b 21fd f63d c187 e43c f7c5 9b3e
00000080: b8ed 8c3d a6aa 6a3b 93aa 753d ee69 a63c
00000090: 492a 953e 5f37 6a39 85f7 de3a 349a e13c
000000a0: 26e1 853d 59bf 9f3d 5f37 6a39 5f37 6a39
000000b0: fcdc b53c

onnx::Div_91 f4 [105]
0.00022336606 0.086685024 0.00022336606 0.0013769191 0.012618323 0.00022336606 0.085758775 0.00022336606
0.0018688102 0.011759301 0.00022336606 0.08686706 0.00022336606 0.0009736295 0.012683409 0.00022336606
0.07498726 0.00022336606 0.004336925 0.01603373 0.00022336606 0.06443317 0.00022336606 0.0009209613
0.011448451 0.00022336606 0.019417372 0.00022336606 0.0064038583 0.01780502 0.00022336606 0.024396187
0.00022336606 0.00049946166 0.011367059 0.00022336606 0.086698726 0.00022336606 0.0014647072 0.012125063
0.00022336606 0.08577121 0.00022336606 0.0019344019 0.011227509 0.00022336606 0.086889006 0.00022336606
0.0010476789 0.012194192 0.00022336606 0.07499751 0.00022336606 0.004365589 0.015682425 0.00022336606
0.06446489 0.00022336606 0.0009736295 0.01089508 0.00022336606 0.01942122 0.00022336606 0.0064194193
0.01750603 0.00022336606 0.024460377 0.00022336606 0.0005471328 0.010807323 0.00022336606 0.086713016
0.00022336606 0.0015475231 0.011609982 0.00022336606 0.08578419 0.00022336606 0.0019978413 0.010664777
0.00022336606 0.08691124 0.00022336606 0.0011389469 0.011684578 0.00022336606 0.07500775 0.00022336606
0.0043940665 0.015319069 0.00022336606 0.06449618 0.00022336606 0.0010476789 0.010312358 0.00022336606
0.019425068 0.00022336606 0.0064388188 0.017199865 0.00022336606 0.024525406 0.00022336606 0.0005909709
0.010215512
00000000: 5f37 6a39 eb87 b13d 5f37 6a39 bd79 b43a
00000010: 15bd 4e3c 5f37 6a39 4ca2 af3d 5f37 6a39
00000020: ddf2 f43a 15aa 403c 5f37 6a39 5be7 b13d
00000030: 5f37 6a39 2b3b 7f3a 13ce 4f3c 5f37 6a39
00000040: ec92 993d 5f37 6a39 c41c 8e3b 2b59 833c
00000050: 5f37 6a39 8af5 833d 5f37 6a39 ab6c 713a
00000060: 4992 3b3c 5f37 6a39 2e11 9f3c 5f37 6a39
00000070: 75d7 d13b d5db 913c 5f37 6a39 83da c73c
00000080: 5f37 6a39 4eee 023a e73c 3a3c 5f37 6a39
00000090: 1a8f b13d 5f37 6a39 6bfb bf3a 33a8 463c
000000a0: 5f37 6a39 d1a8 af3d 5f37 6a39 c28b fd3a
000000b0: 96f3 373c 5f37 6a39 ddf2 b13d 5f37 6a39
000000c0: 4552 893a 26ca 473c 5f37 6a39 4b98 993d
000000d0: 5f37 6a39 370d 8f3b 6e78 803c 5f37 6a39
000000e0: 2b06 843d 5f37 6a39 2b3b 7f3a 4781 323c
000000f0: 5f37 6a39 4019 9f3c 5f37 6a39 fe59 d23b
00000100: ce68 8f3c 5f37 6a39 2161 c83c 5f37 6a39
00000110: 766d 0f3a 3311 313c 5f37 6a39 9896 b13d
00000120: 5f37 6a39 42d6 ca3a cb37 3e3c 5f37 6a39
00000130: 9faf af3d 5f37 6a39 37ee 023b 51bb 2e3c
00000140: 5f37 6a39 85fe b13d 5f37 6a39 b748 953a
00000150: ac70 3f3c 5f37 6a39 aa9d 993d 5f37 6a39
00000160: 1afc 8f3b d5fc 7a3c 5f37 6a39 9316 843d
00000170: 5f37 6a39 4552 893a 2af5 283c 5f37 6a39
00000180: 5221 9f3c 5f37 6a39 bafc d23b bbe6 8c3c
00000190: 5f37 6a39 81e9 c83c 5f37 6a39 63eb 1a3a
000001a0: f65e 273c

onnx::Div_94 f4 [12]
0.00031588227 0.6591704 0.44365433 0.7601564 0.0002502381 0.00022336606 0.45247868 0.45247868
0.34189612 0.40575606 0.34169257 0.20961544
00000000: 009d a539 64bf 283f a926 e33e 9c99 423f
00000010: 6432 8339 5f37 6a39 49ab e73e 49ab e73e
00000020: 020d af3e 42bf cf3e 54f2 ae3e 6ea5 563e
