Usable_Data/one_car_self_park_2/PKWParking/PKWParking-27999921.onnx (onnx, 545202 bytes, 19 tensors)

discrete_act_size_vector f4 [1, 2]
4.0 3.0
00000000: 0000 8040 0000 4040

network_body.observation_encoder.processors.0.normalizer.running_mean f4 [45]
0.0 3.92847e-06 0.0 0.01749411 0.13922384 0.54853356 0.16580287 0.12893873
0.5505947 0.0 4.282224e-05 0.0 0.021473944 0.14144574 0.5420804 0.1806857
0.11425068 0.5453795 0.0 3.43577e-05 0.0 0.015471833 0.14524628 0.545161
0.22698219 0.06711023 0.514169 0.0 4.807247e-05 0.0 0.021999037 0.15007114
0.5332192 0.26823044 0.026442401 0.50157005 0.0 0.00026217598 0.0 0.021312911
0.14881243 0.5373434 0.2681323 0.024157714 0.45247233
00000000: 0000 0000 4dd1 8336 0000 0000 cf4f 8f3c
00000010: b290 0e3e b26c 0c3f 3ac8 293e 8408 043e
00000020: c6f3 0c3f 0000 0000 089c 3338 0000 0000
00000030: 20ea af3c 27d7 103e c8c5 0a3f ac05 393e
00000040: 43fc e93d fe9d 0b3f 0000 0000 4d1b 1038
00000050: 0000 0000 927d 7d3c 71bb 143e ac8f 0b3f
00000060: 056e 683e 1771 893d 94a0 033f 0000 0000
00000070: 6ca1 4938 0000 0000 5337 b43c 40ac 193e
00000080: 0e81 083f 8055 893e bc9d d83c e566 003f
00000090: 0000 0000 aa74 8939 0000 0000 6a98 ae3c
000000a0: 4962 183e 568f 093f a348 893e 66e6 c53c
000000b0: 74aa e73e

network_body.observation_encoder.processors.1.normalizer.running_mean f4 [20]
0.0009167844 0.0 0.012331202 0.5738132 0.000700902 0.0 0.010164282 0.557892
0.0008469603 0.0 0.010738541 0.56702775 0.00033303368 0.0 0.008214828 0.50264674
0.00070706673 0.0 0.00877323 0.5662932
00000000: 5c54 703a 0000 0000 cf08 4a3c 6ce5 123f
00000010: bdbc 373a 0000 0000 1788 263c 03d2 0e3f
00000020: 8b06 5e3a 0000 0000 b5f0 2f3c bb28 113f
00000030: 069b ae39 0000 0000 7c97 063c 75ad 003f
00000040: 725a 393a 0000 0000 98bd 0f3c 97f8 103f

network_body.observation_encoder.processors.2.normalizer.running_mean f4 [15]
0.111294106 0.8874192 0.9392054 0.1144929 0.8003832 0.9213961 0.121044986 0.8720263
0.93020344 0.105567575 0.5978025 0.81304204 0.12039191 0.8590336 0.9225659
00000000: 2aee e33d e82d 633f c46f 703f 417b ea3d
00000010: eae5 4c3f 9de0 6b3f 6fe6 f73d 1e3d 5f3f
00000020: d021 6e3f d033 d83d 9609 193f 8623 503f
00000030: 0990 f63d a0e9 5b3f 472d 6c3f

network_body.observation_encoder.processors.3.normalizer.running_mean f4 [168]
0.0 0.0023909644 0.022137022 0.14019226 0.7991293 0.003934557 0.031063706 0.18104942
0.0 0.07843375 0.008321646 0.1601249 0.68879056 0.035001665 0.02818918 0.16177195
0.0 0.007577122 0.038429458 0.12541412 0.79082704 0.007297876 0.029300082 0.17584914
0.0 0.28238562 0.012537986 0.16189426 0.5038511 0.0020789034 0.03607643 0.15738398
0.0 0.020651696 0.036496136 0.13150708 0.55244774 0.22852975 0.02921927 0.16003677
0.0 0.31015384 0.020195184 0.15545557 0.47916207 0.002351748 0.03149483 0.15003385
0.0 0.05844252 0.022360293 0.15036432 0.49186632 0.14621384 0.12958772 0.2464163
0.0 0.00239174 0.022195153 0.14056809 0.7992457 0.003936841 0.03108488 0.18115717
0.0 0.07844842 0.008336547 0.16053864 0.68888783 0.035008974 0.028214764 0.16188139
0.0 0.0075788554 0.03855004 0.12573375 0.7909472 0.00730087 0.029317576 0.17594899
0.0 0.28243673 0.012559112 0.16230145 0.50392175 0.0020795655 0.036101628 0.15748912
0.0 0.020654062 0.036596026 0.13183448 0.552521 0.22857483 0.029237803 0.16014177
0.0 0.3102078 0.020245258 0.1558427 0.4792363 0.0023523548 0.03150294 0.15008248
0.0 0.058445964 0.022422954 0.15073742 0.49193242 0.1462395 0.12962778 0.24652882
0.0 0.0023926212 0.022254007 0.14093103 0.7993626 0.0039390214 0.03110648 0.18126574
0.0 0.07846231 0.008351537 0.16093941 0.68898505 0.035016373 0.028240962 0.16198851
0.0 0.007580664 0.03867172 0.12603775 0.79105836 0.0073040393 0.029334845 0.17604624
0.0 0.282487 0.0125810355 0.16271035 0.50399446 0.0020803085 0.036125384 0.15759395
0.0 0.020656379 0.03670018 0.13216159 0.5525978 0.22861914 0.029256893 0.1602433
0.0 0.3102642 0.020291347 0.15622807 0.47930673 0.0023529492 0.031511053 0.15014169
0.0 0.05844945 0.022485966 0.15111354 0.49199754 0.14626503 0.12966661 0.24663801
00000000: 0000 0000 bab1 1c3b b358 b53c 8f8e 0f3e
00000010: bd93 4c3f 75ed 803b 5079 fe3c 0565 393e
00000020: 0000 0000 e0a1 a03d 8357 083c c8f7 233e
00000030: 9454 303f e85d 0f3d ffec e63c 8ca7 253e
00000040: 0000 0000 8249 f83b 3568 1d3d 8f6c 003e
00000050: a473 4a3f 0523 ef3b ba06 f03c cc11 343e
00000060: 0000 0000 d994 903e 206c 4d3c 9cc7 253e
00000070: 63fc 003f 363e 083b e1c4 133d 4429 213e
00000080: 0000 0000 bf2d a93c f97c 153d cba9 063e
00000090: 376d 0d3f b403 6a3e 405d ef3c aee0 233e
000000a0: 0000 0000 7ccc 9e3e 5f70 a53c bf2f 1f3e
000000b0: bb54 f53e c91f 1a3b b900 013d 79a2 193e
000000c0: 0000 0000 6d61 6f3d ef2c b73c 1bf9 193e
000000d0: e7d5 fb3e 15b9 153e a5b2 043e 8e54 7c3e
000000e0: 0000 0000 bdbe 1c3b 9cd2 b53c 15f1 0f3e
000000f0: 5e9b 4c3f 9e00 813b b8a5 fe3c 4481 393e
00000100: 0000 0000 91a9 a03d 0396 083c 3e64 243e
00000110: f45a 303f 9265 0f3d a622 e73c 3cc4 253e
00000120: 0000 0000 0c58 f83b a6e6 1d3d 59c0 003e
00000130: 847b 4a3f 233c ef3b 6a2b f03c f92b 343e
00000140: 0000 0000 8c9b 903e bcc4 4d3c 5a32 263e
00000150: 0401 013f 5249 083b 4ddf 133d d444 213e
00000160: 0000 0000 b532 a93c b7e5 153d 9eff 063e
00000170: 0472 0d3f 850f 6a3e 1e84 ef3c 34fc 233e
00000180: 0000 0000 8fd3 9e3e 62d9 a53c 3b95 1f3e
00000190: 765e f53e f729 1a3b 3a09 013d 39af 193e
000001a0: 0000 0000 0965 6f3d 58b0 b73c e95a 1a3e
000001b0: 91de fb3e cfbf 153e 25bd 043e 0d72 7c3e
000001c0: 0000 0000 86cd 1c3b 094e b63c 3950 103e
000001d0: 07a3 4c3f e812 813b 04d3 fe3c ba9d 393e
000001e0: 0000 0000 d9b0 a03d e3d4 083c 4dcd 243e
000001f0: 5361 303f 546d 0f3d 9759 e73c 51e0 253e
00000200: 0000 0000 3867 f83b 3d66 1e3d 0a10 013e
00000210: cd82 4a3f b956 ef3b a14f f03c 7745 343e
00000220: 0000 0000 23a2 903e b020 4e3c 8b9d 263e
00000230: c805 013f c955 083b 36f8 133d 4f60 213e
00000240: 0000 0000 9137 a93c ee52 163d 5e55 073e
00000250: 0d77 0d3f 231b 6a3e 27ac ef3c d216 243e
00000260: 0000 0000 f3da 9e3e 0a3a a63c 40fa 1f3e
00000270: b167 f53e f033 1a3b bc11 013d bebe 193e
00000280: 0000 0000 b168 6f3d 7d34 b83c 82bd 1a3e
00000290: 1ae7 fb3e 80c6 153e 53c7 043e ad8e 7c3e

network_body.observation_encoder.processors.4.normalizer.running_mean f4 [6]
0.99998546 -0.0017289027 0.00997379 0.95338964 -0.0393608 0.010399625
00000000: 0cff 7f3f 599c e2ba 1b69 233c 5811 743f
00000010: ca38 21bd 3063 2a3c

network_body._body_endoder.seq_layers.0.weight f4 [256, 254]
-0.10387351 0.027959567 -0.10254319 -0.009144421 0.056242127 0.059082583 -0.058979876 0.03727393
-0.027215205 -0.0031935996 -0.04505696 0.084746994 0.008213756 -0.033050153 0.076918654 -0.04346234
-0.15105885 -0.09441656 -0.030980613 0.03173491 -0.082421735 0.027558912 0.0030261092 -0.0050197705
0.014990267 -0.0902148 0.042433295 0.009278214 -0.035193935 -0.053841785 0.08731603 -0.046049893
0.027391814 -0.13291861 -0.009782149 -0.096144676 -0.0012604308 -0.09715381 -0.07248249 0.009223271
-0.020696564 0.043379463 -0.058195166 -0.06384359 -0.12005669 -0.11316972 0.08894747 0.07779732
0.048968185 -0.018107584 0.048334584 0.02584304 0.06485116 0.061060905 -0.080433324 -0.004763508
0.06022447 -0.0130182775 -0.12660134 0.08529929 0.14573702 -0.014709839 -0.027182342 0.10917405
0.20011075 0.08231319 -0.0937411 -0.14327893 0.04924802 0.0060932487 -0.112411276 -0.02365338
-0.11293693 -0.015915567 -0.0224006 0.054637097 0.030322237 -0.06899188 0.07108447 0.1210831
0.10664085 -0.13237634 -0.038461156 0.05848966 -0.008810949 -0.021162184 -0.029678345 -0.085815035
-0.053207602 -0.16272964 0.021613365 0.034143094 0.005447095 -0.064776756 -0.08574869 0.0698549
-0.056151267 -0.042173855 -0.04666134 -0.025103033 0.16860457 -0.07569843 -0.057042312 0.041784126
0.08944037 -0.080225654 0.06138599 -0.047118507 -0.07184594 -0.02457405 -0.07993805 -0.012681619
-0.051610418 0.005375722 0.041299712 -0.050903656 0.011518941 -0.018655764 -0.055966694 -0.116768956
-0.03319609 0.016204119 -0.1498845 0.0031188559 0.029546302 -0.058166374 -0.14936349 0.068294
0.0816763 0.0486706 -0.044827472 -0.119148955 -0.10769008 -0.086213775 0.049730707 0.12628607
0.0015342714 -0.019882808 -0.13334377 -0.065000296 0.06362375 -0.049101863 -0.0113663 0.00985344
-0.016407257 -0.09263557 -0.008621181 -0.038630154 -0.034762867 0.016877234 -0.084592514 0.045829166
-0.00852579 -0.09918512 0.06470145 -0.09923619 0.047955614 0.01378037 -0.052144513 -0.037913833
0.1109254 0.009092217 -0.022253381 0.074858405 -0.05687146 0.07472309 -0.06257359 0.06221877
0.09369672 -0.09183583 0.037572198 0.03369845 0.054238506 -0.10329253 -0.060333055 0.08810133
0.0071611675 0.0955605 -0.1165939 -0.04338595 0.0072166244 0.08571663 0.0069179274 0.081058875
-0.02621989 0.23482457 0.06357984 0.063745685 -0.054429986 0.1072656 -0.01240641 0.010936249
0.043787215 -0.088460036 -0.12093182 0.05722013 0.0833405 -0.069276914 -0.16074823 0.16423629
0.011164514 -0.13258043 -0.04557609 -0.09808793 0.0059758215 0.0722065 -0.13526948 0.030079938
0.085754976 -0.13632034 0.10122838 -0.0860456 0.004946599 -0.11532601 -0.017860861 0.014908241
0.064072505 0.044474743 -0.022166995 -0.02862253 -0.067704946 0.08362607 -0.04256181 -0.056651387
-0.05703432 -0.15075041 0.09991952 0.0067679454 -0.0075219823 -0.14617725 -0.12834202 0.08773888
0.106168 -0.007480103 -0.15176457 0.15503593 -0.09718738 0.0016115154 0.025270984 -0.022976877
0.09318887 0.09505339 -0.04699846 0.07061287 -0.0106132105 -0.05214871 0.044986606 0.029632384
0.109293155 -0.066320725 -0.018060619 0.06277068 -0.008794694 -0.012853081 0.102359734 -0.08310744
00000000: a3bb d4bd 760b e53c 2a02 d2bd 7bd2 15bc
00000010: 255e 663d 9400 723d e294 71bd 8cac 183d
00000020: 6cf2 debc b64b 51bb a68d 38bd d58f ad3d
00000030: fd92 063c 995f 07bd 8787 9d3d 9105 32bd
00000040: 2caf 1abe 785d c1bd 0ecb fdbc 77fc 013d
00000050: bacc a8bd 3ac3 e13c b051 463b e37c a4bb
00000060: bd99 753c 89c2 b8bd 89ce 2d3d a603 183c
00000070: 8427 10bd 3489 5cbd bfd2 b23d d09e 3cbd
00000080: cc64 e03c d11b 08be 4f45 20bc 80e7 c4bd
00000090: 0a35 a5ba 94f8 c6bd b371 94bd 341d 173c
000000a0: d78b a9bc aaae 313d 0e5e 6ebd 6ec0 82bd
000000b0: 48e0 f5bd 87c5 e7bd 172a b63d 3454 9f3d
000000c0: dd92 483d 5b56 94bc 7cfa 453d c8b4 d33c
000000d0: afd0 843d 001b 7a3d 3aba a4bd 3417 9cbb
000000e0: efad 763d 9d4a 55bc c8a3 01be 65b1 ae3d
000000f0: 163c 153e 8901 71bc 81ad debc a596 df3d
00000100: d5e9 4c3e d193 a83d 55fb bfbd b6b7 12be
00000110: 4bb8 493d e0a9 c73b e237 e6bd bcc4 c1bc
00000120: 7a4b e7bd 5d61 82bc 7781 b7bc 26cb 5f3d
00000130: 5766 f83c 9d4b 8dbd bc94 913d 6bfa f73d
00000140: 8566 da3d aa8d 07be 7289 1dbd db92 6f3d
00000150: cc5b 10bc 515c adbc 0020 f3bc cbbf afbd
00000160: 37f0 59bd 99a2 26be 830e b13c a1d9 0b3d
00000170: 8b7d b23b ada9 84bd 029d afbd 1610 8f3d
00000180: dffe 65bd 7ebe 2cbd f61f 3fbd e0a4 cdbc
00000190: ada6 2c3e c707 9bbd 33a5 69bd d525 2b3d
000001a0: 832c b73d 594d a4bd e06f 7b3d 56ff 40bd
000001b0: f723 93bd 854f c9bc 8fb6 a3bd 91c6 4fbc
000001c0: 7265 53bd d326 b03b e329 293d 5a80 50bd
000001d0: f1b9 3c3c f9d3 98bc 553d 65bd 9024 efbd
000001e0: a0f8 07bd 80be 843c 537b 19be b865 4c3b
000001f0: 160b f23c dd3f 6ebd bef2 18be badd 8b3d
00000200: e745 a73d d35a 473d 039d 37bd 5e04 f4bd
00000210: 9e8c dcbd d990 b0bd 6db2 4b3d 2351 013e
00000220: 9b19 c93a 45e1 a2bc 458b 08be e01e 85bd
00000230: 2b4d 823d 091f 49bd b839 3abc 5370 213c
00000240: 8368 86bc b8b7 bdbd db3f 0dbc a73a 1ebd
00000250: 8263 0ebd 2042 8a3c d73e adbd 5db7 3b3d
00000260: c1af 0bbc 9121 cbbd 3282 843d 583c cbbd
00000270: 1b6d 443d 10c7 613c 7c95 55bd 894b 1bbd
00000280: db2c e33d 86f7 143c b94c b6bc 5d4f 993d
00000290: 0cf2 68bd 6b08 993d 9526 80bd 1cd9 7e3d
000002a0: 11e4 bf3d 6c14 bcbd 4ee5 193d 6307 0a3d
000002b0: 3229 5e3d 098b d3bd cb1f 77bd 786e b43d
000002c0: 3aa8 ea3b 39b5 c33d c8c8 eebd 77b5 31bd
000002d0: 6f79 ec3b 338c af3d c8af e23b 3202 a63d
000002e0: 18cb d6bc da75 703e 2636 823d 198d 823d
000002f0: faf1 5ebd 11ae db3d 4144 4bbc f42d 333c
00000300: 395a 333d 892a b5bd 1aab f7bd a85f 6a3d
00000310: 6dae aa3d 0ee1 8dbd 2f9b 24be 8f2d 283e
00000320: 5eeb 363c 2ac3 07be ffad 3abd 53e2 c8bd
00000330: d3d0 c33b 00e1 933d 1584 0abe 346a f63c
00000340: 4ea0 af3d 8f97 0bbe d350 cf3d ad38 b0bd
00000350: 1417 a23b 0b30 ecbd f150 92bc b241 743c
00000360: 7238 833d 262b 363d 8f97 b5bc cc79 eabc
00000370: e4a8 8abd 2544 ab3d 4b55 2ebd 490b 68bd
00000380: d29c 69bd 515e 1abe 9ba2 cc3d a4c5 dd3b
00000390: f67a f6bb 7daf 15be 176c 03be 71b0 b33d
000003a0: 9c6e d93d a71b f5bb 2c68 1bbe bdc1 1e3e
000003b0: 2d0a c7bd 7c39 d33a 1805 cf3c 013a bcbc
000003c0: ced9 be3d 5aab c23d 7581 40bd 7b9d 903d
000003d0: 08e3 2dbc e399 55bd e043 383d 9dbf f23c
000003e0: 17d5 df3d 29d3 87bd ddf3 93bc ea8d 803d
000003f0: 9f17 10bc bb95 52bc fba1 d13d 3c34 aabd

network_body._body_endoder.seq_layers.0.bias f4 [256]
-0.0018531086 -0.009164324 -0.0075090867 0.06454225 0.033186004 -0.01212368 0.028198868 0.010359279
-0.0033186974 0.004833928 -0.05315081 -0.0279049 -0.019701555 0.0037751258 0.0052853003 -0.03911372
-0.022233238 -0.034591895 -0.014725201 -0.04417642 -0.011774945 -0.0010085084 0.0012249106 0.018613588
-0.021133281 -0.018236404 -0.012662484 0.0057707713 -0.0032234117 0.009328451 -0.008318128 0.016363498
-0.053525735 -0.030749116 -0.025484618 -0.021342123 -0.01891184 0.022352103 -0.0029879173 -0.017279943
-0.016657598 -0.02661956 -0.01716135 -0.043424014 0.014215249 -0.029458918 -0.017630978 -0.07653452
-0.023363052 0.012445696 -0.014466381 -0.039004464 -0.04134642 0.0011663957 0.01991465 -0.0028784103
-0.025409702 -0.00013354419 0.014091122 0.0042421203 -0.0048666005 -0.06554908 0.013880939 0.0131296655
0.0041388124 -0.011173243 0.0033148006 0.0316676 -0.03650969 -0.02268728 -0.029543914 -0.041112434
-0.038136665 -0.041887432 0.027450519 0.019374901 -0.044954468 0.002535401 0.024170319 -0.0300251
-0.047271844 -0.012137767 -0.03536562 0.008151251 0.033432532 -0.045689367 0.006555465 -0.043442994
-0.0077903024 0.018722406 -0.018651372 0.020165097 0.03483156 0.036150202 -0.03807355 -0.066406004
-0.07561613 -0.010425165 0.010042809 -0.041524857 -0.044813547 0.009577628 -0.024601715 -0.059478454
-0.017876081 0.005194724 0.0030206149 0.09325153 0.0061108707 -0.01021568 0.008483598 -0.016204417
-0.006701807 0.016278695 0.008635658 -0.014439588 -0.03113782 0.00539146 0.022953337 -0.041372105
-0.04484183 -0.052821506 -0.039864246 -0.047649078 -0.0072485143 0.008503839 -0.028906109 0.00060402363
-0.061123494 0.00043713636 -0.020319728 0.0052828463 0.015280816 -0.018007556 -0.0020583274 -0.00979466
0.03694293 0.018575585 -0.025951307 0.0021917163 -0.047588244 -0.028484508 -0.012690318 -0.025625851
-0.022093317 0.0013391686 -0.029812345 -0.030732863 0.080788754 -0.034418125 -0.055269007 0.017208721
0.009805656 0.01181018 0.005949866 -0.027333612 -0.065448344 -0.02160965 0.014463117 -0.020274146
-0.01271736 -0.035613623 0.0032590018 0.035617452 0.0112189185 -0.042336445 0.020130532 -0.060060218
-0.02068842 -0.054988712 -0.04776331 -0.050475862 -0.02636696 -0.019180618 -0.0042721857 0.029139167
-0.037116405 0.0011683555 0.004083718 0.0059777754 0.016856996 -0.03341846 -0.03947996 -0.021012941
0.026241777 -0.030932892 -0.009650209 -0.017841972 -0.037923846 -0.07583628 -0.016498236 0.0008708649
0.017936071 -0.03992163 -0.041930135 -0.007838592 0.027237687 -0.023063269 0.004737192 0.004499661
0.008931901 -0.014808018 -0.06251366 -0.019547865 -0.03476366 -0.0071517993 0.0016741172 -0.042908173
0.0114458725 -0.05600525 -0.027885599 0.010421492 0.007787426 -0.020676943 0.062278774 -0.04474511
-0.02933747 0.021355843 -0.01937176 -0.0353376 -0.015479617 -0.00969044 -0.049763758 -0.07201594
-0.052965388 -0.04575769 -0.006752818 -0.007947994 -0.018626928 -0.017115222 -0.04055482 0.009469433
0.0045141717 0.02173442 0.016424289 -0.03218138 -0.023496158 -0.028178366 0.009136977 -0.04977579
0.0023862913 0.00955423 -0.0478426 -0.041044593 -0.022073258 -0.035726603 -0.007105696 -0.04110991
0.0062747006 -0.0018489889 -0.06202025 -0.037368983 -0.00037751213 0.014414862 -0.016230559 0.0004390397
00000000: 02e4 f2ba f625 16bc c90e f6bb ba2e 843d
00000010: 0cee 073d 66a2 46bc 5001 e73c f7b9 293c
00000020: 817e 59bb ed65 9e3b aab4 59bd d198 e4bc
00000030: 2865 a1bc 1a68 773b 5030 ad3b b535 20bd
00000040: 7b22 b6bc 3bb0 0dbd f841 71bc 55f2 34bd
00000050: b3eb 40bc ed2f 84ba 2e8d a03a 867b 983c
00000060: b41f adbc 8364 95bc 4f76 4fbc bd18 bd3b
00000070: e03f 53bb 5cd6 183c c248 08bc be0c 863c
00000080: cd3d 5bbd 92e5 fbbc 1ec5 d0bc add5 aebc
00000090: 01ed 9abc c21b b73c efd0 43bb ab8e 8dbc
000000a0: 8475 88bc 4311 dabc f695 8cbc 61dd 31bd
000000b0: 13e7 683c d453 f1bc d76e 90bc 21be 9cbd
000000c0: df63 bfbc 08e9 4b3c 6604 6dbc 25c3 1fbd
000000d0: dd5a 29bd bfe1 983a 0c24 a33c b6a3 3cbb
000000e0: 0228 d0bc ff07 0cb9 73de 663c 7c01 8b3b
000000f0: 0178 9fbb 993e 86bd e16c 633c cf1d 573c
00000100: e09e 873b fa0f 37bc 203d 593b e3b5 013d
00000110: 2f8b 15bd adda b9bc 1406 f2bc 8365 28bd
00000120: 3135 1cbd 2892 2bbd e9df e03c 1db8 9e3c
00000130: 2d22 38bd f828 263b d500 c63c 33f7 f5bc
00000140: 1fa0 41bd 7cdd 46bc 8adb 10bd d38c 053c
00000150: 8df0 083d c624 3bbd 3acf d63b 48f1 31bd
00000160: cb45 ffbb bb5f 993c c3ca 98bc 4631 a53c
00000170: 8aab 0e3d 3c12 143d 03f3 1bbd dfff 87bd
00000180: a1dc 9abd 50ce 2abc 988a 243c f815 2abd
00000190: 698e 37bd 7ceb 1c3c 8989 c9bc ae9f 73bd
000001a0: dc70 92bc 8138 aa3b 82f5 453b a8fa be3d
000001b0: b33d c83b ab5f 27bc cafe 0a3c 20bf 84bc
000001c0: d59a dbbb e65a 853c 937c 0d3c 0694 6cbc
000001d0: be14 ffbc d8aa b03b a308 bc3c cc75 29bd
000001e0: 11ac 37bd 5d5b 58bd b148 23bd ae2b 43bd
000001f0: f284 edbb b053 0b3c 81cc ecbc 5757 1e3a
00000200: a15c 7abd 732f e539 8f75 a6bc ba1b ad3b
00000210: 635c 7a3c 9584 93bc 01e5 06bb c879 20bc
00000220: 7851 173d d32b 983c d697 d4bc e6a2 0f3b
00000230: e4eb 42bd 5858 e9bc 0deb 4fbc 4eed d1bc
00000240: 0bfd b4bc 0b87 af3a 0539 f4bc 7cc3 fbbc
00000250: 9374 a53d 05fa 0cbd c161 62bd 4ef9 8c3c
00000260: e7a7 203c 7c7f 413c 18f7 c23b bdea dfbc
00000270: c809 86bd b906 b1bc b6f6 6c3c f715 a6bc
00000280: 795c 50bc 97df 11bd fa94 553b 9be3 113d
00000290: 8ecf 373c fb68 2dbd c9e8 a43c b401 76bd
000002a0: c37a a9bc d83b 61bd 76a3 43bd c7bf 4ebd
000002b0: 86ff d7bc ac20 9dbc b1fd 8bbb 43b5 ee3c
000002c0: 5f07 18bd 8123 993a b6d0 853b 37e1 c33b
000002d0: af17 8a3c cce1 08bd bdb5 21bd 5523 acbc
000002e0: fff8 d63c fa66 fdbc e91b 1ebc 5429 92bc
000002f0: 0956 1bbd 0d50 9bbd 4f27 87bc c14a 643a
00000300: abee 923c dd84 23bd efbe 2bbd 706d 00bc
00000310: 9221 df3c 2eef bcbc 723a 9b3b e471 933b
00000320: 1c57 123c 549d 72bc 2907 80bd d822 a0bc
00000330: 5764 0ebd a459 eabb 0d6e db3a 7bc0 2fbd
00000340: 7887 3b3c c365 65bd 5770 e4bc e8be 2a3c
00000350: aa2d ff3b b162 a9bc 0718 7f3d a646 37bd
00000360: 2255 f0bc 73f2 ae3c 86b1 9ebc 29be 10bd
00000370: 389e 7dbc a7c4 1ebc 15d5 4bbd 187d 93bd
00000380: 3cf2 58bd 6a6c 3bbd be46 ddbb 4e38 02bc
00000390: 8097 98bc 3935 8cbc d01c 26bd ae25 1b3c
000003a0: 9eeb 933b 620c b23c 3b8c 863c 9fd0 03bd
000003b0: 047b c0bc 51d6 e6bc 42b3 153c b3e1 4bbd
000003c0: 5363 1c3b 5889 1c3c 9af6 43bd 601e 28bd
000003d0: fad2 b4bc 0f56 12bd e6d6 e8bb dd62 28bd
000003e0: 019c cd3b c659 f2ba f208 7ebd 3810 19bd
000003f0: d2ec c5b9 502c 6c3c f3f5 84bc e92e e639

network_body._body_endoder.seq_layers.2.weight f4 [256, 256]
-0.06633125 -0.06281066 -0.02557138 -0.016969781 -0.16299093 0.13815866 -0.06487271 0.011335078
0.0683768 0.10807629 0.06048605 0.059062265 -0.03291227 0.007972103 -0.07169961 0.0013808644
0.029082842 -0.08422131 0.08316603 0.17638212 -0.048627555 -0.033152033 -0.025878754 -0.032312296
-0.06626877 0.03487281 0.016018745 -0.07296927 -0.054198433 0.055229355 0.1677346 -0.0525995
-0.07978955 -0.052377906 0.044094056 0.049993392 0.017315933 -0.03312353 0.09745615 -0.019296383
0.052378625 -0.07599186 0.013393113 -0.070827864 -0.14423828 -0.043498058 0.010593953 -0.018139083
-0.055718876 -0.0047907196 0.021028325 -0.10242629 0.020388523 0.028517319 -0.040212404 -0.051751383
0.06585836 0.10911108 0.08603021 0.016133606 -0.11570045 0.051416356 0.064679615 0.031830907
-0.032538176 0.041703194 -0.05895191 -0.110310376 -0.038920365 0.08055252 0.0886316 0.0061732475
-0.03402629 -0.116308674 0.016074171 -0.16970353 0.018921375 0.016972328 0.007340087 -0.011831945
0.020421054 -0.030376984 0.037523616 -0.1314672 -0.035772543 0.011276498 -0.12683658 0.10618599
0.025530633 0.023201616 -0.091324635 0.009006702 0.0026344415 -0.16531886 0.1083749 -0.053059842
-0.03931834 0.028276512 -0.108905606 -0.068266734 0.046956006 0.10826917 -0.06495512 -0.10944382
0.035188507 -0.040945027 -0.026718112 -0.07869062 -0.011892309 -0.15993589 -0.059383858 0.029384773
-0.022092879 0.07642342 -0.0908969 -0.013495961 -0.024151333 0.01569217 -0.00787022 -0.0265702
0.007443709 0.026679551 0.074735284 -0.039942402 0.04738699 -0.16626096 -0.019848129 0.025976928
0.07348654 -0.09491738 0.002646168 -0.15811376 -0.018424928 -0.029885327 0.016771885 -0.06613917
-0.09447626 -0.050066262 -0.0008487137 -0.059117302 0.0076539493 0.037585124 0.097480096 0.018734489
-0.02970552 -0.06278667 -0.000725736 0.009732935 0.008429137 -0.01893058 0.14024906 -0.13133961
-0.06823486 -0.01799721 -0.13788539 -0.15774885 -0.071513444 -0.077653356 -0.024085976 -0.045267954
0.013058253 0.026328165 0.0008093385 -0.039535336 -0.07254341 0.06500608 -0.009798609 0.010892656
0.023648433 -0.045614466 0.03222736 -0.02112929 0.027085107 -0.11827326 -0.027863573 -0.13586372
-0.08976503 -0.022624983 0.0058307266 -0.065913774 0.023532782 0.090823755 0.041650597 0.008396238
0.02381405 0.06823204 0.01778358 -0.07192806 0.0031401846 -0.02483229 -0.023186063 0.031369906
-0.03955424 0.08247337 0.046738237 0.053040475 -0.13693736 0.018148413 0.12794553 0.07525754
0.053413983 -0.14193295 0.015787205 -0.12842622 0.035967886 -0.07446843 -0.016392056 0.011582495
-0.032253046 -0.0042068874 0.018214995 -0.02156709 -0.008694166 -0.07240723 -0.14371824 0.06120052
0.025231358 -0.026427224 0.05589426 0.024463488 0.08672322 -0.04559751 0.022157295 -0.010687424
0.06861119 -0.10793207 0.03095999 0.008669296 0.08124988 -0.022379227 -0.0585779 -0.050306533
-0.10232792 -0.066186465 -0.06254083 -0.052198593 0.029030574 0.09409533 -0.017490432 -0.04509971
0.074597254 0.035632424 0.0065342374 0.1215076 0.10160496 0.017092269 -0.120430954 -0.022365414
-0.037571963 0.12292015 0.08748056 -0.010094694 0.027591767 -0.03326737 -0.09815727 0.012452761
00000000: aed8 87bd e0a2 80bd 127b d1bc 3604 8bbc
00000010: 18e7 26be 7779 0d3e fcdb 84bd c3b6 393c
00000020: 2309 8c3d 1a57 dd3d 38c0 773d 46eb 713d
00000030: 04cf 06bd 6c9d 023c 3fd7 92bd 1ffe b43a
00000040: 243f ee3c 397c acbd f452 aa3d 849d 343e
00000050: b02d 47bd 6dca 07bd aeff d3bc e659 04bd
00000060: ecb7 87bd cbd6 0e3d be39 833c ea70 95bd
00000070: 2dff 5dbd 2d38 623d 9ec2 2b3e 9372 57bd
00000080: b468 a3bd 378a 56bd f89b 343d dfc5 4c3d
00000090: 25da 8d3c 8aac 07bd 1797 c73d 7313 9ebc
000000a0: f88a 563d 9fa1 9bbd ca6e 5b3c 330e 91bd
000000b0: 33b3 13be 052b 32bd 4292 2d3c 6a98 94bc
000000c0: 7a39 64bd 78fb 9cbb 9843 ac3c e0c4 d1bd
000000d0: d505 a73c 279d e93c c3b5 24bd 42f9 53bd
000000e0: bfe0 863d a175 df3d 9b30 b03d a02a 843c
000000f0: 5cf4 ecbd f599 523d bf76 843d 2061 023d
00000100: c046 05bd f8d0 2a3d 8f77 71bd 68ea e1bd
00000110: f66a 1fbd b8f8 a43d 7c84 b53d f448 ca3b
00000120: 275f 0bbd 3e33 eebd fbad 833c c3c6 2dbe
00000130: 0001 9b3c 8d09 8b3c 1d85 f03b c6da 41bc
00000140: 0e4a a73c 27d9 f8bc 5db2 193d 569f 06be
00000150: 3b86 12bd 10c1 383c 73e1 01be 0a78 d93d
00000160: 9e25 d13c 5111 be3c 6908 bbbd d990 133c
00000170: 98a6 2c3b 5949 29be a9f3 dd3d 4755 59bd
00000180: 450c 21bd 25a4 e73c e709 dfbd 6ecf 8bbd
00000190: f154 403d 3abc dd3d 3107 85bd 1524 e0bd
000001a0: d321 103d f9b5 27bd f1df dabc 8c28 a1bd
000001b0: f6d7 42bc 3cc6 23be 7d3c 73bd 56b8 f03c
000001c0: 20fc b4bc e283 9c3d 2728 babd 2a1e 5dbc
000001d0: 04d9 c5bc de8c 803c 18f2 00bc c0a9 d9bc
000001e0: 5bea f33b 138f da3c d00e 993d a59a 23bd
000001f0: dc18 423d 5040 2abe 8b98 a2bc 91cd d43c
00000200: 1c80 963d 0b64 c2bd 556b 2d3b 93e8 21be
00000210: e0ef 96bc 13d2 f4bc 3165 893c f973 87bd
00000220: c57c c1bd 4812 4dbd 367c 5eba fc24 72bd
00000230: fbcd fa3b dcf2 193d a5a3 c73d 1279 993c
00000240: fe58 f3bc 4c96 80bd 523f 3eba e376 1f3c
00000250: 5d1a 0a3c 4e14 9bbc 739d 0f3e e47d 06be
00000260: b8be 8bbd e36e 93bc d431 0dbe ea88 21be
00000270: a475 92bd b908 9fbd f44f c5bc e46a 39bd
00000280: 48f2 553c 2aae d73c ca29 543a ceef 21bd
00000290: a491 94bd e821 853d 588a 20bc 1c77 323c
000002a0: 5cba c13c 3cd6 3abd d600 043d 5517 adbc
000002b0: 96e1 dd3c 4039 f2bd 2642 e4bc dc1f 0bbe
000002c0: bad6 b7bd 0758 b9bc ae0f bf3b cdfd 86bd
000002d0: d2c7 c03c ce01 ba3d d199 2a3d 6090 093c
000002e0: af15 c33c 3dbd 8b3d dfae 913c 054f 93bd
000002f0: 8ecb 4d3b 166d cbbc b3f0 bdbc bb7d 003d
00000300: a003 22bd cce7 a83d 9870 3f3d f840 593d
00000310: 4f39 0cbe fbab 943c 2704 033e a020 9a3d
00000320: 9fc8 5a3d df56 11be 2b54 813c 2a82 03be
00000330: 1053 133d e782 98bd a248 86bc 81c4 3d3c
00000340: c51b 04bd eed9 89bb 9d37 953c 77ad b0bc
00000350: fa71 0ebc 3e4a 94bd e02a 13be 65ad 7a3d
00000360: feb1 ce3c e87d d8bc 61f1 643d a767 c83c
00000370: f29b b13d 74c4 3abd 3783 b53c 4e1a 2fbc
00000380: 0684 8c3d 7d0b ddbd ce9f fd3c aa09 0e3c
00000390: 5666 a63d a454 b7bc 61ef 6fbd 390e 4ebd
000003a0: 4d91 d1bd c58c 87bd 6815 80bd 31ce 55bd
000003b0: 87d1 ed3c 0db5 c03d 1848 8fbc 79ba 38bd
000003c0: 72c6 983d 4ef3 113d 281d d63b fad8 f83d
000003d0: 4316 d03d 1605 8c3c 81a4 f6bd ac37 b7bc
000003e0: 0fe5 19bd 8fbd fb3d 0229 b33d 3764 25bc
000003f0: 2108 e23c 5e43 08bd ae06 c9bd aa06 4c3c

network_body._body_endoder.seq_layers.2.bias f4 [256]
-0.06446714 -0.0123451 -0.032766826 -0.03141451 -0.05772701 -0.02697433 -0.02081515 -0.017217437
-0.07044594 0.00022898318 -0.04689866 -0.03546399 -0.025402091 -0.028759535 -0.02973723 -0.019145135
-0.07481995 -0.025934689 -0.039964594 -0.01977246 -0.017251456 -0.025044266 0.00819774 -0.011888362
0.0059070317 -0.029409911 -0.057653412 -0.04436332 -0.063702874 -0.02292209 -0.04209615 0.024449447
-0.048923206 -0.03353849 -0.05279321 0.008083031 -0.0074214726 -0.016069064 -0.024013354 -0.02475319
0.012652126 -0.0047360333 -0.03388382 -0.023785302 0.005947813 -0.042118095 -0.028333776 -0.0046250834
-0.036788937 -0.034737933 -0.06399928 -0.04106769 -0.020042023 0.0012361724 -0.0275949 -0.04170597
-0.013316026 -0.04253755 -0.03206787 -0.017382978 -0.012110188 -0.033024624 -0.02801169 -0.014637906
-0.06395107 -0.039376512 -0.028320407 -0.02936702 -0.013255823 -0.004504129 -0.032967966 -0.029945843
-0.019861668 -0.0038995622 -0.026129898 -0.017313639 -0.03921893 -0.029069271 -0.011893817 -0.06867331
-0.017701527 -0.06300176 -0.046873264 -0.029871643 0.004414864 -0.045854274 -0.0066921967 -0.014110684
-0.009988987 -0.030353313 -0.07524409 -0.028875597 -0.021935869 0.0065202736 -0.044507235 -0.0058918847
0.0038257188 -0.06773987 0.019283812 0.02435849 -0.016345408 -0.014396312 -0.014115046 -0.032897796
-0.049378708 0.0008907903 -0.02793522 -0.04607112 -0.0030107256 -0.06667568 -0.046637952 -0.02659089
-0.03577742 -0.040704656 0.0070937895 -0.0038707987 -0.028955368 -0.033144638 -0.0577458 -0.009681612
-0.03794722 -0.02366069 -0.00755891 -0.06178995 -0.013282523 -0.026488265 -0.03200048 -0.022642447
-0.027159316 -0.0072374744 -0.027947923 -0.023017554 -0.021980844 -0.003583067 0.0058282358 -0.032840185
-0.047385402 -0.032497104 -0.0077948547 -0.021126604 -0.014128261 -0.046615925 -0.0066731363 -0.05008939
0.01424149 -0.021680066 -0.008566842 -0.0628621 -0.013885116 -0.058902692 0.029659105 0.008229622
-0.03613001 0.0007250574 -0.047512386 -0.05510893 -0.019572888 -0.01562227 -0.042928215 0.012395422
-0.026343215 -0.022107355 -0.062867284 -0.02472671 0.024124326 -0.016149463 0.0012729325 -0.024699405
-0.02931532 -0.054856267 0.008357677 -0.042665225 -0.018645225 -0.012290381 -0.01458144 -0.007853713
-0.03237991 -0.040149692 -0.018172655 -0.0016378758 -0.03527533 -0.0675378 -0.060135122 -0.04591916
-0.02512549 -0.039742228 0.0014035515 -0.02249345 0.0038448812 -0.03010164 -0.072696716 -0.0067376746
-0.029124254 -0.025678648 -0.041436996 -0.041817777 -0.06077857 -0.036120195 -0.004446836 0.0079021
-0.020708969 -0.020929465 -0.04132552 -0.019002138 -0.045961786 -0.0012362365 -0.042942874 -0.012134143
-0.04883165 0.0059040203 -0.04975199 0.011335581 -0.04456228 -0.035479683 0.02183921 0.028555593
-0.042799696 -0.026910635 0.0021760385 -0.034278065 -0.06481621 0.010881704 -0.041643023 -0.017521154
-0.022758938 -0.003339889 -0.052559577 -0.04936043 -0.042088002 -0.027342154 0.003426506 -0.01787674
-0.019750578 -0.024647422 -0.009127904 -0.06269113 -0.0094299875 -0.030013097 -0.0152949905 -0.06396172
-0.0026708338 -0.058400687 -0.049169615 -0.009494074 -0.024694288 0.001924535 -0.01662762 -0.020088864
-0.0105246855 -0.057357058 -0.016795084 -0.033458546 -0.034973834 0.0040288446 -0.022229174 -0.01699487
00000000: 5907 84bd 1a43 4abc 8236 06bd 80ac 00bd
00000010: 2873 6cbd 45f9 dcbc 8984 aabc 950b 8dbc
00000020: f645 90bd 341b 7039 cf18 40bd b042 11bd
00000030: 0c18 d0bc 1e99 ebbc 7e9b f3bc 42d6 9cbc
00000040: 343b 99bd fc74 d4bc eab1 23bd dbf9 a1bc
00000050: ed52 8dbc a229 cdbc d04f 063c 67c7 42bc
00000060: c68f c13b 0eed f0bc fc25 6cbd 50b6 35bd
00000070: a776 82bd 1bc7 bbbc 036d 2cbd 354a c83c
00000080: b363 48bd a85f 09bd b13d 58bd b06e 043c
00000090: d32f f3bb 45a3 83bc a7b7 c4bc 34c7 cabc
000000a0: dd4a 4f3c ba30 9bbb c3c9 0abd 65d9 c2bc
000000b0: dfe5 c23b 0684 2cbd 3c1c e8bc 038e 97bb
000000c0: ffaf 16bd 5d49 0ebd 0e12 83bd 9836 28bd
000000d0: 2b2f a4bc 1007 a23a b30e e2bc e1d3 2abd
000000e0: 762b 5abc db3b 2ebd 9959 03bd bf66 8ebc
000000f0: cf69 46bc d444 07bd c678 e5bc d4d3 6fbc
00000100: c7f8 82bd 4449 21bd 3300 e8bc 1b93 f0bc
00000110: f42e 59bc 5f97 93bb 6b09 07bd fc50 f5bc
00000120: f0b4 a2bc cc8f 7fbb 5e0e d6bc 55d5 8dbc
00000130: 07a4 20bd ae22 eebc 49de 42bc 98a4 8cbd
00000140: cb02 91bc 1107 81bd 2efe 3fbd 60b5 f4bc
00000150: 90aa 903b b1d1 3bbd 374a dbbb 8030 67bc
00000160: d9a8 23bc 83a7 f8bc 9319 9abd 848c ecbc
00000170: dab2 b3bc 05a8 d53b 384d 36bd b610 c1bb
00000180: e9b8 7a3b 33bb 8abd 16f9 9d3c 758b c73c
00000190: cee6 85bc 82de 6bbc cb42 67bc d7bf 06bd
000001a0: 5441 4abd ed83 693a 67d8 e4bc 12b5 3cbd
000001b0: 984f 45bb 428d 88bd 7007 3fbd 23d5 d9bc
000001c0: 588b 12bd edb9 26bd 0573 e83b 3aad 7dbb
000001d0: cf33 edbc acc2 07bd dc86 6cbd a09f 1ebc
000001e0: 8b6e 1bbd 10d4 c1bc bcb0 f7bb 7517 7dbd
000001f0: f09e 59bc ebfd d8bc ef12 03bd a77c b9bc
00000200: 377d debc 5628 edbb 0bf3 e4bc 4f8f bcbc
00000210: 2c11 b4bc e4d1 6abb c9fa be3b 6e83 06bd
00000220: 3217 42bd af1b 05bd fb6b ffbb b311 adbc
00000230: 397a 67bc 57f0 3ebd 53aa dabb 882a 4dbd
00000240: 2355 693c 659a b1bc f15b 0cbc d8bd 80bd
00000250: 667e 63bc f343 71bd a7f7 f23c 89d5 063c
00000260: 10fd 13bd c711 3e3a 599c 42bd e7b9 61bd
00000270: 5257 a0bc 8df4 7fbc 7fd5 2fbd 2b16 4b3c
00000280: bacd d7bc 7c1a b5bc 90c0 80bd ab8f cabc
00000290: 61a0 c53c e14b 84bc 87d8 a63a 6856 cabc
000002a0: af26 f0bc f7b0 60bd a3ee 083c bbc1 2ebd
000002b0: dfbd 98bc 985d 49bc fee6 6ebc dcac 00bc
000002c0: cca0 04bd 0174 24bd d2de 94bc fead d6ba
000002d0: dd7c 10bd 4251 8abd 3f50 76bd bb15 3cbd
000002e0: f9d3 cdbc bfc8 22bd 60f7 b73a 2f44 b8bc
000002f0: 67fa 7b3b b797 f6bc 04e2 94bd b6c7 dcbb
00000300: fd95 eebc 075c d2bc d7b9 29bd 1e49 2bbd
00000310: f3f2 78bd c5f2 13bd c4b6 91bb cf77 013c
00000320: dba5 a9bc 4574 abbc f344 29bd 5faa 9bbc
00000330: 6d42 3cbd 3709 a2ba dee4 2fbd 49ce 46bc
00000340: b203 48bd 8376 c13b bec8 4bbd dfb8 393c
00000350: f086 36bd 2553 11bd 25e8 b23c 6bed e93c
00000360: bc4e 2fbd b173 dcbc de9b 0e3b 2867 0cbd
00000370: 5cbe 84bd 2d49 323c e091 2abd 8688 8fbc
00000380: f470 babc 0ae2 5abb b648 57bd 2a2e 4abd
00000390: 7864 2cbd a7fc dfbc 3b8f 603b 3e72 92bc
000003a0: f7cb a1bc 64e9 c9bc 348d 15bc 3564 80bd
000003b0: 3c80 1abc 07de f5bc d797 7abc 5dfe 82bd
000003c0: 2809 2fbb 8f35 6fbd 1466 49bd 088d 1bbc
000003d0: ad4b cabc ae40 fc3a a636 88bc 6791 a4bc
000003e0: bb6f 2cbc 3cef 6abd d895 89bc d40b 09bd
000003f0: b940 0fbd 6604 843b f519 b6bc d338 8bbc

action_model._discrete_distribution.branches.0.weight f4 [4, 256]
-0.011794602 0.026618948 0.008120655 -0.0032745467 -0.0073361355 -0.0048440453 -0.021605166 -0.0014938759
-0.013208145 -0.005293084 -0.011637834 -0.002112188 -0.010935643 0.0053116293 -0.010551663 0.0034048792
-0.026806401 -0.015573492 -0.00802003 -0.033989917 -0.02254305 -0.03766072 -0.013576182 -0.0030982788
-0.011179712 -0.016422674 0.024295473 -0.024151957 0.008444358 0.024259387 0.0013126001 -0.0032060202
-0.0044240397 0.0009494661 0.019547611 0.019327926 -0.007829822 0.0038362402 -0.0023279232 -0.012429792
-0.033574983 -0.035775047 0.013114395 -0.01707266 0.06299728 0.015813222 -0.026134385 0.0076771774
-0.018070897 0.00637348 -0.012054787 0.009369645 0.05910951 -0.03204802 -0.007523183 -0.011971639
0.007755797 0.01187339 0.00038240064 0.005080481 0.027667828 0.02214178 -0.002568603 -0.025101673
-0.026010077 -0.0052932566 0.03743342 0.031968668 0.009059029 0.04647319 0.004712113 0.031319104
-0.056866087 -0.03328422 -0.024119116 -0.053173084 -0.026109742 -0.02559138 0.032864235 -0.0050025866
-0.022384327 -0.00015594646 0.013554459 -0.0014618877 -0.0036349443 0.02104275 0.0037645528 0.060927767
-0.0014226525 -0.03404665 -0.021622842 -0.046721056 0.03788602 0.023067476 0.014144819 0.049623165
-0.0061016716 0.0063239173 -0.056017492 -0.0020804042 0.008915179 -0.019741956 -0.0017247896 -0.020165889
-0.0021310393 -0.037154105 -0.007314655 0.011478913 0.010452639 0.009073115 -0.0065586185 -0.016754877
-0.0008307639 -0.021070093 0.06517371 0.01884954 -0.011173123 0.0062960843 -0.018458677 0.06371484
0.012953959 0.018040195 0.009973857 -0.02670178 -0.0070069376 0.05506099 0.009178979 -0.0113917
0.009130608 0.056727577 0.05745674 0.034509268 0.011455024 -0.029622199 0.06351028 0.011387032
-0.005739291 0.02079046 0.01571205 -0.024609575 0.0007914363 -0.019794878 0.053413734 -0.008239717
-0.02500841 -0.005726389 0.0031406586 0.006323701 0.040815536 -0.044653177 -0.029047167 0.058476105
-0.0062049944 0.020130327 -0.024233833 -0.014063937 0.0033388555 0.022357875 0.014255385 -0.051948596
0.0120145865 0.044419616 -0.00021460424 0.0077107633 -0.007573868 0.03181747 0.06343501 -0.08665635
-0.01785097 0.0069822087 -0.019023918 -0.027420517 0.0023606329 0.011560457 -0.009471357 0.0574427
-0.04493912 0.003717711 -0.02619739 -0.025791012 -0.015992885 -0.0018694894 -0.02132398 0.007545544
0.057623588 -0.0006060232 -0.018564893 0.019691737 -0.034911517 -0.034320764 0.012701481 -0.0032333694
0.00448103 -0.0189704 -0.008337615 0.022786379 -0.0146334255 -0.038817048 0.011330394 0.040816367
0.047838744 0.024289872 -0.02862159 -0.011174311 -0.024717862 -0.026706593 -0.037430238 0.041950665
0.025012461 -0.04028181 -0.018893864 0.0066729877 0.0215938 -0.013041789 -0.030478375 -0.03303113
0.027209278 0.007009283 -0.012955314 0.013246956 -0.009558731 0.058679964 -0.043731555 -0.019817809
-0.06498488 0.026923757 0.010576221 0.015289424 0.018567536 -0.0189151 0.03441096 -0.051031668
-0.028711768 0.0052583874 -0.026633568 -0.0018145943 -0.019320244 -0.009078548 0.05289385 -0.010066938
0.01696608 -0.02179496 0.008171466 -0.036033407 0.047726024 -0.018922348 -0.02698395 -0.017986614
-0.008150242 -0.021642854 0.00498421 -0.02331759 -0.029271448 -0.0152210565 0.03587827 0.055742543
00000000: 253e 41bc fb0f da3c 7f0c 053c c799 56bb
00000010: f763 f0bb ccba 9ebb 51fd b0bc 28ce c3ba
00000020: fa66 58bc 9b71 adbb 9dac 3ebc a26c 0abb
00000030: 692b 33bc 2d0d ae3b e2e0 2cbc 6524 5f3b
00000040: 1999 dbbc f627 7fbc 7266 03bc 0339 0bbd
00000050: 34ac b8bc 2142 1abd a26e 5ebc 7e0c 4bbb
00000060: 1c2b 37bc d888 86bc 4d07 c73c 53da c5bc
00000070: 345a 0a3c 9fbb c63c 8d0b ac3a 181c 52bb
00000080: 89f7 90bb 97e5 783a 5022 a03c 9955 9e3c
00000090: a748 00bc 6e69 7b3b 1290 18bb 54a6 4bbc
000000a0: ec85 09bd db88 12bd c2dd 563c f7db 8bbc
000000b0: b804 813d bb8a 813c c717 d6bc d590 fb3b
000000c0: 6b09 94bc a0d8 d03b 7181 45bc 2483 193c
000000d0: d01c 723d c944 03bd 0885 f6bb b124 44bc
000000e0: 5724 fe3b 9b88 423c f27c c839 2a7a a63b
000000f0: a4a7 e23c ae62 b53c 0256 28bb 06a2 cdbc
00000100: 1613 d5bc 0e73 adbb c953 193d 94f1 023d
00000110: 526c 143c ac5a 3e3d 1268 9a3b 7648 003d
00000120: 6aec 68bd 0955 08bd 7495 c5bc 05cc 59bd
00000130: 19e4 d5bc 04a5 d1bc a69c 063d bdec a3bb
00000140: 565f b7bc 8f85 23b9 8613 5e3c d09c bfba
00000150: 3f38 6ebb d861 ac3c b7b6 763b 658f 793d
00000160: 4c78 baba 8074 0bbd 6322 b1bc 945e 3fbd
00000170: 5f2e 1b3d 01f8 bc3c acbf 673c a941 4b3d
00000180: 88f0 c7bb dd38 cf3b 9972 65bd 6457 08bb
00000190: f910 123c e2b9 a1bc 5612 e2ba ef32 a5bc
000001a0: e8a8 0bbb e72e 18bd c6af efbb 0d12 3c3c
000001b0: 8c41 2b3c 67a7 143c aee9 d6bb 8641 89bc
000001c0: 9fc7 59ba 309b acbc cb79 853d 5a6a 9a3c
000001d0: 790f 37bc 624f ce3b a736 97bc ed7c 823d
000001e0: d83c 543c 08c9 933c 6369 233c b1bd dabc
000001f0: 749a e5bb a287 613d 6e63 163c 41a4 3abc
00000200: 8c98 153c 2d5b 683d c257 6b3d 9759 0d3d
00000210: daad 3b3c 41aa f2bc ad11 823d ad90 3a3c
00000220: aa10 bcbb c150 aa3c 8fb6 803c 059a c9bc
00000230: 6478 4f3a de28 a2bc 5cc8 5a3d e1ff 06bc
00000240: 70de ccbc 6fa4 bbbb 82d3 4d3b 0c37 cf3b
00000250: 312e 273d 40e6 36bd 53f4 edbc a484 6f3d
00000260: 4453 cbbb 5be8 a43c 0886 c6bc 6d6c 66bc
00000270: b3d0 5a3b dd27 b73c 6b8f 693c 0dc8 54bd
00000280: d4d8 443c 58f1 353d 6307 61b9 92aa fc3b
00000290: 362e f8bb 0953 023d 37ea 813d e278 b1bd
000002a0: 333c 92bc 03cb e43b 0cd8 9bbc fea0 e0bc
000002b0: d9b4 1a3b 1268 3d3c c02d 1bbc 0949 6b3d
000002c0: 1512 38bd d7a4 733b e99b d6bc ac47 d3bc
000002d0: 8303 83bc a809 f5ba a1af aebc 9c40 f73b
000002e0: b606 6c3d 87dd 1eba 6715 98bc 9150 a13c
000002f0: 61ff 0ebd ee93 0cbd df19 503c f0e6 53bb
00000300: 9bd5 923b d067 9bbc 7e9a 08bc 80aa ba3c
00000310: 09c1 6fbc a0fe 1ebd 1ea3 393c 102f 273d
00000320: 8ff2 433d 8efb c63c d377 eabc 7514 37bc
00000330: 1d7d cabc c9c7 dabc 7350 19bd 76d4 2b3d
00000340: efe6 cc3c 8afe 24bd 4ec7 9abc 14a9 da3b
00000350: 7be5 b03c 3aad 55bc c9ad f9bc a64b 07bd
00000360: fee5 de3c 21ae e53b 8642 54bc c309 593c
00000370: 399c 1cbc 675a 703d dc1f 33bd f558 a2bc
00000380: cb16 85bd 368f dc3c e347 2d3c 7e80 7a3c
00000390: f21a 983c d7f3 9abc 82f2 0c3d 9506 51bd
000003a0: f134 ebbc 8d4e ac3b a42e dabc aed7 edba
000003b0: 7d45 9ebc 31be 14bc 39a7 583d ccef 24bc
000003c0: 73fc 8a3c 588b b2bc 9de1 053c c497 13bd
000003d0: 5d7c 433d 0a03 9bbc 720d ddbc aa58 93bc
000003e0: 9888 05bc 5b4c b1bc 9552 a33b 8804 bfbc
000003f0: adca efbc bd61 79bc 18f5 123d 4b52 643d

action_model._discrete_distribution.branches.0.bias f4 [4]
0.04092195 -0.023289647 -0.019852297 0.014147441
00000000: c69d 273d eec9 bebc 49a1 a2bc abca 673c

action_model._discrete_distribution.branches.1.weight f4 [3, 256]
-0.015675323 0.014427905 0.022763481 0.042554114 -0.0015337655 0.003962175 -0.005582648 0.025573155
-0.03365335 0.04842771 0.0024372605 -0.018232157 0.03418743 -0.0025228073 -0.0015773223 0.025273342
-0.025912335 -0.0070695938 -0.032410547 0.011075716 0.03940383 -0.0027710544 0.0015759278 0.031712815
0.031732287 0.040299643 0.010630505 -0.0061982637 -0.02071779 0.036130015 -0.023313604 0.05397878
0.004207603 0.003496682 0.020363964 0.013814863 0.04351841 0.020612136 0.0144631155 0.00057205965
0.02274914 -0.011450354 0.027438737 -0.015383575 0.029596698 -0.0052269157 0.023187874 0.03375257
-0.011484818 0.0037287269 -0.015912937 -0.0066296593 0.031119898 0.02419237 -0.011133512 0.003974528
0.009903936 0.0060088937 -0.008738227 -0.0007714733 0.0013741329 -0.009844136 0.0106675355 -0.002056399
0.014164009 -0.014747457 0.0015512673 -0.009601422 0.009731951 -0.0020757194 0.0011076748 0.020808464
-0.032816246 0.019434972 -0.026406672 0.027850222 -0.0011567005 0.0014076692 0.02643151 0.019573865
0.024457237 -0.008607843 0.03157213 -0.021350434 0.009650263 -0.012824563 0.030787678 0.048580583
-0.019751765 0.0063601816 -0.015992718 -0.021188859 0.053296056 0.039340712 -0.007565874 0.0126087675
0.031907678 -0.0007936267 0.03551829 0.030293621 0.002438357 0.005795241 0.0140053835 0.034932062
0.0027871511 -0.053732306 -3.8443908e-05 -0.0044921287 0.03589819 -0.021231405 0.0075648217 -0.02400262
0.003156597 0.023136584 0.01467014 0.0012803428 0.018539147 -0.04203405 -0.023674456 0.052097358
0.016965903 0.003607623 -0.010696849 -0.023715002 0.020322628 0.009228703 -0.04594552 0.040639237
0.0018469598 0.027115388 0.0063138637 -0.017338427 0.008464934 0.022442883 0.036989648 -0.030631423
0.01019944 -0.025628073 0.0020743427 0.0055907723 0.032171413 -0.00407651 0.0060574855 -0.026111027
-0.0012129404 0.025287632 0.002457902 -0.0015509223 0.055553377 0.022520058 0.04781847 0.05001105
0.034736443 0.0077476487 -0.0061661685 0.00030482796 0.00080703845 0.019147793 -0.022900661 0.020191094
0.010466519 -0.033577636 0.0038378544 0.021239977 0.065409355 0.06926467 0.063181944 -0.0055516115
-0.003565677 -0.008142982 0.035782635 -0.017124752 -0.016564757 0.0022667816 -0.012531205 0.0058434857
-0.008862261 -0.0018600948 0.021219261 0.024810255 0.007734709 0.0008151181 -0.014241976 -0.015503804
0.048939716 -0.00900371 0.0036928416 -0.007393875 0.01627672 -0.032120258 -0.02130341 0.012280556
0.0075302934 -0.02770714 -0.040624592 0.008631163 -0.003394345 0.011661972 0.030299779 0.062630296
0.033449225 0.01155511 -0.027991448 -0.014170304 -0.014505004 0.015536173 -0.029768212 -0.04205224
-0.009658347 0.0075757867 -0.015544453 0.05894983 -0.0118667325 0.0044636773 -0.0021933767 0.0003059643
-0.00769995 0.017845076 -0.0065784357 -0.0014773515 -0.013092664 0.061644923 -0.008824803 -0.007620946
-0.0073365527 0.02813599 0.002141851 -0.0038465052 0.033982627 0.010670297 0.04682026 -0.0015732223
-0.013462423 0.006085717 0.03157474 -0.011427137 0.0018327977 0.011683411 0.0006980703 -0.001072433
0.023304382 -0.006997992 0.006193885 0.027713342 0.010511732 -0.005844102 0.0024076104 0.0136324065
0.03963543 -0.023840971 0.01009592 -0.031161835 -0.003891786 0.023301682 0.034215074 0.03135197
00000000: 8969 80bc 0563 6c3c 7b7a ba3c 394d 2e3d
00000010: a108 c9ba 22d5 813b a5ee b6bb cb7e d13c
00000020: 18d8 09bd 225c 463d 72ba 1f3b 9b5b 95bc
00000030: 1e08 0c3d af55 25bb 27be ceba 0a0a cf3c
00000040: 1b46 d4bc 0da8 e7bb ecc0 04bd eb76 353c
00000050: e965 213d 949a 35bb 5d8f ce3a 4ce5 013d
00000060: b7f9 013d 3d11 253d 922b 2e3c ce1a cbbb
00000070: 5bb8 a9bc 11fd 133d 2cfc bebc da18 5d3d
00000080: efdf 893b 9728 653b 54d2 a63c bc57 623c
00000090: 5c40 323d c8da a83c b4f6 6c3c 46f6 153a
000000a0: 685c ba3c 449a 3bbc 34c7 e03c 640b 7cbc
000000b0: c674 f23c 8c46 abbb 7ff4 bd3c 2340 0a3d
000000c0: d12a 3cbc a85d 743b d95b 82bc 9d3d d9bb
000000d0: 28ef fe3c 142f c63c 5569 36bc c23c 823b
000000e0: 1e44 223c 41e6 c43b c82a 0fbc b23c 4aba
000000f0: 401c b43a 4d49 21bc e3c6 2e3c a6c4 06bb
00000100: 2910 683c 519f 71bc e553 cb3a 484f 1dbc
00000110: c372 1f3c cb08 08bb 662f 913a 8376 aa3c
00000120: 546a 06bd 1736 9f3c ce52 d8bc 2626 e43c
00000130: 6e9c 97ba 8a81 b83a e586 d83c 5f59 a03c
00000140: 8b5a c83c e907 0dbc c751 013d 1be7 aebc
00000150: 231c 1e3c 1e1e 52bc 7136 fc3c 6ffc 463d
00000160: 74ce a1bc 1269 d03b 2903 83bc 4294 adbc
00000170: f74c 5a3d ba23 213d 27eb f7bb 0195 4e3c
00000180: a0b1 023d 630b 50ba a07b 113d 542a f83c
00000190: d8cc 1f3b 01e6 bd3b d676 653c ec14 0f3d
000001a0: a3a8 363b 6816 5cbd d53e 21b8 b532 93bb
000001b0: fb09 133d 7ced adbc 53e2 f73b 24a1 c4bc
000001c0: e9de 4e3b ef88 bd3c 075b 703c 2dd1 a73a
000001d0: 69df 973c e52b 2cbd eff0 c1bc 0a64 553d
000001e0: 14fc 8a3c df6d 6c3b d641 2fbc f745 c2bc
000001f0: a47b a63c fc33 173c 5f31 3cbd 5475 263d
00000200: b015 f23a 1721 de3c 87e4 ce3b 5109 8ebc
00000210: 82b0 0a3c 23da b73c 7582 173d c0ee fabc
00000220: 8d1b 273c f7f1 d1bc b2f1 073b cc32 b73b
00000230: 2cc6 033d 3f94 85bb df7d c63b cbe6 d5bc
00000240: 87fb 9eba 0228 cf3c c114 213b 5148 cbba
00000250: f08b 633d fc7b b83c 4ddd 433d 63d8 4c3d
00000260: cd47 0e3d fddf fd3b 920d cabb 51d1 9f39
00000270: 6f8f 533a d5db 9c3c 2b9a bbbc cb67 a53c
00000280: c37b 2b3c b488 09bd 8384 7b3b 76ff ad3c
00000290: 57f5 853d a3da 8d3d 8965 813d 4bea b5bb
000002a0: 22ae 69bb 246a 05bc d090 123d 3549 8cbc
000002b0: d0b2 87bc 498e 143b af4f 4dbc b67a bf3b
000002c0: 0433 11bc 6dce f3ba 04d4 ad3c e03e cb3c
000002d0: 7173 fd3b a6ad 553a 2d57 69bc ab03 7ebc
000002e0: 0375 483d 4c84 13bc 9a03 723b 5248 f2bb
000002f0: c256 853c 8890 03bd 7d84 aebc 6334 493c
00000300: aec0 f63b 16fa e2bc f965 26bd b969 0d3c
00000310: a973 5ebb db11 3f3c 3e37 f83c 5044 803d
00000320: 0e02 093d a551 3d3c 524e e5bc 902a 68bc
00000330: 65a6 6dbc 6f8b 7e3c 77dc f3bc f83e 2cbd
00000340: 0b3e 1ebc 4e3e f83b 29ae 7ebc 6075 713d
00000350: af6c 42bc 0a44 923b c1be 0fbb d569 a039
00000360: dd4f fcbb d62f 923c eb8f d7bb b1a3 c1ba
00000370: 9d82 56bc 637f 7c3d e895 10bc 21b9 f9bb
00000380: 7767 f0bb 737d e63c 4c5e 0c3b a615 7cbb
00000390: 5e31 0b3d 78d2 2e3c 9ac6 3f3d 9534 ceba
000003a0: 7f91 5cbc b26a c73b 8454 013d e338 3bbc
000003b0: 7c3a f03a c76b 3f3c b4fe 363a e190 8cba
000003c0: d5e8 be3c 694f e5bb 13f6 ca3b 1707 e33c
000003d0: 6639 2c3c e17f bfbb 00c9 1d3b 755a 5f3c
000003e0: c358 223d 244e c3bc 5c69 253c 1b47 ffbc
000003f0: 560d 7fbb 2be3 be3c 1b25 0c3d ec6a 003d

action_model._discrete_distribution.branches.1.bias f4 [3]
0.054739457 -0.023962827 -0.03334839
00000000: 7b36 603d b14d c4bc 5298 08bd

onnx::Div_108 f4 [45]
0.0001889825 0.0019910499 0.0001889825 0.13110536 0.34617332 0.49760804 0.3718799 0.33512324
0.17531751 0.0001889825 0.006546343 0.0001889825 0.14490259 0.34844634 0.49821168 0.3847775
0.3181198 0.16504596 0.0001889825 0.0058634896 0.0001889825 0.1233305 0.35239574 0.4979627
0.41887975 0.25017914 0.134303 0.0001889825 0.006935698 0.0001889825 0.1466451 0.35711423
0.4988872 0.44304594 0.1604792 0.084168896 0.0001889825 0.016187685 0.0001889825 0.14438853
0.355903 0.49863607 0.4429911 0.15347639 0.102378696
00000000: 9b29 4639 467c 023b 9b29 4639 7c40 063e
00000010: a13d b13e 7bc6 fe3e 0b67 be3e 4695 ab3e
00000020: 6f86 333e 9b29 4639 b582 d63b 9b29 4639
00000030: 5861 143e 8f67 b23e 9a15 ff3e 8e01 c53e
00000040: 99e0 a23e cf01 293e 9b29 4639 8422 c03b
00000050: 9b29 4639 b494 fc3d 376d b43e f8f4 fe3e
00000060: 6877 d63e 7b17 803e ba86 093e 9b29 4639
00000070: da44 e33b 9b29 4639 222a 163e add7 b63e
00000080: 256e ff3e ebd6 e23e a954 243e be60 ac3d
00000090: 9b29 4639 099c 843c 9b29 4639 96da 133e
000000a0: eb38 b63e 3a4d ff3e bbcf e23e ea28 1d3e
000000b0: ecab d13d

onnx::Div_111 f4 [20]
0.030242037 0.0001889825 0.11038703 0.054112438 0.026450897 0.0001889825 0.1003366 0.061459024
0.029069075 0.0001889825 0.10312969 0.05550906 0.018244367 0.0001889825 0.090296395 0.08682618
0.026557634 0.0001889825 0.09326846 0.051925283
00000000: 26be f73c 9b29 4639 9812 e23d 01a5 5d3d
00000010: 8daf d83c 9b29 4639 467d cd3d 75bc 7b3d
00000020: 4522 ee3c 9b29 4639 a935 d33d 785d 633d
00000030: 3675 953c 9b29 4639 51ed b83d edd1 b13d
00000040: 658f d93c 9b29 4639 8903 bf3d 9baf 543d

onnx::Div_114 f4 [15]
0.3144993 0.3161163 0.19383106 0.31842425 0.39968276 0.2087289 0.32619402 0.3341462
0.2072344 0.3073229 0.49035323 0.2545445 0.32545692 0.34797776 0.22131403
00000000: 0d06 a13e ffd9 a13e a67b 463e 8108 a33e
00000010: 38a3 cc3e 07bd 553e e702 a73e 3615 ab3e
00000020: 4135 543e 6d59 9d3e 940f fb3e a853 823e
00000030: 4aa2 a63e 242a b23e 25a0 623e
