Usable_Data/one_car_self_park_2/PKWParking/PKWParking-27499954.onnx (onnx, 545202 bytes, 19 tensors)

discrete_act_size_vector f4 [1, 2]
0	0x40800000	4.0
1	0x40400000	3.0

network_body.observation_encoder.processors.0.normalizer.running_mean f4 [45]
0	0x00000000	0.0
1	0x3608a86f	2.036362e-06
2	0x00000000	0.0
3	0x3c8e8d84	0.017401464
4	0x3e0fabc6	0.1403037
5	0x3f0ec6b8	0.5577197
6	0x3e29ecb8	0.16594207
7	0x3df2ea87	0.11861139
8	0x3f0b9c8f	0.54535764
9	0x00000000	0.0
10	0x38313b00	4.2255037e-05
11	0x00000000	0.0
12	0x3caf847d	0.02142548
13	0x3e11ff10	0.14257455
14	0x3f0d21e4	0.5512984
15	0x3e380410	0.179703
16	0x3dd6f347	0.1049562
17	0x3f0a64ae	0.54059875
18	0x00000000	0.0
19	0x3812b9ec	3.4982266e-05
20	0x00000000	0.0
21	0x3c7db82a	0.015485803
22	0x3e15cdec	0.14629334
23	0x3f0de2aa	0.55423987
24	0x3e62e4e3	0.22157626
25	0x3d7f7836	0.0623705
26	0x3f030148	0.5117383
27	0x00000000	0.0
28	0x3847f54d	4.767375e-05
29	0x00000000	0.0
30	0x3cb4281f	0.021991787
31	0x3e1af260	0.15131521
32	0x3f0ad082	0.5422441
33	0x3e83d4bd	0.25748244
34	0x3cdc842d	0.026918495
35	0x3f007748	0.5018201
36	0x00000000	0.0
37	0x398bf430	0.0002669408
38	0x00000000	0.0
39	0x3cadb6e2	0.02120537
40	0x3e19bb5f	0.15012883
41	0x3f0bd886	0.54627264
42	0x3e83ddc2	0.25755125
43	0x3cc97f14	0.024596728
44	0x3ee84117	0.4536216

network_body.observation_encoder.processors.1.normalizer.running_mean f4 [20]
0	0x3a74b2b1	0.00093344884
1	0x00000000	0.0
2	0x3c4db5b3	0.0125555275
3	0x3f12e7ab	0.5738475
4	0x3a3b13dd	0.0007136444
5	0x00000000	0.0
6	0x3c298eca	0.010348985
7	0x3f0ec498	0.5576873
8	0x3a62108f	0.0008623683
9	0x00000000	0.0
10	0x3c332340	0.010933697
11	0x3f113039	0.56714207
12	0x39b1c7b9	0.00033908876
13	0x00000000	0.0
14	0x3c090a67	0.0083642965
15	0x3f00dfbd	0.503414
16	0x3a3cb959	0.000719925
17	0x00000000	0.0
18	0x3c125a0f	0.008932604
19	0x3f10fe37	0.566379

network_body.observation_encoder.processors.2.normalizer.running_mean f4 [15]
0	0x3de54574	0.11194888
1	0x3f62fda3	0.8866827
2	0x3f70603f	0.9389686
3	0x3deb97fe	0.115035996
4	0x3f4da7c4	0.80334115
5	0x3f6bccd4	0.9210942
6	0x3df8e5e8	0.12153226
7	0x3f5f3111	0.87184244
8	0x3f6e22a9	0.9302164
9	0x3dd90bff	0.10597991
10	0x3f1b1eaa	0.60593665
11	0x3f50f74a	0.81627333
12	0x3df7cf81	0.12100125
13	0x3f5be462	0.8589536
14	0x3f6c2087	0.9223713

network_body.observation_encoder.processors.3.normalizer.running_mean f4 [168]
0	0x00000000	0.0
1	0x3b1f8a83	0.0024344034
2	0x3cb71cd7	0.02235262
3	0x3e106210	0.14099908
4	0x3f4c2cdd	0.79755956
5	0x3b7fc37d	0.0039026432
6	0x3d0147e8	0.031562716
7	0x3e39c4ba	0.18141451
8	0x00000000	0.0
9	0x3da36ef2	0.079801455
10	0x3c090288	0.00836242
11	0x3e2517cb	0.16122358
12	0x3f307282	0.68924725
13	0x3d01cb21	0.03168786
14	0x3ce9b7fc	0.028530113
15	0x3e260b85	0.16215332
16	0x00000000	0.0
17	0x3bea5ca2	0.007152156
18	0x3d1f52f3	0.038897466
19	0x3e0104f7	0.1259955
20	0x3f4a2efa	0.7897793
21	0x3bf1172c	0.0073574986
22	0x3cf3491d	0.029697949
23	0x3e345994	0.17612296
24	0x00000000	0.0
25	0x3e8c11b4	0.27357256
26	0x3c507359	0.0127228135
27	0x3e26e13d	0.16296859
28	0x3f02d5e4	0.5110762
29	0x3b0ab81c	0.0021166867
30	0x3d14f789	0.03636888
31	0x3e22229e	0.15833518
32	0x00000000	0.0
33	0x3ca23af6	0.019803505
34	0x3d1697f9	0.036766026
35	0x3e07a2ed	0.13245745
36	0x3f0fcb49	0.56169564
37	0x3e5fc7a1	0.21853496
38	0x3cf283e0	0.029603899
39	0x3e245e1c	0.16051525
40	0x00000000	0.0
41	0x3e9a8cdf	0.301856
42	0x3ca5db22	0.020246092
43	0x3e2075a8	0.15669882
44	0x3ef8ffd0	0.4863267
45	0x3b1ced23	0.0023945055
46	0x3d003346	0.0312989
47	0x3e1a4ff8	0.15069568
48	0x00000000	0.0
49	0x3d6fbec5	0.05853154
50	0x3cb81715	0.022471944
51	0x3e1b243c	0.15150541
52	0x3f0010d7	0.50025696
53	0x3e0f2fcd	0.13983078
54	0x3e014484	0.12623793
55	0x3e796637	0.24355398
56	0x00000000	0.0
57	0x3b1f97cd	0.0024351955
58	0x3cb798c4	0.022411712
59	0x3e10c551	0.1413777
60	0x3f4c347f	0.797676
61	0x3b7fea0a	0.003904941
62	0x3d015e80	0.031584263
63	0x3e39e0db	0.18152182
64	0x00000000	0.0
65	0x3da376cc	0.07981643
66	0x3c0940ee	0.008377297
67	0x3e2584ce	0.16163942
68	0x3f30790f	0.6893472
69	0x3d01d206	0.031694435
70	0x3ce9ee68	0.028556064
71	0x3e262944	0.16226679
72	0x00000000	0.0
73	0x3bea6a26	0.007153767
74	0x3d1fd3bf	0.039020296
75	0x3e01583a	0.12631312
76	0x3f4a368e	0.78989494
77	0x3bf130d7	0.0073605585
78	0x3cf36e3f	0.029715655
79	0x3e34738e	0.17622206
80	0x00000000	0.0
81	0x3e8c1823	0.27362165
82	0x3c50cd1a	0.0127442125
83	0x3e274c74	0.16337758
84	0x3f02da8d	0.5111473
85	0x3b0ac359	0.0021173565
86	0x3d15124a	0.036394395
87	0x3e223e78	0.15844142
88	0x00000000	0.0
89	0x3ca23f93	0.019805705
90	0x3d170128	0.036866337
91	0x3e07f961	0.13278724
92	0x3f0fd030	0.56177044
93	0x3e5fd2e6	0.21857795
94	0x3cf2aaf0	0.029622525
95	0x3e247957	0.16061912
96	0x00000000	0.0
97	0x3e9a940b	0.30191073
98	0x3ca643bf	0.020295976
99	0x3e20dbc4	0.15708834
100	0x3ef909a3	0.48640165
101	0x3b1cf78a	0.0023951256
102	0x3d003bd6	0.031307064
103	0x3e1a5c91	0.15074374
104	0x00000000	0.0
105	0x3d6fc262	0.058534987
106	0x3cb89afa	0.022534836
107	0x3e1b8714	0.15188247
108	0x3f00153f	0.5003242
109	0x3e0f3624	0.13985497
110	0x3e014ebc	0.12627691
111	0x3e79836c	0.2436654
112	0x00000000	0.0
113	0x3b1fa6e4	0.002436095
114	0x3cb81543	0.022471076
115	0x3e112648	0.1417476
116	0x3f4c3c1f	0.7977924
117	0x3b800774	0.0039071385
118	0x3d01758c	0.031606242
119	0x3e39fd24	0.18162972
120	0x00000000	0.0
121	0x3da37e3b	0.07983061
122	0x3c097fc2	0.008392276
123	0x3e25ef31	0.16204526
124	0x3f307f55	0.68944293
125	0x3d01d927	0.031701233
126	0x3cea2612	0.028582606
127	0x3e264614	0.1623767
128	0x00000000	0.0
129	0x3bea785c	0.0071554612
130	0x3d2055d2	0.039144345
131	0x3e01a7aa	0.12661615
132	0x3f4a3dea	0.79000723
133	0x3bf14bd4	0.0073637757
134	0x3cf392e0	0.029733121
135	0x3e348d07	0.17631923
136	0x00000000	0.0
137	0x3e8c1e78	0.27366996
138	0x3c512a42	0.012766423
139	0x3e27b812	0.16378811
140	0x3f02df62	0.51122105
141	0x3b0acff5	0.002118108
142	0x3d152b87	0.036418464
143	0x3e225a2d	0.15854712
144	0x00000000	0.0
145	0x3ca2441c	0.019807868
146	0x3d176f9f	0.036971685
147	0x3e085018	0.13311803
148	0x3f0fd55a	0.56184924
149	0x3e5fddf9	0.2186202
150	0x3cf2d300	0.029641628
151	0x3e2493c3	0.16071992
152	0x00000000	0.0
153	0x3e9a9b38	0.30196548
154	0x3ca6a3e3	0.02034182
155	0x3e214148	0.15747559
156	0x3ef912f6	0.4864728
157	0x3b1d01ba	0.0023957328
158	0x3d00447d	0.031315316
159	0x3e1a6bfb	0.15080254
160	0x00000000	0.0
161	0x3d6fc60e	0.05853849
162	0x3cb92256	0.02259938
163	0x3e1beacd	0.15226288
164	0x3f001999	0.5003906
165	0x3e0f3caa	0.13987985
166	0x3e0158b2	0.12631491
167	0x3e799fe0	0.24377394

network_body.observation_encoder.processors.4.normalizer.running_mean f4 [6]
0	0x3f7fff0c	0.99998546
1	0xbb1c96ca	-0.0023893588
2	0x3c26fbb2	0.010191845
3	0x3f73c5b6	0.9522356
4	0xbd10c649	-0.03534535
5	0x3c50546d	0.012715441

network_body._body_endoder.seq_layers.0.weight f4 [256, 254]
0	0xbdd4bba3	-0.10387351
1	0x3ce50a3f	0.027958987
2	0xbdd2022a	-0.10254319
3	0xbc338d8a	-0.0109590385
4	0x3d679e00	0.056547165
5	0x3d6cb2a4	0.057787552
6	0xbd61db58	-0.055140823
7	0x3d0d29eb	0.034463804
8	0xbcf47137	-0.029839141
9	0xbb514bb6	-0.0031935996
10	0xbd38a439	-0.04507849
11	0x3dad8fd5	0.084746994
12	0x3c00296a	0.007822374
13	0xbd067130	-0.032822788
14	0x3d9b746e	0.075905666
15	0xbd26528a	-0.04060606
16	0xbe1d026e	-0.15332958
17	0xbdc5a179	-0.09649939
18	0xbcfdcb0e	-0.030980613
19	0x3cff5828	0.031169966
20	0xbda8ccba	-0.082421735
21	0x3ce2bda1	0.027678313
22	0x3b4e9c9b	0.003152645
23	0xbbc33cb2	-0.005958163
24	0x3c833ab5	0.016019205
25	0xbdb9921b	-0.090610705
26	0x3d2ce061	0.042206172
27	0x3c1803a6	0.009278214
28	0xbd10e4ab	-0.035374325
29	0xbd5c8934	-0.053841785
30	0x3db38e34	0.087673575
31	0xbd3dbd2c	-0.046322986
32	0x3cd63f69	0.026153283
33	0xbe06e39f	-0.13172768
34	0xbc29a333	-0.010353851
35	0xbdc42275	-0.09576885
36	0xbaa5350a	-0.0012604308
37	0xbdc821fe	-0.097721085
38	0xbd9471b3	-0.07248249
39	0x3c160c19	0.009158158
40	0xbca7495c	-0.020420723
41	0x3d34a585	0.044103164
42	0xbd7186b8	-0.05896637
43	0xbd83e6a9	-0.06440479
44	0xbdf30eb7	-0.11868041
45	0xbde836dd	-0.11338589
46	0x3db62a17	0.08894747
47	0x3d9e6e01	0.07735825
48	0x3d51d770	0.051230848
49	0xbc95fd9c	-0.018309407
50	0x3d45fa7c	0.048334584
51	0x3cd0437b	0.025422802
52	0x3d86c17c	0.06579873
53	0x3d793ebb	0.06085084
54	0xbda4ba3a	-0.080433324
55	0xbbac8562	-0.005264924
56	0x3d7ce5f7	0.06174275
57	0xbc57a781	-0.013162495
58	0xbe01a3c8	-0.12660134
59	0x3dade0e6	0.084901616
60	0x3e16b03f	0.1471567
61	0xbc7a4ff4	-0.015277851
62	0xbcdead81	-0.027182342
63	0x3dde8ca1	0.108666666
64	0x3e4c5ab8	0.19956481
65	0x3da87011	0.082245
66	0xbdbfd6bb	-0.093671285
67	0xbe12a165	-0.1431938
68	0x3d496eac	0.04917781
69	0x3bc4964e	0.005999363
70	0xbde6065a	-0.1123168
71	0xbcc05321	-0.023477139
72	0xbde7b0b7	-0.113130026
73	0xbc8779af	-0.016537515
74	0xbcb87053	-0.022514498
75	0x3d642ae7	0.055704977
76	0x3cff300a	0.031150836
77	0xbd8d1bfe	-0.06890105
78	0x3d8eae48	0.06966835
79	0x3df5d0e6	0.12002735
80	0x3dda6685	0.10664085
81	0xbe07c211	-0.13257624
82	0xbd1e31d3	-0.038621735
83	0x3d7086eb	0.058722418
84	0xbc1f3cf1	-0.009719119
85	0xbcac85a8	-0.021059826
86	0xbcf80bbc	-0.030279033
87	0xbdb348d7	-0.087541275
88	0xbd59f037	-0.053207602
89	0xbe27417d	-0.16333576
90	0x3cac551c	0.021036677
91	0x3d0c5874	0.034264043
92	0x3bc03ee4	0.005866872
93	0xbd88323a	-0.06650205
94	0xbdb2abcf	-0.08724176
95	0x3d89fda8	0.06737834
96	0xbd65fedf	-0.056151267
97	0xbd30a9c0	-0.043130636
98	0xbd3f9986	-0.04677727
99	0xbccc605e	-0.024948295
100	0x3e2bcbf1	0.16777016
101	0xbd9ccb7e	-0.076560006
102	0xbd6a0713	-0.057135653
103	0x3d263a83	0.040583145
104	0x3db72c83	0.08944037
105	0xbda9a867	-0.08284073
106	0x3d7b971e	0.061423413
107	0xbd410771	-0.047126237
108	0xbd922383	-0.071356796
109	0xbcca49fc	-0.024693482
110	0xbda0b179	-0.0784635
111	0xbc362bcf	-0.011118843
112	0xbd536572	-0.051610418
113	0x3c0e121d	0.008671311
114	0x3d285745	0.04109885
115	0xbd4fe7f9	-0.050758336
116	0x3c3e1365	0.011601304
117	0xbcadd226	-0.02121837
118	0xbd62f13f	-0.05540585
119	0xbdf11557	-0.117716484
120	0xbd07f8a0	-0.03319609
121	0x3c5e8a1f	0.013582735
122	0xbe1a5818	-0.15072668
123	0x3b552e9f	0.003252901
124	0x3d05c568	0.032658964
125	0xbd6f8a47	-0.05848148
126	0xbe1b149d	-0.15144582
127	0x3d879940	0.06621027
128	0x3da745e7	0.0816763
129	0x3d4c6a1f	0.049905892
130	0xbd37c139	-0.044862006
131	0xbdf3d0f0	-0.11905086
132	0xbddcbb48	-0.107779086
133	0xbdb24cc4	-0.08706048
134	0x3d42b560	0.047536254
135	0x3dfdc039	0.12390179
136	0x3ac9199b	0.0015342714
137	0xbca43033	-0.020042514
138	0xbe08c30b	-0.13355653
139	0xbd848ddf	-0.06472372
140	0x3d804381	0.06262875
141	0xbd48869f	-0.04895651
142	0xbc45befc	-0.01206946
143	0x3c03da2e	0.008047624
144	0xbc866883	-0.016407257
145	0xbdbf7eab	-0.09350332
146	0xbc12214a	-0.00891907
147	0xbd1de14f	-0.03854495
148	0xbd0b3054	-0.033981636
149	0x3c7009c8	0.0146507695
150	0xbdb08355	-0.086187996
151	0x3d311037	0.043228354
152	0xbc0bafc1	-0.00852579
153	0xbdccb50c	-0.099954695
154	0x3d843ef6	0.06457321
155	0xbdcaefc8	-0.09909016
156	0x3d40683c	0.046974406
157	0x3c66e8ec	0.014093619
158	0xbd5634c1	-0.052296404
159	0xbd209066	-0.03920021
160	0x3de32cdb	0.1109254
161	0x3bd451ff	0.0064795013
162	0xbcb5820d	-0.02215674
163	0x3d993fe5	0.0748289
164	0xbd687cb7	-0.056759562
165	0x3d98ccf4	0.07460967
166	0xbd7735ef	-0.06035417
167	0x3d841c58	0.06450719
168	0x3dbfe411	0.09369672
169	0xbdb78ce5	-0.089624204
170	0x3d18e369	0.03732625
171	0x3d0a8654	0.03381951
172	0x3d608b2f	0.054820236
173	0xbdd91cdd	-0.10601208
174	0xbd74c3d3	-0.059757065
175	0x3db21a13	0.086963795
176	0x3beaa83a	0.0071611675
177	0x3dbe5848	0.09294182
178	0xbdefed00	-0.11715126
179	0xbd315bf2	-0.043300577
180	0x3c2fe440	0.010735571
181	0x3daef1d6	0.0854222
182	0x3b8e7264	0.0043471325
183	0x3da0ba6a	0.07848056
184	0xbcd6cb18	-0.02621989
185	0x3e7269ea	0.23673216
186	0x3d8229f3	0.063556574
187	0x3d82c2c1	0.063848026
188	0xbd62b7b7	-0.055350985
189	0x3dd90ba2	0.10597922
190	0xbc6c09be	-0.01440662
191	0x3c0e5304	0.008686785
192	0x3d335a39	0.043787215
193	0xbdb56bb2	-0.08858432
194	0xbdf7dff0	-0.121032596
195	0x3d6b1631	0.05739421
196	0x3daa9917	0.08329981
197	0xbd8d7120	-0.069063425
198	0xbe255738	-0.16146553
199	0x3e2812ca	0.16413417
200	0x3c36eb5e	0.011164514
201	0xbe085e59	-0.13317241
202	0xbd3a836a	-0.045535482
203	0xbdc8d0a2	-0.098054186
204	0x3bfe8345	0.0077671134
205	0x3d8f07a0	0.06983876
206	0xbe0baa70	-0.13639235
207	0x3cf385ce	0.029726889
208	0x3dafa04e	0.085754976
209	0xbe0c278e	-0.13686964
210	0x3dcf52c4	0.10123208
211	0xbdb0132b	-0.08597406
212	0x3ba042f9	0.0048907963
213	0xbdeb5d93	-0.11492457
214	0xbc9328fc	-0.017963879
215	0x3c7951a7	0.015217221
216	0x3d833872	0.064072505
217	0x3d313b18	0.043269247
218	0xbcb645e9	-0.022250133
219	0xbce9d24d	-0.028542662
220	0xbd89399d	-0.06700442
221	0x3dab0830	0.08351171
222	0xbd2cb5fa	-0.042165734
223	0xbd64434a	-0.055728234
224	0xbd699cd2	-0.05703432
225	0xbe194472	-0.14967516
226	0x3dcc50de	0.09976362
227	0x3bdeb75f	0.006796762
228	0xbbd62c65	-0.006536054
229	0xbe16c793	-0.14724569
230	0xbe03a580	-0.12856102
231	0x3db1f185	0.08688644
232	0x3dd96e9c	0.106168
233	0xbc0ea644	-0.008706633
234	0xbe1be93a	-0.15225688
235	0x3e1ed528	0.15511
236	0xbdc147c0	-0.09437513
237	0x3ab00e34	0.0013431967
238	0x3cc0b874	0.023525454
239	0xbcc99d43	-0.024611121
240	0x3dbed9ce	0.09318887
241	0x3dc6b60e	0.09702693
242	0xbd409460	-0.0470165
243	0x3d90a3f4	0.070625216
244	0xbc3d515a	-0.01155504
245	0xbd558e1e	-0.052137487
246	0x3d33177e	0.043723576
247	0x3ce7c93e	0.028294202
248	0x3de10299	0.109868236
249	0xbd860234	-0.06543389
250	0xbc832894	-0.01601056
251	0x3d7ea1e4	0.06216611
252	0xbbe3499a	-0.006936264
253	0xbc4edfa2	-0.01262656
254	0x3dd1a1fb	0.102359734
255	0xbda77feb	-0.08178695

network_body._body_endoder.seq_layers.0.bias f4 [256]
0	0xbaa7e31d	-0.0012808774
1	0xbc250fc3	-0.010074559
2	0xbc1dea16	-0.00963833
3	0x3d863f1f	0.06555008
4	0x3d0f60f4	0.03500457
5	0xbc67778e	-0.014127625
6	0x3cedf47e	0.029047247
7	0x3c200cf6	0.009768715
8	0xbb6a1ce1	-0.003572278
9	0x3b905bbe	0.004405468
10	0xbd5538ca	-0.05205611
11	0xbcdab1cd	-0.02669611
12	0xbc9a061f	-0.018801747
13	0x3b538bae	0.00322793
14	0x3bcb19d8	0.006198149
15	0xbd263bc6	-0.04058435
16	0xbcc33cf1	-0.02383277
17	0xbd154871	-0.03644604
18	0xbc6b504c	-0.014362406
19	0xbd32f9f5	-0.04369541
20	0xbc4c77a0	-0.012479693
21	0xbb0af030	-0.0021200292
22	0x3ab49f6b	0.001378042
23	0x3c9f3003	0.019432073
24	0xbcb27bd0	-0.021787554
25	0xbc91b66f	-0.017787186
26	0xbc5faf1b	-0.013652588
27	0x3bc94d92	0.0061432803
28	0xbb7b6c6d	-0.0038364187
29	0x3c2221dc	0.009895768
30	0xbc283c96	-0.010268351
31	0x3c84c547	0.01620735
32	0xbd5f1200	-0.054460526
33	0xbcf4e344	-0.029893525
34	0xbcd56ff4	-0.02605436
35	0xbcb6e588	-0.022326246
36	0xbca171af	-0.019707529
37	0x3cb7c97f	0.022434948
38	0xbb9d739a	-0.0048050405
39	0xbc8075c3	-0.015681153
40	0xbc8d31d6	-0.017235678
41	0xbce8df6b	-0.028426846
42	0xbca540db	-0.020172527
43	0xbd399983	-0.045312416
44	0x3c81d487	0.015848411
45	0xbcf4ed30	-0.029898256
46	0xbca4782f	-0.02007684
47	0xbda019e8	-0.07817441
48	0xbcca1ffc	-0.024673454
49	0x3c4a6e2c	0.012355369
50	0xbc6dd149	-0.0145152295
51	0xbd26261c	-0.040563688
52	0xbd2c09fa	-0.042001702
53	0x3aaa0ca2	0.0012973736
54	0x3c9c96b7	0.019114835
55	0xbb2aa482	-0.0026037996
56	0xbcc27358	-0.02373664
57	0xbaf72cb7	-0.001885793
58	0x3c60bfc2	0.013717594
59	0x3b9acba6	0.004723984
60	0xbb855e04	-0.0040700454
61	0xbd862f0c	-0.06551942
62	0x3c75275b	0.014962996
63	0x3c73afce	0.014873458
64	0x3b6e41b9	0.0036355092
65	0xbc4eac5a	-0.012614334
66	0x3b8595da	0.0040767016
67	0x3d015936	0.03157922
68	0xbd1c51ef	-0.038164075
69	0xbcb69304	-0.0222869
70	0xbced2a5b	-0.02895086
71	0xbd27f323	-0.041003358
72	0xbd1cf6bb	-0.038321238
73	0xbd243e6e	-0.0400986
74	0x3cda4da4	0.02664835
75	0x3c9142b1	0.017731996
76	0xbd3c1e3e	-0.04592728
77	0x3b2ee1f9	0.0026684983
78	0x3cc913d6	0.024545591
79	0xbd003c51	-0.031307522
80	0xbd499ee9	-0.049223814
81	0xbc72c7fb	-0.014818187
82	0xbd1175f4	-0.03551288
83	0x3c1d5a24	0.009604011
84	0x3d01e97f	0.03171682
85	0xbd3b9cb5	-0.045803744
86	0x3bb9c5d4	0.005669335
87	0xbd3415f9	-0.043966267
88	0xbc0a4059	-0.008438193
89	0x3c9db2d7	0.019250317
90	0xbc9f7694	-0.019465722
91	0x3c9661f3	0.018357253
92	0x3d0afcdb	0.033932548
93	0x3d16b673	0.03679509
94	0xbd237e9e	-0.039915673
95	0xbd8af0bc	-0.06784198
96	0xbd9bfdf4	-0.07616797
97	0xbc1fd9cc	-0.009756517
98	0x3c034eee	0.008014424
99	0xbd249eb1	-0.040190402
100	0xbd36fdb3	-0.04467554
101	0x3c17a952	0.009256678
102	0xbcbad690	-0.02280739
103	0xbd743d66	-0.059628867
104	0xbc8ed69e	-0.017436322
105	0x3b57c494	0.0032923566
106	0x3adb5f2a	0.0016736735
107	0x3dc2ceab	0.09512075
108	0x3bcb2ba9	0.006200273
109	0xbc266d8d	-0.010157955
110	0x3c1798de	0.009252755
111	0xbc829352	-0.015939388
112	0xbc04088c	-0.008058678
113	0x3c867ab5	0.016415933
114	0x3c14a692	0.009072917
115	0xbc58e653	-0.013238507
116	0xbd00d6d2	-0.03145487
117	0x3ba4cc68	0.00502925
118	0x3cacd42b	0.021097263
119	0xbd29573a	-0.04134295
120	0xbd3ca6e2	-0.04605759
121	0xbd5d0aec	-0.053965494
122	0xbd26ae78	-0.04069373
123	0xbd411f30	-0.047148883
124	0xbc14bec0	-0.0090786815
125	0x3c0b3cfe	0.008498428
126	0xbcee2df7	-0.029074652
127	0xba633357	-0.0008667013
128	0xbd7c90fc	-0.061661705
129	0x39483513	0.00019093258
130	0xbcb3f692	-0.02196816
131	0x3b9b7c87	0.0047450694
132	0x3c733ea9	0.014846482
133	0xbc98c995	-0.01865081
134	0xbb9c83f2	-0.0047764713
135	0xbc235afe	-0.009970425
136	0x3d1b8d98	0.03797683
137	0x3c9c775b	0.019099882
138	0xbccc0b98	-0.024907872
139	0x3afde003	0.0019369129
140	0xbd4218c9	-0.04738692
141	0xbce81df7	-0.0283346
142	0xbc5a7f53	-0.0133360205
143	0xbce010cb	-0.027351758
144	0xbcbbf54f	-0.02294412
145	0x3adb26ef	0.0016719977
146	0xbd02360a	-0.031789817
147	0xbd06c7e8	-0.03290549
148	0x3da60bea	0.08107741
149	0xbd0995b4	-0.033590034
150	0xbd64293c	-0.055703387
151	0x3c8e6f33	0.017387008
152	0x3c1c2d29	0.009532251
153	0x3c4e9f8b	0.01261128
154	0x3bb286d8	0.0054482035
155	0xbce91497	-0.0284522
156	0xbd87e49f	-0.06635403
157	0xbcb6721e	-0.022271212
158	0x3c4dbaf9	0.012556785
159	0xbc9cdf5a	-0.019149471
160	0xbc6b40b9	-0.014358693
161	0xbd13801c	-0.036010846
162	0x3b0d16d6	0.0021528504
163	0x3d0fbe67	0.03509369
164	0x3c3eb825	0.011640583
165	0xbd30955a	-0.043111183
166	0x3ca95c34	0.020673849
167	0xbd7b7fb3	-0.06140108
168	0xbcae1c77	-0.021253807
169	0xbd66b25d	-0.056322444
170	0xbd44ae4e	-0.048017792
171	0xbd5465c7	-0.051854875
172	0xbcd67364	-0.02617807
173	0xbc9a1802	-0.018810276
174	0xbb9bf64d	-0.004759586
175	0x3ce8e969	0.028431611
176	0xbd1d16f1	-0.038351957
177	0x3ad7a1b9	0.0016451395
178	0x3ba15eee	0.0049246466
179	0x3b8b3494	0.004248211
180	0x3c961238	0.018319234
181	0xbd098b78	-0.033580273
182	0xbd1dfc5e	-0.038570754
183	0xbca8d387	-0.020608677
184	0x3cdb55f1	0.026774378
185	0xbd019d1d	-0.031643976
186	0xbc331b37	-0.0109317815
187	0xbc91496d	-0.017735207
188	0xbd1a9f8f	-0.037749823
189	0xbd9cd67c	-0.07658097
190	0xbc7f5f43	-0.015586677
191	0x399bceef	0.0002971808
192	0x3c952ed7	0.018210812
193	0xbd256272	-0.040377088
194	0xbd27e429	-0.040989075
195	0xbc04c73a	-0.00810414
196	0x3ce210ae	0.027595844
197	0xbcb96bc5	-0.022634396
198	0x3b8544bf	0.004067033
199	0x3ba0cc17	0.004907142
200	0x3c0ab48e	0.008465899
201	0xbc87ba77	-0.016568406
202	0xbd83f33d	-0.064428784
203	0xbca16cc1	-0.019705178
204	0xbd0da819	-0.03458414
205	0xbbd50cd1	-0.006501772
206	0x3aa91e1e	0.0012902652
207	0xbd3145f4	-0.043279603
208	0x3c3a3fa4	0.011367712
209	0xbd6823e4	-0.056674853
210	0xbcea5db0	-0.028609127
211	0x3c1f14a4	0.009709511
212	0x3b945e2a	0.004527827
213	0xbcab655e	-0.02092236
214	0x3d81ca2d	0.0633739
215	0xbd3b5d77	-0.045743432
216	0xbcfbaffa	-0.03072356
217	0x3cb24376	0.021760684
218	0xbca824cc	-0.020525359
219	0xbd1587c2	-0.036506422
220	0xbc84f8ed	-0.016231978
221	0xbc2c68fc	-0.010523077
222	0xbd55c9ae	-0.05219429
223	0xbd96aa88	-0.07356745
224	0xbd583113	-0.052781176
225	0xbd42b6e0	-0.047537684
226	0xbbd020dd	-0.006351574
227	0xbbf2b209	-0.0074064774
228	0xbc8d26f6	-0.017230492
229	0xbc954364	-0.01822061
230	0xbd2c5bd7	-0.042079773
231	0x3c265b37	0.010153583
232	0x3b97328a	0.004614179
233	0x3cafa309	0.021440046
234	0x3c92361e	0.01784807
235	0xbd0e28d3	-0.0347069
236	0xbcc30d57	-0.023810072
237	0xbced1357	-0.028939886
238	0x3c06cf13	0.008228081
239	0xbd49a4d3	-0.049229454
240	0x3b0a266a	0.0021080025
241	0x3c1abeae	0.009444876
242	0xbd454ba2	-0.048167832
243	0xbd2a113f	-0.041520353
244	0xbcb806fb	-0.022464266
245	0xbd10e1be	-0.035371535
246	0xbc019065	-0.0079079615
247	0xbd31f5b4	-0.04344721
248	0x3bd78de7	0.0065781954
249	0xbb2e1191	-0.0026560763
250	0xbd7cf012	-0.061752386
251	0xbd1c9852	-0.0382312
252	0xbafff1b0	-0.0019526985
253	0x3c734ce3	0.014849874
254	0xbc797afe	-0.0152270775
255	0x3a16583c	0.0005735194

network_body._body_endoder.seq_layers.2.weight f4 [256, 256]
0	0xbd855fc3	-0.06512406
1	0xbd7ec6a3	-0.062201153
2	0xbcd414d7	-0.025888843
3	0xbc76d999	-0.015066528
4	0xbe2760f8	-0.16345584
5	0x3e0bfb67	0.13670121
6	0xbd81b892	-0.06334032
7	0x3c49312a	0.012279788
8	0x3d8e8e7a	0.06960769
9	0x3ddb290f	0.10701191
10	0x3d705a75	0.058680017
11	0x3d6a3696	0.057180963
12	0xbd090fe0	-0.033462405
13	0x3bf03494	0.0073304866
14	0xbd931183	-0.071810745
15	0x3a372125	0.0006985835
16	0x3cec4675	0.02884219
17	0xbdaedb57	-0.085379295
18	0x3da9c320	0.0828917
19	0x3e34499d	0.17606206
20	0xbd4835f3	-0.048879575
21	0xbd0a54c1	-0.033772234
22	0xbcd96860	-0.026539028
23	0xbcfb8f29	-0.030707913
24	0xbd869e44	-0.065731555
25	0x3d09d14c	0.033646867
26	0x3c740b36	0.014895251
27	0xbd95a0fb	-0.07306095
28	0xbd5a0c27	-0.053234246
29	0x3d639e49	0.055570874
30	0x3e2acd57	0.16679893
31	0xbd59a4e7	-0.05313578
32	0xbda6d393	-0.08145823
33	0xbd5578c7	-0.052117135
34	0x3d2b3715	0.041800577
35	0x3d54ecd4	0.05198367
36	0x3c8b04f5	0.016970137
37	0xbd08b43e	-0.033375017
38	0x3dc3efc7	0.09567218
39	0xbca779be	-0.020443793
40	0x3d566556	0.052342735
41	0xbd9f3729	-0.07774193
42	0x3c56b47a	0.013104552
43	0xbd938b7a	-0.072043374
44	0xbe1232b2	-0.14277151
45	0xbd334baa	-0.04377333
46	0x3c152668	0.009103395
47	0xbca1785f	-0.019710718
48	0xbd687342	-0.056750543
49	0xbba28f40	-0.0049609244
50	0x3cabf43d	0.020990485
51	0xbdcffd75	-0.10155765
52	0x3cb1a45e	0.021684822
53	0x3cecdae1	0.028912963
54	0xbd1cadcd	-0.038251687
55	0xbd4ccd1d	-0.0500003
56	0x3d83a250	0.06427443
57	0x3ddc4bbd	0.107566334
58	0x3dabc006	0.08386235
59	0x3c7a9a3f	0.015295564
60	0xbdede602	-0.11616136
61	0x3d5143af	0.05108994
62	0x3d831327	0.064001374
63	0x3d024156	0.03180059
64	0xbd075808	-0.033042938
65	0x3d2d1106	0.042252563
66	0xbd74f129	-0.0598003
67	0xbddef626	-0.10886793
68	0xbd25ed85	-0.04050972
69	0x3da2b6ef	0.07945048
70	0x3db5718c	0.08859548
71	0x3bc9ae8d	0.0061548413
72	0xbcfbe169	-0.030747132
73	0xbdef8bbf	-0.11696576
74	0x3c7870b8	0.015163593
75	0xbe2c2a04	-0.16812903
76	0x3c922d04	0.01784373
77	0x3c8eac3a	0.017416108
78	0x3c0434dd	0.008069244
79	0xbc4eb973	-0.012617457
80	0x3c96fd7f	0.018431423
81	0xbcf53358	-0.02993171
82	0x3d17dc1c	0.037075147
83	0xbe054e6a	-0.13018194
84	0xbd10eed6	-0.03538402
85	0x3c34b0ff	0.011028527
86	0xbe00aaf8	-0.1256522
87	0x3dd74aea	0.105123356
88	0x3cd41dd0	0.025893122
89	0x3cc461db	0.023972442
90	0xbdba6bfa	-0.09102626
91	0x3c054568	0.0081342235
92	0x3b81780a	0.0039510773
93	0xbe2a046c	-0.1660325
94	0x3dda767d	0.10667131
95	0xbd590e2f	-0.052992042
96	0xbd290ce9	-0.041272078
97	0x3cf7f5cb	0.03026857
98	0xbddc7b91	-0.10765756
99	0xbd8cb4ee	-0.06870447
100	0x3d420c16	0.047374807
101	0x3dddc013	0.10827651
102	0xbd839f05	-0.06426815
103	0xbddbec2f	-0.10738408
104	0x3d08320c	0.033250853
105	0xbd2b71da	-0.041856624
106	0xbcdbf610	-0.02685073
107	0xbda36900	-0.079790115
108	0xbc3c39bb	-0.011488373
109	0xbe234d90	-0.15947556
110	0xbd769682	-0.06020213
111	0x3ceea640	0.029132009
112	0xbcb8f592	-0.022578035
113	0x3d9d3eea	0.076780155
114	0xbdb9c650	-0.09071028
115	0xbc67a187	-0.014137632
116	0xbcd815ce	-0.026377585
117	0x3c82f6ef	0.015986888
118	0xbc027162	-0.007961603
119	0xbce556fa	-0.027995575
120	0x3bcb7efc	0.006210206
121	0x3cd0e89e	0.025501546
122	0x3d9535e3	0.07285669
123	0xbd1f3ef2	-0.03887839
124	0x3d3fc354	0.04681714
125	0xbe284102	-0.16431049
126	0xbcac0361	-0.020997705
127	0x3cd14dc9	0.025549786
128	0x3d94ba60	0.07262111
129	0xbdc0fb93	-0.09422984
130	0x3b34c108	0.0027580876
131	0xbe217fec	-0.15771455
132	0xbc9e3a42	-0.019314889
133	0xbcff8393	-0.03119067
134	0x3c91f2de	0.017816003
135	0xbd84db41	-0.06487132
136	0xbdbc4079	-0.09191985
137	0xbd4d4c15	-0.050121386
138	0xbb063a04	-0.0020481357
139	0xbd72cfdb	-0.059280258
140	0x3bd05b60	0.006358549
141	0x3d1daa6a	0.038492598
142	0x3dc57cfc	0.096429795
143	0x3c939222	0.018014017
144	0xbce86aba	-0.028371204
145	0xbd7d0352	-0.061770745
146	0xb9a2febd	-0.00031088843
147	0x3c0b42cc	0.008499812
148	0x3c0e5066	0.008686161
149	0xbc920bde	-0.017827924
150	0x3e0e6525	0.13905771
151	0xbe06017d	-0.13086505
152	0xbd89d5d0	-0.067302346
153	0xbc8c1925	-0.017101834
154	0xbe0de0cd	-0.13855286
155	0xbe22c193	-0.15894155
156	0xbd94b7dd	-0.07261632
157	0xbda01d5b	-0.07818099
158	0xbcbb4064	-0.022857852
159	0xbd3f3da9	-0.046689663
160	0x3c6a05dc	0.014283624
161	0x3cd61318	0.026132151
162	0x39c849df	0.0003820201
163	0xbd1ed940	-0.038781404
164	0xbd93e8ee	-0.07222162
165	0x3d835038	0.06411785
166	0xbc0f6968	-0.008753158
167	0x3c1d924f	0.009617402
168	0x3cbdaf86	0.023154985
169	0xbd3baa97	-0.045816984
170	0x3d02f7c9	0.031974588
171	0xbcb64bd4	-0.022252955
172	0x3cda8051	0.026672514
173	0xbdf28cb2	-0.11843242
174	0xbce4d6ed	-0.027934516
175	0xbe09ce3c	-0.13457578
176	0xbdb83325	-0.0899413
177	0xbcb040db	-0.0215153
178	0x3b9cf4df	0.004789933
179	0xbd89bc98	-0.067254245
180	0x3cc7104c	0.024299763
181	0x3db6f3bb	0.08933207
182	0x3d22cd96	0.039746843
183	0x3c003ab6	0.007826498
184	0x3cc0a44d	0.023515845
185	0x3d8a6843	0.067581676
186	0x3c8bec3b	0.017080417
187	0xbd92df34	-0.07171479
188	0x3b8bae12	0.004262694
189	0xbcb58642	-0.022158746
190	0xbcc723aa	-0.024308998
191	0x3d03eeef	0.032210287
192	0xbd23ec74	-0.04002042
193	0x3da8839d	0.08228228
194	0x3d3750e1	0.044754867
195	0x3d59f4fc	0.05321215
196	0xbe0acbb7	-0.13554274
197	0x3c94b016	0.01815037
198	0x3e029fc5	0.1275626
199	0x3d999bbe	0.075004086
200	0x3d52fec1	0.051512484
201	0xbe0fee7f	-0.14055823
202	0x3c6cddde	0.014457194
203	0xbe049419	-0.1294712
204	0x3d0c1e72	0.034208722
205	0xbd97f933	-0.07420578
206	0xbc9246b6	-0.017855983
207	0x3c378b0c	0.011202585
208	0xbd00ecf5	-0.03147598
209	0xbb9f84e1	-0.0048681353
210	0x3c99ea5b	0.018788507
211	0xbca92087	-0.020645393
212	0xbc154439	-0.009110504
213	0xbd95adc4	-0.07308534
214	0xbe125d67	-0.14293443
215	0x3d750ada	0.059824802
216	0x3cc41ec0	0.023940444
217	0xbccdd282	-0.025124792
218	0x3d6848a8	0.056709915
219	0x3cc0783f	0.023494838
220	0x3daf128f	0.08548462
221	0xbd3904f4	-0.04517074
222	0x3cafec08	0.021474853
223	0xbc56ec94	-0.013117928
224	0x3d895b96	0.06706922
225	0xbdd9d9fd	-0.10637281
226	0x3cfae485	0.030626545
227	0x3c25c3f0	0.010117516
228	0x3da3a7ec	0.07991013
229	0xbcc8cdf6	-0.024512272
230	0xbd79cdc0	-0.060987234
231	0xbd53b7ca	-0.051688947
232	0xbdd24c37	-0.10268443
233	0xbd84e83d	-0.064896084
234	0xbd829057	-0.06375187
235	0xbd57ef8d	-0.052718688
236	0x3ce7cddf	0.02829641
237	0x3dbd9ece	0.09258805
238	0xbc99cbf2	-0.018774007
239	0xbd3c71d2	-0.046006985
240	0x3d95ba2f	0.07310902
241	0x3d195388	0.037433177
242	0x3bde67c0	0.0067872703
243	0x3df5d0c6	0.12002711
244	0x3dd464f0	0.10370815
245	0x3c8b2d50	0.01698938
246	0xbdf7f4bc	-0.12107226
247	0xbcc01d3e	-0.023451444
248	0xbd1def88	-0.038558513
249	0x3df936cf	0.12168657
250	0x3db26302	0.087102905
251	0xbc44f878	-0.01202213
252	0x3cefa582	0.029253725
253	0xbd0f53d2	-0.034992047
254	0xbdc5ec50	-0.09664214
255	0x3c37fa3c	0.011229094

network_body._body_endoder.seq_layers.2.bias f4 [256]
0	0xbd85fdba	-0.06542535
1	0xbc32fcc8	-0.010924526
2	0xbd0483de	-0.03235232
3	0xbd01df4f	-0.031707104
4	0xbd6a54ab	-0.057209652
5	0xbce86c46	-0.028371941
6	0xbc9d5940	-0.019207597
7	0xbc930844	-0.017948277
8	0xbd8f7572	-0.07004823
9	0xb8bcd728	-9.0046145e-05
10	0xbd407e00	-0.046995163
11	0xbd189e41	-0.037260298
12	0xbccc1155	-0.024910608
13	0xbce85d1b	-0.028364709
14	0xbcee11fa	-0.029061306
15	0xbca49e45	-0.020095
16	0xbd9813d5	-0.07425658
17	0xbcd372a4	-0.0258115
18	0xbd1d9833	-0.038475227
19	0xbc9c15c3	-0.019053346
20	0xbc86c08e	-0.01644924
21	0xbcc8bc6e	-0.024503913
22	0x3c0d3c24	0.008620296
23	0xbc319044	-0.010837618
24	0x3bc3a1ad	0.005970201
25	0xbcee84a4	-0.029115982
26	0xbd6e3265	-0.05815353
27	0xbd2e1d0c	-0.04250817
28	0xbd83894f	-0.06422674
29	0xbcba89c5	-0.022770772
30	0xbd2712b9	-0.04078934
31	0x3cca2456	0.02467553
32	0xbd442866	-0.04789009
33	0xbd0daa56	-0.034586273
34	0xbd57fe57	-0.05273279
35	0x3be2dd6e	0.006923369
36	0xbba8940a	-0.0051446008
37	0xbc8e3d04	-0.017363079
38	0xbcc56144	-0.024094231
39	0xbcd6290b	-0.026142618
40	0x3c664ef9	0.0140569145
41	0xbbd3a4f9	-0.0064588753
42	0xbd0b0e7d	-0.033949364
43	0xbcbd94e9	-0.023142295
44	0x3bb2809e	0.0054474613
45	0xbd26afe7	-0.040695097
46	0xbcf02601	-0.029314997
47	0xbb5c8cda	-0.003365329
48	0xbd1f3c5d	-0.038875926
49	0xbd105468	-0.035236746
50	0xbd8387d0	-0.064223886
51	0xbd2acba1	-0.041698102
52	0xbca261e6	-0.019822072
53	0x3aebf056	0.0018000703
54	0xbce30621	-0.027712883
55	0xbd2b4243	-0.04181124
56	0xbc82f20a	-0.015984554
57	0xbd31f1f7	-0.043443646
58	0xbcf7aab5	-0.030232767
59	0xbc912eb6	-0.017722469
60	0xbc62a219	-0.013832592
61	0xbd06465c	-0.032781944
62	0xbce1dbcd	-0.02757063
63	0xbc63f02c	-0.013912242
64	0xbd81dc90	-0.06340897
65	0xbd27d335	-0.040972907
66	0xbceacd8e	-0.02866247
67	0xbcfa2f8d	-0.030540252
68	0xbc5e2efa	-0.013561005
69	0xbba23c09	-0.0049510044
70	0xbd01913d	-0.03163265
71	0xbcf6832a	-0.03009184
72	0xbc9e38a5	-0.01931412
73	0xbb8b015f	-0.004242107
74	0xbccccb9d	-0.024999434
75	0xbc8fb212	-0.017540965
76	0xbd21ec01	-0.03953171
77	0xbcf086a4	-0.029361077
78	0xbc67d1c4	-0.014149133
79	0xbd8b155d	-0.06791184
80	0xbc8d4e00	-0.017249107
81	0xbd7e9e64	-0.06216277
82	0xbd3fab05	-0.046793956
83	0xbcf1784e	-0.029476311
84	0x3b0e91e4	0.0021754438
85	0xbd34c095	-0.044128973
86	0xbbb727c9	-0.0055894596
87	0xbc66e196	-0.01409187
88	0xbc3585ed	-0.011079294
89	0xbcf2cb96	-0.029638093
90	0xbd9d07d5	-0.076675095
91	0xbceed181	-0.029152634
92	0xbcb411ab	-0.021981081
93	0x3bcdaf6c	0.0062770154
94	0xbd3730f2	-0.044724412
95	0xbbf2f1c3	-0.007414074
96	0x3aa5ad83	0.0012640211
97	0xbd86da4d	-0.06584606
98	0x3ca02c3f	0.019552348
99	0x3cca025d	0.02465933
100	0xbc86f406	-0.016473781
101	0xbc6d9630	-0.0145011395
102	0xbc5c88e4	-0.013460372
103	0xbd04de64	-0.03243865
104	0xbd4b3f63	-0.049620997
105	0x3a379c6c	0.00070042047
106	0xbce06696	-0.027392667
107	0xbd3ef040	-0.04661584
108	0xbba8f377	-0.0051559764
109	0xbd8720e6	-0.06598072
110	0xbd3b54ed	-0.04573529
111	0xbcd339c4	-0.02578438
112	0xbd10bddd	-0.035337318
113	0xbd20578c	-0.03914599
114	0x3babfe65	0.005248832
115	0xbbc4bb04	-0.0060037393
116	0xbce74ffb	-0.02823638
117	0xbd0529b2	-0.032510467
118	0xbd64505a	-0.05574069
119	0xbc249f57	-0.010047755
120	0xbd19ad82	-0.037518986
121	0xbccff9f0	-0.025387734
122	0xbc00cfa3	-0.007862004
123	0xbd80c1d2	-0.06286968
124	0xbc5eff10	-0.013610616
125	0xbce00646	-0.027346741
126	0xbd09377d	-0.033500183
127	0xbcc38190	-0.023865491
128	0xbcda9986	-0.026684534
129	0xbc09452c	-0.008378308
130	0xbcf03d47	-0.029326094
131	0xbcc7f8b0	-0.024410576
132	0xbcbf2e0c	-0.023337387
133	0xbb74b6f7	-0.00373405
134	0x3b966fd9	0.00459097
135	0xbd06a649	-0.032873426
136	0xbd45bcdf	-0.048275825
137	0xbd076294	-0.033052996
138	0xbc139b16	-0.009009143
139	0xbcaaf400	-0.020868301
140	0xbc5aca26	-0.01335386
141	0xbd3be4b6	-0.045872413
142	0xbc071628	-0.008245029
143	0xbd536aab	-0.0516154
144	0x3c75e433	0.01500802
145	0xbcb2918a	-0.021797914
146	0xbc108f96	-0.008823296
147	0xbd81d0cb	-0.06338652
148	0xbc71a995	-0.014749904
149	0xbd72acbb	-0.05924676
150	0x3cf4023c	0.029786222
151	0x3bec1e3d	0.007205753
152	0xbd161faa	-0.03665129
153	0x3a0d484e	0.00053894974
154	0xbd3e7315	-0.04649647
155	0xbd5e191d	-0.05422317
156	0xbca3c04e	-0.019989159
157	0xbc86392c	-0.016384684
158	0xbd36f5c1	-0.044667963
159	0x3c4e1c94	0.012580056
160	0xbce376f3	-0.02776668
161	0xbcc5db2c	-0.02415236
162	0xbd825363	-0.06363561
163	0xbcc89eaf	-0.024489729
164	0x3cc4e2c7	0.024033917
165	0xbc87cee1	-0.01657814
166	0x39af9b61	0.00033494367
167	0xbcc4f191	-0.02404097
168	0xbd0226ab	-0.031775158
169	0xbd63b7b7	-0.055595126
170	0x3c168ca0	0.009188801
171	0xbd264637	-0.040594306
172	0xbc9f37c1	-0.019435765
173	0xbc537ab1	-0.01290767
174	0xbc5bce0f	-0.013415827
175	0xbc20aeec	-0.00980733
176	0xbcf64a30	-0.030064672
177	0xbd27e660	-0.040991187
178	0xbc93efb0	-0.018058628
179	0xbac91f80	-0.0015344471
180	0xbd0ed418	-0.034870237
181	0xbd8a2a57	-0.06746357
182	0xbd72a533	-0.059239578
183	0xbd36fa0c	-0.044672057
184	0xbcd14434	-0.025545217
185	0xbd1f9bb0	-0.038966835
186	0x3b2814c2	0.0025647138
187	0xbcbc013c	-0.022949807
188	0x3b999558	0.0046869926
189	0xbcf242da	-0.029572893
190	0xbd970982	-0.0737486
191	0xbbde13d3	-0.0067772656
192	0xbcef2e81	-0.02919698
193	0xbcd8ff93	-0.026489055
194	0xbd2782b7	-0.040896144
195	0xbd2636c9	-0.04057959
196	0xbd6ea9bc	-0.05826734
197	0xbd10ade5	-0.03532209
198	0xbba364ab	-0.004986366
199	0x3bba5d4b	0.005687391
200	0xbcab6e43	-0.0209266
201	0xbcadbfdd	-0.021209652
202	0xbd235edd	-0.03988539
203	0xbca4c866	-0.020115089
204	0xbd3ca98a	-0.046060123
205	0xba9beb57	-0.0011895698
206	0xbd2cac31	-0.042156402
207	0xbc56f4e4	-0.01311991
208	0xbd4f0cbf	-0.050549265
209	0x3bc0785a	0.005873722
210	0xbd3e2092	-0.04641778
211	0x3c234207	0.009964473
212	0xbd3d1cc6	-0.04617002
213	0xbd147851	-0.036247555
214	0x3cb04c3d	0.021520728
215	0x3cf46305	0.029832372
216	0xbd34720f	-0.044054087
217	0xbcd1115c	-0.025520973
218	0x3af0b03a	0.0018363066
219	0xbd0cf9bd	-0.034417856
220	0xbd861406	-0.06546788
221	0x3c1f1e9b	0.009711887
222	0xbd31469d	-0.043280233
223	0xbc8f2489	-0.017473476
224	0xbca9fa17	-0.020749135
225	0xbb8351a9	-0.0040075374
226	0xbd5f5918	-0.054528326
227	0xbd4a1232	-0.04933376
228	0xbd318fa1	-0.043349866
229	0xbce0ab9a	-0.027425576
230	0x3b0cca36	0.0021482832
231	0xbc997df4	-0.018736817
232	0xbca9f07a	-0.020744551
233	0xbcc2d472	-0.023782942
234	0xbc1b6904	-0.009485487
235	0xbd7b1630	-0.061300457
236	0xbc0b2380	-0.008492351
237	0xbcf0031f	-0.029298363
238	0xbc86fafb	-0.016477099
239	0xbd7d3936	-0.06182214
240	0xbb818213	-0.0039522736
241	0xbd6f6466	-0.058445357
242	0xbd4d16ec	-0.050070688
243	0xbc1d8f4b	-0.009616683
244	0xbccef7fa	-0.025264729
245	0x3a8157ee	0.0009868124
246	0xbc83f7bc	-0.01610934
247	0xbca90486	-0.02063204
248	0xbc272591	-0.010201828
249	0xbd720af0	-0.059092462
250	0xbc942524	-0.018084116
251	0xbd0a37f2	-0.03374476
252	0xbd10000f	-0.035156306
253	0x3b77a636	0.0037788278
254	0xbcba2908	-0.022724643
255	0xbc8fe974	-0.017567374

action_model._discrete_distribution.branches.0.weight f4 [4, 256]
0	0xbc491c5c	-0.012274828
1	0x3cdbcaea	0.026830155
2	0x3c01fcaf	0.00793378
3	0xbb87aed4	-0.004140714
4	0xbbc71f17	-0.0060767042
5	0xbbb6811f	-0.0055695917
6	0xbcb2a699	-0.021807956
7	0xbb0eeda8	-0.0021809135
8	0xbc56a950	-0.013101891
9	0xbb8c619c	-0.004284097
10	0xbc3f3bbd	-0.011671958
11	0xbb430a02	-0.0029760604
12	0xbc4537fc	-0.0120372735
13	0x3bba17ff	0.00567913
14	0xbc2b2702	-0.010446312
15	0x3b3f3fbf	0.0029182283
16	0xbcd7a87d	-0.026325459
17	0xbc7ded0b	-0.01549841
18	0xbbf5baea	-0.0074990885
19	0xbd08124c	-0.033220574
20	0xbcc0e4c6	-0.023546588
21	0xbd19e893	-0.037575316
22	0xbc6c0e0b	-0.014407645
23	0xbb0bc442	-0.0021326696
24	0xbc33d289	-0.010975488
25	0xbc69d3ed	-0.014271718
26	0x3ccaef02	0.02477217
27	0xbccd26f8	-0.025042996
28	0x3c12a89a	0.008951331
29	0x3cc485e2	0.023989622
30	0x3aca3906	0.0015428371
31	0xbb5fa3ae	-0.003412466
32	0xbb8e4c90	-0.004342623
33	0x3a07ef1d	0.0005185472
34	0x3c8973ea	0.016778905
35	0x3c9e8315	0.019349614
36	0xbc015e2b	-0.007895987
37	0x3b720317	0.0036928111
38	0xbae361fd	-0.0017347928
39	0xbc3a7c67	-0.011382199
40	0xbd07ed96	-0.033185564
41	0xbd138035	-0.03601094
42	0x3c5f1a6c	0.013617139
43	0xbc8b4743	-0.017001754
44	0x3d8090ba	0.062776044
45	0x3c7d9de0	0.015479535
46	0xbcd314ee	-0.025766816
47	0x3c0599a3	0.008154306
48	0xbc8ed6e1	-0.017436447
49	0x3bc98ac9	0.0061505777
50	0xbc424b0b	-0.011858712
51	0x3c1d9ea4	0.009620342
52	0x3d709c28	0.058742672
53	0xbd061f9e	-0.032744996
54	0xbbeba7df	-0.0071916427
55	0xbc44037d	-0.011963722
56	0x3bd4158c	0.006472295
57	0x3c2d06c1	0.010560692
58	0x3a9e1d09	0.0012063097
59	0x3ba3f2d6	0.0050033135
60	0x3ce02293	0.027360236
61	0x3cb85d0b	0.022505304
62	0xbb1d87da	-0.0024037273
63	0xbcd40a33	-0.02588377
64	0xbcd5a093	-0.026077544
65	0xbb8f03b1	-0.0043644537
66	0x3d1b1687	0.03786328
67	0x3d038500	0.03210926
68	0x3c147842	0.009061875
69	0x3d3bb916	0.04583081
70	0x3bae9f05	0.005329015
71	0x3cfb6cc7	0.030691518
72	0xbd6a562a	-0.05721108
73	0xbd08eee6	-0.033430956
74	0xbcbf3787	-0.023341907
75	0xbd5c0bd2	-0.05372221
76	0xbcd822ba	-0.026383746
77	0xbcd6f04c	-0.02623763
78	0x3d05ad7f	0.032636162
79	0xbbb467bb	-0.0055055297
80	0xbcbc13a6	-0.022958588
81	0x3a4d784a	0.0007838054
82	0x3c4c5477	0.01247131
83	0xbb08b3f5	-0.0020859216
84	0xbb77c48a	-0.0037806355
85	0x3cb03234	0.021508314
86	0x3b6ac545	0.0035823148
87	0x3d78d79d	0.0607525
88	0xbaab3f6b	-0.0013065165
89	0xbd060fe6	-0.032730006
90	0xbcb358a0	-0.021892846
91	0xbd3e4faa	-0.046462692
92	0x3d198ef8	0.03748986
93	0x3cbc0f34	0.022956468
94	0x3c67d182	0.014149072
95	0x3d49bfe0	0.049255252
96	0xbbd28b18	-0.0064252727
97	0x3bbd3d36	0.005775119
98	0xbd639bbd	-0.055568445
99	0xbaed3ac6	-0.0018099181
100	0x3c1d9ee4	0.009620402
101	0xbc9c21e8	-0.019059137
102	0xbb1635a3	-0.0022920154
103	0xbca40618	-0.020022437
104	0xbae8f51d	-0.0017773245
105	0xbd1ad73e	-0.037802927
106	0xbbc8c93c	-0.0061275046
107	0x3c307f18	0.010772489
108	0x3c1f45d4	0.009721238
109	0x3c1f6b45	0.009730165
110	0xbbc50320	-0.0060123354
111	0xbc77cd15	-0.015124579
112	0xbb045a8b	-0.002019557
113	0xbcab1851	-0.020885618
114	0x3d83e681	0.064404495
115	0x3c9ec341	0.019380214
116	0xbc446854	-0.011987764
117	0x3bef745d	0.0073075728
118	0xbc952195	-0.01820449
119	0x3d82156c	0.06351742
120	0x3c5716e6	0.013128018
121	0x3c8c0439	0.017091857
122	0x3c1702c9	0.009216973
123	0xbcd51f92	-0.02601603
124	0xbbd97a60	-0.0066369027
125	0x3d5ad2d2	0.05342371
126	0x3c0abdd9	0.008468115
127	0xbc443580	-0.011975646
128	0x3c20d29b	0.009815837
129	0x3d681232	0.056657977
130	0x3d68e7e9	0.05686179
131	0x3d0bd5f7	0.0341396
132	0x3c325dc5	0.010886614
133	0xbcf64130	-0.03006038
134	0x3d817654	0.063213974
135	0x3c3d34e9	0.011548259
136	0xbbe3f24b	-0.006956374
137	0x3caf971b	0.021434357
138	0x3c713725	0.01472262
139	0xbcc61219	-0.024178552
140	0x3a17a66d	0.0005784992
141	0xbc996ded	-0.018729175
142	0x3d58f80e	0.05297094
143	0xbc1748f9	-0.009233707
144	0xbcd10b0e	-0.025517967
145	0xbbb210bd	-0.0054341243
146	0x3b3836d6	0.0028108857
147	0x3be2d679	0.00692254
148	0x3d25c7ef	0.040473875
149	0xbd3350c0	-0.04377818
150	0xbcf23b76	-0.029569369
151	0x3d6e26a4	0.05814232
152	0xbbda1d4d	-0.006656325
153	0x3ca7d814	0.020488776
154	0xbcbe4c98	-0.023229882
155	0xbc5cbf69	-0.01347337
156	0x3b22010b	0.002471986
157	0x3cad1c26	0.021131586
158	0x3c6a1cc1	0.014289082
159	0xbd5875d8	-0.05284676
160	0x3c4f2332	0.012642669
161	0x3d330d18	0.04371366
162	0x3a3a2340	0.00071005896
163	0x3c08b278	0.0083433315
164	0xbbf5fcaa	-0.0075069265
165	0x3d00c498	0.031437486
166	0x3d825079	0.06363005
167	0xbdae7727	-0.0851882
168	0xbc8ce958	-0.01720111
169	0x3bd8231d	0.0065959827
170	0xbca19d41	-0.019728305
171	0xbcde9bc1	-0.027173879
172	0x3b296cbc	0.0025852164
173	0x3c3b3b94	0.011427779
174	0xbc18fca7	-0.009337581
175	0x3d683e8c	0.056700274
176	0xbd39e54f	-0.0453847
177	0x3b8123bf	0.003941029
178	0xbcd9ca5d	-0.026585752
179	0xbcd4ff9b	-0.026000788
180	0xbc863eb4	-0.016387321
181	0xbad06f16	-0.0015902247
182	0xbcaa1fac	-0.020767055
183	0x3c042e49	0.008067676
184	0x3d6c0693	0.057623457
185	0x39a53342	0.00031509442
186	0xbc966722	-0.018359724
187	0x3c9db5e2	0.019251768
188	0xbd0b89c4	-0.03406693
189	0xbd0a0f7d	-0.033706177
190	0x3c5c4e0b	0.013446341
191	0xbb2c26f4	-0.0026268335
192	0x3bb9e19c	0.0056726467
193	0xbc99de9f	-0.018782912
194	0xbc037d18	-0.00802543
195	0x3cc00994	0.023442067
196	0xbc643484	-0.013928536
197	0xbd1cb76d	-0.038260866
198	0x3c2dd275	0.010609259
199	0x3d267100	0.04063511
200	0x3d41f76f	0.04735511
201	0x3cc28aa2	0.023747746
202	0xbceb561d	-0.028727585
203	0xbc284b55	-0.010271867
204	0xbccad705	-0.024760732
205	0xbcd37f2e	-0.02581748
206	0xbd1768ca	-0.03696517
207	0x3d294698	0.04132709
208	0x3cc67463	0.02422542
209	0xbd27daad	-0.04098003
210	0xbc977151	-0.01848665
211	0x3bc235b8	0.005926814
212	0x3ca1fee4	0.019774862
213	0xbc5f3c59	-0.013625228
214	0xbcf848be	-0.030308124
215	0xbd01e897	-0.031715956
216	0x3cd7522c	0.0262843
217	0x3bdd5695	0.006754706
218	0xbc566ce0	-0.013087481
219	0x3c463330	0.012097165
220	0xbc1b8d60	-0.009494156
221	0x3d6e699f	0.058206197
222	0xbd33548d	-0.043781806
223	0xbc9c8be7	-0.01910968
224	0xbd87dcc6	-0.06633906
225	0x3cd89f2d	0.026443088
226	0x3c331f20	0.010932714
227	0x3c729427	0.01480583
228	0x3c98f656	0.01867215
229	0xbc96c66b	-0.01840516
230	0x3d0b6ee9	0.03404132
231	0xbd52627f	-0.051363464
232	0xbce8506f	-0.028358666
233	0x3ba88d57	0.005143802
234	0xbce1a9d4	-0.0275468
235	0xbaba877a	-0.0014231049
236	0xbca0d161	-0.01963109
237	0xbc026a7f	-0.007959961
238	0x3d58c847	0.052925374
239	0xbc1bff64	-0.009521339
240	0x3c848ec8	0.016181365
241	0xbcb2fa21	-0.021847786
242	0x3bd9013f	0.006622463
243	0xbd1469ac	-0.03623359
244	0x3d404509	0.046940837
245	0xbc919354	-0.017770447
246	0xbcdfa084	-0.02729822
247	0xbc9ba6a6	-0.019000363
248	0xbbe7d7ff	-0.0070753093
249	0xbcb8f748	-0.02257885
250	0x3ba74216	0.0051043136
251	0xbcb2da29	-0.021832542
252	0xbcf39d86	-0.029738199
253	0xbc8093e4	-0.01569552
254	0x3d1160ba	0.035492636
255	0x3d60ec69	0.05491296

action_model._discrete_distribution.branches.0.bias f4 [4]
0	0x3d25a9e0	0.04044521
1	0xbcbd7ed8	-0.023131773
2	0xbc95e6ee	-0.018298592
3	0x3c55e770	0.013055667

action_model._discrete_distribution.branches.1.weight f4 [3, 256]
0	0xbc662508	-0.014046915
1	0x3c73baa6	0.014876043
2	0x3cba60a5	0.022751162
3	0x3d3040c2	0.043030508
4	0xbab102c5	-0.0013504854
5	0x3b5ebefb	0.0033988345
6	0xbc048b06	-0.008089786
7	0x3cd11929	0.025524693
8	0xbd07dde7	-0.033170607
9	0x3d41a7ac	0.047279045
10	0x3b7d57fa	0.0038657174
11	0xbc8af23f	-0.016961215
12	0x3d0fd4eb	0.035115164
13	0xbaa7481f	-0.0012762583
14	0xba47f922	-0.0007628371
15	0x3cc87caa	0.024473507
16	0xbcd398b7	-0.025829656
17	0xbbd55bcd	-0.0065111876
18	0xbd00efe6	-0.031478785
19	0x3c345331	0.0110061625
20	0x3d21e8b3	0.03952856
21	0xbb170d82	-0.0023048823
22	0x3af64ed5	0.0018791804
23	0x3d02a57c	0.0318961
24	0x3d012900	0.03153324
25	0x3d1e90d6	0.038712345
26	0x3c125356	0.008931002
27	0xbbd8f83b	-0.0066213883
28	0xbca467fe	-0.020069119
29	0x3d193fd0	0.037414372
30	0xbcc54e3e	-0.02408516
31	0x3d5da5d3	0.05411322
32	0x3b737c11	0.0037152807
33	0x3b80321c	0.0039122235
34	0x3caf5e0d	0.021407152
35	0x3c7cd3cd	0.015431357
36	0x3d343b58	0.044001907
37	0x3ca7dc0f	0.020490674
38	0x3c764947	0.015032119
39	0x3ad4d654	0.0016238191
40	0x3cad4862	0.021152679
41	0xbc440839	-0.011964851
42	0x3cd05a0c	0.025433563
43	0xbc78cab0	-0.015185043
44	0x3cf06a17	0.029347463
45	0xbbbea6c7	-0.0058182213
46	0x3cb8bca7	0.022550894
47	0x3d0ece45	0.034864683
48	0xbc3c28dd	-0.011484352
49	0x3b409e95	0.0029391397
50	0xbc7d045d	-0.015442935
51	0xbbb75b79	-0.005595621
52	0x3d0246ee	0.031805925
53	0x3cb7adf5	0.022421816
54	0xbc292b4b	-0.010325263
55	0x3bb7246c	0.0055890586
56	0x3c37ebe8	0.011225678
57	0x3be00fab	0.0068378053
58	0xbc0db392	-0.00864877
59	0xba5ef1ca	-0.00085046573
60	0x3a3ad94c	0.00071277167
61	0xbc164c62	-0.0091734845
62	0x3c1ea39f	0.009682565
63	0xbb68b908	-0.0035510678
64	0x3c71807d	0.014740107
65	0xbc70a55c	-0.014687862
66	0x3acac71e	0.0015470718
67	0xbc190f06	-0.009341961
68	0x3c23c76a	0.0099962745
69	0xbace848c	-0.0015756055
70	0x3ad31ce4	0.0016106633
71	0x3cbb179c	0.022838406
72	0xbd058ac0	-0.032603025
73	0x3c9d6c80	0.019216776
74	0xbcd3c0fd	-0.02584886
75	0x3ce4bf74	0.027923323
76	0x39f1776e	0.00046056084
77	0x3a98886f	0.001163734
78	0x3cd82b57	0.026387854
79	0x3ca0e4fd	0.01964044
80	0x3cc3c0d9	0.023895668
81	0xbc05d05f	-0.008167355
82	0x3cf522b5	0.029923776
83	0xbca7d504	-0.020487316
84	0x3c16483c	0.009172495
85	0xbc47ede4	-0.012202714
86	0x3cfd8813	0.030948674
87	0x3d494a49	0.04914311
88	0xbc9eef17	-0.019401116
89	0x3baff4fb	0.00536978
90	0xbc818f85	-0.015815506
91	0xbca6c3a0	-0.020356953
92	0x3d5d6376	0.05404993
93	0x3d21771c	0.039420232
94	0xbc091095	-0.00836577
95	0x3c4acef8	0.012378447
96	0x3d02174e	0.031760506
97	0xba8e6e49	-0.0010866608
98	0x3d0c3d4b	0.03423814
99	0x3cee75f3	0.029108977
100	0x3b17efb5	0.0023183648
101	0x3bceac2e	0.0063071465
102	0x3c62d16e	0.013843877
103	0x3d0d7bbc	0.03454183
104	0x3b7118bb	0.0036788422
105	0xbd597442	-0.053089388
106	0x3a81a6e7	0.000989166
107	0xbb7a9ef1	-0.003824171
108	0x3d1666bf	0.03671908
109	0xbcae1806	-0.02125169
110	0x3c0f905d	0.008762446
111	0xbccafbbe	-0.024778243
112	0x3a95d5a5	0.0011431469
113	0x3cb8e5a9	0.022570448
114	0x3c7b3de1	0.015334577
115	0x3ace8685	0.0015756643
116	0x3ca67ad4	0.02032224
117	0xbd2a67ca	-0.041602887
118	0xbcc265fb	-0.023730269
119	0x3d560a7a	0.052256085
120	0x3c909e12	0.017653499
121	0x3b9dc4a6	0.004814702
122	0xbc15092b	-0.009096424
123	0xbcbdfb12	-0.023191009
124	0x3caa1deb	0.02076622
125	0x3c2b4104	0.010452513
126	0xbd37cd4d	-0.044873524
127	0x3d23705e	0.039902084
128	0x3b3ae57b	0.0028518129
129	0x3cdc0114	0.026855983
130	0x3bd235bf	0.0064150984
131	0xbc866ac3	-0.01640833
132	0x3c12e2f3	0.008965242
133	0x3cbed02c	0.023292623
134	0x3d170f38	0.036879748
135	0xbcf58b0a	-0.029973526
136	0x3c47f714	0.012204904
137	0xbcc5a512	-0.024126563
138	0x3b89eb55	0.004208962
139	0x3bba01ff	0.0056765075
140	0x3d0192c7	0.03163412
141	0xbb6186fc	-0.0034412732
142	0x3bc7d91c	0.0060988795
143	0xbcc8d65c	-0.024516277
144	0xbb00fdc5	-0.0019682508
145	0x3ccde274	0.025132395
146	0x3afb2484	0.0019160663
147	0xbaca8de8	-0.0015453668
148	0x3d66b9fe	0.05632972
149	0x3cc03686	0.023463499
150	0x3d405bf3	0.04696269
151	0x3d4e4263	0.05035628
152	0x3d10ec34	0.03538151
153	0x3c0adb57	0.008475146
154	0xbbc21dca	-0.0059239613
155	0x3a9628b2	0.001145622
156	0x3a869c15	0.0010269905
157	0x3c9f8052	0.019470368
158	0xbcb7c0a9	-0.022430735
159	0x3c9c0f0d	0.019050146
160	0x3c25de6f	0.010123833
161	0xbd088abf	-0.033335444
162	0x3b8fea02	0.0043919096
163	0x3cbc0a35	0.022954086
164	0x3d8443b5	0.064582266
165	0x3d8ea7bd	0.06965587
166	0x3d81962a	0.0632747
167	0xbbedfdea	-0.007262935
168	0xbb770e40	-0.0037697703
169	0xbbfc2a8a	-0.0076955007
170	0x3d103338	0.035205096
171	0xbc8995e6	-0.01679511
172	0xbc856dcd	-0.016287709
173	0x3b64f7d3	0.0034937754
174	0xbc400da0	-0.011721998
175	0x3bdf96e0	0.0068234056
176	0xbc0a8595	-0.0084547
177	0xba854ae0	-0.0010169409
178	0x3cb052f1	0.021523925
179	0x3cc1f70f	0.023677377
180	0x3bfe5b72	0.007762366
181	0x395767ae	0.00020542621
182	0xbc76d870	-0.015066251
183	0xbc8011cf	-0.015633492
184	0x3d4bdce3	0.0497712
185	0xbc14eb5f	-0.00908932
186	0x3b5e4b9a	0.0033919574
187	0xbbcfcec7	-0.0063417885
188	0x3c7c73de	0.015408484
189	0xbd038b69	-0.032115374
190	0xbca9b731	-0.020717235
191	0x3c5b76d9	0.013395035
192	0x3bc6de57	0.0060689854
193	0xbcddc579	-0.027071701
194	0xbd22cf8d	-0.039748717
195	0x3c17a44b	0.009255479
196	0xbb4f86b7	-0.003166599
197	0x3c360cbd	0.0111114355
198	0x3cfccd26	0.030859541
199	0x3d7de253	0.061983418
200	0x3d0cfe02	0.03442193
201	0x3c364e74	0.011127103
202	0xbce55532	-0.027994726
203	0xbc61d9c7	-0.013784832
204	0xbc7769da	-0.015100921
205	0x3c71151b	0.014714505
206	0xbcf58e38	-0.029975042
207	0xbd297aa2	-0.041376717
208	0xbc0dd5db	-0.008656944
209	0x3c0d782d	0.008634609
210	0xbc7fb09c	-0.015606072
211	0x3d6ab003	0.057296764
212	0xbc2fee88	-0.010738023
213	0x3b8e2693	0.0043380945
214	0xba9afaa2	-0.0011823962
215	0x3a5e5471	0.00084812107
216	0xbbe8f908	-0.007109765
217	0x3c93445a	0.017976929
218	0xbbbe78c2	-0.0058127353
219	0xba3d9376	-0.0007231751
220	0xbc4cf131	-0.012508676
221	0x3d7b927f	0.061419006
222	0xbc074c28	-0.008257903
223	0xbc0b662c	-0.008508246
224	0xbc067c0f	-0.008208289
225	0x3ce7dee0	0.028304517
226	0x3aaf2e0c	0.0013365163
227	0xbb33dc5f	-0.0027444584
228	0x3d0c834d	0.034304906
229	0x3c297b73	0.010344374
230	0x3d419b19	0.047267053
231	0xbb2e669a	-0.0026611448
232	0xbc4dcafb	-0.012560601
233	0x3bf0abc2	0.007344694
234	0x3cf87e0e	0.030333545
235	0xbc32befb	-0.010909791
236	0x3b2988ef	0.0025868972
237	0x3c41eb18	0.011835836
238	0x3a29c04e	0.0006475494
239	0xba860230	-0.0010224041
240	0x3cb197bd	0.0216788
241	0xbbed95e3	-0.007250534
242	0x3bdd8db5	0.0067612776
243	0x3cdd067e	0.026980635
244	0x3c1dde85	0.009635572
245	0xbbcd8fd2	-0.0062732482
246	0x3a7218fd	0.0009235291
247	0x3c6f96a1	0.014623315
248	0x3d22ec7d	0.039776314
249	0xbcbdbe14	-0.023161925
250	0x3c25f191	0.010128395
251	0xbcf397a5	-0.029735396
252	0xbb363a73	-0.0027805835
253	0x3cbdfe36	0.023192506
254	0x3d13a209	0.0360432
255	0x3d06c43c	0.032901987

action_model._discrete_distribution.branches.1.bias f4 [3]
0	0x3d5ebdc0	0.05438018
1	0xbccaff1a	-0.024779845
2	0xbd03d070	-0.032181203

onnx::Div_108 f4 [45]
0	0x3947f4ac	0.00019069266
1	0x3abcb42e	0.001439696
2	0x3947f4ac	0.00019069266
3	0x3e05e8d2	0.13077095
4	0x3eb1d069	0.34729317
5	0x3efe45bc	0.49662578
6	0x3ebe77b7	0.3720071
7	0x3ea58a6d	0.32332173
8	0x3e2d5e34	0.16930467
9	0x3947f4ac	0.00019069266
10	0x3bd516b8	0.0065029524
11	0x3947f4ac	0.00019069266
12	0x3e143669	0.14473881
13	0x3eb3010e	0.34961742
14	0x3efea457	0.49734756
15	0x3ec49497	0.38394615
16	0x3e9cedeb	0.30650267
17	0x3e22fdec	0.15917176
18	0x3947f4ac	0.00019069266
19	0x3bc1df9e	0.00591655
20	0x3947f4ac	0.00019069266
21	0x3dfcb0e9	0.123384304
22	0x3eb4f5c8	0.35343766
23	0x3efe7e41	0.497057
24	0x3ed4a32f	0.4153075
25	0x3e7798e0	0.24179411
26	0x3e052d90	0.13005662
27	0x3947f4ac	0.00019069266
28	0x3be253a3	0.006906943
29	0x3947f4ac	0.00019069266
30	0x3e162494	0.14662391
31	0x3eb774b3	0.35831222
32	0x3eff1476	0.49820298
33	0x3edfdfbd	0.43725386
34	0x3e25c6ae	0.16189072
35	0x3dadd8e4	0.08488634
36	0x3947f4ac	0.00019069266
37	0x3c85cf3f	0.016334174
38	0x3947f4ac	0.00019069266
39	0x3e137d08	0.14403164
40	0x3eb6e40b	0.35720858
41	0x3efeeb41	0.4978886
42	0x3edfe43a	0.4372881
43	0x3e1e8d7f	0.15483664
44	0x3dd2756d	0.102763034

onnx::Div_111 f4 [20]
0	0x3cf9fc13	0.030515706
1	0x3947f4ac	0.00019069266
2	0x3de413f7	0.111366205
3	0x3d5f8db7	0.05457851
4	0x3cdaa589	0.026690261
5	0x3947f4ac	0.00019069266
6	0x3dcf5951	0.10124458
7	0x3d7ddd1d	0.06197845
8	0x3cf049f0	0.029332131
9	0x3947f4ac	0.00019069266
10	0x3dd51ef5	0.10406295
11	0x3d64f5d4	0.055898502
12	0x3c96cf74	0.018409468
13	0x3947f4ac	0.00019069266
14	0x3dba9367	0.09110146
15	0x3db24b97	0.08705824
16	0x3cdb8767	0.026797963
17	0x3947f4ac	0.00019069266
18	0x3dc0b7ea	0.09410079
19	0x3d562be1	0.05228794

onnx::Div_114 f4 [15]
0	0x3ea17264	0.31532586
1	0x3ea24606	0.3169405
2	0x3e4685a6	0.1938692
3	0x3ea35cc0	0.319067
4	0x3ecb814b	0.3974708
5	0x3e561349	0.20905794
6	0x3ea74c46	0.3267538
7	0x3eab2e98	0.33433986
8	0x3e541972	0.20712832
9	0x3e9d9cdb	0.30783734
10	0x3efa313a	0.48865682
11	0x3e825932	0.25458676
12	0x3ea7028d	0.32619134
13	0x3eb23242	0.3480397
14	0x3e62ca30	0.22147441
