Usable_Data/one_car_self_park_2/PKWParking/PKWParking-3999959.onnx (onnx, 545202 bytes, 19 tensors)

discrete_act_size_vector f4 [1, 2]
000000 00 00 80 40 00 00 40 40
       4.0 3.0

network_body.observation_encoder.processors.0.normalizer.running_mean f4 [45]
000000 00 00 00 00 00 00 00 00 00 00 00 00 50 59 d4 3c
       0.0 0.0 0.0 0.025921494
000010 08 b5 b4 3e ab f3 1e 3f 00 00 00 00 b4 e9 70 39
       0.35294366 0.6209056 0.0 0.00022975245
000020 b1 46 fc 3e 00 00 00 00 12 c6 a7 35 00 00 00 00
       0.49272683 0.0 1.2500116e-06 0.0
000030 f5 e9 01 3d f7 cc b4 3e f7 6f 1d 3f 00 00 00 00
       0.03171726 0.35312626 0.6149897 0.0
000040 d9 f7 2b 39 2a 64 fc 3e 00 00 00 00 95 88 58 39
       0.00016400161 0.4929517 0.0 0.00020650246
000050 00 00 00 00 70 b0 c4 3c 2f 7f ba 3e 61 85 1c 3f
       0.0 0.024009913 0.36425158 0.6114102
000060 00 00 00 00 d2 b6 00 39 f7 2c fb 3e 00 00 00 00
       0.0 0.00012275137 0.49057743 0.0
000070 3a 8d b8 36 00 00 00 00 be c5 10 3d 84 6d ba 3e
       5.5000683e-06 0.0 0.03534483 0.3641168
000080 17 85 19 3f 00 00 00 00 46 f9 5d 3a 8e 49 fb 3e
       0.59968704 0.0 0.00084676256 0.49079555
000090 00 00 00 00 15 bd 48 3a 00 00 00 00 6a 20 d7 3c
       0.0 0.000765757 0.0 0.026260573
0000a0 34 4e bf 3e c9 69 19 3f 00 00 00 00 b6 83 78 38
       0.37364352 0.5992704 0.0 5.9250473e-05
0000b0 42 88 e5 3e
       0.4483052

network_body.observation_encoder.processors.1.normalizer.running_mean f4 [20]
000000 1b 22 2a 39 00 00 00 00 8e cb a6 3d 01 af 18 3f
       0.00016225169 0.0 0.08144294 0.59642035
000010 9d 11 7f 39 00 00 00 00 03 97 88 3d 81 09 12 3f
       0.00024325257 0.0 0.06669428 0.5704575
000020 90 9b 8e 38 00 00 00 00 61 89 8f 3d b4 1b 17 3f
       6.8000634e-05 0.0 0.07008625 0.59026647
000030 53 22 45 3a 00 00 00 00 57 e7 59 3d ea 4f 07 3f
       0.00075200683 0.0 0.05319914 0.52856314
000040 68 11 e4 38 00 00 00 00 5c 24 68 3d d6 2e 16 3f
       0.000108751294 0.0 0.0566753 0.58665216

network_body.observation_encoder.processors.2.normalizer.running_mean f4 [15]
000000 66 f0 25 3e b9 71 56 3f 9a 99 68 3f 18 a1 30 3e
       0.16204986 0.83767277 0.9085938 0.17248952
000010 7a fd 3a 3f 81 0c 61 3f 76 35 3f 3e 91 2c 50 3f
       0.73043025 0.87909704 0.18672737 0.81318
000020 26 15 65 3f 09 b4 25 3e ac 40 2d 3f 39 d3 54 3f
       0.89485395 0.16181959 0.67676806 0.831348
000030 a9 d3 57 3e 0a 44 48 3f 29 9d 5f 3f
       0.21076836 0.7822882 0.8734918

network_body.observation_encoder.processors.3.normalizer.running_mean f4 [168]
000000 00 00 00 00 36 d2 47 3a db 71 ee 3c f8 17 8b 3e
       0.0 0.00076225714 0.029107025 0.27166724
000010 10 25 08 3f 00 00 00 00 5b e1 27 3e bb a3 96 3e
       0.5318155 0.0 0.1639456 0.2942179
000020 00 00 00 00 77 4b f6 3d 19 ba 99 3c 33 3f a3 3e
       0.0 0.120261125 0.018765496 0.31884155
000030 2d 75 cb 3e 00 00 00 00 c2 75 11 3e d6 fe 85 3e
       0.39737836 0.0 0.14205077 0.26170987
000040 00 00 00 00 22 33 8b 39 74 38 86 3d 6c 62 7d 3e
       0.0 0.00026550243 0.06553736 0.24744576
000050 50 4f 09 3f 00 00 00 00 1e 3a 17 3e 02 90 8f 3e
       0.53636646 0.0 0.14768264 0.28039557
000060 00 00 00 00 58 4b 20 3e 91 91 5a 3c 84 e0 bd 3e
       0.0 0.15653741 0.01334037 0.37085354
000070 a8 0f be 3e 01 38 06 35 c2 cc ae 3d 22 9e 5a 3e
       0.3712132 5.0000386e-07 0.08535148 0.21349385
000080 00 00 00 00 68 9b d8 3b 1b e0 71 3d 26 c2 92 3e
       0.0 0.0066103227 0.059051614 0.28663749
000090 a7 de 07 3f e6 0a d6 39 d8 29 e9 3d a7 eb 73 3e
       0.53074116 0.0004082538 0.11384934 0.23820363
0000a0 00 00 00 00 e7 f4 35 3e f1 56 a4 3c 31 c1 be 3e
       0.0 0.17769204 0.020060988 0.37256768
0000b0 08 75 c8 3e 95 c9 0f 3a 79 02 0f 3d cd 1b 2d 3e
       0.39151788 0.0005485055 0.034914467 0.16905136
0000c0 00 00 00 00 d5 5e bc 3d 16 05 10 3d 1b d9 ad 3e
       0.0 0.09197775 0.0351611 0.339547
0000d0 bd 63 ee 3e 2d 07 53 3b ec 13 7d 3d f7 d6 43 3e
       0.4656047 0.0032200322 0.061786577 0.19124971
0000e0 00 00 00 00 76 58 48 3a 67 5f ef 3c e7 a4 8b 3e
       0.0 0.0007642576 0.029220296 0.27274248
0000f0 5d 28 08 3f 00 00 00 00 f3 fd 27 3e 1e cb 96 3e
       0.5318659 0.0 0.16405468 0.2945184
000100 00 00 00 00 e7 52 f6 3d 8e 07 9a 3c a2 d4 a3 3e
       0.0 0.12027531 0.01880243 0.31998163
000110 e7 7a cb 3e 00 00 00 00 3f 94 11 3e d9 26 86 3e
       0.39742205 0.0 0.14216708 0.26201513
000120 00 00 00 00 a8 3f 8c 39 5b ee 86 3d 75 47 7e 3e
       0.0 0.00026750308 0.065884314 0.24831946
000130 81 52 09 3f 00 00 00 00 be 4e 17 3e 70 b4 8f 3e
       0.53641516 0.0 0.14776132 0.2806735
000140 00 00 00 00 6d 4f 20 3e 75 cd 5a 3c f1 7b be 3e
       0.0 0.15655299 0.013354649 0.37203935
000150 ad 15 be 3e f3 37 86 34 88 fc ae 3d d5 e8 5a 3e
       0.37125912 2.5000153e-07 0.0854426 0.21377881
000160 00 00 00 00 1d aa d8 3b fd 04 73 3d f3 40 93 3e
       0.0 0.006612076 0.05933093 0.2876049
000170 cf e1 07 3f 81 2c d6 39 34 45 e9 3d ea 2d 74 3e
       0.5307893 0.0004085042 0.113901526 0.2384564
000180 00 00 00 00 fd f8 35 3e ff f0 a4 3c 22 56 bf 3e
       0.0 0.17770763 0.020134447 0.37370402
000190 65 81 c8 3e 60 da 0f 3a f1 1f 0f 3d 01 59 2d 3e
       0.3916122 0.00054875575 0.03494257 0.16928484
0001a0 00 00 00 00 35 63 bc 3d e7 b9 10 3d 48 68 ae 3e
       0.0 0.0919861 0.03533354 0.34063935
0001b0 50 69 ee 3e 02 18 53 3b 92 35 7d 3d f1 14 44 3e
       0.46564722 0.0032210355 0.061818667 0.19148614
0001c0 00 00 00 00 f9 10 49 3a 9c 4a f0 3c eb 31 8c 3e
       0.0 0.00076700706 0.029332452 0.27381834
0001d0 9f 2b 08 3f 00 00 00 00 1d 1b 28 3e c4 f2 96 3e
       0.5319156 0.0 0.16416593 0.2948209
0001e0 00 00 00 00 89 5a f6 3d 2c 53 9a 3c 31 6a a4 3e
       0.0 0.12028987 0.018838488 0.32112268
0001f0 93 80 cb 3e 00 00 00 00 f7 b2 11 3e f8 4e 86 3e
       0.39746532 0.0 0.14228426 0.26232123
000200 00 00 00 00 1c 8f 8d 39 e9 a3 87 3d c4 2c 7f 3e
       0.0 0.0002700024 0.0662306 0.2491942
000210 a0 55 09 3f 00 00 00 00 92 63 17 3e bb d8 8f 3e
       0.5364628 0.0 0.14784077 0.2809504
000220 00 00 00 00 79 53 20 3e 07 08 5b 3c 84 17 bf 3e
       0.0 0.15656842 0.013368613 0.37322628
000230 7b 1b be 3e 01 38 06 35 00 2c af 3d 21 33 5b 3e
       0.3713034 5.0000386e-07 0.08553314 0.21406223
000240 00 00 00 00 b1 b8 d8 3b 91 2a 74 3d ed bf 93 3e
       0.0 0.006613814 0.059610907 0.28857365
000250 df e4 07 3f 2c 91 d6 39 51 62 e9 3d a0 71 74 3e
       0.53083605 0.00040925422 0.113957055 0.2387147
000260 00 00 00 00 31 fd 35 3e a8 8a a5 3c 83 eb bf 3e
       0.0 0.17772366 0.020207718 0.3748437
000270 9b 8d c8 3e 26 eb 0f 3a ee 3e 0f 3d 44 96 2d 3e
       0.39170536 0.0005490057 0.034972124 0.16951853
000280 00 00 00 00 43 67 bc 3d 33 70 11 3d 81 f7 ae 3e
       0.0 0.09199383 0.035507392 0.34173205
000290 fd 6e ee 3e 0f 31 53 3b e5 58 7d 3d d1 53 44 3e
       0.46569052 0.0032225286 0.061852355 0.19172598

network_body.observation_encoder.processors.4.normalizer.running_mean f4 [6]
000000 0c ff 7f 3f fc d3 35 3c 76 17 43 3d 60 eb 5f 3f
       0.99998546 0.011097904 0.047629796 0.8746853
000010 7d 2c c4 3c 01 cb 58 3d
       0.023946995 0.052927975

network_body._body_endoder.seq_layers.0.weight f4 [256, 254]
000000 a3 bb d4 bd 40 10 23 3d 2a 02 d2 bd 8c 99 8a bb
       -0.10387351 0.03981042 -0.10254319 -0.00422973
000010 da 6f b2 3d 12 ce 94 3c 80 47 ed bc 8d bf 74 3d
       0.0871274 0.018164668 -0.028964758 0.05975299
000020 ed 8a af 3c b6 4b 51 bb eb 51 19 bd d5 8f ad 3d
       0.02142855 -0.0031935996 -0.03743164 0.084746994
000030 1d 99 c2 3c 98 23 44 bc 37 ae 47 3d d9 86 0e bc
       0.02375465 -0.011971377 0.04875013 -0.008699142
000040 83 63 11 be df b8 90 bd 0e cb fd bc 79 92 6e 3d
       -0.14198117 -0.07066511 -0.030980613 0.058245156
000050 ba cc a8 bd 13 af 18 3d e6 ae 7e b7 e9 f7 d3 bc
       -0.082421735 0.03727634 -1.51803015e-05 -0.025875049
000060 d3 73 48 3d dc a1 95 bd 5e e8 0a 3c a6 03 18 3c
       0.048938584 -0.07306263 0.008478252 0.009278214
000070 0b cc 83 bc 34 89 5c bd 4d 22 0a 3d 66 88 25 3b
       -0.016088506 -0.053841785 0.033724118 0.0025258302
000080 b5 66 bf 3a b8 03 dc bd 5c d2 7d 3c f5 26 8d bc
       0.0014602753 -0.10742897 0.015492048 -0.01723049
000090 0a 35 a5 ba f5 b0 8a bd b3 71 94 bd 40 c1 09 bb
       -0.0012604308 -0.06772033 -0.07248249 -0.0021019727
0000a0 f4 ec 11 bb 33 e5 62 3c a4 e7 9f bc cf 33 33 bd
       -0.002226648 0.013848591 -0.019519635 -0.04375058
0000b0 29 36 ea bd e3 7c db bd 17 2a b6 3d 18 c7 9b 3d
       -0.114361115 -0.107171796 0.08894747 0.076063335
0000c0 ad f9 00 3d 64 83 3f 3c 7c fa 45 3d 91 bc 03 3d
       0.03148811 0.011689041 0.048334584 0.032162253
0000d0 4f 69 1f bd 3f 95 8c 3d 3a ba a4 bd 5a 6a 84 bc
       -0.03891879 0.06864404 -0.080433324 -0.016163994
0000e0 10 15 0b 3d 75 c4 f0 bb c8 a3 01 be 7d 66 a6 3d
       0.033955634 -0.0073476383 -0.12660134 0.08125017
0000f0 5f a4 cc 3d 6e d7 f7 ba 81 ad de bc 40 aa ef 3d
       0.09992289 -0.0018908808 -0.027182342 0.117023945
000100 91 ac 52 3d da 8e 88 3d c0 6b a1 bd 50 2e cb bd
       0.051434103 0.06667872 -0.0788188 -0.09920943
000110 19 ad 68 3d a6 21 f4 bc eb 38 e9 bd d1 dd 44 bd
       0.056805704 -0.029801201 -0.11387809 -0.048063103
000120 74 07 ca bd 87 ae 9a 3c ab 61 65 3c 35 97 f2 3c
       -0.09864703 0.01888205 0.014000337 0.029613117
000130 e6 50 54 3c 8b a4 4f bd 79 43 26 3d 18 62 bf 3d
       0.012958741 -0.05069403 0.04059169 0.09344882
000140 85 66 da 3d 24 e9 f7 bd 12 1e 42 bc a8 30 3b 3d
       0.10664085 -0.12105015 -0.01184799 0.0457007
000150 1d 2e 83 bc a1 fe 82 3c 56 a8 9f bc ed a5 c0 bd
       -0.0160132 0.015990557 -0.019489449 -0.09406648
000160 37 f0 59 bd a3 cd 21 be c7 98 9e bb 96 21 8b 3c
       -0.053207602 -0.158011 -0.00483999 0.016983788
000170 bc fa 3d 3c 9d e5 9b bd 71 eb a2 bd ab 75 20 3d
       0.011595424 -0.07612155 -0.07955063 0.039174717
000180 df fe 65 bd f9 50 71 bd 1c ee 80 bc c2 a1 17 bd
       -0.056151267 -0.058915112 -0.01573854 -0.0370195
000190 ae 98 12 3e e8 b7 50 bd 07 9b fe bc 17 7f 1e 3d
       0.14316055 -0.050956637 -0.031079782 0.03869542
0001a0 83 2c b7 3d 78 d0 8c bd ea 7a 26 3d da 1e 54 bd
       0.08944037 -0.068757 0.040644564 -0.051787235
0001b0 cb 24 93 bd 30 ca 5b bd b4 3b 4d bd b5 30 cc bc
       -0.07184752 -0.053659618 -0.050105765 -0.02492557
0001c0 72 65 53 bd fd 0e fa bc 2a a9 11 3d 97 e3 28 bd
       -0.051610418 -0.030524725 0.035561718 -0.04123267
0001d0 5c 83 05 bc 8e e8 99 3c 8c 78 34 bd a7 e5 0c be
       -0.008148994 0.018787649 -0.044060275 -0.1375948
0001e0 a0 f8 07 bd 68 9d 51 3d d7 a2 db bd 21 e7 9a bc
       -0.03319609 0.051175505 -0.107244186 -0.018909039
0001f0 cd 54 6c 3c 4f 77 c0 bd d5 ca ec bd 54 22 0e 3d
       0.014424515 -0.09397756 -0.11562125 0.034700707
000200 e7 45 a7 3d 1b ab f8 bb 6b e6 d9 bc b3 62 07 be
       0.0816763 -0.0075887567 -0.02659913 -0.13221245
000210 4b 56 b0 bd e8 e8 4c bd 80 b0 46 3d d9 0b ce 3d
       -0.08610209 -0.050026804 0.048508167 0.100608535
000220 9b 19 c9 3a 92 fa 38 3c 24 42 b2 bd e7 71 a5 bd
       0.0015342714 0.011290209 -0.087040216 -0.08078366
000230 bc 72 64 3d e0 60 80 bc f9 50 e1 ba 7a e8 df ba
       0.05577348 -0.015671194 -0.001719027 -0.0017082833
000240 83 68 86 bc c1 c3 c7 bd e9 87 97 3c 68 53 7a bd
       -0.016407257 -0.09754134 0.018497424 -0.0611147
000250 db dd d9 bc c0 c0 a7 3b 19 a1 ac bd b0 89 1a 3c
       -0.026595047 0.005119413 -0.084291644 0.009432241
000260 c1 af 0b bc b3 e9 0e bd f7 bd a8 3d 8d 57 c6 bd
       -0.00852579 -0.03489084 0.08239358 -0.09684668
000270 b0 34 69 3c 95 e1 66 3d af 5d c5 bc 79 5b 2f bd
       0.014233753 0.056367476 -0.024092523 -0.042811844
000280 db 2c e3 3d cd 19 a7 bb 56 44 0a bd fa 61 8d 3d
       0.1109254 -0.0050995112 -0.033756576 0.06903453
000290 c8 b6 5b bd f5 35 4e 3d e9 13 c3 bc 0c 61 66 3d
       -0.05364111 0.050344426 -0.023813205 0.056244895
0002a0 11 e4 bf 3d 62 e0 04 be 18 19 17 3d 4d cc 11 3d
       0.09369672 -0.1297622 0.036889166 0.035595227
0002b0 9a 17 10 3d 8d a0 44 bd 66 cf 20 bd c3 4f 8b 3d
       0.03517876 -0.048004676 -0.03926029 0.06802323
0002c0 3a a8 ea 3b 07 e9 0b 3e 6b 0c a6 bd 03 c3 83 bd
       0.0071611675 0.13663112 -0.08107837 -0.0643368
0002d0 0a 5a 2b bc fc ef 4e 3d 31 29 20 3d 4e ec 44 3d
       -0.010458479 0.050521836 0.039101783 0.04807692
0002e0 18 cb d6 bc e2 fc 3b 3e a6 e3 91 3d 36 2d 57 3d
       -0.02621989 0.18358186 0.071234986 0.05253335
0002f0 90 f1 06 bd 44 ed 11 3e 98 58 03 bc d2 ab 67 bc
       -0.032945216 0.14250666 -0.008016728 -0.014140086
000300 39 5a 33 3d 59 e4 69 bd 9b 0c be bd fe 96 40 3d
       0.043787215 -0.057102535 -0.09279748 0.047018997
000310 17 94 98 3d c4 51 ee bc 55 5e 13 be 7e 3f 27 3e
       0.07450121 -0.029091723 -0.14391454 0.16332814
000320 5e eb 36 3c d2 dd 11 be 3c eb d2 3b 7e a9 01 be
       0.011164514 -0.14244774 0.0064367335 -0.12662312
000330 c0 2e ad 3c 95 93 51 3d 2d 12 0f be 1e cf fd bb
       0.021140456 0.051166136 -0.13971777 -0.0077456376
000340 4e a0 af 3d 7a d1 db 3c c1 5a d6 3d fa fc 90 bd
       0.085754976 0.026833285 0.10466529 -0.070795015
000350 ed 33 07 bd 83 68 88 bd 3e 27 20 3b a4 13 b6 3b
       -0.033008505 -0.06660559 0.0024437453 0.0055565406
000360 72 38 83 3d 68 c0 41 3c c1 88 18 bd 1d 0d 04 bd
       0.064072505 0.011825658 -0.037239794 -0.03223907
000370 86 1e 42 bd 9a c6 3c 3d cf 8d 08 bc 50 2b 7f bd
       -0.04739239 0.04608784 -0.008334591 -0.062297165
000380 d2 9c 69 bd 95 40 b5 bd a2 f8 e3 3d 5e 86 0b bc
       -0.05703432 -0.08850209 0.11131407 -0.008515922
000390 06 4e ef bc 7b 1b cc bd dd 6a d5 bd 7c bd 9e 3d
       -0.02921201 -0.09966179 -0.10420773 0.07750985
0003a0 9c 6e d9 3d f8 f2 02 3d 43 5f fd bd 49 e6 0a 3e
       0.106168 0.031969994 -0.12371685 0.1356441
0003b0 e0 11 dd bd 0b fa f6 bc 15 75 7d 3d 71 a5 50 bd
       -0.10794425 -0.030148527 0.061879236 -0.050939027
0003c0 ce d9 be 3d 75 1d 45 3d 99 cf 11 bd f1 88 7a 3d
       0.09318887 0.048123796 -0.03559837 0.061165754
0003d0 4b 03 71 3c 93 f9 df bc 22 56 3a 3d c0 78 82 3b
       0.014710258 -0.027340686 0.0454923 0.0039816797
0003e0 16 51 c5 3d ab 4d 5a bd 9f bf af bc 0a aa a2 3d
       0.096346065 -0.053296726 -0.021453677 0.079425886
0003f0 0d 85 74 bc a4 b4 74 3c fb a1 d1 3d 69 87 d8 bd
       -0.0149243 0.014935646 0.102359734 -0.105727024

network_body._body_endoder.seq_layers.0.bias f4 [256]
000000 3e 05 68 bc 4c e8 89 bc 1e 4b 74 bc 2c 19 8d 3c
       -0.014161406 -0.0168344 -0.014910487 0.017223917
000010 3c 9f d8 b9 68 d1 67 bc c0 7a a6 3b 6d 80 20 bc
       -0.0004131737 -0.014149047 0.005080551 -0.009796244
000020 fe 04 34 3b ab 0f 8c 3b 79 eb a7 bc 96 7b e4 3b
       0.0027468796 0.0042743287 -0.020498024 0.0069727404
000030 55 24 b4 3a 6c f1 e1 3a ae f7 6e ba 5f 4c d3 bb
       0.0013743738 0.0017238087 -0.00091158866 -0.006448313
000040 cc 96 47 bc 24 f6 6e bc fe e6 07 bc b5 08 22 bd
       -0.012181949 -0.014585052 -0.008294819 -0.039559085
000050 e3 7f 8b ba 78 ce 09 bc 00 0f eb bc 77 8a 1b bb
       -0.0010642972 -0.008411042 -0.028693676 -0.0023733655
000060 85 9e 6b bc 08 4e fb bc a1 78 a3 bc 01 c1 5b 3c
       -0.014381056 -0.030676857 -0.019954981 0.013412715
000070 35 0e 1c bd aa 0b 71 3c 98 33 84 3c 56 83 04 bb
       -0.038099486 0.014712254 0.016137883 -0.0020219884
000080 41 fc b3 bc f9 a5 8c bc ab 05 ad bc 55 53 fa bb
       -0.02197087 -0.017168986 -0.021120867 -0.0076393285
000090 f1 dd bb 3b ae 90 43 3c cb 47 81 bc 54 1e eb bc
       0.0057332446 0.01193635 -0.015781304 -0.028700985
0000a0 b0 9d 98 bc 7d 6f ae bc f5 08 a7 3b cc 72 1c bc
       -0.018629879 -0.021293396 0.0050975033 -0.009548854
0000b0 9d 5f a4 bb 21 e9 df bc 6a f9 9e b9 0f ab 4b bd
       -0.005016281 -0.027332844 -0.00030321936 -0.04972368
0000c0 ce 8a 40 bb 36 9e 28 3c f3 5a 9b 3b 48 0c 09 bd
       -0.002937961 0.010291627 0.0047410666 -0.033458978
0000d0 79 54 15 bd b3 7d 9e 3b 86 d1 84 bc f6 57 43 bc
       -0.036457513 0.004836762 -0.01621319 -0.011922827
0000e0 3a 75 39 bd 67 c3 dd 3c 5c 70 da 3c 0a 8e 40 bc
       -0.04527781 0.027070714 0.026664905 -0.011752615
0000f0 a4 c8 13 3b 8d 71 99 bc c1 fa 74 3c 12 6f 3f bc
       0.002255001 -0.018730903 0.0149523625 -0.011684196
000100 13 b2 97 bc 63 d0 d7 bc d9 4b 9f 3b 4a 54 9c 3c
       -0.01851753 -0.026344484 0.0048613367 0.01908316
000110 d3 02 8c bc 13 2e 92 bc 64 f7 11 bd d7 b6 19 bc
       -0.01709119 -0.017844236 -0.03563632 -0.009381971
000120 0a 58 c6 bb 6c 4f 07 bd 58 b0 05 3d 37 d1 27 3b
       -0.0060529755 -0.033034727 0.032638878 0.002560688
000130 03 ee fc bb 2f a7 1a 3c 87 5a 2c 3c 09 92 f9 bb
       -0.007718803 0.009439274 0.01051963 -0.0076162857
000140 37 bf 90 bb 88 d2 c2 bc a7 f2 e0 bc e1 25 76 3c
       -0.004417326 -0.02378203 -0.027459456 0.0150236795
000150 a5 34 d2 3c a4 2c b9 bc b5 a1 8e bc af 28 bb bc
       0.025659868 -0.022604294 -0.017411092 -0.022846548
000160 0f 67 41 ba e4 fc 5b 3b 47 57 95 bc 1c cf 2e 3d
       -0.00073777226 0.0033567483 -0.018230094 0.042677984
000170 8a 12 88 3b 52 54 3a 3c 90 72 cc bc 49 6a c7 bb
       0.0041526007 0.011372643 -0.024956971 -0.006085668
000180 63 2d 12 bd d6 ab 53 3a 15 20 b6 3c 97 ec e6 bc
       -0.035687815 0.0008074617 0.022232095 -0.028188987
000190 67 00 3b bd fb 6b 3b 3c 69 97 54 bd 92 4f ae bc
       -0.04565468 0.011439319 -0.05190221 -0.021278176
0001a0 ef 76 2e bc e8 0b 73 bb c9 ce ad bb 5b 20 3a 3d
       -0.010648473 -0.0037085954 -0.0053041917 0.045441013
0001b0 a7 3d 63 3c 4d 3d 22 3c 73 56 03 bc 08 57 3c bc
       0.0138696795 0.009902311 -0.008016217 -0.011495359
0001c0 6a 85 7f bc d5 f9 d8 3c 2d ef 7e 3b b5 ce da bc
       -0.015595773 0.026486317 0.0038899884 -0.026709894
0001d0 63 39 d0 bc 80 01 e9 3a 32 d7 b2 b7 6b c0 5b bc
       -0.02541799 0.0017776936 -2.1319462e-05 -0.013412575
0001e0 3a a0 2b bc e0 92 e8 bc 57 d5 35 bc e9 d5 9d bb
       -0.010475213 -0.028390348 -0.011098227 -0.00481676
0001f0 92 9e a5 bb f3 c4 97 bb a4 91 6b bc 65 f5 af bb
       -0.0050543034 -0.0046316325 -0.014377985 -0.0053698295
000200 19 0a 02 bd c2 d6 d7 3a 0b 2c d3 bc 8d 66 b9 3c
       -0.03174791 0.0016467201 -0.025777837 0.022631908
000210 af c1 78 3b 47 f1 a8 bb 2e d9 d7 bb f7 a3 28 bd
       0.0037957241 -0.0051557156 -0.006587169 -0.041171994
000220 c9 4c cc 3c b8 4e 2b bb 2d 72 db bc 63 41 13 3c
       0.024938958 -0.002613945 -0.026787842 0.008987757
000230 0e ad cb bc 5f b7 eb b9 d3 d4 7f bc 69 ef 76 bc
       -0.024862792 -0.00044959315 -0.015614706 -0.015071728
000240 37 61 5b bc 61 95 38 3c 10 2f b1 bc 6b 3f 38 bc
       -0.013389877 0.011266083 -0.021628886 -0.011245589
000250 03 fc e7 3c bd b5 3d bd dd 13 a4 bc 97 17 b0 3c
       0.02831841 -0.046315897 -0.020029003 0.021495624
000260 6e 98 c8 b9 76 d1 26 bc 4f 36 1e 3b de 88 4f bc
       -0.00038260542 -0.010181775 0.0024141257 -0.012666909
000270 3d 10 50 bd 22 ad d8 3b 07 b2 84 3b a7 b9 8a bc
       -0.050796736 0.006612436 0.004049543 -0.016934229
000280 6c 7e 09 bd 3e d8 bd bb 74 39 11 ba 48 d9 3d 3b
       -0.03356783 -0.0057936003 -0.0005539872 0.002896862
000290 43 85 70 bb 92 18 8c bc 57 4f a1 3c a3 09 46 bc
       -0.0036700524 -0.01710156 0.019691152 -0.0120872585
0002a0 f7 3c 49 3c 94 60 66 bc ce 91 c9 bc 46 4e 78 39
       0.012282602 -0.014061112 -0.024605658 0.00023680282
0002b0 bf a2 6a bc f0 8f b8 bc 7e 34 b0 3c 17 ea e8 3b
       -0.014321028 -0.022529572 0.021509405 0.007107984
0002c0 c2 04 4a bc 14 41 bc bb c6 dc bf 3b e7 d2 90 bc
       -0.012330236 -0.0057450626 0.0058551757 -0.017678691
0002d0 fe 6e 2e 3b 18 35 a1 bc 8c 76 bb 3b 95 37 d4 bc
       0.002661645 -0.019678637 0.005720919 -0.02590541
0002e0 be 5f b5 3b 8f 5f a6 b9 53 8a d2 3b e8 92 d6 ba
       0.005535095 -0.00031733184 0.006425181 -0.0016370686
0002f0 e4 dd a9 bc 3b f6 38 bd 5a 09 65 bc 3a 1b 36 bb
       -0.020735689 -0.0451567 -0.01397928 -0.0027787224
000300 65 cc 9f 3b 8a f2 81 bc 75 8b fb bc 1b 02 68 3b
       0.0048766606 -0.015862722 -0.030706147 0.0035401646
000310 3a 14 64 3c 39 e8 be bc f6 ef a2 3c 0a bf 9d bb
       0.013920838 -0.023304092 0.019889813 -0.0048140334
000320 47 59 00 bc 5f 2c 0c bc a0 b6 d9 bc af cb 8c bc
       -0.007833785 -0.008555501 -0.02657634 -0.017186968
000330 de 15 80 bc fd a9 79 bc 52 95 a0 bc b8 91 7e bc
       -0.015635427 -0.015238282 -0.019602451 -0.015537672
000340 b7 25 7a 3b 2d 8e b7 bc fc 04 96 bc a4 07 f2 3b
       0.0038169452 -0.022406662 -0.018312924 0.0073861647
000350 36 41 4c bc b6 d1 eb 3b e6 c4 be 3c 58 7a bf bc
       -0.012466719 0.0071966304 0.023287248 -0.023373768
000360 2b 0f bf bb 05 11 61 bc 83 27 07 bd 4a 15 5b bc
       -0.0058306656 -0.013736968 -0.032996666 -0.013371775
000370 86 ef fa 3a 00 91 a4 3b 85 3b 31 bd c4 98 20 bd
       0.001914487 0.005022168 -0.043269653 -0.03920819
000380 22 73 02 bb 4a 6b 5e bc de f3 de bb 78 c4 84 3b
       -0.001990505 -0.013575384 -0.0068039736 0.004051741
000390 92 ac 26 bd 49 05 78 3c aa cb c3 bc 4d dd a2 3a
       -0.04069192 0.015137979 -0.023900826 0.0012425572
0003a0 62 cb a2 3b da 62 05 3d 96 ae 84 3b d6 59 07 3b
       0.004968093 0.032564975 0.0040491326 0.0020652912
0003b0 bb c1 26 bd d7 54 a3 bc c7 48 2a bb 07 a9 32 bd
       -0.0407121 -0.019937916 -0.002598332 -0.04361823
0003c0 8f d3 af bc 58 4f b2 3c bd ee e1 bb 17 a4 8f bc
       -0.021463184 0.02176635 -0.006894915 -0.017534299
0003d0 0d 10 50 bc 6d b2 14 bd ea ce de b9 bb 39 26 bb
       -0.012699139 -0.036302973 -0.00042497303 -0.0025364
0003e0 f8 f9 cf 3b 73 99 ef bc ae 22 39 bc 55 86 68 bc
       0.0063469373 -0.029247975 -0.011299772 -0.0141921835
0003f0 e6 66 0e bc df 87 c0 3c 9b dc a1 bb 79 9c 9f bc
       -0.008691525 0.023502288 -0.0049396283 -0.019483792

network_body._body_endoder.seq_layers.2.weight f4 [256, 256]
000000 1e c7 96 bd 4b 51 33 bd 33 2b 04 3c e9 cc 9a 3c
       -0.07362197 -0.0437787 0.00806694 0.018896537
000010 88 f3 2d be df 04 e4 3d 7c ce 09 bd fb 89 7f 3d
       -0.16987431 0.111337416 -0.033644184 0.062387448
000020 28 ed 88 3d ea 3e e6 3d f2 fa 41 3d 8e 31 45 3d
       0.06685859 0.11242469 0.04735846 0.048142962
000030 3a a0 32 bc 6c 86 70 3d e9 1a a6 bd 19 b8 dc 3c
       -0.010902459 0.058721945 -0.081106015 0.026943253
000040 f6 89 87 3d bc 40 c5 bd 5f f8 e6 3d 65 ca 1e 3e
       0.06618111 -0.09631488 0.11277842 0.15506895
000050 03 f1 09 bd 74 90 43 bd 0f 95 c2 bc 5e fc a3 bb
       -0.033677112 -0.047745183 -0.023752717 -0.0050044497
000060 b8 ce e3 bb 96 30 ed 3c 6e ac 45 3c df ad 6a bd
       -0.006952133 0.028953832 0.012065036 -0.057294723
000070 f9 69 ed bc 11 47 23 3d 15 e4 33 3e 21 1b da bc
       -0.028981196 0.039862696 0.17567475 -0.026624264
000080 52 d3 fe bd 02 02 ba bc 35 0f cb bc 96 69 8e 3d
       -0.1244265 -0.022706036 -0.024787525 0.06953733
000090 fc 88 27 3d e8 b3 5f bc 2a 11 ae 3d 28 eb 1e bb
       0.040902123 -0.013653733 0.084993675 -0.002424905
0000a0 a4 5d 16 3d 5c 69 cb bd 59 05 2d bd 32 b0 1f bd
       0.036710396 -0.09932205 -0.042241428 -0.038986392
0000b0 42 ff a2 bd 55 1e 89 bc 0a ee 0e bc 9a d2 82 bd
       -0.07958843 -0.016738096 -0.008723745 -0.06387825
0000c0 1d 1d d7 bc 0b c2 2f 3d 27 71 ba bc 82 db be bd
       -0.026259 0.042909663 -0.022759033 -0.093192115
0000d0 fa 6f 59 3c e0 1e 52 3c 55 7b 3b bd 80 ca 8d bd
       0.013271326 0.012824744 -0.045771915 -0.069233894
0000e0 6a 74 57 3d d5 6e 8b 3d 0d 56 84 3d 8e 4a 6c 3d
       0.052601255 0.06808249 0.064617254 0.05768829
0000f0 19 47 06 be 64 89 31 3d 20 77 98 3d ac 04 c1 3c
       -0.13113059 0.043343917 0.07444596 0.023561798
000100 d4 6e 8e bb 8b 3d 9f 3d 3d 03 9f bc 3b e9 05 be
       -0.004346708 0.0777541 -0.019410724 -0.13077252
000110 fd cb 62 bd dd e0 ea 3d 7b ce 63 3d 49 d7 86 3c
       -0.05537032 0.114686705 0.055616837 0.016460078
000120 bf fc 96 bc df 84 a3 bd a0 8e a6 3c a7 44 33 be
       -0.018431066 -0.079843275 0.02033168 -0.17506658
000130 31 55 ff 3c ca e8 75 bd 8a 00 83 3c 6f c7 90 3c
       0.031168552 -0.060036458 0.015991468 0.017673222
000140 0d 3a bb 3c 59 1b 9f bc ef 85 f0 3c 2f ec e4 bd
       0.02285483 -0.01942222 0.02936074 -0.11177861
000150 3b 78 92 bc f8 c2 4a 3d 8d e2 ee bd 5d ae e3 3d
       -0.017879596 0.049502343 -0.11664305 0.111172415
000160 72 20 38 3d f4 9c ad bc 81 6a 62 bd ff fb 34 bc
       0.044952817 -0.021193005 -0.05527735 -0.011046409
000170 ca de e3 bc 49 09 25 be ef 8f 94 3d f0 04 04 bd
       -0.027816195 -0.16116823 0.07254016 -0.03223127
000180 f9 7c 27 bd 53 49 98 bc 85 4c ed bd a5 b7 c7 bc
       -0.040890668 -0.018589651 -0.115868606 -0.02437956
000190 a4 99 92 3d 6f 74 7a 3d fc 1e 3d bc 86 39 ce bd
       0.07158211 0.061146196 -0.011543032 -0.100695655
0001a0 86 ca 68 3c 33 c1 a0 bd c9 6e 79 bc 33 97 93 bd
       0.014208442 -0.0784935 -0.015224167 -0.07206573
0001b0 ba b1 6e bc db 42 33 be 37 32 78 bd 64 37 63 3d
       -0.0145687405 -0.17505972 -0.060594764 0.055472746
0001c0 95 d6 c0 bc 81 67 c6 3d ff 7c 7f bd 4c 66 ed 3c
       -0.02353982 0.096877106 -0.062375065 0.028979443
0001d0 05 d2 31 bd 6a 16 01 3d 2d db 24 37 b0 cc 5c bc
       -0.04341318 0.031515516 9.826193e-06 -0.013476536
0001e0 9e fb 60 bb d1 e9 48 3d fc 42 7a 3d a6 da 2b bd
       -0.0034329663 0.04905111 0.061099038 -0.041956566
0001f0 87 ed 97 3d f6 a6 fe bd 3e 70 5a bc 84 6f 04 3d
       0.074183516 -0.12434189 -0.013332425 0.032332912
000200 9e df af 3d 22 55 71 bd 0f 7a 8d 3c 1c 39 d9 bd
       0.085875735 -0.05891908 0.017270116 -0.10606596
000210 4d e4 e2 bb c4 61 c0 bc 7b 56 f4 3c a3 63 82 bc
       -0.006924188 -0.023484118 0.029826393 -0.015916651
000220 7a c0 84 bd f1 16 9f bd 17 07 33 3c a4 c9 88 bc
       -0.064820245 -0.077680476 0.010926983 -0.016697712
000230 64 2d 84 bc 3a 0c 40 3d 1f 28 8c 3d 58 4a 82 bc
       -0.016134925 0.04688666 0.0684359 -0.01590459
000240 8e 11 0c 3a 52 d4 a4 bd eb 54 56 3b 00 2e 09 3c
       0.0005343192 -0.080483094 0.0032704424 0.008372784
000250 a1 89 6e 3c ee c3 0c bd c8 90 00 3e 9f d0 11 be
       0.0145591805 -0.03436654 0.1255523 -0.14239739
000260 d2 87 13 bd 57 e2 10 3d e1 c5 01 be 56 64 2a be
       -0.0360182 0.035372104 -0.12673141 -0.16639838
000270 8e 55 ae bd 83 89 64 bd d5 b9 1b bd 6d a8 4c ba
       -0.08512412 -0.055795204 -0.03801902 -0.000780708
000280 b9 11 15 bc 61 cf e5 3c a1 02 c0 bb 78 14 cd bc
       -0.009098464 0.028052988 -0.0058596884 -0.025034174
000290 14 4f 83 bd 89 4a a4 3d c8 f3 f7 bc ae 9d 24 3d
       -0.06411567 0.08022029 -0.030267611 0.040189438
0002a0 61 79 33 3d 75 62 2a bd ff 1a 52 3d 40 cd d3 bc
       0.043816928 -0.041597802 0.051295277 -0.025854707
0002b0 ec 14 2f 3d ee b6 f7 bd 51 dc 99 bc ed 2d 50 bd
       0.042744562 -0.12095438 -0.018781813 -0.05082505
0002c0 6c 92 85 bd 58 15 cc 3c c4 9e 61 3d ec 74 48 bd
       -0.065220684 0.024912521 0.05508305 -0.04893963
0002d0 f9 52 d1 ba 6d 70 b0 3d 17 79 23 3d bb c3 7b bb
       -0.0015970162 0.086151935 0.039910402 -0.0038416225
0002e0 73 57 80 3c bb fb 87 3d b9 5f 0c 3c 91 67 87 bd
       0.015666699 0.06639811 0.008567744 -0.066115506
0002f0 08 ad e8 3c 05 03 0b 3d 58 7e 51 bb 9d 9a ed 3c
       0.02840282 0.033938427 -0.0031966176 0.02900439
000300 5d 88 0a bd 27 e5 56 3d f0 21 7b 3d aa dd 80 3d
       -0.033821452 0.05246463 0.061311662 0.06292279
000310 c6 73 e0 bd 66 6b fa 3c 94 4b bc 3d 42 9a 55 3d
       -0.10959582 0.03056879 0.09194103 0.052149065
000320 0f 17 68 3d 92 81 11 be a2 5c 43 bd 5b fb 30 be
       0.056662615 -0.14209583 -0.047695763 -0.17283385
000330 b4 98 98 3c b9 71 47 bd c3 c4 ca 3b f5 6f 58 3d
       0.018627502 -0.04869244 0.0061880066 0.052841146
000340 c5 7c df bc 72 78 9e 3c 01 30 e4 3c bb a2 cb bc
       -0.027281174 0.019344542 0.027854921 -0.02485787
000350 8b 71 29 bd 99 52 19 bd 7a d1 c3 bd 92 49 88 3d
       -0.04136805 -0.037432287 -0.09561439 0.066546574
000360 e0 de 6e 3d 9f b4 48 bd 2f 2e 44 3d 38 10 0d 3d
       0.05831802 -0.04900038 0.047895607 0.034439296
000370 dd 4f 59 3d 8f 93 2a bd 97 2d 95 3d 87 00 40 bb
       0.05305468 -0.04164463 0.07284086 -0.002929719
000380 bb d6 b4 3d 9c e6 f3 bd e0 70 a0 3c 0e fb 01 3d
       0.08830019 -0.119092196 0.019585073 0.031733565
000390 cc 25 88 3d fb 3d 2a bc cf 33 8f bd 33 12 0d bd
       0.06647834 -0.010390754 -0.069923036 -0.034441184
0003a0 57 52 be bd 1b 94 92 bd 21 76 fc 3b 83 29 52 bd
       -0.09293049 -0.07157155 0.0077045118 -0.05130912
0003b0 3f 09 7b bc a6 1e fd 3c af ee 74 bd 8a 1c f7 bc
       -0.015322029 0.030898403 -0.05979794 -0.030164976
0003c0 2f f9 7d 3d 60 30 af 3c 73 84 12 3d a9 92 db 3d
       0.062005218 0.021385372 0.035770845 0.107213326
0003d0 27 87 da 3d 80 34 19 bb 91 74 d8 bd 32 8f 91 bc
       0.106703095 -0.002337724 -0.10569108 -0.017768476
0003e0 87 b9 a8 bc ef 98 d6 3d 95 6f b2 3d d9 dd 82 bb
       -0.020596279 0.104783885 0.08712689 -0.0039937315
0003f0 85 54 ca 3c fa 87 8d bc 15 d6 7b bd d7 eb 13 3d
       0.024698505 -0.017276753 -0.06148346 0.036113586

network_body._body_endoder.seq_layers.2.bias f4 [256]
000000 52 4e ae bc 6d e2 84 bc 0a 27 8d bc 24 40 fa bc
       -0.02127758 -0.01622125 -0.01723053 -0.030548163
000010 b8 d9 01 bd 6b f4 07 bc 85 e3 ef bc f1 e7 21 bc
       -0.031701773 -0.00829802 -0.029283294 -0.009881959
000020 55 4e 86 bc f2 e8 02 bc e0 02 95 bc 3a 5c fe bc
       -0.016394773 -0.007990109 -0.018189847 -0.031049836
000030 2f c0 dd bc 75 57 71 bb 23 9d 4d bc be ef 2f bc
       -0.02706918 -0.003682581 -0.012549671 -0.010738311
000040 8b 5a f5 bc 4c 19 05 bd 92 d1 b3 bc 1c b7 82 bc
       -0.0299504 -0.032494828 -0.021950517 -0.015956454
000050 af 38 41 bc 0e 17 dc ba 66 8a 13 bd 88 67 53 bc
       -0.0117933 -0.0016791539 -0.03602066 -0.012903102
000060 2a d5 3c bc c1 18 92 bc 2e 1e 11 bd d6 ee 03 bd
       -0.011525432 -0.01783407 -0.035429172 -0.032210194
000070 f7 60 c7 bc cb a7 72 bc af 37 a4 bc 9d 9a 09 bc
       -0.024338229 -0.014810513 -0.020046083 -0.008398679
000080 de d1 de bb 74 5f 49 bc 09 85 af bc 86 09 f3 bb
       -0.0067999205 -0.012290824 -0.02142574 -0.0074169068
000090 94 34 1c bd 1d f6 1c bb 00 12 96 bc c9 b7 92 bc
       -0.03813608 -0.0023950406 -0.01831913 -0.017909901
0000a0 eb a4 b1 bc 49 1d ca bc db 2c cd bc a3 3f 9b bc
       -0.021685084 -0.024672167 -0.025045803 -0.018951243
0000b0 aa d9 8b bb 0d fe f2 bc df 57 98 bc b9 76 2c 3c
       -0.004267891 -0.029662156 -0.018596588 0.010526353
0000c0 6c 3f b6 bb 01 d6 d9 bc 8d c8 20 bd dd 32 69 bc
       -0.0055617597 -0.026591303 -0.03925376 -0.014233318
0000d0 7b 87 6c bc 8f 30 a7 bb 20 f1 2f bb bd 9b 56 bc
       -0.014436598 -0.005102224 -0.0026846603 -0.013098654
0000e0 ec 46 2e 3b cb 0c 95 bc ce f2 b3 bb eb e6 5b 3b
       0.0026592566 -0.018194577 -0.005491591 0.0033554386
0000f0 5c 4a ef bb aa ec 8d bc 8e 13 1d 3c 46 2a 53 bc
       -0.0073025655 -0.017324764 0.009587182 -0.012888497
000100 7b a7 8d bc 1c d0 96 bc c0 19 c1 bc d8 7b 42 bb
       -0.017291775 -0.018409781 -0.023571849 -0.0029675867
000110 80 3b b7 bc 4b 1c 03 3a 7b 40 88 bc e4 b7 08 bd
       -0.022367239 0.00050014694 -0.01663231 -0.033378497
000120 e0 ef ab bc 85 c9 a7 3b ed ac 70 bc 6e 7a 5d 3b
       -0.020988405 0.0051204585 -0.014689666 0.0033794898
000130 6a 7d de bc 9f 03 04 bd 49 58 8b 3a 3d a9 fc bc
       -0.027159411 -0.032230016 0.001063117 -0.030842418
000140 dc e5 b5 ba f8 85 17 bd d1 95 27 bd c9 cf 89 bc
       -0.0013877708 -0.036992997 -0.04091436 -0.016822712
000150 79 e9 21 bc 7d f7 73 bc 9a d7 a7 bc 3f 44 23 bc
       -0.009882324 -0.014890549 -0.020488549 -0.009965002
000160 5b 96 03 3b 66 1b bc bc 36 d5 14 bd 49 8d be bc
       0.0020078633 -0.022962283 -0.036336146 -0.02326073
000170 fa c3 8f bc 37 7d 18 3b c7 90 87 bc f5 66 4c bc
       -0.017549504 0.0023267993 -0.016548527 -0.012475719
000180 a1 d3 9a bc f8 04 00 bd 90 d2 9c bc 59 34 23 3a
       -0.01889974 -0.03125474 -0.019143373 0.0006225757
000190 bd 40 20 bd d7 1c 55 bb 4d 5d 97 bc d1 ca 1a bc
       -0.03912424 -0.003251841 -0.018477106 -0.009447769
0001a0 e1 91 b4 bc a3 b3 15 bc d7 9c 19 bd bf 32 c2 bc
       -0.022042217 -0.009137067 -0.03750309 -0.023705838
0001b0 ec 0d 81 b9 9b c5 97 bc 96 1e de bc a5 dc ec bc
       -0.0002461517 -0.018526843 -0.027114194 -0.028913805
0001c0 17 0b dc bc 12 f2 5a bc aa f2 cb 3b 69 48 16 3c
       -0.026860757 -0.013363378 0.006223996 0.009172537
0001d0 c7 4c 6e 3c 49 5c 23 bc c7 cd b4 bc f9 c0 01 3b
       0.014544672 -0.009970733 -0.022070779 0.0019798859
0001e0 1c c8 bc bc 2d 59 ff 3a e7 42 a9 bc e2 83 be bc
       -0.023044638 0.0019481533 -0.020661784 -0.023256246
0001f0 a8 00 64 bc f7 e1 de bc c0 30 d3 bb 5d 34 9b bc
       -0.013916172 -0.027207358 -0.0064450204 -0.018945867
000200 79 63 ec bc b7 54 78 b6 2a 43 bc bc 85 c6 89 bc
       -0.028856026 -3.700419e-06 -0.022981245 -0.016818294
000210 17 0a d8 bb 19 a3 ae bc 77 62 f8 3b 48 0a 8f bb
       -0.0065929997 -0.021318005 0.0075800973 -0.0043652393
000220 00 2e 5c bc e0 6d 03 bc 53 47 07 bc c8 48 84 ba
       -0.013438702 -0.008021802 -0.008256751 -0.0010092491
000230 17 e6 a0 bc e9 ed e3 bc 76 92 dd bb 92 c4 a3 bc
       -0.019640965 -0.027823405 -0.0067618443 -0.019991193
000240 0f a9 32 bc ba 81 18 bc d5 e0 48 bb e8 36 d6 bc
       -0.0109045645 -0.009308273 -0.0030651588 -0.026149228
000250 43 12 41 bc b4 d9 e2 bc 1b 18 1b bc 23 73 5e b9
       -0.011784139 -0.0276917 -0.009466196 -0.00021214462
000260 2f a0 d7 bc a4 94 3c bc 09 5c e6 bb ac 75 04 bd
       -0.026321499 -0.011510048 -0.0070300144 -0.032338783
000270 b3 24 35 bc 0c 20 64 bb ef a9 d9 bc 01 d5 9d bb
       -0.011056113 -0.003480914 -0.026570288 -0.004816652
000280 e2 fa 81 bb 6e 9b 5d bc c0 a5 c2 bc 0f ac c1 bc
       -0.003966675 -0.013525827 -0.023760676 -0.023641614
000290 88 ca 49 3a f3 26 8e bb 3e c2 06 3c ca 5e 99 bc
       0.0007697721 -0.004338139 0.008225022 -0.018721957
0002a0 bd 70 c4 bb 09 49 15 bd ba 89 90 bc 69 37 01 bd
       -0.0059948848 -0.036446605 -0.017643798 -0.031546984
0002b0 fc 52 90 3a 08 80 0f bc c8 a3 54 bc 16 d0 7d bc
       0.0011011059 -0.008758552 -0.012978502 -0.015491506
0002c0 19 87 47 bd 09 42 58 bb e4 3f 9d 3b b8 10 4f bc
       -0.048712824 -0.0032998344 0.004798876 -0.012638263
0002d0 17 4f 08 bd c9 d8 da bc fa ee 50 bd 28 c5 c7 bc
       -0.03327855 -0.0267147 -0.051009156 -0.024386004
0002e0 63 62 cb bc f8 ca 47 bd e0 cd fa 3a 3a 56 83 bc
       -0.024827188 -0.04877755 0.0019134842 -0.016032327
0002f0 2f 40 57 bc 66 4e 54 3a 8d 56 2a bd 70 6b 0c bc
       -0.013137861 0.00080988405 -0.041586448 -0.008570537
000300 da 47 5b bc e3 85 7f bc 79 ea 7e bc 53 09 b8 bc
       -0.01338383 -0.015595886 -0.015558832 -0.022465384
000310 18 0b cb bc 1b db d9 bc ca ab 1f 39 5d fe a9 ba
       -0.024785563 -0.026593735 0.00015227418 -0.0012969483
000320 a0 5e 75 bb eb ea 0b bc 49 a0 92 bc 31 6b 3d bc
       -0.0037440434 -0.0085398955 -0.017898696 -0.011561201
000330 19 0b 3b bc d4 33 60 bc cb 6f dd bc 1f f7 01 bc
       -0.01141622 -0.013684232 -0.027030846 -0.007932453
000340 af f3 ba bc b9 d9 e5 bc e5 6f 7b bc b5 a3 24 3b
       -0.022821276 -0.02805792 -0.015346502 0.002512199
000350 11 fa e2 bb 3d b7 39 bc 42 5d 0b ba 36 83 26 bc
       -0.006926783 -0.011335191 -0.00053163257 -0.010163119
000360 a4 27 04 bc 46 9b d6 bc c6 f5 41 3b 60 6c a6 bc
       -0.008066092 -0.026197087 0.0029595955 -0.02031535
000370 3b 2c a8 bc b7 e7 0b 3a c9 c8 17 bd 25 da 1d bc
       -0.020528903 0.00053369574 -0.037056718 -0.009634529
000380 c9 56 06 bd 47 5e b4 bb 61 33 f8 bb c8 a7 9f bc
       -0.03279761 -0.005504403 -0.007574484 -0.019489184
000390 20 67 9a bc a7 dd 48 bc 1a 48 27 bb 74 e8 3d bc
       -0.018848002 -0.012259877 -0.0025525154 -0.011591066
0003a0 01 23 5b bc fd 5e 7a bc 73 f8 d2 bb 44 2c 0b bd
       -0.013375045 -0.015281436 -0.006438309 -0.033977762
0003b0 27 cf 61 bc 14 77 91 bc 6b f7 41 bc 32 e7 1a bd
       -0.013782299 -0.017756976 -0.011838774 -0.03781814
0003c0 01 ea a7 bb 09 19 92 bc 47 0c a0 bc 13 b5 3d bc
       -0.005124331 -0.017834203 -0.019537104 -0.011578816
0003d0 4d 74 7e bc 15 b0 64 bc b8 3d cb bc 75 da ee 3b
       -0.015530658 -0.013957997 -0.024809703 0.0072892257
0003e0 ca fc b9 b9 1f 6e a1 bc 18 dc 32 bc bc d9 f3 bb
       -0.00035474292 -0.01970583 -0.010916732 -0.0074417274
0003f0 6d bb 36 bc 7b 65 a3 bb 37 69 a0 bc 92 e3 4f bc
       -0.011153084 -0.0049864626 -0.01958142 -0.012688534

action_model._discrete_distribution.branches.0.weight f4 [4, 256]
000000 c3 23 e3 bc 43 94 84 3c 6d 84 b2 bb 49 c1 20 bc
       -0.027727013 0.016183978 -0.0054479153 -0.009811708
000010 ce 9f 01 bc 59 d9 71 bc c9 7c d4 bc 21 3c 9f bc
       -0.007911636 -0.014761292 -0.025938408 -0.019437851
000020 16 dd 44 bc e0 88 eb bb 44 d1 0a bc 50 d9 fa bc
       -0.012015602 -0.0071879476 -0.008472744 -0.0306212
000030 eb 9f 06 b9 ec bc ad 3c 5e b5 d4 3c 9e 13 0e bc
       -0.0001283881 0.021208249 0.025965389 -0.008671669
000040 c8 5a a2 ba df 1a 96 bb ef 57 44 ba 14 47 a1 bb
       -0.0012386674 -0.00458084 -0.000748991 -0.0049218033
000050 56 76 27 3b fd 42 ed bc 7e 9e 8b 3c e0 14 74 3c
       0.0025552711 -0.028962607 0.017043348 0.014897555
000060 90 a6 bb 3c aa e2 1e bd dc 9a 86 ba 46 02 2d bc
       0.022906572 -0.038790382 -0.001026954 -0.010559624
000070 c7 ea 24 bb 0c e0 10 3d 48 b7 2d ba 0e a8 be 3c
       -0.0025164352 0.035369918 -0.00066267373 0.023273494
000080 63 d9 98 3c d1 29 09 bc 4b 43 e4 3c e5 0a 01 3d
       0.018658346 -0.008371786 0.027864119 0.03150453
000090 ef 86 a0 bc b0 84 e9 bc 52 c7 3b 3b 85 9f 1e 3b
       -0.019595591 -0.028505653 0.002865274 0.0024203968
0000a0 c8 19 c1 3c 8c b8 49 bb 3f 6d 7e bc cc 9e 57 3c
       0.023571864 -0.0030780165 -0.015528976 0.013160419
0000b0 be 59 77 3c a9 ed 5b bc 61 05 6b 3c 42 96 c3 bc
       0.01509708 -0.013423362 0.014344544 -0.02387536
0000c0 e4 d0 40 3b f7 0b e0 3b 73 bf 27 bc d8 38 ff bb
       0.0029421384 0.006837364 -0.010238516 -0.0077887587
0000d0 24 8c 3f 3d ea 37 38 bd 13 ba d0 bc 4d e2 5d 3c
       0.046764508 -0.0449752 -0.025479352 0.013542724
0000e0 85 06 48 bc 26 09 b0 bb b9 3c 10 3d a7 f1 ac bc
       -0.012208586 -0.0053721843 0.03521416 -0.021111323
0000f0 6f 78 a1 3c e6 49 38 bc f3 10 97 bc 4b 29 45 bd
       0.019710748 -0.0112480875 -0.0184407 -0.048135083
000100 f2 91 47 bd 5d e8 8e bc 9d 61 5f 3b 04 be e7 3c
       -0.04872317 -0.017444784 0.0034085282 0.028288849
000110 e4 8e ea 3c 10 74 76 bc 94 82 a9 3c e0 f0 f0 3b
       0.028632589 -0.01504232 0.020692147 0.0073529333
000120 48 58 d6 3a 0c eb d6 bc c5 fb 76 bc da 30 8c bd
       0.0016353214 -0.026235126 -0.015074675 -0.06845255
000130 5d 6a ef bc d6 af bd 39 3a 88 41 3c bc 80 7a bb
       -0.029225523 0.00036179897 0.011812264 -0.0038223704
000140 e2 c7 33 bd ec 8c 97 3c 9f 4b f9 ba 52 94 ad bc
       -0.043891795 0.018499814 -0.0019019729 -0.021188889
000150 58 71 97 bc bc 8a 13 3d 2c 1d dc bc 21 e8 b6 3c
       -0.018486664 0.03602098 -0.026869379 0.022327485
000160 79 20 a8 3b 6c 3d e4 bc 9e 89 66 3c 70 76 16 bd
       0.005130824 -0.02786132 0.014070896 -0.036734045
000170 61 97 b3 3c c0 43 00 3d b0 65 25 bc 13 13 61 3c
       0.021922769 0.03131461 -0.010095045 0.013737458
000180 b3 39 ae bc 8c 95 88 3c 68 8e 6b bc 4f c5 5e bc
       -0.021267748 0.016672872 -0.014377214 -0.013596847
000190 51 cb 2c bc c5 5c f1 3c 5c 8d 45 bc 69 1e e6 bc
       -0.010546521 0.029463181 -0.0120576285 -0.028090673
0001a0 01 23 85 bc 2c f7 d0 bc 62 f4 04 3c 9d 7a e3 3b
       -0.016252043 -0.025508486 0.008114906 0.006942107
0001b0 34 d2 aa bc 44 ff 50 bc 79 c6 96 39 3f 42 50 bc
       -0.020852186 -0.012756173 0.00028758103 -0.012711107
0001c0 c9 f6 d0 bc 5c bc 4d bd 00 6a 0c 3d f7 9d 19 3d
       -0.025508301 -0.05022846 0.034280777 0.037504163
0001d0 9a 4d 9f bc bc 3b 6d bc 12 89 9b bc ac 6e db 3c
       -0.019446183 -0.014479574 -0.018986259 0.02678617
0001e0 ce 5b 09 3d c1 f9 5d bc 1e d8 2a 3c c2 c3 34 bc
       0.033534817 -0.0135483155 0.010427503 -0.011033
0001f0 d7 0a fe bc bc 2d cd ba 5f c2 88 3c b0 4a 4b bd
       -0.031011028 -0.0015653889 0.016694246 -0.049631774
000200 ce 44 04 3c c3 dd a1 3c 59 91 0b 3c 4e 55 28 bb
       0.008073045 0.019759065 0.00851854 -0.0025685611
000210 35 71 1b 3c d1 ca 51 bc 45 2a 15 3d 8f 5b 8f bc
       0.00948744 -0.012804703 0.036417264 -0.017499713
000220 ad 1d 86 3c 67 09 9b bb 46 ea 8a 3c a1 3d 02 3d
       0.016371572 -0.0047313455 0.016957413 0.031797055
000230 ef f6 ee 3a 01 68 c7 3b d9 5f 06 3b 7f 37 cd bb
       0.0018231551 0.0060853963 0.0020503907 -0.006262719
000240 46 81 46 bc 02 80 95 3c 71 48 76 3c 80 93 69 bc
       -0.012115782 0.018249515 0.01503192 -0.014256358
000250 a0 a7 fd 3c a3 69 63 bd 1f 5a 33 bd e6 17 d3 3c
       0.030963719 -0.055520665 -0.043787118 0.025768232
000260 f2 3b ba bc 1f 19 95 bb 83 a7 31 3b 19 ee a0 bc
       -0.022733662 -0.004550114 0.0027107901 -0.019644784
000270 7e 3b fa 3c f0 8a f9 3c 29 15 cc bc 85 2d 99 bb
       0.030545946 0.030461758 -0.024912434 -0.004674616
000280 de 83 4f 3c ef 7d cb bb de 37 fb bc db 16 d8 bb
       0.012665717 -0.006210081 -0.030666288 -0.0065945215
000290 a2 5c 62 bd 0c 96 3b 3c 14 4e 2b 3d 95 bf 87 bd
       -0.055264123 0.011449348 0.041822508 -0.06628338
0002a0 2d ca 85 bc da 73 18 bc 61 75 de 3b 5c 50 94 bb
       -0.016331756 -0.009304965 0.006788895 -0.004526181
0002b0 3e ef ec 3c 02 f0 aa bc 9d 6f 3b 3c 8d 99 f9 3b
       0.028922673 -0.020866398 0.011440185 0.0076171816
0002c0 9f f7 fc 3b 71 cc 02 3a 55 a5 14 bd 76 9e 02 bc
       0.0077199484 0.00049895706 -0.036290485 -0.00797235
0002d0 b5 87 a4 3c a5 0d ae bc ef 67 72 3c c3 19 cb 3c
       0.020084241 -0.02124674 0.0147952875 0.024792558
0002e0 93 7c 05 3d f3 4d 4b bc 12 2f ba 3c 11 81 a1 3c
       0.032589506 -0.012408721 0.022727523 0.019714864
0002f0 06 ea 09 bc a8 59 c7 bb c2 cd 40 bc 46 3b 86 3c
       -0.008417612 -0.006083686 -0.0117678065 0.016385686
000300 7b 45 b3 3b ef 83 8a bc 2d 3e 0c bb 26 88 55 3c
       0.005470929 -0.016908614 -0.0021399364 0.013032949
000310 b5 83 2e bc 13 5f 05 bc 38 df a4 3c f3 61 f6 3c
       -0.010651519 -0.008140343 0.02012597 0.030076003
000320 5c 29 0e 3d a6 b1 c4 3c eb 3c dd bc c4 0d 58 ba
       0.034707412 0.02401049 -0.027006587 -0.00082417973
000330 47 f0 2a bd 34 75 d3 bc 69 cc d2 bb bc 3c e4 ba
       -0.041733053 -0.025812723 -0.006433059 -0.001741312
000340 5c 96 03 bc 00 cc 2f bc 67 a3 ee b9 7a 15 3a bd
       -0.008031454 -0.01072979 -0.00045516642 -0.045430638
000350 15 46 85 bb 48 5e 1f bd 50 1b d8 bb 52 ca ca 3b
       -0.0040671923 -0.038908273 -0.006595053 0.0061886692
000360 ca 5e 98 bc d8 16 bd 3c 80 0f 81 bc 58 2b 96 bc
       -0.018599886 0.023082182 -0.015754461 -0.018331215
000370 b9 72 30 bc 15 97 ed 3c 84 59 cb 3a 67 72 3f bb
       -0.0107695395 0.029002706 0.0015514349 -0.0029212476
000380 92 42 05 bd d8 7c a6 3c ca 9d a9 bc 8e 46 5f 3b
       -0.03253419 0.020323202 -0.020705123 0.0034069153
000390 88 06 c3 3c 14 40 61 3c 71 76 f5 3c 1b d9 55 3c
       0.023806825 0.013748188 0.029963704 0.01305225
0003a0 10 e8 03 bd f8 b0 9f 3c cf 69 0d bd e4 6e 91 bb
       -0.032203734 0.019493565 -0.034524735 -0.004438268
0003b0 55 f2 d1 3c 9c ba 92 3c a4 3a 52 3c b1 46 cf 3a
       0.025628248 0.017911248 0.012831364 0.0015813914
0003c0 3a 82 04 3c 66 d1 ad 3c 79 8c 52 bb d3 94 31 bc
       0.008087689 0.021218013 -0.0032127185 -0.010838705
0003d0 4b 84 85 3c 78 7f ac 3b 7b f5 b2 3c 0c 3a 6c bd
       0.016298434 0.005264219 0.02184557 -0.057672545
0003e0 63 8d b5 3a df bb a3 bb 40 25 d0 bb d1 d9 b6 bc
       0.0013851341 -0.004996761 -0.006352097 -0.02232066
0003f0 7d f1 e1 39 a3 af e5 bc 3a a3 0c 3d e5 45 f6 3c
       0.00043095267 -0.028037852 0.034335352 0.030062625

action_model._discrete_distribution.branches.0.bias f4 [4]
000000 fc 7c 80 3c 44 7c ba ba 85 03 4a bc 91 8d af b8
       0.015684597 -0.0014227708 -0.012329941 -8.371019e-05

action_model._discrete_distribution.branches.1.weight f4 [3, 256]
000000 3a d8 8e bc a0 06 e7 3b 07 bc 12 3c ea 08 34 bb
       -0.01743709 0.0070503503 0.008955962 -0.0027471134
000010 3d 99 21 3c 4d 2d 5f bb 02 b5 0d 3c c3 0d 48 3c
       0.009863195 -0.00340541 0.008649113 0.012210312
000020 15 ee 95 bc c8 f3 f7 3c 65 0e 65 bc 38 d6 1e bd
       -0.018302003 0.030267611 -0.013980483 -0.038778514
000030 cc ab 57 3c 58 62 ee bc 43 32 b2 3a 1e d8 a0 3c
       0.013163518 -0.029099628 0.0013595301 0.019634303
000040 4c 94 2c bb 98 e4 a4 ba ce 42 00 bd 11 fa 68 ba
       -0.002633351 -0.0012580333 -0.03131371 -0.00088873605
000050 aa 86 88 3c 2c 99 77 3b f1 bf 64 3b 4b 36 41 3b
       0.016665775 0.0037780507 0.0034904445 0.0029481824
000060 b1 c8 51 3c 02 8a 10 3b 98 9f 0c 3c df 75 4c bc
       0.012804196 0.0022054915 0.008582972 -0.0124792745
000070 53 64 10 bb c9 83 d3 bc 54 3a 7e bc b9 81 b3 3c
       -0.0022032454 -0.025819676 -0.015516836 0.021912443
000080 fc 9f 69 bb 83 b7 dd bb b2 32 44 3c c9 fc 00 3d
       -0.0035648337 -0.006766261 0.011974977 0.031491075
000090 54 da 3f bc 07 e4 8a 3c 2e b7 00 bb d2 e4 be b6
       -0.011709768 0.016954435 -0.0019640434 -5.6890794e-06
0000a0 b7 ba 47 ba d6 9a 20 3b 8e cc dc 3b 95 a6 f4 3b
       -0.000761907 0.0024506352 0.006738252 0.007466147
0000b0 d7 7e 37 3c 50 79 d1 3a f6 17 20 bc 2a 7f 20 bb
       0.011199675 0.0015981589 -0.009771338 -0.0024489858
0000c0 04 e0 e3 ba a5 3f 14 3c 81 be 0b ba 5f 3b b0 3b
       -0.0017385487 0.009048377 -0.00053308165 0.0053781713
0000d0 59 49 ab 3c c5 a4 a3 3b 3d cf 80 3b e2 29 4d 3b
       0.020908998 0.0049940073 0.0039309547 0.0031305482
0000e0 92 65 96 3c 8c 6a 02 3b 69 fb 58 3c 40 97 aa 3c
       0.01835898 0.0019899933 0.013243535 0.020824075
0000f0 3a 08 8a 3c 24 24 e9 3b 96 de 90 3c e9 14 1c bc
       0.016849626 0.007114904 0.017684262 -0.00952647
000100 54 01 29 bc ab 83 45 39 c9 e2 8f bb ec f4 31 bc
       -0.010315258 0.00018836434 -0.0043910486 -0.010861617
000110 51 a3 68 3c 0b 9b 1c 3c a1 e9 45 3c 4a 90 ee bb
       0.014199094 0.0095584495 0.012079627 -0.007280384
000120 d1 b0 c2 3a 80 49 bd bb 61 48 34 bc d4 9d 06 3c
       0.0014853721 -0.005776584 -0.011003585 0.00821634
000130 a0 4d 42 bc ea 16 b8 bb f9 56 64 3c 99 01 aa ba
       -0.011859328 -0.005617966 0.0139367515 -0.0012970447
000140 88 19 4a 3b fe c4 70 bb 5b 5d a6 ba 8d 06 84 bb
       0.0030837972 -0.003673851 -0.0012692617 -0.004029101
000150 80 98 bf 3b 98 38 eb bb eb 59 8c 3c c2 f1 8b 3c
       0.005847037 -0.0071783774 0.01713272 0.017083053
000160 72 9e 05 bd 66 69 d0 3c fc c5 c0 3b dd e1 33 bc
       -0.03262181 0.025440883 0.0058829766 -0.010979143
000170 5d 02 00 3d 7a e6 a1 3c 5a 98 b6 3b c5 86 98 3b
       0.031252254 0.01976322 0.005572361 0.0046547377
000180 f6 d1 aa 3c 49 5e bf bb 26 15 c2 3b a2 64 99 3c
       0.02085207 -0.005840097 0.0059229312 0.018724743
000190 8f 59 51 bb 24 9d d9 3a 48 3e c9 3b b9 21 d4 3c
       -0.003194425 0.0016602618 0.0061414577 0.025894986
0001a0 74 a4 1f bb 4a 95 f5 bc e9 3a a1 3b 3c 84 40 3b
       -0.0024359496 -0.029978413 0.0049203527 0.0029375693
0001b0 99 3f d1 3c 2f 74 6f 3a 4d 43 85 bb f9 06 cd bc
       0.025543021 0.0009134439 -0.004066861 -0.025027739
0001c0 29 b8 2b 3b 82 69 60 3b 58 a2 8c 3c ee 90 24 3c
       0.0026202297 0.0034242575 0.017167255 0.01004432
0001d0 a2 f8 86 b9 94 fd 02 3c 7b 41 9e bc d0 f3 a5 3c
       -0.00025743718 0.007995028 -0.019318333 0.02025786
0001e0 d9 a3 dc 3c 67 36 7d 3c a4 64 41 bc 4a 7f f2 bb
       0.026933597 0.015454865 -0.01180378 -0.007400428
0001f0 8c 11 a5 3c 92 aa 83 bb 70 a1 a4 bc b0 93 b7 3c
       0.020149969 -0.0040181363 -0.02009651 0.02240929
000200 9e d7 36 3c b8 e3 3f 3c 02 6e bb 3b 2b be 6f bb
       0.011159806 0.011712007 0.005719901 -0.0036581855
000210 67 c7 92 3c d7 57 b2 bb fa c8 aa 3c bb 94 cc 3b
       0.017917348 -0.0054426 0.020847786 0.006243316
000220 f8 36 a5 3c 88 b5 00 bb f8 1b 9f bc 59 e5 af 3b
       0.020167813 -0.001963945 -0.019422516 0.0053679165
000230 08 20 5e bb 92 b6 82 bc 71 a8 a0 3c 5b cf 67 bc
       -0.0033893604 -0.015956197 0.01961157 -0.0141485585
000240 1f 3a 8e 3b ab eb 52 3c ce a1 88 3b 97 a2 55 3c
       0.0043404247 0.01287357 0.0041696792 0.013039253
000250 6d 9f 3e 3d 99 46 26 bd 1f d0 e5 3c d7 37 17 3d
       0.04653876 -0.04059467 0.028053341 0.036918487
000260 83 b3 c1 ba 12 a9 d1 3b d9 b3 b7 ba 32 8f 4e bc
       -0.001477823 0.0063983286 -0.0014015391 -0.012607383
000270 16 30 b0 3c 7c 9d cd 3c 72 ef 0a bc 0a d2 bb 3c
       0.021507304 0.025099508 -0.00847994 0.022927303
000280 eb 4a ed bb 83 42 85 bc 6f 52 9b 3b ac 26 cd bb
       -0.007241597 -0.016267067 0.0047400515 -0.0062607136
000290 16 77 dc 3c 30 a4 91 3c 7b f9 0f 3d 9b 67 b7 bc
       0.026912253 0.017778486 0.035150032 -0.02238827
0002a0 13 0b 5a 3c 09 c5 3b 3c 42 5f 92 3c 38 78 13 bc
       0.013308304 0.011460551 0.017867688 -0.00900083
0002b0 f6 95 12 bd b2 04 8f bb 77 7f 24 bc 99 f1 22 3c
       -0.035787545 -0.0043645734 -0.010040156 0.009945297
0002c0 d3 03 1f 3b 0e 01 ca 3a f5 6b d5 3c 18 47 88 bb
       0.0024263754 0.0015411691 0.026052454 -0.0041588657
0002d0 40 14 55 3c c2 dc 4a 3c f7 82 03 bc a8 30 85 bc
       0.013005316 0.012381734 -0.00802683 -0.016258553
0002e0 83 fa cc 3c ef b5 8a bb 92 ca 4c bb c9 27 9b 3b
       0.025021797 -0.004233114 -0.003124867 0.0047349674
0002f0 9a 28 54 bb 42 a4 2d bc 13 cb 4d bc 34 df 3c bb
       -0.0032372833 -0.010598244 -0.012560624 -0.0028819563
000300 68 18 37 3c 9d 1f 54 bb b5 cb 0b bd 1a 18 21 bb
       0.0111752525 -0.0032367476 -0.034129817 -0.0024581016
000310 5c f5 c3 3b 8a 0d 4c 3c 92 55 60 bc fe 14 2e 3d
       0.005980177 0.0124544 -0.013692277 0.04250049
000320 40 88 e8 3c ef b5 cd 3c e7 34 8b 3b 14 cf 81 bc
       0.028385282 0.025111167 0.00424825 -0.015845813
000330 9a 74 e1 ba 94 c7 46 3c 9d 11 06 bc 83 aa e2 bc
       -0.0017200888 0.012132544 -0.00818291 -0.027669197
000340 a5 b7 99 3b 24 f4 ad bc 69 35 c3 bb 40 ce c9 3c
       0.0046910816 -0.02123458 -0.0059572947 0.02463448
000350 86 df ad 3c ce fa 8d 3c 8a a8 e1 b8 18 a3 64 3c
       0.021224748 0.017331507 -0.00010760229 0.0139549
000360 86 65 9c 3c d8 7a bf 3a 21 a1 f3 bb 68 74 4e 3c
       0.019091379 0.0014608754 -0.0074349795 0.012600996
000370 f9 a2 ad bc fa c6 0f 3d 87 a8 49 bc 6d f0 0d ba
       -0.021195875 0.03510187 -0.012308246 -0.00054145494
000380 60 c4 af bc 04 fb db 3c 59 62 87 3c 1a 50 ae bb
       -0.021455944 0.026853092 0.016526388 -0.0053196074
000390 67 cc cf bb bc 97 68 bc cf 7c 33 3d 2c 07 ae bb
       -0.0063415053 -0.014196333 0.0438202 -0.0053109135
0003a0 53 b7 81 3b a2 f2 d9 3c 61 f4 81 ba 03 78 10 bc
       0.0039586215 0.026604954 -0.000991475 -0.0088176755
0003b0 40 9c 57 bc e1 a4 fd 3b 88 38 e2 3b 25 71 58 bb
       -0.0131598115 0.0077406024 0.0069037117 -0.0033026424
0003c0 38 1a ae 3c d9 a5 e6 3b 24 fd 0f bc 38 c0 c2 3c
       0.021252736 0.0070388136 -0.008788381 0.023773298
0003d0 db 4d 2c 3c b1 3b 0c bb 03 bd 1f 3c 10 9d df 3b
       0.010516609 -0.0021397884 0.009749654 0.006824143
0003e0 9a 4e a2 bc 80 78 50 bc 8c 71 72 3c 9c 8f fd bc
       -0.01981287 -0.012724042 0.0147975795 -0.030952267
0003f0 04 aa 38 bc db 6c e9 3b ee 2a 70 3c 0d 6a 3d 3c
       -0.011271004 0.0071235723 0.014658673 0.011560929

action_model._discrete_distribution.branches.1.bias f4 [3]
000000 83 da d3 3c b5 7b 4a bc 8c ed 9d bc
       0.02586103 -0.012358596 -0.01927831
