Usable_Data/Versuch_3-1/PKWParking/PKWParking-19999997.onnx (onnx, 448439 bytes, 15 tensors)

discrete_act_size_vector f4 [1, 2]
4.0 3.0
00000000: 0000 8040 0000 4040

network_body.observation_encoder.processors.0.normalizer.running_mean f4 [45]
0.0074231294 0.020850824 0.11015581 1.4999853e-06 0.56286716 0.005782143 0.19774798 0.0534103
5.850044e-06 0.54538083 0.005288992 0.06904486 0.06309276 0.00026669804 0.5558035 3.770003e-05
0.44396332 0.012652933 8.65004e-06 0.47724137 0.00040109808 0.1261118 0.019578213 2.3050252e-05
0.5500459 4.400032e-06 0.4854251 0.0025984102 1.5950032e-05 0.47614422 0.00078069523 0.10344115
0.00476585 1.2800095e-05 0.55986786 0.00041370935 0.09342662 0.0 2.850022e-06 0.5713839
0.004304899 0.006132734 0.0 0.0 0.57420105
00000000: b93d f33b 59cf aa3c 5f99 e13d 1a53 c935
00000010: 1018 103f 2278 bd3b 727e 4a3e c2c4 5a3d
00000020: 7f4b c436 149e 0b3f 484f ad3b 6467 8d3d
00000030: c736 813d 9bd3 8b39 2349 0e3f 1920 1e38
00000040: 294f e33e 3f4e 4f3c a41f 1137 fb58 f43e
00000050: 794a d239 7423 013e 7d62 a03c 0a5c c137
00000060: cfcf 0c3f fda3 9336 a489 f83e 174a 2a3b
00000070: 6fcc 8537 2dc9 f33e 92a7 4c3a f4d8 d33d
00000080: d92a 9c3b fdbf 5637 8053 0f3f 21e7 d839
00000090: 7556 bf3d 0000 0000 0143 3f36 3746 123f
000000a0: 1c10 8d3b 1af5 c83b 0000 0000 0000 0000
000000b0: d7fe 123f

network_body.observation_encoder.processors.1.normalizer.running_mean f4 [105]
0.0 0.0075841155 0.0 1.8500128e-06 0.15131576 0.0 0.0074230623 0.0
3.4500408e-06 0.15150845 0.0 0.0076160803 0.0 9.000077e-07 0.15108165 0.0
0.00566127 0.0 1.8800101e-05 0.14519 0.0 0.0041840984 0.0 8.0000774e-07
0.15162256 0.0 0.00037805343 0.0 4.104968e-05 0.14160103 0.0 0.0005971575
0.0 2.0000209e-07 0.15168606 0.0 0.007586475 0.0 2.1000233e-06 0.15139401
0.0 0.0074252393 0.0 3.7000216e-06 0.15157811 0.0 0.0076199286 0.0
1.0500073e-06 0.15112984 0.0 0.005662825 0.0 1.9050101e-05 0.1452772 0.0
0.004188236 0.0 9.0000094e-07 0.15171379 0.0 0.00037820314 0.0 4.1249696e-05
0.14169323 0.0 0.0006003062 0.0 2.4999932e-07 0.15177779 0.0 0.0075889626
0.0 2.3500286e-06 0.15150902 0.0 0.007427519 0.0 3.94996e-06 0.15165788
0.0 0.007623837 0.0 1.2499978e-06 0.1511766 0.0 0.0056643793 0.0
1.9300069e-05 0.145353 0.0 0.0041923425 0.0 1.0500107e-06 0.15181331 0.0
0.0003783505 0.0 4.1500247e-05 0.14177588 0.0 0.00060350227 0.0 2.9999856e-07
0.15187593
00000000: 0000 0000 2c84 f83b 0000 0000 f54d f835
00000010: 85f2 1a3e 0000 0000 293d f33b 0000 0000
00000020: 4087 6736 0825 1b3e 0000 0000 5090 f93b
00000030: 0000 0000 0f98 7135 26b5 1a3e 0000 0000
00000040: 2d82 b93b 0000 0000 e9b4 9d37 b0ac 143e
00000050: 0000 0000 c31a 893b 0000 0000 1dc0 5635
00000060: f242 1b3e 0000 0000 7935 c639 0000 0000
00000070: c22c 2c38 dcff 103e 0000 0000 908a 1c3a
00000080: 0000 0000 28c0 5634 9753 1b3e 0000 0000
00000090: f797 f83b 0000 0000 20ee 0c36 0807 1b3e
000000a0: 0000 0000 6c4f f33b 0000 0000 e34d 7836
000000b0: 4b37 1b3e 0000 0000 98b0 f93b 0000 0000
000000c0: faed 8c35 c8c1 1a3e 0000 0000 388f b93b
000000d0: 0000 0000 c8cd 9f37 8cc3 143e 0000 0000
000000e0: 783d 893b 0000 0000 9897 7135 dc5a 1b3e
000000f0: 0000 0000 9149 c639 0000 0000 8603 2d38
00000100: 0818 113e 0000 0000 de5d 1d3a 0000 0000
00000110: a537 8634 a36b 1b3e 0000 0000 d5ac f83b
00000120: 0000 0000 2fb5 1d36 2e25 1b3e 0000 0000
00000130: 8c62 f33b 0000 0000 e689 8436 344c 1b3e
00000140: 0000 0000 61d1 f93b 0000 0000 99c5 a735
00000150: 0ace 1a3e 0000 0000 429c b93b 0000 0000
00000160: 95e6 a137 6bd7 143e 0000 0000 eb5f 893b
00000170: 0000 0000 18ee 8c35 f374 1b3e 0000 0000
00000180: 585d c639 0000 0000 8d10 2e38 b22d 113e
00000190: 0000 0000 5a34 1e3a 0000 0000 7d0f a134
000001a0: 5d85 1b3e

network_body.observation_encoder.processors.2.normalizer.running_mean f4 [12]
0.9999854 -0.18034847 -0.025468286 -0.005614782 0.5050401 0.0 0.28789788 0.28789788
0.20034291 0.07515351 0.012201076 0.11011564
00000000: 0bff 7f3f 45ad 38be dea2 d0bc 35fc b7bb
00000010: 4f4a 013f 0000 0000 5a67 933e 5a67 933e
00000020: b126 4d3e 15ea 993d 06e7 473c 4f84 e13d

network_body._body_endoder.seq_layers.0.weight f4 [256, 162]
0.082297586 -0.12078412 -0.04211552 0.06791298 -0.043760374 0.18301453 -0.021224627 -0.037238367
0.07241295 0.0012505646 -0.019641666 0.06130826 -0.051508825 0.07264494 -0.07586848 0.14188603
-0.110403925 0.15109505 -0.08418283 -0.014024666 -0.023043843 -0.13960424 0.01738245 0.0014753485
0.0026803706 0.06341777 -0.04519743 0.07039563 0.07670189 0.045868557 0.18728825 0.034168147
0.12067927 0.1362901 -0.06662955 0.13846354 0.029959438 0.04606276 -0.0110195335 -0.12529813
0.085477546 -0.19041653 -0.03435658 -0.12337268 0.059678394 -0.17578422 0.09739091 -0.15551825
-0.021410933 -0.163961 0.09296016 0.09896912 0.014794366 -0.051345278 -0.0015802244 -0.08880963
0.13699006 -0.03901231 0.091155276 -0.18139164 0.039718 -0.05462505 -0.018587403 -0.092979446
-0.12006961 0.101420045 0.05765495 0.0039656535 0.045477398 -0.095571086 -0.011055817 0.13145183
-0.13004556 0.0543005 0.08464727 0.11299949 -0.01384858 0.1601921 0.07982847 -0.004676223
-0.020099482 0.020948794 -0.010627189 -0.082221895 -0.022313908 -0.11263206 -0.027148658 0.11191735
0.050529532 0.006224018 0.012987795 0.14884487 -0.22294797 0.035331078 0.119383834 0.045093033
-0.019032901 -0.034548204 0.100167975 0.03164904 0.012777048 0.010999574 0.0039381343 0.14474574
0.08918741 -0.07029985 0.09496543 0.0595106 -0.015945498 0.00937345 -0.066852994 0.0446261
-0.14482875 0.09635869 0.18523617 0.01799379 0.08239358 -0.06689424 0.017938143 0.040442675
-0.053699315 0.009082319 0.004921942 -0.045115534 -0.017705984 -0.06872463 0.0632904 -0.046346527
0.06361355 0.09657122 0.0073992442 -0.06307899 -0.102500185 -0.056961004 -0.071763024 0.16693564
0.16769843 -0.06418386 -0.03452455 -0.062997624 0.034548514 0.09946364 -0.13186248 0.026776046
-0.17991231 -0.06062025 0.06230198 -0.11782706 -0.19628964 0.09684093 -0.13885024 -0.055390406
0.13034923 0.2762449 0.013658403 -0.023081917 -0.012267639 0.051884953 -0.21789998 -0.07042019
0.11757588 0.09327187 -0.07718696 -0.23691037 -0.21962851 -0.1104218 0.027207244 -0.16862445
-0.04223142 0.08488643 -0.17166147 0.016272882 -0.09017839 -0.15933721 -0.13893318 -0.14862572
0.18664506 0.012275497 -0.043342862 0.20748736 -0.17334153 -0.16489683 -0.1266473 -0.00822841
-0.09376507 0.019523963 0.026849462 -0.08842807 0.35725674 -0.00010940906 -0.2519078 -0.19466367
-0.09383091 0.23316027 -0.28572413 -0.0935267 -0.2826084 -0.08326173 -0.053482328 0.03376876
-0.02294728 -0.025357652 0.084500544 -0.040787846 0.043746896 -0.041119557 0.03085652 -0.09996952
-0.0012147273 0.17978056 -0.20208168 0.013274394 0.03547294 -0.21629559 0.09656605 -0.012362588
-0.043782756 -0.03728388 -0.17633644 0.020506969 0.0317416 0.0060041626 0.017590027 -0.24681793
0.026996708 -0.20858456 -0.044890847 -0.22610423 -0.09840429 0.04360829 0.036148034 -0.00024007671
0.037232343 -0.1600414 0.23398277 -0.014362866 -0.118557364 -0.030549692 -0.17505592 0.05171457
0.089640625 -0.009868956 0.021861885 -0.108251266 -0.15014565 -0.0062891524 0.18538116 0.045951724
-0.17769358 0.062608376 -0.057239898 0.13555615 0.15518129 -0.15748714 -0.05622405 -0.05430133
00000000: a38b a83d aa5d f7bd 5381 2cbd f615 8b3d
00000010: 143e 33bd 2968 3b3e 45df adbc 4287 18bd
00000020: 3e4d 943d fce9 a33a 8fe7 a0bc 5f1e 7b3d
00000030: ebfa 52bd dfc6 943d ef60 9bbd 924a 113e
00000040: 741b e2bd a9b8 1a3e 0c68 acbd b6c7 65bc
00000050: 71c6 bcbc 6af4 0ebe a465 8e3c 7b60 c13a
00000060: 28a9 2f3b 2de1 813d f120 39bd 962b 903d
00000070: e115 9d3d abe0 3b3d 7ec8 3f3e e6f3 0b3d
00000080: b126 f73d a28f 0b3e 1375 88bd 63c9 0d3e
00000090: 7f6d f53c 4eac 3c3d 468b 34bc 274e 00be
000000a0: da0e af3d 8dfc 42be 7cb9 0cbd d1aa fcbd
000000b0: 5571 743d c700 34be e374 c73d 2d40 1fbe
000000c0: fb65 afbc 64e5 27be e561 be3d 52b0 ca3d
000000d0: 1264 723c 6d4f 52bd 881f cfba d3e1 b5bd
000000e0: 1f47 0c3e 5fcb 1fbd 9eaf ba3d bbbe 39be
000000f0: 57af 223d 84be 5fbd 9c44 98bc 026c bebd
00000100: 0ee7 f5bd 50b5 cf3d 9927 6c3d 50f2 813b
00000110: 8246 3a3d c6ba c3bd 7523 35bc 4f9b 063e
00000120: aa2a 05be 336a 5e3d 8c5b ad3d 476c e73d
00000130: 28e5 62bc 6609 243e 1c7d a33d 003b 99bb
00000140: aba7 a4bc ce9c ab3c a91d 2ebc f463 a8bd
00000150: a8cb b6bc a3ab e6bd dd66 debc ec34 e53d
00000160: 0ef8 4e3d d9f2 cb3b c3ca 543c ca6a 183e
00000170: 794c 64be 52b7 103d 837f f43d 79b3 383d
00000180: e3ea 9bbc 6b82 0dbd de24 cd3d 6ca2 013d
00000190: d356 513c 8f37 343c 770b 813b 3a38 143e
000001a0: e4a7 b63d 5ef9 8fbd 3c7d c23d 63c1 733d
000001b0: 22a0 82bc 1993 193c 39ea 88bd dcc9 363d
000001c0: fd4d 14be b457 c53d 8dae 3d3e b667 933c
000001d0: f7bd a83d d9ff 88bd 03f3 923c 38a7 253d
000001e0: d0f3 5bbd 02ce 143c 3e48 a13b 11cb 38bd
000001f0: 240c 91bc 80bf 8cbd 669e 813d dbd5 3dbd
00000200: d247 823d 22c7 c53d 5c75 f23b 8f2f 81bd
00000210: 9eeb d1bd f14f 69bd 7ef8 92bd 2df1 2a3e
00000220: 23b9 2b3e d472 83bd 9d69 0dbd e604 81bd
00000230: be82 0d3d 98b3 cb3d f506 07be 7059 db3c
00000240: ef3a 38be f04c 78bd 5c30 7f3d 504f f1bd
00000250: 2700 49be 8a54 c63d c22e 0ebe 0de1 62bd
00000260: 457a 053e f96f 8d3e 7fc7 5f3c 4a16 bdbc
00000270: 35fe 48bc 5185 543d 2c21 5fbe 7638 90bd
00000280: 9fcb f03d 5205 bf3d 3214 9ebd a298 72be
00000290: 4ce6 60be d324 e2bd bae1 de3c e3ab 2cbe
000002a0: dafa 2cbd f0d8 ad3d 06c8 2fbe b54e 853c
000002b0: 73af b8bd 4b29 23be 8044 0ebe 5731 18be
000002c0: e21f 3f3e 2b1f 493c 4988 31bd 9177 543e
000002d0: 7180 31be b7da 28be d4af 01be 74d0 06bc
000002e0: e707 c0bd b8f0 9f3c 67f3 db3c c719 b5bd
000002f0: 5bea b63e 8b72 e5b8 0ffa 80be ea55 47be
00000300: 6c2a c0bd 91c1 6e3e 6f4a 92be ed8a bfbd
00000310: 0cb2 90be 2085 aabd 4910 5bbd 1c51 0a3d
00000320: effb bbbc daba cfbc 9f0e ad3d 2811 27bd
00000330: f22f 333d fb6c 28bd d0c6 fc3c d2bc ccbd
00000340: 7c37 9fba 6518 383e 80ee 4ebe d87c 593c
00000350: 134c 113d 977c 5dbe 6cc4 c53d 748c 4abc
00000360: 8c55 33bd fbb6 18bd 8a91 34be 3bfe a73c
00000370: 7b03 023d 91be c43b f618 903c d7bd 7cbe
00000380: 3328 dd3c 3197 55be 77df 37bd de87 67be
00000390: 3088 c9bd 9b9e 323d f60f 143d 1abd 7bb9
000003a0: f180 183d e5e1 23be 2e99 6f3e 3a52 6bbc
000003b0: 34ce f2bd 5943 fabc dc41 33be a8d2 533d
000003c0: 8195 b73d 67b1 21bc b217 b33c d7b2 ddbd
000003d0: c8bf 19be 3c15 cebb 8fd4 3d3e e037 3c3d
000003e0: 4ef5 35be d238 803d 6274 6abd 3bcf 0a3e
000003f0: d8e7 1e3e 4f44 21be 304b 66bd 126b 5ebd

network_body._body_endoder.seq_layers.0.bias f4 [256]
-0.06347957 0.12994064 -0.22636952 -0.05646039 0.027080446 -0.1926001 -0.12835795 -0.20912997
0.20902485 -0.14668855 0.14047277 -0.09727001 0.08221076 -0.059369184 0.25762656 -0.11681337
0.138114 0.2159957 -0.22966143 0.18546452 0.15288301 0.21214893 0.2793735 0.09511365
-0.21048078 0.14867146 -0.075239986 -0.09805266 0.050453074 0.16245048 -0.22285315 0.026780345
-0.019988729 -0.00425025 0.13065003 0.04388041 0.037141733 0.24128045 0.091856934 0.09609961
-0.016309049 0.11373008 0.21194664 0.122418925 -0.09590231 -0.091117 0.11019893 0.02294703
-0.15672706 -0.25339153 -0.19331548 0.17939937 0.064996436 0.00350505 -0.044918433 0.05460824
0.11635277 0.18881197 0.002530648 0.10276257 0.055410504 0.08314918 0.098310046 0.05594372
0.25326103 0.009067292 -0.012861091 0.053997234 0.27547008 -0.056235146 -0.1848053 -0.15315473
0.0625498 0.14168844 0.0133951865 0.31213748 0.05771778 0.10231658 0.070030384 0.010581335
-0.007613783 -0.00693823 -0.10349749 0.15680262 0.1320124 -0.18609753 0.073439546 0.07491914
0.38282534 0.014124943 -0.21134302 -0.06992153 0.10689103 -0.2446815 0.14923303 0.21385847
0.22968279 -0.0455733 -0.10684007 0.21682036 0.04061443 0.009585114 0.14677575 0.17031664
-0.1015482 0.081361726 0.15432248 0.12184308 0.12432703 -0.009682135 -0.14657153 -0.16352722
0.36595058 -0.09534712 0.3707507 -0.076481566 -0.17197613 0.04136877 0.3551629 -0.17623079
0.15854798 -0.11518102 -0.017476127 0.12644027 0.02141174 0.124136336 -0.06384167 0.115627
-0.012025563 0.18959473 0.18299036 0.003426449 0.3330247 0.08646434 0.117648646 0.21144995
-0.10151651 0.040845394 0.2768338 0.06218816 0.05405557 -0.0040294877 -0.10421836 -0.20835114
0.11203877 0.17925064 -0.08398034 0.14152999 0.111535065 0.031727824 0.04376496 -0.22726716
0.036977723 -0.034247242 0.03395105 0.22723483 0.1445096 0.15694164 0.18494424 0.22112823
0.23925194 0.26248485 0.0011311772 0.079820335 -0.06778342 0.2595313 -0.1370119 0.28663668
-0.019851346 0.03368738 0.25908837 0.1855566 0.091095716 -0.09061818 0.1940859 0.30856696
0.14708854 0.08843595 0.103967115 -0.12831825 0.13435249 -0.27266917 0.10330248 0.19932936
-0.10975098 0.20387071 -0.08388385 -0.0894305 0.19346005 0.12396163 0.29230204 -0.0043897475
0.08043883 0.06294219 0.052490074 -0.12665734 0.18975154 0.14184827 0.028098967 -0.034031738
0.106819816 -0.14557917 0.12939268 -0.0856667 0.09497368 0.10470708 0.26544338 0.059226487
-0.054608367 -0.014637058 -0.049339592 0.045896072 0.14554371 0.052719887 -0.102511555 0.11600587
0.07813054 -0.24298501 0.1253584 -0.007656382 0.16903022 0.15963988 -0.06443704 0.09519321
0.044701397 0.25480595 0.077874236 -0.11636361 0.20548728 -0.013127592 0.032981873 -0.06340735
-0.049022496 0.15956865 -0.13782445 0.29551962 -0.09611111 0.037398532 -0.13943799 -0.13029864
0.2998635 0.13380794 -0.20252022 0.0004205315 -0.15479295 0.09278696 0.1110222 0.1445413
0.011976941 -0.009341278 0.2651369 0.06397349 0.10926383 0.113825396 0.0466852 0.113617696
00000000: 9401 82bd 290f 053e 69cd 67be 0343 67bd
00000010: d0d7 dd3c f638 45be 4470 03be 2b26 56be
00000020: 9c0a 563e 8635 16be 18d8 0f3e 8035 c7bd
00000030: 1d5e a83d 1a2d 73bd a1e7 833e d93b efbd
00000040: c26d 0d3e fa2d 5d3e 5e2c 6bbe 69ea 3d3e
00000050: 5d8d 1c3e 923d 593e 0b0a 8f3e f2ca c23d
00000060: 4688 57be 553d 183e 6c17 9abd d5cf c8bd
00000070: e2a7 4e3d 6b59 263e 9e33 64be 7462 db3c
00000080: 67bf a3bc ae45 8bbb 1fc9 053e f2bb 333d
00000090: ee21 183d 3912 773e 7d1f bc3d dfcf c43d
000000a0: 8e9a 85bc 51eb e83d 8a08 593e c6b6 fa3d
000000b0: 6e68 c4bd 8d9b babd faaf e13d 69fb bb3c
000000c0: 0f7d 20be 89bc 81be 7ef4 45be 78b4 373e
000000d0: da1c 853d fbb4 653b 64fc 37bd e4ac 5f3d
000000e0: 5c4a ee3d ed57 413e 3ad9 253b 2f75 d23d
000000f0: 20f6 623d 1e4a aa3d c756 c93d 3e25 653d
00000100: 6eab 813e fb8e 143c 53b7 52bc 342c 5d3d
00000110: 6a0a 8d3e d356 66bd 9a3d 3dbe 98d4 1cbe
00000120: 1c1a 803d c616 113e 7c77 5b3c 7cd0 9f3e
00000130: 7b69 6c3d 5b8b d13d 176c 8f3d 565d 2d3c
00000140: 0a7d f9bb 175a e3bb 7ef6 d3bd de90 203e
00000150: 422e 073e 5a90 3ebe 7967 963d 356f 993d
00000160: af01 c43e 4e6c 673c 4e6a 58be 0533 8fbd
00000170: afe9 da3d ca8d 7abe 8bd0 183e b7fd 5a3e
00000180: f731 6b3e 12ab 3abd f7ce dabd 2806 5e3e
00000190: 515b 263d e20a 1d3c 624c 163e 7c67 2e3e
000001a0: 81f8 cfbd faa0 a63d b606 1e3e dd88 f93d
000001b0: 2b9f fe3d d1a1 1ebc d916 16be ae73 27be
000001c0: e05d bb3e 5a45 c3bd 09d3 bd3e 5ea2 9cbd
000001d0: 831a 30be 4d72 293d e9d7 b53e d875 34be
000001e0: 675a 223e 07e4 ebbd 182a 8fbc 8f79 013e
000001f0: ac67 af3c 313b fe3d 6cbf 82bd d9cd ec3d
00000200: de06 45bc 1f25 423e d361 3b3e 468e 603b
00000210: 3782 aa3e 3714 b13d c6f1 f03d 5686 583e
00000220: e3e7 cfbd 804d 273d 29bd 8d3e 03b9 7e3d
00000230: 6069 5d3d cb09 84bb 6f70 d5bd 005a 55be
00000240: 9574 e53d 7b8d 373e e2fd abbd 3ded 103e
00000250: 7f6c e43d 09f5 013d e342 333d b9b8 68be
00000260: f475 173d d646 0cbd 4210 0b3d 3fb0 683e
00000270: 53fa 133e 4fb5 203e 0662 3d3e 706f 623e
00000280: 76fe 743e 6a64 863e 0244 943a d878 a33d
00000290: 09d2 8abd 49e1 843e d94c 0cbe 0bc2 923e
000002a0: 4a9f a2bc c7fb 093d 3ba7 843e 8d02 3e3e
000002b0: 6490 ba3d 0696 b9bd 74be 463e 7dfc 9d3e
000002c0: 619e 163e e81d b53d b6ec d43d dc65 03be
000002d0: b393 093e 4b9b 8bbe 4090 d33d ff1c 4c3e
000002e0: 1fc5 e0bd 7cc3 503e 4ccb abbd 5727 b7bd
000002f0: 641a 463e 98df fd3d 9da8 953e dfd7 8fbb
00000300: 1dbd a43d d6e7 803d d5ff 563d 76b2 01be
00000310: 3a4e 423e ac40 113e ce2f e63c dd64 0bbd
00000320: 59c4 da3d b512 15be 847f 043e 0672 afbd
00000330: 9081 c23d aa70 d63d 32e8 873e 7997 723d
00000340: 06ad 5fbd 45d0 6fbc 5018 4abd 85fd 3b3d
00000350: 6909 153e cff0 573d 94f1 d1bd 7c94 ed3d
00000360: e802 a03d 10d1 78be f45d 003e 63e2 fabb
00000370: 4216 2d3e a378 233e 91f7 83bd a8f4 c23d
00000380: d018 373d ed75 823e 877c 9f3d 0b50 eebd
00000390: 426b 523e 1d15 57bc 0018 073d b6db 81bd
000003a0: d0cb 48bd f765 233e da21 0dbe 594e 973e
000003b0: e7d5 c4bd 342f 193d d5c8 0ebe 026d 05be
000003c0: b587 993e f304 093e 7661 4fbe c87a dc39
000003d0: 0b82 1ebe 1707 be3d 9b5f e33d a202 143e
000003e0: ee3a 443c 290c 19bc 06c0 873e 8804 833d
000003f0: b7c5 df3d 4a1d e93d fb38 3f3d 65b0 e83d

network_body._body_endoder.seq_layers.2.weight f4 [256, 256]
-0.029568374 -0.0823687 0.08175959 -0.0072367014 0.0707435 0.023102257 0.16635728 -0.033537585
-0.31233713 0.022871217 -0.3003911 0.07959177 -0.16837175 0.22212233 -0.14074323 0.11243408
-0.2652575 -0.2294987 0.0018120485 -0.08072751 -0.17300507 -0.13445427 -0.217408 -0.11185594
0.074816205 -0.2257547 -0.035373244 0.0123118535 -0.030961268 -0.22482358 -0.02139699 -0.083535895
-0.12490411 -0.23005526 -0.15025203 -0.122693315 0.021449614 -0.2132405 -0.26320097 -0.12020603
0.11196189 -0.07647028 -0.20399804 -0.06991815 -0.0721012 -0.100310825 0.0052202423 -0.012718651
0.1923812 0.0090111615 0.19594885 -0.13164137 0.04427957 -0.16790217 0.043775674 -0.017372347
-0.12471189 -0.045824856 -0.28944716 -0.08410531 -0.07670657 -0.17840399 -0.0791612 -0.19588305
-0.074802734 -0.0019699177 -0.08217799 -0.03882912 -0.43859208 -0.04060472 0.05764977 0.1514212
-0.008257192 -0.37817323 -0.04864266 -0.078724585 -0.0013201963 0.07482118 -0.06634442 -0.021077598
0.027578795 0.031665474 -0.20678486 -0.026594292 -0.01685329 0.05147164 0.0461637 0.06258397
-0.16779552 -0.057921965 -0.004790124 -0.1023688 -0.035812654 -0.048037365 -0.04877396 -0.08426389
-0.06883223 0.058365684 -0.07048086 -0.18476921 -0.18344551 0.038761828 -0.14676082 -0.25535664
-0.11233238 -0.038679037 -0.16966063 -0.15569107 -0.07401726 -0.06485586 0.08257916 -0.034660324
-0.19094811 -0.034008563 -0.21781158 -0.023746254 -0.20488967 -0.076890916 -0.11353368 0.12650806
-0.13395847 0.0040954314 -0.023213144 -0.13521937 -0.07054699 -0.08663415 -0.042837717 -0.16002172
-0.20011939 -0.20072499 -0.13808443 -0.19056354 -0.12102762 -0.1700287 -0.18627791 -0.36443073
-0.024718372 -0.13645636 -0.22990134 -0.016395802 -0.010206809 0.106915474 -0.003341734 0.20228143
-0.3079929 -0.12727576 0.04953292 -0.0980102 -0.11181653 -0.18382636 -0.18752593 0.2322861
-0.1553512 0.0072526545 -0.10978907 -0.26179686 0.047522426 -0.09057127 -0.12673195 -0.20922263
-0.057309207 -0.16358349 -0.08842542 -0.04058554 -0.03991432 -0.2542347 0.20761086 -0.13684429
0.004725919 -0.1323435 -0.031480446 -0.056321636 -0.07425453 0.14344177 -0.23209727 -0.2365607
-0.027769515 -0.10965533 -0.14688762 0.016616333 -0.035960454 -0.019332467 -0.15411423 -0.10240046
0.051133655 -0.20180292 0.10503796 -0.17531769 -0.05428239 -0.09595493 -0.1519222 -0.050059948
-0.3262928 -0.111696325 -0.08061111 0.15926418 -0.23943706 -0.32688347 0.0062301294 0.09219574
-0.1939346 0.056562215 -0.04323753 -0.08644082 -0.02982616 -0.25898072 -0.20943306 -0.29026175
-0.17362618 -0.1282427 -0.060755994 -0.057252556 -0.071202815 -0.03461513 -0.018017467 0.016266081
-0.2654879 0.08188989 -0.055154875 0.042613156 -0.21225832 -0.14928862 0.052647177 -0.1907296
0.023379691 -0.06760814 -0.13844974 0.02781343 -0.2064728 -0.025172735 -0.19165164 -0.08601368
-0.025048863 -0.10314523 -0.04782651 -0.35565594 0.046877965 -0.15925118 0.08202988 0.12165814
-0.112434484 -0.26518503 0.13206454 -0.16521269 0.103275485 -0.23344256 -0.107590236 -0.082125224
0.07588754 -0.1426388 -0.29948145 -0.10132485 -0.23975076 -0.29997465 -0.07783267 -0.06464847
00000000: 6039 f2bc ecb0 a8bd 9271 a73d da21 edbb
00000010: f8e1 903d f240 bd3c 9059 2a3e b55e 09bd
00000020: a7ea 9fbe 6b5c bb3c ddcc 99be 0301 a33d
00000030: a569 2cbe 0974 633e fe1e 10be d743 e63d
00000040: d5cf 87be b501 6bbe 4282 ed3a 7754 a5bd
00000050: 3e28 31be 61ae 09be 34a0 5ebe ba14 e5bd
00000060: 3d39 993d 3d2c 67be 89e3 10bd a8b7 493c
00000070: 7ca2 fdbc 2738 66be be48 afbc de14 abbd
00000080: bacd ffbd 9b93 6bbe abdb 19be a246 fbbd
00000090: 1ab7 af3c b85b 5abe 47c2 86be 942e f6bd
000000a0: 464c e53d 739c 9cbd dde4 50be 3f31 8fbd
000000b0: cba9 93bd c36f cdbd 910e ab3b e461 50bc
000000c0: 94ff 443e 8da3 133c d1a6 483e ffcc 06be
000000d0: 7f5e 353d 8cee 2bbe 1f4e 333d 7450 8ebc
000000e0: f368 ffbd d8b2 3bbd 6b32 94be 683f acbd
000000f0: 5618 9dbd 89af 36be 441f a2bd 9195 48be
00000100: 2d32 99bd bc19 01bb ef4c a8bd 490b 1fbd
00000110: 248f e0be 2351 26bd 2a22 6c3d 290e 1b3e
00000120: 2c49 07bc ec9f c1be 873d 47bd 5b3a a1bd
00000130: 700a adba d93b 993d 95df 87bd edaa acbc
00000140: edec e13c a8b3 013d 69bf 53be 46dc d9bc
00000150: e90f 8abc edd3 523d 2616 3d3d 062c 803d
00000160: 97d2 2bbe 953f 6dbd 79f6 9cbb bca6 d1bd
00000170: 4ab0 12bd d4c2 44bd 34c7 47bd 8c92 acbd
00000180: eaf7 8cbd db10 6f3d 4558 90bd 2434 3dbe
00000190: 24d9 3bbe b9c4 1e3d 7848 16be 1bbe 82be
000001a0: 850e e6bd e96d 1ebd 84bb 2dbe 7b6d 1fbe
000001b0: 5c96 97bd 26d3 84bd 431f a93d fcf7 0dbd
000001c0: e787 43be 904c 0bbd 000a 5fbe 8187 c2bc
000001d0: 99ce 51be fc78 9dbd 5984 e8bd 548b 013e
000001e0: 692c 09be f832 863b 7e29 bebc f276 0abe
000001f0: f17a 90bd 3f6d b1bd 9a76 2fbd bcdc 23be
00000200: 19ec 4cbe da8a 4dbe 0166 0dbe 1723 43be
00000210: 54dd f7bd 011c 2ebe a3bf 3ebe aa96 babe
00000220: 2f7e cabc 37bb 0bbe 426b 6bbe 7d50 86bc
00000230: 763a 27bc 80f6 da3d fe00 5bbb dd22 4f3e
00000240: 3fb1 9dbe 9454 02be 08e3 4a3d 92b9 c8bd
00000250: 1100 e5bd fa3c 3cbe cc06 40be 68dc 6d3e
00000260: 6314 1fbe ada7 ed3b 18d9 e0bd 3d0a 86be
00000270: e0a6 423d 6e7d b9bd 05c6 01be 753e 56be
00000280: 0fbd 6abd 6e82 27be 6318 b5bd 063d 26bd
00000290: 337d 23bd 0d2b 82be f197 543e e920 0cbe
000002a0: e2db 9a3b 0e85 07be a4f1 00bd 84b1 66bd
000002b0: c212 98bd 66e2 123e e8aa 6dbe f83c 72be
000002c0: e57c e3bc f992 e0bd b569 16be fa1e 883c
000002d0: 454b 13bd 1f5f 9ebc 1fd0 1dbe 55b7 d1bd
000002e0: 8671 513d 6da5 4ebe 241e d73d 7b86 33be
000002f0: 3657 5ebd 0584 c4bd 7e91 1bbe a90b 4dbd
00000300: da0f a7be 0bc1 e4bd 7017 a5bd 2616 233e
00000310: fd2e 75be 455d a7be 1d26 cc3b 1fd1 bc3d
00000320: cb96 46be c8ad 673d d619 31bd e207 b1bd
00000330: fe55 f4bc 1f99 84be 9f75 56be 309d 94be
00000340: 10cb 31be 0e52 03be 47db 78bd a881 6abd
00000350: c8d2 91bd 98c8 0dbd 5e99 93bc 7240 853c
00000360: 08ee 87be e3b5 a73d 14ea 61bd 228b 2e3d
00000370: 3f5a 59be 1edf 18be 91a4 573d 9f4e 43be
00000380: c486 bf3c 2376 8abd c5c5 0dbe fed8 e33c
00000390: 9b6d 53be 0d37 cebc 5440 44be f127 b0bd
000003a0: 4633 cdbc ce3d d3bd bbe5 43bd 8918 b6be
000003b0: 1c03 403d be12 23be 48ff a73d e727 f93d
000003c0: 0d44 e6bd 55c6 87be ed3b 073e 842d 29be
000003d0: 1982 d33d 910b 6fbe 4558 dcbd 4531 a8bd
000003e0: ed6a 9b3d e80f 12be a255 99be 6783 cfbd
000003f0: 3981 75be 4796 99be bc66 9fbd 6b66 84bd

network_body._body_endoder.seq_layers.2.bias f4 [256]
-0.3050333 -0.17900874 -0.2651178 -0.24467337 -0.088061735 -0.1547848 -0.041825205 -0.23487356
-0.07733321 -0.19625211 -0.18676415 -0.07569264 -0.25652272 -0.18400946 -0.26714313 -0.12778263
-0.041287784 -0.17728733 -0.2562317 -0.14253543 -0.15949534 -0.1353498 -0.11753331 -0.19254561
-0.12183802 -0.16406696 -0.04380207 -0.08668775 -0.11928859 -0.08287812 -0.19781223 -0.21494657
-0.106070794 -0.13095297 -0.2428336 -0.22743317 -0.10024307 -0.1318602 -0.23340246 -0.13442275
-0.08631066 -0.07076818 -0.26111218 -0.20335701 -0.08259856 -0.18793207 -0.19243357 -0.09658942
-0.10894829 -0.03925197 -0.101895764 -0.12493992 -0.058913276 -0.1301981 -0.18292655 -0.085509375
-0.34356076 -0.012764165 -0.05431635 -0.15668264 -0.20604321 -0.21870883 -0.06968485 -0.103870414
-0.22909431 -0.17701371 -0.039965995 -0.1369814 -0.12518072 -0.13978423 -0.24062249 -0.075720444
-0.18724054 -0.22711988 -0.09563447 -0.09969222 -0.19862112 0.025280051 -0.23629783 -0.033849258
-0.13052271 -0.21373555 -0.18908581 -0.2961278 -0.15765719 -0.16705827 -0.09634661 -0.16510901
-0.20215021 -0.24043594 -0.24296981 -0.1609911 -0.16207068 -0.13219696 -0.16265312 -0.09175018
-0.016521513 -0.25361243 -0.24773407 -0.1371283 -0.08968013 -0.13100182 -0.1877337 -0.12583901
-0.21497226 -0.18441276 -0.13127007 -0.19038858 -0.16945411 -0.18292926 -0.20403291 -0.13682273
-0.11820993 -0.10506928 -0.17906731 -0.11118891 -0.01237567 -0.1013181 -0.13090098 -0.19439799
-0.08146276 -0.14045487 -0.14269002 -0.12511012 -0.15819065 -0.12641849 -0.08038255 -0.20335789
-0.04046544 -0.07851474 -0.16173576 -0.17350419 -0.16861247 -0.07819277 -0.051890593 -0.26856917
-0.13226514 -0.2904363 -0.2215308 -0.110628776 -0.062432867 -0.2048362 -0.22252123 -0.18644197
-0.20015232 -0.010511279 -0.057877623 -0.23886038 -0.21690339 -0.063942164 -0.13616394 -0.21095726
-0.037916947 -0.03304566 -0.013455261 -0.078369915 0.047834195 -0.10191581 -0.29626447 -0.044347893
-0.09108682 -0.23300608 -0.11813691 -0.09469763 -0.15586664 -0.050519485 -0.19268721 -0.12898548
-0.1708061 -0.13624406 -0.0608013 -0.1483726 -0.20669678 -0.18020158 -0.07107248 -0.07020475
-0.14295362 -0.17284787 -0.20017746 -0.14975002 -0.16387999 -0.10080862 -0.13061985 -0.11377431
-0.27068096 -0.16491 -0.07081124 -0.0607787 -0.16809823 -0.15789703 -0.19191821 -0.19582985
-0.12861636 -0.13105819 -0.0551384 -0.14424802 -0.23963107 -0.19681802 -0.30513707 -0.07086616
-0.0593842 -0.1695751 -0.11607761 -0.15847646 -0.04306147 -0.026077 -0.10009921 -0.20550424
-0.068139255 -0.008056643 -0.18753734 -0.17934012 -0.06555097 -0.105762444 -0.30411512 -0.19859615
-0.09818499 -0.07416202 -0.010549286 -0.18496439 -0.07299402 -0.15994485 -0.10176152 -0.24232332
-0.08195022 -0.17536971 -0.06989162 -0.23085572 -0.22400004 -0.084281944 -0.18076526 -0.23645778
-0.07233569 -0.15492615 -0.10245729 -0.2565904 -0.16768537 -0.124045454 -0.13428852 -0.16369243
-0.26710752 -0.118692756 -0.0719102 -0.099312134 -0.19815801 -0.0850102 -0.105733044 -0.16160981
-0.056162305 -0.108206674 -0.09066402 -0.2805615 -0.048960887 -0.09725024 -0.047226362 0.0015457233
00000000: 532d 9cbe 114e 37be 85bd 87be a88b 7abe
00000010: b659 b4bd e87f 1ebe e850 2bbd b282 70be
00000020: e060 9ebd 50f6 48be 1a3f 3fbe be04 9bbd
00000030: f256 83be fa6c 3cbe fcc6 88be 73d9 02be
00000040: 611d 29bd cf8a 35be cd30 83be cff4 11be
00000050: bf52 23be 2399 0abe 4eb5 f0bd ad2a 45be
00000060: 3686 f9bd 2b01 28be cd69 33bd 5989 b1bd
00000070: 944d f4bd 01bc a9bd 4a8f 4abe f41a 5cbe
00000080: a53b d9bd 8918 06be 5fa9 78be 3ee4 68be
00000090: 3d4c cdbd 5c06 07be 0e01 6fbe 1ea6 09be
000000a0: a5c3 b0bd e8ee 90bd 7fb0 85be d23c 50be
000000b0: 6f29 a9bd 4471 40be 4e0d 45be add0 c5bd
000000c0: 4820 dfbd acc6 20bd baae d0bd 80e0 ffbd
000000d0: 0c4f 71bd a752 05be 1951 3bbe 8a1f afbd
000000e0: 32e7 afbe ca20 51bc d27a 5ebd 6a71 20be
000000f0: fefc 52be 35f5 5fbe eeb6 8ebd 03ba d4bd
00000100: b397 6abe 1543 35be 62b3 23bd da44 0cbe
00000110: 602f 00be 9923 0fbe be65 76be 5213 9bbd
00000120: fcbb 3fbe 1d92 68be 01dc c3bd 6f2b ccbd
00000130: 5663 4bbe 1c18 cf3c 0ff8 71be 85a5 0abd
00000140: bfa7 05be 7edd 5abe b69f 41be 109e 97be
00000150: e370 21be 5311 2bbe 5f51 c5bd 5612 29be
00000160: 7700 4fbe d734 76be 14cd 78be dada 24be
00000170: dbf5 25be a45e 07be 8a8e 26be 85e7 bbbd
00000180: 2058 87bc 7dd9 81be 00ae 7dbe 5c6b 0cbe
00000190: 37aa b7bd 5725 06be 433d 40be f1db 00be
000001a0: b021 5cbe b3d6 3cbe a96b 06be 39f5 42be
000001b0: 6185 2dbe cf51 3bbe 01ee 50be 421b 0cbe
000001c0: 0c18 f2bd 902e d7bd 6c5d 37be 03b7 e3bd
000001d0: 52c3 4abc dd7f cfbd e80a 06be 4410 47be
000001e0: f3d5 a6bd 67d3 0fbe 551d 12be de1c 00be
000001f0: bbfc 21be d973 01be 9b9f a4bd 0d3d 50be
00000200: 17bf 25bd 56cc a0bd 0f9e 25be 15ab 31be
00000210: bfa8 2cbe 8823 a0bd 3b8b 54bd e681 89be
00000220: 8370 07be 11b4 94be f8d8 62be 5791 e2bd
00000230: 9bb9 7fbd 95c0 51be 9bdc 63be a5ea 3ebe
00000240: bbf4 4cbe 8037 2cbc 1611 6dbd d197 74be
00000250: ec1b 5ebe 1cf4 82bd 8f6e 0bbe 2e05 58be
00000260: cd4e 1bbd e35a 07bd 7473 5cbc 6880 a0bd
00000270: caed 433d 3cb9 d0bd faaf 97be 23a6 35bd
00000280: ba8b babd 2599 6ebe c4f1 f1bd d5f0 c1bd
00000290: 819b 1fbe 85ed 4ebd cc4f 45be c514 04be
000002a0: cbe7 2ebe 9083 0bbe c90a 79bd fdee 17be
000002b0: 52a8 53be c386 38be 738e 91bd 82c7 8fbd
000002c0: 6f62 12be 08ff 30be 52fb 4cbe 1258 19be
000002d0: 28d0 27be c074 cebd 36c1 05be 8102 e9bd
000002e0: b296 8abe 2bde 28be 7c05 91bd 16f3 78bd
000002f0: f121 2cbe c2af 21be 3586 44be 9f87 48be
00000300: 02b4 03be 1e34 06be ced8 61bd c1b5 13be
00000310: d961 75be aa8a 49be ed3a 9cbe 4722 91bd
00000320: d93c 73bd 18a5 2dbe 19ba edbd a747 22be
00000330: 3961 30bd 6f9f d5bc d100 cdbd b46f 52be
00000340: 988c 8bbd 0300 04bc ca09 40be f0a4 37be
00000350: 963f 86bd fb99 d8bd fab4 9bbe ca5c 4bbe
00000360: 3615 c9bd 42e2 97bd ead6 2cbc 4e67 3dbe
00000370: e47d 95bd 95c8 23be 5868 d0bd 9b23 78be
00000380: 84d5 a7bd 1e94 33be 5623 8fbd 7165 6cbe
00000390: 4460 65be 039c acbd 871a 39be fd21 72be
000003a0: bc24 94bd f6a4 1ebe 21d5 d1bd d15f 83be
000003b0: b7b5 2bbe 8b0b febd ee82 09be fd9e 27be
000003c0: 51c2 88be 3015 f3bd a845 93bd 2964 cbbd
000003d0: efe9 4abe d419 aebd 918a d8bd 0b7d 25be
000003e0: 720a 66bd 769b ddbd 0fae b9bd c2a5 8fbe
000003f0: 368b 48bd 222b c7bd 6e70 41bd de99 ca3a

action_model._discrete_distribution.branches.0.weight f4 [4, 256]
-0.0018968671 0.024909407 -0.006489034 0.04027117 -0.0331142 -0.022384038 -0.099520594 -0.09516242
-0.04829595 -0.025147978 -0.051571116 0.043668848 0.013073613 -0.007502863 0.030862786 0.020205684
0.020391932 -0.008609822 -0.0006728181 0.014505759 -0.015447053 0.0021586092 0.089945786 -0.04850685
-0.05585706 -0.068540625 -0.09678254 -0.031920124 -0.0609982 -0.019973593 -0.0005884599 -0.027044011
0.008732786 -0.06834459 -0.0028830164 -0.10982628 0.001567318 0.015023384 0.018438138 -0.0008382768
-0.007593969 -0.087644815 0.03131847 -0.009185314 -0.110895485 0.021001652 0.033693735 -0.092480965
-0.02306903 0.027976243 -0.08930151 0.07831683 -0.010915299 -0.06579563 -0.09410774 -0.03420371
-0.025918685 0.058383305 0.037344154 0.014120753 -0.11536544 -0.005428674 -0.0054332092 -0.026147189
-0.014412177 -0.114055835 -0.114049315 -0.027014928 -0.09379297 -0.05319988 0.0060832994 0.033696864
0.0018617887 0.018026315 0.016171671 -0.017586526 0.031933796 0.048322834 0.008219231 0.01349949
0.08224883 -0.026358724 -0.025089443 -0.029875437 -0.045738075 0.009686653 -0.006991117 0.05412046
-0.020539626 0.009038621 -0.0074206954 -0.002494462 -0.0032075325 -0.08491347 0.0077419765 -0.08131334
0.023706943 -0.053655274 0.006661209 -0.059055757 0.018889533 -0.023574015 0.011390629 -0.118004926
-0.11911441 -0.062140264 -0.12753564 0.0034656154 -0.019014535 0.06999163 -0.026093997 -0.0153285535
0.00855545 -0.096763425 -0.025793139 0.06438857 -0.00390853 -0.060346182 -0.08658906 0.035356417
-0.067107394 0.004788065 0.033753376 -0.091481715 -0.036006827 -0.05684178 -0.07161485 -0.032302465
-0.058831435 -0.0017607261 0.06451244 -0.00071109645 -0.035492633 -0.06939106 -0.028499318 -0.06407221
-0.09161909 0.03154818 0.0191689 -0.10334176 -0.09476605 0.0047396477 0.012710751 0.0076135467
-0.07417914 -0.05792611 -0.033432096 0.019005654 -0.04910007 -0.040025562 0.079722784 0.007897699
-0.047151636 -0.101735726 -0.056290258 0.058177914 0.020813446 -0.0044929446 0.00092122296 -0.097186826
-0.040490508 0.016781278 -0.009684164 0.004830759 0.0770665 -0.1552613 0.010827508 -0.04862361
-0.13298795 0.025670169 -0.053946074 -0.057447474 -0.034713253 -0.080038175 0.058579005 0.004964456
-0.028348625 -0.02392871 0.058112357 -0.07420776 0.061799638 -0.074160345 -0.042650424 0.09701798
-0.034981795 -0.10746086 0.13180308 -0.038701564 -0.053025756 -0.028988719 -0.03849205 0.025869638
-0.036605928 -0.044241622 0.08056246 -0.039849784 -0.03588793 0.074435174 -0.008784114 0.07057158
-0.111066826 -0.04792932 0.09036003 -0.025802953 -0.013768067 -0.035106383 -0.07084086 0.0010880476
-0.10337635 0.012390922 0.053271756 -0.0138787795 -0.03479672 -0.056878436 -0.0007439255 0.020306727
-0.043789968 -0.095524766 -0.09021142 -0.022547752 -0.013529276 0.06677667 0.04796071 -0.02134399
0.080253586 -0.090396434 0.056152645 -0.006727477 0.01765618 -0.069079064 0.012650605 -0.054730367
0.0029938587 -0.02649123 0.01744269 -0.018267313 -0.011934822 -0.07100811 -0.030535625 0.0011316212
0.008339601 0.0034084993 0.0040142 -0.08723008 0.0076460093 0.0023666925 -0.05083378 0.00085589936
-0.008595477 0.034163125 0.0016765647 0.0061989897 -0.09682523 -0.055971004 -0.06461647 -0.04379364
00000000: 4ca0 f8ba d00e cc3c f6a1 d4bb 62f3 243d
00000010: c1a2 07bd bb5e b7bc 74d1 cbbd 84e4 c2bd
00000020: f9d1 45bd 2203 cebc 3c3c 53bd 1bde 323d
00000030: b532 563c 94da f5bb f4d3 fc3c 6486 a53c
00000040: fb0c a73c 3610 0dbc 0f60 30ba 90a9 6d3c
00000050: a315 7dbc 7477 0d3b 7f35 b83d 1eaf 46bd
00000060: 5fca 64bd 075f 8cbd ed35 c6bd adbe 02bd
00000070: 40d9 79bd a99f a3bc e042 1aba 678b ddbc
00000080: f613 0f3c 40f8 8bbd fdf0 3cbb 9aec e0bd
00000090: 776e cd3a a424 763c 940b 973c cebf 5bba
000000a0: d4d6 f8bb 207f b3bd cc47 003d 007e 16bc
000000b0: 2c1d e3bd a80b ac3c 7102 0a3d a966 bdbd
000000c0: 43fb bcbc 6f2e e53c b6e3 b6bd 9364 a03d
000000d0: 15d6 32bc dcbf 86bd 8fbb c0bd 3019 0cbd
000000e0: 6c53 d4bc 5523 6f3d 2ff6 183d bb5a 673c
000000f0: b744 ecbd 05e3 b1bb 1009 b2bb a132 d6bc
00000100: 0d21 6cbc 1b96 e9bd b092 e9bd 694e ddbc
00000110: 8716 c0bd 1ee8 59bd 6a56 c73b b905 0a3d
00000120: 4307 f43a ecab 933c 747a 843c 9e11 90bc
00000130: 03cd 023d 2aee 453d f4a9 063c f72c 5d3c
00000140: 1372 a83d 40ee d7bc 6088 cdbc 55bd f4bc
00000150: d957 3bbd c4b4 1e3c bd15 e5bb 6aad 5d3d
00000160: b842 a8bc b916 143c 4e29 f3bb 217a 23bb
00000170: 7735 52bb 1de7 adbd 68b0 fd3b 9c87 a6bd
00000180: 1035 c23c a2c5 5bbd 4546 da3b 73e4 71bd
00000190: 39be 9a3c 4b1e c1bc c39f 3a3c 91ac f1bd
000001a0: 41f2 f3bd ca86 7ebd b498 02be 611f 633b
000001b0: 5fc4 9bbc c657 8f3d 14c3 d5bc 9d24 7bbc
000001c0: 282c 0c3c e72b c6bd 224c d3bc 28de 833d
000001d0: 2013 80bb 8f2d 77bd 9b55 b1bd e4d1 103d
000001e0: 9a6f 89bd 33e5 9c3b fb40 0a3d c45a bbbd
000001f0: e57b 13bd edd2 68bd ceaa 92bd 974f 04bd
00000200: 3bf9 70bd 2ac8 e6ba 191f 843d e068 3aba
00000210: b960 11bd e61c 8ebd 6777 e9bc 4a38 83bd
00000220: caa2 bbbd aa38 013d 1908 9d3c d8a4 d3bd
00000230: b414 c2bd 0c4f 9b3b c140 503c 0f7b f93b
00000240: 3ceb 97bd ee43 6dbd 18f0 08bd bfb1 9b3c
00000250: 281d 49bd d8f1 23bd b345 a33d 5a65 013c
00000260: 1322 41bd d25a d0bd 9d90 66bd f74b 6e3d
00000270: f680 aa3c 8d39 93bb 3a7e 713a e309 c7bd
00000280: 60d9 25bd e478 893c 54aa 1ebc 584b 9e3b
00000290: 0bd5 9d3d d1fc 1ebe dc65 313c 8d29 47bd
000002a0: fe2d 08be 3f4a d23c 8ff6 5cbd 0b4e 6bbd
000002b0: 7c2f 0ebd 0eeb a3bd 8af0 6f3d e0ac a23b
000002c0: 603b e8bc 2406 c4bc 3907 6e3d 3dfa 97bd
000002d0: 9e21 7d3d 61e1 97bd 36b2 2ebd 5db1 c63d
000002e0: 1249 0fbd 7014 dcbd 63f7 063e 8885 1ebd
000002f0: 8931 59bd c079 edbc d7a9 1dbd 90ec d33c
00000300: 19f0 15bd b436 35bd eefd a43d 8739 23bd
00000310: 39ff 12bd 7871 983d 3feb 0fbc d587 903d
00000320: 0177 e3bd 8951 44bd ae0e b93d b760 d3bc
00000330: 7593 61bc b6cb 0fbd 0315 91bd d29c 8e3a
00000340: fbb6 d3bd 4b03 4b3c 7c33 5a3d d263 63bc
00000350: 0187 0ebd 5df9 68bd ff03 43ba 4b5a a63c
00000360: 1c5d 33bd 7da2 c3bd c4c0 b8bd 10b6 b8bc
00000370: e5a9 5dbc 35c2 883d 7372 443d 97d9 aebc
00000380: fe5b a43d c421 b9bd 5100 663d 2b72 dcbb
00000390: b1a3 903c 5379 8dbd 7c44 4f3c f32c 60bd
000003a0: 9d34 443b 2304 d9bc f9e3 8e3c 55a5 95bc
000003b0: 468a 43bc b36c 91bd d925 fabc e852 943a
000003c0: d2a2 083c 2161 5f3b 8d89 833b afa5 b2bd
000003d0: 608b fa3b 831a 1b3b 1537 50bd 6f5e 603a
000003e0: 0bd4 0cbc a2ee 0b3d 2dc0 db3a e520 cb3b
000003f0: 4e4c c6bd da41 65bd a455 84bd f660 33bd

action_model._discrete_distribution.branches.0.bias f4 [4]
0.137524 -0.15696514 -0.09716456 0.12529373
00000000: 17d3 0c3e 78bb 20be 36fe c6bd 004d 003e

action_model._discrete_distribution.branches.1.weight f4 [3, 256]
-0.012260003 0.013557536 -0.020610468 -0.0022982946 -0.004299609 0.050257158 0.00910839 -0.00834336
0.033960998 0.010615626 -0.008955152 -0.0068881195 -0.013579633 0.0017037771 -0.011950235 0.061304126
0.0441827 0.031183233 -0.010839579 0.0017680811 0.025606785 0.05143309 0.016487353 0.0024117886
0.038558748 0.0573111 -0.14734444 0.058073085 -0.023876643 -0.05867714 -0.0020668732 0.018407175
0.023419663 0.005287064 0.007886925 0.0049512326 -0.04803777 0.03632971 -0.008400007 -0.055555087
0.04848358 0.006708387 -0.020877443 -0.01834324 -0.023712728 0.0057577966 -0.009178281 -0.026329597
0.004014856 -0.03165783 -0.008356744 -0.016472459 -0.053758334 -0.0005866854 -0.07256509 0.063765764
-0.0016765922 0.007154564 -0.04967132 -0.035677206 -0.009432914 0.034634065 0.026325807 0.037993766
0.021470904 -0.0394297 -0.029709281 0.09406172 0.00754083 -0.022771649 -0.004259338 -0.030777914
0.016022816 0.0037022866 -0.04544871 0.009190681 0.016375301 0.02475625 0.00699049 -0.008399694
0.0024182033 0.012072826 0.022414718 -0.014820779 0.004902161 0.05572166 0.06897389 -0.024832124
0.008884101 0.012913599 -0.017960448 0.009707587 -0.022200868 0.015839582 0.025901757 -0.02744534
0.016441442 -0.01706495 0.0057497653 0.031467885 0.048273675 0.019413214 0.016857645 -0.14869742
0.00549824 -0.0055355937 -0.14736703 0.015629131 0.041677356 0.030059457 0.067882456 -0.0029823077
0.056515433 0.030882502 -0.0057056835 0.063845456 -0.045516543 -0.03529121 -0.05729057 0.04302433
-0.01808731 0.016959779 0.032627728 -0.08019136 0.016467948 -0.041293927 -0.13488357 -0.010182927
0.02164491 -0.030523699 -0.0077956365 0.017457932 0.023278989 0.02471299 -0.08386447 0.008522293
0.0146482745 0.014856147 -0.027767083 0.04819264 -0.11001374 0.04106076 0.026574485 0.015480582
-0.011539132 0.017658774 -0.0013555156 0.025277618 0.012494537 0.09561654 0.03324946 0.0125731155
-0.005244089 0.034030408 -0.007983008 -0.02204584 -0.025775986 0.094048925 -0.019905709 -0.014400418
0.019279705 -0.007355878 0.012631871 0.077186935 -0.05599641 -0.03437102 -0.018336084 0.09587795
-0.064955086 -0.0074602654 -0.0050850175 0.017010838 0.0014537638 0.025830638 0.013983584 0.020955661
-0.008889012 0.010240812 -0.018365797 -0.013695313 0.06417354 -0.016840786 0.028227123 0.026916
0.021519305 -0.048094824 0.044779897 0.00754554 -0.055386964 0.04124765 0.013378767 0.011391763
0.022126198 0.0006624701 0.042201463 0.026648195 -0.007753959 -0.03274114 0.011805001 0.08990476
-0.029498952 0.050884824 0.02054419 0.015227584 0.06895948 0.007819462 -0.10581574 -0.007902594
0.03336408 0.115436554 0.01842713 0.047948163 0.0036409355 0.042771198 0.012678746 -0.01669793
0.023735043 0.048288133 -0.013149478 0.0051614195 -0.006803875 0.037544016 0.012606181 -0.0051014926
-0.12736559 0.027176194 0.06341573 0.00891514 -0.0009822099 0.083726496 0.00023098849 0.01918687
-0.007524206 0.019795215 0.10335414 -0.01600489 0.0008665759 -0.035630777 0.0017779812 -0.022052798
-0.015273412 0.052487552 0.02534665 -0.052158315 0.021532398 0.037234306 0.041315634 0.021677552
0.04028459 0.07750532 -0.023271414 0.03397157 -0.058974076 0.017699992 0.017848846 -0.027819926
00000000: 2ede 48bc 6d20 5e3c 49d7 a8bc fc9e 16bb
00000010: bce3 8cbb 73da 4d3d 5b3b 153c 97b2 08bc
00000020: b01a 0b3d 2aed 2d3c a1b8 12bc bcb5 e1bb
00000030: 1c7d 5ebc 4651 df3a ebca 43bc 091a 7b3d
00000040: ebf8 343d fb73 ff3c 7d98 31bc f5be e73a
00000050: 52c5 d13c 81ab 523d 7c10 873c 190f 1e3b
00000060: c7ef 1d3d 0bbf 6a3d 76e1 16be 0bde 6d3d
00000070: f398 c3bc 7157 70bd 6174 07bb a5ca 963c
00000080: 98da bf3c 1b3f ad3b 2938 013c f33d a23b
00000090: 41c3 44bd 76ce 143d 2fa0 09bc bb8d 63bd
000000a0: b896 463d 07d2 db3b 2c07 abbc 9044 96bc
000000b0: 3241 c2bc e6ab bc3b 8060 16bc 2bb1 d7bc
000000c0: 0e8f 833b a4ab 01bd baea 08bc 40f1 86bc
000000d0: b331 5cbd cacb 19ba 029d 94bd a097 823d
000000e0: 19c1 dbba d570 ea3b 2774 4bbd 4322 12bd
000000f0: 828c 1abc 73dc 0d3d 38a9 d73c 5a9f 1b3d
00000100: c0e3 af3c 0981 21bd e160 f3bc 6ea3 c03d
00000110: 1119 f73b 9c8b babc eb91 8bbb f721 fcbc
00000120: 4842 833c 10a2 723b 6d28 3abd 8394 163c
00000130: 7f25 863c 9fcd ca3c 7b10 e53b df9e 09bc
00000140: b87a 1e3b 1acd 453c 129f b73c dad2 72bc
00000150: 4fa2 a03b 653c 643d 2f42 8d3d bd6c cbbc
00000160: 9f8e 113c 8f93 533c ca21 93bc 920c 1f3c
00000170: 98de b5bc 03c2 813c ec2f d43c 0dd5 e0bc
00000180: 34b0 863c cbcb 8bbc 8768 bc3b 78e4 003d
00000190: 9eba 453d 7608 9f3c 0b19 8a3c 2344 18be
000001a0: 942a b43b ed63 b5bb 62e7 16be aa08 803c
000001b0: e0b5 2a3d 403f f63c f505 8b3d d272 43bb
000001c0: ba7c 673d 4dfd fc3c bef6 babb 68c1 823d
000001d0: 8e6f 3abd 848d 10bd 84a9 6abd 483a 303d
000001e0: d72b 94bc 3cef 8a3c a7a4 053d 5e3b a4bd
000001f0: cae7 863c d223 29bd eb1e 0abe 4bd6 26bc
00000200: ab50 b13c d60c fabc 8a72 ffbb f003 8f3c
00000210: 94b3 be3c e572 ca3c 23c1 abbd 16a1 0b3c
00000220: 51ff 6f3c 3267 733c cb77 e3bc a565 453d
00000230: e24e e1bd 542f 283d bcb2 d93c 44a2 7d3c
00000240: a10e 3dbc 22a9 903c 8eab b1ba 0213 cf3c
00000250: e3b5 4c3c 9bd2 c33d 9630 083d 78ff 4d3c
00000260: 9bd6 abbb 7863 0b3d 2acb 02bc 7a99 b4bc
00000270: 2928 d3bc b99c c03d 4c11 a3bc bbef 6bbc
00000280: 79f0 9d3c 9409 f1bb e8f5 4e3c 2f14 9e3d
00000290: 7e5c 65bd a0c8 0cbd 8e35 96bc a95b c43d
000002a0: 2c07 85bd 3e75 f4bb 38a0 a6bb 505a 8b3c
000002b0: 388c be3a c69a d33c 671b 653c 35ab ab3c
000002c0: 38a3 11bc 14c9 273c de73 96bc 4e62 60bc
000002d0: 6b6d 833d b0f5 89bc 913c e73c f17e dc3c
000002e0: 4149 b03c 14ff 44bd 206b 373d 9440 f73b
000002f0: 71dd 62bd 4cf3 283d 9e32 5b3c 84a4 3a3c
00000300: 0042 b53c 9ea9 2d3a 71db 2c3d 514d da3c
00000310: ec14 febb 931b 06bd c369 413c fd1f b83d
00000320: c9a7 f1bc 9b6c 503d 4a4c a83c 1e7d 793c
00000330: a13a 8d3d 331d 003c ecb5 d8bd e279 01bc
00000340: c6a8 083d 006a ec3d 7ef4 963c 4b65 443d
00000350: c39c 6e3b da30 2f3d 84ba 4f3c 19ca 88bc
00000360: fe6f c23c c7c9 453d e870 57bc 2021 a93b
00000370: 0af3 debb c1c7 193d 288a 4e3c 6c2a a7bb
00000380: 206c 02be 9ca0 de3c 1be0 813d cf10 123c
00000390: 7fbd 80ba cc78 ab3d 8035 7239 c82d 9d3c
000003a0: 9d8d f6bb 9329 a23c 56ab d33d b01c 83bc
000003b0: ed2a 633a 94f1 11bd 260b e93a 12a8 b4bc
000003c0: 553d 7abc 30fd 563d c7a3 cf3c f5a3 55bd
000003d0: b664 b03c 0083 183d 953a 293d 1f95 b13c
000003e0: 7401 253d 1cbb 9e3d b1a3 bebc c625 0b3d
000003f0: cd8e 71bd 93ff 903c be37 923c 9de6 e3bc

action_model._discrete_distribution.branches.1.bias f4 [3]
0.08336148 -0.035804663 -0.031205561
00000000: 6cb9 aa3d e9a7 12bd cea2 ffbc

onnx::Div_88 f4 [45]
0.08585155 0.14288095 0.31308758 0.0012449888 0.047618784 0.07586103 0.39829987 0.22482298
0.0024289747 0.0688139 0.07253692 0.25347874 0.24309972 0.016329082 0.068781205 0.0061439355
0.49682805 0.11177812 0.002949546 0.12849157 0.020020537 0.33198738 0.13855638 0.004805522
0.08111801 0.0021094955 0.49977976 0.050860453 0.003999956 0.120693475 0.02792683 0.3045346
0.06888696 0.0035845875 0.060035925 0.020336078 0.29102278 0.00022360681 0.0017029357 0.027563011
0.065441296 0.078084916 0.00022360681 0.00022360681 0.022222899
00000000: f0d2 af3d 624f 123e 044d a03e e42e a33a
00000010: ea0b 433d 075d 9b3d f6ed cb3e ff37 663e
00000020: 6f2f 1f3b 4dee 8c3d 3d8e 943d f7c7 813e
00000030: 22ef 783e 91c4 853c 29dd 8c3d 1153 c93b
00000040: 3f60 fe3e edeb e43d 2c4d 413b 4b93 033e
00000050: 1c02 a43c 40fa a93e b9e1 0d3e a477 9d3b
00000060: 3321 a63d 763f 0a3b 22e3 ff3e 0d53 503d
00000070: 1012 833b 242e f73d cfc6 e43c f6eb 9b3e
00000080: 9b14 8d3d 66eb 6a3b 3be8 753d d997 a63c
00000090: f000 953e ff77 6a39 0a35 df3a d3cb e13c
000000a0: 1606 863d fcea 9f3d ff77 6a39 ff77 6a39
000000b0: cc0c b63c

onnx::Div_91 f4 [105]
0.00022360681 0.086778454 0.00022360681 0.0013784032 0.012628758 0.00022360681 0.08585121 0.00022360681
0.0018708244 0.011768759 0.00022360681 0.08696069 0.00022360681 0.00097467884 0.012693768 0.00022360681
0.07506721 0.00022360681 0.0043415995 0.016043153 0.00022360681 0.06450262 0.00022360681 0.000921954
0.011457641 0.00022360681 0.0194383 0.00022360681 0.0064107603 0.017815957 0.00022360681 0.024422482
0.00022360681 0.00049999997 0.011376149 0.00022360681 0.08679217 0.00022360681 0.0014662858 0.012135849
0.00022360681 0.08586365 0.00022360681 0.0019364868 0.011237162 0.00022360681 0.08698265 0.00022360681
0.0010488081 0.012204864 0.00022360681 0.07507747 0.00022360681 0.0043702945 0.01569194 0.00022360681
0.06453437 0.00022360681 0.00097467884 0.01090447 0.00022360681 0.019442152 0.00022360681 0.0064263386
0.017516915 0.00022360681 0.024486741 0.00022360681 0.0005477225 0.010816601 0.00022360681 0.08680648
0.00022360681 0.0015491911 0.011621 0.00022360681 0.08587665 0.00022360681 0.0019999947 0.010674846
0.00022360681 0.087004915 0.00022360681 0.0011401745 0.01169551 0.00022360681 0.07508772 0.00022360681
0.0043988023 0.015328831 0.00022360681 0.064565696 0.00022360681 0.0010488081 0.010321998 0.00022360681
0.019446006 0.00022360681 0.0064457585 0.017210705 0.00022360681 0.02455184 0.00022360681 0.0005916079
0.010225205
00000000: ff77 6a39 e7b8 b13d ff77 6a39 89ab b43a
00000010: dae8 4e3c ff77 6a39 c2d2 af3d ff77 6a39
00000020: 7336 f53a c1d1 403c ff77 6a39 7218 b23d
00000030: ff77 6a39 9781 7f3a 86f9 4f3c ff77 6a39
00000040: d6bc 993d ff77 6a39 fa43 8e3b ee6c 833c
00000050: ff77 6a39 f319 843d ff77 6a39 49af 713a
00000060: d4b8 3b3c ff77 6a39 123d 9f3c ff77 6a39
00000070: 5b11 d23b c5f2 913c ff77 6a39 a811 c83c
00000080: ff77 6a39 6e12 033a 0763 3a3c ff77 6a39
00000090: 18c0 b13d ff77 6a39 6330 c03a 71d5 463c
000000a0: ff77 6a39 48d9 af3d ff77 6a39 b7d1 fd3a
000000b0: 131c 383c ff77 6a39 f623 b23d ff77 6a39
000000c0: 2978 893a e9f6 473c ff77 6a39 37c2 993d
000000d0: ff77 6a39 b034 8f3b 628c 803c ff77 6a39
000000e0: 992a 843d ff77 6a39 9781 7f3a aaa8 323c
000000f0: ff77 6a39 2645 9f3c ff77 6a39 0994 d23b
00000100: a27f 8f3c ff77 6a39 6b98 c83c ff77 6a39
00000110: 0995 0f3a 1d38 313c ff77 6a39 99c7 b13d
00000120: ff77 6a39 3a0e cb3a 0266 3e3c ff77 6a39
00000130: 19e0 af3d ff77 6a39 5812 033b 8de5 2e3c
00000140: ff77 6a39 a22f b23d ff77 6a39 e871 953a
00000150: 869e 3f3c ff77 6a39 97c7 993d ff77 6a39
00000160: d423 903b c725 7b3c ff77 6a39 053b 843d
00000170: ff77 6a39 2978 893a 991d 293c ff77 6a39
00000180: 3b4d 9f3c ff77 6a39 f136 d33b 77fd 8c3c
00000190: ff77 6a39 f120 c93c ff77 6a39 2216 1b3a
000001a0: 9e87 273c

onnx::Div_94 f4 [12]
0.00031622272 0.6597322 0.44383347 0.76009953 0.00025050784 0.00022360681 0.45277104 0.45277104
0.34213802 0.40617782 0.34206083 0.20977862
00000000: b2ca a539 36e4 283f 243e e33e e295 423f
00000010: 9856 8339 ff77 6a39 9bd1 e73e 9bd1 e73e
00000020: b72c af3e 8af6 cf3e 9922 af3e 35d0 563e
