Usable_Data/Versuch_2-1/PKWParking/PKWParking-3499920.onnx (onnx, 463796 bytes, 17 tensors)

discrete_act_size_vector f4 [1, 2]
00000000: 0000 8040 0000 4040
4.0 3.0

network_body.observation_encoder.processors.0.normalizer.running_mean f4 [45]
00000000: 67bb 4839 9bc6 8f3c 15e9 4f3d dc9d 353e
00000010: 9de2 213f 26b4 b83a 65f5 6a3e 8c19 5e3d
00000020: 46da 273e 9c42 163f 9996 563a 7cb8 b93d
00000030: 1510 283d 837c 2b3e 0ebe 1f3f 5e23 313b
00000040: 11f8 c93e 1f93 973d a05e b33d bd41 f63e
00000050: 519c 583a 3e51 ce3d 1c81 373d fb18 da3d
00000060: 283b 163f f6af f33a d72f de3e 04d0 ce3d
00000070: 1621 db3b f925 de3e 96e0 a639 9a60 343d
00000080: ad71 a93d 68e4 3e3c 1ea2 073f 0000 0000
00000090: 885e 803d f24c 903d 14eb d236 6709 0b3f
000000a0: 9513 f237 2e16 533b 61ea 943d 0000 0000
000000b0: 62bd 0a3f
0.00019143299 0.017550757 0.050759394 0.17736 0.6323641 0.0014091774 0.22945173 0.054223582
0.16391858 0.5869539 0.0008185893 0.09068391 0.041030962 0.16746716 0.62399375 0.0027029137
0.39447072 0.07401108 0.08758283 0.4809703 0.0008263039 0.100740895 0.044800863 0.10649296
0.58684015 0.0018591869 0.43395874 0.100982696 0.0066872938 0.43388346 0.00031829317 0.04403744
0.08273635 0.011651136 0.52981746 0.0 0.062680304 0.07045926 6.2858544e-06 0.5431122
2.8857767e-05 0.0032209265 0.07271267 0.0 0.54195225

network_body.observation_encoder.processors.1.normalizer.running_mean f4 [21]
00000000: 8f59 fc3c 4173 553e 1ba4 493f 8011 e83c
00000010: ba70 4e3e c21e 443f 2b8d e23c 24a6 443e
00000020: b333 453f fc0c 2c3d eae1 463e 5d5a 353f
00000030: a523 c43c 095d 3d3e 1785 403f 28da df3c
00000040: 7a74 1c3e f29f 293f 6114 243d e73e 1f3e
00000050: b5ea 373f
0.030804424 0.20844747 0.7876603 0.028328657 0.2016019 0.7660943 0.027655205 0.19204003
0.7703201 0.04200457 0.19422117 0.7084101 0.023942778 0.18492521 0.7520308 0.027325705
0.15278807 0.6625968 0.040058497 0.15551339 0.7184251

network_body.observation_encoder.processors.2.normalizer.running_mean f4 [105]
00000000: 0000 0000 70db b53a 0000 0000 07a4 3e3e
00000010: 08ae 9f3e 0000 0000 9c07 623b 0000 0000
00000020: 444b 413e ac64 9f3e 0000 0000 8b29 ce3a
00000030: 0000 0000 b3b9 373e c74e 9c3e 0000 0000
00000040: 6339 b73b 0000 0000 9854 163e 6e50 893e
00000050: 0000 0000 83f0 de3a 0000 0000 3874 1a3e
00000060: 0f69 8f3e 0000 0000 a7fe d33b 0000 0000
00000070: 0d07 673d 8bfd 3e3e 0000 0000 6699 d73a
00000080: 0000 0000 20ee 843d cf50 523e 0000 0000
00000090: f444 b63a 0000 0000 d6c0 3e3e 9cbf 9f3e
000000a0: 0000 0000 ae32 623b 0000 0000 2868 413e
000000b0: 4776 9f3e 0000 0000 8189 ce3a 0000 0000
000000c0: 78d5 373e b65f 9c3e 0000 0000 7e4c b73b
000000d0: 0000 0000 556c 163e c65f 893e 0000 0000
000000e0: 152a df3a 0000 0000 228c 1a3e b578 8f3e
000000f0: 0000 0000 180d d43b 0000 0000 a030 673d
00000100: 8e10 3f3e 0000 0000 f1d2 d73a 0000 0000
00000110: c505 853d 4065 523e 0000 0000 5aae b63a
00000120: 0000 0000 7fdd 3e3e 0ed1 9f3e 0000 0000
00000130: a462 623b 0000 0000 2185 413e d787 9f3e
00000140: 0000 0000 56e9 ce3a 0000 0000 0df1 373e
00000150: c470 9c3e 0000 0000 b85f b73b 0000 0000
00000160: 0984 163e 136f 893e 0000 0000 8f63 df3a
00000170: 0000 0000 8aa4 1a3e 1f88 8f3e 0000 0000
00000180: 5e1b d43b 0000 0000 125a 673d 2323 3f3e
00000190: 0000 0000 540c d83a 0000 0000 841d 853d
000001a0: c479 523e
0.0 0.0013874602 0.0 0.18617259 0.31187463 0.0 0.0034489399 0.0
0.18876368 0.31131494 0.0 0.0015728934 0.0 0.17941932 0.30528852 0.0
0.005591558 0.0 0.14680707 0.26819175 0.0 0.0017008934 0.0 0.15083396
0.2800984 0.0 0.006469566 0.0 0.05640321 0.18651406 0.0 0.0016448915
0.0 0.06490731 0.20538639 0.0 0.0013906048 0.0 0.18628249 0.31200874
0.0 0.003451507 0.0 0.18887389 0.31144926 0.0 0.0015757532 0.0
0.17952526 0.30541772 0.0 0.0055938354 0.0 0.14689763 0.26830882 0.0
0.0017026091 0.0 0.15092519 0.2802178 0.0 0.0064712875 0.0 0.056442857
0.18658659 0.0 0.0016466064 0.0 0.06495241 0.20546436 0.0 0.0013937459
0.0 0.18639182 0.31214184 0.0 0.0034543658 0.0 0.18898441 0.31158325
0.0 0.0015786092 0.0 0.17963047 0.30554783 0.0 0.0055961274 0.0
0.14698805 0.26842555 0.0 0.001704322 0.0 0.15101829 0.2803354 0.0
0.006472989 0.0 0.056482382 0.18665747 0.0 0.0016483166 0.0 0.0649977
0.20554262

network_body.observation_encoder.processors.3.normalizer.running_mean f4 [5]
00000000: 0bff 7f3f b55a 523d 34d4 263d 4f4a 013f
00000010: 0000 0000
0.9999854 0.051356036 0.040729716 0.5050401 0.0

network_body._body_endoder.seq_layers.0.weight f4 [256, 176]
00000000: 64da 5b3e 197b 07bd 4ff6 e7bc 1f12 52bd
00000010: 8b4d f5bc 7b9b 1e3e 3636 3f3e bfbe 2cbd
00000020: 4fca db3b c8cf aabd 48fe 803c 2f57 1b3c
00000030: b102 7fbd 64c0 423d bac4 d43d 7b77 bc3d
00000040: 0dbb 77bd e8da ce3c 9b73 b4bd 12f4 12be
00000050: bf2d e43c 09be 043c 57c5 68bd 08bd 123d
00000060: c7fb d43d 6de6 2fbe 2f39 b0bd 4211 483e
00000070: e25a 2dbe 2d68 8cbd dd64 96bd e9c7 02be
00000080: 1f4e 99bd 335a be3c c5db aa3c ff61 c3bd
00000090: d993 68bd c7ba 3d3d e916 923d 32f9 79bd
000000a0: 5b24 f3bd 09ae a73d 6d74 11be 72af dc3c
000000b0: b1f9 ffbd af7f dfbd d2f0 6e3d bbdc af3c
000000c0: c32c 42bc 60d4 c8bd ce14 10bd 2648 49bd
000000d0: 4a90 4b3d 77dd 8dbc 05a9 4d3d 995e 2abe
000000e0: 2265 8dbc 6128 c9bc 2c34 efbc 0325 88bd
000000f0: b47d 0b3d aa4b 053d 52d4 1a3d 1ad4 8dbd
00000100: e9d8 b7bb 7afb 0d3d f204 533d cd23 023d
00000110: c15a febd 132b 223e 96dd ca3d 11f6 1e3d
00000120: 7544 dd3d 4ad5 c4bd ac00 86bc db0c 87bd
00000130: fe72 f0bc f3b3 863d 54fc 23bd 6f1e 84bd
00000140: 2cb6 46bd 2c35 e13b a364 3f3d 62c4 02be
00000150: 4acc a1bc 1e4b ee3c 3f57 b1bc 6402 08bd
00000160: f876 a4bd 6845 b13d d929 27bc 82e8 e33d
00000170: 6e10 5abd 7338 ca3b 0c6c 653d 4574 3ebd
00000180: f734 e63c 83ec 073d 6633 aabb 1458 b23c
00000190: e6ee 5e3d 770f d73d 20cf acbb 49b3 d83c
000001a0: 40dd 8e3b 9708 24bc 3e46 8ebd 8e3d db3d
000001b0: 7fe9 c3bd bcde 03bd 187a a63d 7757 ac3c
000001c0: 23b6 78bd 295a e4bc f751 9ebd b10f 893d
000001d0: 2cdc 5f3d d27a 24bd c189 083e b566 b2bd
000001e0: 8a22 27be e5f1 a63d 86cb d8bd e27f c4bd
000001f0: 81d8 e4bc c988 553d 451c db3d d412 a7bb
00000200: b91c 8bbc 1dee d43a 6010 9a3c 5de7 223e
00000210: b51c 143d cd5b 7fbd d5ec 283d 58e6 a63b
00000220: e4a7 123e 829c 5d3d 07fd 0b3d 6498 233e
00000230: 34b2 a33c fd00 913c a3bd e1bd d3d9 443e
00000240: 1a18 733d b9b4 cc3d 63f4 2b3e 5412 e73c
00000250: 6549 853d e4ff ccbd ff80 a1bc de3b 2b3d
00000260: e445 80bd a7e0 0bbd 0f50 2fbe fdce 3cbe
00000270: 0659 c4bd 6b80 1e3d 47a7 463c 539f 96b8
00000280: 5a98 b3bc ec26 183c e873 27bd e63a 18be
00000290: f326 1b3d 868b f3bd 2bb9 b83d 7234 923c
000002a0: e9be 88bd 5e0b 013d 2f92 d7bc e321 f5bd
000002b0: bbde 413e 92d4 0d3d 6a4f dbbd b4f8 593d
000002c0: dc77 d0bd 486b 103e 5ccf fcbd f5db b2bb
000002d0: b76e 74bd bdf6 bb3d c7a0 9c3d 285b 683d
000002e0: dace 5dbc 5fd2 333e 68eb f33d 3310 51bd
000002f0: 0b0a d5bc b175 a53c da5d 213d 1277 8f3d
00000300: f793 7b3c 1dca 0e3d bc16 043d ec9a 603d
00000310: 689f 16bd 1b5e 413d 243b b0bd 518d cfbd
00000320: 6832 d4ba 45d0 3cbe 3ac4 9c3c 6a99 893d
00000330: 02e7 c3bc 0caa 523d f858 40bd 701a a43d
00000340: 385f 553d aa19 393d 492e a33d 3ea9 52bd
00000350: df28 83bd e32d 87bd 5d05 b03c e1c0 e1bd
00000360: fd9d d13d 10c3 0f3d 70c1 27be 4c6f cfbd
00000370: 3986 fb3d cdef abbd 3dfa b43d d965 503d
00000380: b546 8a3c 8344 28bd fe1d ba3d 9d83 8fbd
00000390: d1ae 2abd b740 343d c9d4 2cbe 7a7d 51bd
000003a0: 1391 8a3d 1dca 613c bbcb 653c b1b9 cf3d
000003b0: 8426 de3d 3b1c 003e 55f9 72bd 8504 663d
000003c0: f71e b7bd 8100 93bd 305e adbb 232b 6c3d
000003d0: ff6b e73d d979 7bbc f28d f53b 4daf d6bb
000003e0: 8c29 f53d e595 95bd d4a5 75bc 4fa3 e1bd
000003f0: 670d e5bd ccc2 bdbb 1cbd c2bd 69d2 0b3e
0.21470028 -0.03307638 -0.028315691 -0.051286813 -0.029944202 0.15488999 0.18673024 -0.042174097
0.0067074667 -0.083404124 0.01574625 0.009481235 -0.062258426 0.04754676 0.10389085 0.092024766
-0.06048112 0.025250867 -0.088111125 -0.14350918 0.027853845 0.008101949 -0.056828823 0.035824805
0.10399585 -0.17177744 -0.08604657 0.19537833 -0.169292 -0.068558075 -0.07343457 -0.12771572
-0.074856035 0.02323637 0.020856747 -0.09540176 -0.056781624 0.046320703 0.07133276 -0.061028667
-0.11872169 0.081874914 -0.14204569 0.026939128 -0.12498797 -0.109130256 0.058335133 0.021467557
-0.011851492 -0.09806132 -0.03517609 -0.04914107 0.04969815 -0.017317517 0.050210018 -0.16637649
-0.017260138 -0.024555387 -0.029199682 -0.066476844 0.034055427 0.032542862 0.03780014 -0.06925221
-0.0056105745 0.034663655 0.051518388 0.031772424 -0.12419654 0.15836744 0.099055454 0.038808886
0.10804073 -0.09610994 -0.016357742 -0.06594249 -0.029351708 0.06577291 -0.04003556 -0.06451117
-0.048513576 0.0068727937 0.046726834 -0.12770227 -0.019750733 0.029088553 -0.021648047 -0.033205405
-0.08030504 0.08655816 -0.010202848 0.11128332 -0.053238325 0.00617128 0.056011245 -0.046497602
0.028101427 0.03318454 -0.0051941155 0.021770515 0.05442705 0.105009966 -0.0052737147 0.026452677
0.004359871 -0.010011814 -0.069469914 0.107051 -0.0956602 -0.032194838 0.08128756 0.0210378
-0.060720574 -0.027875023 -0.07730477 0.06692446 0.05465333 -0.040156193 0.13333799 -0.08710996
-0.1632177 0.081516065 -0.10585694 -0.09594704 -0.027935268 0.0521324 0.10698751 -0.00509868
-0.01698147 0.001624528 0.018806636 0.1590857 0.03616019 -0.062343407 0.041241486 0.005093377
0.14321858 0.054104336 0.034176853 0.15976101 0.019982435 0.017700667 -0.110224985 0.19223718
0.059349157 0.099954076 0.16792445 0.028206982 0.065081395 -0.10009745 -0.01971483 0.04180514
-0.062633306 -0.034149792 -0.17120384 -0.18438335 -0.095872924 0.038696688 0.012124843 -7.182234e-05
-0.021923233 0.009286623 -0.04088202 -0.14866218 0.03787894 -0.11891846 0.09019693 0.017847273
-0.06677038 0.03150498 -0.026314823 -0.11969354 0.18932621 0.03462655 -0.107085064 0.053215697
-0.10179111 0.14103425 -0.12344238 -0.00545835 -0.0596759 0.09177921 0.07647853 0.05672756
-0.013538087 0.17560719 0.119101346 -0.05104084 -0.026005765 0.020197721 0.039396144 0.07005133
0.015355102 0.03486072 0.032248244 0.054835245 -0.036773115 0.047208887 -0.0860503 -0.10134376
-0.0016189339 -0.18438824 0.019136537 0.067187145 -0.023913864 0.0514317 -0.046959847 0.08012855
0.05209276 0.04519049 0.079678126 -0.051430933 -0.0640428 -0.06600549 0.021486932 -0.11023117
0.10235212 0.035098135 -0.16382384 -0.1012865 0.1228146 -0.08395348 0.08836792 0.05087838
0.016879419 -0.041080963 0.09087752 -0.07007525 -0.041670624 0.04400703 -0.16878046 -0.051145054
0.06765952 0.013781098 0.014025624 0.1014284 0.1084719 0.12510769 -0.059319813 0.056156654
-0.08941453 -0.071778305 -0.005290769 0.057658326 0.112998955 -0.015348875 0.007493728 -0.006551659
0.11970815 -0.07303981 -0.01499315 -0.11017477 -0.11184197 -0.005791044 -0.09508726 0.13654484

network_body._body_endoder.seq_layers.0.bias f4 [256]
00000000: 41df 8fbc d33b 893c 9e99 e83b e0ef a83c
00000010: 72d4 fdbb 0c8c d8bd 7ae4 b0bc 88f5 dabc
00000020: 1708 20bd b9f7 c1bc 8f5d bdbb 7dd9 33bd
00000030: f865 14bc cc6b 2bbd c687 1b3d c8ae b5bc
00000040: 8d03 91bc 7f9c c7bc bfaf 8abd 6ae6 0dbd
00000050: 9669 f7bc b42a 97bd 5b6f b93c ae29 3e3d
00000060: 6745 4e3c 39ca ffbc b618 1c3d c0d6 d9bc
00000070: 1694 c23b 555d 40bd 559e 84bb e1c0 34bc
00000080: 3519 b53b 87b8 96bd b30f 55bd 7606 c2bc
00000090: 100d 603d b4f9 d33c 06b6 f93b 09ab 75bc
000000a0: 2260 0f3b b6d4 0abd efd6 683d 27fa 87bd
000000b0: 98b2 133b 7772 efbc ed55 38bd d469 6bbc
000000c0: 63c8 b7bc b2ab 053d 4b72 33bc d6e7 ecbc
000000d0: 973f 1bbd 018d 09bd 7e74 a23c af48 90bd
000000e0: 31e6 bb3b a908 dfbc ab8d 0b3c 871e 263d
000000f0: 1623 813c 413c 1a3c ed75 febb cc9f 9bbc
00000100: 330c 1c3d c740 37bb 3e86 dcbc c2ee 7c3c
00000110: 34c1 33bd 3254 673d 3868 91bd aaf3 36bd
00000120: 2783 8bbd 495c d6bc 0dac 3fbc 8967 233c
00000130: 351a 0abd 2424 a43c 8931 f03b f95f 853a
00000140: 4505 37bd d6ae d3bc 36c2 b7bc 1c7f 0dbd
00000150: c0de 65bd b92d 613b fcb2 833d 19a1 ebbc
00000160: 9bd7 4abc 239e 08bc 543c 13bd 4b93 13bd
00000170: edab dc3c 1e96 fdbc f50d 0dbc c8d1 283b
00000180: 3e9d adbd e61f 28bb 12d6 76bc f155 d13c
00000190: ce08 3fbd 41f0 b0bc b4b3 153d a488 bb3a
000001a0: e41c 20bd a189 83bd d06d 89bc 2921 203c
000001b0: 84ee 42bd 0d1e b7bc 0e09 253c 34fb 143c
000001c0: 51cc 6c3d 059f 04bd 65cb 08bd 5834 1ebc
000001d0: ba48 fbbc ab98 d93c 332f d0bc 889d 6b3d
000001e0: df14 f7bb c589 83bd 5eb0 c13c d006 aabd
000001f0: a5c0 37bb a0ed 243d 0f88 ebbb 95f1 3b3d
00000200: 5ef5 e2b9 242b 323b 0be0 ddbc 716b ebbc
00000210: 70ad 12bd 68bf f93c 4a21 23bd aa2c 773c
00000220: 46c0 e73c 3047 c73c 4091 39bd 39b3 64bd
00000230: 5b51 d73c c90c 06bd b42a e5bc 8de8 96bd
00000240: d121 a0bb b672 8ebd 3451 d23c afa6 7d3c
00000250: 6ef6 8bbc 8a48 36bc 8c94 41bd fe0f 2bbd
00000260: c017 64bd db2c 553d 5915 5dbd 6a77 10bd
00000270: 606d 03bd b6ae 363d ce33 77bd ac8b 9c3b
00000280: 1f38 083c d14b 8abc 25c4 c8bc f318 8d3d
00000290: ecca 50bc 5dd0 c2bc c2e0 17bd d96e 13bb
000002a0: 3533 75bd 780b 7dbd 60b9 7b3b 5cda e8bc
000002b0: 57af b73c 8fa8 08bd 5f81 5dbc 9824 20bd
000002c0: 3c91 f3bc 8088 34bd 1299 ab3c 40d7 fdbc
000002d0: 2992 3cbc d56f 4fbc f79f 5c3c 8181 90bc
000002e0: c96e a1bc 7c50 2cbd 0207 77bc a7c8 14bd
000002f0: 7c7a f2bc e698 093d 8ef6 093b 81c9 37bc
00000300: 8399 73bd fffe 0ebb b169 41bd 87e3 21bd
00000310: dfc6 4c3c bbb8 9abd c5bc ffbc e1b0 0abd
00000320: a446 8a39 63e8 023d 616a 5b3d 9174 7bbd
00000330: 305b 27bd b82f 033d 1ad8 5dbd 6208 d1bc
00000340: 01c3 853c e49b 3dbd abc7 a13c 9f2b 15bd
00000350: f1a3 18bc b927 ed3c feac 40bc 5fd7 f6bc
00000360: d9ec 96bc 176b 25bd 968a 0b3d fc8a 603c
00000370: 65cc 19bc 99d9 51bc f42f b33b 7b5e eabc
00000380: 7e80 cbbb 618e 2a3c 184a 073d 084d 11bc
00000390: 0209 54bc 347d 6bbc 0979 9bbb 3d38 5ebb
000003a0: 492a 02bc 282b 23bd adad c13c b81d bd3c
000003b0: e1eb f63c b12a 9d3d e550 09bd b1b2 c0bc
000003c0: bd90 943b 24eb 0fbd a6f3 323c 97b4 2dbd
000003d0: 9bbf 573d 600e d8bc 4b93 96bc b5b1 9e3b
000003e0: 7a57 a3bc b08c c6bc 8795 59bc 0603 3f3c
000003f0: e5a2 2b3d 27b3 8bbc 93be 52bd d062 f5bc
-0.01756251 0.01675216 0.0070983907 0.020622194 -0.0077462727 -0.10573587 -0.021593321 -0.026728407
-0.039070215 -0.023677694 -0.0057789753 -0.043908585 -0.009057514 -0.04185085 0.03797128 -0.022178069
-0.017701888 -0.024366615 -0.06771802 -0.034643568 -0.030201714 -0.07381192 0.022636106 0.046426468
0.012589789 -0.031224357 0.038109504 -0.026591659 0.0059380634 -0.04696401 -0.004047195 -0.011032314
0.0055266866 -0.073594145 -0.052016925 -0.023684721 0.054699957 0.025875904 0.007620576 -0.014994391
0.0021877368 -0.033894263 0.0568456 -0.0663951 0.002253687 -0.029229386 -0.04500382 -0.014368493
-0.022434419 0.032634445 -0.010952543 -0.028919142 -0.03790244 -0.033581737 0.019830938 -0.07045113
0.005734228 -0.02722581 0.008517663 0.040556457 0.0157638 0.00941378 -0.0077655227 -0.018997096
0.03809757 -0.0027962194 -0.02691948 0.015437784 -0.043885425 0.05647678 -0.07099956 -0.04466597
-0.06812125 -0.026167052 -0.011698735 0.009973415 -0.0337164 0.020036764 0.007330124 0.0010175697
-0.04468276 -0.025840204 -0.022431474 -0.03454505 -0.056120634 0.0034359528 0.06430623 -0.02876334
-0.012380506 -0.008338484 -0.035946205 -0.03602914 0.02693745 -0.03095537 -0.008609285 0.0025759805
-0.08477257 -0.0025653779 -0.015065687 0.025553675 -0.046639256 -0.021598937 0.03654833 0.001430769
-0.039090052 -0.06422735 -0.016775995 0.009773531 -0.047590747 -0.022353197 0.01007296 0.009093095
0.05781204 -0.032378215 -0.033397097 -0.009656034 -0.030674327 0.026562056 -0.025413131 0.05752328
-0.00754033 -0.06422762 0.023643669 -0.08302081 -0.002803841 0.04026568 -0.0071878503 0.045884687
-0.00043288892 0.0027186358 -0.027084371 -0.028737755 -0.035809934 0.030486777 -0.03982667 0.015086332
0.028289925 0.024325937 -0.045304537 -0.055834983 0.02628391 -0.032727037 -0.027974464 -0.07368574
-0.0048868437 -0.06955473 0.025673486 0.015481635 -0.01708528 -0.011125693 -0.047260806 -0.0417633
-0.055686712 0.05204473 -0.053975437 -0.035270132 -0.03208673 0.04460021 -0.06035214 0.0047773924
0.008314162 -0.016881855 -0.024507592 0.06889524 -0.012743693 -0.023780996 -0.03707958 -0.002249649
-0.059863288 -0.061778516 0.0038410053 -0.028424434 0.022422476 -0.033363875 -0.013519614 -0.0390974
-0.02973234 -0.04407549 0.020947013 -0.030986428 -0.011509457 -0.01266094 0.013465873 -0.017639877
-0.019706147 -0.042068943 -0.015077354 -0.03632417 -0.02959942 0.03359308 0.00210515 -0.011217476
-0.059472572 -0.002181947 -0.047219936 -0.039523628 0.012498586 -0.07554766 -0.031217942 -0.03386009
0.00026374042 0.031959902 0.053568248 -0.061390463 -0.040858448 0.03202793 -0.05416117 -0.025516693
0.016328337 -0.046291247 0.01974853 -0.036418553 -0.00931643 0.028949605 -0.011759995 -0.030131994
-0.018423485 -0.040385332 0.034067713 0.013705011 -0.00938711 -0.012808227 0.005468363 -0.028609505
-0.006210386 0.010409922 0.033029646 -0.008868463 -0.012941601 -0.0143731125 -0.004744653 -0.0033908032
-0.007944652 -0.03983608 0.023642385 0.02308546 0.030141773 0.07674158 -0.033524413 -0.023522707
0.0045338557 -0.035136357 0.010922348 -0.042408552 0.052672964 -0.026374042 -0.018380782 0.0048429617
-0.019939173 -0.024237007 -0.013280279 0.011658436 0.041903395 -0.0170532 -0.051451277 -0.029954344

network_body._body_endoder.seq_layers.2.weight f4 [256, 256]
00000000: 78cd f23d b3af 03be 9b55 8abd 555f b5bd
00000010: 4d5d 383d 1a39 0f3c 68e3 3a3d a4e1 0dbe
00000020: d2c5 8ebc 5a42 673d 831a 5d3d 61b6 d0bc
00000030: e7b4 d1bc bc5f b7bd eb1d 5b3c 4db8 583d
00000040: 7b8c 833d 24b3 0fbd 6e93 69bd 4e8f 08be
00000050: e1cf 103d c779 893c af2c b63d 240d 6b3d
00000060: 95b3 783c a8a0 d8bd 211e e5bc e788 e4bb
00000070: f5e3 11bc c82f 4fbd 60b0 3a3e 0a43 993d
00000080: 05e5 6ebd 8fe3 c43c fef9 9d3d d5c0 7e3d
00000090: 5757 c8bd e715 bd3a 31ea 97bc 281f edbc
000000a0: f4ec e13c 3dbf 173d 300e 22be 7efc 5d3d
000000b0: b116 60bd 363e 933d 956f 0f3d d3dc bb3d
000000c0: f212 193c 308a 753d 7e22 2fbe 1c19 71bd
000000d0: f0e3 10bd dde9 bbbd 36dd b5bd 5dbf 773c
000000e0: 4fe7 d0bc 6072 4b3d bd73 163e c6e0 8abd
000000f0: e97f 743d cada b2bb 489c c0bd 525b bcbc
00000100: b151 55bd 3c8d 5cbc 9f72 c2bc 584a 2cbd
00000110: 29af 353d 12cb 003c 2248 0d3e 356a 8339
00000120: 0243 6fbd 464b ae3d a1a4 fabd 9e55 a3bd
00000130: b6df 85bd f27e 943d abd4 16bd 862d de3c
00000140: 9f9c b43c 7e38 60bb 97b3 2bbc 1780 4d3c
00000150: b550 2dbd 209b bb3c 46e1 52bd aa4c ca3d
00000160: d186 80bd 8497 edbc b58a e1bc 2ee5 c13d
00000170: d2c1 7ebc 68d4 173d 50b2 10be 3496 67bd
00000180: aba7 e23b 2ddd c4bd 2607 463b 8f5d d33c
00000190: 0d16 9f3d c3a5 04bd 9f1a 76bb 4f63 483a
000001a0: 82a6 babd 1c9d 443c 5ff8 c4bb 118b cf3d
000001b0: 9774 0c3b 64b3 10bd 33f7 0c3d fe87 e9bb
000001c0: 7fd3 82bd b924 4bbd 2aed d33b 8e67 3d3d
000001d0: 000a 1abd 36a8 173d 1da9 76bc ae90 b33d
000001e0: 7df7 a83c 5f1f 3bba 6e76 12be 168f ba3d
000001f0: e039 b3bc 1f6e 423d 5e39 b03d fa61 3a3d
00000200: 5707 223d b082 5bbd 339a 50bd ab34 d2bd
00000210: b334 60be c3d0 a6bd 26f4 7e3c bd2d f83c
00000220: c5fd 053e 7a4f 8b3d 3b89 1dbd 65fd 333c
00000230: ea34 c7bc 9202 0bbd 2ed8 2d3d db59 7ebd
00000240: f226 f23b 9569 103c 382b 2c3c f760 28bd
00000250: 072e 323d 0876 a9bd 15be 69bc 64bb 44bc
00000260: 288a 34bd dc45 37be e549 b7bd 2482 9b3c
00000270: 5d7c 77ba 25c4 313d 38c9 8b3d 515a 663d
00000280: ede3 803d 314b d4bd 6d6a 04bd 087a 2bbe
00000290: 9e88 cabd 5aea 6abb ede0 e7bc fc44 e23d
000002a0: 3857 acbd 1710 e33d ad71 2cba 6016 5f3d
000002b0: 5bf7 e1bc 281c 99bd d3d4 c2bd da14 d03d
000002c0: dd9a a53c b5b7 15bc a707 413d ec96 893d
000002d0: 11ef 99bd 62e9 553c 85ec 2abd aff8 8fbd
000002e0: 0e83 053d ab83 e1bd 7876 503d f1fc 41bd
000002f0: c560 bf3d 24a5 063d d343 5f3d d781 3f3c
00000300: df65 aabc 20a3 d63c 1b9e 153d 011f 1c3d
00000310: d96a 14b9 1825 82bd c1f6 1f3c 6ef7 84bd
00000320: 48df 8f3d c3e4 a13d 80cc 88bd b7de cabd
00000330: b62d 72be f00f 5b3b eea4 94bd 2a4e b3bd
00000340: 1f48 9cbc 27f7 8fbd f375 d1bc e8e4 e63c
00000350: 18c2 a43c 0285 31bd 567b e4bc c2ea 68bd
00000360: 4666 9cba 09e1 d2bb 50a2 36be b37d 313d
00000370: deea b1bd 8636 08bb cb9b 663c 306c 7cbc
00000380: ef8f bebc 5aee d2bd ea34 0c3d ddff a43c
00000390: 0d6e 5cbd 2905 c6bc 537e 40bd b8ba b13c
000003a0: f79d d33c ac10 883d a2a0 813d 7249 783d
000003b0: 13ce 89bd 029f babd a8ec bab9 b956 90bc
000003c0: 4039 e9bd 874f 153d 1b01 913d 6980 fdbd
000003d0: 613b 9bbd 47cb 49bb 68d7 fdbc 18c2 523d
000003e0: 7c86 febc 8dcb ebbd 4244 3b3b 585d c1bd
000003f0: c402 ca3c 67af 80bb 62f7 37bd 107b 483d
0.11855596 -0.12859993 -0.06754609 -0.08856074 0.045010854 0.008741641 0.045627028 -0.13855606
-0.017428312 0.056459762 0.05398036 -0.02547759 -0.025598956 -0.08953807 0.013373832 0.052910138
0.06423279 -0.03508295 -0.057025366 -0.13335916 0.0353545 0.0167817 0.088952415 0.05738558
0.015179534 -0.10577518 -0.027968468 -0.006974328 -0.008904447 -0.050582677 0.18231344 0.0748349
-0.05832388 0.02403429 0.07713698 0.062195618 -0.09782284 0.0014426083 -0.018544288 -0.02894552
0.027578808 0.037047613 -0.15825725 0.054195873 -0.05470914 0.071896 0.035018522 0.09172978
0.009342896 0.05994624 -0.17103001 -0.058861837 -0.03537363 -0.09175465 -0.08880083 0.015121308
-0.025500922 0.049669623 0.14692588 -0.067811534 0.059692297 -0.0054582106 -0.09404808 -0.022992764
-0.05207986 -0.013461407 -0.023736296 -0.042063087 0.0443565 0.007860916 0.13797048 0.00025065397
-0.058413513 0.08510451 -0.12238432 -0.079753146 -0.0653681 0.072507754 -0.03682391 0.027121317
0.022047339 -0.003421336 -0.010479829 0.012542746 -0.042313296 0.022901118 -0.05148437 0.09877904
-0.06275714 -0.029002912 -0.027531961 0.09467541 -0.01554914 0.0370678 -0.14130521 -0.05653973
0.0069169602 -0.096124984 0.0030216663 0.025801448 0.07767878 -0.032384645 -0.0037552489 0.00076441927
-0.0911379 0.012000348 -0.0060110535 0.10133947 0.0021431798 -0.03532733 0.034415435 -0.0071268072
-0.06387996 -0.04959557 0.006467481 0.046241336 -0.037607193 0.037025653 -0.015054968 0.0876783
0.020625824 -0.00071381585 -0.1430299 0.09109323 -0.021878183 0.0474683 0.08604692 0.045503594
0.03955778 -0.05359143 -0.050928306 -0.10263952 -0.21895103 -0.08145287 0.015561139 0.030295247
0.13085087 0.06802268 -0.03846095 0.010985707 -0.024317224 -0.033937998 0.042442493 -0.06209741
0.0073898965 0.008814235 0.010508351 -0.041108098 0.043500926 -0.08274466 -0.0142665105 -0.012007568
-0.04407707 -0.17897743 -0.08949641 0.018982954 -0.0009440834 0.04339995 0.06825489 0.056238476
0.062934734 -0.10365904 -0.032328058 -0.1674577 -0.09889339 -0.003584525 -0.028305495 0.11048314
-0.08415073 0.11087053 -0.00065782183 0.054464698 -0.027583769 -0.074760735 -0.09513249 0.10160227
0.020215446 -0.009138037 0.04712644 0.06718239 -0.075163014 0.013056131 -0.04172947 -0.070298545
0.032595687 -0.11011442 0.05089423 -0.047360364 0.09344629 0.032872334 0.05450804 0.011688671
-0.020800529 0.026200831 0.036527734 0.038115505 -0.00014154184 -0.06354731 0.009763421 -0.06492506
0.070250094 0.07904961 -0.0667963 -0.09905761 -0.2365025 0.0033426248 -0.0725802 -0.08755143
-0.019077359 -0.070295624 -0.025568938 0.028185323 0.020112082 -0.043339737 -0.027890842 -0.056864507
-0.0011932335 -0.0064355177 -0.17835355 0.043332767 -0.086873755 -0.0020784452 0.01407523 -0.015406653
-0.023261992 -0.10299368 0.03423015 0.020141536 -0.05381589 -0.024172382 -0.046995472 0.02169548
0.02583216 0.06643805 0.063294664 0.060616918 -0.06728759 -0.091123596 -0.00035653007 -0.017619478
-0.11387873 0.036452796 0.07080289 -0.12378008 -0.07579685 -0.0030791329 -0.030986503 0.051454633
-0.031069987 -0.115134336 0.002857462 -0.09441632 0.024659522 -0.0039271596 -0.044913657 0.048945487

network_body._body_endoder.seq_layers.2.bias f4 [256]
00000000: bfcb 86bc d6a4 c7bc e932 e2bc d481 37bd
00000010: cafb fdbc c531 94bd e8b8 84bd ab38 aebc
00000020: 863d 3ebd 5df6 1cbd 1297 5bbd e6af fcbc
00000030: 590c ccbc 8847 743c 6333 49ba 500b 64bd
00000040: ea1e 32bc 57c9 82bd 76db 9bbd f51d 71bd
00000050: cbaa b0bb 0ded 29bd 937c e3bc d191 ffbc
00000060: e514 35bd 4149 cdbc 07c9 18bd ee74 87bd
00000070: 9d48 8cbd b29e 00bd 1958 30bd a4d2 27bd
00000080: d94a 4fbd 87da 5dbd 0a85 bfbc 8bfd 1bbd
00000090: 17b5 a1bd e34c 99bc 2a18 fcbc 56a9 bbbc
000000a0: 32fb e2bc 3fea 2bbd 0339 32bd 320d 893c
000000b0: 95d0 06bd f008 92bc a94c 37bd 68ad e0bc
000000c0: 3cb4 34bd bef2 26bd 887d 3dbd 5213 2ebd
000000d0: 4195 8bbc d629 46bc 8307 cfbc a6f1 c5bb
000000e0: edcd 27bd 61cc d83b f408 3ebd 0aa9 d33b
000000f0: 4f1f 7dbc 7f46 c5bb 1699 41bd 6a05 76bd
00000100: 54b1 28bd d35a 3dbd 6b5b ddbc 6a38 7cbd
00000110: 742e 60bd ca82 ebbc dec6 2bbc 7a71 5fbd
00000120: 3341 88bd fb91 72bd 9d68 2fbd 5ad9 a4bd
00000130: dcd5 08bd 4129 03bd 7ef3 63bd bfa8 2bbb
00000140: 8e49 7fbd 53c2 83b9 f058 d9bc 5195 21bd
00000150: a765 30bd bc77 42bd 07ea 113b b32a 02bc
00000160: 6358 c6bb bd03 30bd 00f3 3cbd 934d 05bd
00000170: b080 03bd a03e 53bd 89a2 2cbd 0297 a8bc
00000180: 027c 86bc 688d b6bc 9de5 a6bc ed65 a03c
00000190: 9467 24bd e424 3cbd 9f4c a8bc 739b 81bd
000001a0: be43 25bd 27e4 2dbd 744c 79bd d20e 7cbd
000001b0: 8118 56bd 888c acbc 5ff5 81bd ed52 60bd
000001c0: 345b ecbc b0d1 11bd eeb3 41bd 9fad 2bbd
000001d0: 7112 8cbd 9afe 483c 92e5 50bd 40c4 72bd
000001e0: 82f0 6bbd 1f72 a4bc 40d1 abbc 4c63 06bd
000001f0: ad78 0dbc 8704 e8bb aadc f8bc b751 f9bc
00000200: b7ef 39bb 7d53 5fbd 8abe 81bd 5ce5 a1bd
00000210: 764b 89bd 278d 45bd c201 55bd 612e 59bd
00000220: 9c86 6fbd 0114 81bd 24f6 e638 dc03 ca38
00000230: a0cb 07bd 1b6e 24bb a9f7 1bbc f064 a8bd
00000240: c719 2cbc 3231 4fbd 4c0d 2cbd 4ff5 efbc
00000250: e9bc bcbc 6d40 59bd c4bf 8fbc 27c0 5a3c
00000260: e98a 53bd d609 b33b 5f7f c0bc 2fc8 77bc
00000270: 513d 15bd 4f06 6fbd f7fd 9bbd 307b 15bd
00000280: f0a8 34bd 327f 50bd 9a99 29bd 82bb 51bd
00000290: 9520 fcbc 0f37 3bbd d254 e5bc 693c a8bd
000002a0: 41f9 47bd c640 27bc ea85 afbb 40ed 41bd
000002b0: 10a4 5ebd e6e0 3abd d9a6 213c 4d16 74bd
000002c0: c683 a2b9 ae22 9dbc 2eeb 67bd e068 a9bc
000002d0: 262a 87bd 9c2f 7dbd 25ea 6f3b c6bd 91bd
000002e0: 4b1e 42bc 18f1 65bd 8678 7cbd e5f2 25bd
000002f0: 6dda 04bd e041 1abd a57e d8bc 74ba 37bc
00000300: 8627 ab3b 3ab7 41bc a511 b3bc 07ba 2fbd
00000310: 8a67 26bd 9640 bdbc 312b 4dbd f598 e5bc
00000320: 74b1 39bd f004 98bd 5fd7 c9bc edcf 5fbd
00000330: 5bc2 dfbc eea6 36bd bd6d cfbc 96b8 50bd
00000340: 77a4 29bc cd9b 2dbc 46a9 b1bb 229b 15bd
00000350: edd7 b3bc c699 23bd 98ba 78bd 3cc9 30bd
00000360: a28c 61bd 1b4a 70bc 549f e6bc 982b e0bc
00000370: 842f 29bd 3359 b5bb 20df 00bd dce1 77bd
00000380: e942 88bd 3df8 b5bc 7532 02bc e95d 82bd
00000390: e51b 82bc 98c3 04bd 6dd0 23bd 2ad4 57bd
000003a0: 1fe4 4cbd c149 7cbd d020 57bd 3217 9cbd
000003b0: c3a9 20bd 471f 0fbd 439d a5bc b05e 41bd
000003c0: b161 98bc a7f8 63bb 4b71 17bc dde6 44bd
000003d0: 92ca 45bd 78fc 0bbd ed37 a9bd 5870 7ebc
000003e0: e4b3 8cbc a098 90bd 12f8 3cbc ceea 2c3b
000003f0: d389 62bc c75d 12bd 6bcf 64bd c702 0fbd
-0.016454576 -0.024370592 -0.027612166 -0.044801548 -0.031003851 -0.07236055 -0.064805806 -0.021267256
-0.046445392 -0.038320888 -0.05361087 -0.030845594 -0.024908232 0.0149096325 -0.0007675199 -0.05567485
-0.010871628 -0.06386059 -0.07610218 -0.05886646 -0.005391454 -0.041485835 -0.027769363 -0.03119746
-0.04420938 -0.025059344 -0.03730109 -0.066140994 -0.068497874 -0.031401344 -0.043052766 -0.040972367
-0.05060849 -0.054163482 -0.023378868 -0.038083594 -0.07895868 -0.01871342 -0.030773241 -0.022907894
-0.02770767 -0.04197144 -0.0435114 0.016729925 -0.032913763 -0.017826527 -0.044750843 -0.027426437
-0.044117197 -0.04075884 -0.046262294 -0.042498894 -0.017038943 -0.012094935 -0.025272137 -0.0060407696
-0.04096787 0.0066161607 -0.046395257 0.00645936 -0.015449359 -0.0060203667 -0.047265135 -0.060063757
-0.04118474 -0.046229195 -0.02702113 -0.06157724 -0.0547318 -0.028748889 -0.010484425 -0.05455158
-0.06653061 -0.05922125 -0.042824376 -0.08049269 -0.033407077 -0.032021765 -0.055652134 -0.002619311
-0.062326007 -0.0002513105 -0.026531667 -0.03944904 -0.043065693 -0.04747747 0.0022264735 -0.007944751
-0.006053017 -0.042972315 -0.04613018 -0.032544684 -0.032105148 -0.051573396 -0.042147193 -0.020579819
-0.016416553 -0.022284225 -0.02037316 0.019579852 -0.040137842 -0.04593362 -0.020544348 -0.06328478
-0.040347807 -0.04245391 -0.060863927 -0.06153757 -0.052269462 -0.021063104 -0.06345629 -0.054766584
-0.028852083 -0.035600364 -0.047290735 -0.041913625 -0.06839455 0.012267733 -0.051000185 -0.05926919
-0.057602413 -0.020073948 -0.020973802 -0.03280954 -0.008634728 -0.007080618 -0.030378658 -0.030434472
-0.002837164 -0.05452298 -0.063351706 -0.07905075 -0.06703846 -0.048230316 -0.05200363 -0.053022746
-0.058477983 -0.063026436 0.00011013102 9.6328295e-05 -0.033153176 -0.0025090042 -0.009519496 -0.08222377
-0.010504193 -0.050584026 -0.04200487 -0.029291777 -0.023039298 -0.053039957 -0.017547496 0.013351477
-0.051646147 0.005463819 -0.023498235 -0.015123411 -0.03643543 -0.058355626 -0.07616799 -0.036494434
-0.044106424 -0.050902553 -0.04140625 -0.051204212 -0.030777255 -0.045706805 -0.027994547 -0.08214647
-0.04882169 -0.010208314 -0.00535654 -0.0473454 -0.05435568 -0.045624636 0.00986644 -0.05959158
-0.00030997227 -0.019181576 -0.05662077 -0.020679891 -0.06599836 -0.061812982 0.0036608067 -0.071162745
-0.011848043 -0.056138128 -0.061638378 -0.040514845 -0.03243487 -0.03766048 -0.026427576 -0.0112138875
0.0052232174 -0.01182347 -0.021859 -0.04290202 -0.040626086 -0.023102086 -0.05009002 -0.028027037
-0.045335248 -0.07422817 -0.02463883 -0.054641653 -0.027314356 -0.04459279 -0.025320882 -0.050957285
-0.010354153 -0.010596228 -0.0054217903 -0.0365249 -0.021953547 -0.03994157 -0.060724825 -0.043160662
-0.05506576 -0.014666106 -0.028152145 -0.027364537 -0.04130508 -0.005534315 -0.03146279 -0.06051813
-0.06653387 -0.022213096 -0.0079466 -0.06365568 -0.015882442 -0.032413095 -0.039993692 -0.05269257
-0.05002224 -0.061593775 -0.052521527 -0.07621612 -0.039224397 -0.034941938 -0.02021659 -0.04720944
-0.01860127 -0.003478566 -0.00924332 -0.04807173 -0.04828889 -0.03417632 -0.0826262 -0.0155297145
-0.017175622 -0.07060361 -0.011533754 0.0026385072 -0.013826805 -0.035733964 -0.05586187 -0.034914758

action_model._discrete_distribution.branches.0.weight f4 [4, 256]
00000000: ceb8 643c 4693 933b 9430 7abc 36a4 87bc
00000010: 736a eabc 35f1 a7bc 392d 66bd b201 8f3b
00000020: 493b 17bd d635 f33b 6683 fdbc c1a1 323c
00000030: d630 6cbc 7a95 193d f56d 603b 87a8 d7bc
00000040: 720e a73c 3c58 b0bc 7a03 d8bc 022c 91bc
00000050: 72c4 ac3c 7272 003d 9eb7 93bc 2699 c7bc
00000060: 1660 c0bb f7d1 0ebd 91fc f7bc 9382 d13c
00000070: 0e4e 60bb 4de3 4bbc 61c0 81bc ff8f a9bc
00000080: f94b 99bc b1fb 1a3c e08c bd3c 80a6 02bc
00000090: 18bd babc 0ce4 8c3c 7cc7 313d 86ad 2c3b
000000a0: 70cb 173c 0307 a33b 0c96 abbc 9103 f63c
000000b0: 1444 50bc abb5 c9ba 4d65 2abc 1418 8ebb
000000c0: 6f03 a8bc 8a83 c0bc 22e1 1e3c f516 40bd
000000d0: 6654 e3bb 2022 39bc 5420 c4bb 23dc c8bb
000000e0: 8570 883c f75f 6b3c cf9d 79bb 1062 29bb
000000f0: be35 373c 45b9 683c 226b a7bc 6607 1bbc
00000100: 1ec2 43bc 4364 4abc c3cf 623b ec64 85bc
00000110: 8c49 32bc be6e 17bc f6c7 883c f61f 1bbd
00000120: 6bcc 8fbc b396 cabc 8002 34bc 3872 1fbd
00000130: d59a 073b 1eea a6bc af46 04bc 556b ffbc
00000140: 931c a43a 2819 11bc a5cc 2fbc 7832 be3c
00000150: 2cf3 71bc 1e2c 1bbc 6632 f33c cc14 9e3c
00000160: 6185 a03b d92f 73bc b89a 69bc fab8 30bb
00000170: 9a74 97bc 121f 543a f44e cfbb 3baa d13c
00000180: fb65 23bc 9817 86bc bbc5 e23b be7f e53c
00000190: 45b5 8abb cba5 0dbc df9c bbbc a1bf 1dbd
000001a0: a930 bebc bb63 54bc 6fff 8dbc d819 4bbd
000001b0: 1f00 60bc 5e45 5e3a 8b3c 27bd 4ebb f3bc
000001c0: fa97 f7bc be68 113c 74fe 03bd d113 e93a
000001d0: f4cb bdbc c8c3 473b 40bf ecbb 2c78 9dbc
000001e0: 52b6 ac3a 291a ef3b 52ff 36bb 96d6 b8bc
000001f0: f07c ed3c c4e4 d7bb cc75 85bb 4d34 96bc
00000200: dafa bdbc 4d2f c9bc 5529 9bbc bc7b 0dbc
00000210: b613 bdbc 9c4a 39bc 0e79 cc3b e849 a33a
00000220: 05ab 19bc f39e 1dbd b67e 1e3c f81e 4f3c
00000230: 8e6e be3b 298c 93bc 5827 d63c f4f6 113b
00000240: fc8e e23c 5aa3 c9bc 1dfb 2cbc ab0e 62bc
00000250: f771 b5bc 14ba 9cbb 6b84 6c3c d6b9 823c
00000260: b95c 91bc 6d04 87bc c635 8d3c 8ca6 86bb
00000270: 0db9 a63a 6f78 d1bc 574e 98bc 5f9b 8ebc
00000280: 8b69 5f3c ca6e cbbc 84e7 e7bc a1e5 af3a
00000290: b381 7bbc b4e5 fdbc 1ecd ccbc 979c b9bc
000002a0: 6ad2 0bbc f7bc d13c fa27 5e3c 0f08 dcbc
000002b0: 3004 f3bc 83d5 d2bc 4609 cb3c 9235 1d3c
000002c0: 13de 253c 76a5 f4ba fd9e c5bb d133 2fbc
000002d0: 852e adbc ee6f dcbc f053 e3bb efef cdbc
000002e0: f042 c73a aa79 9bbc 67bb a6bc 54d9 9cb9
000002f0: 4815 2abc 5ec2 91bc bc72 febc 61e1 6bbc
00000300: 8bb1 6a3c e3fe cbb9 2bdb 4fbc a6d0 40bc
00000310: 617c fbba 2dff 83bb fc4e 7fbc 0b99 d1bc
00000320: c2a0 433b 1db5 373b fb73 efbc b55b 7cbc
00000330: a4ec c9bb a232 463c 9197 b73b 9c11 6cbc
00000340: 964e 313c f9f7 af3c 334f 413c f043 bcbc
00000350: e31f 54bb 3bc0 08bd 8599 26bc 120a 443b
00000360: e027 0538 8d8a 0b3c c516 9fbc 3da6 b8bc
00000370: 302b bcbc 2e86 073d 69fd 21bc 87a3 e1bb
00000380: 2337 cfbc 4c6d a73c fb18 973b 30fc d5bc
00000390: b744 c6bb 8ef1 73bc 96b6 50bc a08a 15bd
000003a0: 93bb 013c 5b71 e4bc 4f43 80bc 51fc 4cbd
000003b0: b3b5 b83c 14df 78bc f929 cfbc d99c 06bd
000003c0: 230b efbb f93a dabb 6c19 2dbc 467c a9bb
000003d0: 40da b1bb b4f9 6e3c cc3b a0bc 7ce5 d939
000003e0: 8783 6c3c 2e98 ebbc cc6d d53b a645 a2ba
000003f0: 5c0f 503c a8f8 8abc d520 adbc a53c 80bc
0.0139600765 0.0045036403 -0.015270371 -0.016557794 -0.028615212 -0.020500759 -0.05619547 0.004364216
-0.036921773 0.007422189 -0.030946445 0.010902823 -0.01441594 0.037496068 0.0034245227 -0.026325477
0.02039263 -0.021526448 -0.026368845 -0.01772118 0.021089766 0.031359144 -0.018031891 -0.024365019
-0.0058708293 -0.034868207 -0.0302718 0.025574958 -0.0034226212 -0.012444329 -0.015838804 -0.020698546
-0.018712984 0.009459422 0.023138463 -0.007974267 -0.022795245 0.017198585 0.043403134 0.0026348545
0.009264812 0.004975201 -0.020945571 0.030030997 -0.012711544 -0.0015389224 -0.010400129 -0.0043363664
-0.02050945 -0.023500223 0.0096972305 -0.046896894 -0.0069375513 -0.01129964 -0.005985299 -0.006129758
0.016655216 0.0143661415 -0.0038088446 -0.0025845803 0.011182247 0.014204328 -0.020436827 -0.009462213
-0.011948137 -0.012353006 0.00346087 -0.016283475 -0.010881793 -0.009242712 0.016696911 -0.037872277
-0.017553529 -0.024730062 -0.010986924 -0.038927287 0.0020691652 -0.020375308 -0.008073493 -0.03117911
0.0012520723 -0.008856095 -0.010729943 0.023217425 -0.014767449 -0.009470968 0.029687118 0.019297026
0.0048987125 -0.014842951 -0.014258079 -0.0026965723 -0.018488217 0.0008091788 -0.0063265506 0.025593868
-0.0099730445 -0.016368672 0.006920544 0.028015014 -0.004233035 -0.008645485 -0.02290195 -0.03851283
-0.023216562 -0.012963231 -0.017333714 -0.049585193 -0.013671904 0.00084789644 -0.040829223 -0.0297524
-0.030223835 0.00887507 -0.032225087 0.0017782395 -0.023168541 0.0030481685 -0.007224947 -0.019222341
0.0013176894 0.0072968197 -0.002792318 -0.02256326 0.028990239 -0.0065885503 -0.0040728804 -0.018335486
-0.023190904 -0.024558688 -0.018940607 -0.008635458 -0.023080688 -0.011309292 0.006240017 0.0012457939
-0.009379153 -0.038481664 0.009673765 0.012641661 0.005811519 -0.01801117 0.026141807 0.002227244
0.02765607 -0.024614025 -0.010557917 -0.013797442 -0.02214907 -0.0047829244 0.014435868 0.015957754
-0.017744409 -0.016481603 0.017237555 -0.0041092094 0.0012719944 -0.025570123 -0.018592043 -0.017408071
0.013636003 -0.024833102 -0.028308637 0.0013419875 -0.015350747 -0.03099332 -0.025000151 -0.022657676
-0.008534053 0.0256028 0.013559336 -0.026859311 -0.029665083 -0.025736576 0.024784695 0.009595292
0.010123747 -0.0018665034 -0.006030916 -0.010693506 -0.021140346 -0.026908841 -0.0069374964 -0.025138823
0.0015202444 -0.018978912 -0.020353032 -0.0002991656 -0.01038105 -0.017792877 -0.031060569 -0.014396996
0.014324556 -0.00038909083 -0.012686531 -0.011768496 -0.0019186848 -0.004028222 -0.015582796 -0.025585672
0.0029850458 0.0028031536 -0.029230108 -0.015402724 -0.006162243 0.012097033 0.005602785 -0.014408495
0.010821959 0.021480547 0.011798668 -0.022981614 -0.0032367639 -0.03338645 -0.010168438 0.002991323
3.1746808e-05 0.00851692 -0.019420037 -0.022540206 -0.022969812 0.033086948 -0.009887078 -0.006885949
-0.025294846 0.020437859 0.004611132 -0.026121229 -0.006050672 -0.014889134 -0.012738844 -0.036509156
0.007918256 -0.027886083 -0.015657095 -0.050045315 0.022547578 -0.015189905 -0.025288569 -0.032864425
-0.007295029 -0.006659862 -0.010565143 -0.0051722853 -0.0054276288 0.014585901 -0.019559763 0.00041560445
0.014435655 -0.028759088 0.006513333 -0.0012380376 0.012698974 -0.016964272 -0.02113382 -0.015653918

action_model._discrete_distribution.branches.0.bias f4 [4]
00000000: 6daf 623d fe81 92bd 803e 05bd d7de 383d
0.05534308 -0.071537 -0.032530308 0.04513439

action_model._discrete_distribution.branches.1.weight f4 [3, 256]
00000000: cd07 783b 7eac 2f3c 205c a0bb 883d 033c
00000010: 0c39 393c 0771 55bc c748 373c b5b4 79bb
00000020: d60d 07bb fd15 7fbb 2075 413c 17d6 ac3c
00000030: 85ea 0c3c 63b3 4cbc c1bf 523b 2e69 823b
00000040: 0b5c 0fbc 04eb 97bb 2879 913a caf6 b5bb
00000050: 9b3d a33c 413b 103d 5ecc bc3b c0f9 4db9
00000060: 5fee e13c bc44 76bc d67a e73b 0c63 0cbb
00000070: 2169 7f3c abf7 a93b fa4e 8439 7e5a 2b3c
00000080: b27f 723c 9e0a a2bb 0043 6bbc 42be c23c
00000090: eee3 cb3a 0b4c a33c 3933 fe3c 6e34 77bb
000000a0: abca a73c 87f7 373c d019 603b a620 14bc
000000b0: 597b 273c 4840 3bbb 8e9d d63b 157b e13b
000000c0: 1ea3 c1bc 0969 83bb aa2b 703c 9cd3 423b
000000d0: 7a93 b9bb 8636 2bbc 4fd7 93bb 1ac6 373c
000000e0: 1d10 cf3c c26c 533c b299 edbb 119d 7bba
000000f0: ef7f 3abc 7720 edbb d16e 0e3c de25 db3b
00000100: 454a 1aba 4731 a0ba a00e b83b 6e0c e93a
00000110: a33b 763c bcb9 d13c 3cfd d7bb 9ce3 063c
00000120: c39c 0cb9 d67e 94bb f252 1d3c 81cd 433b
00000130: bdaf ffbb 1b76 c73b 0148 003c 8850 08bb
00000140: 6f4a cfba 673c 733b 5a7e 6b3b fffd aa3c
00000150: 5018 8e3b 78cc 773c 614d 6bbc d4e7 d53c
00000160: db73 993c 61d4 1b3c 738f 593c eb2d ea3c
00000170: 53ea 613c 30da ca3c 6165 9a3b e815 953c
00000180: b376 9a38 5398 543c 1879 1b3c 9567 8e3c
00000190: 8661 1e3b 864c c83b 200f 573c 6cbb b3bb
000001a0: 9ecd e0b9 6e8a dc3c 2c21 2a3c 6046 26bb
000001b0: 1b87 a73b 2119 303c e66c 03bb fe46 6e3c
000001c0: 1acb af3c ffd5 c7bb b40e 503c 3182 523c
000001d0: 9269 70bc 40ba f33a 89b4 25bb 3d39 ef3b
000001e0: 87d1 613a 3975 043d 9e7b c3b9 1e94 22bb
000001f0: 5ffe d23c 746a acbb 2752 653b 0b7f d1bb
00000200: 16be b63b 0781 1d3c 7f77 783a 36ea 093c
00000210: f209 303c 5838 1ebc a09e ad3c 25c6 243c
00000220: 76c3 94bb 5410 033c 0377 253c 67e4 283c
00000230: 0dd0 053c 76fd eebb c046 d43c efad b73b
00000240: e322 283c 2ffd 90ba 3faf c63c 97f0 d03b
00000250: b5d3 303c f463 be3b e70b 263c 12d7 42bc
00000260: d44f cc3b 5074 83ba b663 c93c ae79 98bb
00000270: 7df8 52bc 3025 423c 65b7 a33b 8201 723c
00000280: 1131 8f3b 9361 4c3c c7ad 1cbb fc87 d1bb
00000290: 4c86 78ba 12c7 6fbc 76cc 713c 725d dc3b
000002a0: 1daf 743c 96be 2e3c 1403 813c 2481 03bb
000002b0: 14da 4b3c 13a2 a7bb c240 77bb 3eca 773b
000002c0: 290f 8cbb 4460 9a3c cc3f 0abd c2c2 0f3c
000002d0: c153 953b 5771 cd3b 9bf7 0bbc 16d5 13ba
000002e0: 6b31 6c3c 9403 103c 5882 253b 689a d43b
000002f0: 3779 ab3b 3b37 9c3b bdbe a8b9 3418 89bb
00000300: 4b47 9e3c 668e 8fbc 3f94 28bc 068c 95bb
00000310: 138d fdbb dc6d 72bb 4d82 bebb 6bba 1c3b
00000320: 75bb 0d3c 8e19 1b3b 9078 e83b 53cb 0b3c
00000330: 9693 653a 5aab 993c f53a ae3b 99bc 92bb
00000340: 18fe 123d f074 b83c b5f8 99bc 482c 9f3a
00000350: 86f3 7abb 369a 03bb 9bf1 933b a0fd 123c
00000360: 7c49 7f3b 751c a03c 0c31 8e3b e3e8 1fba
00000370: 02b0 023c d2e4 713c d8ed 7e3c 7aaf ccbb
00000380: 3585 73bb 77b4 033c 8d53 9d3c 176d 883c
00000390: f5d4 ee3b d6b6 49bb f719 1c3b 8db2 4b3b
000003a0: 668c 9e3c f6dc cebb 6c92 c73b 095f ebba
000003b0: 6536 9d3c d8af 333c 1dbd babb 972a 3c3c
000003c0: 1b4d e2bb c215 a63c aefc f7bb 407d 9a3c
000003d0: 8df6 80bb c77f 793c 6134 823b 6749 383a
000003e0: 4ece 843c 5e8d 9c3c 88da 65bb 9082 5d3c
000003f0: bf5b 603c aee3 fcb9 ae2a b23b e842 a63c
0.0037846447 0.010722278 -0.0048937947 0.008010276 0.011305105 -0.013027436 0.011186785 -0.0038102095
-0.0020607612 -0.0038923018 0.01180771 0.02109818 0.008600836 -0.012493941 0.0032157751 0.0039798236
-0.008749972 -0.0046361703 0.001109873 -0.005553101 0.019926837 0.03521276 0.005761667 -0.00019643363
0.027579485 -0.015031036 0.0070642037 -0.0021421341 0.0155890295 0.005186995 0.00025235844 0.010458587
0.014800953 -0.0049451133 -0.014359236 0.023772363 0.0015555599 0.019933721 0.031030284 -0.003772046
0.020482382 0.011228449 0.0034195073 -0.009040987 0.0102222795 -0.002857225 0.0065495437 0.0068811276
-0.02363735 -0.004010324 0.014658848 0.002972818 -0.0056633325 -0.010450011 -0.004511751 0.011216665
0.025276238 0.012904348 -0.007250988 -0.0009598295 -0.011383041 -0.007236536 0.008693413 0.0066878637
-0.0005885701 -0.0012221717 0.005616978 0.0017780194 0.015028867 0.02560126 -0.006591467 0.008232977
-0.00013409839 -0.0045317216 0.009602295 0.0029877129 -0.007802932 0.0060870773 0.007829667 -0.0020799953
-0.001581503 0.003711486 0.0035933466 0.020873068 0.0043363944 0.015124433 -0.01436171 0.02611152
0.018732002 0.009511084 0.01327883 0.028586349 0.013788777 0.024762243 0.0047117923 0.018198922
7.365402e-05 0.01297577 0.00948932 0.017383376 0.0024167015 0.006112638 0.013126165 -0.005484989
-0.00042877806 0.026921477 0.010383885 -0.0025371537 0.0051125414 0.010748179 -0.0020053922 0.014543293
0.021459151 -0.0060985084 0.012698818 0.012848423 -0.014673607 0.0018594936 -0.002528461 0.0073005245
0.0008614291 0.032338355 -0.000372854 -0.0024807523 0.02575606 -0.0052617136 0.0034991594 -0.0063933185
0.005576859 0.009613282 0.00094782555 0.008417657 0.010744559 -0.009656988 0.021193802 0.010057007
-0.0045399023 0.007999498 0.010099175 0.010308362 0.008167279 -0.0072933985 0.025912642 0.0056054513
0.010262224 -0.0011061783 0.024253486 0.006376337 0.010792662 0.005810255 0.010134674 -0.011892097
0.006235102 -0.0010029171 0.024583679 -0.004653177 -0.012876627 0.0118496865 0.0049962276 0.014770867
0.004369863 0.012474435 -0.002390729 -0.0063943844 -0.0009480461 -0.014634864 0.01475822 0.0067250067
0.014934328 0.010665556 0.015748538 -0.0020065987 0.012442131 -0.0051157563 -0.0037727808 0.0037809755
-0.004274268 0.018844731 -0.033752248 0.008774461 0.0045571034 0.0062696147 -0.00854292 -0.0005639357
0.014416079 0.008789916 0.0025254693 0.006488133 0.005232956 0.004767326 -0.00032185568 -0.0041837934
0.019321105 -0.017523956 -0.010289251 -0.0045638112 -0.0077377646 -0.003699175 -0.005813873 0.0023914825
0.00865065 0.0023666355 0.0070944503 0.008532363 0.0008757649 0.018758465 0.005317087 -0.004478049
0.035886854 0.022516698 -0.01879535 0.0012143934 -0.0038292124 -0.002008093 0.0045148856 0.008971602
0.0038953712 0.01954482 0.004339343 -0.00061000715 0.007976534 0.014764028 0.015559636 -0.0062465044
-0.0037158255 0.008038632 0.01920488 0.01665358 0.00728857 -0.0030779145 0.0023819187 0.0031081766
0.019354057 -0.0063129617 0.006090453 -0.00179574 0.019190976 0.010967217 -0.0056988136 0.011484764
-0.0069061643 0.020274047 -0.0075679636 0.018858552 -0.003935641 0.015228218 0.003973529 0.0007029981
0.016211655 0.019110378 -0.0035072882 0.013519898 0.013693749 -0.0004823482 0.0054372167 0.020295575

action_model._discrete_distribution.branches.1.bias f4 [3]
00000000: c9e8 babb dad3 093b 25ca b13b
-0.0057040197 0.0021030814 0.005425709

onnx::Div_98 f4 [45]
00000000: 31cd 623c b176 063e 7dc6 603e 0292 c33e
00000010: c5fd 433e 22ad 193d 5049 d73e a9e4 673e
00000020: 3c8b bd3e f84e 5e3e 9e52 ea3c ae06 933e
00000030: 901f 4b3e 572d bf3e e3b0 413e a3aa 543d
00000040: 9e3b fa3e 2e09 863e 71bc 903e 965b 643e
00000050: f06c eb3c 091b 9a3e 6bd5 533e 86ef 9d3e
00000060: 1a6c 333e 6075 303d d9c1 fd3e b844 9a3e
00000070: 34eb a63d a91a 323e d52b 923c 311a 523e
00000080: 350c 8d3e 43c6 db3d 50dc 183e 9a1f 0c3a
00000090: 8534 783e 0308 833e 4500 283b ed76 0c3e
000000a0: a8e3 b03b 3819 683d d4f2 843e 9a1f 0c3a
000000b0: dfb6 0c3e
0.013842867 0.13131215 0.21950717 0.38197333 0.19139774 0.037518628 0.4204812 0.2264582
0.3702029 0.21709812 0.028603848 0.28716034 0.19836259 0.3733928 0.18915133 0.051920544
0.4887361 0.2617888 0.2826877 0.22300562 0.028738469 0.3009875 0.20686881 0.30846804
0.17521706 0.043080688 0.49561957 0.30130553 0.0815033 0.17392983 0.017843166 0.20517804
0.27548376 0.10731175 0.14927793 0.0005345285 0.24238785 0.2559205 0.0025634926 0.13717242
0.0053982325 0.056664675 0.25966513 0.0005345285 0.13741635

onnx::Div_101 f4 [21]
00000000: ddef 303e 4ff9 cf3e b2ed f53d 6ae4 293e
00000010: 9169 cd3e ce14 0d3e b5eb 273e eead c93e
00000020: 4fa5 053e 1a6a 4d3e 298c ca3e 2d3e 363e
00000030: f18a 1c3e 07c7 c63e 07aa 133e 39f2 263e
00000040: 8135 b83e 3133 3a3e 80cd 483e 968b b93e
00000050: 63df 1a3e
0.17279 0.40619895 0.120082274 0.1659104 0.40119603 0.13777468 0.16398509 0.3939051
0.13051341 0.20060006 0.3956006 0.17797156 0.15287377 0.3882372 0.14420329 0.16303338
0.3597832 0.1818359 0.19609642 0.36239308 0.15124278

onnx::Div_104 f4 [105]
00000000: 9a1f 0c3a 087e 183d 9a1f 0c3a 414b c73e
00000010: dd8a a83e 9a1f 0c3a ee25 703d 9a1f 0c3a
00000020: 445b c83e 5d2a aa3e 9a1f 0c3a 0c56 223d
00000030: 9a1f 0c3a cb74 c43e 595f a63e 9a1f 0c3a
00000040: e4b6 983d 9a1f 0c3a 1834 b53e f0a9 9b3e
00000050: 9a1f 0c3a 07cc 283d 9a1f 0c3a e23c b73e
00000060: 7772 9b3e 9a1f 0c3a 6b32 a43d 9a1f 0c3a
00000070: 853c 6c3e c9b4 4c3e 9a1f 0c3a 4f00 263d
00000080: 9a1f 0c3a 9f46 7c3e 03fc 563e 9a1f 0c3a
00000090: 22aa 183d 9a1f 0c3a e456 c73e bf90 a83e
000000a0: 9a1f 0c3a c03c 703d 9a1f 0c3a d766 c83e
000000b0: 5c30 aa3e 9a1f 0c3a aa7b 223d 9a1f 0c3a
000000c0: 4880 c43e 5965 a63e 9a1f 0c3a cebe 983d
000000d0: 9a1f 0c3a 0640 b53e e0b0 9b3e 9a1f 0c3a
000000e0: c8e1 283d 9a1f 0c3a ed48 b73e d178 9b3e
000000f0: 9a1f 0c3a fc37 a43d 9a1f 0c3a ac50 6c3e
00000100: 42c0 4c3e 9a1f 0c3a 6316 263d 9a1f 0c3a
00000110: 3e5b 7c3e 9107 573e 9a1f 0c3a 26d6 183d
00000120: 9a1f 0c3a 7562 c73e d496 a83e 9a1f 0c3a
00000130: 1056 703d 9a1f 0c3a 4272 c83e 7236 aa3e
00000140: 9a1f 0c3a 3da1 223d 9a1f 0c3a fa8b c43e
00000150: 7a6b a63e 9a1f 0c3a b7c6 983d 9a1f 0c3a
00000160: fa4b b53e b5b7 9b3e 9a1f 0c3a 84f7 283d
00000170: 9a1f 0c3a 7b54 b73e 307f 9b3e 9a1f 0c3a
00000180: 893d a43d 9a1f 0c3a 8464 6c3e 8ecb 4c3e
00000190: 9a1f 0c3a 712c 263d 9a1f 0c3a 4c70 7c3e
000001a0: cd12 573e
0.0005345285 0.037229568 0.0005345285 0.38924602 0.32918444 0.0005345285 0.058629923 0.0005345285
0.3913213 0.33235446 0.0005345285 0.039632842 0.0005345285 0.38370356 0.3249462 0.0005345285
0.074567586 0.0005345285 0.35391307 0.3040309 0.0005345285 0.0412102 0.0005345285 0.35788637
0.30360767 0.0005345285 0.08017429 0.0005345285 0.23069961 0.19990839 0.0005345285 0.040527638
0.0005345285 0.24636315 0.20994572 0.0005345285 0.037271626 0.0005345285 0.3893348 0.32922933
0.0005345285 0.058651686 0.0005345285 0.3914096 0.3324002 0.0005345285 0.039668716 0.0005345285
0.3837912 0.32499197 0.0005345285 0.07458268 0.0005345285 0.35400409 0.30408382 0.0005345285
0.041230947 0.0005345285 0.35797825 0.30365613 0.0005345285 0.08018491 0.0005345285 0.23077649
0.19995216 0.0005345285 0.040548693 0.0005345285 0.24644181 0.2099898 0.0005345285 0.037313603
0.0005345285 0.38942304 0.32927573 0.0005345285 0.058675826 0.0005345285 0.39149672 0.33244663
0.0005345285 0.03970455 0.0005345285 0.38388044 0.32503873 0.0005345285 0.07459777 0.0005345285
0.35409528 0.30413595 0.0005345285 0.041251674 0.0005345285 0.3580664 0.30370474 0.0005345285
0.080195494 0.0005345285 0.23085219 0.19999525 0.0005345285 0.040569726 0.0005345285 0.24652213
0.21003266

onnx::Div_107 f4 [5]
00000000: 4d29 463a be50 0c3f f927 033f 22fb 1c3a
00000010: 9a1f 0c3a
0.0007559255 0.548107 0.5123287 0.00059883494 0.0005345285
