Usable_Data/Versuch_2-1/PKWParking/PKWParking-1999922.onnx (onnx, 463796 bytes, 17 tensors)

discrete_act_size_vector f4 [1, 2]
000000 00 00 80 40 00 00 40 40
       4.0 3.0

network_body.observation_encoder.processors.0.normalizer.running_mean f4 [45]
000000 a7 a4 af 39 10 e3 85 3c 1d 20 a8 3d bb c1 9a 3e
       0.00033501277 0.016343623 0.0820925 0.3022593
000010 d3 4c 2c 3f 79 ad 0e 3b 43 a5 ce 3d 7b be ba 3d
       0.67304724 0.0021770878 0.10090115 0.091183625
000020 7f fb 8e 3e 13 07 25 3f 9c c4 bb 3a 61 cb 86 3d
       0.2792625 0.6446392 0.0014325562 0.0658176
000030 c5 91 85 3d 72 fa 91 3e d2 49 2a 3f 35 87 91 3b
       0.06521944 0.28511387 0.6651889 0.0044411668
000040 8e d6 3b 3e 5d 7f 02 3e d5 9f 17 3e 68 a7 09 3f
       0.18343565 0.12743898 0.14807065 0.53771067
000050 96 89 bd 3a 7e 7b cd 3d a8 f9 9a 3d a0 c8 38 3e
       0.001446056 0.1003332 0.075671494 0.18045282
000060 cc bc 19 3f c0 3a 55 3b d4 fe 42 3e 49 2c 32 3e
       0.60053706 0.0032536238 0.19042522 0.17399706
000070 2a cf 2b 3c b4 d3 e9 3e 19 05 12 3a ef 8f 89 3d
       0.0104864035 0.4566933 0.00055702176 0.06716906
000080 37 ad 0f 3e 8e 08 a7 3c 10 12 ff 3e 00 00 00 00
       0.1403092 0.020389821 0.49818468 0.0
000090 11 ce 15 3c 5b 5d f7 3d 78 8e 38 37 c8 86 05 3f
       0.009143368 0.12078353 1.1000426e-05 0.52158785
0000a0 fd d1 53 38 24 3f 96 3b a0 6b ff 3d 00 00 00 00
       5.0501887e-05 0.0045851637 0.124717 0.0
0000b0 ee 5f 04 3f
       0.5170888

network_body.observation_encoder.processors.1.normalizer.running_mean f4 [21]
000000 f6 da 1e 3d 8c f8 b5 3e d3 a0 52 3f f0 2b 38 3d
       0.038783036 0.3554119 0.8227665 0.044963777
000010 a8 7c af 3e 88 37 4f 3f a1 01 2b 3d 3a b6 a7 3e
       0.34274793 0.8094411 0.0417496 0.32756215
000020 1d b5 4e 3f 45 bf 69 3d fe c7 a8 3e 0f de 46 3f
       0.80745107 0.057067174 0.32965082 0.77682585
000030 d8 9e 02 3d db 5e a1 3e 46 44 4b 3f f2 91 17 3d
       0.031889766 0.3151768 0.7940105 0.03700442
000040 b8 52 84 3e d9 13 3a 3f 6c 97 82 3d e9 5e 87 3e
       0.2584436 0.72686535 0.06376538 0.26439598
000050 7f 0b 40 3f
       0.7501754

network_body.observation_encoder.processors.2.normalizer.running_mean f4 [105]
000000 00 00 00 00 e1 5d 0d 3b 00 00 00 00 1c bb a2 3e
       0.0 0.0021570849 0.0 0.31783378
000010 c1 77 d8 3e 00 00 00 00 fd 4e bc 3b 00 00 00 00
       0.42278865 0.0 0.005746721 0.0
000020 6a f1 a4 3e 7a b3 d9 3e 00 00 00 00 fa 64 34 3b
       0.32215434 0.42519742 0.0 0.0027526007
000030 00 00 00 00 39 84 9c 3e c9 d5 d2 3e 00 00 00 00
       0.0 0.30569628 0.4117873 0.0
000040 f5 fe 10 3c 00 00 00 00 bb e7 7f 3e 5e 4c b8 3e
       0.008849849 0.0 0.24990742 0.35995764
000050 00 00 00 00 5f e9 42 3b 00 00 00 00 5b 24 83 3e
       0.0 0.002974115 0.0 0.25613675
000060 ca d2 bc 3e 00 00 00 00 92 97 14 3c 00 00 00 00
       0.3687957 0.0 0.00906934 0.0
000070 75 ae c5 3d 1e 63 66 3e 00 00 00 00 03 a7 3c 3b
       0.09652416 0.22498748 0.0 0.002878607
000080 00 00 00 00 49 45 e3 3d c5 c1 77 3e 00 00 00 00
       0.0 0.110971995 0.24195011 0.0
000090 c1 b1 0d 3b 00 00 00 00 1d d4 a2 3e 2c 93 d8 3e
       0.0021620842 0.0 0.31802455 0.42299783
0000a0 00 00 00 00 ba 74 bc 3b 00 00 00 00 76 0a a5 3e
       0.0 0.0057512196 0.0 0.32234544
0000b0 e4 ce d9 3e 00 00 00 00 fd b8 34 3b 00 00 00 00
       0.42540658 0.0 0.0027576082 0.0
0000c0 4a 9c 9c 3e 3d f0 d2 3e 00 00 00 00 a9 0f 11 3c
       0.3058799 0.41198912 0.0 0.008853831
0000d0 00 00 00 00 6a 08 80 3e e2 63 b8 3e 00 00 00 00
       0.0 0.2500642 0.36013705 0.0
0000e0 be 1b 43 3b 00 00 00 00 29 39 83 3e 97 ea bc 3e
       0.0029771174 0.0 0.25629547 0.36897728
0000f0 00 00 00 00 1f a2 14 3c 00 00 00 00 29 d3 c5 3d
       0.0 0.009071856 0.0 0.09659416
000100 bf 7e 66 3e 00 00 00 00 61 d9 3c 3b 00 00 00 00
       0.22509287 0.0 0.0028816091 0.0
000110 8e 6d e3 3d c3 de 77 3e 00 00 00 00 9f 05 0e 3b
       0.1110488 0.2420607 0.0 0.002167083
000120 00 00 00 00 0a ed a2 3e 91 ae d8 3e 00 00 00 00
       0.0 0.3182147 0.42320684 0.0
000130 a5 9e bc 3b 00 00 00 00 8b 23 a5 3e 72 ea d9 3e
       0.0057562166 0.0 0.3225368 0.4256168
000140 00 00 00 00 e1 0c 35 3b 00 00 00 00 24 b4 9c 3e
       0.0 0.0027626085 0.0 0.30606186
000150 c4 0a d3 3e 00 00 00 00 82 20 11 3c 00 00 00 00
       0.4121915 0.0 0.008857848 0.0
000160 f0 1c 80 3e a5 7b b8 3e 00 00 00 00 ff 4d 43 3b
       0.25022078 0.36031833 0.0 0.0029801128
000170 00 00 00 00 32 4e 83 3e 78 02 bd 3e 00 00 00 00
       0.0 0.25645596 0.36915946 0.0
000180 82 ac 14 3c 00 00 00 00 b1 f7 c5 3d a1 99 66 3e
       0.009074332 0.0 0.09666384 0.22519542
000190 00 00 00 00 9a 0b 3d 3b 00 00 00 00 29 96 e3 3d
       0.0 0.0028846026 0.0 0.11112625
0001a0 1e fc 77 3e
       0.24217269

network_body.observation_encoder.processors.3.normalizer.running_mean f4 [5]
000000 0b ff 7f 3f 95 9e a9 3e 0b ba 8b 3c 4f 4a 01 3f
       0.9999854 0.331288 0.017056486 0.5050401
000010 00 00 00 00
       0.0

network_body._body_endoder.seq_layers.0.weight f4 [256, 176]
000000 39 0a 4b 3e d5 45 8a bc b6 6f 25 bd ef 72 89 bd
       0.19828118 -0.016879002 -0.04038974 -0.06711375
000010 f4 1b 44 bd 97 65 17 3e 21 65 4f 3e 7c 0c 33 bd
       -0.04787822 0.14784847 0.20253421 -0.043713078
000020 3b ab 4c bc ce 21 7f bd 9f f1 b0 ba d7 45 0d bc
       -0.012491996 -0.062288098 -0.0013499743 -0.008622608
000030 35 1d bf bd be df 02 3d 0e 70 d4 3d f9 e4 ab 3d
       -0.09331743 0.03195166 0.10372935 0.083932824
000040 58 3f 07 bd 3e a7 41 3c 01 19 da bd d0 2a 10 be
       -0.033019394 0.011819659 -0.106493 -0.14078832
000050 79 56 48 3c ac e6 71 3b ba 24 8c bd 39 4f b0 3c
       0.012227648 0.0036911173 -0.068429425 0.021522151
000060 c4 e5 d0 3d fd 3a 42 be b8 6a 79 bd e0 b9 37 3e
       0.10200074 -0.18967815 -0.06089279 0.17942
000070 d7 fd 3c be a5 b7 5e bd f3 a2 b5 bd cc 5e f7 bd
       -0.18456207 -0.054374356 -0.08868971 -0.12078628
000080 fe dd c2 bd 05 b9 0f 3c 40 b8 ed 3c ff 61 c3 bd
       -0.09514998 0.008772139 0.029018521 -0.09540176
000090 22 f0 9f bd 32 a4 ed 3c 6c 97 5a 3d 71 3b 38 bd
       -0.078094736 0.029008958 0.053367063 -0.044978563
0000a0 70 0d 0c be ea 45 66 3d 41 75 23 be 72 af dc 3c
       -0.13677001 0.05621902 -0.15962698 0.026939128
0000b0 b9 03 db bd c9 af f2 bd 6e 1a 30 3d 26 d5 be 3b
       -0.106940694 -0.118499346 0.042993955 0.005823749
0000c0 78 d4 5d bc dd e2 f4 bd 7d 0e 94 3c d5 db 54 bd
       -0.013539426 -0.11957333 0.018073315 -0.05196746
0000d0 d0 53 14 3d 7c 4a 76 bb 5b bb a8 3c 99 35 3e be
       0.036212742 -0.0037581017 0.02059715 -0.18575133
0000e0 26 d3 42 bd d2 9d 24 bd 68 12 31 bd 53 3c 5d bd
       -0.047564648 -0.04018957 -0.043230444 -0.054012608
0000f0 de 8f 06 3d 11 0e b9 3c 8d 54 1f bc 94 46 97 bd
       0.032852046 0.022589715 -0.009724748 -0.073865086
000100 93 21 8b bc 7d 92 be 3b f2 04 53 3d b9 47 ed 3c
       -0.016983783 0.0058158026 0.051518388 0.028964864
000110 c1 5a fe bd a6 77 11 3e 89 e4 a6 3d 11 f6 1e 3d
       -0.12419654 0.14205799 0.08149058 0.038808886
000120 37 22 cf 3d 4a d5 c4 bd c3 e2 0f bd 8c 27 a0 bd
       0.10113948 -0.09610994 -0.035128366 -0.07820043
000130 fe 72 f0 bc f4 da 46 3d 54 fc 23 bd be 68 a4 bd
       -0.029351708 0.048548654 -0.04003556 -0.080277905
000140 21 fd 83 bd 2c 35 e1 3b 3e 45 54 3d 62 c4 02 be
       -0.06444765 0.0068727937 0.051823847 -0.12770227
000150 81 eb 19 bd b8 c4 11 3c 3f 57 b1 bc 00 3a 54 bd
       -0.03757811 0.008896999 -0.021648047 -0.051813126
000160 f8 76 a4 bd f2 16 93 3d 40 8e cb bc 82 e8 e3 3d
       -0.08030504 0.07182111 -0.024848104 0.11128332
000170 c5 f3 77 bd 73 38 ca 3b aa 3a 1a 3d 72 ca 92 bd
       -0.06053521 0.00617128 0.037653603 -0.0716752
000180 f7 34 e6 3c 32 8b 8e 3c 66 33 aa bb 8f 52 c1 3b
       0.028101427 0.017400358 -0.0051941155 0.0058997343
000190 bf c2 1b 3d 77 0f d7 3d 62 b7 7b bc 49 b3 d8 3c
       0.03802752 0.105009966 -0.015363546 0.026452677
0001a0 90 b9 42 bc 53 b8 e5 bc 3e 46 8e bd 04 1c cd 3d
       -0.011885062 -0.028041994 -0.069469914 0.10015109
0001b0 7f e9 c3 bd cc b5 53 bd e3 e0 8a 3d 77 57 ac 3c
       -0.0956602 -0.051687047 0.06781175 0.0210378
0001c0 bb 9e 9f bd 29 5a e4 bc 06 5b be bd d5 a8 4e 3d
       -0.07793947 -0.027875023 -0.09294705 0.05045398
0001d0 2c dc 5f 3d cb e9 b8 bc c1 89 08 3e a2 f2 d6 bd
       0.05465333 -0.022572419 0.13333799 -0.10495497
0001e0 75 4d 3c be e5 f1 a6 3d 40 c6 fa bd e2 7f c4 bd
       -0.18388923 0.081516065 -0.122448444 -0.09594704
0001f0 8b 12 31 bd 3c 91 13 3d 45 1c db 3d d7 85 ee bb
       -0.043230575 0.03602718 0.10698751 -0.0072791385
000200 b9 1c 8b bc 36 06 8c bc f6 09 df bb 5d e7 22 3e
       -0.01698147 -0.017092805 -0.0068066074 0.1590857
000210 4d e7 a6 3c cd 5b 7f bd 7b 38 cf 3c af 0d 66 bc
       0.020373965 -0.062343407 0.025295487 -0.014041348
000220 e4 a7 12 3e 99 95 39 3d 07 fd 0b 3d 29 1c 13 3e
       0.14321858 0.045308683 0.034176853 0.14366211
000230 19 c9 7b 3b fd 00 91 3c 17 18 f0 bd d3 d9 44 3e
       0.0038419424 0.017700667 -0.11723345 0.19223718
000240 12 7c 25 3d c6 cd b4 3d 63 f4 2b 3e 5c b5 33 3c
       0.040401526 0.08828311 0.16792445 0.010968532
000250 65 49 85 3d a1 45 ec bd 8d 28 0b bd de 3b 2b 3d
       0.065081395 -0.11536718 -0.03397422 0.04180514
000260 de dd 06 bd a7 e0 0b bd bb 6b 41 be c6 66 50 be
       -0.032926433 -0.034149792 -0.18888752 -0.20351705
000270 06 59 c4 bd e9 01 b3 3c 47 a7 46 3c 91 34 81 bc
       -0.095872924 0.021851497 0.012124843 -0.015772136
000280 df 4d 14 bd ec 26 18 3c 59 2c ce bc e6 3a 18 be
       -0.036207076 0.009286623 -0.025167631 -0.14866218
000290 7e 7b 9d 3c 66 11 10 be 2b b9 b8 3d 35 3a 05 3b
       0.019223925 -0.14069137 0.09019693 0.0020328884
0002a0 e9 be 88 bd ea 0f 81 3c f0 2f 23 bd 09 28 cd bd
       -0.06677038 0.015754659 -0.03984064 -0.10017402
0002b0 df 21 2f 3e 6e f6 11 3d 5a 57 b3 bd b4 f8 59 3d
       0.17102765 0.035635404 -0.08756895 0.053215697
0002c0 9a d4 c4 bd 94 87 26 3e b9 50 f4 bd 11 33 d0 ba
       -0.09610863 0.16262656 -0.11929459 -0.001588436
0002d0 6f ce 70 bd 69 d2 c2 3d f7 b9 01 3d 47 50 8d 3d
       -0.05879062 0.09512789 0.03167149 0.06900077
0002e0 d1 07 18 bc 4b fd 01 3e 17 bd fd 3d ae 90 5c bc
       -0.009279207 0.1269428 0.12389582 -0.013462229
0002f0 48 e1 e9 bc 3a 38 cb 3c bb 24 48 3d c1 42 96 3d
       -0.028549805 0.024807084 0.048863154 0.07336951
000300 90 a9 12 bd bc b6 10 3d 5f c1 0e 3d 08 71 6b 3d
       -0.03580624 0.03533052 0.03485238 0.057480842
000310 04 62 03 bd 61 e4 2c 3d 60 c3 bd bd 07 c6 c9 bd
       -0.032075897 0.042209987 -0.092657804 -0.09852224
000320 b1 b4 49 3c d7 a8 38 be 74 84 18 3b 43 1c 8c 3d
       0.012311147 -0.18033157 0.0023272308 0.06841328
000330 48 56 94 bc a3 66 4a 3d ad b4 39 bd b1 eb bf 3d
       -0.018107548 0.04941429 -0.04533832 0.093711264
000340 ca 78 4c 3d 57 74 4c 3d f6 0e 98 3d 3e a9 52 bd
       0.04991988 0.049915638 0.074247286 -0.051430933
000350 96 a1 9a bc 0e 1e 85 bd 62 e7 dd 3c bc ae f6 bd
       -0.018875878 -0.06499873 0.027087871 -0.12045047
000360 ac 88 d4 3d 73 85 38 3d e4 e9 27 be 4c 6f cf bd
       0.103776306 0.045049142 -0.16397816 -0.1012865
000370 23 c9 fc 3d 6e c2 92 bd 73 7e b3 3d 0b 82 13 3d
       0.12343051 -0.07165991 0.08764353 0.03601269
000380 d7 4a 8f 3c 34 4f cb bc 20 68 87 3c 91 a0 63 bd
       0.017491741 -0.02481804 0.016529143 -0.05557305
000390 4d 86 11 bd 33 cd fb 3c e2 08 3f be b1 c5 3e bd
       -0.03552847 0.030737495 -0.18655732 -0.046575252
0003a0 ff 0c d7 3d 3e d2 f7 3c 04 dd b4 3c d0 a6 b6 3d
       0.10500526 0.030251618 0.022078045 0.08918536
0003b0 32 fb e9 3d 35 b1 00 3e e2 89 3b bc 00 6a a7 3d
       0.11424865 0.12567599 -0.011446448 0.08174515
0003c0 fc df a2 bd d8 00 10 bd 30 5e ad bb cb 1f 70 3d
       -0.07952878 -0.035157055 -0.005290769 0.05862407
0003d0 ff 6b e7 3d d0 db 3f bc bd 02 f8 3b 4d af d6 bb
       0.112998955 -0.011710122 0.007568686 -0.006551659
0003e0 ed 19 fb 3d e5 95 95 bd 07 cd 53 bc bc 64 f3 bd
       0.12260804 -0.07303981 -0.0129273 -0.11884448
0003f0 67 0d e5 bd 58 7f a8 ba 1c bd c2 bd be c4 0e 3e
       -0.11184197 -0.0012855334 -0.09508726 0.13942239

network_body._body_endoder.seq_layers.0.bias f4 [256]
000000 14 58 b7 3a cd 4e 7a 3c 2b bc 3c 3c 48 97 6c 3c
       0.0013988041 0.015277577 0.011519472 0.014440365
000010 56 04 b2 bb c0 4b ae bd 1f 21 00 bd 0f ca f0 bb
       -0.005432646 -0.08510542 -0.031281587 -0.007348306
000020 4e 65 08 bd d8 04 15 bd 09 d0 74 bc 4a 0a 1b bd
       -0.033299737 -0.036381572 -0.014942178 -0.03785161
000030 88 8c e3 bb 5e 03 07 bd b4 a7 04 3d c0 c4 ef bc
       -0.006944243 -0.032962196 0.032386497 -0.029268622
000040 e5 6e 3e bc 0a 04 14 bd 48 18 a6 bd 73 09 b9 bc
       -0.011623119 -0.036136664 -0.081101 -0.022587514
000050 d5 3d 1c bd db 13 70 bd 87 93 df 3c 89 84 e5 3c
       -0.038144905 -0.058612686 0.027292026 0.0280173
000060 d4 86 9f 3b 2d 97 ba bc 0f 35 bc 3c ce 83 ef bc
       0.0048683677 -0.022777164 0.022974519 -0.029237654
000070 bb c2 e9 bb 7c 78 0d bd 9d aa d3 3b 90 d1 8e bc
       -0.0071338094 -0.03453873 0.0064595477 -0.017433912
000080 5b a0 e3 3b 1b 6a 8d bd 30 0e 30 bd 6b b2 e4 bc
       0.006946606 -0.06905004 -0.04298228 -0.027917108
000090 ff 8d ec 3c 1a b8 48 3c 66 f0 a4 3b 0a da fc bc
       0.028876303 0.0122509245 0.0050335405 -0.030865688
0000a0 b2 78 00 bc 23 5b 0e bd d5 6d ee 3c 2b a8 42 bd
       -0.007841276 -0.034754883 0.029105106 -0.04752366
0000b0 99 26 f5 b9 7c f2 9f bc 1d 89 80 bd 54 16 0d 3c
       -0.000467588 -0.019524805 -0.06276152 0.0086112805
0000c0 cc 9e 11 bd 3a b8 73 3c c0 fd c9 ba d3 9f 33 bd
       -0.03555183 0.014875466 -0.0015410706 -0.043853592
0000d0 35 9b ee bc bd ec b6 bc 84 d4 2d 3c f9 52 82 bd
       -0.029126743 -0.022329682 0.01060975 -0.06363482
0000e0 50 c0 0c 3c 71 35 2c bc 33 d5 34 3c 84 72 55 3d
       0.008590773 -0.010510788 0.011037159 0.052111164
0000f0 2e b8 7f 3c e1 23 61 3c a8 cb d0 bc 06 0a 7c bc
       0.015607877 0.013741464 -0.025487736 -0.015383249
000100 08 64 89 3c 69 00 cb 38 71 de fa bb 65 91 45 3a
       0.016771331 9.679871e-05 -0.0076559116 0.0007536619
000110 fc 45 17 bd b8 3c 0f 3d d7 ad 77 bd 89 dc e9 bc
       -0.036931977 0.034970015 -0.06046852 -0.028547542
000120 d3 4a 89 bd be 67 da bc 27 20 e4 bb 4f 8c cf bb
       -0.06703725 -0.026660796 -0.0069618407 -0.0063338648
000130 80 b5 3a bd 0d c0 ce 3c 3a 2d 1b bc ab 10 55 bc
       -0.04558325 0.025238061 -0.009471232 -0.013004462
000140 d1 99 2b bd b9 13 ac bc 20 b2 1b bd c6 2f da bc
       -0.041894738 -0.021005498 -0.03801167 -0.026634108
000150 73 03 31 bd 52 6f dc 3b 57 22 6e 3d 1e 15 46 bd
       -0.04321618 0.0067271376 0.058138218 -0.048359983
000160 2e c9 4f bc 19 c7 17 bc 2e 8e 2e bd 81 1e 1c bd
       -0.012682242 -0.009263777 -0.042616062 -0.03811503
000170 42 13 90 3c 2b 59 e3 bc a3 9a 71 3b 1d 13 36 bc
       0.017587308 -0.02775248 0.0036865852 -0.011112955
000180 67 96 89 bd 75 c0 8b bc f3 ad 97 bc 91 66 ca 3b
       -0.0671814 -0.017059544 -0.018515563 0.0061767776
000190 cd df 5a bd 38 e0 03 bd c3 04 a1 ba 4a 63 69 3b
       -0.05343609 -0.032196254 -0.0012284744 0.003561216
0001a0 bd 9d 20 bd a5 ef 53 bd 1f eb 0e bc 8b 6a 20 bc
       -0.03921293 -0.051742215 -0.008723049 -0.009791027
0001b0 8e ba 2c bd 4b 71 c1 bc ad 77 94 3c 12 44 dd 3b
       -0.0421701 -0.023613593 0.018123472 0.0067524994
0001c0 93 1e 24 3d e5 64 f0 bc 47 81 f9 bc 07 5f bd bc
       0.04006822 -0.029344985 -0.030457152 -0.023116602
0001d0 ec 27 c6 bc 02 d1 5c 3c 60 99 d0 bc 32 c4 30 3d
       -0.024188958 0.013477566 -0.02546376 0.043155856
0001e0 33 1c 95 bc 24 46 3a bd fd bb 60 3c 8d 16 95 bd
       -0.018201923 -0.045477048 0.013716695 -0.07279692
0001f0 02 f9 66 ba 5d 72 13 3d 40 1c 01 bd d8 48 0e 3d
       -0.0008810909 0.035997737 -0.031521082 0.034737438
000200 1e 83 49 bc 7b 74 aa 3c bb 6f b1 bc c3 27 08 bd
       -0.012299327 0.020807495 -0.021659723 -0.033241045
000210 9c 86 65 bd 09 39 a9 3c ce f4 17 bd c7 5b 79 3c
       -0.056036577 0.02065708 -0.0370987 0.015219635
000220 8e 94 a6 3c 73 59 3d 3c 22 88 45 bd 02 b8 6c bd
       0.020334508 0.011556971 -0.04822553 -0.05779267
000230 a5 57 8c 3c 05 35 e5 bc fe ea c3 bc cb 93 7e bd
       0.017131636 -0.027979383 -0.023915764 -0.062152665
000240 cd a0 c3 bb 65 7b 8e bd 64 c6 9f 3c ef 6d 1e ba
       -0.0059700967 -0.069571294 0.01950378 -0.0006043603
000250 23 a3 4f bc e1 31 a2 bb 4a f4 67 bd ca fa 1d bd
       -0.012673172 -0.0049497937 -0.056629457 -0.03856925
000260 42 13 55 bd 6d 11 73 3d 7d 48 28 bd ec a5 08 bd
       -0.05202032 0.05934279 -0.041084755 -0.03336136
000270 09 79 33 bd cc 3e 03 3d 75 80 80 bd cd 43 68 bc
       -0.0438166 0.03204231 -0.06274501 -0.014176321
000280 76 ce cc 3b b2 2c ed 39 85 a0 ab bc 3f ea 28 3d
       0.006250198 0.00045237463 -0.020950565 0.04123902
000290 6e 15 9c 3b 3f 4e df bc dd f7 ad bc 49 21 27 bc
       0.004763297 -0.02725899 -0.021236354 -0.010200807
0002a0 d3 80 09 bd f1 0d 47 bd f4 05 4d 3a 87 4e fd bb
       -0.033570122 -0.04859728 0.00078210165 -0.0077303085
0002b0 8c 75 44 3b 69 eb 01 bd e1 63 6f bc ae be 58 bd
       0.002997729 -0.031718645 -0.014611215 -0.05291622
0002c0 17 84 5b bd 45 9c 32 bd 40 ab cc 3c 2e 5a d0 bc
       -0.053592768 -0.04360606 0.024984002 -0.025433626
0002d0 1c f5 19 bb 8d 8f a2 bc 2e b2 31 bb ba bf 6f bc
       -0.0023492044 -0.019843841 -0.002711426 -0.0146331135
0002e0 7e ab 8a bc 2d f5 29 bd 7b 34 7e bc 28 75 fe bc
       -0.016927477 -0.041493583 -0.015515442 -0.031061724
0002f0 d2 dc f4 bc 28 51 4a 3d 96 12 c5 bb 29 a1 93 bc
       -0.029890452 0.049393803 -0.0060141785 -0.018021183
000300 83 32 42 bd b7 47 39 3c ad 71 31 bd 8d fc 0d bd
       -0.047411453 0.011308602 -0.0433213 -0.03466468
000310 27 4b 2c 3b eb 7e 96 bd 76 63 36 bd dc 57 aa bc
       0.0026289911 -0.073484264 -0.044528447 -0.020793848
000320 c7 29 2f 3b 48 1b e7 3b d2 31 d3 3c 98 20 4d bd
       0.0026727782 0.0070528127 0.025780592 -0.050079912
000330 dc cc 33 bd 6e 8b d5 3c 39 4e 49 bd 07 4f 85 bc
       -0.04389654 0.026067462 -0.049146865 -0.016273035
000340 e8 a2 09 3c bc 5e 0f bd ee 37 9d 3c d7 b6 a7 bb
       0.008400656 -0.035002455 0.019191708 -0.0051182318
000350 6c 4c 4d bc c5 d4 06 3d a2 2b 17 bc b7 5b 1e bd
       -0.012530427 0.032917757 -0.0092267115 -0.038661685
000360 fd 0d ae bc 86 cb db bc 9a f1 a0 3c 07 bc 44 bc
       -0.021246905 -0.026830446 0.019646455 -0.01200772
000370 16 72 e7 3b 82 56 b8 bb 03 c1 e0 3b 61 20 d8 bc
       0.0070631607 -0.005625547 0.0068589463 -0.026382627
000380 65 5f 98 bc 31 00 f5 bb 33 6c fe 3c c6 07 06 bc
       -0.018600175 -0.0074768295 0.031057453 -0.008180564
000390 2c 9d fa bc 47 d6 25 bc 4c 08 06 39 7a 6a 67 3c
       -0.030592524 -0.0101218885 0.00012782327 0.014124507
0003a0 b9 14 d9 bc 35 d5 48 bd 77 e2 15 3c b1 21 00 3d
       -0.02649914 -0.049031455 0.009148232 0.03128213
0003b0 af 70 4c 3c fc 7c 3d 3d f7 29 41 bc af b2 be bc
       0.012478038 0.046261773 -0.01178979 -0.023278562
0003c0 03 79 03 bc 2f 6d d6 bc 76 8a b8 3c d5 8c 17 bd
       -0.008024457 -0.02617511 0.02252696 -0.036999542
0003d0 e0 23 1d 3d cc 53 82 bc 44 0c bc 3b 45 eb 29 bb
       0.03836429 -0.015909098 0.005738767 -0.0025927585
0003e0 98 f9 09 bd 54 1d c2 bc 8c d3 ae bc 03 eb c8 bb
       -0.033685297 -0.023695625 -0.021341108 -0.006131531
0003f0 dc db 13 3d 34 11 13 bd b0 33 a3 bc 38 ca c0 bc
       0.036098346 -0.035905078 -0.019922107 -0.023533925

network_body._body_endoder.seq_layers.2.weight f4 [256, 256]
000000 10 ee d7 3d b8 7f df bd ee b5 cd bd 3c 30 66 bd
       0.10543454 -0.10913032 -0.10044466 -0.056198344
000010 aa 6b 81 3d a7 ed cc bc 18 72 63 3d 49 a2 fe bd
       0.063193634 -0.025015665 0.05552873 -0.12433297
000020 e0 aa 04 bd aa 32 7b 3d b1 f5 9c 3d 53 6e 28 bd
       -0.03238952 0.061327614 0.076640494 -0.04112084
000030 4c 55 29 bd c5 b1 e8 bd 52 5e c8 3b 77 96 6c 3d
       -0.04134111 -0.11362032 0.0061147595 0.057760682
000040 08 c2 65 3d c0 2d c0 b9 80 b4 01 bd 74 a9 23 be
       0.056093246 -0.0003665518 -0.03166628 -0.1598261
000050 8e 84 da 3c 56 a0 30 bb 6a 57 91 3d 4e 42 8a 3d
       0.026674535 -0.0026951036 0.07096751 0.06750928
000060 2f bf a3 3b 0a 33 b8 bd ed 33 0a bd 47 63 de 3b
       0.004997156 -0.0899411 -0.033740927 0.006786737
000070 a3 be 85 bc c1 f6 6f bd 42 e1 31 3e a7 ff 7b 3d
       -0.016326254 -0.058584932 0.17371085 0.061523106
000080 80 0b 86 bd 74 1d 05 3d 34 6f 5c 3d 99 33 6a 3d
       -0.06545162 0.03249879 0.05381699 0.057178114
000090 d5 5f e4 bd 58 45 38 3c 14 76 8b 3c f6 10 75 bc
       -0.11151091 0.011247002 0.017024077 -0.014957657
0000a0 dd 61 c3 3c e5 8f 2d 3d 3f 32 17 be b7 9f 5b 3d
       0.023850376 0.042373557 -0.14765261 0.053619113
0000b0 4e 09 83 bd 92 c6 3d 3d ff 95 b2 3d a6 2c 8a 3d
       -0.06398259 0.04633195 0.08720016 0.06746797
0000c0 e6 c3 6b 3d fb 84 8b 3d c2 24 2e be b6 79 0d bd
       0.05755987 0.068124734 -0.1700621 -0.0345399
0000d0 ab 44 1b bd 27 bc ea bd 59 86 b2 bd 97 2d 32 3c
       -0.037907284 -0.114616685 -0.08717031 0.010875127
0000e0 1e f9 3e bc 7f 6d 3f 3d 7b 23 eb 3d 68 25 86 bd
       -0.011656074 0.046735283 0.11481377 -0.065501034
0000f0 29 79 88 3c 4b 77 61 bc ff 99 81 bd a3 41 01 bd
       0.016659336 -0.013761352 -0.063282005 -0.031556737
000100 ba ad 02 bd 4d c3 cb ba 22 33 6d bd 49 20 da bc
       -0.03190396 -0.0015545875 -0.057910092 -0.026626723
000110 f5 d4 9b 3c 22 ce 84 3c be ae 07 3e 05 53 a4 bc
       0.019022444 0.016211573 0.13250253 -0.020059118
000120 61 6f a2 bc cf 0e 8e 3d 65 de f2 bd e9 55 90 bd
       -0.0198285 0.06936418 -0.11858825 -0.07047636
000130 11 e1 bb bd e0 db 06 3d e7 8e 11 bd 90 f2 92 3c
       -0.091737874 0.032924533 -0.035536673 0.017937928
000140 a3 75 4d 3c 2c 56 c8 bb 69 60 54 bc ba c8 d7 bc
       0.012540254 -0.006113788 -0.012962439 -0.026340831
000150 07 c7 a0 bd 18 eb cd bc bc eb 47 bd 26 96 da 3d
       -0.078504615 -0.025136515 -0.0488088 0.1067317
000160 56 1c c1 bd 00 6a 3a bd ac a4 66 bc 17 44 bb 3d
       -0.09429233 -0.045511246 -0.014077347 0.091438465
000170 c9 63 cb 3b de 70 03 3d bf 93 08 be cf dc d0 bb
       0.0062069637 0.03209006 -0.1333761 -0.0063739787
000180 13 a0 05 3b f6 a6 b1 bd ca 8d b4 bc 8f 4f 20 3c
       0.00203896 -0.086744234 -0.022040267 0.009784593
000190 7d d4 52 3d 5f a5 68 bd 1d 5e 83 3c 82 1a 81 bb
       0.051472176 -0.056798335 0.016036088 -0.0039399276
0001a0 64 bf 7f bd 39 cb 03 3d b0 d7 f6 bc 7e 66 f2 3d
       -0.062438384 0.03217623 -0.030132145 0.11835955
0001b0 b9 da 86 bc a0 07 93 bd f7 22 fb 3c bf db eb bc
       -0.016461717 -0.07179189 0.030656321 -0.028791307
0001c0 07 c8 99 bd 80 83 a2 bd 18 ce 05 bc 05 3f 51 3d
       -0.07508855 -0.07935238 -0.008166812 0.05108549
0001d0 16 b3 38 bd 9c 98 6b 3d c4 33 04 bd d9 51 99 3d
       -0.045092665 0.057518587 -0.03227593 0.07486314
0001e0 dc 40 8d 3c a2 43 d4 bc c6 30 01 be 5c b9 7c 3d
       0.017242841 -0.025911156 -0.12616262 0.06170021
0001f0 ff 82 9b bc 77 e0 66 3d 6b 2e a2 3d 62 32 88 3d
       -0.018983362 0.05636641 0.0791901 0.06650235
000200 dd 45 20 3d ac 7d 20 bd a9 9d 9f bd bb 5e e2 bd
       0.039129127 -0.03918235 -0.07793743 -0.11053225
000210 73 8e 19 be 82 42 96 bd b6 99 12 3d c9 3f af 3c
       -0.14995746 -0.07336904 0.03579112 0.02139272
000220 45 12 05 3e e6 cf 79 3d 35 64 10 bd 4c 3f 04 bd
       0.1299525 0.060989283 -0.035251815 -0.032286927
000230 34 67 6d bc 63 d8 2c bd e8 c5 0f 3d 9d d8 8f bd
       -0.014489938 -0.04219855 0.035100847 -0.070237376
000240 0d a1 4c bb 07 00 5a 3d 44 28 4a bc 88 4e 73 bc
       -0.0031223923 0.053222682 -0.012338702 -0.014850266
000250 7c 70 6d 3c be cd c5 bd 5d a6 e2 3b f3 3e 98 bc
       0.01449215 -0.09658383 0.0069168047 -0.018584704
000260 74 63 f2 bc 0e ed 30 be 91 32 e8 bd 18 d9 cd 3c
       -0.029588439 -0.17277929 -0.1133777 0.025127932
000270 a9 37 2f bc 8e 21 50 3d 26 5e ae 3d 16 7a 4c 3d
       -0.010694423 0.05081325 0.08514051 0.049921118
000280 0c 9f 91 3c 5d df d3 bd 47 f0 0f bd d4 41 15 be
       0.017776035 -0.103453375 -0.035141256 -0.14575893
000290 23 06 ca bd d0 dc ba 3c 15 ef a8 3b 23 f6 cb 3d
       -0.09864452 0.02281037 0.005155454 0.09959056
0002a0 41 cb e2 bd c2 04 f9 3d 84 3c 81 3c b3 82 28 3d
       -0.11073924 0.121591106 0.015775926 0.04114027
0002b0 f8 22 9a bb fd 82 06 be 06 39 51 bd cf aa b1 3d
       -0.0047038756 -0.13135906 -0.051079772 0.08675157
0002c0 8e e5 02 3d 23 da a7 3b 76 7a 22 3d 4c 4b 8a 3d
       0.0319572 0.0051224395 0.03966757 0.06752643
0002d0 3d cb d4 bd 85 24 09 bc 4f b6 d5 bc 91 e2 a0 bd
       -0.10390327 -0.008370523 -0.026087908 -0.07855714
0002e0 db 5b 04 3d c6 00 ea bd a5 8b fa 3c 6c 7d 85 bd
       0.032314163 -0.11425929 0.030584166 -0.06518063
0002f0 ff 85 af 3d a0 66 f6 3c fc 0f 23 3d 2a 91 f6 bb
       0.085704796 0.030078232 0.039810166 -0.007524629
000300 81 6d 4e bd 59 70 bc 3b a0 28 53 3d bd 03 2c 3d
       -0.0503974 0.0057506976 0.051552415 0.041995753
000310 02 9e 1e 3b 2c 91 4a bd 54 d9 a2 bc ae a1 8f bd
       0.0024203067 -0.049454853 -0.01987902 -0.0701326
000320 15 51 f2 3c 0d 54 4f 3d 1f 9d 92 bd 6c 37 e2 bd
       0.029579679 0.050617266 -0.07158875 -0.11045727
000330 95 cd 71 be 80 5f 21 3d f2 9f 99 bd dd 53 bd bd
       -0.2361358 0.039397717 -0.0750121 -0.09244511
000340 3a 81 7f ba e6 aa 9c bd 77 69 30 bc 39 ac 3b 3c
       -0.0009746734 -0.07649784 -0.010767332 0.011454635
000350 2e 34 37 3c e4 6a 27 bd 52 0a ad bc f0 34 88 bd
       0.011181874 -0.040873423 -0.021123085 -0.06650722
000360 db 8b e2 39 e2 00 0c bd c9 97 2e be 9e a8 40 3c
       0.0004321028 -0.03418053 -0.17050089 0.0117589515
000370 52 15 7e bd a6 3e 88 bc 41 1c b7 3c 00 cc a3 bb
       -0.06203205 -0.016631436 0.02235234 -0.004998684
000380 ca 2b 13 3d f6 e3 a1 bd 7f c4 00 3d d8 6a b4 3c
       0.035930432 -0.07904808 0.031437393 0.022023603
000390 0f ce 92 bc e8 a5 4d bd 2e 35 75 bd c3 12 fb bb
       -0.017920522 -0.05020705 -0.05986517 -0.0076621487
0003a0 a6 40 59 3c b8 ce 4c 3d 10 2d 9e 3d 15 28 b3 3d
       0.013260042 0.05000183 0.07723439 0.087478794
0003b0 8a ac 1d bd ca 82 6e bd 1b b5 dc bc ad 99 8b bc
       -0.038494624 -0.0582302 -0.026941827 -0.017041052
0003c0 0d 1b c5 bd 98 60 e3 3b a1 b8 2c 3d 6f 91 f8 bd
       -0.096243 0.006939005 0.042168263 -0.12137114
0003d0 f6 e8 85 bd a9 bc 3f bd e0 4e 87 bd 1e 12 93 3d
       -0.065385744 -0.04681078 -0.06606841 0.0718119
0003e0 5e 47 21 bd 38 46 8f bd a5 f3 b7 bc d6 db b4 bd
       -0.0393747 -0.06995815 -0.022455046 -0.08830993
0003f0 1a 2c 16 3c cf 37 32 3c 76 4d 8b bd 4b 12 15 3d
       0.009165788 0.010877564 -0.06801884 0.0363944

network_body._body_endoder.seq_layers.2.bias f4 [256]
000000 f7 ed 28 bd a8 2e e3 bc 82 e3 2f bd 5b 5e 0a bd
       -0.041242566 -0.027732208 -0.042941578 -0.03378139
000010 78 58 c8 bc 35 45 39 bd 52 62 ff bc dd b0 80 bc
       -0.024456248 -0.045232017 -0.031174812 -0.015709335
000020 30 b6 10 bd bf 2c 9c bc a9 65 8d bc df 90 1f bd
       -0.035329998 -0.019064305 -0.01726039 -0.03895652
000030 ac 1b f4 bc 69 33 98 3c 52 c9 69 3a 9a 2f 24 bd
       -0.029798351 0.018579202 0.00089182437 -0.04008446
000040 1d f6 6a bc b0 36 34 bd 04 57 5c bd 61 a1 33 bd
       -0.014340905 -0.043997467 -0.053793922 -0.043855075
000050 04 32 ba bc bf 72 45 bd ed 45 97 bc c3 50 85 bc
       -0.022728927 -0.048205134 -0.01846596 -0.016273862
000060 49 b1 32 bd eb ee 10 bd a8 88 26 bd ce 15 63 bd
       -0.043626104 -0.0353841 -0.04065767 -0.055440716
000070 be 13 3f bd 52 78 ea 3b 73 36 34 bd 63 ae 81 bc
       -0.046649687 0.0071554566 -0.04399724 -0.015830224
000080 19 9e 2a bd 32 d0 00 bd fb ca 8d bc 1b 65 4f bd
       -0.04165468 -0.03144855 -0.017308703 -0.05063353
000090 cb ae 8a bd 97 d6 cb bc 7f 4f e6 bc 89 92 3f bd
       -0.0677162 -0.024882598 -0.028114079 -0.046770606
0000a0 f3 d5 0d bd db b7 04 bd d1 f4 1e bd 6c 17 b4 3c
       -0.034627866 -0.0324019 -0.038807694 0.021983825
0000b0 3c 2a f4 bc db 9e de bc e2 83 9e bc 47 d6 9c bc
       -0.029805295 -0.027175358 -0.019349996 -0.019145144
0000c0 97 b9 3a bd 4a aa 0d bd 0e 07 91 bc 39 16 bf bc
       -0.04558715 -0.03458623 -0.01770356 -0.023326026
0000d0 68 19 98 bc 4c c6 04 3c 7a 57 ed bc 87 f1 35 3b
       -0.018566802 0.008103918 -0.028972376 0.002776237
0000e0 c8 f3 01 bd 19 a8 bb 3a 3a 7c 39 bd 57 9c 60 3c
       -0.03172663 0.0014317065 -0.045284487 0.013709149
0000f0 85 a2 77 3b 7c b9 1d 3b 21 ed 78 bd 30 d9 44 bd
       0.0037786078 0.0024066856 -0.06077302 -0.04805869
000100 ee 26 0e bd 61 c8 d2 bc 99 1a 80 bc 26 05 3a bd
       -0.034705095 -0.025730314 -0.015637683 -0.045415066
000110 cd db 85 bd 57 34 cf bc 7d 4e 72 bc e1 1e 42 bd
       -0.06536064 -0.025293512 -0.014789221 -0.04739273
000120 08 54 76 bd a3 d1 15 bd d1 a9 0d bd 2c b0 6b bd
       -0.060138732 -0.03657688 -0.034585778 -0.057541057
000130 b2 b7 a7 bc e0 80 a5 bc 72 56 13 bd ec 9b 0f 3c
       -0.020473335 -0.020203054 -0.035971113 0.008765202
000140 5d 80 26 bd dc e2 5e bb 9a 84 c7 bc bd fe 84 bc
       -0.04064976 -0.003400973 -0.024355222 -0.01623475
000150 98 f7 3c bd 97 eb c0 bc 31 23 9c 3b 71 98 b6 bc
       -0.04613456 -0.023549838 0.0047649373 -0.022289487
000160 25 89 a0 bc 84 e3 0b bd 66 3f d6 bc f1 0a 29 bc
       -0.019596646 -0.034152523 -0.026153278 -0.01031755
000170 01 95 7a bc 8a 92 8a bd 7c e1 3f bd 60 f9 27 bd
       -0.015294314 -0.06766231 -0.046845898 -0.041009307
000180 53 61 c7 3a 09 3a 02 3c 8b e9 9c bc da d8 a0 3c
       0.00152115 0.007948407 -0.01915433 0.019634653
000190 84 dd 1f bd bd 9f a8 bc 58 d9 4d bc 80 e3 03 bd
       -0.039029613 -0.020583982 -0.012564026 -0.032199383
0001a0 ca ca 2e bc 57 97 c7 bc 29 a6 73 bd 83 a4 ea bc
       -0.010668466 -0.024364157 -0.059484635 -0.028642898
0001b0 c6 f9 e9 bc ae 29 35 bd 2f aa 30 bd 3e 92 05 bd
       -0.028561484 -0.044229202 -0.04313105 -0.03261017
0001c0 9c b6 02 bc dc e9 e4 bc 5b 89 06 bd b3 1d 1b bd
       -0.007978108 -0.027943544 -0.032845836 -0.03787012
0001d0 0f f3 81 bd 8c e9 d1 ba a9 db 6d bd e6 1b 87 bd
       -0.06345188 -0.0016015037 -0.058070812 -0.06597118
0001e0 08 a4 29 bd cc 7c 9f bc ed 9c 5d bc 34 e0 25 bd
       -0.041416198 -0.019468687 -0.013526184 -0.04049702
0001f0 29 ba 8d bc 65 d9 3c bb 89 76 ee bc b8 93 b6 bc
       -0.017300682 -0.00288161 -0.029109256 -0.022287235
000200 8f ab 72 ba 9e df 36 bd 6b 18 60 bd 1e f2 57 bd
       -0.00092571316 -0.04464685 -0.054710787 -0.052721135
000210 cd 91 35 bd 4e fb 05 bd 36 1d 65 bd 35 66 4c bd
       -0.0443285 -0.032710366 -0.05593606 -0.04990216
000220 dd d4 4b bd 14 35 a0 bc dc f0 b0 bc 25 ab a2 bb
       -0.04976355 -0.01955656 -0.021599226 -0.0049642497
000230 3c b3 d8 bc dc 27 17 bb 7d 2a 91 bc 81 f9 80 bd
       -0.026452653 -0.002306453 -0.017720455 -0.06297589
000240 66 02 33 3b 06 e4 be bc 6c 0f 21 bd dc f0 ca bc
       0.0027314662 -0.02330209 -0.039321348 -0.024773054
000250 79 ea bb ba 41 97 02 bd b7 bd 68 bc bd a7 ad 3c
       -0.0014336846 -0.03188253 -0.014205388 0.021198148
000260 f7 6e 12 bd 59 86 91 3c da 00 1d bd 50 ba b5 bc
       -0.035750356 0.017764257 -0.03833089 -0.022183567
000270 48 38 00 bd 3b c6 05 bd 15 6f 8b bd d0 10 10 bd
       -0.031303674 -0.03265975 -0.068082966 -0.035172284
000280 83 d7 41 bd ef 12 27 bd e3 ea 2d bc 1a 3d 18 bd
       -0.04732467 -0.04078954 -0.010615083 -0.037167646
000290 cb 4b 07 bd f0 08 51 bd 04 e1 51 3b ef 66 3c bd
       -0.033031266 -0.051033914 0.003202499 -0.045996603
0002a0 87 08 8f bc 50 40 be bc e3 f2 5a bc 63 40 be bc
       -0.01746012 -0.023224026 -0.013363573 -0.023224061
0002b0 3c b5 01 bd a2 e3 f9 bc 3f 4d 54 3c 6b d9 23 bd
       -0.03166698 -0.030504052 0.01295787 -0.040002268
0002c0 64 cd 10 bc 17 1b e7 bc fd fe 2e bd 6b 17 a8 bb
       -0.008838031 -0.02821116 -0.042723645 -0.0051297448
0002d0 06 8d 07 bd 7c f1 f4 bc c3 23 c4 3c df 23 5a bd
       -0.033093475 -0.029900305 0.023942834 -0.053256866
0002e0 25 da cd ba d5 5e f3 bc 4e d1 5f bd 80 1b 4b bd
       -0.0015705271 -0.029708305 -0.054642968 -0.049586773
0002f0 75 38 9b bc 2b 3e 09 bd 18 49 06 bd f7 74 ca 3b
       -0.01894782 -0.033506554 -0.03278455 0.006178494
000300 af 1d 83 bb fc 8a 21 bc e2 e4 15 bd a7 9f 4a bc
       -0.0040013413 -0.009859797 -0.036595233 -0.012367166
000310 62 8b 4a bd 36 d3 03 bc c2 b2 4a bd 00 1e 87 bc
       -0.049449332 -0.008045962 -0.049486883 -0.016493797
000320 32 c6 5e bc 26 c7 8c bd 27 c6 99 bc e5 35 2c bd
       -0.013597058 -0.06873922 -0.018771244 -0.042043585
000330 78 6b 0b bd a6 12 0b bd a4 73 d9 bc c3 34 ea bc
       -0.034038037 -0.03395333 -0.0265444 -0.028589612
000340 46 ca 50 3c 5e 72 9a b9 46 7b af 3b 76 9a 47 bc
       0.012743538 -0.0002945838 0.0053552715 -0.012182822
000350 5b 29 bc bc 69 51 ab bb 46 f4 1d bd 0c 1b f6 bc
       -0.022968939 -0.0052282107 -0.038563035 -0.030042194
000360 77 4c 7f bd 85 2a 12 bd e2 52 8c bc 6a b5 d9 bc
       -0.062328782 -0.03568508 -0.017129365 -0.026575763
000370 3d 70 18 bd 4c c8 94 bc ce a9 ef bc a9 4a 0b bd
       -0.037216414 -0.018161915 -0.029255774 -0.03400675
000380 05 c2 25 bd 53 be 98 bc e3 4b 76 bc f6 cc 0d bd
       -0.040468235 -0.018645441 -0.015032741 -0.034619294
000390 dd 92 0d bd 2e 87 ca bc ec 3d 2f bc f8 2c 1b bd
       -0.034563888 -0.024722662 -0.010695916 -0.037884682
0003a0 33 97 4f bd c5 14 44 bd fa 22 2c bd 89 58 2c bd
       -0.050681304 -0.04787137 -0.042025544 -0.04207662
0003b0 66 c1 85 bd e5 b5 bb bc b1 52 58 bc e9 02 06 bd
       -0.065310284 -0.022913883 -0.013203309 -0.03271762
0003c0 b0 92 a7 bc 9d df 08 bc cd 45 87 bc a6 f7 5f bd
       -0.020455688 -0.008354095 -0.016512776 -0.054679535
0003d0 3f 61 f1 bc 4a 57 0f bd 18 1b 31 bd 63 d0 e1 bc
       -0.029465316 -0.034995355 -0.04323873 -0.027565187
0003e0 16 cb 94 bc 30 ce 91 bd 19 47 33 bc e8 57 d3 3b
       -0.018163245 -0.07119405 -0.010942244 0.006449688
0003f0 e7 f2 d4 bc 2b 2d 86 bc bc b8 50 bd 05 45 2c bd
       -0.025994731 -0.01637896 -0.050957426 -0.04205801

action_model._discrete_distribution.branches.0.weight f4 [4, 256]
000000 b2 a0 93 bb 89 63 69 3c dc 42 b5 bb 2a ec 91 bc
       -0.0045052404 0.014244922 -0.005531652 -0.017812807
000010 5a 40 32 bc ef a9 bc bc c3 56 1e bd d9 36 14 3b
       -0.0108796 -0.02303025 -0.03865696 0.00226157
000020 68 c3 d2 bc e0 93 79 3b 79 59 e6 bc 34 9c 2d bb
       -0.025727943 0.0038082525 -0.028118836 -0.002649081
000030 a0 79 1b ba 56 a4 96 3c cd 99 53 bb 04 d0 4c bc
       -0.00059309043 0.018388908 -0.0032287717 -0.012500767
000040 a9 b5 84 3c a2 da 8a bc 85 40 ae bc 5d 3f 16 bd
       0.016199904 -0.016949955 -0.021271 -0.03668152
000050 ac e8 92 bc 55 a3 09 bc 34 4d 4a 38 a1 44 88 38
       -0.017933212 -0.008400758 4.8232454e-05 6.4977685e-05
000060 12 70 9b bc f2 01 b4 bc 0a 22 95 bb c9 86 d9 3b
       -0.018974338 -0.021973584 -0.004551177 0.006638382
000070 8e 8f 37 bc 6d f3 01 bc e9 62 19 bc a5 6c d9 3b
       -0.01120366 -0.007931572 -0.009361961 0.006635266
000080 27 2d 61 bb 80 eb 4a bc 5a 15 4d 3c 13 c1 4a bc
       -0.0034359188 -0.012385249 0.012517298 -0.012375134
000090 6e d9 85 bc 95 f9 a9 ba 0e fa 26 3c fc 37 eb 3b
       -0.01633903 -0.0012968058 0.010191454 0.0071783047
0000a0 9f af aa bb 31 47 49 bb 15 1b 9d bc 2f 94 75 3c
       -0.005208924 -0.00307126 -0.019177953 0.014988943
0000b0 25 af 71 bb 0c 6a c0 3c c0 f3 42 bc ad 71 2c 3c
       -0.0036878076 0.023488067 -0.011898935 0.010525149
0000c0 f1 6b ea bc 69 ba 64 bc a8 96 91 3c d4 9b a5 bc
       -0.028615924 -0.013960459 0.017772034 -0.020215906
0000d0 17 80 94 bb 9c da 6e 3c 64 80 d2 ba 7a 72 a2 bb
       -0.004531871 0.014578488 -0.0016059992 -0.0049574943
0000e0 d5 d5 98 bc d1 0a 80 bb 1f f7 9e bc 40 df a6 3c
       -0.01865665 -0.0039075394 -0.019404946 0.020370126
0000f0 40 6b eb 3b 96 5f 3b 3c e2 23 41 bc 0d fa 5d bc
       0.007184416 0.011436364 -0.01178834 -0.013548386
000100 77 9b 8f bc 02 1f 27 ba d0 57 86 3b 93 9d 59 bc
       -0.017530186 -0.0006375165 0.0040998235 -0.0132821975
000110 76 6c 83 bc ac 40 da bc c7 b9 05 bc af e4 44 bc
       -0.01604293 -0.026642166 -0.008161969 -0.012017413
000120 1d 84 8f bc be 24 e6 bc 4e 05 96 bc 14 4f a3 bb
       -0.017519051 -0.028093692 -0.018313076 -0.004983792
000130 31 ef be 3c a6 63 36 bc 56 32 e8 bc fe d7 93 bc
       0.023307415 -0.0111321565 -0.028344315 -0.018047329
000140 cf a8 25 bc 55 d6 df 3a 29 49 47 bc fb fe 3b bc
       -0.010111048 0.0017077426 -0.012163439 -0.011474366
000150 7e 85 ae bc 66 cb dd bc 1d f6 af 3b 38 25 45 bc
       -0.021303888 -0.027074527 0.005369915 -0.012032799
000160 a5 99 11 bc 2a 1a 92 bb ea 89 4f bc d3 62 f3 bb
       -0.008886729 -0.0044586854 -0.012667159 -0.0074275522
000170 7f 38 9e bc 2a bc 3c bc 4b 5e d7 bc b2 53 43 3a
       -0.019314049 -0.011519471 -0.02629008 0.0007451131
000180 9b 24 08 3c 82 ff 61 3c 04 2c 01 ba 90 12 a4 3c
       0.008309509 0.013793828 -0.00049275183 0.020028383
000190 6e d8 eb bc 8a b1 05 bb ff 8f 29 bc 2d 1a e3 bc
       -0.028789725 -0.002040001 -0.010349273 -0.027722443
0001a0 78 1c aa ba f1 47 8f bc 03 cf 61 bc 0d 82 b1 bc
       -0.0012978455 -0.017490359 -0.013782266 -0.021668458
0001b0 8a 20 bc bc 6e 63 dc 3b a4 a7 c9 bb 31 34 c6 bc
       -0.022964735 0.00672572 -0.0061540175 -0.024194809
0001c0 4b 4b 98 3b af 94 e6 ba c3 0f b2 bc 44 9f eb bb
       0.0046476475 -0.0017591919 -0.021736031 -0.007190617
0001d0 94 14 d0 3b 13 16 fd 3b c1 78 a6 bc 0d 98 10 bc
       0.0063501094 0.0077235787 -0.020321252 -0.008825314
0001e0 01 f8 92 bb cc 0b bd bc 14 af 0e 3c 54 8a 86 bc
       -0.004485131 -0.023076914 0.008708734 -0.016423382
0001f0 34 bb 44 39 2c 90 55 3b 65 80 90 bb 25 59 fa 3a
       0.00018761755 0.0032587154 -0.004409837 0.0019100053
000200 fb e4 8a bb 1f d7 08 3c 25 3b 99 bc aa 57 3e bc
       -0.0042387224 0.00835207 -0.01870496 -0.01161758
000210 50 f3 53 bc bc 4c 87 3a bc f2 bb bb 7e 82 93 bc
       -0.012936428 0.0010322551 -0.0057357233 -0.01800656
000220 1d 86 bc 39 bb b5 a4 bc d2 9f 91 bb d9 b9 71 3c
       0.00035958076 -0.020106187 -0.004444101 0.014753782
000230 09 ec 6d bb fd b2 9e 3b a5 ef 61 bb 37 c1 69 bb
       -0.0036304018 0.0048431144 -0.0034475115 -0.0035668144
000240 93 03 61 3c 8f d8 11 bb 4e eb 0c bd ca 8d 0b 39
       0.013733762 -0.0022254323 -0.03440409 0.00013308894
000250 6e 68 d5 bc 2a dc de bb 9f 38 18 3c 73 52 a4 3c
       -0.026050773 -0.006801148 0.009290843 0.020058846
000260 97 41 80 bc b8 20 d4 3b 32 6f 1a bc d4 9e 88 3b
       -0.015656276 0.006473627 -0.009425925 0.0041693244
000270 a4 bf 4f 3b 97 6a 5a bc 5c 4f ce bc bf d5 3c bc
       0.003169992 -0.013331077 -0.025184326 -0.01152557
000280 26 fb df bb e1 7d 99 bc a2 2b b2 bc af ac 1a bc
       -0.006835359 -0.018736782 -0.021749321 -0.009440585
000290 01 8b c1 bb 0f f0 7d bc 29 26 93 bc b6 f3 d0 bc
       -0.005906463 -0.015499129 -0.017962532 -0.025506835
0002a0 2d 7c 86 bc 53 0d cf 3b 8f 41 8f bc 5e 7b 8a bc
       -0.016416634 0.006318727 -0.017487315 -0.01690453
0002b0 48 4c 3f bc 5f 6b 38 ba 1d 07 b2 3c e4 29 d0 bb
       -0.011675902 -0.00070350425 0.021731908 -0.00635265
0002c0 f3 ad e1 3c ba 7c 76 bc e0 21 8c bc 0e 01 93 3a
       0.027548766 -0.015044386 -0.017105997 0.0011215524
0002d0 11 d0 f9 bc cc a2 9a bc bd a7 94 bb 18 15 34 bb
       -0.030494722 -0.018876456 -0.0045365975 -0.0027478393
0002e0 cd de 37 3c 3a 95 5b bc 99 fd 8f bc e4 7c c8 bb
       0.011222553 -0.013402278 -0.01757698 -0.0061184037
0002f0 ba a1 fa bb c9 59 09 3a b3 0f b5 bc b2 86 28 bc
       -0.007648674 0.0005239514 -0.022102213 -0.01028602
000300 38 3f 96 bb b3 d0 b3 3b ad 1e b9 bc 6c 7a 02 bc
       -0.004585173 0.0054875254 -0.022597635 -0.007963758
000310 3e ae b8 3b 17 86 6e 3c bb 81 3d ba 77 45 eb ba
       0.0056360057 0.014558337 -0.0007229109 -0.0017949779
000320 f8 e5 20 3c 80 13 f8 bc ce 8d 43 bc 7e 7f cf bb
       0.009820454 -0.030282736 -0.011935664 -0.006332337
000330 cf 81 dc bb f5 1a 48 bb e8 4e 92 3c e8 42 11 3c
       -0.0067293416 -0.0030533646 0.017859891 0.008866049
000340 1a f2 27 bc 91 a9 b3 bb 56 36 64 3c 22 41 07 bc
       -0.010250593 -0.0054828604 0.01392897 -0.008255275
000350 34 82 cf bb 36 2a 0f bc 1e 44 41 bc 56 4e 8b bc
       -0.00633266 -0.008738091 -0.011796026 -0.017005127
000360 02 22 e7 bb a0 e5 94 bc 09 46 3d 3b 31 72 a2 bc
       -0.0070536146 -0.0181759 0.0028880856 -0.019829841
000370 e9 37 80 39 33 b5 44 bc a7 bc ff bb cb 1a 67 bb
       0.0002445572 -0.012006092 -0.0078044715 -0.0035263773
000380 79 03 5b ba 82 6a 3d 3b e4 7c 25 bc 16 c9 01 bd
       -0.00083547045 0.0028902595 -0.010100577 -0.03168591
000390 fd e6 fe ba a7 12 d1 ba df b0 8d bc 43 ef 3a bc
       -0.0019447502 -0.0015950993 -0.017296253 -0.0114095835
0003a0 81 9c 8c 3a 52 e6 aa bc ca 6d 1e bc 9c 18 11 bd
       0.0010727794 -0.020861778 -0.00966973 -0.03542386
0003b0 f7 a4 bb bb 30 e4 e2 bc 02 aa 87 3a 8c c8 86 bc
       -0.0057264525 -0.027696699 0.0010350349 -0.01645305
0003c0 d9 11 8e bb de 15 61 bc dd 17 6c bc 59 66 e6 3b
       -0.0043356237 -0.013738124 -0.014409986 0.0070312438
0003d0 33 17 af 3b 6e 46 9a bc 99 95 30 bd fe 74 43 3c
       0.0053433417 -0.018832412 -0.043111417 0.011929749
0003e0 c6 f4 33 bc 3f 40 de bc 6c 9d 3f 3c c3 92 c3 bb
       -0.0109836515 -0.027130244 0.011695247 -0.005968423
0003f0 18 6c 2d 3a fa 07 4f bc 9a b0 23 bc 20 ca 68 bc
       0.00066155335 -0.012636179 -0.009990836 -0.014208347

action_model._discrete_distribution.branches.0.bias f4 [4]
000000 6d 49 b3 3c aa 89 96 bd a6 22 cf 3c 10 7a cd 3c
       0.021885598 -0.07350476 0.025285076 0.025082618

action_model._discrete_distribution.branches.1.weight f4 [3, 256]
000000 25 d7 44 bc 98 ee f4 3b 7d 9f 5a bb d9 a1 a9 bb
       -0.012014185 0.0074747317 -0.0033359223 -0.0051767644
000010 ce 3a b9 3c 2a b9 2d bb e3 23 ba 3a 18 2d 2c 3b
       0.022611048 -0.0026508071 0.0014201369 0.0026271995
000020 cb cf 28 3a 16 9e c3 38 49 51 ea 3b ed 76 74 bc
       0.0006439655 9.3277704e-05 0.007150803 -0.014920932
000030 a5 be ef bb 95 9f 9b bb 4e 84 e1 3b 67 75 34 bc
       -0.007316428 -0.0047492483 0.006882227 -0.011014319
000040 85 13 b1 bb c3 c4 a8 bc ed 3b 00 3c 49 7c c2 bc
       -0.0054039382 -0.020601636 0.007826787 -0.023740904
000050 69 b7 73 3b 12 f1 fb 3c 2d 22 d1 3b 4b cd 58 3a
       0.0037188178 0.0307546 0.006382248 0.0008270337
000060 24 51 dd bb 78 9c 8f bb 9f 19 32 bb c4 85 e9 bb
       -0.0067540575 -0.004382666 -0.0027175916 -0.007126542
000070 b7 3f a8 3c dc 93 47 3c 30 39 75 bc 07 59 d7 3b
       0.020538194 0.0121812485 -0.014967248 0.006571892
000080 ab 73 d7 3c 02 2d e9 bb dc cb 50 ba 33 7a 00 3b
       0.026300272 -0.007115961 -0.0007964948 0.0019604086
000090 42 b1 5c bc 4a d3 93 3c 0b aa a8 3b cd b3 95 bc
       -0.013469996 0.018045086 0.005147224 -0.018274212
0000a0 bb e2 44 bb a8 db 8f 3b 41 83 ab bc b4 11 94 3b
       -0.0030042368 0.0043901987 -0.02093661 0.004518712
0000b0 3f 5f 99 3b a5 b3 44 3c c9 4b 70 3c 87 ca 55 3c
       0.0046805437 0.012005721 0.014666506 0.013048775
0000c0 31 58 21 bd 74 0f 88 bc b1 71 fa 3c 51 46 94 3c
       -0.039390747 -0.016608931 0.03057179 0.018099936
0000d0 21 7b b5 3b 28 39 23 3c a3 91 30 bb 68 3e 9d 3b
       0.0055383598 0.009962358 -0.0026942275 0.004798699
0000e0 9d 54 8f 3c 82 b6 9e 3c a5 92 4f bc e0 50 a6 3b
       0.017496401 0.019374136 -0.01266924 0.005075559
0000f0 68 05 be 3a 69 50 82 3b 6d a8 7b bc 57 12 02 bc
       0.0014497461 0.003976871 -0.01535998 -0.007938943
000100 f5 6a 35 bc 3d ef 5c bb f5 98 44 ba c5 9c 44 3a
       -0.011072864 -0.0033711933 -0.0007499599 0.0007500167
000110 db 65 5b ba 6c 9d 4f 3b 10 ad 93 bc 9e 93 e9 3a
       -0.00083693647 0.0031679524 -0.018026859 0.0017820483
000120 0e 7f 23 bc 24 a6 56 bb 64 fa 87 3b fd c1 b6 bb
       -0.009979023 -0.0032752836 0.004149722 -0.0055773244
000130 29 16 f7 3b ef bc 05 bb 5e 18 f4 bb ca 73 37 bb
       0.0075404835 -0.0020406803 -0.007449194 -0.00279926
000140 6d ef b7 3b 0d 1e 20 3c d0 d0 d1 3b d0 ed 9f 3c
       0.0056132586 0.00977279 0.006403066 0.019522578
000150 5c 70 f6 bb 02 eb a8 3c 70 c1 11 bb d4 32 14 bb
       -0.0075207185 0.020619873 -0.0022240542 -0.0022613304
000160 f4 54 3e bc a2 69 e6 bb 49 9d e0 3b a9 43 0c 3d
       -0.011616934 -0.0070316354 0.0068546874 0.034244213
000170 b5 5c e5 3b 2d 6e 0d bb 5e db 87 bc 42 ca 35 bb
       0.006999577 -0.0021580562 -0.016584095 -0.0027738963
000180 06 92 16 3c 00 d2 ce 3c 8f 06 e9 ba 1c 71 29 3c
       0.009190088 0.02524662 -0.0017778444 0.010341909
000190 e4 b1 5c bc 84 05 6d 3b b5 bf f8 3c 90 ed 5d bb
       -0.013470147 0.0036166618 0.03036485 -0.0033863522
0001a0 8e 6a 18 3c 9f f8 1b 3d 52 28 cf bb ab 03 8f bc
       0.009302748 0.0380789 -0.006321945 -0.017457804
0001b0 3d 92 cc 3b 73 39 5e bc c3 7b 17 bc 77 00 a6 3b
       0.006243019 -0.013563502 -0.009245816 0.0050659734
0001c0 c7 04 0d 3d 91 b9 75 bb 1d 28 8c 3b be 4e 28 3c
       0.034428384 -0.003749464 0.004277243 0.01027268
0001d0 00 3f 08 bc 20 ce a2 3b 46 fe 9c bc e7 e1 a8 3b
       -0.008315802 0.0049684197 -0.019164216 0.005153883
0001e0 af 06 f8 bb c1 7f a8 bb 3b 55 f3 bb 82 c6 53 bb
       -0.007569156 -0.0051421826 -0.0074259317 -0.0032314365
0001f0 b6 88 36 3c dd b4 1c 3b fa 81 82 3c 13 a4 41 3c
       0.011140993 0.0023911514 0.015931118 0.0118189035
000200 25 55 ac 3b fd c0 18 3c b9 61 21 bb ad 5c df 3b
       0.0052591735 0.009323356 -0.0024624898 0.0068164677
000210 f4 8f a9 bb b9 aa 8e 39 8f 33 a9 bb d5 d3 5d 3c
       -0.0051746313 0.0002721155 -0.005163617 0.013539274
000220 a8 44 ae bc f0 5d 06 bb 7f 50 c0 bb 28 0c 94 bb
       -0.021272972 -0.0020502768 -0.005868971 -0.0045180507
000230 08 70 57 bb 74 7c 47 3a 76 b7 4d 3b 95 8f 29 bc
       -0.0032873172 0.00076097925 0.0031389869 -0.010349174
000240 58 ad 53 3c cf ed 8e 3b 10 a8 5d bb 2c 1b 61 bb
       0.012919746 0.004361845 -0.0033822097 -0.003434847
000250 72 2e ad 3b 3e 0a 7f 3a e2 0c a2 bb dc dd c2 bb
       0.0052850777 0.0009729004 -0.0049453834 -0.005946858
000260 b8 ea 47 bb da 37 89 3c de 83 b6 ba 74 5e d6 38
       -0.0030504894 0.016750265 -0.0013924798 0.000102219085
000270 51 00 32 bc 65 3d c2 3b 33 1f be ba aa 1b 2c ba
       -0.010864333 0.005927729 -0.0014505148 -0.00065654016
000280 53 7c 1c bc ee 45 99 ba f0 06 2d 3b 18 a6 81 bc
       -0.009551126 -0.0011693814 0.002640184 -0.01582627
000290 6b f3 9b 3b 29 82 9a bc c0 ac a9 3c 5a 94 0c 3b
       0.0047592423 -0.018860893 0.020712256 0.002145073
0002a0 86 ff b8 3c 9f 5f ef 3b e7 2b 1e 3a 02 be 4b 3b
       0.02258278 0.0073051 0.00060337636 0.0031088595
0002b0 a3 d1 3a 3c 40 20 ae 3b e4 d1 b4 3b c4 40 33 3c
       0.01140252 0.005313903 0.005518185 0.010940734
0002c0 18 15 b2 3b 11 4a 38 bb 95 f4 36 bd de 0f 5c 3c
       0.0054346435 -0.002812032 -0.044666845 0.013431517
0002d0 31 5c f8 3a 1e af 5c bc f8 ce 82 bb c0 72 36 bb
       0.0018948374 -0.013469486 -0.0039919578 -0.0027839392
0002e0 0e 1d 75 3c 3d f8 38 bb b3 88 9f 39 c0 c1 25 3b
       0.01496054 -0.0028224133 0.00030428692 0.0025292486
0002f0 6c 49 ec 3b 77 8a 35 3b 1d 6f 05 bc 92 d5 c5 bb
       0.007210901 0.002770094 -0.008144167 -0.0060374225
000300 c4 b6 1c 3b d2 63 de bb 74 3f cb bc 55 b4 6a bb
       0.0023912648 -0.006786802 -0.02481053 -0.0035813053
000310 dc 61 42 bc 99 5a 8b bb 3b 87 08 bc 43 09 00 3a
       -0.011864152 -0.0042527434 -0.008333023 0.00048841926
000320 41 45 e5 3c 8d e9 51 bb 98 51 f4 3b 50 5e bf ba
       0.027987124 -0.0032030076 0.007456016 -0.0014600251
000330 7b 8e 3f bb 7d d2 1f 3c 76 45 24 3b 6b 22 60 3c
       -0.0029229212 0.009754774 0.0025065816 0.013680081
000340 ec 69 0f 3d 12 f8 60 3b 62 35 d4 bb e3 87 27 3a
       0.035013124 0.003432755 -0.0064760903 0.0006390793
000350 90 b7 0e ba 3f ff 98 3b 33 d5 18 3c 02 e9 21 3c
       -0.0005444223 0.0046690996 0.009328174 0.009882214
000360 1d a4 b1 3b b0 c3 26 bc 6e ff 3a 3b 41 b3 86 bb
       0.005421175 -0.0101784915 0.0028533596 -0.004110724
000370 b9 6c 47 3b 83 f2 4d bb 8c e4 2e bc df 85 d7 bb
       0.0030429794 -0.0031425066 -0.010674607 -0.006577238
000380 8c 7a 2b bc 01 67 eb 3b c9 ce 97 bb 88 26 1c 3c
       -0.010466229 0.00718391 -0.004632805 0.009530671
000390 c0 80 6a 3c 83 e7 52 3c 10 48 fe 3b 45 dc 5a 3c
       0.014312923 0.0128725795 0.0077600554 0.01335818
0003a0 74 55 f8 bb b6 1a 88 b9 23 43 16 3b 5a 3d 7d bc
       -0.007578546 -0.00025959843 0.00229282 -0.015456522
0003b0 40 f5 c2 bb e2 3d 05 3c d2 88 7d bb 48 6f 11 bc
       -0.0059496462 0.00813243 -0.0038686288 -0.008876629
0003c0 ba 91 c0 3b 93 3a 3f ba 4d db 3b 3c 54 23 92 bb
       0.005876747 -0.00072948 0.01146586 -0.004459778
0003d0 43 be 7c 3c 98 6c 4e ba 71 81 3c 3a 1a 43 ca bb
       0.015426221 -0.0007874458 0.0007190919 -0.00617255
0003e0 ec cd bd 3a ec a1 08 bc c7 f7 93 39 2c 58 f7 3b
       0.0014480925 -0.008339386 0.00028222633 0.0075483527
0003f0 26 58 72 3c 95 d4 c4 bb 71 96 b3 b9 1a 08 34 3b
       0.014791524 -0.006006787 -0.00034253628 0.002747065

action_model._discrete_distribution.branches.1.bias f4 [3]
000000 04 b3 b0 3b c3 65 68 ba 9a f1 8a bb
       0.005392434 -0.00088652613 -0.004240227

onnx::Div_98 f4 [45]
000000 2d 04 96 3c bd d6 01 3e 1b 8c 8c 3e 36 21 eb 3e
       0.018312538 0.12679572 0.27450642 0.45923775
000010 9e a5 76 3e 66 ed 3e 3d c5 36 9a 3e ce 63 93 3e
       0.24086615 0.04661312 0.3011991 0.28787082
000020 fc b3 e5 3e 6d d4 81 3e 6b f1 1a 3d 65 ea 7d 3e
       0.4486388 0.2535738 0.03782789 0.24796446
000030 0d d7 7c 3e 07 27 e7 3e 22 7d 71 3e b3 2f 88 3d
       0.2469141 0.45146963 0.2358289 0.06649723
000040 eb 27 c6 3e c5 bb aa 3e e5 d8 b5 3e 67 ef 7e 3e
       0.3870233 0.33346382 0.3551704 0.24896012
000050 da ab 1b 3d f8 d3 99 3e 02 69 87 3e b0 e5 c4 3e
       0.038005687 0.30044532 0.26447302 0.38456488
000060 92 64 66 3e 71 46 69 3d c5 07 c9 3e 60 1a c2 3e
       0.22499302 0.056951944 0.3926374 0.37910748
000070 1a a0 d0 3d b7 ea 49 3e 2f 5e c1 3c 60 29 80 3e
       0.10186787 0.19718443 0.02360448 0.25031567
000080 6a d2 b1 3e 30 b9 10 3e f7 c3 40 3e 0c 5e 39 3a
       0.34730846 0.14133143 0.18824755 0.0007071204
000090 9c f0 c2 3d 54 d9 a6 3e 0b 3f 5e 3b a3 93 33 3e
       0.09518549 0.32587683 0.0033912088 0.17536788
0000a0 20 01 ea 3b 2d 5d 8a 3d 0d 2a a9 3e 0c 5e 39 3a
       0.0071412474 0.06756053 0.33039895 0.0007071204
0000b0 b3 7c 33 3e
       0.17528038

onnx::Div_101 f4 [21]
000000 b3 b6 45 3e 13 10 f5 3e 69 41 12 3e 16 33 54 3e
       0.19307975 0.47863826 0.14282764 0.20722613
000010 75 02 f3 3e f8 e2 1b 3e 9b d1 4c 3e 54 4b f0 3e
       0.47462812 0.152233 0.20001833 0.4693247
000020 1d 23 19 3e 0d 8a 6d 3e 47 af f0 3e b6 32 3a 3e
       0.14954801 0.23197193 0.47008726 0.18183407
000030 1a ed 33 3e 58 de ed 3e 00 8b 24 3e 45 4e 41 3e
       0.17570916 0.46458697 0.1606865 0.18877514
000040 8c 24 e0 3e 13 51 48 3e dd 32 7a 3e 38 cc e1 3e
       0.43777883 0.19562177 0.24433465 0.4410112
000050 08 72 36 3e
       0.17816937
