Usable_Data/Versuch_3-2/PKWParking/PKWParking-7999983.onnx (onnx, 468050 bytes, 15 tensors)

discrete_act_size_vector f4 [1, 2]
00000000: 0000 8040 0000 4040
4.0 3.0

network_body.observation_encoder.processors.0.normalizer.running_mean f4 [35]
00000000: 128c 8b3c bc53 c934 0648 633d 0a6f 6d3f
00000010: 56ae 763f 060f 203d 0000 0000 0cc8 013d
00000020: 73da 6d3f 711c 773f 958b fe3c b937 0634
00000030: ded9 333d 99cb 6c3f cda8 763f e383 873d
00000040: 0000 0000 294a 7e3d 530d 5f3f dffc 6c3f
00000050: 8182 843d 0000 0000 bcb6 853d 4973 5e3f
00000060: 6436 6e3f 4b4a b53d 0000 0000 dcf7 743d
00000070: cacf 593f 55be 693f de5a a23d 0000 0000
00000080: c99a ac3d 2577 553f bc1c 6a3f
0.017034564 3.7500092e-07 0.05548861 0.9274756 0.96359766 0.039076827 0.0 0.03168492
0.9291145 0.96527773 0.031072417 1.2499994e-07 0.043908946 0.92498165 0.9635132 0.06616952
0.0 0.062082443 0.87129706 0.9257335 0.06470204 0.0 0.065289944 0.8689466
0.93051744 0.08852061 0.0 0.05980669 0.85082686 0.9130605 0.07927488 0.0
0.084279604 0.83384925 0.91450095

network_body.observation_encoder.processors.1.normalizer.running_mean f4 [135]
00000000: a78c b838 bb75 1c3d d59c b33e bcf9 153f
00000010: aa26 523f b2f1 d339 e7db 0f3e ca19 973e
00000020: 37f2 0a3f 193c 503f 9211 0b39 6fd9 df3d
00000030: 3be2 833e 499e 1b3f f043 5d3f 6420 ec39
00000040: 3088 463e 08fc e93d a79f 283f ff1d 583f
00000050: e698 1e39 ab3c 503e eda0 a93d cdb6 2a3f
00000060: 90bb 653f 00ee eb39 91fb 513e ead1 6a3c
00000070: 320a 433f 98fd 613f 5f06 1d39 9533 f13d
00000080: 1aa1 713c 929d 573f dc2f 743f 0000 0000
00000090: 4f0e 013e 3142 3238 2bc8 5e3f 575d 783f
000000a0: 1fdc 1e38 4599 303c a50f 6c39 1072 7c3f
000000b0: c278 7e3f 25dc b938 d97f 1c3d 1ab4 b33e
000000c0: b936 163f f96a 523f df77 d439 69dd 0f3e
000000d0: 792b 973e 1b31 0b3f ea82 503f 29b9 0b39
000000e0: 29df df3d 59f6 833e c6da 1b3f 9789 5d3f
000000f0: b7fa ec39 da89 463e d51b ea3d 7ce1 283f
00000100: 6c66 583f 3b62 1f39 a63e 503e 66c6 a93d
00000110: 2cf8 2a3f 7d02 663f fea6 ec39 56fd 513e
00000120: c6f6 6a3c 3453 433f d548 623f 06ae 1d39
00000130: dd36 f13d 66cc 713c 3ee8 573f a97c 743f
00000140: 0000 0000 570f 013e 3342 3238 b612 5f3f
00000150: 64a8 783f 1ddc 1e38 13a6 303c 2031 6c39
00000160: d8b4 7c3f fbb7 7e3f f92b bb38 dc89 1c3d
00000170: 4acb b33e 2073 163f b6b0 523f 46ed d439
00000180: dfde 0f3e 0e3e 973e b76f 0b3f 2dc9 503f
00000190: d460 0c39 e9e4 df3d bd0a 843e cf17 1c3f
000001a0: 1fd1 5d3f d4e5 ed39 3b8b 463e c239 ea3d
000001b0: 8623 293f bbad 583f 284d 2039 de40 503e
000001c0: aeeb a93d d238 2b3f af4b 663f 0c70 ed39
000001d0: 23ff 513e f71b 6b3c 7e9a 433f f192 623f
000001e0: 5e77 1e39 f639 f13d 83f8 713c 4730 583f
000001f0: f6c5 743f 0000 0000 8910 013e 3142 3238
00000200: 025e 5f3f 73f1 783f 23dc 1e38 9db4 303c
00000210: 9052 6c39 1a03 7d3f b904 7f3f
8.800002e-05 0.038198214 0.3508059 0.5858419 0.82090247 0.00040425133 0.1404873 0.29511863
0.5427584 0.813417 0.00013262618 0.10930144 0.25758538 0.607884 0.8643179 0.0004503756
0.19387889 0.11425024 0.6586861 0.8442077 0.00015125013 0.20335643 0.08282647 0.6668518
0.8973932 0.00045000017 0.20506121 0.014332274 0.7618743 0.8827758 0.0001497506 0.117774166
0.014747882 0.8422481 0.9538553 0.0 0.12603115 4.2500153e-05 0.8702418 0.97017425
3.787514e-05 0.01077873 0.00022512542 0.98611546 0.9940301 8.8624925e-05 0.038207863 0.35098344
0.5867725 0.8219448 0.00040525102 0.14049305 0.29525355 0.54371804 0.8144976 0.0001332505
0.10931236 0.25773886 0.60880697 0.8653807 0.00045200225 0.19388524 0.1143109 0.6596906
0.84531283 0.00015200015 0.20336398 0.082897946 0.6678493 0.89847547 0.00045137847 0.20506796
0.014341062 0.7629883 0.8839238 0.00015037516 0.117780425 0.014758205 0.8433875 0.95502716
0.0 0.12603508 4.250016e-05 0.87137926 0.97131944 3.7875132e-05 0.010781783 0.00022525014
0.98713446 0.9949948 8.9250454e-05 0.03821741 0.35116035 0.58769417 0.8230089 0.00040612574
0.14049862 0.2953953 0.5446734 0.8155697 0.00013387512 0.10932333 0.25789443 0.6097383
0.8664722 0.00045375398 0.1938905 0.11436798 0.6606983 0.8464009 0.00015287532 0.20337245
0.082969055 0.66883576 0.89959234 0.00045287644 0.20507483 0.014349929 0.7640761 0.88505465
0.00015112522 0.11778633 0.0147687225 0.84448665 0.95614564 0.0 0.12603964 4.2500153e-05
0.8725282 0.9724342 3.7875154e-05 0.010785249 0.00022537471 0.9883286 0.9961658

network_body.observation_encoder.processors.2.normalizer.running_mean f4 [11]
00000000: 0cff 7f3f 01f1 b23e 89b6 b33d 4f4a 013f
00000010: 0000 0000 573f 073f 9fb6 db3e b1d7 813e
00000020: a7a8 9f3d 2af1 153d 9928 5c3e
0.99998546 0.34949496 0.0877505 0.5050401 0.0 0.52831024 0.42912766 0.25359872
0.0779584 0.036606945 0.21499862

network_body._body_endoder.seq_layers.0.weight f4 [256, 181]
00000000: 1431 023e 3060 683e 9afa 6bbe 9784 383d
00000010: 1cd3 98bd 4211 3e3e aa0e d8bd 759c 023d
00000020: 93d3 363d a9a4 cfbd b905 63bd 513c 17bd
00000030: 04ed 56bc d528 9cbc be0f 743e e0a3 643e
00000040: 8e15 dcbb 3000 81be 4766 e0bb e0b9 383b
00000050: 0bf0 d6bd 091c 3a3d b585 133d 6f65 0fbd
00000060: 4e58 16be 2342 143d b336 c0bb a6e6 13be
00000070: c4e9 243e 3ecb dd3c e1be 91bd aa6c 25bb
00000080: 7d58 163d ef92 a3bd 823c b0bd e712 293d
00000090: b770 be3d 00c2 e9bc ca2d bebd 3663 053d
000000a0: d76e ae3c edb9 403e 4e20 e2bd 5bfc cf3a
000000b0: d684 733d c056 16be 755e 1b3c c123 80bd
000000c0: 3d5a f73c ed81 88bc 10ee fe3d ea67 2bbd
000000d0: 31fe 143e 710c 13bd 94a9 e03d 333c c5bc
000000e0: 0490 51bd 5278 ffbd 6a26 753d 3913 9e3a
000000f0: 7a71 72bd ece0 46bd 43a8 2e3e a220 0e3d
00000100: fdb8 133e 52ab 043e 9722 143d c64a 94bd
00000110: ba94 55bd 228f 113d e080 d5bc 9d0f ffbd
00000120: 406a eabc 764f 2b3d f59d 13bd 2b1c 433c
00000130: abde 8a3d 9cc6 ac3d 6e82 37bd d4dd d9bd
00000140: 25a8 423d f51a 0a3d ecb7 8dbc 011b e1bd
00000150: 5e9e af3d 72d8 04bd cbd4 c8bd 700a 2ebd
00000160: e895 fcbc 0a79 1a3e 1d82 f13c 6f3a 00bc
00000170: db98 bcbc 9397 9d3d 4476 aabd b2ee 6e3d
00000180: f895 113d 11db bbbc 5629 8b3d 4a44 013e
00000190: 590f 61be 479d 3cbc 992d 22be 3982 6c3d
000001a0: 7231 8bbd 7d18 413d ca42 89bd 548f 33b8
000001b0: e505 6a3d 5079 743c b088 02be 0e5d ac3d
000001c0: db99 01bd d673 bd3d cc15 14be 4185 c6bc
000001d0: fb23 bc3d cc0d 1abd 728b 36bd b9a0 16be
000001e0: 9000 07be 4642 2bbd 9b33 fd3d 53da 5e3d
000001f0: c923 cbbd 375c 13bc 2df6 843e b971 df3d
00000200: e8cd 09be 7beb 553b 60db b33b a9b3 ccbd
00000210: d1f1 26be 14e7 e63d 3e8c fe3d 5491 d83c
00000220: f0e5 693c e8b4 1e3d 3818 363e 1945 a8bd
00000230: f93d a73d bd04 603d 109d d63b fd0e 4c3e
00000240: ff10 653e 58d8 1c3d 6b2b 1abd 5c42 adbd
00000250: 68f6 953d f72c caba ac10 173e 1ef2 6e3d
00000260: b96e 3ebd 32ca 20bc ac61 943d f745 1b3d
00000270: 642c 3abc 4430 4cbc 047a a43d f725 c5bd
00000280: 96ec a23c 16fc c53b b470 513d 5b46 003d
00000290: 7834 903c bbb0 213d 2ac0 bbbd 9b43 25bd
000002a0: 6add c4bd e948 abbd 6d60 b5bd 6642 e1bd
000002b0: 5ecb 85bd 7003 0abe 7929 acbc c4ad 37bc
000002c0: 457d 51bd a030 a33d 30ce fabd fd6e 7cbd
000002d0: 448f b8bd 1305 95bd 65b1 5d3e 1d2f 663d
000002e0: 29d5 d83d 45f0 9a3e 9134 9f3d 31a8 02be
000002f0: 2fa7 e63c 939e 163a 2fb6 b83c b107 6f3e
00000300: 164b 943d 524d 63be 5085 583d 009e 51bd
00000310: 59fd e73d 1c92 323d 61fd c3bd 2637 ac3d
00000320: 57b5 98bd d4f3 d73d d978 00be 417e 64be
00000330: 452a 2f3d 8c4b cf3c bed1 203c 9b7b 99bb
00000340: 1d5f e43d 3b4b 7d3d 1a3f 333e e392 103d
00000350: 2b67 1f3d 434e 03be edad c23d e429 9f3d
00000360: 04f8 c63d 7fa8 053e df40 bc3b a6c5 223c
00000370: 9049 8d3b bdbb 453e 01f9 9b3d 07c2 113d
00000380: 6f7e e5bd bc39 acbd d1e5 7d3e 9d26 46bc
00000390: 731f d33d 3726 59be 274d f4bc e5b0 c93d
000003a0: 52f1 d4bc 521d 8d39 8dfb 303b cb2e 4a3d
000003b0: d29b 6c3d cfd7 c8bd c5e1 92bd 5dd3 a43d
000003c0: 23ff 943d 1af6 f73b 3bf6 9d3d 9687 d639
000003d0: 0834 9f3d 90e0 0a3e bf78 f63d 69e8 82bd
000003e0: f03f a03d 0bf2 9ebc fec9 a1bc de75 7d3d
000003f0: cc51 1d3b 4468 aa3d 7deb f5bb f7f7 ce3d
0.12714034 0.22692943 -0.23044816 0.045048323 -0.07462141 0.18561271 -0.10549672 0.03188749
0.044635367 -0.10138828 -0.05542538 -0.036922757 -0.013118032 -0.019062439 0.2383413 0.22328138
-0.0067164367 -0.25195456 -0.00684813 0.0028186962 -0.10495003 0.045436893 0.036016185 -0.035008844
-0.14682123 0.036195885 -0.0058658957 -0.14443454 0.161048 0.027074452 -0.071164854 -0.002524177
0.036705483 -0.0798701 -0.08605291 0.041277792 0.092988424 -0.02853489 -0.09286077 0.032565318
0.021293087 0.18820925 -0.11041318 0.0015868054 0.059452854 -0.1468153 0.0094829695 -0.062568195
0.030194396 -0.016663516 0.124477506 -0.041847147 0.14550091 -0.035900537 0.109698445 -0.024076557
-0.051162735 -0.12474121 0.059851088 0.0012060172 -0.05919025 -0.048554346 0.17056374 0.03469909
0.14426036 0.12955979 0.0361658 -0.072408244 -0.05214379 0.035536893 -0.026062429 -0.1245415
-0.028615117 0.041823827 -0.03603931 0.011908571 0.06780752 0.08436319 -0.04480212 -0.106380135
0.047523636 0.033717114 -0.017299615 -0.10991479 0.08575128 -0.03243298 -0.09806212 -0.042490423
-0.0308332 0.15085235 0.029480988 -0.007826432 -0.023022106 0.07694926 -0.08323339 0.058333106
0.035543412 -0.022931607 0.067949936 0.12623706 -0.21978511 -0.011512107 -0.15837707 0.057741378
-0.0679654 0.047142494 -0.06702192 -4.281041e-05 0.057134528 0.014921501 -0.12747455 0.08416186
-0.03164087 0.092506096 -0.1446144 -0.024233462 0.0918655 -0.037610814 -0.04456658 -0.14709748
-0.13183808 -0.04181125 0.123633586 0.05440743 -0.09918935 -0.008994154 0.25969067 0.10910363
-0.13457453 0.0032641578 0.005488798 -0.09995205 -0.16303183 0.112745434 0.12429093 0.026436485
0.014276013 0.038746744 0.17782676 -0.08216304 0.08166117 0.05469202 0.006549485 0.19927593
0.22369765 0.03829226 -0.037639063 -0.08459923 0.07322389 -0.0015424778 0.14752454 0.05833637
-0.046492312 -0.009813832 0.07245192 0.03790852 -0.011363123 -0.012462679 0.08031085 -0.09626382
0.019888204 0.006042014 0.051132873 0.031317096 0.017603144 0.039475184 -0.09167512 -0.040347677
-0.09612544 -0.08363516 -0.088562824 -0.109989926 -0.0653293 -0.13477874 -0.02101587 -0.011210863
-0.051144857 0.07968259 -0.122463584 -0.061629284 -0.09011701 -0.072763585 0.21649702 0.056197274
0.10587532 0.30261436 0.07773698 -0.12759472 0.028155891 0.00057456753 0.02254781 0.23342778
0.07240884 -0.22197464 0.05286151 -0.05117607 0.11327619 0.043596372 -0.095698126 0.08408956
-0.07456463 0.105445534 -0.125461 -0.22313787 0.04276492 0.025304578 0.009815631 -0.0046839244
0.11150954 0.061839323 0.1750454 0.035296332 0.038916748 -0.12822823 0.0950583 0.07771662
0.09715274 0.13052557 0.005745038 0.009934818 0.004311748 0.19309898 0.07615853 0.03558543
-0.11205756 -0.084094495 0.24794699 -0.012094167 0.10308733 -0.21205984 -0.029821945 0.09848193
-0.025993977 0.0002691546 0.0027005405 0.04936103 0.05776579 -0.09806787 -0.07171968 0.08048127
0.07275226 0.0075671794 0.0771298 0.0004091828 0.07773596 0.13562226 0.12034749 -0.06391985
0.07824695 -0.019402524 -0.019749638 0.061879985 0.0024005054 0.08320668 -0.007504879 0.10105889

network_body._body_endoder.seq_layers.0.bias f4 [256]
00000000: 5e38 86bd f013 05be 6e13 b3bd 9bf0 08be
00000010: 9da1 28bd d34d e8bc 0fcf 103c 5a60 6abe
00000020: 4816 4cbd cc5d 163e 78f2 fe3c 0a5c cebd
00000030: 330d cf3d 1055 00be f2db a2bd 55c6 15bd
00000040: 0927 23bd 2525 cebd be35 7a3d aba9 883c
00000050: e862 3dbd 22dc c0bd 1af8 eabc 1b22 41bd
00000060: 6623 9fbd 54d7 b73b 25d8 5abd d734 ae3b
00000070: 96e3 25bd 5b19 abbd 211e 773d 9164 54be
00000080: 78a2 21be 9f55 4bbe 83a7 fdbb 18f5 37bd
00000090: 9db5 80be b671 863d 431d 843d bcb2 e4bb
000000a0: af6f 45bd e765 253e 3aba b63d 2485 c3bd
000000b0: 4577 acbd fa89 72bd fcd7 7cbd 3249 b53c
000000c0: 89c0 94bd 9833 c03c e2b3 3abd cf20 babd
000000d0: 0af3 ebbc ab68 df3c 0e5a 32be aa7b 503d
000000e0: b992 24bd 19ce 4a3d 709a bd3c 6729 a5bd
000000f0: 4b22 283d aab8 b6bd 72ba dbbd aac1 afbd
00000100: 4af2 abbd 1077 b03d 99e8 aebd ee87 96bd
00000110: a3b9 f1bd 3b55 c83c 72b5 92bd 691e 95bd
00000120: cc93 90bd bec6 473d 5038 ae3d 1c78 36bd
00000130: 1e7d 2ebe 6139 ebbd dc95 88bd 169d 69be
00000140: 941e 87bc 5b8a 5ebd 9245 0a3e 86a0 cf3b
00000150: 42cc 9cbd d490 cf3d 0a9b d7bd 2597 353e
00000160: 25d1 333d f64a 7cbe 1ef0 77bd 8497 eabd
00000170: 55b5 bdbb f78e 94bd 9357 ddbd 346a 2c3d
00000180: 5e78 79bc a664 4ebc 223b 53bd 0cee 03be
00000190: c633 0fba 5adb 64bd 18b1 9dbd a085 dbbc
000001a0: c973 233e ddc4 c5bd 472c 49bd a9ae 61be
000001b0: cb5a 663d b681 25be da4b 59bd 1e5a 0f3d
000001c0: 56f3 46be 4f7e 25bd afbb ab3d e84a 753d
000001d0: 1ba5 43bd fcf2 a93d 2d97 9e3d cb48 43be
000001e0: 2982 52be c218 ffbc 8724 03be 1e74 fbbd
000001f0: 79f7 d4bc 739c c6bd a5c3 97bc 23c1 18be
00000200: 5cab cf3c 2ea8 f4bc 3f57 623d 177b 20bd
00000210: ed4f acbd d908 083c 9eea 84bc c19a 3bbd
00000220: 2f79 53bd bac2 68bd ba2c e8bd 7517 b6bd
00000230: 69a1 ce3d 38f0 25bd 94a9 213c 3ee9 94bd
00000240: 436b 773c d6d7 88bd f7e1 963d da51 56be
00000250: 3b62 9c3b 2e51 ddbd a964 d33c 81d1 523d
00000260: bb43 8b3c fc0e d3bd 8103 593e 194d 943d
00000270: 970b 71bd 19b7 55bd 5477 efbc 07e8 a2bd
00000280: 1cde 1bbc 1d8f 94bd 4025 06be c7ac 9d3d
00000290: c31a 3bbe 2a20 dfbc db10 d5bd 25ea ef3c
000002a0: 3ef3 d83c 88ff d3bd 260b 8cbc e85a 243e
000002b0: 1a51 a43c b781 c6bd b580 23be 4861 693d
000002c0: 30bc 0cbe 789d eabd 7c7c 2fbe 428c a5bd
000002d0: f6e8 0bbd db0f 763d 7706 a9bc 8788 0b3d
000002e0: 9202 223d b733 f83d e6b7 efbd a49d ef3d
000002f0: d7a9 76bd 26d3 293c 1eec 133c c36c 37be
00000300: f043 9c3d e2ce 5bbc 135c 1fbe 96e7 e2bd
00000310: 8482 86bd 0dd9 653b 90b4 0b3e 4557 f13c
00000320: 3138 ad3d 8757 21bd 18c3 3dbd f1e3 d1bd
00000330: 54e0 4bbb a417 89bc 1f94 8fbe f6aa cdbd
00000340: 8328 7dbd c6b4 f4bd 02da 88bd f3e7 363e
00000350: 2e15 3bbd 7647 873d 1f49 23bd 544b c8bd
00000360: 5c1b 4abe 7f68 3dbe fa89 d1bd a32d 46be
00000370: f8b7 1cbd a9b8 003d 98fc e8bd 8d31 23bc
00000380: d91e 783d e28e 043c 4521 a23c 4baf 7d3c
00000390: 1bc7 b8bd 6d10 51be 9039 8bbd 92c5 17be
000003a0: a293 4d3d 6e08 7a3c 7829 3f3d c1d2 29be
000003b0: 9f98 1f3d b1d5 4abd 7d47 04bd d772 42be
000003c0: 27b7 993d adc0 55be a1a8 13be efce b03d
000003d0: 1405 1ebe 67d9 853c 7e94 26bc 53e9 a7bd
000003e0: 1a5f d4bd d821 d9bd 5ea5 bebd 83fc a3bd
000003f0: efcb f9bd b86b 173e 4790 673c c31e 8ebb
-0.0655372 -0.12995887 -0.0874394 -0.13373034 -0.04116975 -0.028357422 0.008838429 -0.22888318
-0.049825937 0.14684218 0.031121477 -0.10076149 0.101099394 -0.12532449 -0.079521075 -0.036566097
-0.03983215 -0.100656785 0.06108641 0.016682466 -0.046236902 -0.09416987 -0.028682757 -0.047151666
-0.077704236 0.005610386 -0.053428788 0.0053163576 -0.040500246 -0.083544455 0.060331468 -0.20741488
-0.15784633 -0.1985688 -0.007740916 -0.044911474 -0.2513856 0.065646574 0.06450894 -0.0069793146
-0.048202213 0.16152154 0.08922239 -0.09546879 -0.08421186 -0.059213616 -0.061729416 0.022129629
-0.07263286 0.023462102 -0.045581706 -0.09088289 -0.028802413 0.02727159 -0.17417166 0.050899185
-0.040178988 0.049512956 0.02314493 -0.080645375 0.04104833 -0.089219406 -0.10728921 -0.0858186
-0.08395822 0.08616459 -0.08540458 -0.07350145 -0.118029855 0.024454704 -0.07163514 -0.07281191
-0.0705944 0.04877352 0.085068345 -0.04454814 -0.17039916 -0.114855535 -0.066692084 -0.2281383
-0.016494073 -0.054331165 0.13503101 0.0063362746 -0.076561466 0.10135046 -0.10527618 0.17733438
0.043900628 -0.2463797 -0.060531728 -0.114546806 -0.0057894387 -0.07253831 -0.10807719 0.04209347
-0.015226452 -0.012597239 -0.051570065 -0.12883776 -0.0005462732 -0.055873252 -0.076997936 -0.026797116
0.15962137 -0.09656689 -0.04911449 -0.22039284 0.05623893 -0.16162762 -0.053050853 0.03499805
-0.19428763 -0.04040366 0.08385407 0.05988589 -0.04776488 0.08298299 0.07743678 -0.19070737
-0.20557465 -0.031139735 -0.12806903 -0.12278007 -0.02599691 -0.09697809 -0.018525908 -0.14917426
0.025350265 -0.02986535 0.055258986 -0.039179888 -0.08413682 0.008302891 -0.016225155 -0.04580188
-0.05162924 -0.05682633 -0.11336656 -0.08891193 0.1008938 -0.040512294 0.009867091 -0.0727105
0.015101257 -0.066817924 0.07367318 -0.20929661 0.004772452 -0.108064994 0.025804834 0.05146933
0.01700007 -0.103055924 0.21192743 0.07241268 -0.058848944 -0.05217657 -0.029231705 -0.07954412
-0.009513404 -0.07253859 -0.13100147 0.0769897 -0.18271928 -0.027237017 -0.104036056 0.029286454
0.026483174 -0.10351473 -0.01709516 0.16050303 0.020058203 -0.0969271 -0.15967067 0.05697754
-0.13743663 -0.11455816 -0.17137331 -0.08083393 -0.034157716 0.060073715 -0.020632965 0.03406575
0.039553232 0.12119239 -0.11704998 0.116999894 -0.060220566 0.010365283 0.009028463 -0.17912583
0.076301455 -0.013416024 -0.15562467 -0.11079328 -0.06567863 0.0035072 0.13643098 0.029460559
0.08457983 -0.039390113 -0.046328634 -0.102485545 -0.0031109052 -0.016734906 -0.28042695 -0.10042374
-0.061806213 -0.11948542 -0.06682207 0.17861919 -0.045674495 0.06605427 -0.039864656 -0.09779993
-0.19737 -0.18496893 -0.10231395 -0.19353347 -0.038261384 0.031426106 -0.113763034 -0.009960544
0.060576294 0.008090707 0.019791255 0.015483688 -0.09022351 -0.20416422 -0.067980886 -0.14821461
0.05018962 0.015260799 0.046670407 -0.16584302 0.03896391 -0.0495202 -0.03229474 -0.1898912
0.07505637 -0.20874281 -0.14419796 0.086332195 -0.15431625 0.016339017 -0.010167239 -0.081988
-0.10369702 -0.10602158 -0.09308885 -0.08007147 -0.121971 0.14787185 0.0141335195 -0.004337163

network_body._body_endoder.seq_layers.2.weight f4 [256, 256]
00000000: f26e 2a3d 5c47 fbbb 432a c7bd 34f5 e9bc
00000010: e0c1 823d 0faa e4bc 8d8d 95be 85ec 693d
00000020: d0e5 9ebd ec9a 10be 0b11 15bd 32dd 633c
00000030: ef04 97bd d6c4 3fbd d0b6 bbbc 07d9 b3bc
00000040: 31b3 1cbc 06ed 45be 30f1 51bd 7e85 a93c
00000050: 3075 1dbd e034 29be 8841 ad3c 27a7 f5bd
00000060: d855 5e3d c255 533d 004c 823c 386e 12be
00000070: bcd6 a3bd f857 29be 7820 0dbd 38ee 723b
00000080: b3d6 85bd 1d43 2a3e 66a6 82be b268 ecbd
00000090: 3c3d ad3d a4dd e7bd 1c02 21be b60d 69be
000000a0: b8af ef3d 6a90 7fbe fc20 93bd a34d e2bc
000000b0: 7d64 0dbe 9fe7 3dbb a1e4 dbbd ff13 f9bd
000000c0: de33 61be a3d5 d43c 71fa 38bd 4b1a 783c
000000d0: 07b6 4ebd 6252 03bd 24df 9cbd c34d 46be
000000e0: 25b2 48bd fdb8 e5bd d3a9 efbc 0a11 14bc
000000f0: a99f 7abe f5d3 e1bc 8f32 16bc 7cb7 84bd
00000100: 7c8a 033e 7269 17be b310 22bd cb23 0ebe
00000110: 3bf6 2a3d 0997 e6bd 140d 97bd 7622 7b3c
00000120: 8e05 1abe 1b6a b93d 0b97 2abe f2b4 ec3c
00000130: 2944 8ebd 4d63 fbbd 869f 413d 35ef cd3c
00000140: a350 49be c07b 47be 8017 edbd e73b e53c
00000150: 91ed 33be 24b4 0dbe 9dbb afbd a6a1 55be
00000160: 1d5d 8dbd 39c6 d33d 8ad6 28be d8ff 263d
00000170: c7d3 e83d 60be 04bd dce4 7fbd cd68 cbbd
00000180: e8ef d23c c94e 57be c892 e1bc 1854 3d3d
00000190: a1e6 0bbe 3a3f 17be 7c5a 98bc 9eb3 3abe
000001a0: 05ce 7dbb 5732 fdbc 1d5d 753d 7bf2 4bbc
000001b0: 8954 84bb 252b a5bd d004 e0bd 9f7e 3fbe
000001c0: cbe7 a23d d0ce 7b3c 69c6 083b c278 a9bd
000001d0: 7f0a 0cbd 4753 5fbd be47 80be 2df9 003d
000001e0: 6c0f 5b3c e2df 42be 6591 b0bd c120 53bd
000001f0: 2deb a7bc dbdc 523d 977f dfbd 8099 1a3d
00000200: 2054 2abe 57ad 783c 7942 7fbc 52f8 adbc
00000210: 3514 c9bd e1e8 c0bc 5277 653d 9528 a6bd
00000220: 1f15 72be a2a7 abba 4776 e7bd 985a be3d
00000230: b026 b8bd 39aa 263e 1999 c7bd adf7 bbbd
00000240: 4a0f 03be 45d5 ac3d d8a9 fcbd 1ac8 9ebb
00000250: 48a9 e0bc 602a f9bd d51f 30bd 9032 c5bd
00000260: 5227 cfbd ee6d bfbd e9c6 85be fbe1 adbc
00000270: 33e6 02be 4f98 08be 70b8 34be 326d 9fbc
00000280: bae8 d63d 2bc8 b6bd 19c3 18bd 934f febd
00000290: 3c44 93bd e662 a93d 8092 903c 52c9 bbbd
000002a0: a4bf 403c a6e4 47be a217 a63d 0fe3 33be
000002b0: e35a b8bc c9f0 933b d07a fe3d 01b1 dbbd
000002c0: 5b16 56bd 10dd c0bb d4e8 37bd ee42 dcbc
000002d0: 6018 09bd 6bd2 20be 2389 adbd 1240 88bd
000002e0: 8336 5dbe a096 4fbe 4fdb 383d b4af b9bd
000002f0: 04e1 c5bc 8ba5 29be 5a9b 2abe b116 d3bd
00000300: 652c ffbc e009 60be 7de4 1e3e 5734 33bd
00000310: 43be 6e3d e3f2 603d c36c 85be 3b88 1a3c
00000320: d19d bebc 90f0 6fbe affb 19be 20e1 0d3d
00000330: 9dae 1dbe 5105 c0bd 13a9 29bd 97ba 16be
00000340: f984 dfbd ade2 77bd a1f1 77bd 1282 96be
00000350: 2c92 a43c d95d 16bd b798 74bd 1696 c7bd
00000360: 36db a33d 7eb1 2c3e 6306 12bd 5e00 e23c
00000370: 08bd a7bc fde3 c9bd 6c5e 703c dac1 66bd
00000380: cc65 b0bd e11e c4bd 41c3 16be 5d77 f6bd
00000390: 1b43 f3bd 5ab4 d5bc 4e36 1b3c f6ca 413c
000003a0: dad8 f13b 5d2d b33d 0091 63be 00da d0bd
000003b0: 6d15 29bd 8e1e bfbd a4ff e3bd b4bb e63d
000003c0: 16d8 ebbd 2253 c53d 9f8c 1fbc e45d 3cbd
000003d0: 75a7 d13d 083c 33bd 1817 dbbb b100 6b3c
000003e0: db80 433d 84dc 7bbd 1e05 0ebd e8ac bebc
000003f0: 65ad 25bc 6e26 90be cca6 21be 41ea 25bd
0.041609712 -0.007668419 -0.09724858 -0.028559305 0.06384635 -0.027913122 -0.29209557 0.05711033
-0.07758677 -0.14121598 -0.036393207 0.013907718 -0.07373988 -0.046818577 -0.02291432 -0.021954073
-0.009564207 -0.19328699 -0.051255405 0.020693537 -0.038441837 -0.16524076 0.021149412 -0.119947724
0.054281086 0.051595457 0.01590538 -0.14299858 -0.07999942 -0.16537464 -0.034454793 0.003706826
-0.06535091 0.16627164 -0.25517577 -0.115434065 0.08458945 -0.113215715 -0.15723461 -0.22759137
0.117034376 -0.24957433 -0.07184026 -0.02762491 -0.13807864 -0.0028977168 -0.10736967 -0.12162017
-0.21992442 0.025980776 -0.045160715 0.0151429875 -0.050466564 -0.03206099 -0.07659748 -0.19365601
-0.048998017 -0.11216924 -0.029255783 -0.009037266 -0.24474968 -0.02756689 -0.009167328 -0.06480309
0.12845796 -0.14786318 -0.039566707 -0.13880841 0.04173873 -0.112592764 -0.07375541 0.01532804
-0.15041181 0.09053441 -0.16659181 0.028894875 -0.06946594 -0.122747995 0.047271274 0.025138477
-0.19659667 -0.194808 -0.11576748 0.027982665 -0.17571093 -0.1383825 -0.08580706 -0.20862445
-0.069025256 0.10340542 -0.1648809 0.040771335 0.11368518 -0.03240812 -0.062474117 -0.099320985
0.025749162 -0.21026148 -0.027535811 0.046222776 -0.13662197 -0.14770213 -0.018597834 -0.18232581
-0.0038727534 -0.030907793 0.059903253 -0.012447949 -0.0040383977 -0.0806487 -0.10938418 -0.18700646
0.07954367 0.015369132 0.0020870215 -0.08274986 -0.034189697 -0.05452278 -0.25054735 0.031487633
0.013370376 -0.19030717 -0.08621482 -0.05154491 -0.020497883 0.051480155 -0.10913008 0.037744045
-0.16633654 0.015178046 -0.015579813 -0.021236572 -0.09818307 -0.023548545 0.056021996 -0.08113209
-0.2364087 -0.0013096223 -0.113018565 0.09294623 -0.08991754 0.16275872 -0.09745998 -0.091781
-0.12798801 0.084391154 -0.123370826 -0.0048456313 -0.02742447 -0.121662855 -0.042999107 -0.09628785
-0.10114922 -0.09347139 -0.2612832 -0.02122592 -0.12783127 -0.13339351 -0.17648482 -0.019461248
0.10493608 -0.08924898 -0.037295435 -0.12417521 -0.07190749 0.082708165 0.017647982 -0.09169258
0.011764441 -0.19520816 0.08109976 -0.17567085 -0.022504276 0.004514788 0.124257684 -0.1072712
-0.052267414 -0.0058857277 -0.044899777 -0.026887383 -0.03347051 -0.15705268 -0.084734224 -0.066528454
-0.21602826 -0.20272303 0.045131024 -0.09066716 -0.024155147 -0.16567056 -0.16660824 -0.103070624
-0.031149099 -0.21878767 0.15516849 -0.043751087 0.058286916 0.054919135 -0.2605954 0.009431894
-0.023268612 -0.23431611 -0.15037416 0.034638524 -0.15398641 -0.09376014 -0.041421007 -0.14719616
-0.109140344 -0.06051891 -0.06053317 -0.2939611 0.020089231 -0.036710594 -0.059715953 -0.097454235
0.080007955 0.16864583 -0.035650622 0.027588066 -0.02047588 -0.098579384 0.014670949 -0.056337215
-0.08613166 -0.09576202 -0.14722921 -0.120344855 -0.11878034 -0.026086975 0.009473396 0.011828175
0.007380587 0.08748887 -0.22223282 -0.1019783 -0.0412802 -0.09332 -0.11132744 0.1126627
-0.115158245 0.09634997 -0.0097381165 -0.04598798 0.10237018 -0.043758422 -0.0066861026 0.014343427
0.047730308 -0.061489597 -0.03467285 -0.023275807 -0.010112141 -0.2815432 -0.15786284 -0.040506605

network_body._body_endoder.seq_layers.2.bias f4 [256]
00000000: 3132 44be 47d9 debd 5efa 64be c408 04be
00000010: 962a 4dbe a418 32be c431 f3bc feb7 dcbd
00000020: 42d9 e3bd a614 19be 6f3f 4a3d ce71 8ebe
00000030: 8a47 d0bd 133c 47be 35e3 16be af9c 0cbe
00000040: 66cf 6ebe e287 23be 623e efbd 7f10 71bd
00000050: 7b83 14be 744b e1bd 86b3 9bbd 3aa3 e2bd
00000060: 4c43 84bd 1df9 70bd b328 17be fe23 27be
00000070: 408c cebd df37 07be fcd2 51be efb6 95bd
00000080: cefe 50be 5d2d afbd 7ba6 5dbe 1826 1bbe
00000090: 007e 5cbc 3323 bdbd 5419 4bbe c895 75be
000000a0: 9dbe 27bd 860b 9cbc 5331 18be c9cd 9f3c
000000b0: 26e2 42be 35bc fcbc 6511 d7bd 4066 f6bd
000000c0: f10f 3cbe eda9 b5bd 0550 0dbe f8b5 70be
000000d0: fb9d e6bd 553e 16be 59c8 98bd da88 57be
000000e0: 24f7 14be ac8a 3ebd d518 d4bd a8e0 10be
000000f0: 08dd 88be 64ad 7cbd 0434 d5bd 9d99 29be
00000100: 6bf0 01bd f85c 02be ab96 77bd 61b1 fdbd
00000110: ee1f a6bd eb8d 59be c3c1 d2bd cf38 b6bd
00000120: b4a8 67be 6482 08be 8b71 79bc 855d 61be
00000130: ccec febd 50ea cabd 882e 01be e205 a9bd
00000140: cc44 92bd 3c47 6dbe 0afb 23be c702 6abd
00000150: a2c7 50be 6d6a 0bbe 3edc 0bbe e550 1abe
00000160: 05c3 b5bd 219b f1bd 1308 a1bd 8f96 febd
00000170: 2b4e 7cbd d86b 14be 99a4 d5bd 8dd0 a6bd
00000180: 313c 0fbe 693d d6bd 6593 28be 08a8 00be
00000190: 4c6c afbd 78dd 7cbd 2a33 41be 3843 05be
000001a0: 5d2b 0cbe a903 25be 0036 7fbe 7a4e d0bd
000001b0: 574b 69be d8ce 10be aed2 12be eafe 1dbe
000001c0: 6315 78bd 52f1 febd e4fb 63be 7b05 96bd
000001d0: d78d 4abe 1aeb 0fbe 1480 85bd 55b9 c9bd
000001e0: a297 f6bd 22d2 f2bd 3a04 21be dcd7 f3bd
000001f0: 1473 d2bd a66b 8fbd b368 fdbd 2f55 8bbd
00000200: bc5b 5cbe 0ff4 3bbd 00b5 22bd 8bf1 4abe
00000210: 9df5 87bd 1b33 3cbe beec febd c0b4 4cbe
00000220: 89ee 26be 1c28 04be 8961 02bc e00d 16be
00000230: 5bd8 38be 474f 21be c69e 1fbe 56f9 1fbe
00000240: 21c3 b7bd f15c 0dbe 7a3e efbd 7794 42be
00000250: d60c 4abe d7c9 2cbe 37a1 89be 9d36 bebd
00000260: 8871 31be 63bf 2bbd cd2f 0dbe cda6 b5bd
00000270: 7888 8cbc 5cb5 b2bd a287 69be 8509 c4bd
00000280: 5bd3 f3bd ba49 7dbe bcff b4bd 4802 54be
00000290: 0923 95bd 43f3 a4be 4f8e 04be cf6d c6bd
000002a0: 81b7 7ebd b661 393d eb09 5ebd 0551 9dbd
000002b0: 3421 04be 80dc d4bd f30b d5bd 9786 2bbe
000002c0: 89af 1cbe 91ad 01be 4578 a83c f67e 1ebe
000002d0: 2111 64be f795 80be 798a 11be 9205 70be
000002e0: 3cc4 20be 2c27 3abe 7641 74bd 192f bdbd
000002f0: ee75 e4bd fd35 44bd 32ef cebd b83b e0bd
00000300: e981 d3bd af40 3fbe 17a9 01be 9904 11be
00000310: e1f6 79be ef41 0cbe d81a 5cbd 0992 8cbd
00000320: 8289 eebd 6f8d 3ebe a954 3fbe d895 16be
00000330: 2b18 073d 378e 1ebe 3a4c 42be b453 b5bd
00000340: 2be5 37be de31 d9bd bf2e 62bd c8a0 41be
00000350: 4c74 0abe 36b2 40be 9568 fabd 18cc 01be
00000360: 8552 34be 1ab1 21bd 0cf8 93bd 483b 0dbe
00000370: 2fb9 fdbd ce58 9bbd ef45 2fbe 60f2 75be
00000380: 8aca 02be f6df 16be b7e6 18bd 57c5 ddbd
00000390: b1b0 5fbe 335e c5bd e68c 44be d61e 5dbb
000003a0: b2e8 49be d9e2 6dbe 6ead 32be 5f62 25be
000003b0: 7afa 3abe 6d58 6abd 94c1 94bd b6eb 3fbe
000003c0: b5b7 a23c 579e 0bbe 9bfe 73be 450d 2fbe
000003d0: 6413 34be 30c1 02be 4365 e6bd f6bc 61be
000003e0: 057f 0bbe 421c cbbd c051 2cbe 9024 7abd
000003f0: 09e9 e2bd 4bbf 3bbe ce25 2dbe 8f74 1ebe
-0.19159772 -0.10881286 -0.22361133 -0.12893969 -0.20035776 -0.17392212 -0.029686816 -0.10777281
-0.11125423 -0.14949283 0.0493769 -0.278212 -0.10169895 -0.1945651 -0.1473511 -0.13731645
-0.23321304 -0.15969804 -0.116818205 -0.058853623 -0.14503281 -0.1100072 -0.07602601 -0.11066289
-0.06458148 -0.058831323 -0.1476162 -0.16322324 -0.10085344 -0.13204907 -0.2049064 -0.073102824
-0.204097 -0.08553574 -0.21645539 -0.1515125 -0.013457775 -0.09235229 -0.1983388 -0.23982918
-0.040953267 -0.019048464 -0.14862566 0.019507306 -0.19031581 -0.030851463 -0.105013646 -0.120312214
-0.18365456 -0.088703014 -0.13800056 -0.23506916 -0.11260601 -0.14672215 -0.07460088 -0.21048298
-0.14547402 -0.046518967 -0.10356299 -0.141482 -0.26731133 -0.061688796 -0.10410312 -0.16562505
-0.03172342 -0.12730777 -0.060446423 -0.12387348 -0.08111559 -0.21245544 -0.10290863 -0.08897554
-0.22622949 -0.1333099 -0.015224825 -0.22008331 -0.12447509 -0.09907973 -0.12615407 -0.08253075
-0.07142028 -0.23171705 -0.16013733 -0.057131555 -0.20388654 -0.13614817 -0.13658234 -0.15069921
-0.08875088 -0.117971666 -0.07862868 -0.124310605 -0.061597984 -0.14494264 -0.10431785 -0.08145247
-0.13987805 -0.10460932 -0.16462477 -0.12564099 -0.08565578 -0.061734647 -0.18867174 -0.13013923
-0.13688417 -0.16114677 -0.24922943 -0.10171218 -0.22782646 -0.14141405 -0.1433818 -0.15429273
-0.06056727 -0.12448372 -0.22264057 -0.07325264 -0.1978067 -0.14054528 -0.065185696 -0.098498024
-0.120406404 -0.11856486 -0.15724269 -0.11906406 -0.10275856 -0.07002954 -0.123734854 -0.06803357
-0.21519369 -0.04588705 -0.039723396 -0.19818704 -0.06638644 -0.1837887 -0.12447499 -0.19990826
-0.16301931 -0.12905926 -0.0079578245 -0.1465373 -0.18051283 -0.15752898 -0.15587911 -0.15622458
-0.08972765 -0.13804986 -0.11681838 -0.19001947 -0.19731459 -0.16873871 -0.2688081 -0.092877604
-0.17328465 -0.041930567 -0.13787766 -0.08869705 -0.017154917 -0.08725998 -0.22805646 -0.09572128
-0.11905547 -0.24735156 -0.0883784 -0.20703995 -0.07282073 -0.32216844 -0.12944911 -0.09688913
-0.06218672 0.0452592 -0.054208677 -0.07681469 -0.12903291 -0.103936195 -0.1040267 -0.1675056
-0.15301336 -0.12663867 0.020565161 -0.15478119 -0.22272159 -0.25114414 -0.1421298 -0.23439625
-0.15699857 -0.18179005 -0.05963274 -0.09237499 -0.11155306 -0.04790305 -0.10104217 -0.109488904
-0.10327513 -0.18677019 -0.12662159 -0.1416191 -0.24410583 -0.13697027 -0.053736538 -0.068637915
-0.11647321 -0.1860864 -0.18684639 -0.14705598 0.032982033 -0.15483938 -0.1897439 -0.08853856
-0.17958514 -0.106052145 -0.05522036 -0.1890899 -0.13520926 -0.18817982 -0.12226979 -0.12675512
-0.17609604 -0.039475538 -0.072250456 -0.13792145 -0.123888366 -0.075852975 -0.17116521 -0.2401824
-0.12772575 -0.14733872 -0.0373294 -0.10828655 -0.21844746 -0.09637108 -0.19194373 -0.0033740303
-0.19717672 -0.23231067 -0.1744897 -0.16150807 -0.18259612 -0.057213236 -0.072634846 -0.1874226
0.019862989 -0.1363462 -0.23827593 -0.17094906 -0.17585522 -0.12769008 -0.11249783 -0.22044739
-0.13622673 -0.09917499 -0.1682806 -0.061070025 -0.11079604 -0.18334691 -0.16908953 -0.15474151

action_model._discrete_distribution.branches.0.weight f4 [4, 256]
00000000: b424 ffbc a90c 15bc d0e0 77bd 17a3 6c3d
00000010: df2b 79bb 0517 cb3b 1690 473d a7ca 6bbd
00000020: f80d 8f3d 929b aabd 6232 683c 3ed7 f63a
00000030: 359f ba3d 2107 1bbd ec6b 963d 6127 c8bd
00000040: 4bf8 5ebd b7a1 e5bc d43a 4b3c 3170 b2bc
00000050: 9a17 103d 2af7 823d 19ed cebc 2bd4 e5bc
00000060: 2891 d4bd 2746 4d3d c9b1 823d 3942 2bbd
00000070: 0ee1 073d a242 56bd e53e 87bc f403 6b3d
00000080: 1d49 3a3c d46f 293c 41b7 3ebc dd5f bfbd
00000090: c71b bfbd 6404 bfbc ab68 79bd b31d 81bc
000000a0: ebec 833d 6ef9 91bd 5aed 0dbd 5600 1ebd
000000b0: bfd2 4cbd dfb7 773d 3223 9bbc 2b4c 9c3c
000000c0: 1950 943b c2ce c4bd 6269 79bb 79ce 94bc
000000d0: 6ea1 b8bd ba73 923d 204d f4bd 7a96 953c
000000e0: 2b0d 43bd 60ce 49bd fab2 e93c b8ba 55bd
000000f0: ccf3 e53c d27c 41bd e997 083e 6e0f d73c
00000100: 598d 96bd 9ab0 363c 3d19 29bb 1289 b1bc
00000110: cb47 f43d 6c04 c2bc 5e04 4f3d 991f e83b
00000120: 5ff3 223d 43f1 ec3c 0ff2 6dbd 4791 083d
00000130: d131 0ebc 597c 803d 45f5 c83c 61a9 a2bd
00000140: 0b64 2b3d d8e2 09bd 235f 94bc 0d1e 5b3d
00000150: 80a6 37bd 4609 0dbd 8d14 593b b79d 24bc
00000160: f3df c83c d113 953d 1c98 bc3d be53 a63c
00000170: 041c a4bc 9130 e43b a201 bf3c 4018 693c
00000180: 6cbe 213d cbdb 4dbd 6c04 b4bc 1406 e03c
00000190: e24e d9bd e3ac b8bd d04d d33d 6459 a83c
000001a0: 2742 063d af17 e9bc 2f03 dcbb 435d 63bd
000001b0: f3ac 903c 5445 563d ad04 a6ba 3644 513d
000001c0: bcfd 3bbc 2b34 483d 0bc9 e1bc 6c88 88bc
000001d0: 39f1 203d fb91 20bc 6a10 28bd 5f9a 54bb
000001e0: 7d79 293c a898 733c 6f8b 99bd 16f9 6dbc
000001f0: 12c7 c0bd a192 9c3b 0927 793d 54fa 7bbd
00000200: 0f2e 3abd c457 08bd f2ab b83c 26dd 75bd
00000210: 7486 f33c 26cc bf39 f103 a2bd 146d f2bc
00000220: 7074 b3bc 64e6 733c 316b a43d 2d3f 5b3d
00000230: 9354 91bd 2f63 d93c 2026 2ebd eeaa b3bc
00000240: cbff 383d 26d9 013d 47f1 783a 91c6 0bbd
00000250: e89f 003d 9817 8ebd 4111 36bd 445e a3bc
00000260: 8db5 65bd 128a c1bd 2c84 da3d 912b 053d
00000270: 82dc a0bd df59 e73d 035d 40bd ec15 cd3d
00000280: cd9f 96bd 95f1 bdbc 7072 2d3d b6ee b6bc
00000290: af84 383d 4c1e 1cbd 7643 4f3c cc4a e2bd
000002a0: 837a 67bd d93e 673d ed0a d43d 8aa5 6e3c
000002b0: 3f8d 4e3b 1afd ce3a 3568 4ebc 9849 b4bc
000002c0: e5a1 0dbd ce6b 503d 8fb7 9e39 78eb 62bc
000002d0: 8a4e a5bc 0fff 95bc 57e9 18bd 3dc3 1b3d
000002e0: 4c1e bebb 6659 5ebd 9374 99bc d07d 1dbd
000002f0: c6c6 743d b4cc bf3c 4d8c 093d b72d 0dbd
00000300: dd46 9abb d74f 9bbc 5208 17bd 1a4a ff3b
00000310: 66ea cdbc 640e 0bbd 82e0 963d fa14 a5bc
00000320: d704 103b 5657 243d a5e5 323d 8ce8 fb3d
00000330: 7f13 e6bc a3dc 883d 92c2 de3b c75a 253d
00000340: 5fce 4c3b 5c0c 223d 1a7f c7bc 6370 5cbd
00000350: 3072 11bd 9fc8 043d eb95 8a3c 1e70 a2bc
00000360: e6bd 3c3d a3cb ec3c f826 81bd 2962 28bd
00000370: 8efb 57bd a1a4 593d 4062 84bb aff9 6fbd
00000380: fd5a e43d 0ac5 e7bc 1bdf 12bc 2a74 e23c
00000390: 008a 25bc 614c 75bd fdf6 883d a77d 1b3d
000003a0: efe9 25bc 734c 86bc 3ae4 df3c 1ba4 07bd
000003b0: 9a28 4abd 1c16 903d d715 c0bd d1be d9bb
000003c0: 533c a0bc 208b 82bc 245a 49bc 8fac 39bb
000003d0: e309 babd 6f74 b83d 6c4a 2e3d 5dcd cfbc
000003e0: eca3 c6bc a85a 5339 89d4 c8bc 49d6 93bd
000003f0: 837a 9abd 1379 2c3d 2594 333d 62c8 a83c
-0.031145431 -0.009097257 -0.060517132 0.057772722 -0.0038020534 0.0061978125 0.048721395 -0.05756631
0.06985086 -0.08330454 0.014172168 0.0018832458 0.091123976 -0.037848596 0.07344803 -0.09773136
-0.05443601 -0.028031213 0.012404162 -0.021782013 0.03517876 0.06394799 -0.025259541 -0.028055271
-0.10379249 0.05011573 0.06381566 -0.0418112 0.033173613 -0.05230964 -0.016509483 0.057376817
0.011369971 0.010341603 -0.011640371 -0.09344456 -0.0933147 -0.023317523 -0.060890835 -0.015761232
0.06441673 -0.07127653 -0.034650184 -0.03857454 -0.05000567 0.060478088 -0.01893768 0.019079288
0.00452615 -0.096097484 -0.0038057198 -0.01816486 -0.09015165 0.07150979 -0.11928773 0.01826023
-0.04761998 -0.04926908 0.028527725 -0.052180022 0.028070353 -0.04723818 0.13339199 0.026252475
-0.07351179 0.0111505035 -0.0025802397 -0.021671806 0.11927756 -0.02368375 0.050541274 0.007083845
0.039782878 0.028923636 -0.058092173 0.033341672 -0.008678869 0.062737174 0.024531016 -0.07942463
0.041843455 -0.0336636 -0.018111771 0.053495456 -0.04483652 -0.034432672 0.0033123821 -0.010047368
0.02452085 0.0727917 0.092087 0.020303603 -0.02003289 0.0069637974 0.023316208 0.014226973
0.03948824 -0.05025844 -0.021974765 0.027346648 -0.10610749 -0.090173505 0.10317576 0.020550437
0.03277793 -0.028453676 -0.0067142467 -0.055508863 0.017660594 0.05231221 -0.0012666188 0.05109044
-0.011474069 0.048877876 -0.027561685 -0.016666614 0.039292548 -0.009800429 -0.04103128 -0.0032440645
0.0103439065 0.014867939 -0.07497298 -0.014524719 -0.0941297 0.0047782217 0.060828242 -0.06151803
-0.04545408 -0.033286825 0.022542927 -0.060025357 0.029727198 0.0003658246 -0.07910908 -0.029593028
-0.021906108 0.014886472 0.08028258 0.053527046 -0.070962094 0.026536552 -0.042516828 -0.021932092
0.04516582 0.03170123 0.00094964023 -0.034124915 0.0314025 -0.06938094 -0.04445005 -0.01994241
-0.056081343 -0.09450163 0.10669741 0.03251225 -0.078545585 0.112964384 -0.046963703 0.10013947
-0.07354698 -0.023186484 0.042345464 -0.022330623 0.045048412 -0.03811483 0.012650361 -0.110494226
-0.05651332 0.05645642 0.103536464 0.014565835 0.0031517295 0.0015791983 -0.012598087 -0.022007748
-0.034578223 0.05088406 0.0003027287 -0.013850085 -0.020179052 -0.018310098 -0.037331905 0.03802799
-0.0058019515 -0.054284476 -0.018732345 -0.038450062 0.059759878 0.02341304 0.033581067 -0.034467425
-0.0047081546 -0.018958969 -0.03687317 0.007790816 -0.025136184 -0.03394927 0.0736704 -0.020151604
0.002197554 0.040122353 0.043676037 0.12300214 -0.028085468 0.06682708 0.006798097 0.040369775
0.0031250936 0.039562568 -0.024352599 -0.053818118 -0.03550929 0.03241789 0.01691719 -0.019828852
0.04607954 0.028905695 -0.06306261 -0.041109238 -0.052730136 0.053135518 -0.0040400326 -0.058587726
0.11150167 -0.028292198 -0.008964325 0.027643282 -0.010103703 -0.059887294 0.06687734 0.03796163
-0.010126575 -0.016393876 0.027330507 -0.033115488 -0.049355127 0.07035467 -0.093791656 -0.0066450615
-0.019560015 -0.01593548 -0.012289558 -0.0028331613 -0.09083917 0.09006583 0.042551443 -0.02536648
-0.024248086 0.000201563 -0.024515407 -0.07218606 -0.075428985 0.042107653 0.043842454 0.020603362

action_model._discrete_distribution.branches.0.bias f4 [4]
00000000: a3cc 363d ac12 303c 6f25 36bd 066c 203b
0.04462875 0.010746639 -0.044469293 0.002447845

action_model._discrete_distribution.branches.1.weight f4 [3, 256]
00000000: 352c 25bd b83f 6fbc 1276 12bd 858b e4bc
00000010: 3416 6cbc 232f 693c cbd7 193c efaf c2bd
00000020: 54d4 ae3b c38d e8bd f3d1 313d 5e99 d2bc
00000030: 5145 0bbc 9081 87bb ffa9 153d e366 3cbc
00000040: 7579 c7bb 41eb 303c c488 adbc 679f 913d
00000050: 72ac e3bc d576 c9bd 17d5 b0bd 3e2e c3bc
00000060: 11d5 9aba dcb4 323d e0bd 42bd b405 7dbd
00000070: 5feb 13bd eeb4 b3bb 70ba 3c3d 838f 843d
00000080: 7029 473c 4ef5 74bc 81a0 5dbc 50f1 ecbc
00000090: ab6d 123d 9729 2e3d 247c 703b 840c 4bbc
000000a0: 73fe 023c 5163 09bc 4622 6b3c 3a58 133d
000000b0: 63f4 833c 4e7b 813c 0672 583c 023c c53c
000000c0: f5f6 7f3d fd0b 85bc 0b1f 4cbd c82d ea3b
000000d0: e8e5 2bbd aaa7 023c 5393 013d 1b1e ebbc
000000e0: 0a32 ffbc f3ca 11bc ec5c 1cbd 924b 9c3c
000000f0: fff0 d9bc 2e03 873d 6bdf 4c3d ed63 0ebc
00000100: 23f2 5fbb a28f bdbc be4e 123d b2c8 a0bc
00000110: 66c3 13bd 5f9a 1a3c 36d9 ff3c 9fb3 523d
00000120: 57e9 b73a bdb3 01bd d3bc a3bd 0256 ccbc
00000130: 6bd1 27bd 9da4 023d dfa1 40ba 7a11 5dbc
00000140: fbd5 d23c 7e38 d23c 6d86 d43a d6d4 543c
00000150: d5ba 71bc c90f 06bd fe51 72bd 149b 8fbb
00000160: f498 c83c adce 153d 4b23 0a3c 656b 983d
00000170: 87e0 363c 8910 5c3d 0e73 29bc 71bd 95bb
00000180: 7b8c b0bc d852 80bc 3ab8 333d f21f 443d
00000190: 03a9 54bd db51 39bd 0987 96bc d70e 0b3c
000001a0: ab8e 01bb 40d7 4aba 235e 56bb 29a4 ca3c
000001b0: 1947 afbb 7989 813c 3401 3bbc ecbe 913c
000001c0: 8561 1d3d dbd1 85bc 6e46 62bd d67a 2abc
000001d0: ad23 173d bcf5 ca3c 4513 e53c 664d 19bc
000001e0: 5afb dc3b 2905 1c3c 23e8 aebc 2a7c 84bd
000001f0: 12a7 813d 179c 933c 92fd 11bc 4967 52bd
00000200: 9216 20bc 7c16 56bc 15d3 923c b2e2 a9bc
00000210: 35df 42bd 246f d23b b849 dd3b a80f 7abc
00000220: c212 993a 0031 6abd 0ace f83c e2da 41bd
00000230: cbec 693c cefb a73c 48e5 01bc e433 02bd
00000240: 5ad8 7cbc 0f68 91bd f9cd 383d a761 4f3d
00000250: 87bd 58bc fa09 a8bc 7180 cb3c 01ee 60bc
00000260: 0437 f4bb 2db9 38bd ee6f d5bc c4e5 4a3c
00000270: 7266 cf3b 3e1a bd3c ac24 ef3b c2f9 423c
00000280: acf2 4e3d 7505 d4bc 0949 ab3d 084c 303c
00000290: 3655 4e3c 1019 aebb f1df 6fbc ba4d 893c
000002a0: f9f8 193d 8d85 153d d9fa 3b3d 63d6 2e3c
000002b0: 2797 343a df5f 273d 856f f6bc 028a c8bc
000002c0: 5ef5 ed3c 26c3 ab3c ff01 163d 7d19 d3bc
000002d0: 5bfd a4bb cd38 27bc 469f c43d d859 a3bc
000002e0: 3788 3f3c de15 81bb e6df 56bc af87 17b8
000002f0: 6bb2 f9bb b493 bc3c 4b4b 2637 b528 a9bc
00000300: 61bd 7bbc b511 71bc 6d71 9f3c 905e 5abc
00000310: 2c47 1fbd dc02 1dbd d3b2 56bd 7fe1 043b
00000320: 25a3 cebb 3d29 86bc 851e 12bd f927 b63c
00000330: 07a9 b53c c98b e33b 198b 263a 285a 25bc
00000340: 5d6d 97bd 4e31 0dbd a140 803b 2804 09bc
00000350: fd8b debc 5a01 953c a94f 743d b968 efbc
00000360: f12c b43b 4202 333c 06c1 ed3c df86 143c
00000370: 1666 97bc 8a63 073d bd60 88bd d87f 8a3b
00000380: 29ba aebc 2659 82bc 45ca 9a3c 431b 073c
00000390: cec2 d3bc 6cab 55bd 4e38 01bd 79de 883d
000003a0: 578f 59bd fe2e d2bb 4782 6dbd 2928 a53c
000003b0: 7972 c0bc 5a03 6d3c 3b1d 76bc edd0 0f3d
000003c0: 271a 333c 48b8 d43c f0e7 b0bb e491 6d3c
000003d0: fe8c 873b 0696 be3c 186d 42bd fcfa 00bd
000003e0: 611b 153c 4cf7 81bd 0640 b53b 4985 82bd
000003f0: bbba 84bc ed0e 76bc a3c1 433c e28f 37bd
-0.040325362 -0.014602594 -0.035757132 -0.02789856 -0.0144095905 0.01423243 0.009389828 -0.09506213
0.00533537 -0.11355164 0.043413114 -0.025707897 -0.008500413 -0.004135318 0.036539074 -0.0114991395
-0.006087477 0.010798276 -0.021183379 0.07110482 -0.02779219 -0.098371185 -0.08634394 -0.02382576
-0.0011812766 0.043629512 -0.04754436 -0.061773017 -0.03611314 -0.005484215 0.04607624 0.06472685
0.012155876 -0.014951063 -0.013527037 -0.02892366 0.03574912 0.042520132 0.0036695087 -0.012393121
0.007995236 -0.008385495 0.014351433 0.03597281 0.016107744 0.015805867 0.013210779 0.024076466
0.062491376 -0.016241068 -0.049834292 0.007146571 -0.041967303 0.007974545 0.03163464 -0.028700879
-0.03115179 -0.0088984845 -0.038174555 0.019079003 -0.026604174 0.06592403 0.050017755 -0.008690816
-0.0034171424 -0.023139779 0.035719626 -0.019626949 -0.03607502 0.009436219 0.031231504 0.05144083
0.0014031333 -0.031665552 -0.07995 -0.024943355 -0.0409712 0.03189527 -0.00073483394 -0.013492936
0.0257368 0.025661703 0.0016214378 0.012990197 -0.014754017 -0.032729898 -0.059160225 -0.0043825004
0.024486996 0.036574055 0.008431266 0.07442359 0.01116193 0.053726707 -0.010342373 -0.0045697023
-0.021551361 -0.015664503 0.043876864 0.047882028 -0.051918995 -0.04524408 -0.018374937 0.008487425
-0.0019768875 -0.0007737763 -0.0032709918 0.02473648 -0.0053490517 0.015812622 -0.011413861 0.017791234
0.03842308 -0.016335418 -0.05524295 -0.010405263 0.036899257 0.024775378 0.02796329 -0.009356832
0.0067438306 0.009522715 -0.021350926 -0.06468995 0.06330694 0.018018765 -0.0089105535 -0.05136803
-0.009771006 -0.013066884 0.017922917 -0.02073798 -0.047576148 0.0064219404 0.0067531727 -0.015262522
0.0011678564 -0.057175636 0.030371685 -0.047327884 0.014277647 0.020505812 -0.0079282 -0.031787768
-0.015432442 -0.07099926 0.045118306 0.050630238 -0.013228781 -0.02051257 0.02484152 -0.01372862
-0.0074528474 -0.045098472 -0.026054349 0.012383882 0.006329351 0.023083802 0.007298073 0.011900367
0.0505244 -0.025881508 0.0836354 0.010760315 0.012593558 -0.0053130463 -0.014640794 0.016760696
0.037590954 0.036504317 0.045893524 0.010671231 0.00068889785 0.040862914 -0.030082474 -0.02447987
0.029047664 0.020967077 0.036622997 -0.02576899 -0.005035085 -0.010206413 0.096006915 -0.019940302
0.011690191 -0.0039393744 -0.013114905 -3.612757e-05 -0.007620146 0.02301965 9.9119015e-06 -0.020649293
-0.015364976 -0.014713694 0.019463265 -0.0133282095 -0.038886234 -0.038332805 -0.052416634 0.0020276008
-0.0063060694 -0.016377086 -0.035673637 0.022235857 0.022175325 0.006944154 0.00063531246 -0.010092296
-0.07393906 -0.03447085 0.0039139544 -0.008362807 -0.027166361 0.018189121 0.059646282 -0.02922474
0.0054985215 0.010925831 0.029022705 0.009065359 -0.018481296 0.033053912 -0.06659076 0.004226666
-0.021329002 -0.01591165 0.018895278 0.008246246 -0.025849726 -0.052165434 -0.031547837 0.06683058
-0.053115215 -0.0064142933 -0.05798557 0.020160751 -0.023492085 0.014466131 -0.0150216175 0.035111357
0.010931528 0.025966778 -0.005398743 0.014500115 0.0041366806 0.023264896 -0.04746732 -0.031489357
0.009100766 -0.06345996 0.005531314 -0.063730784 -0.016202321 -0.015018207 0.011948022 -0.04481495

action_model._discrete_distribution.branches.1.bias f4 [3]
00000000: a451 013c 3db1 23bd 2eb2 1f3d
0.007893 -0.03996395 0.038988285

onnx::Div_88 f4 [35]
00000000: 1481 043e e75c 393a 8a73 6a3e b6ce 843e
00000010: bc81 163e 6c6b 463e 2e5d b939 6d5a 333e
00000020: 6762 833e d89c 0e3e 75ae 313e 7712 033a
00000030: d2d0 513e fae2 863e e212 143e cf8a 7e3e
00000040: 2e5d b939 5219 773e d776 ab3e 39eb 543e
00000050: 53e7 7b3e 2e5d b939 75f6 7c3e 16c4 ac3e
00000060: 806b 473e 2470 913e 2e5d b939 49d3 723e
00000070: 3f6a b63e ab78 663e c754 8a3e 2e5d b939
00000080: 963b 8e3e 0a91 be3e b626 593e
0.12939864 0.00070710335 0.22895637 0.25938958 0.14697927 0.19376916 0.00035355374 0.17514963
0.25661013 0.13927019 0.17351706 0.0005000005 0.20489815 0.26345044 0.14460328 0.24857639
0.00035355374 0.24130753 0.33489105 0.20792855 0.24599962 0.00035355374 0.24703391 0.33743352
0.19474602 0.2840587 0.00035355374 0.23713411 0.35627934 0.22506969 0.27017805 0.00035355374
0.27779835 0.3722003 0.21206173

onnx::Div_91 f4 [135]
00000000: c4c8 193c b445 443e fa55 f43e 6a32 fc3e
00000010: b3ef 733e 2eaa a43c 11ea b13e 9c84 e93e
00000020: 0e10 ff3e 236a 763e 58bb 3c3c fdbf 9f3e
00000030: 79e5 df3e f1f8 f93e 4edb 563e 27cd ad3c
00000040: 7469 ca3e 33e0 a23e 53c4 f23e d194 823e
00000050: 2888 493c 5f14 ce3e 171f 8d3e 2a53 f13e
00000060: 410c 413e 8eba ad3c 8db8 ce3e 586f f33d
00000070: 9814 da3e 2afe 6d3e 1788 483c 350a a53e
00000080: 86de f63d cd9e ba3e 9745 0c3e 2e5d b939
00000090: 5aec a93e 9bec d53b 340e ac3e a00c c33d
000000a0: f6fb c93b 667d d33d 6ed2 753c f31c f03d
000000b0: f18f 883d 1654 1a3c af4b 443e 685e f43e
000000c0: e41d fc3e e95c 723e 42de a43c d4ea b13e
000000d0: cd8b e93e 3b05 ff3e 87e3 743e ea2c 3d3c
000000e0: c5c1 9f3e a4f0 df3e 2fde f93e 8ad2 543e
000000f0: 581d ae3c f769 ca3e 66e9 a23e ae97 f23e
00000100: c9ca 813e c507 4a3c 2215 ce3e d92c 8d3e
00000110: a324 f13e 928f 3e3e 68fe ad3c 35b9 ce3e
00000120: 6282 f33d 25bb d93e 5a0b 6c3e fef2 483c
00000130: 300b a53e 55f4 f63d bf15 ba3e 5d4e 083e
00000140: 2e5d b939 f4ec a93e 9bec d53b cb67 ab3e
00000150: 45ff b63d f5fb c93b f884 d33d e4e3 753c
00000160: d618 e63d 247f 6b3d ecde 1a3c 8c51 443e
00000170: 6565 f43e 1308 fc3e 45c9 703e c70b a53c
00000180: 9aeb b13e 3195 e93e 52fa fe3e 4059 733e
00000190: 379e 3d3c 90c3 9f3e b4fc df3e 6ac2 f93e
000001a0: 27c5 523e 7e73 ae3c 906a ca3e 99f2 a23e
000001b0: 426a f23e e9fd 803e 429c 4a3c e015 ce3e
000001c0: 5e3b 8d3e 41f7 f03e 8909 3c3e 4e48 ae3c
000001d0: e5b9 ce3e 6695 f33d 5d61 d93e c012 6a3e
000001e0: fb72 493c 260c a53e 720a f73d 918a b93e
000001f0: d338 043e 2e5d b939 a6ed a93e 9bec d53b
00000200: e1bf aa3e d310 aa3d f5fb c93b ae8d d33d
00000210: 59f5 753c aba1 db3d 5778 3e3d
0.009386245 0.19167215 0.47721845 0.49257213 0.23821907 0.02010068 0.3474889 0.45608985
0.49816936 0.24063925 0.011519276 0.31201163 0.4372976 0.4882274 0.20982096 0.021215988
0.3953358 0.31811675 0.47415408 0.25504163 0.012300529 0.40249917 0.27562782 0.47133762
0.1885233 0.02120712 0.40375176 0.118864715 0.42593837 0.23241487 0.012239478 0.3223435
0.12054162 0.3644928 0.13698421 0.00035355374 0.33188134 0.0065284497 0.33604586 0.095238924
0.0061640693 0.10326652 0.015003784 0.117242716 0.0666808 0.009419462 0.19169496 0.47728276
0.49241555 0.23668255 0.020125512 0.34749472 0.45614472 0.49808678 0.2391492 0.011546353
0.31202522 0.43738282 0.48802325 0.2078344 0.021254227 0.3953397 0.31818694 0.47381347
0.25350025 0.012330954 0.40250498 0.2757328 0.47098264 0.18609455 0.021239474 0.40375677
0.11890103 0.42525592 0.23051205 0.012264965 0.32235098 0.120583214 0.36344716 0.13311143
0.00035355374 0.33188593 0.0065284497 0.33477625 0.089354075 0.006164069 0.10328096 0.015007947
0.11235206 0.057494298 0.009452563 0.19171733 0.47733608 0.4922491 0.23514278 0.020147217
0.34750062 0.45621637 0.49800354 0.23764515 0.011573366 0.3120389 0.43747485 0.4878114
0.2058302 0.021295305 0.39534426 0.31825712 0.47346693 0.25193718 0.012366356 0.40251064
0.27584356 0.4706364 0.18363012 0.021274712 0.403762 0.1189373 0.42457095 0.22858715
0.01229548 0.3223583 0.12062539 0.3623853 0.12912302 0.00035355374 0.33189124 0.0065284497
0.33349517 0.0830399 0.006164069 0.10329758 0.015012109 0.10724195 0.046501484

onnx::Div_94 f4 [11]
00000000: ef11 033a 1489 f93e 6c7f cd3e 09aa cf39
00000010: 2e5d b939 fb97 ff3e 7769 fd3e 86cd 933e
00000020: 65ff 003f 8e47 043f 3030 873e
0.0004999926 0.48737395 0.40136278 0.00039608803 0.00035355374 0.4992064 0.49494526 0.2886774
0.503897 0.51671684 0.26403952
