Usable_Data/Versuch_3-2/PKWParking/PKWParking-555777.onnx (onnx, 468050 bytes, 15 tensors)

discrete_act_size_vector f4 [1, 2]
4.0 3.0
00000000: 0000 8040 0000 4040

network_body.observation_encoder.processors.0.normalizer.running_mean f4 [35]
0.00011515376 0.0 0.0 0.99988294 0.99990946 0.02107135 0.0 0.0
0.9789264 0.98906875 0.052938484 0.0 0.0 0.9470594 0.97920525 0.044013985
0.0 0.0 0.955868 0.970298 0.23561755 0.0 0.0 0.7610051
0.8805389 0.13522078 0.0 0.0 0.8647639 0.9295182 0.3156346 0.0
0.0 0.6803069 0.8301288
00000000: b47e f138 0000 0000 0000 0000 54f8 7f3f
00000010: 11fa 7f3f d39d ac3c 0000 0000 0000 0000
00000020: ec9a 7a3f 9c33 7d3f 06d6 583d 0000 0000
00000030: 0000 0000 7c72 723f 32ad 7a3f 0248 343d
00000040: 0000 0000 0000 0000 c4b3 743f 7365 783f
00000050: ba45 713e 0000 0000 0000 0000 3bd1 423f
00000060: ff6a 613f 5177 0a3e 0000 0000 0000 0000
00000070: 2b61 5d3f e8f4 6d3f dc9a a13e 0000 0000
00000080: 0000 0000 9828 2e3f 5283 543f

network_body.observation_encoder.processors.1.normalizer.running_mean f4 [135]
0.0 0.076723054 0.1270544 0.79517674 0.9346163 0.0 0.3459314 0.068181954
0.5848407 0.8197807 0.0 0.30146897 0.093962006 0.60351545 0.85327166 0.0
0.5420635 0.0012756919 0.45561215 0.6957591 0.0 0.59508556 0.029124942 0.3715902
0.78842247 0.0 0.6287821 0.00092483 0.36924815 0.68026656 0.0 0.32697204
0.009696334 0.65911347 0.8903178 0.0 0.3971677 0.0 0.6017871 0.9136174
0.0 0.028030992 0.0 0.9709233 0.9900882 0.0 0.07672663 0.12716231
0.7955873 0.9351004 1.7992777e-06 0.34593865 0.06824497 0.5852918 0.8202828 0.0
0.30148217 0.094064556 0.60392284 0.8537506 1.7992777e-06 0.54207325 0.0012828852 0.4561141
0.6962718 0.0 0.59510344 0.029180737 0.37203705 0.78892004 1.7992777e-06 0.6287947
0.0009266314 0.36975357 0.6807828 0.0 0.3269867 0.009703494 0.65961206 0.89082813
0.0 0.39717463 0.0 0.6023 0.91413647 0.0 0.028041752 0.0
0.97143483 0.9906083 1.7992777e-06 0.076730214 0.12727006 0.7959962 0.9355819 3.5985554e-06
0.3459457 0.068307966 0.58574104 0.82078385 0.0 0.3014951 0.09416714 0.604329
0.8542316 3.5985554e-06 0.54208505 0.0012900832 0.45661607 0.69678444 0.0 0.59512055
0.02923651 0.3724833 0.78941864 3.5985554e-06 0.62880677 0.00092842797 0.37025905 0.68129826
0.0 0.32700124 0.009710726 0.6601118 0.8913396 0.0 0.39718175 0.0
0.6028165 0.9146571 0.0 0.028052574 0.0 0.9719454 0.99112964
00000000: 0000 0000 fa20 9d3d 8c1a 023e b490 4b3f
00000010: 0443 6f3f 0000 0000 ec1d b13e fba2 8b3d
00000020: 1fb8 153f 26dd 513f 0000 0000 245a 9a3e
00000030: 276f c03d fd7f 1a3f 0370 5a3f 0000 0000
00000040: acc4 0a3f 1e35 a73a ff45 e93e 451d 323f
00000050: 0000 0000 8757 183f 6e97 ee3c 1241 be3e
00000060: 0ed6 493f 0000 0000 ddf7 203f 4a70 723a
00000070: 180e bd3e f325 2e3f 0000 0000 e168 a73e
00000080: 5fdd 1e3c a9bb 283f deeb 633f 0000 0000
00000090: 9159 cb3e 0000 0000 b80e 1a3f d4e2 693f
000000a0: 0000 0000 40a1 e53c 0000 0000 6e8e 783f
000000b0: 6c76 7d3f 0000 0000 da22 9d3d d636 023e
000000c0: 9cab 4b3f bd62 6f3f b67e f135 df1e b13e
000000d0: 05c4 8b3d afd5 153f 0efe 513f 0000 0000
000000e0: df5b 9a3e eba4 c03d b09a 1a3f 668f 5a3f
000000f0: b67e f135 50c5 0a3f 7c26 a83a ca87 e93e
00000100: de3e 323f 0000 0000 b358 183f 710c ef3c
00000110: a47b be3e aaf6 493f b67e f135 b1f8 203f
00000120: 2ee9 723a 5750 bd3e c847 2e3f 0000 0000
00000130: cd6a a73e 67fb 1e3c 56dc 283f 500d 643f
00000140: 0000 0000 795a cb3e 0000 0000 5530 1a3f
00000150: d904 6a3f 0000 0000 d1b7 e53c 0000 0000
00000160: f4af 783f 8198 7d3f b67e f135 bb24 9d3d
00000170: 1553 023e 68c6 4b3f 4c82 6f3f b67e 7136
00000180: cb1f b13e 0ce5 8b3d 20f3 153f e41e 523f
00000190: 0000 0000 915d 9a3e b4da c03d 4eb5 1a3f
000001a0: ecae 5a3f b67e 7136 16c6 0a3f 0218 a93a
000001b0: 95c9 e93e 7760 323f 0000 0000 d259 183f
000001c0: 6881 ef3c 22b6 be3e 5717 4a3f b67e 7136
000001d0: 7bf9 203f bf61 733a 9892 bd3e 9069 2e3f
000001e0: 0000 0000 b56c a73e bd19 1f3c 16fd 283f
000001f0: d52e 643f 0000 0000 685b cb3e 0000 0000
00000200: 2f52 1a3f f826 6a3f 0000 0000 83ce e53c
00000210: 0000 0000 6ad1 783f acba 7d3f

network_body.observation_encoder.processors.2.normalizer.running_mean f4 [11]
0.99998546 -0.029971851 0.066352665 0.5050401 0.0 0.4013203 0.4013203 0.27215597
0.09759393 0.03940807 0.17005311
00000000: 0cff 7f3f 8787 f5bc e8e3 873d 4f4a 013f
00000010: 0000 0000 db79 cd3e db79 cd3e 0758 8b3e
00000020: 54df c73d 5b6a 213d 6722 2e3e

network_body._body_endoder.seq_layers.0.weight f4 [256, 181]
0.038567346 0.06626243 -0.0046546673 -0.07219376 -0.06439413 0.08056223 0.112825714 -0.02096557
0.05113966 0.120194316 0.05846724 0.006002837 -0.08268898 0.0037808786 0.11499573 0.05948804
-0.03225659 0.013882885 -0.048311606 0.106851436 -0.012186526 -0.021297539 0.041634325 0.038881626
0.0696232 -0.08832295 0.03860779 -0.005929943 -0.028630849 0.09295334 0.09668969 0.044864126
0.11894792 -0.011664523 -0.023904515 -0.023414606 0.03193661 -0.028976882 -0.06569762 0.008190711
-0.03936175 -0.02293263 -0.055933844 -0.08246814 0.017375022 -0.02348471 0.019869912 0.121342674
0.002825533 0.07119752 0.1352896 -0.033813976 0.017272677 -0.15567458 -0.05434749 0.07142606
-0.060851093 -0.12464448 -0.041099075 -0.08066405 0.077437215 -0.0063495464 -0.04014198 -0.08942073
0.13468471 0.03576699 0.062663704 -0.09976734 0.043073814 0.0155910775 0.06490464 -0.02107369
0.021524595 -0.017925093 -0.07117904 -0.068151854 0.08493921 0.061614778 0.20086423 0.09041238
-0.084531866 -0.1304105 0.12367106 0.09318357 0.112753555 0.10958707 0.15312104 -0.16998543
-0.05284911 0.107522845 -0.06266326 0.14654538 -0.04991172 -0.047986247 0.031117318 -0.021625763
0.04809186 0.006668181 -0.041038375 -0.08066607 -0.0071192933 -0.08695956 -0.106062524 -0.07895141
0.018580193 0.055964317 0.08889587 -0.06407255 -0.037773274 -0.0037984103 0.043577705 0.14275248
0.04553853 0.1129921 -0.10178249 -0.13911608 -0.09604927 -0.0032948945 0.030853959 -0.053852458
-0.013643782 0.023529334 0.13553329 0.014202463 0.055589553 0.041303236 -0.052016173 0.018019574
0.0036309496 -0.039357275 -0.08014397 0.0049364488 -0.07453625 -0.1543269 0.06474524 0.0070047984
0.0668489 0.14243409 0.014273844 0.021283522 0.031362724 0.04240039 -0.12446309 0.050418034
0.15154673 0.09053869 0.10395028 0.122859195 -0.030290663 0.08144483 0.06167117 -0.04906075
0.074440494 0.05516119 0.026262961 0.096030645 -0.017354876 -0.08221979 0.032668293 0.04010216
0.1244592 -0.18524565 0.09420167 -0.074664734 0.040839437 -0.116290025 -0.0339904 -0.005432542
-0.04331423 0.0547157 0.023419634 0.026427954 -0.08585314 -0.023867814 -0.07826784 -0.056583833
0.021821953 0.014349401 0.073682226 0.012719532 -0.0089443335 -0.030581743 -0.0013104264 0.08857787
0.021899408 0.0044082836 0.15397315 0.111574195 0.11111593 0.13441747 0.016898774 -0.03428728
0.02226713 0.0919432 0.0032845563 0.0932223 -0.01729671 0.03820748 0.007516779 0.013557596
-0.0320642 -0.007086403 0.026070748 0.061196104 -0.012338312 0.069804356 0.024741592 -0.043909375
-0.0468027 0.01788166 -0.05706082 -0.043462817 0.0468884 0.031469606 -0.11409124 -0.07212673
0.00875828 0.031519223 -0.03492832 0.089138865 0.06528604 -0.09892243 -0.0104219625 -0.09654454
-0.04380753 0.04994003 0.015881404 -0.16698898 -0.035574257 -0.009866651 -0.0032295445 -0.124533884
0.15179634 0.009171491 0.11188855 -0.040410265 -0.04068324 0.081614055 -0.086133644 -0.01920184
-0.040126644 -0.051773578 0.020798149 -0.031710967 -0.058204766 0.17204586 0.08226477 -0.1141647
0.038488705 -0.01671681 0.025949378 0.13371938 -0.048800196 -0.019848682 -0.045126423 0.025504803
00000000: cbf8 1d3d 99b4 873d 2e86 98bb 52da 93bd
00000010: 12e1 83bd cffd a43d 2b11 e73d fdbf abbc
00000020: d277 513d 7028 f63d 587b 6f3d 72b3 c43b
00000030: d758 a9bd 9ec8 773b e282 eb3d bba9 733d
00000040: 7c1f 04bd 0a75 633c 64e2 45bd edd4 da3d
00000050: ffa9 47bc 2d78 aebc c188 2a3d 5742 1f3d
00000060: 9c96 8e3d aae2 b4bd 3423 1e3d f84f c2bb
00000070: 3e8b eabc 525e be3d 3f05 c63d 72c3 373d
00000080: f89a f33d 8e1c 3fbc 67d3 c3bc fdcf bfbc
00000090: f6cf 023d ed60 edbc 798c 86bd 5532 063c
000000a0: c939 21bd 36dd bbbc e31a 65bd 0ee5 a8bd
000000b0: 1056 8e3c 0263 c0bc 3ac6 a23c 8282 f83d
000000c0: 942c 393b 01d0 913d 5b89 0a3e 8680 0abd
000000d0: 6e7f 8d3c 2869 1fbe 799b 5ebd d347 923d
000000e0: ff3e 79bd 9b45 ffbd 8157 28bd 3233 a5bd
000000f0: 6797 9e3d db0f d0bb eb6b 24bd 3722 b7bd
00000100: caea 093e 6880 123d d455 803d d252 ccbd
00000110: 2b6e 303d b871 7f3c b9ec 843d bba2 acbc
00000120: 5954 b03c a5d7 92bc 51c6 91bd 3393 8bbd
00000130: 9cf4 ad3d c75f 7c3d 5aaf 4d3e 202a b93d
00000140: 0b1f adbd 558a 05be 4147 fd3d 07d7 be3d
00000150: 56eb e63d 306f e03d c3cb 1c3e a910 2ebe
00000160: 4f78 58bd f034 dc3d 9855 80bd fe0f 163e
00000170: 3b70 4cbd 3a8d 44bd bfe9 fe3c 8328 b1bc
00000180: f8fb 443d c280 da3b db17 28bd 4134 a5bd
00000190: f648 e9bb db17 b2bd 4f37 d9bd 47b1 a1bd
000001a0: 7d35 983c d73a 653d 0a0f b63d 7838 83bd
000001b0: 26b8 1abd c0ee 78bb 897e 323d b52d 123e
000001c0: 9c86 3a3d 6768 e73d 5773 d0bd 7274 0ebe
000001d0: 7bb5 c4bd 28ef 57bb 71c1 fc3c 6594 5cbd
000001e0: 2b8a 5fbc 97c0 c03c 3dc9 0a3e 73b1 683c
000001f0: dfb1 633d 952d 293d e90e 55bd c99d 933c
00000200: 3af5 6d3b 1835 21bd 8622 a4bd efc1 a13b
00000210: 76a6 98bd df07 1ebe 2799 843d 8288 e53b
00000220: 13e8 883d 3eda 113e d7dc 693c c85a ae3c
00000230: 3376 003d 08ac 2d3d 81e6 febd 2483 4e3d
00000240: 112f 1b3e 596c b93d e2e3 d43d 9a9d fb3d
00000250: 2024 f8bc 8ccc a63d e99a 7c3d edf3 48bd
00000260: 4274 983d b3f0 613d 6c25 d73c b7ab c43d
00000270: d02b 8ebc d962 a8bd 30cf 053d 2a42 243d
00000280: 77e4 fe3d 09b1 3dbe ceec c03d d3e9 98bd
00000290: 4147 273d 7729 eebd 8539 0bbd 7703 b2bb
000002a0: 436a 31bd 921d 603d 88da bf3c 707f d83c
000002b0: c5d3 afbd 6f86 c3bc e44a a0bd 73c4 67bd
000002c0: f4c3 b23c c019 6b3c b5e6 963d 9565 503c
000002d0: 418b 12bc 9086 fabc 9dc2 abba 5068 b53d
000002e0: 6366 b33c 5d73 903b 23ab 1d3e 0381 e43d
000002f0: c090 e33d bca4 093e 4c6f 8a3c d270 0cbd
00000300: 8e69 b63c b74c bc3d b641 573b 55eb be3d
00000310: d4b1 8dbc 727f 1c3d 504f f63b ae20 5e3c
00000320: c055 03bd 0f35 e8bb 5292 d53c c4a8 7a3d
00000330: a226 4abc 96f5 8e3d e1ae ca3c 51da 33bd
00000340: 30b4 3fbd 8f7c 923c 9bb8 69bd 1106 32bd
00000350: 0d0e 403d 46e6 003d aba8 e9bd 2eb7 93bd
00000360: e47e 0f3c 4d1a 013d 0011 0fbd 708e b63d
00000370: b0b4 853d d897 cabd e1c0 2abc 25b9 c5bd
00000380: 866f 33bd eb8d 4c3d b819 823c 29ff 2abe
00000390: 50b6 11bd bca7 21bc c4a6 53bb 9f0b ffbd
000003a0: 8070 1b3e 0544 163c d325 e53d 3c85 25bd
000003b0: 78a3 26bd 4525 a73d d666 b0bd 2d4d 9dbc
000003c0: d65b 24bd 8810 54bd e160 aa3c 5ce3 01bd
000003d0: 1f68 6ebd ca2c 303e 6f7a a83d 2fcf e9bd
000003e0: 55a6 1d3d b1f1 88bc ca93 d43c bced 083e
000003f0: b7e2 47bd b499 a2bc 7cd6 38bd 73ef d03c

network_body._body_endoder.seq_layers.0.bias f4 [256]
-0.017385114 -0.017965682 0.017926786 -0.0031067429 -0.040780038 0.022095205 0.010228892 -0.020730255
0.004586753 -0.021110207 -0.017527748 -0.020052904 -0.045164704 -0.023613123 -0.0035658958 -0.0072409296
-0.030181415 -0.028610142 -0.0329778 -0.033121496 -0.0090688225 -0.054473776 -0.014380874 -0.04528984
-0.028351268 -0.02608985 -0.07795703 -0.018187685 -0.03466512 -0.019484954 -0.042721175 0.013888466
-0.02837801 -0.019438285 -0.012194433 -0.050906878 -0.014810105 0.0076426123 -0.014462523 -0.023123063
-0.019661492 -0.036528334 -0.016128793 -0.03664308 0.006339774 -0.024306078 -0.031253085 -0.011754653
-0.041539762 -0.011579231 -0.016434748 -0.031589895 -0.018834878 -0.0028442107 0.009528982 0.007264969
-0.04298551 -0.06014395 0.023686975 0.02806063 -0.047765527 0.010376088 -0.015461008 -0.022870516
0.0026359553 -0.013795648 -0.040766858 -0.0008560489 -0.032417044 -0.031739693 -0.040741336 -0.02672376
-0.009414544 -0.008832238 -0.043347865 -0.028703718 -0.0068645375 -0.062953204 0.008725823 -0.031574905
-0.0488993 0.012737201 0.021962008 0.0029692783 0.007852042 -0.031550784 0.0052107847 -0.013718167
-0.044461798 -0.022714285 -0.05177565 -0.017033936 -0.023056325 -0.04542705 -0.016413137 0.0064240177
-0.030766012 -0.028209124 -0.014652647 -0.009784973 -0.039241716 -0.017599901 -0.0121592125 0.006912023
-0.07632083 -0.034852445 -0.032190852 -0.032812443 -0.0077077714 -0.01620082 -0.04449728 -0.0029562798
-0.009157145 -0.019143716 0.024617417 -0.013094297 -0.0008317681 -0.027787596 0.0069757747 -0.00893
0.010827005 -0.019490892 0.010172668 3.7689602e-05 0.007855362 -0.015639434 0.0077480148 -0.049828153
-0.0010398277 -0.0059450865 -0.025075678 0.0076640393 0.0036638288 0.004537208 -0.014322419 -0.005881616
-0.015887484 -0.007642386 -0.022296797 0.03358135 0.011321343 -0.0150165 0.0055329986 -0.011140415
-0.024348516 -0.023075372 -0.013085955 -0.0033409267 -0.0040576765 -0.024874125 -0.028674642 -0.036638882
0.01189494 -0.015462463 -0.010084684 -0.03967531 -0.024893146 -0.0062789232 -0.0034715477 -0.017567467
-0.03566971 -0.016977917 -0.020196944 -0.021986483 -0.021068798 -0.05145106 -0.029136246 -0.0083618825
-0.012345707 0.01734699 0.019709721 0.012478697 -0.024433166 -0.051909577 -0.001121005 -0.040539086
-0.017960863 -0.025567014 -0.023017291 -0.009643627 0.011364618 -0.008565798 -0.032443278 -0.008225355
-0.026880596 -0.057153977 -0.02252695 -0.03098781 -0.029051468 -0.009553196 -0.045086175 -0.0018086471
-0.0013076597 -0.007837291 0.004414163 -0.028303713 -0.04304291 -0.019008683 -0.024686994 -0.014355314
-0.002277542 -0.025774589 -0.04001473 -0.014894332 -0.010304906 -0.0314642 -0.0042337193 -0.007978479
-0.018658167 0.005975574 -0.02203328 0.010124486 -0.019481663 -0.011691043 0.022578552 -0.02420002
0.0081899855 -0.022475969 -0.019574253 -0.028740125 -0.002420287 -0.0075757043 -0.035049714 -0.030312033
-0.0008691557 0.01102376 0.010197485 -0.02741114 0.010323226 0.0164772 -0.005000505 0.009160666
-0.059683356 -0.016531555 -0.007824739 -0.015986573 -0.041378785 -0.0399539 -0.012959956 0.021039814
-0.013126793 -0.00041420205 -0.024346605 -0.04101363 -0.017284004 -0.02678122 -0.020566612 -0.014462139
-0.018629985 -0.0053011994 -0.028285002 -0.031161634 -0.012665279 0.012301493 -0.021297062 -0.035531253
00000000: 3a6b 8ebc c42c 93bc 32db 923c 7f9a 4bbb
00000010: f808 27bd 0101 b53c 1597 273c 7fd2 a9bc
00000020: 794c 963b 50ef acbc 5a96 8fbc fd45 a4bc
00000030: a0fe 38bd 4f70 c1bc ceb1 69bb 5245 edbb
00000040: 043f f7bc d15f eabc bb13 07bd 68aa 07bd
00000050: 6695 14bc e51f 5fbd c29d 6bbc d781 39bd
00000060: eb40 e8bc 62ba d5bc efa7 9fbd 57fe 94bc
00000070: 03fd 0dbd e99e 9fbc 66fc 2ebd 738c 633c
00000080: 0079 e8bc 0a3d 9fbc 29cb 47bc bb83 50bd
00000090: 15a6 72bc e16e fa3b 38f4 6cbc 946c bdbc
000000a0: 2311 a1bc bc9e 15bd 8820 84bc 0e17 16bd
000000b0: e1bd cf3b 8a1d c7bc 3c03 00bd 9796 40bc
000000c0: 9925 2abd d1b6 3dbc 2aa2 86bc 6864 01bd
000000d0: 9a4b 9abc f065 3abb 731f 1c3c fa0e ee3b
000000e0: 9311 30bd 8159 76bd 300b c23c 68df e53c
000000f0: c9a5 43bd 7800 2a3c 2b50 7dbc f35a bbbc
00000100: febf 2c3b 2407 62bc 26fb 26bd 7868 60ba
00000110: bcc7 04bd 7b01 02bd 63e0 26bd c9eb dabc
00000120: 763f 1abc 17b5 10bc 888d 31bd 0f24 ebbc
00000130: eaef e0bb 9ced 80bd c1f6 0e3c b054 01bd
00000140: a24a 48bd b1af 503c abe9 b33c 3998 423b
00000150: daa5 003c 653b 01bd 3bbf aa3b 2ac2 60bc
00000160: 931d 36bd 4f13 babc b412 54bd c18a 8bbc
00000170: 9ee0 bcbc b711 3abd d874 86bc 9180 d23b
00000180: 0109 fcbc d216 e7bc a811 70bc 2751 20bc
00000190: ecbb 20bd ab2d 90bc 6f37 47bc 407e e23b
000001a0: 184e 9cbd 70c1 0ebd 8eda 03bd 5766 06bd
000001b0: 7991 fcbb 95b7 84bc c842 36bd 25be 41bb
000001c0: da07 16bc 48d3 9cbc 77aa c93c 7689 56bc
000001d0: 030b 5aba d0a2 e3bc 0a95 e43b 224f 12bc
000001e0: c063 313c 5dab 9fbc 43ab 263c e714 1e38
000001f0: c7b3 003c 451e 80bc 0fe3 fd3b 9b18 4cbd
00000200: d44a 88ba 00cf c2bb 826b cdbc 9f22 fb3b
00000210: d91c 703b dcac 943b 94a8 6abc 92ba c0bb
00000220: 7826 82bc fb6c fabb c6a7 b6bc 998c 093d
00000230: 277d 393c c407 76bc 284e b53b 4a86 36bc
00000240: 8a76 c7bc 9008 bdbc 7966 56bc 73f3 5abb
00000250: 42f6 84bb d2c4 cbbc 15e7 eabc a712 16bd
00000260: ffe2 423c 4556 7dbc 3b3a 25bc 9482 22bd
00000270: b6ec cbbc 6dbf cdbb e882 63bb a6e9 8fbc
00000280: 671a 12bd 4615 8bbc 1074 a5bc ff1c b4bc
00000290: 7998 acbc 59be 52bd 23af eebc 4700 09bc
000002a0: a645 4abc 461b 8e3c 4876 a13c 7373 4c3c
000002b0: 1028 c8bc 239f 54bd b0ee 92ba 500c 26bd
000002c0: a922 93bc ea71 d1bc c28e bcbc 4e00 1ebc
000002d0: aa32 3a3c 9057 0cbc 3ee3 04bd a4c3 06bc
000002e0: b234 dcbc 4a1a 6abd 708a b8bc 26da fdbc
000002f0: 58fd edbc 0285 1cbc 48ac 38bd 2010 edba
00000300: c765 abba fb67 00bc afa4 903b 30dd e7bc
00000310: c34d 30bd 19b8 9bbc 613c cabc 8d32 6bbc
00000320: d042 15bb 3b25 d3bc 7ce6 23bd 5b07 74bc
00000330: e9d5 28bc 9be0 00bd 03bb 8abb 2bb8 02bc
00000340: 03d9 98bc bfce c33b 237f b4bc 2ce1 253c
00000350: 0298 9fbc ca8b 3fbc a8f6 b83c 1f3f c6bc
00000360: 4a2f 063c 861f b8bc 2f5a a0bc 6970 ebbc
00000370: ae9d 1ebb 9d3d f8bb 4a90 0fbd f150 f8bc
00000380: 0dd8 63ba 009d 343c 5a13 273c 548d e0bc
00000390: c022 293c 31fb 863c 47db a3bb 9e16 163c
000003a0: 8976 74bd 2f6d 87bc 5633 00bc 46f6 82bc
000003b0: cd7c 29bd b3a6 23bd ff55 54bc b05b ac3c
000003c0: c311 57bc 4229 d9b9 8872 c7bc e8fd 27bd
000003d0: 2f97 8dbc 4a64 dbbc 507b a8bc 9cf2 6cbc
000003e0: e99d 98bc afb5 adbb f3b5 e7bc af46 ffbc
000003f0: 0882 4fbc 348c 493c 2d77 aebc 3889 11bd

network_body._body_endoder.seq_layers.2.weight f4 [256, 256]
-0.09516538 0.017960634 -0.033143923 -0.0066531883 0.084864736 -0.02778782 -0.05923475 0.0569405
0.109678246 0.0074386215 -0.031118736 0.04946885 -0.11176338 -0.05203777 -0.019941103 0.0038811848
-0.06139137 -0.09541348 0.035721783 0.03934527 -0.052571226 -0.0012515779 0.047084417 -0.008179125
0.034688476 -0.045055192 0.034213517 0.0114867585 0.013517062 0.02439832 0.07384554 0.08168638
0.10918251 -0.039265767 -0.036634736 -0.058601815 0.010064923 -0.038288094 -0.027380573 0.013233797
0.15758821 -0.05526745 0.054189406 0.10401693 0.008898254 -0.011680915 0.049517762 -0.0065584257
-0.0368768 0.09142467 0.029039517 -0.01195436 -0.028901106 0.078845955 0.06207913 0.0019855278
0.06336665 -0.027409427 -0.039169546 0.063567825 -0.044184368 0.0054285685 -0.076798685 -0.06667853
0.043171782 -0.027075108 -0.0039697853 -0.020816924 -0.05266525 -0.061862044 0.033982147 0.1328756
-0.0542584 0.058748003 -0.07666221 -0.004862968 0.079181895 0.055172477 0.057276417 0.037641194
0.058717955 0.024584157 0.044097353 0.05496763 0.030305274 -0.15017113 0.06387248 -0.06558059
-0.092341 -0.06001952 0.07151491 0.029490463 0.0042270324 -0.10837545 -0.039738797 0.06112441
-0.060785808 -0.028084787 0.03204471 0.096963294 0.0027605223 -0.044309843 0.030684723 -0.17165169
0.0861225 0.083988905 -0.17729926 0.057992022 0.06447418 -0.06279149 -0.005870911 0.05829535
-0.009088073 -0.006142667 0.10036947 0.0020013805 0.06392933 0.009591416 0.012189047 0.0824502
0.019743904 -0.042621844 -0.026607739 -0.00781444 0.11180865 -0.01907927 -0.17646456 0.077773176
0.121376306 0.009831257 -0.10040814 0.08032706 -0.06991645 0.027171854 -0.029752592 0.06742108
-0.10315154 0.018239988 -0.017100347 -0.07719384 -0.08494282 0.054366227 0.06627153 0.071099535
-0.09229389 0.035089735 -0.23787232 -0.010078669 -0.033287942 -0.07503549 0.039267384 -0.003789547
0.042174567 0.105081655 -0.02541751 -0.039656855 0.068643674 0.033671483 0.023155456 -0.081303656
-0.058923416 -0.05183673 0.070698574 0.040176142 -0.037871666 0.0019960406 -0.112782225 -0.033865392
-0.06819879 0.06164026 -0.038871586 -0.048126925 -0.019836668 -0.009530892 -0.03830446 0.028039306
0.119656116 0.0043086535 -0.0831576 -0.06478749 0.10493805 -0.09689327 -0.0132548595 -0.035022885
0.07101134 -0.06947896 -0.04345067 -0.045576625 0.04972076 0.08601456 0.024392791 -0.19265084
-0.060355145 0.042591132 0.007269265 -0.1096862 0.058223456 0.027406748 0.078693636 -0.007992195
0.012114644 0.00961615 0.10478788 0.02025384 0.044343375 -0.032306973 -0.084425606 0.054146796
-0.008656964 -0.027743181 -0.14362103 0.16175152 0.12201232 -0.012518167 0.11382938 -0.08401139
-0.0031380877 0.03263437 -0.058646534 -0.025816565 0.0009863125 -0.025935857 -0.0156069575 -0.12588692
-0.094378404 -0.05641951 -0.12689288 -0.031670056 -0.10360881 0.009010778 0.05206978 -0.107509725
-0.08188876 -0.10665506 0.040512018 -0.07400036 -0.00057655066 0.079259396 0.09237062 -0.08157997
0.0102897305 -0.14303258 0.10415733 -0.005973788 -0.033213925 -0.040274423 0.01792077 -0.033904646
-0.013842655 -0.15414782 -0.011348174 -0.05504951 -0.06431517 0.060242143 -0.07391424 0.035057228
00000000: 11e6 c2bd 2e22 933c ecc1 07bd fd02 dabb
00000010: 90cd ad3d 48a3 e3bc 23a0 72bd 713a 693d
00000020: fd9e e03d aebf f33b b8ec febc d99f 4a3d
00000030: 33e4 e4bd 8f25 55bd 865b a3bc 7a5b 7e3b
00000040: 8475 7bbd 2568 c3bd 0151 123d 8128 213d
00000050: ed54 57bd fc0b a4ba 97db 403d bd01 06bc
00000060: 8115 0e3d cb8b 38bd 7923 0c3d f532 3c3c
00000070: ab76 5d3c fcde c73c 553c 973d 304b a73d
00000080: 149b df3d 24d5 20bd 4e0e 16bd 7508 70bd
00000090: 59e7 243c fad3 1cbd 394d e0bc 91d2 583c
000000a0: ce5e 213e 1f60 62bd b6f5 5d3d d406 d53d
000000b0: fbc9 113c 4f61 3fbc 23d3 4a3d 10e8 d6bb
000000c0: 210c 17bd db3c bb3d 48e4 ed3c 38dc 43bc
000000d0: 03c2 ecbc fd79 a13d b046 7e3d a11f 023b
000000e0: 60c6 813d bc89 e0bc 3f70 20bd d92f 823d
000000f0: abfa 34bd 22e2 b13b a148 9dbd c18e 88bd
00000100: e5d4 303d 9ecc ddbc f914 82bb 4188 aabc
00000110: 84b7 57bd 0e63 7dbd dd30 0b3d 8b10 083e
00000120: 0e3e 5ebd bfa1 703d 1401 9dbd 8859 9fbb
00000130: 1e2a a23d 89fc 613d ad9a 6a3d a72d 1a3d
00000140: 3d82 703d b764 c93c 6d9f 343d bd25 613d
00000150: c442 f83c 76c6 19be 93cf 823d 1e4f 86bd
00000160: 471d bdbd 07d7 75bd 6976 923d fc95 f13c
00000170: eb82 8a3b f3f3 ddbd 26c5 22bd 975d 7a3d
00000180: 8afa 78bd 1112 e6bc 5041 033d b194 c63d
00000190: e1e9 343b 3d7e 35bd 875e fb3c 76c5 2fbe
000001a0: fe60 b03d 6002 ac3d f08d 35be 0b89 6d3d
000001b0: 0a0b 843d d398 80bd c560 c0bb 1bc7 6e3d
000001c0: 24e6 14bc 6d48 c9bb 828e cd3d 9829 033b
000001d0: 61ed 823d 5125 1d3c 92b4 473c a7db a83d
000001e0: f8bd a13c 3e94 2ebd 79f8 d9bc 2308 00bc
000001f0: effb e43d 214c 9cbc 20b3 34be 8b47 9f3d
00000200: 2494 f83d 4813 213c c8a2 cdbd 8382 a43d
00000210: 5b30 8fbd 8297 de3c b5bb f3bc 1014 8a3d
00000220: 1d41 d3bd 076c 953c 0716 8cbc ce17 9ebd
00000230: 80f6 adbd 1faf 5e3d 5eb9 873d a29c 913d
00000240: 9404 bdbd 41ba 0f3d cd94 73be 0021 25bc
00000250: f058 08bd 35ac 99bd d6d6 203d 0c5a 78bb
00000260: 3dbf 2c3d 0d35 d73d 6238 d0bc 3a6f 22bd
00000270: 0e95 8c3d 1ceb 093d 83b0 bd3c 8882 a6bd
00000280: ae59 71bd c052 54bd 6aca 903d bd8f 243d
00000290: 521f 1bbd 01d0 023b 5efa e6bd 70b6 0abd
000002a0: cfab 8bbd 7f7a 7c3d d037 1fbd bd20 45bd
000002b0: 8280 a2bc 7527 1cbc 23e5 1cbd b0b2 e53c
000002c0: 440e f53d 9b2f 8d3b 884e aabd 4eaf 84bd
000002d0: c3e9 d63d fb6f c6bd e92a 59bc 2874 0fbd
000002e0: 656e 913d fc4a 8ebd 54f9 31bd 8eae 3abd
000002f0: ffa7 4b3d 6728 b03d 64d3 c73c 4346 45be
00000300: f536 77bd 0a74 2e3d 0433 ee3b 29a3 e0bd
00000310: b87b 6e3d 1e84 e03c 212a a13d b2f1 02bc
00000320: 807c 463c 0e8d 1d3c 079b d63d 62eb a53c
00000330: 66a1 353d 5154 04bd 55e7 acbd 08c9 5d3d
00000340: f0d5 0dbc ab45 e3bc 6411 13be 31a2 253e
00000350: 98e1 f93d ff18 4dbc 611f e93d 2a0e acbd
00000360: 60a8 4dbb 9eab 053d 5937 70bd 437d d3bc
00000370: 2847 813a 6f77 d4bc 53b4 7fbc 80e8 00be
00000380: 7749 c1bd 2518 67bd 35f0 01be 76b8 01bd
00000390: db30 d4bd f1a1 133c 1f47 553d 0f2e dcbd
000003a0: 4bb5 a7bd f86d dabd eeef 253d 808d 97bd
000003b0: a923 17ba c052 a23d cf2c bd3d 6613 a7bd
000003c0: 4296 283c 2277 12be 7050 d53d c4bf c3bb
000003d0: 530b 08bd cbf6 24bd 94ce 923c 99df 0abd
000003e0: 4ecc 62bc edd8 1dbe b1ed 39bc 987b 61bd
000003f0: acb7 83bd 77c0 763d 5960 97bd 2b98 0f3d

network_body._body_endoder.seq_layers.2.bias f4 [256]
0.0054009412 -0.027298525 0.0029310407 -0.03134608 -0.01748956 -0.057267793 -0.024446158 -0.0055658678
-0.011614266 -0.0021731001 -0.02937629 -0.0206775 -0.031814896 -0.014448141 -0.022804331 -0.03410608
-0.012277599 -0.032806788 -0.0019385297 0.005602239 -0.011224865 -0.047185756 -0.0006891819 -0.030268535
-0.042391296 -0.045357443 0.002406646 -0.03982305 -0.05434927 -0.002437759 -0.029578567 -0.027903374
-0.008642374 -0.012406624 -0.013519991 -0.050901074 -0.0063035707 -0.025861569 -0.028333355 -0.008889886
-0.019145126 -0.010568453 -0.0026836349 -0.015467096 -0.019946313 -0.025483297 -0.044437993 -0.025671098
-0.04815812 0.0012115539 -0.019042209 -0.019412952 -0.03467257 -0.027134458 -0.030546637 -0.017807398
-0.0046592387 -0.025633387 0.009818419 -0.026599845 -0.005017258 -0.026453571 -0.023830084 -0.00074842724
-0.043022286 -0.011393252 -0.042468943 -0.011234759 -0.0027820263 0.00043987177 -0.030677117 -0.05862881
-0.0520492 -0.016562387 -0.014604774 -0.03669076 -0.027444556 -0.025655873 -0.020792093 -0.025966417
-0.010433185 -0.029203227 -0.013114936 -0.015659705 -0.023124086 -0.011729356 -0.023946308 -0.03668789
-0.022249438 -0.01303826 -0.0008229265 -0.04013752 -0.013694065 -0.0149954455 -0.026305666 -0.0054332297
-0.024815217 0.015155379 -0.021065269 -0.020023389 -0.024702143 0.012962893 -0.02240758 -0.009808653
0.013368947 -0.030268127 -0.044098187 -0.029736932 -0.040409904 -0.006568261 -0.012374563 -0.016449984
-0.0116602285 -0.005189605 -0.032846678 -0.013091943 -0.0086958045 -0.02655307 -0.009581369 0.009666291
-0.034649175 -0.0044026924 -0.008890583 0.00032077538 -0.03307717 -0.008029446 -0.02582352 -0.0052319043
0.005577732 -0.0012076929 -0.010642775 -0.0030485352 -0.017868476 0.01757851 0.011465968 -0.008050657
-0.037633166 -0.0010164243 -0.04029973 -0.017168328 -0.00044276178 -0.01676264 -0.027327314 -0.0068784445
-0.024976077 -0.0091366125 -0.00094541605 -0.041255027 -0.041408747 -0.016306557 0.00973781 0.0034466623
-0.023491204 -0.032191526 -0.024279213 -0.0143704405 -0.010787804 -0.02461584 -0.018390968 -0.009830477
-0.018273287 0.0018092162 -0.000854597 -0.015054074 -0.032224428 -0.014115822 0.0041564484 -0.023519117
-0.022213588 -0.014752987 -0.013840899 -0.011695996 0.017627388 -0.0060149957 0.004890387 -0.007526191
0.0094253495 -0.032607965 -0.00601892 -0.045456886 -0.02607314 -0.01139971 -0.029355004 -0.014277585
-0.030365732 -0.017068647 -0.026029028 -0.0035432414 -0.00085717224 0.025514863 -0.030256506 -0.07445663
-0.019596819 -0.021486258 -0.0041756486 -0.023123628 -0.042906694 -0.016255816 -0.026832618 -0.028410805
-0.010296866 -0.028550515 -0.0045934585 -0.024306847 -0.006371443 -0.022461733 0.0043743304 -0.033909433
-0.021882962 -0.03419576 -0.019218618 -0.026575278 -0.028653186 -0.024446288 -0.00072033756 0.028597174
-0.018906185 -0.039875828 -0.05509606 -0.010568182 -0.025970042 -0.032291163 -0.012480962 -0.020957073
0.0003684267 -0.022204267 -0.008421753 -0.026153013 -0.009532813 -0.026677923 -0.029557265 -0.05073183
-0.033404298 -0.022508603 -0.014688721 0.004427713 -0.027338522 -0.003376303 -0.0396809 -0.0020637733
-0.032974076 -0.027871573 -0.012523386 -0.0008402281 -0.007904814 -0.02145074 -0.0005239669 0.023114784
-0.045362085 0.0013099636 -0.0072625796 -0.029404454 -0.0022926598 -0.013737103 -0.029891819 -0.020987779
00000000: 61fa b03b 28a1 dfbc b416 403b bf64 00bd
00000010: 4446 8fbc a291 6abd 4f43 c8bc e261 b6bb
00000020: c349 3ebc 926a 0ebb 8ca6 f0bc dc63 a9bc
00000030: 5650 02bd e5b7 6cbc 26d0 babc d1b2 0bbd
00000040: fc27 49bc 6960 06bd 4316 feba fd92 b73b
00000050: 7fe8 37bc da45 41bd 37aa 34ba b8f5 f7bc
00000060: 7fa2 2dbd bac8 39bd d2b8 1d3b 7f1d 23bd
00000070: 579d 5ebd cfc2 1fbb c04e f2bc 9e95 e4bc
00000080: be98 0dbc 2745 4bbc f482 5dbc a57d 50bd
00000090: 2f8e cebb a4db d3bc 5a1b e8bc e2a6 11bc
000000a0: 3dd6 9cbc 4e27 2dbc ecdf 2fbb b469 7dbc
000000b0: 7366 a3bc 59c2 d0bc 9d04 36bd 324c d2bc
000000c0: 7341 45bd 01cd 9e3a 68fe 9bbc e907 9fbc
000000d0: d304 0ebd 1549 debc f13c fabc d2e0 91bc
000000e0: 87ac 98bb 1cfd d1bc 6fdd 203c ebe7 d9bc
000000f0: d067 a4bb 29b5 d8bc 4f37 c3bc 1a32 44ba
00000100: 2338 30bd c3aa 3abc eaf3 2dbd ff11 38bc
00000110: a852 36bb 979e e639 944e fbbc c324 70bd
00000120: 8b31 55bd d8ad 87bc dd48 6fbc 0d49 16bd
00000130: 68d3 e0bc 442c d2bc 2e54 aabc 86b7 d4bc
00000140: f3ef 2abc 9b3b efbc 07e0 56bc c848 80bc
00000150: b96e bdbc 7c2c 40bc 0c2b c4bc 0a46 16bd
00000160: 7444 b6bc 6d9e 55bc aab9 57ba 3d67 24bd
00000170: 125d 60bc 75af 75bc fb7e d7bc 3c09 b2bb
00000180: 4849 cbbc 444e 783c 1291 acbc 1708 a4bc
00000190: 265c cabc 5062 543c 1a90 b7bc 79b4 20bc
000001a0: 6e09 5b3c ddf4 f7bc 4da0 34bd de9a f3bc
000001b0: db84 25bd 913a d7bb aebe 4abc 1ec2 86bc
000001c0: 8b0a 3fbc 900d aabb 3d8a 06bd 977f 56bc
000001d0: d978 0ebc d385 d9bc 2dfb 1cbc 5d5f 1e3c
000001e0: 4bec 0dbd 7644 90bb cfa9 11bc be2d a839
000001f0: ed7b 07bd f08d 03bc d98b d3bc 6570 abbb
00000200: 68c5 b63b 734b 9eba 095f 2ebc efc9 47bb
00000210: e960 92bc cf00 903c c1db 3b3c e7e6 03bc
00000220: 3c25 1abd 8a39 85ba 5411 25bd 98a4 8cbc
00000230: 7b22 e8b9 ce51 89bc 88dd dfbc 9364 e1bb
00000240: a19a ccbc bbb1 15bc ccd5 77ba 08fb 28bd
00000250: 389c 29bd 5495 85bc 568b 1f3c 66e1 613b
00000260: a070 c0bc 43db 03bd 33e5 c6bc ff71 6bbc
00000270: 54bf 30bc 28a7 c9bc a8a8 96bc 0210 21bc
00000280: dcb1 95bc 3923 ed3a 0907 60ba 5da5 76bc
00000290: c3fd 03bd 0c46 67bc d132 883b 2aab c0bc
000002a0: 45f9 b5bc 83b6 71bc f0c4 62bc 90a0 3fbc
000002b0: 5067 903c 7119 c5bb 8a3f a03b 449e f6bb
000002c0: c86c 1a3c ee8f 05bd 5c3a c5bb 0031 3abd
000002d0: 5697 d5bc d9c5 3abc e879 f0bc 88ec 69bc
000002e0: 8ec1 f8bc 8cd3 8bbc d43a d5bc ba35 68bb
000002f0: dbb3 60ba 8c04 d13c 7edc f7bc b87c 98bd
00000300: 8289 a0bc f303 b0bc e1d3 88bb c36d bdbc
00000310: eebe 2fbd eb2a 85bc 14d0 dbbc c7bd e8bc
00000320: 30b4 28bc c5e2 e9bc b984 96bb 271f c7bc
00000330: 8ac7 d0bb ab01 b8bc 8b56 8f3b 9ee4 0abd
00000340: e643 b3bc da10 0cbd 5d70 9dbc 66b4 d9bc
00000350: 16ba eabc 9543 c8bc 09d5 3cba 9f44 ea3c
00000360: 25e1 9abc d654 23bd 68ac 61bd 2b26 2dbc
00000370: 20bf d4bc bd43 04bd f37c 4cbc 2bae abbc
00000380: 6529 c139 b9e5 b5bc 64fb 09bc d83e d6bc
00000390: 842f 1cbc a98b dabc 1422 f2bc 2ecc 4fbd
000003a0: f2d2 08bd f663 b8bc f6a8 70bc 5916 913b
000003b0: 09f5 dfbc f744 5dbb 7088 22bd 5f40 07bb
000003c0: d30f 07bd ed52 e4bc e32e 4dbc c142 5cba
000003d0: 3183 01bc 76b9 afbc d35a 09ba 375b bd3c
000003e0: 98cd 39bd 16b3 ab3a effa edbb 9ce1 f0bc
000003f0: 7340 16bb 9611 61bc b0df f4bc 90ee abbc

action_model._discrete_distribution.branches.0.weight f4 [4, 256]
-0.008566593 -0.0089246575 -0.0030544386 -0.0040722773 0.006671881 -0.0017428654 0.00907338 0.006522197
0.005575299 -0.016683351 -0.0132580465 0.018507838 -0.036365677 0.013202345 -0.010381915 0.003032932
-0.006448869 0.0039780233 -0.007107824 0.003173466 -0.009755186 0.0016988853 0.005934484 -0.009316623
0.01439269 0.014412921 -0.053096324 0.0029742944 -0.014783385 -0.0011297979 0.0051179933 -0.00144409
-0.002100627 0.011036449 -0.0136919785 0.0065065078 -0.014488077 0.012014282 -0.0029254064 -0.021855304
0.0018037525 0.0034558307 -0.0011544303 0.004946862 0.00034068417 0.0014210562 -0.0010634231 0.008933131
-0.0056568924 0.015833212 -0.01031602 0.007682051 -0.0024547467 -0.008475789 0.023448134 -0.0011534159
0.013422285 -0.00046186207 0.012963883 -0.0023209646 0.024786226 -0.012311899 -0.0039013769 0.004735601
0.010042119 0.017092299 0.0054802187 -0.002896764 -0.009037601 0.0070110904 -0.013120744 -0.0060153874
0.0007687243 0.0040871482 -0.010845171 -0.0077385874 0.0042735944 0.009551649 0.0012174905 0.014987803
-0.0020879777 -0.0059141205 0.005355812 0.011747088 0.012207454 -0.007970655 0.004985301 0.02019813
0.008233484 -0.0066656624 -0.01587385 0.010930017 0.017356815 0.006015715 -0.010396022 -0.0013255936
0.0021038877 -0.015909694 -0.01877425 0.0034571278 -0.01083318 -0.0080092745 0.0071326406 0.006869106
0.008968411 -0.0010577361 -0.040800463 -0.011206312 0.012911072 -0.00972236 0.021392642 -0.0043184888
-0.003766153 -0.03119488 -0.011342589 -0.0060103782 -0.011452606 0.009945815 -0.00018842913 -0.014859665
0.0016869559 -0.021031076 0.016285999 -0.0124545265 -0.0003322177 -0.03258634 0.0072574248 -0.003456558
-0.005392411 -0.03146464 -0.0061797956 -0.004157409 0.012846696 -0.021386411 -0.009528654 0.0051611518
0.010663827 -0.0006785575 -0.0023226566 -0.00039767023 -0.020098709 0.006317542 0.012221949 0.0015075789
0.014005588 -1.6184558e-05 0.01656504 -0.0052572927 -0.020815158 -0.0035226645 0.013295209 -0.033284597
-0.006629833 -0.008340205 0.008270336 0.022379862 -0.017485624 0.016623892 0.004586804 -0.019477446
-0.026962183 -0.010734434 -0.008958676 -0.01725089 -0.029978823 0.013339515 -0.016179396 0.009906918
0.006986555 -0.00782197 -0.00506322 0.012055715 -0.012571108 -0.0007744747 0.001587637 0.0077386186
-0.024364358 0.009731726 0.0011651169 0.008286572 -0.002605764 -0.0052626333 0.015062163 0.009329296
0.005885804 -0.019004803 0.006653975 -0.015187032 0.008391407 -0.01613088 -0.0076833726 0.0017493668
-0.000383829 -0.032324947 0.017835971 0.010642397 0.01283302 -0.015100482 0.012732034 0.0057880403
-0.008427389 -0.0153304115 0.017634077 0.0050053275 -0.00018899662 2.3998239e-06 0.006520363 -0.0020939677
0.009517231 0.00018100068 -0.008742701 0.009284081 0.011487357 -0.0026359546 -0.008020307 -0.012177445
0.013277596 -0.0001241537 0.0006173111 -0.00212047 0.015796807 -0.018103087 -0.001793788 0.0010897603
-0.008932351 0.01965866 -0.02075248 0.003718536 0.007316751 0.00690865 0.0012123588 -0.0014036265
-0.0076177195 0.020075059 0.0037557571 -0.025660196 0.008525352 -0.005102817 0.009008882 -0.008430237
0.0018044581 0.012047814 -0.013592803 -0.057319224 -0.010642098 -0.0088911485 -0.007271403 -0.023530638
0.013138555 0.004680886 0.008441407 0.016439633 0.0005472877 0.012087788 0.0062434087 0.016715944
00000000: e55a 0cbc ba38 12bc fa2c 48bb bd70 85bb
00000010: cb9f da3b dc70 e4ba 84a8 143c 27b8 d53b
00000020: ffb0 b63b 86ab 88bc 4738 59bc c09d 973c
00000030: 2df4 14bd a64e 583c e818 2abc 28c4 463b
00000040: 0951 d3bb 145a 823b c0e8 e8bb edf9 4f3b
00000050: 37d4 1fbc 22ad de3a 0f76 c23b c0a4 18bc
00000060: 51cf 6b3c 2c24 6c3c 887b 59bd 61ec 423b
00000070: 0336 72bc ba15 94ba d7b4 a73b 9f47 bdba
00000080: acaa 09bb 39d2 343c 5254 60bc 8b34 d53b
00000090: 665f 6dbc 8dd7 443c 2db8 3fbb e509 b3bc
000000a0: e46b ec3a 387b 623b 4150 97ba 4919 a23b
000000b0: db9d b239 bc42 ba3a 8f62 8bba 445c 123c
000000c0: 745d b9bb a7b4 813c 8604 29bc b7b9 fb3b
000000d0: d1df 20bb 09de 0abc 4d16 c03c 372e 97ba
000000e0: 25e9 5b3c 1426 f2b9 7766 543c 531b 18bb
000000f0: 7c0c cb3c d9b7 49bc 3eae 7fbb 1a2d 9b3b
00000100: b387 243c 2605 8c3c 6893 b33b a3d7 3dbb
00000110: 7212 14bc 4abd e53b 64f8 56bc ba1c c5bb
00000120: 3784 493a 7ced 853b f2af 31bc fa93 fdbb
00000130: 8209 8c3b 857e 1c3c 3494 9f3a 678f 753c
00000140: 74d6 08bb 3dcb c1bb cf7f af3b dc76 403c
00000150: c601 483c 5a97 02bc bc5b a33b 8c76 a53c
00000160: bce5 063c a16b dabb e009 82bc d013 333c
00000170: e12f 8e3c 7a1f c53b 1454 2abc 8abf adba
00000180: 61e1 093b 0c55 82bc 75cc 99bc fb90 623b
00000190: a67d 31bc 5539 03bc edb8 e93b 3d16 e13b
000001a0: 3ef0 123c bca3 8aba 631e 27bd ae9a 37bc
000001b0: f688 533c 894a 1fbc 9f3f af3c 1c82 8dbb
000001c0: 90d1 76bb 688c ffbc 44d6 39bc b5f2 c4bb
000001d0: b6a3 3bbc c6f3 223c 0f95 45b9 f475 73bc
000001e0: d91c dd3a 5d49 acbc 376a 853c 120e 4cbc
000001f0: 812d aeb9 4179 05bd b1cf ed3b 6c87 62bb
00000200: d2b2 b0bb 11e1 00bd e27f cabb e03a 88bb
00000210: f37a 523c 8e32 afbc 121e 1cbc e11e a93b
00000220: 55b7 2e3c 39e1 31ba b637 18bb 657e d0b9
00000230: 0ca6 a4bc 6203 cf3b 923e 483c f499 c53a
00000240: b277 653c 13c4 87b7 68b3 873c 5e45 acbb
00000250: 8d84 aabc 81dc 66bb 26d4 593c 6e55 08bd
00000260: 123f d9bb 5ba5 08bc 4e80 073c f955 b73c
00000270: 033e 8fbc d42e 883c e74c 963b 2a8f 9fbc
00000280: ccdf dcbc 7bdf 2fbc 69c7 12bc bd51 8dbc
00000290: 2696 f5bc fb8d 5a3c a78a 84bc a050 223c
000002a0: 79ef e43b b827 00bc 5ee9 a5bb 5585 453c
000002b0: 0cf7 4dbc 1e06 4bba 4218 d03a 3d94 fd3b
000002c0: c397 c7bc d171 1f3c d6b6 983a 67c4 073c
000002d0: 77c5 2abb 2b72 acbb 4ac7 763c e7d9 183c
000002e0: b4dd c03b f6af 9bbc 9709 da3b 07d3 78bc
000002f0: 1d7c 093c e824 84bc cdc4 fbbb 024b e53a
00000300: a83c c9b9 2a67 04bd be1c 923c 735d 2e3c
00000310: 9641 523c 0368 77bc 059a 503c 9aa9 bd3b
00000320: 0813 0abc 682c 7bbc 5775 903c bb03 a43b
00000330: 652d 46b9 a90c 2136 c5a8 d53b f33a 09bb
00000340: 29ee 1b3c 00cb 3d39 8c3d 0fbc 421c 183c
00000350: 7835 3c3c fbbf 2cbb 9b67 03bc e883 47bc
00000360: 468a 593c 412f 02b9 0cd3 213a 95f7 0abb
00000370: 4e68 813c ed4c 94bc 8a1d ebba 4ad6 8e3a
00000380: ff58 12bc 330b a13c 1b01 aabc afb2 733b
00000390: 5bc1 ef3b f561 e23b 03e8 9e3a e4f9 b7ba
000003a0: 109e f9bb 7374 a43c 2623 763b 5535 d2bc
000003b0: ebad 0b3c 8835 a7bb fd99 133c fa1e 0abc
000003c0: 9183 ec3a 3264 453c 59b4 5ebc 90c7 6abd
000003d0: 325c 2ebc 2eac 11bc f344 eebb 53c3 c0bc
000003e0: 1843 573c 1e62 993b d44d 0a3c 69ac 863c
000003f0: db77 0f3a dc0b 463c 8295 cc3b e0ef 883c

action_model._discrete_distribution.branches.0.bias f4 [4]
0.019549271 -0.009746093 -0.008816805 -0.0019554994
00000000: cb25 a03c 14ae 1fbc 5c74 10bc d627 00bb

action_model._discrete_distribution.branches.1.weight f4 [3, 256]
-0.023989128 -0.008958128 0.0005063199 -0.014297487 -0.020868855 -0.0015753348 0.022858342 0.01126494
-0.003868253 -0.0012590614 -0.003003499 -0.014582253 -0.0034170707 -0.014031449 -0.014083595 0.0183733
0.007073952 0.0021468268 0.012786578 -0.0072812736 0.011633011 -0.015935265 -0.0094139185 -0.014943239
5.6233042e-05 0.00581828 0.008842392 0.008287021 0.0070863543 -0.0140754515 -0.009166984 0.008620969
-0.0059177326 -0.006336291 0.009856957 -0.004287038 -0.019476999 -0.00068842835 -0.00072601915 0.009806492
0.003693852 -0.00010058091 0.0022522926 -0.010187728 0.002392869 0.007998788 -0.00095162593 0.0022513235
-0.0014074852 -0.0076274527 -0.0037032424 0.00232683 0.015243475 -0.0049001654 0.005120451 0.0045236456
0.0070240735 -1.0327443e-05 0.0030305092 -0.014702266 0.0048375325 0.0034201224 0.00841077 -0.013330892
-0.0022119007 0.003337521 0.018779855 -0.0068808864 -0.0028120154 -0.001605064 -0.011035974 0.006725132
-0.004077405 -0.0037855199 0.0038174945 -0.0060617537 0.0023257216 0.0037315048 -0.0019249694 -0.0028370784
-0.00387177 -0.0033856935 -0.0052506 -0.0015080975 0.0042217067 0.015259389 0.00044828514 0.0011031018
-0.0041620196 -0.013891096 0.010860991 -0.01647164 -0.011128917 0.016825577 -0.00613324 -0.0088971155
0.016989747 0.008483168 -0.014879791 -0.00027001702 0.0012175826 -0.011676713 0.00406683 0.01035399
-0.002991212 -0.024773866 0.0014923328 -0.0036074074 0.0052906466 -0.0031021868 -0.0016388152 -0.0025705153
0.003566893 -0.015292745 0.0067036734 0.003246022 0.009978909 0.011618371 0.0033117707 0.009472128
0.006408816 -0.0084747365 -0.0045733913 0.012311343 0.0035481008 0.002558535 -0.001978902 -0.0022619374
0.011624789 -0.011277899 0.0063749333 -0.0042054392 0.0005879988 -0.0033879024 0.006466406 0.0019661798
-0.00085003494 -0.002157897 -0.004139964 0.0015838272 0.0072288965 -0.0058051236 -0.016123632 0.011953952
-0.006415489 0.015176588 -0.0049800603 0.006190899 -0.0031245383 0.0025719288 -0.01100536 0.015965443
-0.0071397936 0.008874407 -0.008545744 -0.0064366283 -0.00635211 -0.012407768 -0.011841904 0.009747321
0.007775454 0.005954946 0.004726437 0.006563679 -0.009753442 0.0037429528 0.021093471 -0.0027771455
-0.010317573 0.0096856505 -0.0014159032 0.0023194172 0.017058445 -0.0013183088 -0.019191926 0.008136237
-0.0017274079 -0.006292046 -0.0062773973 -0.021762058 -0.0029449794 -0.005242677 -0.005363611 0.015108963
-0.012082087 -0.014513558 -0.009842664 -0.01808669 0.0021651953 0.002622768 -0.010053621 -0.020638883
-0.0053682793 -0.02200018 -0.0019469287 -0.016808068 -0.012536748 0.002811227 -0.011694902 -0.017284075
-0.009507705 0.007022371 -0.005341935 0.008796265 -0.009179457 0.0177538 -0.009686678 -0.0028213772
0.008989115 -0.0077248444 0.0006736436 -0.005069263 -0.0106840385 0.013290135 0.0012508469 -0.0023613975
0.0012046169 -0.0017958032 -0.0017454685 -0.0025375257 -0.0077984477 -0.009767439 -0.0036659937 -0.006533464
0.009451314 -0.013056688 -0.008271118 -0.0031969636 -0.00079807336 -0.0113851335 -0.0011903762 -0.013129737
-0.00025548023 -0.0030570556 0.020136328 0.014918714 0.008090212 0.009527526 0.00011937399 -0.007933116
0.006922247 -0.0011497154 -0.0076728156 0.002039234 0.005105936 -0.005422503 0.0059328787 -0.015641786
-0.008080395 -0.0009309193 -0.023656555 -0.0030466611 -0.001779845 0.009943626 -0.015334766 0.006182793
00000000: d984 c4bc 1dc5 12bc 8eba 043a 0240 6abc
00000010: 29f5 aabc 777b ceba 6b41 bb3c 9590 383c
00000020: 8482 7dbb 1707 a5ba 5ad6 44bb 67ea 6ebc
00000030: eff0 5fbb 2ae4 65bc e1be 66bc 9a83 963c
00000040: 9ccc e73b c7b1 0c3b cc7e 513c c097 eebb
00000050: 6298 3e3c ac8a 82bc d63c 1abc 7dd4 74bc
00000060: c5db 6b38 45a7 be3b aedf 103c 49c6 073c
00000070: a634 e83b b99c 66bc 1e31 16bc f73e 0d3c
00000080: 8ae9 c1bb a9a0 cfbb 137f 213c 487a 8cbb
00000090: 3a8e 9fbc a577 34ba 5252 3eba 69ab 203c
000000a0: 8e14 723b f7ee d2b8 339b 133b 6eea 26bc
000000b0: aed1 1c3b 590d 033c 8976 79ba f18a 133b
000000c0: 5e7b b8ba b6ef f9bb 19b2 72bb bb7d 183b
000000d0: c5bf 793c 9191 a0bb 75c9 a73b 173b 943b
000000e0: 332a e63b 0844 2db7 829b 463b c6e1 70bc
000000f0: 2a84 9e3b 2224 603b 54cd 093c d069 5abc
00000100: 89f5 10bb 50ba 5a3b 36d8 993c 0f79 e1bb
00000110: ca49 38bb 0361 d2ba 3bd0 34bc 7f5e dc3b
00000120: c19b 85bb 7c16 78bb ee2e 7a3b ada1 c6bb
00000130: 226b 183b 438c 743b 414f fcba 47ee 39bb
00000140: 86bd 7dbb 83e2 5dbb 3a0d acbb 5bab c5ba
00000150: 3e56 8a3b 8402 7a3c d007 eb39 f495 903a
00000160: 8d61 88bb 7b97 63bc 4cf2 313c 88ef 86bc
00000170: 1056 36bc cbd5 893c 59f9 c8bb 35c5 11bc
00000180: 152e 8b3c fcfc 0a3c 5eca 73bc 1291 8db9
00000190: 4b97 9f3a af4f 3fbc 0b43 853b c8a3 293c
000001a0: 3608 44bb 90f2 cabc 619a c33a 416a 6cbb
000001b0: 295d ad3b 0f4e 4bbb 83cd d6ba 1776 28bb
000001c0: 89c2 693b 6c8e 7abc 7daa db3b 36bb 543b
000001d0: 947e 233c fb5a 3e3c 4b0a 593b fc30 1b3c
000001e0: 0c01 d23b 9fd9 0abc 63dc 95bb 84b5 493c
000001f0: 4187 683b 18ad 273b 77b0 01bb 033d 14bb
00000200: e675 3e3c f0c6 38bc d1e4 d03b c8cd 89bb
00000210: ee23 1a3a 9207 5ebb 25e4 d33b 06db 003b
00000220: e1d4 5eba 816b 0dbb 89a8 87bb 6c98 cf3a
00000230: 61e0 ec3b e838 bebb b515 84bc 82da 433c
00000240: 0639 d2bb 39a7 783c c62f a3bb 06dd ca3b
00000250: 0ec5 4cbb ce8d 283b d34f 34bc f6c9 823c
00000260: eef4 e9bb f665 113c 7303 0cbc 5aea d2bb
00000270: 5c25 d0bb f349 4bbc 8c04 42bc 3ab3 1f3c
00000280: 3cc9 fe3b b521 c33b 3ae0 9a3b 2114 d73b
00000290: e7cc 1fbc 544c 753b 37cc ac3c c500 36bb
000002a0: 0a0b 29bc 90b0 1e3c d495 b9ba 5d01 183b
000002b0: 27be 8b3c 1acb acba 6338 9dbc da4d 053c
000002c0: 316a e2ba 822d cebb a0b2 cdbb 5846 b2bc
000002d0: 8e00 41bb c3ca abbb 3bc1 afbb 958b 773c
000002e0: f2f3 45bc 46ca 6dbc 2043 21bc 8a2a 94bc
000002f0: f3e5 0d3b bfe2 2b3b f1b7 24bc e012 a9bc
00000300: 64e8 afbb b939 b4bc 1630 ffba 13b1 89bc
00000310: ef66 4dbc 903c 383b f99b 3fbc 5597 8dbc
00000320: 35c6 1bbc eb1b e63b 660b afbb 361e 103c
00000330: 6f65 16bc 6b70 913c dfb4 1ebc dbe6 38bb
00000340: 1547 133c b120 fdbb 7597 303a 0f1c a6bb
00000350: 1b0c 2fbc debe 593c 75f3 a33a adc1 1abb
00000360: 3ce4 9d3a 2861 ebba 34c8 e4ba 9e4c 26bb
00000370: 1f8a ffbb 9c07 20bc 2b41 70bb ab16 d6bb
00000380: afd9 1a3c b8eb 55bc 9583 07bc 2684 51bb
00000390: cc35 51ba b688 3abc 6606 9cba 1c1e 57bc
000003a0: faf1 85b9 e258 48bb f1f4 a43c 9f6d 743c
000003b0: cf8c 043c 5719 1c3c 6c58 fa38 e6f9 01bc
000003c0: 04d4 e23b 0cb2 96ba 3e6c fbbb aba4 053b
000003d0: b24f a73b 41af b1bb 9868 c23b 3423 80bc
000003e0: a263 04bc f008 74ba 64cb c1bc 7eaa 47bb
000003f0: b049 e9ba 97ea 223c ac3e 7bbc 0799 ca3b

action_model._discrete_distribution.branches.1.bias f4 [3]
0.022009315 -0.0013381839 -0.020288384
00000000: e14c b43c 0066 afba d333 a6bc

onnx::Div_88 f4 [35]
0.010813645 0.0013413723 0.0013413723 0.010978736 0.005569404 0.14362858 0.0013413723 0.0013413723
0.14363457 0.076418795 0.2239145 0.0013413723 0.0013413723 0.22391811 0.09997505 0.20513059
0.0013413723 0.0013413723 0.2053944 0.1402721 0.42438635 0.0013413723 0.0013413723 0.42647147
0.22146875 0.3419623 0.0013413723 0.0013413723 0.34197786 0.19901837 0.46477047 0.0013413723
0.0013413723 0.4663589 0.25690195
00000000: b72b 313c fcd0 af3a fcd0 af3a 28e0 333c
00000010: 8c7f b63b 5f13 133e fcd0 af3a fcd0 af3a
00000020: f114 133e 7581 9c3d d849 653e fcd0 af3a
00000030: fcd0 af3a ca4a 653e b8bf cc3d c10d 523e
00000040: fcd0 af3a fcd0 af3a e952 523e 7da3 0f3e
00000050: 2b49 d93e fcd0 af3a fcd0 af3a 785a da3e
00000060: b4c8 623e af15 af3e fcd0 af3a fcd0 af3a
00000070: b917 af3e 79cb 4b3e 65f6 ed3e fcd0 af3a
00000080: fcd0 af3a 98c6 ee3e a788 833e

onnx::Div_91 f4 [135]
0.0013413723 0.26615486 0.3330366 0.40357438 0.15710524 0.0013413723 0.4756726 0.25206137
0.49275097 0.26042235 0.0013413723 0.45889807 0.29177883 0.4891689 0.23976316 0.0013413723
0.49822944 0.035719242 0.4980272 0.3228531 0.0013413723 0.4908772 0.16816208 0.48323175
0.24823241 0.0013413723 0.4831329 0.030426554 0.48260304 0.30289915 0.0013413723 0.46910912
0.09800058 0.47400856 0.20715538 0.0013413723 0.48931324 0.0013413723 0.48953155 0.13624421
0.0013413723 0.16506678 0.0013413723 0.16802604 0.07501779 0.0013413723 0.26616055 0.33315718
0.40327376 0.15569031 0.0018969843 0.47567588 0.25216925 0.4926734 0.25978184 0.0013413723
0.4589031 0.29192153 0.48908275 0.2390082 0.0018969843 0.4982282 0.035819598 0.49807236
0.3225359 0.0013413723 0.49087372 0.1683181 0.4833501 0.2476285 0.0018969843 0.48312917
0.030456042 0.48273978 0.30258673 0.0013413723 0.46911436 0.09803656 0.47384176 0.20617965
0.0013413723 0.48931476 0.0013413723 0.4894245 0.13464996 0.0013413723 0.16509762 0.0013413723
0.1665868 0.07152666 0.0018969843 0.26616636 0.33327806 0.40297434 0.15426177 0.0023233166
0.47567785 0.25227702 0.49259526 0.2591394 0.0013413723 0.45890874 0.29206422 0.48899582
0.23824988 0.0023233166 0.4982276 0.035919663 0.49811578 0.32221705 0.0013413723 0.4908709
0.16847399 0.48346815 0.24702215 0.0023233166 0.48312548 0.0304855 0.482876 0.30227354
0.0013413723 0.46911973 0.0980725 0.47367346 0.20519768 0.0013413723 0.48931602 0.0013413723
0.4893164 0.13303481 0.0013413723 0.16512841 0.0013413723 0.16513364 0.06785194
00000000: fcd0 af3a 7345 883e c683 aa3e 4da1 ce3e
00000010: 32e0 203e fcd0 af3a 5c8b f33e 300e 813e
00000020: db49 fc3e 1456 853e fcd0 af3a b0f4 ea3e
00000030: 0964 953e 5974 fa3e 7984 753e fcd0 af3a
00000040: ee17 ff3e 574e 123d 6cfd fe3e 004d a53e
00000050: fcd0 af3a 4254 fb3e ae32 2c3e 276a f73e
00000060: a330 7e3e fcd0 af3a 325d f73e 1c41 f93c
00000070: bf17 f73e 9915 9b3e fcd0 af3a 122f f03e
00000080: 87b4 c83d 40b1 f23e 8a20 543e fcd0 af3a
00000090: 4487 fa3e fcd0 af3a e1a3 fa3e 9a83 0b3e
000000a0: fcd0 af3a 4407 293e fcd0 af3a 050f 2c3e
000000b0: eda2 993d fcd0 af3a 3246 883e 9493 aa3e
000000c0: e679 ce3e 486d 1f3e 3ba4 f83a ca8b f33e
000000d0: 541c 813e b03f fc3e 2002 853e fcd0 af3a
000000e0: 59f5 ea3e bd76 953e 0e69 fa3e 91be 743e
000000f0: 3ba4 f83a c417 ff3e 92b7 123d 5703 ff3e
00000100: 6d23 a53e fcd0 af3a cd53 fb3e 945b 2c3e
00000110: aa79 f73e 5392 7d3e 3ba4 f83a b55c f73e
00000120: f37e f93c ab29 f73e a6ec 9a3e fcd0 af3a
00000130: c22f f03e 64c7 c83d 639b f23e c220 533e
00000140: fcd0 af3a 7787 fa3e fcd0 af3a d995 fa3e
00000150: aee1 093e fcd0 af3a 5a0f 293e fcd0 af3a
00000160: bb95 2a3e 927c 923d 3ba4 f83a f546 883e
00000170: 6ca3 aa3e a752 ce3e ccf6 1d3e c942 183b
00000180: 0c8c f33e 742a 813e 7235 fc3e ebad 843e
00000190: fcd0 af3a 16f6 ea3e 7189 953e a95d fa3e
000001a0: c7f7 733e c942 183b b017 ff3e 7f20 133d
000001b0: 0809 ff3e a2f9 a43e fcd0 af3a 6e53 fb3e
000001c0: 7284 2c3e 2389 f73e 60f3 7c3e c942 183b
000001d0: 395c f73e babc f93c 863b f73e 99c3 9a3e
000001e0: fcd0 af3a 7630 f03e 3cda c83d 5485 f23e
000001f0: 571f 523e fcd0 af3a a187 fa3e fcd0 af3a
00000200: ae87 fa3e 473a 083e fcd0 af3a 6c17 293e
00000210: fcd0 af3a cb18 293e f5f5 8a3d

onnx::Div_94 f4 [11]
0.0018969568 0.43389285 0.37020248 0.0015027461 0.0013413723 0.49016762 0.49016762 0.37192866
0.5100221 0.36072633 0.2566889
00000000: 4fa3 f83a 3427 de3e 2e8b bd3e cbf7 c43a
00000010: fcd0 af3a 40f7 fa3e 40f7 fa3e 6f6d be3e
00000020: cf90 023f 1fb1 b83e ba6c 833e
