Usable_Data/Versuch_3-2/PKWParking/PKWParking-23999999.onnx (onnx, 468050 bytes, 15 tensors)

discrete_act_size_vector f4 [1, 2]
00000000: 0000 8040 0000 4040
4.0 3.0

network_body.observation_encoder.processors.0.normalizer.running_mean f4 [35]
00000000: 754b 193d 5b38 0634 55ae 0d3d 709e 6d3f
00000010: ef61 783f 2148 5f3d 0000 0000 23ec d13c
00000020: c475 6b3f 595e 763f 9d23 fe3d 08f5 3233
00000030: 2cde e13c 4d30 593f faa1 6d3f 2eea ed3d
00000040: 0000 0000 ba6d e93c ade6 5a3f 4f25 6a3f
00000050: dfbd 493e 0000 0000 72e3 f33c 2dc8 453f
00000060: 4313 613f a51a 6a3e 0000 0000 1317 cd3c
00000070: 3bff 3e3f 5d21 5b3f 11f1 5a3e 0000 0000
00000080: c567 013d 9ce6 403f ad4a 5e3f
0.037425477 1.2500224e-07 0.034590084 0.9281988 0.97024435 0.054512147 0.0 0.025625294
0.9197657 0.96237713 0.124091364 4.166671e-08 0.02757176 0.84839326 0.9282528 0.11616932
0.0 0.028494705 0.85508233 0.9146318 0.19701336 0.0 0.02977154 0.7725857
0.87920016 0.22861727 0.0 0.025035417 0.746082 0.85597783 0.21381022 0.0
0.031593103 0.7535188 0.86832696

network_body.observation_encoder.processors.1.normalizer.running_mean f4 [135]
00000000: 707f 1338 c467 ea3d 99b2 f03d 2894 413f
00000010: 02c2 6b3f 2f19 1139 d25f 923e 5fca c93d
00000020: 8b34 1b3f c9d7 523f b194 5938 2b62 e13e
00000030: 7f08 b13d 34c8 ec3e 8285 523f 09f6 2139
00000040: dec6 263f a014 1d3d d085 973e e675 2d3f
00000050: fdf8 7338 899d 223f e6dc e73c 134d a33e
00000060: 80aa 493f e6bd 2139 56ee 323f 5bcd a03b
00000070: 35d9 933e 863a 263f 2030 6a38 2d92 9b3e
00000080: abff a83b 3d8f 2e3f 339f 6f3f 0000 0000
00000090: 5687 e93e 92ae 6d37 89d3 0a3f 9d66 643f
000000a0: b8d0 5337 1037 ef3c 0960 9d38 a11c 783f
000000b0: 217c 7e3f 0b60 1438 c478 ea3d ded1 f03d
000000c0: cab0 413f 4be0 6b3f 7972 1139 8364 923e
000000d0: 2ee2 c93d 2250 1b3f 9bf8 523f 0f74 5a38
000000e0: 116c e13e d923 b13d 3ef7 ec3e afa2 523f
000000f0: 3b87 2239 c5cd 263f 062a 1d3d 70b6 973e
00000100: 9e93 2d3f 1e05 7538 20a4 223f 6110 e83c
00000110: 7f7e a33e 62ca 493f 2039 2239 17f6 323f
00000120: b5e7 a03b 680d 943e 3959 263f b40e 6b38
00000130: 0599 9b3e 911d a93b 90ae 2e3f b8b7 6f3f
00000140: 0000 0000 f390 e93e 92ae 6d37 bcf4 0a3f
00000150: 0a88 643f b4d0 5337 6d50 ef3c 5c76 9d38
00000160: 0b5e 783f 3f93 7e3f d03f 1538 7389 ea3d
00000170: 0bf1 f03d bacc 413f 11ff 6b3f d7c0 1139
00000180: 5569 923e 2dfb c93d a66b 1b3f 9719 533f
00000190: 3554 5b38 7c76 e13e 7f3f b13d 0b26 ed3e
000001a0: b3c1 523f d024 2339 7dd4 263f 133e 1d3d
000001b0: cae6 973e 82b2 2d3f 1e3d 7638 c1aa 223f
000001c0: 4143 e83c f3ae a33e 02eb 493f 81bf 2239
000001d0: c6fd 323f 7002 a13b d13f 943e d577 263f
000001e0: ea19 6c38 1fa0 9b3e d93b a93b eccd 2e3f
000001f0: 7ad7 6f3f 0000 0000 7a9a e93e 92ae 6d37
00000200: a812 0b3f 0aac 643f c1d0 5337 556c ef3c
00000210: 8e8c 9d38 228a 783f 2694 7e3f
3.5166217e-05 0.11445573 0.11752815 0.75616693 0.9209291 0.00013837659 0.2858873 0.09853052
0.6062705 0.8236051 5.187531e-05 0.4402021 0.086441986 0.46246493 0.82234967 0.00015445812
0.651472 0.038349748 0.29594278 0.67758024 5.8167603e-05 0.6352163 0.028303575 0.3189474
0.7877579 0.00015424899 0.6989492 0.004907293 0.28876653 0.6493305 5.5834767e-05 0.3038496
0.005157431 0.68187314 0.93602294 0.0 0.45611066 1.4166946e-05 0.5422903 0.89219075
1.2625176e-05 0.02920106 7.504231e-05 0.96918684 0.99408156 3.5375397e-05 0.114488155 0.11758779
0.75660384 0.9213912 0.00013870922 0.2859231 0.098575935 0.6066915 0.8241059 5.208334e-05
0.4402776 0.086494155 0.4628238 0.82279485 0.00015499901 0.6515773 0.038370155 0.29631376
0.6780337 5.8417318e-05 0.63531685 0.028328123 0.31932446 0.78824437 0.00015470805 0.69906753
0.004910434 0.28916478 0.6497989 5.604206e-05 0.30390182 0.0051609953 0.6823511 0.9363971
0.0 0.456184 1.4166946e-05 0.54279685 0.8927008 1.26251725e-05 0.029213155 7.5083895e-05
0.970185 0.9944343 3.55838e-05 0.114519976 0.11764725 0.7570301 0.92186075 0.00013900116
0.28595987 0.09862361 0.60711133 0.8246092 5.2292093e-05 0.4403571 0.08654689 0.46318087
0.8232681 0.00015558605 0.6516798 0.038389277 0.29668266 0.67850506 5.870789e-05 0.635418
0.028352382 0.31969413 0.7887422 0.00015520865 0.6991848 0.0049136207 0.28954938 0.650266
5.629092e-05 0.303956 0.005164605 0.6828296 0.93688166 0.0 0.4562567 1.4166946e-05
0.5432534 0.8932501 1.2625184e-05 0.029226461 7.512524e-05 0.97085774 0.99444807

network_body.observation_encoder.processors.2.normalizer.running_mean f4 [11]
00000000: 0cff 7f3f 9589 02be 48f4 103c 4f4a 013f
00000010: 0000 0000 2cbc 753e fa0d 3b3e abb4 0b3e
00000020: b8c2 aa3d 5acf 2c3c 93f8 b33d
0.99998546 -0.12747796 0.008847304 0.5050401 0.0 0.23997563 0.1826705 0.13643138
0.08337921 0.010547483 0.08787646

network_body._body_endoder.seq_layers.0.weight f4 [256, 181]
00000000: c169 9bbc 7add 8b3e 0eab 00be a1ba d43d
00000010: 3d0c 1f3d a6fc 30bd aa0e d8bd caae a33d
00000020: b131 863e 959d 323e 00dd 07bd 1772 103c
00000030: af0c 253d 041f 81bd a2f4 783e 6620 883e
00000040: 8e15 dcbb 1f0c 8fbe 313c 02bd a3dc 9dbc
00000050: 4624 06bd 091c 3a3d 7568 3b3d 7011 2bbd
00000060: 5c2a 2fbe b592 58bd b336 c0bb 8697 963b
00000070: 34db 5b3e 007b 4c3d 2b9d 2fbc aa6c 25bb
00000080: 4904 953d 20bf 03be 90b7 40be c428 bc3d
00000090: 89b8 833d 5f56 113d 0c8c c4ba c7ae 1d3e
000000a0: c094 6f3d 99db 733e 812b 53bd 1e52 3ebd
000000b0: 69ea cc3d 040e b0bd d6b3 08be 35d4 a1bc
000000c0: 86e9 4d3e 1c1c 263e 935a 1f3e 5b8a 0b3e
000000d0: 5cc6 4f3e 940a 59be 8e23 aabc d398 153d
000000e0: 7e45 3dbc 2e06 39bd e51e 013d 1354 4bbd
000000f0: c7dd c9bc 2f5a 7cbd 9b26 573e 2af6 6f3d
00000100: 760c e03d 1204 453e df23 61bc 5321 86bd
00000110: 3f40 ae3c 668a 333e e080 d5bc 7fe8 9bbd
00000120: ffbe 8f3c 7ac0 493b e63f b83c 01de 6d3d
00000130: b505 493d 1ca3 053e 5fdf 7c3b a1e8 c63c
00000140: a73a 973d 16bd 0a3d 76c8 253d a1de 43bd
00000150: 73c0 3f3e dae9 b6bb b600 fbbc 19c0 9b3c
00000160: 4c65 e0bd b757 473e 4b0f 7d3d 4ec6 0fbe
00000170: 5489 953c 4487 723e 585c 913d 62cd ab3d
00000180: 52f9 1c3e 81ce 093d bfd4 3bbd 6901 043c
00000190: 8934 40be 6cbe 3e3d bec4 e2bd b895 703b
000001a0: 5987 1cbe 475c 983d e1ca 92bd b796 833d
000001b0: 6138 7e3d 643c 81bc 93fc bfbd 5805 a23c
000001c0: 1898 50bc dd58 303e 6a8c dfbc 4185 c6bc
000001d0: 2590 333e 0f1a 0c3c 876d ffbd f249 c2bd
000001e0: 3b76 afbd 6e7e 04be 2dd9 2d3e 8244 253e
000001f0: 189e 9d3d c42b ad3c ec7c 553e 575b 333e
00000200: 1196 3cbd a26c 063e 0bcf fa3c b4fd 1abd
00000210: 8d83 d2bd 674b 1b3d ae69 393e c1c3 a63d
00000220: a6be f4bd c5e3 973d 6e4c ae3e a27a 713d
00000230: e967 df3d 39c0 1d3e ab76 6f3d 9175 cb3d
00000240: 7197 ef3d 4d81 be3d 313e ba3d ae23 babd
00000250: 8887 5bbd 8f19 e6bd 4024 333e 5c8d 163d
00000260: 3c98 453c 6c25 2c3c 1258 5c3d 5437 b33d
00000270: bb80 1bbd 4acf 8638 378c f93d d59b b33c
00000280: 96ec a23c 429e d83d 6242 c73d 1c1d 8cbd
00000290: 4ed2 903d 6664 af3d 4f22 70be d2d4 bd3b
000002a0: b49e 393d 861a ad3d eff7 09be 1863 18bd
000002b0: 2bbf 6bbd 124c 39be 7929 acbc d113 ad3d
000002c0: 3d68 643d e99a 4b3e e005 94bc 8bb6 4c3c
000002d0: 66c4 5cbc f4ff 38be 069b ce3e cea1 de3d
000002e0: a920 423e 57c3 d13e 194b db3c 31a8 02be
000002f0: afc9 bebb 9d77 bf3d b475 c63d c26e 5f3e
00000300: d8ab 733e bc99 a7bd ab46 a93d af4d aebd
00000310: 6a68 e13d 1c92 323d 311d 15bd 2ee6 ef3d
00000320: b74f 54bd 26db ff3d d978 00be e0bf 0dbe
00000330: bd9c 1a3d 0ddc 5b3d 4211 c8bd 9b7b 99bb
00000340: f673 2f3e a49a 4e3e 0b6d 713e 33cb 823d
00000350: 2b67 1f3d 7f9c f63c c112 143d bf23 38bc
00000360: e017 863e 1643 c5bb 8d5f 133e a8f7 703d
00000370: 8f52 4dbd 9294 ce3e d619 033e edde 5d3e
00000380: a563 31be 03c8 ccbd 9cf8 dd3e 5646 2a3d
00000390: 7018 763e ccae 9bbe 3693 bbbd 7413 9f3e
000003a0: cca6 343d 2154 573e 59ba a7bd 09fb f8bc
000003b0: f59c 793e b6c3 a7bd 8339 df3c ba31 5d3d
000003c0: 2a5c 503b 0014 583e 07dd c63d a63a 0c3e
000003d0: 8634 9f3d 060b ee3d f604 9a3e 4d75 c2bd
000003e0: 5870 2d3e e770 e23c 18c2 cc3d de75 7d3d
000003f0: e93c 4b3d f50e 953e 4423 4cbd 6890 1d3e
-0.018971326 0.2731741 -0.12565252 0.10387159 0.03883003 -0.043209694 -0.10549672 0.07992323
0.26209787 0.17442925 -0.033169746 0.008816264 0.0402953 -0.06304744 0.2431207 0.26587218
-0.0067164367 -0.27938935 -0.031795684 -0.019270247 -0.032749437 0.045436893 0.045753915 -0.041764677
-0.17106003 -0.052874286 -0.0058658957 0.0045956997 0.21470338 0.04992199 -0.010718624 -0.002524177
0.07276208 -0.12865877 -0.18820024 0.09187463 0.06431682 0.03548276 -0.001499535 0.15398704
0.05849147 0.23814239 -0.05155516 -0.04646503 0.10005648 -0.08596423 -0.13349852 -0.019754509
0.20108613 0.1622166 0.15561895 0.13626997 0.20290512 -0.21195441 -0.020768907 0.036522698
-0.011552213 -0.04517191 0.031523604 -0.049640726 -0.024641884 -0.061609443 0.2101082 0.05858437
0.10939877 0.19239834 -0.0137414625 -0.06549325 0.02127087 0.17533264 -0.026062429 -0.076127045
0.017547129 0.003078489 0.022491407 0.058073048 0.04907771 0.13050503 0.0038585288 0.024280848
0.07384234 0.033871733 0.040474378 -0.047819737 0.18725757 -0.0055820765 -0.030639987 0.019012498
-0.10956821 0.19467054 0.061782163 -0.14040491 0.01825396 0.23684412 0.07097691 0.08388783
0.15329483 0.033644203 -0.045857187 0.008056977 -0.1877004 0.04656832 -0.11072682 0.0036710333
-0.15286006 0.074394755 -0.07167602 0.06425231 0.062065486 -0.015775867 -0.093743466 0.019777939
-0.0127315745 0.17221399 -0.027288634 -0.024233462 0.17535456 0.008551135 -0.124720626 -0.0948676
-0.085674725 -0.12938854 0.16977377 0.16139415 0.076961696 0.021139033 0.20848435 0.17515312
-0.046041552 0.13127378 0.030616304 -0.037839606 -0.102789976 0.037913706 0.1810672 0.08142806
-0.11950426 0.074164905 0.34042686 0.058954842 0.10908491 0.15405358 0.05846278 0.099345334
0.11698807 0.09302006 0.09093893 -0.090888366 -0.05359605 -0.11235344 0.17494297 0.036755905
0.012060221 0.010506969 0.053794928 0.087507874 -0.037964564 6.4282285e-05 0.12184947 0.021924892
0.019888204 0.1057706 0.097294584 -0.0684149 0.070713624 0.08564071 -0.23450588 0.0057931924
0.045317367 0.084523246 -0.13473485 -0.03720388 -0.05755536 -0.18095425 -0.02101587 0.08451045
0.055763472 0.19883312 -0.018069208 0.0124946935 -0.013474559 -0.18066388 0.40352648 0.108707055
0.18957771 0.40969345 0.026769208 -0.12759472 -0.0058223824 0.09348986 0.09690419 0.21819595
0.23796022 -0.081836194 0.08265432 -0.08510911 0.110062435 0.043596372 -0.036404792 0.11713825
-0.051833834 0.12492971 -0.125461 -0.13842726 0.037747134 0.053676654 -0.09768917 -0.0046839244
0.1713408 0.20176178 0.23576753 0.063864134 0.038916748 0.03010392 0.036150698 -0.011238991
0.2619009 -0.00601996 0.14391918 0.058829933 -0.050127562 0.40347725 0.12802824 0.2166707
-0.17323168 -0.09999087 0.43353736 0.041570984 0.2403276 -0.30406797 -0.09158938 0.3106953
0.044104382 0.21028186 -0.0818984 -0.03039314 0.2437628 -0.08191626 0.027249103 0.0540025
0.0031793215 0.2110138 0.09710126 0.13694248 0.0777369 0.11623196 0.3008191 -0.094950296
0.16937387 0.027641727 0.09997958 0.061879985 0.049618635 0.29112974 -0.04983832 0.15387118

network_body._body_endoder.seq_layers.0.bias f4 [256]
00000000: 7eb5 e4bd 9848 aebe 3c4b 30be 2950 b6be
00000010: ad2b b2be 9746 a8be f0c5 be3b a93c 15bf
00000020: 542c 1bbe 6a53 f33e c3f5 70be 0adb 08bf
00000030: 33b1 bd3e 3b93 c5be 186c d3bc b80b 83be
00000040: b97b 863e 41b8 47be 5f73 ccbc ec48 25be
00000050: ab93 5dbe ccac abbe 3b87 d9be 459e 45be
00000060: c042 5dbe a8c6 f5be 3d38 d5bd f6de 9abe
00000070: 68c6 e3bd 1292 a1bd e8b2 85bd 1d9b 56bf
00000080: 5a04 35bf 22f8 49bf fc2b f7bc 867d 6ebe
00000090: bd45 10bf 90d3 eabc 6b96 e1be 4ff5 18be
000000a0: b119 24be 22ff ef3d 308e fb3d b854 09bf
000000b0: ec71 ecbe ae8e 1abf c390 22be 043e ebbe
000000c0: 148f 29bf 19b2 943c b1ac a9bd 4b30 c1be
000000d0: a452 443c f0fb 973e 262b 37bf 01a5 883e
000000e0: 4023 73be 5541 a93c 2855 8abe dd85 ecbe
000000f0: 7b75 3e3b da2e 27bf 879f 2abf a33b e0be
00000100: 90c4 6bbe 931e 123e 3e58 b6be bcc9 d7be
00000110: cb23 06bf 1bc2 6abe 01bb 33bf 468b bfbe
00000120: 7eca 8abd 714e d43d 9e01 c63d e7a8 04bf
00000130: 3ade 2cbf 3487 92be 2f77 9abe d6f7 26bf
00000140: bf65 0bbf f09f a1bd 03b9 a13e 4b6b 48be
00000150: a685 4cbe abec 943e ae01 69be 5dd2 c33e
00000160: 721e 323d 53b5 21bf 2edf 2abe 55ec 31be
00000170: b250 93be ae97 43be e58c e6be 76f1 24bd
00000180: 942a f0be 05bf 2cbe 9513 1bbe 1db8 febe
00000190: 4c0c 03be e3f2 93be b4bc 5bbe bf65 ddbd
000001a0: 4d97 bf3e 2cfa 20bf 197a 73be d8a7 05bf
000001b0: 16f2 9b3e 62e2 e7be f852 0abe 3065 2fbe
000001c0: 94aa 38bf 1c66 74be 9da0 0ebd 9b25 1fbd
000001d0: c924 b1be c597 a1bc db63 2f3e 5ef4 abbe
000001e0: 9d18 1abf b807 64be 6f79 b3be adf8 83be
000001f0: 657c 62bc bc8f f9be 042c 69bd bcee 2ebf
00000200: 6aee be3c a5e1 f8be 8954 553e a5ce 64bb
00000210: ddbb 31be 2349 abbe ba81 1f3d a672 99be
00000220: be4d 9ebe 0942 79bc 832e 72be cac9 b4be
00000230: d96a eb3e 1c77 0cbe 2696 f83c 161f f9be
00000240: 890c 63be caa7 72be a337 2c3e fc85 0cbf
00000250: 4ea0 b6bd d935 0bbf 26e6 e4ba e8d4 d3bd
00000260: 44d4 a0bc 96e9 11bf b77e 043f 807e 96bd
00000270: 99ea fbbe 0d5b c3be 3583 363d f837 cdbd
00000280: 822c 11be f720 e0bd e693 09bf 8fd1 a03e
00000290: 5237 05bf f662 cfbe 0206 1abf b6f5 c53d
000002a0: b23c af3d cdbf f2be 724e 89bd 3bd8 b13e
000002b0: a614 3d3d 4c89 82be 1bcb 1abf 8a37 5b3e
000002c0: 27b4 c1be 7f65 b7be 5e73 38bf e0f7 b2bd
000002d0: c1ce 97bd be87 38be 2143 f93d e1f0 9fbd
000002e0: 74c9 97bd 4208 833d 1cee 93be 1c77 80bc
000002f0: 3ec9 94be f650 b7bd 11f1 46be a807 b9be
00000300: c3c6 f0bc 1170 073e 1def d9be 0d0d 11bf
00000310: ff21 70be 48a0 9dbe fb3f 613e c76f af3e
00000320: da8d 88bc 396f 6bbe 4862 09bf e89e b1be
00000330: 5a81 29be fbca 4fbd 823a f9be dd89 6abe
00000340: 0c29 f0be 469d 0cbf 7db6 08bf 429e 2f3e
00000350: 0d23 0fbe 0efc af3e 8f52 82be 7ea8 49be
00000360: 365a 40bf 25ef 21bf ee18 94be 8363 93be
00000370: 8812 a6be 115f ce3e 4c9c 18bf 27ce 7fbe
00000380: fcd7 f33d aa7f a73d 132c 2b3d ffbf a33e
00000390: 6e60 d3be b1d0 e1be 9b77 07bf ff4d efbe
000003a0: 273b f9be f649 0fbe eaa7 9a3e 1776 15bf
000003b0: f49a 18be 344f f4bd 0b58 bcbe 7b6f 4abf
000003c0: 0da6 c5bd ed45 12bf 13a7 32bf a8cb d63d
000003d0: 8169 3dbf 95e4 3b3d 8163 423d 84a9 25be
000003e0: 4665 afbe 66d5 2bbe 2a79 0dbf 6a6f f8be
000003f0: 36be 18bf e834 313e 9b4a 6c3d 01d4 b5be
-0.111674294 -0.3403976 -0.172162 -0.35608032 -0.34798947 -0.32866356 0.005821936 -0.58295685
-0.15153629 0.47524577 -0.2353125 -0.5345923 0.37049255 -0.3858889 -0.025808379 -0.25594878
0.26266268 -0.19503881 -0.024957357 -0.16141099 -0.21638362 -0.3353027 -0.42485985 -0.19298656
-0.21607494 -0.48003125 -0.10411117 -0.3024823 -0.11121827 -0.07889189 -0.06528264 -0.83830434
-0.70709765 -0.78894246 -0.03017234 -0.23290071 -0.5635641 -0.028665334 -0.44060072 -0.14937328
-0.16025425 0.117185846 0.122829795 -0.53644896 -0.46180665 -0.6037396 -0.15875535 -0.45945752
-0.66233945 0.01815133 -0.082848914 -0.37732157 0.011982594 0.296844 -0.71550214 0.26688388
-0.23743916 0.020661036 -0.27018094 -0.4619588 0.0029061723 -0.65305865 -0.6664967 -0.437955
-0.23024201 0.14269476 -0.35614198 -0.421461 -0.52398366 -0.22925608 -0.7020722 -0.37410945
-0.067769036 0.10366524 0.09668277 -0.51820225 -0.6752659 -0.28618777 -0.30169055 -0.6522192
-0.5445213 -0.07891834 0.31586465 -0.19572179 -0.19972858 0.29086813 -0.22754547 0.38246432
0.043486066 -0.63167304 -0.16686699 -0.1737531 -0.28772503 -0.1910083 -0.4502937 -0.040269338
-0.46907485 -0.16869743 -0.15144189 -0.49749842 -0.1279766 -0.28896245 -0.21458703 -0.10810422
0.3742012 -0.6288173 -0.23777045 -0.52209234 0.30458134 -0.45289904 -0.13508213 -0.17128444
-0.7213528 -0.23867077 -0.03482114 -0.038854223 -0.34598377 -0.01972569 0.17127936 -0.33584875
-0.60193807 -0.2226857 -0.35053584 -0.25775662 -0.013823603 -0.48742473 -0.056926742 -0.6833303
0.023307044 -0.48609653 0.20833029 -0.0034913209 -0.1735682 -0.33454236 0.038942076 -0.29970282
-0.30918688 -0.015213498 -0.23650555 -0.35310203 0.45979956 -0.13717312 0.030345034 -0.4865653
-0.2217275 -0.23696819 0.16818099 -0.54891944 -0.089172944 -0.5437904 -0.0017463609 -0.10343343
-0.019632466 -0.5699705 0.5175585 -0.07348347 -0.4920242 -0.38155404 0.044558723 -0.10020441
-0.14177135 -0.109437875 -0.537413 0.3140988 -0.5203754 -0.4050519 -0.6016542 0.09666006
0.085564986 -0.47411957 -0.067044154 0.34735283 0.04616227 -0.25495374 -0.60466164 0.21407905
-0.37832758 -0.35819623 -0.72051036 -0.08738685 -0.07412482 -0.18020532 0.12171007 -0.07809616
-0.07411471 0.063980594 -0.288926 -0.015681796 -0.29059786 -0.08950989 -0.19427897 -0.36138654
-0.029391652 0.13226344 -0.4256524 -0.5666054 -0.23450468 -0.30786347 0.21997063 0.34264967
-0.016669203 -0.22991647 -0.5366559 -0.34691548 -0.1655325 -0.050730687 -0.4867745 -0.22904153
-0.46906316 -0.5492748 -0.53403455 0.17150214 -0.13978215 0.3437199 -0.25453612 -0.19693181
-0.7513765 -0.6325553 -0.2892527 -0.2878686 -0.32436013 0.40306905 -0.5961349 -0.24980985
0.1190643 0.08178647 0.04179008 0.3198242 -0.41284508 -0.4410453 -0.5291688 -0.46739194
-0.48677942 -0.13993058 0.30206233 -0.58383316 -0.1490286 -0.11929169 -0.3678592 -0.79076356
-0.09650812 -0.5713795 -0.69786185 0.10488063 -0.7398911 0.04587229 0.047458176 -0.16177946
-0.34256953 -0.16780624 -0.55263007 -0.48522502 -0.5966524 0.17305338 0.057688337 -0.3551331

network_body._body_endoder.seq_layers.2.weight f4 [256, 256]
00000000: 8ceb 96bd 6b8b 363d 2498 11be 5bdf a03d
00000010: 535d a53b e3c4 e4bc c483 acbe 254f e53c
00000020: ebfd c1bd 8907 eebd 01c7 06bd 461e 563d
00000030: cebf 45be 3955 ddbd 1972 68bd 439d 7fbc
00000040: 4f34 8fbd c08b 28be dd31 7ebd 508e 31bc
00000050: e6cc 8cbd b734 38be bf22 2dbd 8a0d a4bd
00000060: 4078 943d 9484 173d a0b1 113e 6e49 52be
00000070: 4418 1cbd 83f8 53be 677d 29bd 238a b93c
00000080: 34dc b4bd 3ff6 273e c906 babe 2846 36be
00000090: 0fc7 ca3d 229b 05be 7dcc 07be a8b2 55be
000000a0: 7266 383e bf07 c8be ad71 96bd a925 bfbc
000000b0: e128 1bbe bd58 a73c 8abd 51be e364 d0bd
000000c0: 2c3a 3dbe 0078 033c 6589 323d 49a0 023d
000000d0: aa04 0cbe 15f4 87bd 91d9 cabd 1533 9dbe
000000e0: 9056 4ebd a086 54be d7bd f93c ccfa b8bc
000000f0: cb09 94be 9422 23bd 493f 6abd 21df c4bb
00000100: c6e0 443e d2f7 82be 3878 44bd c5af 03be
00000110: 37d8 e23c 5ac6 37be ec3a b0bd 4568 a93d
00000120: eec8 49bd 17e7 d13d bd1f 97be 231d 7fbc
00000130: 94e0 94bd 1b32 85bd e921 983d 8879 2e3e
00000140: 8001 6dbe 2fd1 7fbe f7bf 95be ce30 233d
00000150: 6067 31be 4ecb 88be 50bb 46be 48df 26be
00000160: b11b e1bd bf4f 9b3d 1010 afbd 6e45 e73b
00000170: a0b0 ca3d dcf5 39bd 5a2e 1ebd 0023 30be
00000180: 7ddb 10bc c615 4fbe 597c a4bd ddca 833c
00000190: 0d52 ecbd e6fb 84bd 875c a23d dc2f 2bbe
000001a0: 2aec f2bd 0c90 40bd c554 8f3b 08c0 cb3c
000001b0: 969e 86bd 8540 28bd 645c 83be ff95 50be
000001c0: 2d00 2a3d 4c43 c43d 4a0d 763d f41b ebbd
000001d0: 87b3 08be 9b4e 84bd 77bd 9fbe 61a1 293e
000001e0: b0b4 6fbd a047 c8bd 23cc 08be 6c95 a4bd
000001f0: a6de 33bc e5ba 993d f859 44be 26f7 0c3e
00000200: feb2 55bd d31a 3dbc fbcd 97bd 6d3f aebd
00000210: 2b2a 1abe bd3e 00bd af20 00bd eb08 91bc
00000220: 5197 61be ce3c e8bc a14e 09be 0ff7 3a3d
00000230: aff5 1fbe 1840 b13d 51fe 6abe f5d5 acbd
00000240: 1c7d 90bd 70c3 163e c28e 43be 466c a73d
00000250: 49f0 dabd c3d2 02be 02a1 453d fe07 71be
00000260: b933 dabd f134 a6bd dd17 a5be defc 783b
00000270: 969b 04be 266d febd f3cc 84be c040 d9bb
00000280: b652 903d 69b4 03bd 3170 d1bd 6a3c 66be
00000290: 9427 ecbb bd98 b43d a3f4 e0bc e866 5dbe
000002a0: efbb 8bbd 4385 40be 58b1 f83d 5e35 61be
000002b0: 36b3 2b3c 7759 26bd 08c3 223e fbe4 1dbe
000002c0: 2310 a9bb 8489 f1bc b73e 34bd be1d d9bc
000002d0: 8038 93bc 1476 44be 57e9 47be 9e8e 09be
000002e0: 420a 90be 3d5a 07be 1040 093d 01a7 00be
000002f0: a6ef 7ebc 7928 9abe 40b4 f6bd 9403 37bd
00000300: 77fa cbbd 94ac 93be adea 1a3e fec7 8b3d
00000310: 10ce bbbb d19f 153e 5f0f a2be e912 7ebd
00000320: 0b03 20be e56b 62be c65b 4ebe 904f d63d
00000330: 72d2 49be 13d9 f2bd 5277 823c 3761 a23b
00000340: 851e eabd d674 6abd 538c 5ebd 9fc5 6dbe
00000350: cc6e 1c3e 7f38 02be 21dd 2abd 4c3a 15be
00000360: 8686 483c 09a3 5b3e 5b1c d1bc f3d1 1e3d
00000370: aa67 6a3d b610 35be 0939 12bd c4a9 17be
00000380: fd88 28be 73ca 1abe ab13 f5bd 7287 1dbd
00000390: 0655 bcbd e5b0 483c 8e2a b9bc f72e 093d
000003a0: 0aab 0d3c 2dd2 f53d f0a8 87be 69c7 c3bc
000003b0: b481 543a a862 17be 9f33 8fbd 96e1 a63d
000003c0: b166 fabd 4082 ce3d d790 e0bc fd5a 9abc
000003d0: fb5f 4f3e 68b8 80bd 362b 2bbe d9c1 0bbd
000003e0: f823 5b3d 529d 0bbe e304 4b3d 41a9 413d
000003f0: e875 9a3d 67b5 edbe aff0 38be d422 0dbd
-0.07369146 0.044566553 -0.14218193 0.07855102 0.0050465255 -0.027925914 -0.3369428 0.02799184
-0.09472259 -0.11622531 -0.03290463 0.052274965 -0.19311449 -0.108072706 -0.056749437 -0.015601459
-0.06992399 -0.1645956 -0.062059272 -0.010837153 -0.06875019 -0.17988859 -0.042269465 -0.08010395
0.07249498 0.03699167 0.14227915 -0.20535824 -0.03810908 -0.20700268 -0.04137936 0.022648877
-0.08831063 0.16402529 -0.36333302 -0.178002 0.09901249 -0.1304746 -0.132616 -0.20868933
0.1800783 -0.3906841 -0.07345901 -0.023333387 -0.15152313 0.020428056 -0.2048246 -0.101754926
-0.18479222 0.008024216 0.04358806 0.03189114 -0.13673654 -0.06638352 -0.09904779 -0.30703035
-0.05037552 -0.2075448 0.03048603 -0.022580527 -0.2891372 -0.0398279 -0.05718926 -0.0060080444
0.1922637 -0.25579697 -0.047966212 -0.1286002 0.02769099 -0.17946759 -0.086049885 0.08271841
-0.049263887 0.10249155 -0.29516402 -0.015570912 -0.072693974 -0.065036975 0.07428343 0.17038548
-0.23145103 -0.24982141 -0.2924802 0.039841466 -0.1732459 -0.2671761 -0.19407392 -0.16296113
-0.1099161 0.0758357 -0.085479856 0.007057837 0.0989697 -0.045400485 -0.038618423 -0.17200851
-0.008841393 -0.2022315 -0.0803153 0.016087944 -0.115390874 -0.06493358 0.079278044 -0.16717476
-0.11861451 -0.047012374 0.004374119 0.024871841 -0.065732166 -0.041077156 -0.25656426 -0.20369719
0.041504074 0.09583148 0.060071267 -0.11479941 -0.13349734 -0.06460305 -0.31199238 0.16565467
-0.058521926 -0.097792864 -0.13359122 -0.080363125 -0.0109783765 0.075063504 -0.19174945 0.13766155
-0.052172653 -0.01154204 -0.074123345 -0.08508191 -0.15055148 -0.031309832 -0.03128117 -0.017704448
-0.22030379 -0.028349306 -0.13408901 0.04564577 -0.15621065 0.08654803 -0.22948577 -0.084392466
-0.07055113 0.14722991 -0.19097427 0.081749484 -0.10690362 -0.12775712 0.048249252 -0.23538205
-0.106543966 -0.081155665 -0.3224477 0.0037992517 -0.12949976 -0.12423162 -0.25937614 -0.0066300333
0.07047026 -0.032154474 -0.10226477 -0.22483984 -0.0072068665 0.08818195 -0.027460402 -0.21621287
-0.06822955 -0.18800835 0.12143201 -0.21993014 0.010479739 -0.040612664 0.15894711 -0.1541938
-0.0051593943 -0.029484518 -0.044005122 -0.02650344 -0.017971277 -0.19185668 -0.19522606 -0.1343331
-0.28132826 -0.13218017 0.03350836 -0.12563707 -0.015560066 -0.30109003 -0.12046099 -0.044681147
-0.09959882 -0.28842604 0.15128584 0.06825255 -0.0057313517 0.14611746 -0.31652352 -0.062029753
-0.15626161 -0.22111471 -0.20152196 0.10464394 -0.19709185 -0.1185781 0.015926037 0.0049554366
-0.114316024 -0.05724033 -0.054333042 -0.23219918 0.1527664 -0.12716864 -0.04171479 -0.1457302
0.012239104 0.21448912 -0.025526216 0.038774442 0.057227768 -0.17682156 -0.035698924 -0.14810854
-0.16458507 -0.15116291 -0.11966642 -0.03845925 -0.091959044 0.012249206 -0.0226033 0.033492055
0.008646736 0.120029785 -0.26496077 -0.023898797 0.00081064855 -0.14783728 -0.06992268 0.08148496
-0.12226618 0.10083437 -0.027412815 -0.018842215 0.20251457 -0.06285173 -0.16715702 -0.034120414
0.0535011 -0.13634232 0.049565207 0.047280554 0.0754202 -0.46427462 -0.18060564 -0.034457043

network_body._body_endoder.seq_layers.2.bias f4 [256]
00000000: 5729 90be b12d 17be dd51 bdbe 2fba a2be
00000010: 9a82 babe 74c7 9abe a884 88bd 1123 19be
00000020: db90 48be ab8b 88be ed0a adbd ee7f b5be
00000030: 47cf bfbd d83f a5be 4d34 14be bc68 19be
00000040: 8c1d a6be 46b7 2cbe 1f7b 5abe 75e7 a8bd
00000050: 29f8 93be 4156 30be 0936 41be edd1 96bd
00000060: c6e6 11be 1f73 e3bd 3a0b 25be 3a1b 3bbe
00000070: 6c0a 54be 235d 84bd 031e 3dbe 5277 10be
00000080: dbdb bfbe c260 87be 283b 79be fd0f 3fbe
00000090: bcde d6bd 050a 16be 8954 3dbe 46bc 27be
000000a0: b017 cebd 4dff 26be 8275 8bbe d117 3ebe
000000b0: 15e6 22be 6010 81bd 7de3 debd a204 3ebe
000000c0: 5ee5 89be a0d0 2ebe 6ec4 63be 6f76 46be
000000d0: 562c debd 5c3d a1be ee43 5cbe 9cc8 20be
000000e0: 36a2 45be b28e febd 9742 eebd a775 3abe
000000f0: 0cf0 82be 756f 8abe b2bd 1cbe 7e50 8abe
00000100: 7ecf a7bd fddd 2cbe 82b8 56be ab41 a0be
00000110: b37c 07be 15a9 a9be f960 17be 54af 76bd
00000120: ef1f 9dbe b41e 3bbe 49ec 06be 0324 30be
00000130: ca22 ecbd 94cf 25be 67d0 1bbe 77a3 14bd
00000140: 27ae 64be 6f9f afbe a7e1 38be cee9 50be
00000150: ceb6 9cbe d7f9 81be d8a8 43be b587 4ebe
00000160: 60d2 34be 9652 a7be de61 dabd 34da 2dbe
00000170: e6f5 51be ba2a 3fbe 6886 50be 4421 8bbe
00000180: 09d4 9fbe 743b 18be a7ad 4fbe 45ba 27be
00000190: c560 3dbe 029d 1cbe e11f 95be 41de 5ebe
000001a0: 350e 71be d440 3fbe 7087 babe 2e7e 9cbd
000001b0: 35a4 70be 437d ffbd 6b92 21be 661f 15be
000001c0: 6e10 633b aa2e 56be dc21 66be d011 cabc
000001d0: 120e 38be e656 6bbe 1831 5ebe f788 44be
000001e0: 69ef cabc 75d1 febd 12e5 c0be 60fb 7abe
000001f0: e71c 28be 8875 5abe d17f 1bbe a22a 3abe
00000200: 7b7d 9ebe c181 08be c149 37be ef60 84be
00000210: 731b b2bd ef6d 4abe 66b8 4abe 58a2 f0be
00000220: 7e4d f9bd 24e2 17be 58e5 e0bd fc9e f1bd
00000230: 84f2 a7be 112d 55be 24ee 86be e490 b9be
00000240: efd1 3bbe 46c5 63be 3fba 87be cc7e 57be
00000250: 597a 80be 913c 15be d71a ebbe 2767 d2bd
00000260: ce91 99be 6eed b5bd f864 50be 9d68 4dbe
00000270: 1c96 a8bd 2f1b 0cbd a73c 7fbe 3cbc 01be
00000280: d57d a2be 3d99 95be 0228 07be 995a 85be
00000290: d9b7 4ebe 8c70 bdbe 3f31 38be 8e36 3cbe
000002a0: 1655 d7bd a65b 203d fb29 cabd e96c 49bd
000002b0: 5465 57be 1ba6 1fbe c68e e1bd 4cbb b1be
000002c0: ac5e 91be 28ba 99be f7ac 73bd e89e 67be
000002d0: daab a9be aa4f 89be f5fe 89be 5933 80be
000002e0: d649 73be adee 3dbe b4ea 9cbd 040d bebd
000002f0: 730d e4bd 3ac7 b0bd f9cb f0bd 0db9 62be
00000300: 444b 99be 4243 a5be e86b 9abe eb0a 37be
00000310: eb09 bfbe 590e 83be c97d b8bd d5b7 a9bd
00000320: 17a3 03be a5c3 a6be 3c69 3bbe abb1 cabd
00000330: 1d1b 7ebd 2d3e 47be 5e67 bebe 6876 88be
00000340: 347b 35be 613f 86be 3b62 a0bd ca66 51be
00000350: cdd6 27be a219 4bbe 9461 09be 98a8 35be
00000360: 97ed 5cbe 76cd ecbd eee8 21be da95 6bbe
00000370: a5a6 3abe 93d8 36be db7a 94be 1555 b1be
00000380: 378c fabd 7716 7ebe 446c a1bd 1c7a 77be
00000390: e739 63be 5844 1cbe ff69 2fbe 7395 d3bd
000003a0: 94ba a1be 63e6 6dbe b2d0 a7be 4fb3 09be
000003b0: f185 8ebe 18e2 81be c8f1 16be 8561 b4be
000003c0: 574c f6bd 366b 8fbe 9f4b 55be 0245 43be
000003d0: 74b0 9dbe fc9a 9fbd d0f1 96be eea7 90be
000003e0: 8fd7 e4bd 7e92 79be 287f a3be 41ba 20be
000003f0: 5159 1ebe 7757 4cbe 0d4b 96be 89d3 f6bd
-0.2815654 -0.14763524 -0.3697652 -0.31782672 -0.36427766 -0.30230296 -0.06665927 -0.14954783
-0.19586508 -0.26669058 -0.084493496 -0.35449165 -0.09365707 -0.3227527 -0.14473076 -0.14981359
-0.32444417 -0.16866788 -0.2133603 -0.08247272 -0.2890027 -0.17220403 -0.18868269 -0.07364259
-0.1424819 -0.11105942 -0.16117564 -0.18272105 -0.207071 -0.06463077 -0.1846848 -0.14108017
-0.37472424 -0.26441008 -0.24338973 -0.18658443 -0.10491702 -0.1465226 -0.18489279 -0.16380414
-0.10063112 -0.16308327 -0.2723809 -0.18563773 -0.15908082 -0.063019514 -0.10883234 -0.18556455
-0.26932806 -0.17071772 -0.222429 -0.19381116 -0.108483 -0.31492126 -0.21510288 -0.15701526
-0.1930016 -0.12429561 -0.11633795 -0.18208943 -0.25573766 -0.2703816 -0.15306738 -0.27014536
-0.08193873 -0.16881557 -0.20968822 -0.313001 -0.13231163 -0.33136812 -0.14783086 -0.0602258
-0.30688426 -0.18273431 -0.13176073 -0.17201237 -0.11530073 -0.16192466 -0.15216218 -0.036288705
-0.22332059 -0.34301326 -0.1805483 -0.2040169 -0.3060822 -0.25385925 -0.19107378 -0.20168956
-0.17658377 -0.32680196 -0.10663198 -0.16977769 -0.20503959 -0.18668643 -0.20363772 -0.27173817
-0.31216457 -0.1486643 -0.20281087 -0.1637965 -0.18493946 -0.15294269 -0.29125884 -0.2176447
-0.23540576 -0.18677074 -0.36431456 -0.07641254 -0.2350014 -0.12475064 -0.1577851 -0.14562759
0.0034647244 -0.20916238 -0.22473854 -0.024666697 -0.17974117 -0.22982368 -0.21698415 -0.19192873
-0.024772363 -0.124422945 -0.37674767 -0.24509954 -0.16417275 -0.21333897 -0.15185477 -0.18180326
-0.3095511 -0.13330747 -0.17899229 -0.25855204 -0.08696642 -0.19768499 -0.19796905 -0.46998858
-0.121729836 -0.1483236 -0.10981244 -0.11797902 -0.32802212 -0.20817973 -0.26353562 -0.36243355
-0.18341802 -0.22243223 -0.26509282 -0.21044463 -0.25093344 -0.14573886 -0.45918915 -0.10273581
-0.29994053 -0.08883177 -0.20351017 -0.20059438 -0.08231756 -0.03420561 -0.24925481 -0.12669462
-0.31736627 -0.29218474 -0.13198856 -0.26045683 -0.2018732 -0.3699993 -0.17987536 -0.18380186
-0.10514276 0.039149903 -0.098712884 -0.04917613 -0.21034747 -0.15590708 -0.1101356 -0.3471321
-0.2839254 -0.30024838 -0.059491124 -0.22619212 -0.33138925 -0.2681859 -0.2695233 -0.25039175
-0.23758635 -0.18548079 -0.076619536 -0.09279826 -0.11135378 -0.086317495 -0.11757655 -0.22140904
-0.29940236 -0.32277876 -0.3016045 -0.17875259 -0.37312254 -0.25596884 -0.090083666 -0.08287016
-0.12855183 -0.3257114 -0.18301862 -0.09897169 -0.062037576 -0.19457312 -0.37188238 -0.26652837
-0.1772278 -0.2622023 -0.07831236 -0.20449367 -0.16390534 -0.19833997 -0.1341613 -0.17740095
-0.21575008 -0.11562626 -0.15811512 -0.23006383 -0.18227632 -0.17856054 -0.2899998 -0.34635225
-0.12233775 -0.24813257 -0.07881978 -0.24167675 -0.22190057 -0.15260446 -0.17130278 -0.103312396
-0.3158766 -0.23232417 -0.3277641 -0.13447307 -0.27836564 -0.25367808 -0.1474067 -0.35230651
-0.120262794 -0.28011483 -0.20829628 -0.19069293 -0.30798686 -0.07793233 -0.29481363 -0.2825312
-0.11173927 -0.24372289 -0.3193295 -0.1569605 -0.15463759 -0.1995524 -0.29354134 -0.12052066

action_model._discrete_distribution.branches.0.weight f4 [4, 256]
00000000: 172e cbbc 5d80 2ebe 997f b7be cac2 a5ba
00000010: 790f 36bb 1634 4e3d 9fac de3d 2f60 bcbe
00000020: 1918 343e 9f33 a0be ae7d 42be 3c9c f3bd
00000030: 61c1 593e 1c86 37bc 66c1 d73c fbb2 4abe
00000040: 9af5 88be 6b91 1dbc e570 75bd 0065 edbc
00000050: 9025 59bd 3151 243e 4c80 04be d6b4 6cbe
00000060: ad7c f4bd 6a21 543e 3630 b73e 758d 68bc
00000070: 92b1 54bd 7a6d e1bd f84c 5dbe 95b9 c73d
00000080: 90b1 883d 99cd 4fbd 4b87 a7bb fe40 73be
00000090: 1c7f 3b3e 08a1 79bb f72e 3a3e db8c 833d
000000a0: 1081 6a3d 0899 1dbe bf1a 0f3d 007a abbc
000000b0: 66d8 92bd 444a 93bd ad75 8f3d 91dd 623e
000000c0: 7a80 e83d c08a 9bbd 55df 343e 2c4d 9abe
000000d0: c08a 8abe e992 82be a22c 4e3d d42c f83d
000000e0: eadb 2b3e 92e4 c03d 1129 a53d cdfe 203e
000000f0: ad98 823e 1ae9 27be ac0c 423e 1051 77be
00000100: 972e 203e 92ab 263d 066d 84bd 8fdf d43d
00000110: 7a72 f7bc a79f e4bc 3de9 51bc c0f9 c43d
00000120: e88b 0d3d 4251 103d e980 80be 5423 ccbd
00000130: 4154 f43d ba29 df3d 54ce 04be e159 cebd
00000140: bbce 3ebd e6a3 03be a9fb dabd e298 0b3e
00000150: f0d9 95bb d520 81be c0ac 85bd aab3 19be
00000160: a728 303e 809f 893d 2547 83bd a98d 42be
00000170: 54d4 f33d 0db3 e53d 2ed8 1fbe a1a4 493d
00000180: 3323 84bd cbfc b83d e6bf 233e 00bc 103e
00000190: d190 8bbe 7364 5fbc 32a1 fe3c 37f3 1abe
000001a0: 7585 903e 91b4 2cbe 5871 e43a 4552 05bb
000001b0: 7b17 1e3e 60f2 9e3d 9ea1 ebbd 0b39 593e
000001c0: d944 20be 8a09 023d 7ede 973b e417 20bd
000001d0: 9e50 2b3e 46ef 11bd 60bd 57bd 7682 30bd
000001e0: 4811 bd3d 5ead 04be fc3f 0e3d 794a 43be
000001f0: 6ea0 503e a999 183d 0a86 603e a873 6d3d
00000200: 74b5 1abe a9a4 adbb 2098 463e ae78 8dbe
00000210: 6cfd 1abe 4b12 0abe 9520 963d 4070 993c
00000220: e493 893d 8ace d33d 9dbf 9abd 2582 c33d
00000230: c473 c6bc 28b4 8f3e 2812 763d 2d4a 283c
00000240: f2a4 ad3d a6e2 47be cf3f 9b3c 11b2 6c3d
00000250: f28e ad3e 3100 19bd 94f7 4b3d a0f5 84bc
00000260: 951d 9d3d 2412 fd3c fb40 f53d d203 b43d
00000270: b325 083d 93ba 633e 10a0 b93b 7738 a23d
00000280: cca2 1b3a 1871 5dbe 89ce 993e bde5 de3d
00000290: 9f37 733d f521 31be bf4f 593e 70c8 96bd
000002a0: 5f5b 8ebd 9117 f63d 61cc 3b3e 0fd6 533e
000002b0: f1d5 603d ef40 873d 9168 be3c d809 833d
000002c0: e9ae 98bd 7e2c 9bbb cc72 98bd 17c7 95be
000002d0: b398 cf3c 0716 0abc fb34 433e 55f3 a53e
000002e0: 30b8 223e 5cd7 2abc d44e 573b e75f d2bd
000002f0: d5dc 1b3e 21ad 2dbe 1085 b43e bfb2 d4bd
00000300: 4712 203d 259e 603d 4b47 9abd e8cf 8abe
00000310: 5094 4d3d dec5 afbe f101 be3d 8617 223d
00000320: 7db0 6dbd 9dd9 0abc 335f 973e f0c3 1bbe
00000330: f1ed 0b3c cb4a 57bd 4333 303d 19e8 abbc
00000340: d635 89bd fde8 ac3d 4ead 053e 524c 81bc
00000350: a820 b9be 61f2 853e 2da9 9cbd e5bd 713e
00000360: 81bc 6dbd 2676 a93d 238b fe3d bfc5 c6bc
00000370: 8fcc 663d dae3 c3bd 37c9 6dbe 7ae8 603c
00000380: cbd4 4f3c 5269 a2bb 1598 583e 556b ab3d
00000390: 3ef0 30bc 70a8 76bd f51d dd3d 1e94 193e
000003a0: dc23 24bd 34a6 cbbd 65e8 85be fac3 d3bc
000003b0: 7726 943d e681 433d 163c 44be 4cc2 c0bc
000003c0: fc7c 153d 6063 4bbe 66b3 8dbd 7229 873e
000003d0: 1f78 40bd f052 4d3e 5c6d 13be b15b 50bd
000003e0: 2644 823d 43bd f1be 905c 333e 60af ae3c
000003f0: 5fa1 12bd 94d8 523e ffef fb3d 0292 683e
-0.02480225 -0.17041154 -0.35839537 -0.0012646553 -0.0027780219 0.05034264 0.108727686 -0.36792132
0.17587318 -0.31289384 -0.18993255 -0.11895034 0.21265174 -0.011201408 0.026337337 -0.19794838
-0.2674988 -0.00961719 -0.059922118 -0.028978825 -0.053014338 0.16046597 -0.12939566 -0.23115858
-0.119378425 0.20715871 0.3577897 -0.014193882 -0.051927157 -0.11007209 -0.21611392 0.09752194
0.06674492 -0.050733183 -0.0051125637 -0.23755261 0.18310207 -0.0038090367 0.18181978 0.064233504
0.05725199 -0.15390408 0.034937616 -0.020932198 -0.07170181 -0.071918994 0.07004867 0.22154833
0.1135263 -0.07594824 0.1766332 -0.30137002 -0.27058983 -0.2550271 0.050335534 0.12117925
0.1678311 0.09418596 0.080644734 0.15722199 0.25507107 -0.16397515 0.18950146 -0.24152017
0.15642773 0.040690966 -0.06466107 0.10394203 -0.030205954 -0.02790816 -0.012811956 0.096179485
0.034557253 0.035233743 -0.2509835 -0.09967676 0.11930133 0.108966306 -0.12969333 -0.10075737
-0.046583872 -0.12855491 -0.106925316 0.13632539 -0.0045730993 -0.2522036 -0.0652709 -0.15009943
0.17203008 0.06719875 -0.06410054 -0.18999352 0.11905733 0.11215792 -0.1560981 0.049229268
-0.06452026 0.090325914 0.15991172 0.14134216 -0.27258924 -0.013634789 0.031082723 -0.15131842
0.2822682 -0.16865756 0.0017428799 -0.0020343226 0.15438645 0.07761073 -0.115054354 0.21213166
-0.15651263 0.03174738 0.0046346774 -0.039085284 0.16729972 -0.03562858 -0.052670836 -0.043093167
0.09231812 -0.1295676 0.03472899 -0.19071378 0.20373699 0.037255917 0.21926132 0.057971627
-0.15108281 -0.00529917 0.19393969 -0.27631134 -0.15135735 -0.1348354 0.07330433 0.018730283
0.06717661 0.103421286 -0.075560786 0.095463075 -0.024225123 0.28067136 0.06007591 0.010271591
0.084787264 -0.19520053 0.018951325 0.057787005 0.3389812 -0.0373537 0.049796656 -0.016230404
0.07671658 0.03089244 0.11975285 0.08789791 0.033239078 0.22239141 0.005664833 0.07920926
0.00059370394 -0.21625173 0.30040386 0.10883663 0.059379216 -0.1729811 0.21221827 -0.07362449
-0.069510214 0.12016214 0.18339683 0.20687126 0.05489153 0.06604182 0.02324322 0.06398362
-0.074552365 -0.0047355285 -0.07443771 -0.29253456 0.025341367 -0.008428103 0.19063179 0.3241221
0.15890574 -0.010427322 0.0032853382 -0.10272198 0.1522096 -0.16960575 0.3525777 -0.103856556
0.03907993 0.05483832 -0.07533129 -0.27111745 0.05019027 -0.34330648 0.09277714 0.039573215
-0.05802964 -0.008474735 0.2956482 -0.15211463 0.008540616 -0.052561563 0.043017637 -0.020984696
-0.066997215 0.084428765 0.13054392 -0.015783463 -0.36157727 0.26161483 -0.07649455 0.23607595
-0.0580411 0.08274488 0.12428882 -0.024264215 0.056347426 -0.095649436 -0.23221289 0.013727302
0.012685011 -0.004956403 0.21151765 0.08370081 -0.010799466 -0.06021923 0.107967295 0.14997908
-0.04007326 -0.0994381 -0.26153865 -0.025850285 0.07233899 0.047731303 -0.19163546 -0.023530148
0.036496148 -0.19862127 -0.06918983 0.26398808 -0.046989556 0.2005117 -0.14397186 -0.050868694
0.063606545 -0.47214708 0.17515779 0.02132386 -0.035798427 0.2059043 0.12301635 0.22711948

action_model._discrete_distribution.branches.0.bias f4 [4]
00000000: 2096 933e a420 b6be 2b23 6bbe ffda 8f3e
0.28825474 -0.35571778 -0.22962634 0.28096768

action_model._discrete_distribution.branches.1.weight f4 [3, 256]
00000000: 6997 0b3d 914d 963d 4eb5 2fbe b078 993c
00000010: 2bf4 a7bb 981f 25be 6872 4cbe a31e 36bd
00000020: 0b3a 823d 0415 22be 8a66 c2bd a8f7 45be
00000030: 1e15 ba3d 4bab 893c c768 203e 7cd9 253d
00000040: a524 55be 1498 4f3e 83a5 22be bfab 1bbc
00000050: b337 bfbc a0e1 bb3b 738c 94be 1ec4 acbd
00000060: 93e0 ebbd d70d 293d 55af 06be 661f 303e
00000070: eacd 643d a939 42be d97e 7a3e 7ca1 d73d
00000080: 647a 3dbe a473 52bd d10b 4f3e b048 353e
00000090: b12d c23d a042 5b3d 04cf a23d 710f 3a3e
000000a0: 1b51 08bd 717e 29be 8ccb 0abe 28f6 91bd
000000b0: fd5e af3b ef86 c33d 49a5 34bd 714e 4f3e
000000c0: 5814 b03d 60ad 8b3d ebc2 143e d877 90be
000000d0: 230b 5fbd 1498 61be ccf5 3f3d 66f6 a23e
000000e0: 85ac 943e abed 023e faea b33c 7338 8cbc
000000f0: 7372 673e d71f 84bc ea14 bdbc 025e 68be
00000100: d4a6 543d 4ae8 af3d fe67 cebd 6a9e 3c3d
00000110: 727e 70bd d761 17bc 5be9 1cbd ae6d 0abd
00000120: e110 a83c c99d afbd e3e5 fabd e7c4 093b
00000130: 8b90 023d 9195 913d 4b09 e23d 3ef7 aabd
00000140: df3f 7e3d 52d5 fbbd 019f acbc c518 ac3d
00000150: 78e5 313d b81c 333c 6131 2cbe b05d 93bd
00000160: f470 e63d da01 9d3d c73f 01be 762f f7bd
00000170: b4ce d2bb ad61 2d3e 7c13 783b 2383 ae3d
00000180: f658 92bd d6ac 13ba bef2 ea3d 77fa 043c
00000190: 0520 1cbe d96a f23c adc0 fa3d e61a 96bd
000001a0: 97d2 fe3c 6b06 ffbd 6985 a33c b4c7 1f3e
000001b0: c862 563e 5cce 3cbd 6423 1cbd 6076 3d3e
000001c0: 964b 2a3c 0872 4d3d 317e 19bd edb7 1dbd
000001d0: 9417 683e 858d 203e de10 443d 9119 0a3e
000001e0: 4082 f23c edf9 d43d 8ef7 713d a907 50be
000001f0: 4098 8b3d e4ba 1c3d 12a9 cc3d 7fbf db3d
00000200: ae1d 01be aa85 3c3d 970f debc 1c2d 8fbd
00000210: ea8c cdbc f30c 68bd 699b fdbc ef36 9c3b
00000220: 3ba6 1bbc fd5b 6abb 5f62 3f3e b688 f83b
00000230: 5490 4e3c 8b04 343e ab02 6d3e e42e 14bc
00000240: a456 b4bd 5128 15bd 95b3 483c f25f b1bc
00000250: 323c cc3d 5df2 1dbe 6b3c 94bd 95d4 89bd
00000260: 448d 973d 7e5c c4bd f273 9f3c 04c5 2d3e
00000270: e7b9 c23c 0e00 e03d a8ab 3abd 6c90 c03d
00000280: b67b e0bc e4d6 02bc 0096 3c3d 52a0 893e
00000290: 2f7f 343d 282a 35be 6cc7 1cbd 7dda cabc
000002a0: 47f9 023e 2a27 203d 5935 e23d d9b5 f6bd
000002b0: 0920 ac3c 9b49 853d 05a5 203e 4466 b43d
000002c0: 39c5 55b7 95ba a53c 74a8 83bd e597 fdbd
000002d0: 287a 893d 2b28 f63d 59a1 653e 49d3 79bc
000002e0: 24db 073e f323 473e fdce 0ebc cb79 a7bd
000002f0: 45b4 cc3d 04fc 053e a741 e53d 9465 b63c
00000300: 4b37 853d 4a88 313b fcb5 b73d 725e 01be
00000310: b78f 3a3d 25a5 36be 7026 cf3c c169 ac3c
00000320: e660 613d d3fc 81bd aa06 60bd b138 073e
00000330: 078b 62bd de32 e83b 597a eb3c 3bb7 0a3d
00000340: b8fd 4abe 81db d33c 7f92 57bd 0992 2e3e
00000350: 2ae6 d0bb ae34 d53d 54a2 34be 0054 50bd
00000360: 8b9d 4d3e 1313 d33b b027 9cbd 654e 2ebd
00000370: 1e77 a1bd c68d a83d 383b 26be 4dff bf3c
00000380: 312b 80bd a482 193d f209 163e 5787 f63c
00000390: 386e df3d 4074 cfbc c438 15bd d3e3 6d3b
000003a0: 0efb 76bd dce5 2d3e e8b4 7abe f2e9 0fbe
000003b0: f227 c83d 5d49 ae3d 352f b73d 6740 4b3c
000003c0: cbab 5f3d b245 4fbd 2c92 3c3e e87f 3f3e
000003d0: 4a3d 163d 2be6 85bc cd96 e6bc 9195 b5bd
000003e0: a9fe c93c 853b aabe 08aa 343e 3f28 91bd
000003f0: b379 ffbc 6f62 3fbd 1fde 51bd 334c c33b
0.034079943 0.07339013 -0.17159006 0.018734306 -0.0051255426 -0.16125333 -0.19965518 -0.04446281
0.06358727 -0.1582833 -0.09492214 -0.19332755 0.09086059 0.016805312 0.1566497 0.040490612
-0.2081476 0.20272857 -0.1588345 -0.009501397 -0.02334199 0.0057336837 -0.29013404 -0.08435844
-0.115174435 0.041272964 -0.13152821 0.17199478 0.055860437 -0.18967308 0.24462451 0.105288476
-0.1850372 -0.051379815 0.20219351 0.1770351 0.09481371 0.053530335 0.07949641 0.18169953
-0.033280473 -0.1655214 -0.1355421 -0.07127029 0.0053518997 0.09547221 -0.04410294 0.20244767
0.0859763 0.06820178 0.1452748 -0.28216434 -0.05445398 -0.2203067 0.04686527 0.31828612
0.29037872 0.12785976 0.021962631 -0.01711676 0.22602253 -0.016128464 -0.023081262 -0.22692111
0.051916912 0.085892275 -0.10078429 0.046049513 -0.058714338 -0.009239635 -0.038308483 -0.033796005
0.020515861 -0.08575017 -0.12250879 0.0021021904 0.03187613 0.07108606 0.11036929 -0.08347939
0.06207263 -0.12296547 -0.021071913 0.08403162 0.04343173 0.01093214 -0.16815712 -0.07195604
0.11252013 0.07666369 -0.12621985 -0.12069599 -0.0064333323 0.16931792 0.003785341 0.08521106
-0.07145874 -0.00056333595 0.11472081 0.008116356 -0.1524659 0.029591965 0.12243781 -0.07329349
0.031106276 -0.12452396 0.019961076 0.15603524 0.2093612 -0.046095237 -0.03811969 0.18502188
0.010393998 0.050157577 -0.03747386 -0.038505483 0.22665244 0.15678985 0.04786765 0.13486315
0.029603124 0.10399232 0.059073977 -0.20315422 0.06816149 0.03826417 0.09993185 0.10729884
-0.12608978 0.04602591 -0.027107043 -0.06991026 -0.025091607 -0.056652974 -0.030957894 0.004767291
-0.009500082 -0.0035760396 0.1868987 0.0075846566 0.012607653 0.17579858 0.23145549 -0.009044383
-0.08805588 -0.0364154 0.012249847 -0.021652196 0.09972419 -0.15424486 -0.07238086 -0.0673
0.07399991 -0.09587954 0.019464467 0.16969687 0.023770286 0.109375104 -0.04557386 0.09402546
-0.02740274 -0.007985804 0.04604149 0.26880127 0.044066604 -0.17691863 -0.03827612 -0.024762386
0.12790404 0.03909985 0.110453315 -0.120464034 0.02101137 0.0650818 0.1568795 0.08808568
-1.2741709e-05 0.02023057 -0.06428614 -0.12382487 0.067127526 0.1201938 0.2242483 -0.015248128
0.1326719 0.19447307 -0.008716342 -0.08177527 0.09995321 0.13084418 0.11194163 0.022265233
0.06504687 0.0027089291 0.08970258 -0.12633684 0.045547213 -0.17836435 0.025286883 0.021046521
0.05502405 -0.063470505 -0.054693855 0.1320522 -0.055308368 0.007086142 0.028744863 0.03386615
-0.19823349 0.025861504 -0.052629944 0.17047895 -0.006375094 0.104104385 -0.17640048 -0.05086136
0.20079629 0.006441483 -0.07624757 -0.04255523 -0.07884048 0.08230166 -0.16233528 0.023437167
-0.06258238 0.037478104 0.14652231 0.030093832 0.109096944 -0.025323987 -0.03643109 0.0036299124
-0.06029802 0.16982216 -0.24483073 -0.14054087 0.09773244 0.08510087 0.08944551 0.012405491
0.054607194 -0.050603576 0.18415135 0.18701136 0.036679544 -0.016345104 -0.02814808 -0.08866418
0.024657564 -0.33248535 0.17642987 -0.070877545 -0.03118596 -0.046724733 -0.05123722 0.0059600114

action_model._discrete_distribution.branches.1.bias f4 [3]
00000000: a94c 413d e4f2 e9bc 96b6 5c3c
0.04719225 -0.028558202 0.013471266

onnx::Div_88 f4 [35]
00000000: ad58 423e d709 d639 fb18 3b3e 3c56 843e
00000010: 7dc0 fc3d ee6a 683e 280a 5639 6fdb 213e
00000020: eb12 8b3e 9cbf 103e e4cf a83e 5259 9739
00000030: 73ae 273e 51ab b73e 3912 3b3e 180c a43e
00000040: 280a 5639 d05d 2a3e 513a b43e b21c 603e
00000050: aba9 cb3e 280a 5639 ee01 2e3e c689 d63e
00000060: cb56 6f3e 85ff d63e 280a 5639 8dfc 1f3e
00000070: 84d7 de3e be40 893e 4cea d13e 280a 5639
00000080: b217 333e bfac dc3e 7495 743e
0.1897914 0.00040824592 0.18271248 0.25847042 0.12341402 0.2269704 0.00020412414 0.15806364
0.2716287 0.14135593 0.32971108 0.00028867513 0.16375141 0.35872892 0.1826867 0.32040477
0.00020412414 0.16637349 0.35200742 0.21885946 0.39777884 0.00020412414 0.16992924 0.41901988
0.23372953 0.4199182 0.00020412414 0.15623684 0.435238 0.26807207 0.40999067 0.00020412414
0.17489508 0.43100545 0.23885137

onnx::Div_91 f4 [135]
00000000: 1869 c23b c904 a33e 8be2 a43e b1d4 db3e
00000010: 1290 313e a4ad 403c 4959 e73e ed92 983e
00000020: d826 fa3e 97d6 833e d60e ec3b 292a fe3e
00000030: 4ee1 8f3e 2245 ff3e d6ef 4f3e 3a90 4b3c
00000040: def7 f33e 30a3 443e afb9 e93e d133 8f3e
00000050: 40f2 f93b 9c75 f63e 67d5 293e 47a0 ee3e
00000060: d5ec 4a3e fd6c 4b3c f1db ea3e 2523 8f3d
00000070: f807 e83e fa62 863e a4e2 f43b f67e eb3e
00000080: 5aba 923d 8f73 ee3e 5011 073e 280a 5639
00000090: aa02 ff3e a704 773b 4111 ff3e d575 1c3e
000000a0: 273b 693b 5f63 2c3e ddec 0d3c df5e 303e
000000b0: 37df 6e3d 14fc c23b b409 a33e 9dec a43e
000000c0: c3b5 db3e 4b4d 303e fbe8 403c 875b e73e
000000d0: 2e9b 983e 561b fa3e 0e84 833e ed87 ec3b
000000e0: a52b fe3e 56eb 8f3e 8449 ff3e 5214 4f3e
000000f0: 83eb 4b3c 45f3 f33e 8daf 443e 18cf e93e
00000100: 6606 8f3e 757b fa3b 5072 f63e fce6 293e
00000110: 2fb4 ee3e ea24 4a3e 3fba 4b3c 4dd5 ea3e
00000120: f42e 8f3d e220 e83e 5d39 863e 5e57 f53b
00000130: a881 eb3e 70c7 923d 195c ee3e 5c4a 053e
00000140: 280a 5639 9303 ff3e a804 773b b30d ff3e
00000150: 851d 1b3e 253b 693b ca6c 2c3e f2f6 0d3c
00000160: b3e2 2e3e bbe8 5b3d a18e c33b 9e0e a33e
00000170: d3f5 a43e 0e99 db3e 860a 2f3e db1c 413c
00000180: 585e e73e d5a4 983e 7107 fa3e 4e2c 833e
00000190: c400 ed3b 382d fe3e ecf5 8f3e c550 ff3e
000001a0: 443a 4e3e 984d 4c3c 41ef f33e c3bb 443e
000001b0: 09e3 e93e 0cd8 8e3e 2d1b fb3b a26e f63e
000001c0: 52f9 293e 03c7 ee3e 2f5e 493e 660e 4c3c
000001d0: bece ea3e c23a 8f3d 9038 e83e ed0e 863e
000001e0: 29e3 f53b 7d84 eb3e 90d4 923d f340 ee3e
000001f0: 867b 033e 280a 5639 aa04 ff3e a804 773b
00000200: 230a ff3e 29b9 193e 263b 693b 7176 2c3e
00000210: 0601 0e3c 9a6d 2d3e 175d 473d
0.0059329383 0.31839588 0.3220409 0.42935708 0.17340115 0.011760149 0.45185307 0.29799595
0.4885776 0.25749657 0.007203917 0.4964154 0.2810158 0.49857432 0.20306334 0.012424523
0.47650045 0.19202876 0.45649478 0.2796922 0.0076277554 0.48136604 0.16585313 0.46606657
0.19816907 0.012416122 0.45870927 0.06989125 0.4531858 0.26247388 0.0074733067 0.459953
0.0716445 0.4657254 0.13190198 0.00020412414 0.4980672 0.0037691982 0.4981785 0.15279324
0.0035588236 0.16834782 0.00866243 0.1722369 0.058318343 0.00595046 0.3184334 0.32211772
0.4291211 0.17216985 0.011774297 0.45187017 0.29805893 0.4884898 0.25686687 0.007218352
0.49642673 0.28109235 0.49860775 0.20222595 0.012446287 0.47646537 0.19207592 0.45665812
0.2793457 0.0076441118 0.4813409 0.1659202 0.46621844 0.19740644 0.012434541 0.4586586
0.069913775 0.45337588 0.2621564 0.0074872216 0.45997357 0.07166946 0.4655464 0.13016647
0.00020412414 0.49807414 0.0037691984 0.4981514 0.1514798 0.0035588231 0.16838375 0.008664833
0.17078666 0.053688746 0.0059679304 0.3184709 0.322188 0.4289021 0.17093858 0.011786665
0.45189166 0.29813257 0.48833802 0.2561974 0.0072327573 0.49643874 0.2811731 0.4986631
0.20139414 0.012469672 0.47643474 0.1921225 0.45681027 0.27899206 0.0076631517 0.4813128
0.16599014 0.4663621 0.19664834 0.012454605 0.45860857 0.06993629 0.45355654 0.26183262
0.0075038862 0.45999518 0.07169449 0.46533927 0.12840089 0.00020412414 0.49808246 0.0037691984
0.4981242 0.15012039 0.0035588234 0.16842057 0.008667236 0.16936341 0.04867276

onnx::Div_94 f4 [11]
00000000: b458 9739 2d80 eb3e b2a7 c13e 2aca 6f39
00000010: 280a 5639 69a8 da3e d8d4 c53e d4cc 8d3e
00000020: 2553 bc3e 0ac1 9f3e f401 403e
0.00028867053 0.45996228 0.37823254 0.00022868128 0.00020412414 0.42706612 0.3863895 0.27695334
0.36782184 0.31201965 0.18750745
