Usable_Data/Versuch_3-2/PKWParking/PKWParking-11999984.onnx (onnx, 468050 bytes, 15 tensors)

discrete_act_size_vector f4 [1, 2]
0	0x40800000	4.0
1	0x40400000	3.0

network_body.observation_encoder.processors.0.normalizer.running_mean f4 [35]
0	0x3cb12d05	0.021627912
1	0x348637f0	2.5000145e-07
2	0x3d5050cc	0.050858304
3	0x3f6d6a53	0.9274036
4	0x3f76ef89	0.9645925
5	0x3da8ed1b	0.08248349
6	0x00000000	0.0
7	0x3cfb57c6	0.030681502
8	0x3f630098	0.8867278
9	0x3f716aee	0.94303787
10	0x3d7265bb	0.05917905
11	0x33b2f517	8.3333525e-08
12	0x3d340e09	0.043958697
13	0x3f659543	0.8968088
14	0x3f731b6f	0.94963735
15	0x3e05092f	0.12991785
16	0x00000000	0.0
17	0x3d4de771	0.050269548
18	0x3f51c723	0.81944484
19	0x3f63f3c9	0.8904386
20	0x3defb85d	0.117050864
21	0x00000000	0.0
22	0x3d66601b	0.056243997
23	0x3f536b23	0.8258535
24	0x3f68d936	0.9095644
25	0x3e39a1cd	0.18128128
26	0x00000000	0.0
27	0x3d41d4eb	0.047322195
28	0x3f455975	0.77089626
29	0x3f5d11f2	0.8635551
30	0x3e0c4460	0.13697958
31	0x00000000	0.0
32	0x3d80c139	0.06286854
33	0x3f4c5c1b	0.7982804
34	0x3f653bc0	0.89544296

network_body.observation_encoder.processors.1.normalizer.running_mean f4 [135]
0	0x3876c3ef	5.8833448e-05
1	0x3d892008	0.066955626
2	0x3e70a774	0.23501378
3	0x3f2ce282	0.67533123
4	0x3f5f288c	0.87171245
5	0x399065f5	0.00027541784
6	0x3e88c2a8	0.2671101
7	0x3e49c77d	0.19705005
8	0x3f04c1a5	0.5185798
9	0x3f48dc16	0.78460824
10	0x38b96c91	8.8417095e-05
11	0x3e59453a	0.21217814
12	0x3e310285	0.17286117
13	0x3f1816b9	0.5940967
14	0x3f5d46bc	0.8643606
15	0x39a1433b	0.00030758404
16	0x3ed4fe98	0.4160049
17	0x3d9c7e2b	0.07641252
18	0x3ef5e8f4	0.48029292
19	0x3f3d8c63	0.7404234
20	0x38d37699	0.000100833546
21	0x3ece8c88	0.40341592
22	0x3d674294	0.05645998
23	0x3f017b08	0.50578356
24	0x3f5ca5fe	0.86190784
25	0x39a12198	0.00030733342
26	0x3edccfbe	0.43127245
27	0x3c1e18d7	0.009649477
28	0x3f0b9a4c	0.54532313
29	0x3f42a94b	0.7603957
30	0x38d15dc4	9.983362e-05
31	0x3e3aee39	0.18254937
32	0x3c262695	0.010141035
33	0x3f4a3f33	0.79002684
34	0x3f73498a	0.95034087
35	0x00000000	0.0
36	0x3e8d0dee	0.2754969
37	0x37edad8e	2.833342e-05
38	0x3f38cac0	0.7218437
39	0x3f6ff829	0.9373804
40	0x37d3d05e	2.5250189e-05
41	0x3c71b4de	0.014752595
42	0x391d5fe2	0.00015008406
43	0x3f7b8b95	0.9825986
44	0x3f7e9e65	0.9946044
45	0x3878832a	5.9249964e-05
46	0x3d892a29	0.066974945
47	0x3e70c6c9	0.2351333
48	0x3f2d0f2d	0.6760128
49	0x3f5f5ac7	0.8724789
50	0x3990bf5c	0.00027608394
51	0x3e88c629	0.26713684
52	0x3e49df28	0.19714034
53	0x3f04ee9b	0.51926583
54	0x3f491003	0.78540057
55	0x38ba4c65	8.883401e-05
56	0x3e594ed7	0.21221481
57	0x3e311dd1	0.1729653
58	0x3f18416f	0.59474844
59	0x3f5d78c4	0.865124
60	0x39a1d4df	0.00030866914
61	0x3ed50560	0.41605663
62	0x3d9c9362	0.076452985
63	0x3ef644df	0.4809942
64	0x3f3dbf4d	0.74120027
65	0x38d482fb	0.00010133345
66	0x3ece92be	0.4034633
67	0x3d67758b	0.056508582
68	0x3f01a92f	0.5064878
69	0x3f5cdb51	0.8627215
70	0x39a19cf7	0.0003082526
71	0x3edcd6cb	0.43132624
72	0x3c1e31e2	0.009655448
73	0x3f0bcd5e	0.5461024
74	0x3f42de74	0.76120687
75	0x38d23d91	0.00010025048
76	0x3e3af4ce	0.18257448
77	0x3c26438a	0.0101479385
78	0x3f4a7507	0.7908482
79	0x3f737a3b	0.95108384
80	0x00000000	0.0
81	0x3e8d11d7	0.27552673
82	0x37edad8e	2.833342e-05
83	0x3f3903f2	0.72271645
84	0x3f70319b	0.9382569
85	0x37d3d05c	2.5250185e-05
86	0x3c71cb7a	0.014757985
87	0x391d7634	0.00015016721
88	0x3f7bc856	0.98352563
89	0x3f7ed9a3	0.9955084
90	0x387a42b2	5.966676e-05
91	0x3d89344c	0.06699428
92	0x3e70e5f6	0.23525223
93	0x3f2d3b4c	0.67668605
94	0x3f5f8dd0	0.87325764
95	0x39910d94	0.00027666672
96	0x3e88c9a8	0.26716352
97	0x3e49f807	0.19723521
98	0x3f051b95	0.5199521
99	0x3f49443e	0.78619754
100	0x38bb2bc8	8.92501e-05
101	0x3e59585c	0.21225113
102	0x3e313978	0.17307079
103	0x3f186ca9	0.595408
104	0x3f5dacd9	0.8659187
105	0x39a2716e	0.0003098356
106	0x3ed50bf6	0.41610688
107	0x3d9ca752	0.07649101
108	0x3ef69f39	0.48168352
109	0x3f3df2d9	0.7419868
110	0x38d5bc31	0.00010191685
111	0x3ece990c	0.4035114
112	0x3d67a7fe	0.056556694
113	0x3f01d6a6	0.5071815
114	0x3f5d129e	0.8635653
115	0x39a2230d	0.00030925163
116	0x3edcddcf	0.43137977
117	0x3c1e4b1a	0.00966146
118	0x3f0bfeaa	0.5468546
119	0x3f4312be	0.76200473
120	0x38d349b4	0.00010074992
121	0x3e3afb34	0.18259889
122	0x3c2660f4	0.010154951
123	0x3f4aa70d	0.7916115
124	0x3f73afcb	0.95190114
125	0x00000000	0.0
126	0x3e8d1593	0.27555522
127	0x37edad8e	2.833342e-05
128	0x3f393651	0.72348505
129	0x3f706c4c	0.9391525
130	0x37d3d065	2.5250201e-05
131	0x3c71e3cb	0.014763783
132	0x391d8c7b	0.0001502502
133	0x3f7c1b35	0.98479015
134	0x3f7f2c2a	0.99676764

network_body.observation_encoder.processors.2.normalizer.running_mean f4 [11]
0	0x3f7fff0c	0.99998546
1	0x3ddd75d2	0.10813488
2	0x3d1a31c8	0.03764513
3	0x3f014a4f	0.5050401
4	0x00000000	0.0
5	0x3eca8a83	0.395588
6	0x3e9d7cc1	0.30759242
7	0x3e484cef	0.19560598
8	0x3db28d77	0.087183885
9	0x3cc3eb94	0.023916043
10	0x3e1e4917	0.15457569

network_body._body_endoder.seq_layers.0.weight f4 [256, 181]
0	0x3ce90a3d	0.028447265
1	0x3e581ebe	0.21105477
2	0xbe7bf3b4	-0.24604684
3	0x3dccfffd	0.100097634
4	0xbca9e475	-0.02073882
5	0x3e438ac5	0.19095905
6	0xbdd80eaa	-0.10549672
7	0x3dab4186	0.08362107
8	0x3cce0b0c	0.025151752
9	0xbd40f513	-0.04710872
10	0xbc7305f5	-0.014832963
11	0xbd519ff5	-0.051177938
12	0xbd12c8af	-0.035835918
13	0xbd6a463c	-0.057195887
14	0x3e64aed5	0.22332318
15	0x3e792eea	0.24334303
16	0xbbdc158e	-0.0067164367
17	0xbea59223	-0.32338056
18	0xbc15f34a	-0.009152243
19	0xbb890469	-0.004181434
20	0xbd0f2ee8	-0.034956843
21	0x3d3a1c09	0.045436893
22	0xbd24bb7f	-0.040217873
23	0xbd218e5f	-0.039442416
24	0xbe2fa112	-0.17151287
25	0x3b915358	0.004434984
26	0xbbc036b3	-0.0058658957
27	0xbe0304bd	-0.12794776
28	0x3e2a8958	0.16653955
29	0x3cd25c3b	0.025678745
30	0x3c87a688	0.0165589
31	0xbb256caa	-0.002524177
32	0x3b594dff	0.0033158062
33	0xbe213822	-0.15744069
34	0xbe53fe7e	-0.2070255
35	0x3c46b91c	0.012129094
36	0x3d0c4218	0.03424272
37	0xbd362e08	-0.044477493
38	0x3bdc4e8c	0.0067232307
39	0x3dcfa0b5	0.10138074
40	0xbc04eea2	-0.008113535
41	0x3e4f56ae	0.2024791
42	0xbdf7fefd	-0.12109182
43	0xbc95c39b	-0.018281749
44	0x3d9fdd84	0.078059226
45	0xbe284e22	-0.16436055
46	0x3ade2472	0.0016948117
47	0xbdafb430	-0.0857929
48	0x3d94fd1c	0.07274839
49	0x3cf2e9ed	0.02965256
50	0x3db6af26	0.08920126
51	0x3c072a5b	0.008249844
52	0x3e0a3481	0.13496591
53	0xbd93fa61	-0.0722549
54	0x3d5e4495	0.054264624
55	0xbd2a8202	-0.04162789
56	0x3d5b4234	0.053529933
57	0xbdc24772	-0.09486283
58	0xbd537f45	-0.051635046
59	0xbdc2f7c9	-0.095199175
60	0xbdc177da	-0.09446688
61	0xbc2030a5	-0.009777223
62	0x3e14e7d9	0.14541568
63	0xbab274b0	-0.0013615098
64	0x3e0bf776	0.13668618
65	0x3de56548	0.112009585
66	0x3e00edf2	0.12590769
67	0xbdcd1106	-0.100130126
68	0xbe095dc1	-0.1341467
69	0x3dcaa179	0.0989408
70	0xbcd580e0	-0.026062429
71	0xbdc0fbf7	-0.094230585
72	0xbd3ccc4f	-0.04609328
73	0x3c5a2416	0.013314268
74	0x3c9dbf8e	0.01925638
75	0xbbb6355a	-0.005560559
76	0x3d59eced	0.053204466
77	0x3d88cc83	0.066796325
78	0xbc9e99fb	-0.019360533
79	0xbbbc75ae	-0.005751333
80	0x3c9a1a3d	0.01881134
81	0xbd3ac8ce	-0.04560166
82	0xbd1e5193	-0.038652014
83	0x3c842478	0.01613067
84	0x3e1fe156	0.15613303
85	0xbd867e71	-0.065670855
86	0xbd928dd5	-0.071559586
87	0xbd57894d	-0.052621175
88	0xbd80dde8	-0.06292325
89	0x3e2d0701	0.16897203
90	0x3c438a90	0.011934891
91	0xbbf257bf	-0.007395714
92	0xbd46833a	-0.04846499
93	0x3de4fc90	0.11180985
94	0xbd2522a8	-0.040316254
95	0x3cc3983e	0.023876306
96	0x3dd450fa	0.103670076
97	0xbd16b920	-0.036797643
98	0x3c78eceb	0.015193204
99	0x3d844859	0.06459112
100	0xbe7307d0	-0.23733449
101	0x3debed99	0.115199275
102	0xbe2ef87b	-0.17086975
103	0xbd9f9433	-0.07791939
104	0xbe2db58d	-0.16963787
105	0x3c4fd696	0.012685439
106	0xbca3979a	-0.01996975
107	0xbb40d677	-0.0029424706
108	0x3c13e099	0.009025716
109	0x3b279965	0.0025573608
110	0xbe14816e	-0.14502499
111	0x3e1c692a	0.15274492
112	0xbd44c7a0	-0.04804194
113	0x3cfbf0d9	0.030754494
114	0xbdb0f4b7	-0.08640426
115	0xbcc68541	-0.024233462
116	0x3dfb1a47	0.122608714
117	0xbd61a4c6	-0.05508878
118	0xbd99901e	-0.07498191
119	0xbdc3827f	-0.095463745
120	0xbe18e3fb	-0.14930718
121	0xbdbc03ad	-0.091803886
122	0x3dd9391c	0.10606596
123	0x3ddf6ee0	0.109098196
124	0x3c3fd3f2	0.011708247
125	0xbd3a5569	-0.04549161
126	0x3e1d7a8f	0.15378784
127	0x3dc8a146	0.097963855
128	0xb73891d7	-1.1001211e-05
129	0x3d9c829d	0.076421
130	0xbd0030bb	-0.031296473
131	0xbd8ad654	-0.06779161
132	0xbe31ab7a	-0.1735057
133	0x3d9d3cf9	0.07677645
134	0x3e11a655	0.14223607
135	0x3c11a730	0.008889958
136	0x3c01e007	0.007926947
137	0x3bef7f62	0.0073088864
138	0x3e652032	0.22375563
139	0xbd2525f8	-0.040319413
140	0x3d419791	0.047263686
141	0x3de1002c	0.10986361
142	0xbbd5f541	-0.0065294807
143	0x3e1f7c10	0.1557467
144	0x3e2d1b03	0.16904835
145	0x3ca9e6e9	0.02073999
146	0x3dc354a3	0.095376275
147	0xbe267b61	-0.16258003
148	0xbd54db10	-0.051966727
149	0xbdd4bb4e	-0.10387288
150	0x3de7af49	0.1131273
151	0x3dc709d9	0.09718675
152	0xbd5c70a2	-0.053818353
153	0xbd410d6e	-0.04713195
154	0x3d723066	0.059128188
155	0x3ca6c391	0.020356925
156	0x3d832a29	0.06404526
157	0xbd109498	-0.03529796
158	0x3c805274	0.015664317
159	0xbd15af5a	-0.03654418
160	0x3ca2ec96	0.019888204
161	0x3d0579d7	0.0325869
162	0x3d09d94e	0.033654504
163	0x3b9f1c32	0.004855656
164	0x3d8fc2be	0.07019566
165	0x3cb44650	0.022006184
166	0xbe26c271	-0.16285111
167	0xbd6d3788	-0.057914287
168	0xbcd937e3	-0.026515907
169	0x3c874713	0.016513383
170	0xbd90fd42	-0.07079555
171	0xbe188b49	-0.14896883
172	0xbcb65107	-0.022255434
173	0xbdefa616	-0.117016
174	0xbcac2979	-0.02101587
175	0xbd9b0a44	-0.075703174
176	0xbda47694	-0.080304295
177	0x3d0e1271	0.034685556
178	0xbe30ccf8	-0.1726569
179	0xbd0e80a7	-0.03479066
180	0xbe248c81	-0.16069223
181	0xbc005462	-0.007832618
182	0x3eac2c74	0.33627665
183	0xbc946746	-0.01811565
184	0x3e501a10	0.20322442
185	0x3ea63f38	0.32470107
186	0x3d118854	0.035530403
187	0xbe02a831	-0.12759472
188	0x3d46fedb	0.048582893
189	0x3d83f98b	0.06444081
190	0x3dd7ba78	0.10533613
191	0x3e247db3	0.16063575
192	0x3e37baf4	0.1794241
193	0xbe6d2947	-0.23160277
194	0x3e313baa	0.17307916
195	0x3c5aeebb	0.013362582
196	0x3dcb3bfe	0.09923552
197	0x3d32921c	0.043596372
198	0xbd915692	-0.0709659
199	0x3deabd89	0.11461932
200	0xbd5b1293	-0.05348451
201	0x3dbcc658	0.092175186
202	0xbe0078d9	-0.125461
203	0xbe707375	-0.23481543
204	0x3dd61d52	0.10454811
205	0x3dce638a	0.10077579
206	0x3c4e64f9	0.012597316
207	0xbb997b9b	-0.0046839244
208	0x3e165beb	0.14683501
209	0x3db5560d	0.088543035
210	0x3e20cab0	0.15702319
211	0xbd1f0da5	-0.03883137
212	0x3d1f672b	0.038916748
213	0xbd6454f0	-0.055745065
214	0x3e1942ef	0.1496694
215	0x3e0487df	0.12942456
216	0x3e516c3e	0.20451447
217	0x3d162264	0.03665389
218	0x3de12142	0.109926715
219	0x3c4bd8d3	0.012441832
220	0xbcadc09f	-0.021210013
221	0x3e9d8885	0.3076822
222	0x3d1f5fc7	0.0389097
223	0x3e29a75e	0.16567752
224	0xbdbf0029	-0.093262024
225	0xbd8136c3	-0.06309273
226	0x3ec39f23	0.3820735
227	0x3d4edcdf	0.050503608
228	0x3e3e8b04	0.18607718
229	0xbe91b497	-0.28458092
230	0xbde225d2	-0.1104237
231	0x3e5c32f5	0.21503814
232	0xbc766cea	-0.015040616
233	0x3df460c0	0.11932516
234	0xbc4b4d16	-0.012408515
235	0x3d6bdf2b	0.057585876
236	0x3e448cde	0.19194362
237	0xbda05a97	-0.07829779
238	0x3d297bed	0.04137795
239	0x3d3c82db	0.04602323
240	0x3d343b5e	0.04400193
241	0x3dfe342b	0.12412294
242	0x3db95590	0.09049523
243	0x3d78dad7	0.060755577
244	0x3d8f8048	0.070068896
245	0x3e0210b8	0.1270169
246	0x3e825096	0.25452107
247	0xbc5b2120	-0.013374597
248	0x3e100424	0.1406408
249	0xbd4b0207	-0.04956248
250	0xbc368e74	-0.011142362
251	0x3d7d75de	0.061879985
252	0xbcf3fb66	-0.029782962
253	0x3e5dec2c	0.21672124
254	0x3ce5df20	0.028060496
255	0x3dc1d388	0.094641745

network_body._body_endoder.seq_layers.0.bias f4 [256]
0	0xbd43e002	-0.047821052
1	0xbe87e3bb	-0.26540932
2	0xbddbd163	-0.10733297
3	0xbe4f0e49	-0.20220293
4	0xbdb05a3e	-0.08610962
5	0xbdd650f8	-0.10464662
6	0x3c899c41	0.01679814
7	0xbec06446	-0.37576503
8	0xbcd40354	-0.025880493
9	0x3e52a903	0.20572285
10	0xbd24e0d5	-0.04025348
11	0xbe51741b	-0.20454447
12	0x3e33523e	0.17511842
13	0xbe3b8fff	-0.18316649
14	0xbbb549d1	-0.0055324812
15	0xbd44aa8f	-0.04801422
16	0x3dd11677	0.10209363
17	0xbe0e9e92	-0.13927677
18	0x3d3d025f	0.04614484
19	0xbc93499f	-0.017979441
20	0xbdd32679	-0.103100725
21	0xbdc6117f	-0.09671306
22	0xbde9bc9d	-0.11412928
23	0xbd7d8c25	-0.06190123
24	0xbc952687	-0.018206848
25	0xbe0be822	-0.1366277
26	0xbc4b6875	-0.012415041
27	0xbdb2564e	-0.087078676
28	0xbd2dc0bb	-0.04242013
29	0xbbf5faf0	-0.0075067207
30	0x3c961d8c	0.018324636
31	0xbeb661b0	-0.35621405
32	0xbe8c97bf	-0.27459523
33	0xbeadf307	-0.33974478
34	0xbd28586c	-0.04109995
35	0xbd3d04e8	-0.046147257
36	0xbec0bab7	-0.37642452
37	0x3d531c98	0.05154094
38	0xbd2a3da3	-0.041562688
39	0xbc91b078	-0.017784342
40	0xbdccae71	-0.099942096
41	0x3df12e53	0.11776414
42	0x3d225545	0.0396321
43	0xbe5ddbea	-0.21665922
44	0xbe76579a	-0.24056855
45	0xbe892b8f	-0.26791045
46	0xbcf18670	-0.02948305
47	0xbd7b03c1	-0.061282877
48	0xbe9c9b97	-0.30587456
49	0xb9c47da0	-0.0003747763
50	0xbdcc889a	-0.09986992
51	0xbe1c6a70	-0.15274978
52	0xbd0e85a1	-0.034795407
53	0x3e08f480	0.1337452
54	0xbea2c608	-0.3179171
55	0x3e1be4fd	0.15224071
56	0xbdd224f2	-0.10260953
57	0xbcb75dc4	-0.022383578
58	0xbbe3bd07	-0.006950024
59	0xbe2eec35	-0.17082293
60	0x3d34287b	0.043983918
61	0xbe83d950	-0.25751734
62	0xbe4ef76e	-0.20211574
63	0xbe39c28e	-0.18140623
64	0xbe0d0e02	-0.13774875
65	0x3e052e3f	0.13005923
66	0xbe24fc8d	-0.16111965
67	0xbe2a03c8	-0.16603005
68	0xbe6b42ea	-0.22974744
69	0xbd0e5c27	-0.034755852
70	0xbe3d4fa9	-0.18487419
71	0xbe248c87	-0.16069232
72	0xbdef8f0f	-0.11697208
73	0x3db10bd8	0.08644837
74	0x3e21f8fc	0.15817636
75	0xbe21868f	-0.15773986
76	0xbe865408	-0.26235986
77	0xbe14f9af	-0.14548372
78	0xbdb63a14	-0.08897796
79	0xbe97c56c	-0.29642808
80	0xbe0443c5	-0.12916477
81	0xbda186d8	-0.078870475
82	0x3e7cf001	0.24700929
83	0xbcc869a6	-0.02446444
84	0xbdb5d53c	-0.08878562
85	0x3e365734	0.17806703
86	0xbdc0fe85	-0.09423546
87	0x3e7419d8	0.23837984
88	0x3d79a46c	0.06094782
89	0xbebbb01e	-0.36657804
90	0xbe07dabf	-0.13267039
91	0xbdd34aa9	-0.10316975
92	0x3c0e76aa	0.008695284
93	0xbda714c4	-0.081582576
94	0xbe47c135	-0.19507296
95	0xbd105c1d	-0.035244096
96	0xbd38edc2	-0.04514862
97	0xbdcbdfe3	-0.099548124
98	0xbd8f334d	-0.06992207
99	0xbe7c03bc	-0.246108
100	0xbd847e98	-0.06469458
101	0xbdd3c39a	-0.103400424
102	0xbe16cc2f	-0.14726327
103	0xbd522bf2	-0.05131144
104	0x3e50c441	0.20387365
105	0xbe94b062	-0.2904082
106	0xbdda3ee4	-0.10656527
107	0xbe95856e	-0.2920336
108	0x3e37563f	0.17903994
109	0xbe5041f9	-0.20337667
110	0xbd96fc17	-0.07372301
111	0x3c8adedf	0.016951976
112	0xbe93527f	-0.28773877
113	0xbd2a6bdb	-0.041606765
114	0x3c8edbd1	0.017438801
115	0x3cc8938b	0.024484416
116	0xbda98ba1	-0.08278585
117	0x3c9b1c96	0.01893453
118	0x3cbc3e6b	0.022978982
119	0xbe9dfadc	-0.30855453
120	0xbe6cf580	-0.23140526
121	0xbc444545	-0.011979406
122	0xbe7991cc	-0.24372023
123	0xbe167871	-0.14694382
124	0xbd83e9ba	-0.06441064
125	0xbe4bb707	-0.19894038
126	0xbd15d56b	-0.036580484
127	0xbe5c1923	-0.21493964
128	0x3d6ac99f	0.057321187
129	0xbe17e9ec	-0.14835328
130	0x3ddf6920	0.10908723
131	0xba020afc	-0.0004960743
132	0xbd4f73bd	-0.050647486
133	0xbe1856ae	-0.14876816
134	0x3d26f0fc	0.040757164
135	0xbdc10918	-0.094255626
136	0xbda510ca	-0.08059843
137	0x3cab8be2	0.020940725
138	0xbdf4425f	-0.11926722
139	0xbe2fa3e6	-0.17152366
140	0x3e49b718	0.19698751
141	0xbdc8ce1e	-0.09804939
142	0x3da9e7bc	0.08296153
143	0xbe3e5d6c	-0.18590325
144	0x3c1bce4a	0.009509632
145	0xbdd7bb70	-0.10533798
146	0x3e0317bb	0.12802021
147	0xbea49c6d	-0.32150593
148	0xbd18b609	-0.037282977
149	0xbe5b5184	-0.21417814
150	0x3d35099a	0.04419861
151	0x3d03f9cf	0.032220658
152	0x3b3b4a5c	0.0028578257
153	0xbe74e600	-0.23915863
154	0x3e8ea9cc	0.2786392
155	0x3d871b61	0.06597019
156	0xbe41abf3	-0.1891325
157	0xbd82c77a	-0.063857034
158	0x3bb9aaaf	0.005666099
159	0xbd9a0fba	-0.07522531
160	0xbc00bf68	-0.007858135
161	0xbcac51e9	-0.021035152
162	0xbe4c502e	-0.19952461
163	0x3e3d0956	0.18460593
164	0xbe86c5fb	-0.26322922
165	0xbe031193	-0.12799673
166	0xbe6cccc6	-0.2312499
167	0x3d04ad93	0.032392096
168	0x3dbf145e	0.093300566
169	0xbe1dcec8	-0.15410912
170	0xbd0a6531	-0.03378791
171	0x3e3bf6ed	0.18355913
172	0x3d9289f2	0.07155217
173	0xbe2ba07f	-0.16760443
174	0xbea6663b	-0.3249987
175	0x3e0aa326	0.13538799
176	0xbe41de58	-0.18932474
177	0xbe43aa24	-0.19107872
178	0xbea4f3c8	-0.3221724
179	0xbdaa1015	-0.08303849
180	0xbd18a6e2	-0.037268527
181	0xbcd9fa84	-0.026608713
182	0x3cad4b81	0.021154167
183	0x3d6dffc1	0.058105234
184	0x3bc0f964	0.0058891047
185	0x3df03758	0.11729306
186	0xbe1694dc	-0.14705223
187	0x3dcedc33	0.101005934
188	0xbddff563	-0.10935476
189	0xbd942f78	-0.072356164
190	0xbd08766b	-0.033316057
191	0xbe7b5c84	-0.2454701
192	0x3da215d7	0.07914322
193	0x3ccfdf28	0.025374964
194	0xbe9bdfc9	-0.30444172
195	0xbe36fefb	-0.17870705
196	0xbd32c1f9	-0.043642018
197	0xbd20e44f	-0.039280232
198	0x3e7593bb	0.23982136
199	0x3de25832	0.11051978
200	0x3db27232	0.08713187
201	0xbd6eb1c0	-0.058274984
202	0xbe3e18f4	-0.18564206
203	0xbd788658	-0.060674995
204	0xbce1ede4	-0.027579255
205	0xbd65d056	-0.056106888
206	0xbe9ca52c	-0.30594766
207	0xbd1bcf9f	-0.0380398
208	0xbe266551	-0.16249587
209	0xbe6082cc	-0.21924895
210	0xbe07ac36	-0.13249287
211	0x3e30d817	0.17269932
212	0xbe1e2487	-0.15443622
213	0x3e550966	0.20804366
214	0xbd908e06	-0.07058339
215	0xbe02c6a8	-0.12771094
216	0xbea70afa	-0.32625562
217	0xbeb2f15e	-0.34949774
218	0xbda22c0a	-0.07918556
219	0xbe906e9c	-0.28209388
220	0xbdab22bd	-0.08356235
221	0x3e22ac1b	0.15885966
222	0xbe74db07	-0.23911677
223	0xbd82e57c	-0.06391427
224	0x3e09a6f0	0.13442588
225	0x3d871ec0	0.06597662
226	0x3d20b661	0.03923643
227	0x3dec507c	0.11538789
228	0xbe061b28	-0.13096297
229	0xbea09d4a	-0.31370002
230	0xbe331d7a	-0.17491713
231	0xbe526f81	-0.20550348
232	0xbe09d0d8	-0.13458574
233	0xbd183ec3	-0.03716923
234	0x3d69d0d6	0.057083927
235	0xbe9ca886	-0.30597323
236	0xbd83869b	-0.06422158
237	0xbd94eebb	-0.07272097
238	0xbdfbaa28	-0.12288314
239	0xbebf5c69	-0.3737519
240	0x3d7d33b9	0.061816905
241	0xbe9d9a81	-0.3078194
242	0xbe9c0426	-0.30471915
243	0x3d5cee4e	0.053938203
244	0xbe946717	-0.289849
245	0x3d3ab4b2	0.04558248
246	0x3c9396eb	0.0180163
247	0xbdddda88	-0.10832697
248	0xbe3a3083	-0.18182568
249	0xbe090d13	-0.13383894
250	0xbe13f391	-0.14448382
251	0xbe2e0538	-0.16994178
252	0xbe39c085	-0.18139847
253	0x3e105520	0.14094973
254	0x3cda6027	0.026657177
255	0xbd95cae1	-0.07314087

network_body._body_endoder.seq_layers.2.weight f4 [256, 256]
0	0x3cf71425	0.030160973
1	0xbd1b5339	-0.037921164
2	0xbdcdcbdd	-0.100486495
3	0x3dbc7714	0.092024
4	0x3cc05172	0.023476336
5	0xbde32fd3	-0.11093106
6	0xbe85b1d1	-0.26112226
7	0x3d3f1290	0.046648562
8	0xbd3e9154	-0.046525314
9	0xbdf7e07a	-0.121033624
10	0xbcbb185a	-0.02283876
11	0xbb437c5f	-0.002982877
12	0xbd3a17c0	-0.045432806
13	0xbdadca8a	-0.08485897
14	0x3b7187a9	0.0036854541
15	0x3c22671c	0.0099122785
16	0x3cd29e79	0.025710331
17	0xbddc08af	-0.10743844
18	0xbda584f9	-0.08082003
19	0xbd5e0c6c	-0.054211065
20	0xbd8334c6	-0.0640655
21	0xbe703537	-0.234578
22	0x3bac3646	0.0052554933
23	0xbe0134fe	-0.12617871
24	0x3dcd877b	0.100356065
25	0xbc8d004f	-0.017212061
26	0x3d91f056	0.071259186
27	0xbe481c78	-0.1954211
28	0xbd4a8428	-0.04944244
29	0xbe50be14	-0.20385009
30	0xbd3cfd00	-0.046139717
31	0xbc65f3c6	-0.014035171
32	0xbe0881b8	-0.13330734
33	0x3e030eaf	0.1279857
34	0xbec030ba	-0.37537175
35	0xbdc94688	-0.09827906
36	0x3d8c704d	0.06857357
37	0xbe316215	-0.17322572
38	0xbe2d4e62	-0.16924432
39	0xbe939c29	-0.28830078
40	0x3dee594c	0.11638126
41	0xbeb4e355	-0.3532969
42	0xbe0e5c76	-0.13902459
43	0xbd1d8afe	-0.03846263
44	0xbe45f6ce	-0.1933243
45	0xbc8a705b	-0.016899278
46	0xbe119467	-0.14216767
47	0xbe038a7c	-0.12845796
48	0xbe71144f	-0.23542903
49	0x3caa1a68	0.020764545
50	0x3c448eda	0.011996949
51	0x3b282fe9	0.0025663322
52	0xbd638e76	-0.055555783
53	0x3c047c94	0.008086342
54	0xbe0e61e3	-0.13904528
55	0xbe476274	-0.1947115
56	0xbda6082c	-0.081070274
57	0xbe2d3257	-0.16913734
58	0xbd43aaf0	-0.04777044
59	0xbd5fe94b	-0.054665845
60	0xbe8c64f5	-0.27420774
61	0xbd95db61	-0.07317234
62	0xbdced25a	-0.10098715
63	0xbdd56893	-0.104203366
64	0x3dcdf0da	0.100557044
65	0xbe2a2652	-0.1661618
66	0xbded9ba0	-0.11601949
67	0xbe5407c1	-0.20706083
68	0xbc055221	-0.008137257
69	0xbe5b4d5f	-0.21416233
70	0xbe22068f	-0.15822814
71	0x3b2ee1dd	0.0026684918
72	0xbe00b86a	-0.12570348
73	0x3e1584d0	0.14601445
74	0xbe8a2fa3	-0.2698947
75	0xbd045792	-0.032310076
76	0xbdf61ea5	-0.12017564
77	0xbe0ef3ac	-0.13960141
78	0x3c86cb7a	0.016454447
79	0x3da369e6	0.07979183
80	0xbe6d688f	-0.23184417
81	0xbe985411	-0.29751638
82	0xbe0e4eba	-0.1389722
83	0x3be1e39d	0.0068935887
84	0xbe27fa6c	-0.16404122
85	0xbe6ca0ce	-0.23108217
86	0xbe49fc96	-0.1972526
87	0xbe5185ff	-0.20461272
88	0xbde315e1	-0.110881574
89	0x3cbbadad	0.022909964
90	0xbe3ebc36	-0.18626484
91	0xbc3f74ef	-0.011685594
92	0x3dc50bec	0.096214145
93	0xbdba7e76	-0.09106152
94	0xbddcd1d0	-0.10782206
95	0xbe4aa02d	-0.19787665
96	0xbd2b3c5b	-0.041805606
97	0xbe8de415	-0.27713075
98	0xbd61cca2	-0.055126794
99	0xbc5f7cd2	-0.013640599
100	0xbdf166d6	-0.117871925
101	0xbe04b877	-0.12960993
102	0x3d2ad67b	0.04170845
103	0xbe70e91c	-0.23526424
104	0xbd45d40f	-0.048297938
105	0xbd91eb6d	-0.07124982
106	0xbc062f2f	-0.00818996
107	0xbc765dac	-0.015036982
108	0x3c57d6af	0.013173743
109	0xbe081cd9	-0.13292255
110	0xbe3be415	-0.18348725
111	0xbe5c70d5	-0.21527417
112	0x3cb4b50f	0.022058992
113	0x3be05a6e	0.0068467176
114	0x3c15c0d3	0.009140211
115	0xbe0abc56	-0.13548407
116	0xbdeed014	-0.116607815
117	0xbddb2ba7	-0.107016854
118	0xbe91ebff	-0.28500363
119	0x3d7a2b05	0.061076183
120	0xbdcaf3a1	-0.0990975
121	0xbe23f654	-0.16011935
122	0xbe1ff374	-0.15620214
123	0xbe0b6e65	-0.13616331
124	0x3d236a16	0.039896093
125	0xbbd6a870	-0.006550841
126	0xbe1720ea	-0.1475865
127	0x3d7b29ae	0.061319046
128	0xbe04ba74	-0.12961751
129	0xbd45de58	-0.048307747
130	0xbd624d37	-0.05524942
131	0xbd260652	-0.04053337
132	0xbe1752a0	-0.14777613
133	0xbcf61d22	-0.030043188
134	0xbc91ccf4	-0.017797925
135	0xbdbf30bd	-0.09335468
136	0xbe997901	-0.2997513
137	0x3cc2f067	0.023796273
138	0xbd8072cd	-0.062718965
139	0x3d23eaa4	0.040018693
140	0xbe58803e	-0.2114267
141	0x3d7a495e	0.061105125
142	0xbe18020c	-0.14844531
143	0xbe2812df	-0.16413449
144	0xbdacb377	-0.08432668
145	0x3de87a0c	0.113514036
146	0xbdf43761	-0.11924625
147	0x3cbe4c07	0.023229612
148	0xbe050d45	-0.12993343
149	0xbe1f67c7	-0.15566932
150	0xbd459a93	-0.048243117
151	0xbe2721c4	-0.16321474
152	0xbdb22452	-0.08698334
153	0xbddfc273	-0.1092576
154	0xbe92ed6a	-0.28696758
155	0xbd19a265	-0.037508387
156	0xbe26826e	-0.16260692
157	0xbe1808c3	-0.14847092
158	0xbe5f11d5	-0.21784146
159	0x3cb04ef8	0.02152203
160	0x3de93064	0.11386183
161	0xbdb6b99c	-0.08922121
162	0xbdd8ad4b	-0.10579928
163	0xbe1dc4ff	-0.1540718
164	0xbd29d3cb	-0.041461747
165	0x3cd8cbd5	0.026464382
166	0xbd83c77b	-0.06434532
167	0xbdbc41c1	-0.09192229
168	0xbc3fc7bd	-0.011705336
169	0xbe53b7e5	-0.20675619
170	0x3e16eae6	0.14738044
171	0xbe5063a8	-0.20350516
172	0x3d7e725b	0.062120777
173	0xbd4b8c33	-0.04969425
174	0x3dedcadf	0.1161096
175	0xbd8cd1ad	-0.0687593
176	0xbda4d80c	-0.0804902
177	0xbd9c25c7	-0.07624393
178	0xbdd25aaf	-0.10271203
179	0xbd8126ac	-0.06306204
180	0xbc31e829	-0.010858574
181	0xbe1dfc90	-0.15428376
182	0xbde2df52	-0.11077751
183	0xbe04704d	-0.12933464
184	0xbe8bd15e	-0.27308172
185	0xbe43e1dd	-0.19129129
186	0x3d90f725	0.07078389
187	0xbde3c3c8	-0.11121327
188	0xbd2bd28e	-0.041948847
189	0xbe897eff	-0.26854703
190	0xbe307050	-0.17230344
191	0xbe11d818	-0.1424259
192	0xbd4557fa	-0.048179604
193	0xbe0824ca	-0.13295284
194	0x3e015b9c	0.12632602
195	0xbc15f82b	-0.009153406
196	0x3d7a93f5	0.06117626
197	0x3db7129a	0.08939095
198	0xbea4dabb	-0.32198128
199	0x3d3e046c	0.046390936
200	0xbe12e490	-0.14345002
201	0xbe75dfdc	-0.24011177
202	0xbe6c59c3	-0.23081116
203	0x3d8640c9	0.065553255
204	0xbe5728f6	-0.21011719
205	0xbdb8000c	-0.08984384
206	0xbc1f5cfe	-0.009726761
207	0xbdaa1103	-0.08304026
208	0xbe4a98be	-0.19784829
209	0xbdb01f36	-0.08599703
210	0xbdf33925	-0.11876134
211	0xbe790e2f	-0.24321817
212	0x3d1cd803	0.038291942
213	0xbd3d2f88	-0.046187907
214	0xbdc4ad67	-0.09603386
215	0xbe048a68	-0.12943423
216	0xbc248e0a	-0.01004363
217	0x3e17ff11	0.14843394
218	0xbd96aac1	-0.073567875
219	0x3bc38310	0.0059665516
220	0xbc5be81a	-0.013422037
221	0xbd89a14b	-0.06720217
222	0xbda0069c	-0.07813761
223	0xbe009050	-0.12555051
224	0xbd90b274	-0.07065287
225	0xbdd94a3b	-0.106098615
226	0xbe1490a3	-0.145083
227	0xbdda381e	-0.10655235
228	0xbe2c534d	-0.16828652
229	0xbd8e33a0	-0.069434404
230	0xbd0fc2fb	-0.035098057
231	0xbd0ee959	-0.034890506
232	0xbbbb369c	-0.005713297
233	0x3c4c66af	0.012475654
234	0xbe6593fd	-0.22419734
235	0xbdc6ed6b	-0.09713253
236	0xbd004f17	-0.031325426
237	0xbe2f123d	-0.17096801
238	0xbe00a83a	-0.12564173
239	0x3ce4e840	0.027942777
240	0xbe0267a6	-0.12734851
241	0x3da11236	0.078648016
242	0xbcd1ccfc	-0.02561044
243	0xbca068cb	-0.01958122
244	0x3e08280b	0.13296525
245	0x3cac0c95	0.021002093
246	0xbdb5f5b8	-0.08884758
247	0xb966d240	-0.00022012834
248	0x3cc71175	0.024300316
249	0xbe023f49	-0.12719454
250	0x3c5d6c29	0.013514557
251	0x3b5c4de5	0.0033615765
252	0x3c58bc4b	0.013228486
253	0xbee9ade0	-0.4564047
254	0xbe15565b	-0.14583723
255	0xbda9187b	-0.082566224

network_body._body_endoder.seq_layers.2.bias f4 [256]
0	0xbe3dcf14	-0.18536025
1	0xbe24348c	-0.1603567
2	0xbeade4fc	-0.33963764
3	0xbe277a4f	-0.16355251
4	0xbe94c765	-0.29058376
5	0xbe93712d	-0.28797284
6	0xbda70b10	-0.08156407
7	0xbe47b7c5	-0.19503696
8	0xbe3a9970	-0.18222594
9	0xbe559c2e	-0.20860359
10	0xbbc7c626	-0.006096619
11	0xbea67493	-0.32510814
12	0xbe043f2f	-0.12914728
13	0xbea74676	-0.32670945
14	0xbe0fdcda	-0.14049092
15	0xbe5df031	-0.21673657
16	0xbea93bea	-0.33053523
17	0xbe210460	-0.15724325
18	0xbe41f14d	-0.18939705
19	0xbe0e3023	-0.1388555
20	0xbe1316f2	-0.14364222
21	0xbddb03ff	-0.106941216
22	0xbe0d0b3a	-0.13773814
23	0xbe244460	-0.16041708
24	0xbdfee756	-0.124464676
25	0xbdc6e56d	-0.09711728
26	0xbe57cf1c	-0.210751
27	0xbe2a9ed1	-0.16662146
28	0xbe3a0297	-0.1816505
29	0xbe0af9a8	-0.13571799
30	0xbe8b755a	-0.2723797
31	0xbdb963e1	-0.090522535
32	0xbeaa05cf	-0.33207557
33	0xbe14d11f	-0.14532898
34	0xbe872bdc	-0.2640065
35	0xbe5630be	-0.20917031
36	0xbdbf5c1f	-0.093437426
37	0xbe4a21e0	-0.19739485
38	0xbe617a5b	-0.22019331
39	0xbe6632eb	-0.22480361
40	0xbe12cb28	-0.1433531
41	0xbe0740d1	-0.13208319
42	0xbe74a56d	-0.2389123
43	0xbda1d057	-0.07901066
44	0xbe3d958e	-0.18514082
45	0x3cccaa21	0.024983468
46	0xbe3eeef1	-0.18645836
47	0xbe5dfee4	-0.21679264
48	0xbe5068f2	-0.20352533
49	0xbe013563	-0.12618022
50	0xbe4c96d3	-0.1997941
51	0xbe722092	-0.23645237
52	0xbe15efff	-0.14642332
53	0xbe7b17b7	-0.24520765
54	0xbdadfbcd	-0.08495293
55	0xbe7af15a	-0.24506131
56	0xbe3e1301	-0.18561937
57	0xbe01e3d3	-0.12684564
58	0xbe2e0a67	-0.16996156
59	0xbe4a3633	-0.19747238
60	0xbe950bf0	-0.2911067
61	0xbe133f51	-0.14379622
62	0xbde7295d	-0.11287186
63	0xbe659154	-0.2241872
64	0xbd411264	-0.04713668
65	0xbe3cfc4c	-0.18455619
66	0xbde970aa	-0.11398442
67	0xbe4c72b7	-0.19965635
68	0xbd5f49b9	-0.054513667
69	0xbea0721f	-0.31337067
70	0xbdb951f6	-0.09048836
71	0xbd55eb3b	-0.052226286
72	0xbe880719	-0.26567915
73	0xbdeb72a7	-0.114964776
74	0xbe0c35d4	-0.13692409
75	0xbe865dc8	-0.26243424
76	0xbdd68158	-0.10473889
77	0xbe4db905	-0.2009011
78	0xbe31d6ea	-0.1736714
79	0xbd873c5c	-0.066033095
80	0xbe3534fd	-0.17695995
81	0xbebabe03	-0.36473092
82	0xbe5a39b8	-0.2131108
83	0xbd8b3366	-0.06796913
84	0xbe98a8d2	-0.298163
85	0xbe5e846a	-0.217302
86	0xbe30b589	-0.1725675
87	0xbe8a0a8a	-0.26961166
88	0xbe07efdd	-0.13275094
89	0xbe6fb45f	-0.2340865
90	0xbe08406c	-0.13305825
91	0xbe394517	-0.18092762
92	0xbe0c21ad	-0.13684721
93	0xbe4ecb72	-0.20194796
94	0xbe0df1d6	-0.13861784
95	0xbe067559	-0.13130702
96	0xbe4d8ff3	-0.20074444
97	0xbe097acd	-0.13425751
98	0xbe39654f	-0.18105052
99	0xbe323433	-0.17402725
100	0xbe24863a	-0.16066828
101	0xbe1dba9e	-0.1540322
102	0xbe4e65db	-0.20156042
103	0xbe62ff0b	-0.22167604
104	0xbe64ee42	-0.22356513
105	0xbe8ee99f	-0.27912614
106	0xbea7c9eb	-0.3277124
107	0xbe0251c5	-0.12726505
108	0xbe881192	-0.26575905
109	0xbe46c313	-0.19410352
110	0xbe152465	-0.14564665
111	0xbe20578a	-0.15658394
112	0xbd2322d2	-0.03982813
113	0xbe3de6cb	-0.18545072
114	0xbe8878c2	-0.2665463
115	0xbcca2480	-0.024675608
116	0xbe81f0f1	-0.25379136
117	0xbe32e779	-0.17471112
118	0xbd14dbe6	-0.036342524
119	0xbe3fefaa	-0.18743768
120	0xbdee7047	-0.11642509
121	0xbd8926dd	-0.06696866
122	0xbe7c5f12	-0.24645641
123	0xbe56ee91	-0.20989443
124	0xbdb555bb	-0.088542424
125	0xbe4b0a46	-0.19828138
126	0xbe0ff9d2	-0.14060143
127	0xbe3a5dea	-0.18199888
128	0xbe989e4f	-0.2980828
129	0xbdc432cf	-0.095800035
130	0xbe1b7f15	-0.15185197
131	0xbe884ed9	-0.26622656
132	0xbda48028	-0.08032256
133	0xbe2866c9	-0.1644546
134	0xbe1c7b02	-0.15281299
135	0xbe9510d8	-0.29114413
136	0xbdd0fd02	-0.102045074
137	0xbe3877d2	-0.18014458
138	0xbdd39058	-0.10330266
139	0xbe52e134	-0.2059372
140	0xbe6a5df5	-0.22887404
141	0xbe4a6bd3	-0.19767694
142	0xbe67f881	-0.2265339
143	0xbe916357	-0.28396103
144	0xbdda529d	-0.106602885
145	0xbe6ac87d	-0.22928043
146	0xbe2df0c2	-0.16986373
147	0xbe9b6747	-0.30352232
148	0xbe85b041	-0.26111034
149	0xbe0027ab	-0.12515132
150	0xbebcd962	-0.368846
151	0xbdc7c95b	-0.097552024
152	0xbe7a841e	-0.24464461
153	0xbda2cd4a	-0.07949312
154	0xbdf1c79d	-0.11805651
155	0xbdba6e88	-0.091031134
156	0xbccfcc46	-0.02536596
157	0xbd2d0900	-0.04224491
158	0xbe74db53	-0.2391179
159	0xbdcae17c	-0.09906289
160	0xbe1c31e9	-0.15253414
161	0xbebabdc1	-0.36472896
162	0xbe487eef	-0.19579671
163	0xbe824d0d	-0.2544941
164	0xbe159dfd	-0.14611049
165	0xbeba824c	-0.36427534
166	0xbe1d3c7f	-0.15355109
167	0xbd84de6f	-0.06487738
168	0xbdd93542	-0.10605861
169	0x3d1bbb74	0.038020566
170	0xbd541dbe	-0.051786177
171	0xbdcdb4e5	-0.100442685
172	0xbe463eaf	-0.1935985
173	0xbdea6ebf	-0.114469044
174	0xbddb2c90	-0.10701859
175	0xbe9489ec	-0.29011476
176	0xbe84e5c7	-0.25956556
177	0xbe204e65	-0.15654905
178	0x3b8f2cf3	0.004369372
179	0xbe904b17	-0.2818229
180	0xbe9c4e63	-0.30528554
181	0xbeab7f5b	-0.33495602
182	0xbe706fc2	-0.23480132
183	0xbe5dc282	-0.2165623
184	0xbe6dd5aa	-0.23226038
185	0xbe3b6b8e	-0.18302748
186	0xbda23579	-0.07920355
187	0xbda429ee	-0.0801581
188	0xbe13f11c	-0.14447445
189	0xbdacfc32	-0.0844654
190	0xbe12191c	-0.14267391
191	0xbe3a2b7c	-0.1818065
192	0xbe05a1fb	-0.13050072
193	0xbe6fe768	-0.23428118
194	0xbe3379e9	-0.17526974
195	0xbe3c53cb	-0.1839134
196	0xbea69cc3	-0.32541475
197	0xbe6e77d9	-0.23287906
198	0xbdac0332	-0.08399047
199	0xbda6e00c	-0.08148202
200	0xbdef9b78	-0.11699575
201	0xbe887e3c	-0.2665881
202	0xbe77c9b2	-0.24198034
203	0xbe3d811e	-0.18506286
204	0x3cb3a833	0.02193079
205	0xbe225f74	-0.15856725
206	0xbe9660f1	-0.29370835
207	0xbde7b81d	-0.11314414
208	0xbe6d307e	-0.2316303
209	0xbe0263db	-0.12733404
210	0xbdf9eea9	-0.12203724
211	0xbe50bd00	-0.20384598
212	0xbe888e2c	-0.2667097
213	0xbe86be1c	-0.26316917
214	0xbdfba925	-0.12288121
215	0xbe60d712	-0.21957043
216	0xbe3cc034	-0.18432695
217	0xbd0e5ee6	-0.03475847
218	0xbdf27e52	-0.118405
219	0xbe22adbf	-0.15886591
220	0xbe610492	-0.219744
221	0xbe0febe3	-0.14054827
222	0xbe8b9e0a	-0.27269012
223	0xbea18ec9	-0.3155425
224	0xbe3bcc72	-0.18339708
225	0xbe455bbc	-0.19273275
226	0xbd90336c	-0.07041058
227	0xbe4a4850	-0.19754148
228	0xbe815d5c	-0.2526654
229	0xbddb91a9	-0.10721142
230	0xbe41564e	-0.18880579
231	0xbda64eca	-0.081204966
232	0xbe8ec8fc	-0.27887714
233	0xbe8c3706	-0.2738573
234	0xbe6fe01d	-0.23425336
235	0xbe5df42b	-0.21675174
236	0xbe897de8	-0.2685387
237	0xbe2f76b9	-0.17135133
238	0xbe0b2f67	-0.13592301
239	0xbe9d5d57	-0.30735275
240	0x3a296c6d	0.0006462995
241	0xbe91db9a	-0.28487855
242	0xbe870eaf	-0.2637839
243	0xbe400f10	-0.18755746
244	0xbe81a607	-0.2532198
245	0xbe0bc6ab	-0.13650005
246	0xbe04c635	-0.12966235
247	0xbe5fb166	-0.21845016
248	0xbddcf43e	-0.10788773
249	0xbe594722	-0.21218541
250	0xbe68fe84	-0.2275334
251	0xbe312219	-0.17298163
252	0xbe3095b1	-0.17244603
253	0xbe5aaa22	-0.21353963
254	0xbe853a6f	-0.26021144
255	0xbe737a19	-0.23777045

action_model._discrete_distribution.branches.0.weight f4 [4, 256]
0	0xbd3b2743	-0.04569174
1	0xbcd8ff4d	-0.026488924
2	0x3bbb4d02	0.005715967
3	0x3d4bb071	0.049728815
4	0x3cc494ea	0.023996789
5	0x3d6604f2	0.05615706
6	0x3d4f7659	0.050649974
7	0xbdf8c9d4	-0.12147871
8	0x3d8ae7b5	0.06782476
9	0xbda0f325	-0.07858876
10	0xbdcf2987	-0.101153426
11	0x3d1081cf	0.035280045
12	0x3ddc4176	0.10754673
13	0x3a376d6e	0.0006997202
14	0x3e036aed	0.12833758
15	0xbd6f2df9	-0.058393452
16	0x3c6f2bbc	0.014597829
17	0x3d4cb017	0.04997262
18	0x3db3b130	0.0877403
19	0x3d0d685e	0.03452336
20	0x3d730d1c	0.059338674
21	0x3d2635d8	0.040578693
22	0x3c091994	0.008367915
23	0xbd7a15a5	-0.061055798
24	0xbd1ab05c	-0.037765846
25	0x3d8d1f63	0.06890752
26	0x3d9fd94c	0.07805118
27	0xbc6b9061	-0.014377684
28	0xbd5e8339	-0.054324362
29	0xbc4ce0ef	-0.0125048
30	0x3bad53c4	0.0052895267
31	0x3dbd3987	0.09239488
32	0x3daeb33e	0.085302815
33	0x3d2bb29d	0.041918386
34	0xbd637d0f	-0.055539187
35	0x3bee594a	0.0072738277
36	0xbd3e3db4	-0.046445563
37	0xbc5ea066	-0.013588047
38	0xbc36ee9c	-0.011165287
39	0x3d6c0daa	0.05763022
40	0x3c8a358e	0.01687124
41	0xbd2005a5	-0.039067883
42	0xbc82737e	-0.015924212
43	0x3ca9ba14	0.020718612
44	0x3da319d1	0.079639085
45	0x3d64258a	0.055699863
46	0xbc70c2f6	-0.01469492
47	0x3d88f9dc	0.06688282
48	0x3e2288ef	0.15872549
49	0xbd808ae9	-0.06276495
50	0x3c16d2f1	0.009205566
51	0xbd9279fe	-0.071521744
52	0xbe7505d0	-0.23927999
53	0x3c38d124	0.011280332
54	0x3c0bd87d	0.008535502
55	0xbb8f19ab	-0.0043670735
56	0x3c78d6f1	0.015187965
57	0xbd39a081	-0.045319084
58	0x3d9d1fcb	0.0767208
59	0x3d702a86	0.058634304
60	0x3d29230f	0.0412932
61	0xbd75dab0	-0.06002301
62	0x3e2b7271	0.16742875
63	0x3d1e54ec	0.038655207
64	0x3d20b158	0.03923163
65	0x3d0e80cf	0.03479081
66	0xbcb2ed16	-0.021841567
67	0x3d3d54e3	0.046223532
68	0x3e3861c3	0.18006043
69	0x3b1a7d6a	0.0023573288
70	0x3da34749	0.07972581
71	0x3d1a7760	0.0377115
72	0x3d8cb105	0.06869701
73	0x3db52bfa	0.088462785
74	0xbcb053f8	-0.021524414
75	0xbc6c2bc2	-0.01441473
76	0x3dc5ddce	0.096614465
77	0x3cbb0140	0.022827744
78	0x3d103ea0	0.035215974
79	0xbdc2dc73	-0.095147036
80	0x3d3722d5	0.044710953
81	0x3c4a2035	0.01233678
82	0x3b61acee	0.003443535
83	0x3e2a51ef	0.16632818
84	0x3ba1ed67	0.0049416306
85	0xbcde82bf	-0.027161954
86	0x3c0a8e1f	0.008456736
87	0xbd289553	-0.04115803
88	0x3cee7ab7	0.02911125
89	0x3d264ab7	0.040598597
90	0x3dbc1835	0.091843046
91	0x3ce2a288	0.027665392
92	0xbd273af8	-0.04082772
93	0x3d93fb90	0.07225716
94	0x3c341ff8	0.01099395
95	0x3d256716	0.040381514
96	0x3dfd4165	0.12365989
97	0x3d9f2c90	0.077721715
98	0xbbbe927f	-0.0058158035
99	0x3d47a712	0.048743315
100	0xbdc76c54	-0.09737459
101	0xbdc5d5c5	-0.09659914
102	0x3d9ddb46	0.07707839
103	0x3d72aa41	0.059244398
104	0x3e00895c	0.12552398
105	0xbc7d27bc	-0.015451368
106	0xba1d95e3	-0.00060114096
107	0xbd82e797	-0.063918285
108	0xbc748c00	-0.014925957
109	0x3ddc93fe	0.10770415
110	0xbce1d8bb	-0.027569165
111	0x3dee1555	0.116251625
112	0xbd0ecb73	-0.034861993
113	0x3ced0f45	0.028937945
114	0x3bebdf91	0.007198282
115	0x3c7744ff	0.015092134
116	0x3db38569	0.0876568
117	0xbda1ae12	-0.078945294
118	0x3c97fc1f	0.018552838
119	0xbc87c74f	-0.01657453
120	0x3d248750	0.040168107
121	0xbd5962d0	-0.05307275
122	0x3dac4dc1	0.08413268
123	0x3d89ce3e	0.06728791
124	0x3c312b1c	0.010813501
125	0x3d0b0855	0.033943493
126	0x3debcccb	0.115136705
127	0xbbed2dc6	-0.0072381226
128	0xbd92bae2	-0.07164551
129	0x3d3b4eee	0.04572957
130	0x3c4298ea	0.011877278
131	0xbe49bd02	-0.19701007
132	0x3bfc9e9b	0.007709337
133	0xbb826c49	-0.0039801938
134	0xbe0b5f40	-0.13610554
135	0x3d41d3fc	0.047321305
136	0x3d74092c	0.05957906
137	0xbb34f71a	-0.0027613104
138	0x3d5dbdad	0.054135967
139	0x3db88557	0.090098076
140	0x3ceb7bbd	0.028745526
141	0x3d549204	0.051897064
142	0x3c54d80a	0.012990961
143	0x3d25fb9b	0.040523153
144	0xbbf2dd50	-0.0074116364
145	0x3d1ff3e9	0.03905097
146	0x3d6bcdd9	0.05756936
147	0x3d35207a	0.044220425
148	0x3bbd4db4	0.005777085
149	0xbdbac99f	-0.091204874
150	0x3dc07ceb	0.09398826
151	0x3c31ac73	0.010844338
152	0x3db1c8c2	0.0868087
153	0x3cae3d3d	0.021269435
154	0x3de180ae	0.11010872
155	0x3d62c34e	0.05536204
156	0x3cd86139	0.026413547
157	0x3e1aa670	0.15102553
158	0xbcf1af29	-0.029502468
159	0x3bac157e	0.0052515855
160	0xbd9e9484	-0.07743171
161	0x3a213023	0.00061488355
162	0x3dc339bd	0.09532497
163	0xbcc29cfd	-0.023756498
164	0x3d2bc9d8	0.04194054
165	0xbcf1bd56	-0.029509228
166	0x3deb2e00	0.11483383
167	0xbd026b8f	-0.031840857
168	0x3b83c22b	0.0040209494
169	0x3d5f3226	0.054491185
170	0x3df3e36c	0.11908612
171	0x3b2da8f0	0.00264984
172	0x3cf274e6	0.029596757
173	0x3d958484	0.07300666
174	0xbba0dd4e	-0.004909194
175	0x3bd5ce0c	0.006524807
176	0xbbfb513b	-0.0076695955
177	0x3dcb2e58	0.09920949
178	0xbd5977b3	-0.05309267
179	0x3d5b856f	0.05359405
180	0x3cdbb557	0.026819868
181	0x3d7cc733	0.06171341
182	0x3ccaa688	0.024737611
183	0x3d884815	0.066543736
184	0x3d78b0f2	0.060715623
185	0xbdb649b9	-0.0890078
186	0xbcabe1a3	-0.020981615
187	0xbd0048a4	-0.031319275
188	0x3cfcb22b	0.030846676
189	0xbd6d3962	-0.057916053
190	0x3d68cccd	0.05683594
191	0x3d0db90d	0.034600306
192	0x3bd540ec	0.0065079834
193	0x3d0e2be8	0.03470984
194	0x3c8dab41	0.017293574
195	0x3cdb034f	0.026734976
196	0x3ca2b28a	0.019860525
197	0xbe117270	-0.1420381
198	0x3d36287b	0.0444722
199	0x3b9efcc6	0.0048519103
200	0xbdddf1eb	-0.10837158
201	0x3d0d557d	0.034505356
202	0x3dd59a2a	0.10429795
203	0x3d613786	0.054984592
204	0x3c8206cb	0.01587238
205	0x3cd77130	0.02629909
206	0x3d64d7f7	0.055870023
207	0x3d77183f	0.060325857
208	0xbdaf6d19	-0.085657306
209	0x3cc069f8	0.02348803
210	0xbd0641f2	-0.032777734
211	0xbd99d351	-0.075110085
212	0x3c58ebec	0.013239842
213	0x3dc15bff	0.09441375
214	0x3c7483a5	0.014923965
215	0xbc46ed54	-0.012141544
216	0x3d86de57	0.06585377
217	0xbd05dfab	-0.03268401
218	0x3c084d76	0.008319249
219	0xbd16a827	-0.036781456
220	0x3cdc562e	0.026896562
221	0x3d762fbd	0.06010412
222	0x3c15697c	0.009119388
223	0x3c870999	0.016484069
224	0x3d30a7e6	0.04312887
225	0x3a548e41	0.00081083557
226	0xbd3beed3	-0.045882057
227	0x3d1a5ab5	0.03768416
228	0x3ce88f3e	0.028388616
229	0x3d9632bc	0.073338956
230	0x3de40e63	0.111355565
231	0x3bee65ec	0.0072753336
232	0x3cb91557	0.022593183
233	0xbd6ed74e	-0.0583108
234	0xbd94c13b	-0.07263418
235	0x3c813fa5	0.015777418
236	0x3cbcc8c3	0.02304495
237	0x3d4957a7	0.049155857
238	0xbd63ba64	-0.055597678
239	0x3d15ced3	0.036574196
240	0xbc0151ff	-0.007893085
241	0xbc133cca	-0.008986661
242	0xbdcb644d	-0.0993124
243	0x3daeef99	0.085417934
244	0x3c7dba12	0.015486257
245	0x3dde17d0	0.108443856
246	0xbb4e03ab	-0.0031435292
247	0xbd5de42b	-0.054172676
248	0xbd975a13	-0.07390227
249	0xbc569d54	-0.013099033
250	0xbd04e58e	-0.032445483
251	0xbc6c1df8	-0.014411442
252	0xbd474e05	-0.04865839
253	0x3cbd80aa	0.02313264
254	0x3dbadc55	0.09124056
255	0x3d64cc8f	0.055859145

action_model._discrete_distribution.branches.0.bias f4 [4]
0	0x3e021ba4	0.12705857
1	0xbdecfa64	-0.11571196
2	0xbe3d20c2	-0.18469527
3	0x3e1e7a50	0.15476346

action_model._discrete_distribution.branches.1.weight f4 [3, 256]
0	0xbd7d7108	-0.061875373
1	0xbba53f55	-0.00504295
2	0xbcc7a82e	-0.024372187
3	0x3c304853	0.010759431
4	0xbcc158cd	-0.023601914
5	0xbcd4ea78	-0.02599071
6	0x3d1530c4	0.03642346
7	0xbdb219f1	-0.08696354
8	0x3cf41492	0.029794965
9	0xbdb093c1	-0.08621932
10	0x3caf7589	0.02141835
11	0xbd933d61	-0.071894415
12	0xbc5bf7e8	-0.013425805
13	0xbac5c3cf	-0.0015088263
14	0x3bd05ee5	0.0063589686
15	0x3cdba4f4	0.026812054
16	0xbca1c158	-0.019745514
17	0x3e449b06	0.19199762
18	0xbc04acf9	-0.0080978805
19	0x3d3b9226	0.045793675
20	0x3d91328e	0.07089721
21	0xbd699804	-0.05702974
22	0xbd36b761	-0.044608478
23	0xbd28e8d5	-0.04123767
24	0x3cbcfc57	0.023069544
25	0x3bccaf3f	0.006246477
26	0x3c6768c3	0.014124098
27	0x3c864eaa	0.016394932
28	0xbbf4e61e	-0.007473721
29	0x3c45ae50	0.012065485
30	0x3da7546c	0.08170399
31	0x3dbc4caa	0.0919431
32	0xbd50ebd7	-0.051006164
33	0x3c939a38	0.018017873
34	0x3db7b09e	0.08969234
35	0x3d548c8b	0.051891845
36	0xbad1b5dc	-0.0015999633
37	0x3d32bc67	0.043636706
38	0x3d24c8ad	0.04023044
39	0x3c74b311	0.014935271
40	0x3c442664	0.011972044
41	0x3b9ab9e8	0.004721869
42	0xbab68d7d	-0.0013927665
43	0x3c624f8d	0.013812912
44	0x3c8fdfd6	0.017562788
45	0x3cebf816	0.02880482
46	0xbc16cab5	-0.009203603
47	0x3cb5cead	0.022193277
48	0x3d10a9f1	0.03531832
49	0x3d601cdc	0.054715022
50	0xbc2bdac1	-0.010489167
51	0x3c8148e6	0.015781831
52	0xbe2ab531	-0.16670682
53	0xbb363ffa	-0.002780913
54	0x3c81dd09	0.015852468
55	0x3d400504	0.046879783
56	0x3d108c02	0.03528977
57	0x3d7619b3	0.060083102
58	0xbc8aa5a5	-0.016924689
59	0xbc38aa23	-0.0112710325
60	0x3d23d39f	0.03999674
61	0x3cf03652	0.029322777
62	0x3d7452ca	0.059649266
63	0x3d9ea9d7	0.07747238
64	0xbafdd7de	-0.0019366702
65	0x3d95d6c4	0.07316354
66	0x3d1e5fae	0.038665466
67	0x3c3a41b9	0.011368209
68	0x3d80aff1	0.06283558
69	0x3c0a6293	0.0084463535
70	0x3c739afb	0.014868493
71	0xbceb8b34	-0.0287529
72	0x3d7b2b26	0.061320446
73	0x3c371f30	0.011176869
74	0xbd41d0e4	-0.047318354
75	0xb966d436	-0.00022013564
76	0x3c9754ee	0.018473115
77	0xbc04347e	-0.008069156
78	0x3ce8aa69	0.02840157
79	0xbb0f96a4	-0.0021909857
80	0x3d1f7789	0.038932357
81	0x3bf99976	0.007617171
82	0x3d90917b	0.07058998
83	0x3dc157f5	0.094406046
84	0x3ce01e99	0.02735834
85	0x3aea59b4	0.0017879517
86	0x3ce1ffeb	0.027587852
87	0x3a9bfe7d	0.0011901405
88	0x3da5b434	0.08091012
89	0x3d8066da	0.062696174
90	0x3d819542	0.06327297
91	0x3d9d7327	0.07687979
92	0xbc158f34	-0.009128381
93	0x3cd75fa3	0.02629072
94	0x3caf6ad2	0.02141324
95	0x3d1e49e5	0.03864469
96	0xbc8cda23	-0.01719386
97	0x3d178732	0.036994167
98	0x3dc1ca7e	0.094624504
99	0x3d3b398d	0.04570918
100	0xbdbfebc4	-0.093711406
101	0xbd609aed	-0.05483525
102	0x3d017afe	0.031611435
103	0xbc86526d	-0.016396726
104	0x3cb9594f	0.022625593
105	0x3d0a0af5	0.033701856
106	0x3c84f0ab	0.01622804
107	0x3d1eec93	0.038799834
108	0x3d1d5953	0.038415264
109	0xbcc8814b	-0.024475714
110	0x3d378399	0.044803236
111	0x3d44d54c	0.04805498
112	0x3ca729f2	0.020405743
113	0x3cb58155	0.022156397
114	0xbd209d52	-0.039212532
115	0xbd452508	-0.04813102
116	0x3c91e87d	0.017811054
117	0x3d91a5e6	0.07111721
118	0x3d5b1de7	0.053495314
119	0x3d1f4115	0.038880426
120	0x3d4816d6	0.048849903
121	0x3ccfdd69	0.025374131
122	0x3db844e2	0.08997513
123	0xbd900c9b	-0.07033654
124	0x3d6ce871	0.05783886
125	0x3cc0b1c5	0.023522267
126	0x3d4c9ad9	0.04995236
127	0x3cfa0f59	0.030524896
128	0x3b82e15a	0.003994149
129	0x3d8c42b3	0.06848659
130	0x3d046f5a	0.032332756
131	0xbd5c18e8	-0.05373469
132	0xbd3376fe	-0.04381465
133	0x3dcc082b	0.099624954
134	0x3be961fb	0.007122276
135	0x3cb14c5e	0.02164286
136	0x3d9cca35	0.076557554
137	0xbbb4e3f4	-0.005520338
138	0x3d0d62bc	0.03451799
139	0x3bfda400	0.0077404976
140	0x3d4969c2	0.049173124
141	0x3d60ea97	0.054911222
142	0x3d8cef83	0.06881621
143	0x3c62c0ed	0.013839942
144	0xbd3029a4	-0.04300846
145	0xbceb25ba	-0.028704513
146	0x3d2484a2	0.04016555
147	0xbcff1237	-0.031136615
148	0x3b105b4f	0.002202708
149	0xbd8aa316	-0.067693874
150	0xbd742f4c	-0.05961542
151	0x3c8a0824	0.016849585
152	0x3d843143	0.064547084
153	0xbcc8037e	-0.024415728
154	0x3d47ee99	0.04881153
155	0x3d6b037b	0.057376366
156	0x3cf15e53	0.029463923
157	0x3c987925	0.018612454
158	0x3d9b711c	0.07589933
159	0x3d4e9c9c	0.050442323
160	0x3d16f752	0.036856957
161	0x3c833f5f	0.016021429
162	0x3b3be223	0.0028668724
163	0x3cf84d36	0.030310255
164	0xbcdb89cc	-0.026799105
165	0xbc159452	-0.009129601
166	0xbbbae233	-0.0057032346
167	0xbcbb9855	-0.022899786
168	0x3d81a4c0	0.06330252
169	0xbcbb4138	-0.022858247
170	0x3db5326c	0.08847508
171	0x3d63c9cc	0.05561237
172	0x3c8faef8	0.017539486
173	0x3dd8dc54	0.10588899
174	0x3dbcbab4	0.09215298
175	0x3afd24ec	0.0019313372
176	0x3ce892e0	0.028390348
177	0x3d0cdcf2	0.034390397
178	0x3d139b13	0.036036562
179	0x3c4e9dd5	0.012610872
180	0x3d17d2b2	0.03706617
181	0xbccd734c	-0.025079392
182	0x3d8678e0	0.06566024
183	0xbd74f7c7	-0.05980661
184	0x3d2958a3	0.041344296
185	0xbc76e8e0	-0.01507017
186	0x3dce188e	0.10063277
187	0x3cd61caf	0.026136724
188	0x3c44b5e7	0.0120062595
189	0xbc6b877a	-0.014375562
190	0xbbff69f6	-0.007794614
191	0xbb5dee7e	-0.0033864076
192	0x3d63e863	0.055641543
193	0xbd0d0a0d	-0.034433413
194	0x3cf3b2fe	0.029748436
195	0x3cc5f271	0.024163457
196	0xbd0c8a46	-0.034311555
197	0xbde5a57b	-0.112132035
198	0xbd4b2268	-0.04959336
199	0x3d0c341f	0.034229394
200	0x3b9682b8	0.0045932196
201	0x3c9ff1a3	0.019524401
202	0xbcfe2eaa	-0.03102811
203	0x3da78d86	0.0818129
204	0x3d33941e	0.043842427
205	0x3ca0d2c9	0.01963176
206	0xbc5d40ee	-0.01350425
207	0xbccc41ba	-0.024933685
208	0xbd671969	-0.056420717
209	0x3cd29fb5	0.02571092
210	0xbb4a7d65	-0.0030897495
211	0xbbb69759	-0.0055722413
212	0x399edba9	0.00030299768
213	0x3c12e5ef	0.008965953
214	0x3ce8f715	0.02843813
215	0xbd653c9b	-0.055966
216	0x3ca1d403	0.019754415
217	0xbab0b65a	-0.0013482079
218	0x3d1ca64b	0.038244527
219	0xbd9b8b7c	-0.07594964
220	0x3c882568	0.0166194
221	0x3dc6b829	0.097030945
222	0xbd346807	-0.04404452
223	0x3c88757b	0.016657582
224	0xbd18ed69	-0.037335787
225	0x3d54d0c4	0.051956907
226	0x3a309537	0.0006736102
227	0x3d290870	0.041267812
228	0xbb4969bd	-0.003073319
229	0xbcb4e1a7	-0.022080256
230	0x3c157684	0.009122495
231	0x3da2cc98	0.079491794
232	0xbb1ef285	-0.002425344
233	0x3cee0273	0.029053902
234	0xbd50f4aa	-0.05101458
235	0xbc35474c	-0.011064362
236	0x3baaf6ab	0.0052173934
237	0x3c1377d0	0.0090007335
238	0xbcbf3ae0	-0.023343503
239	0x3c80893e	0.015690442
240	0xbcac2eaf	-0.021018354
241	0x3b9ba103	0.0047494187
242	0xbd00004a	-0.031250276
243	0xbd0e08fc	-0.034676537
244	0x3cbf6e79	0.023368107
245	0x3cb81f98	0.022476003
246	0xbdb66a60	-0.08907008
247	0xbdf0e891	-0.117631085
248	0x3d323238	0.043504924
249	0x3c582612	0.01319267
250	0x3cd90afe	0.0264945
251	0xbc9e234f	-0.019303946
252	0x3b80cfb4	0.00393101
253	0x3aa8e44b	0.001288542
254	0xbc2a6889	-0.0104009
255	0x3c0a72e4	0.008450244

action_model._discrete_distribution.branches.1.bias f4 [3]
0	0xbcfedc80	-0.031111002
1	0x3d49b19a	0.04924164
2	0xbbecabe4	-0.0072226394

onnx::Div_88 f4 [35]
0	0x3e14f656	0.14547095
1	0x3a17591e	0.00057734724
2	0x3e60fe05	0.21971901
3	0x3e84c72c	0.25933206
4	0x3e133b2d	0.14378043
5	0x3e8cdb3a	0.27511007
6	0x39975958	0.0002886753
7	0x3e3090cc	0.17242736
8	0x3ea24067	0.3168976
9	0x3e3036b5	0.17208369
10	0x3e719ebd	0.2359571
11	0x39d60a30	0.0004082485
12	0x3e51ef23	0.2050138
13	0x3e9bbdfc	0.30418384
14	0x3e28138b	0.16413705
15	0x3eac2400	0.33621216
16	0x39975958	0.0002886753
17	0x3e5fbe46	0.21849927
18	0x3ec4ec1c	0.38461387
19	0x3e7c4726	0.24636516
20	0x3ea499da	0.3214863
21	0x39975958	0.0002886753
22	0x3e6be8c3	0.2303801
23	0x3ec222a2	0.37917048
24	0x3e5887e8	0.21145594
25	0x3ec53eb8	0.38524413
26	0x39975958	0.0002886753
27	0x3e596ef1	0.21233727
28	0x3ed73430	0.42032003
29	0x3e8b051a	0.2715233
30	0x3eb009c9	0.34382465
31	0x39975958	0.0002886753
32	0x3e788cb1	0.2427242
33	0x3ecd716b	0.40125594
34	0x3e649ae5	0.22324713

onnx::Div_91 f4 [135]
0	0x3bfb7c08	0.007674698
1	0x3e7fef10	0.24993539
2	0x3ed916ff	0.42400357
3	0x3eefbdcc	0.4682449
4	0x3e5b2dee	0.2140424
5	0x3c87ea65	0.01659126
6	0x3ee28870	0.4424472
7	0x3ecba800	0.3977661
8	0x3effd305	0.49965683
9	0x3e874b37	0.26424572
10	0x3c1a194c	0.009405445
11	0x3ed154eb	0.408851
12	0x3ec19946	0.3781225
13	0x3efb6c16	0.491059
14	0x3e4f3359	0.20234431
15	0x3c8fa152	0.017532978
16	0x3efc5c6e	0.49289268
17	0x3e880443	0.2656575
18	0x3effcd71	0.49961427
19	0x3e9a7645	0.30168357
20	0x3c248cce	0.010043336
21	0x3efb2e15	0.49058595
22	0x3e6c5c84	0.23082167
23	0x3efffaf5	0.49996153
24	0x3e4408ab	0.19143932
25	0x3c8f9251	0.017525824
26	0x3efd926a	0.49525768
27	0x3dc83b63	0.09776952
28	0x3efef1fb	0.4979399
29	0x3e949d04	0.29026043
30	0x3c23bbba	0.009993488
31	0x3ec5c885	0.38629547
32	0x3dcd30f0	0.100191
33	0x3ed08b56	0.40731305
34	0x3e06dadf	0.1316943
35	0x39975958	0.0002886753
36	0x3ee4bf0d	0.4467701
37	0x3baeab18	0.0053304546
38	0x3ee56a10	0.44807482
39	0x3dff0d8f	0.12453758
40	0x3ba4eb5b	0.0050329394
41	0x3df6eb04	0.120565444
42	0x3c48b676	0.012250533
43	0x3e04bfa6	0.12963733
44	0x3d6d2cbe	0.057903998
45	0x3bfc5f3a	0.0077017816
46	0x3e7ff785	0.24996765
47	0x3ed921eb	0.4240869
48	0x3eef9cd7	0.46799347
49	0x3e59b509	0.21260466
50	0x3c881475	0.016611317
51	0x3ee28a4f	0.44246146
52	0x3ecbb06a	0.3978303
53	0x3effcdb3	0.49961624
54	0x3e86d5c4	0.26334965
55	0x3c1a7607	0.009427554
56	0x3ed1583f	0.4088764
57	0x3ec1a508	0.3782122
58	0x3efb5e8e	0.49095577
59	0x3e4da8fe	0.20083997
60	0x3c8fe203	0.017563825
61	0x3efc5d94	0.49290144
62	0x3e880c61	0.26571944
63	0x3effd106	0.4996416
64	0x3e9a1dff	0.3010101
65	0x3c24f500	0.010068178
66	0x3efb2f75	0.49059644
67	0x3e6c7410	0.2309115
68	0x3efffa9b	0.49995884
69	0x3e426696	0.18984446
70	0x3c8fc90d	0.017551923
71	0x3efd9362	0.49526507
72	0x3dc84b1b	0.0977995
73	0x3efee95c	0.49787414
74	0x3e9439ea	0.28950435
75	0x3c241303	0.010014298
76	0x3ec5caf6	0.3863141
77	0x3dcd42e9	0.10022528
78	0x3ed03fef	0.40673777
79	0x3e03e0bb	0.12878697
80	0x39975958	0.0002886753
81	0x3ee4c0ee	0.44678444
82	0x3baeab19	0.005330455
83	0x3ee5362b	0.4476789
84	0x3df8ebb8	0.12154335
85	0x3ba4eb5a	0.005032939
86	0x3df6f6a0	0.12058759
87	0x3c48c4b8	0.012253933
88	0x3e017d11	0.12645365
89	0x3d4d7605	0.05016138
90	0x3bfd419e	0.0077287694
91	0x3e7ffff6	0.24999985
92	0x3ed92b88	0.42416024
93	0x3eef7ce6	0.46774977
94	0x3e583a73	0.21116047
95	0x3c883939	0.016628848
96	0x3ee28c2d	0.4424757
97	0x3ecbba9e	0.39790815
98	0x3effcce3	0.49961004
99	0x3e865d67	0.26243135
100	0x3c1ad28a	0.0094496105
101	0x3ed15b9a	0.408902
102	0x3ec1b192	0.37830788
103	0x3efb4af5	0.49080625
104	0x3e4c1ae1	0.19932128
105	0x3c902783	0.017596966
106	0x3efc5eb2	0.49290997
107	0x3e881472	0.265781
108	0x3effd38b	0.49966082
109	0x3e99c4a7	0.30032846
110	0x3c256e3d	0.010097084
111	0x3efb30a5	0.4906055
112	0x3e6c8ccf	0.23100589
113	0x3efff9fc	0.4999541
114	0x3e40c234	0.18824083
115	0x3c9004ab	0.01758035
116	0x3efd9455	0.4952723
117	0x3dc85ad1	0.09782947
118	0x3efedf71	0.49779847
119	0x3e93d59d	0.28873911
120	0x3c247b83	0.010039213
121	0x3ec5cd81	0.3863335
122	0x3dcd54ef	0.100259654
123	0x3ecff687	0.40617773
124	0x3e00d26b	0.12580268
125	0x39975958	0.0002886753
126	0x3ee4c2f1	0.44679978
127	0x3baeab19	0.005330455
128	0x3ee50175	0.44727674
129	0x3df29a21	0.11845804
130	0x3ba4eb5b	0.0050329394
131	0x3df70321	0.12061144
132	0x3c48d2f9	0.012257331
133	0x3dfc52e9	0.12320501
134	0x3d27d743	0.040976774
