Usable_Data/Versuch_3-2/PKWParking/PKWParking-17999912.onnx (onnx, 468050 bytes, 15 tensors)

discrete_act_size_vector f4 [1, 2]
0	0x40800000	4.0
1	0x40400000	3.0

network_body.observation_encoder.processors.0.normalizer.running_mean f4 [35]
0	0x3cc6575c	0.024211578
1	0x3432f53a	1.6666755e-07
2	0x3d24aa02	0.040201195
3	0x3f6f7b80	0.9354782
4	0x3f78ac92	0.9713832
5	0x3d91318a	0.07089527
6	0x00000000	0.0
7	0x3cf9af6b	0.030479154
8	0x3f66051f	0.89851564
9	0x3f737f78	0.95116377
10	0x3d981ea6	0.07427721
11	0x336e9cad	5.555619e-08
12	0x3d089130	0.033341587
13	0x3f646241	0.89212424
14	0x3f731410	0.9495249
15	0x3e0a7c62	0.13524011
16	0x00000000	0.0
17	0x3d1b0685	0.037848014
18	0x3f539cf3	0.8266136
19	0x3f6549f5	0.89565974
20	0x3e13c6d0	0.1443131
21	0x00000000	0.0
22	0x3d20bba9	0.039241467
23	0x3f50d4c3	0.8157465
24	0x3f681137	0.9065127
25	0x3e6993a9	0.22810234
26	0x00000000	0.0
27	0x3d08ba61	0.03338087
28	0x3f3cf8f2	0.7381736
29	0x3f599c30	0.8500395
30	0x3e27599a	0.16342774
31	0x00000000	0.0
32	0x3d2c54ca	0.04207305
33	0x3f4b0715	0.7930768
34	0x3f64654a	0.89217055

network_body.observation_encoder.processors.1.normalizer.running_mean f4 [135]
0	0x3844aa70	4.6888774e-05
1	0x3d981fef	0.07427966
2	0x3e207771	0.15670563
3	0x3f40dd81	0.7533799
4	0x3f68ce80	0.90940094
5	0x394176f1	0.00018450223
6	0x3ea23fda	0.3168934
7	0x3e06875b	0.13137572
8	0x3f0a1b0d	0.53947526
9	0x3f492fef	0.78588766
10	0x38910dbf	6.916699e-05
11	0x3ea26f67	0.31725618
12	0x3dec0b48	0.11525589
13	0x3f0d9cb0	0.5531721
14	0x3f5b1aa5	0.8558753
15	0x3957f354	0.00020594645
16	0x3f13331a	0.5749985
17	0x3d50edbc	0.05100797
18	0x3eb5d7ba	0.3551615
19	0x3f2d8e3a	0.67795146
20	0x38a2a5c0	7.755635e-05
21	0x3f092dbd	0.53585416
22	0x3d1a841f	0.037723657
23	0x3ece704d	0.40320054
24	0x3f5438af	0.8289899
25	0x3957a89d	0.00020566811
26	0x3f1ad9e6	0.60488737
27	0x3bd5586e	0.006510786
28	0x3ec2002e	0.37890762
29	0x3f2c786e	0.6737126
30	0x389c1f9d	7.444548e-05
31	0x3e7ed736	0.24886784
32	0x3be154d2	0.0068765664
33	0x3f3b7d1c	0.73237777
34	0x3f7157f2	0.9427482
35	0x00000000	0.0
36	0x3ec2e174	0.38062632
37	0x379e73fb	1.8889075e-05
38	0x3f1e0d3a	0.6173893
39	0x3f688a89	0.9083639
40	0x378d35dc	1.683359e-05
41	0x3cd7f1e4	0.02636046
42	0x38d1d569	0.00010005647
43	0x3f78bba5	0.9716132
44	0x3f7e3127	0.9929375
45	0x3845d536	4.716703e-05
46	0x3d982b44	0.07430127
47	0x3e208c6c	0.15678567
48	0x3f40fef1	0.7538901
49	0x3f68f46f	0.90997976
50	0x3941ed8e	0.0001849441
51	0x3ea244d7	0.31693146
52	0x3e069744	0.13143641
53	0x3f0a3bd7	0.5399756
54	0x3f495733	0.7864868
55	0x3891a357	6.944563e-05
56	0x3ea27605	0.31730667
57	0x3dec2fb4	0.11532536
58	0x3f0dbb05	0.55363494
59	0x3f5b3fe5	0.8564437
60	0x3958b48f	0.00020666629
61	0x3f1338d0	0.57508564
62	0x3d510a18	0.051035017
63	0x3eb616e9	0.35564354
64	0x3f2db27b	0.67850465
65	0x38a358ab	7.7889614e-05
66	0x3f09329b	0.5359284
67	0x3d1aa644	0.03775622
68	0x3eceb0dc	0.40369308
69	0x3f545fe5	0.82958823
70	0x39584c9e	0.00020627907
71	0x3f1ae00a	0.60498106
72	0x3bd57b14	0.006514916
73	0x3ec2452b	0.37943396
74	0x3f2c9eb0	0.6742964
75	0x389cb43d	7.472232e-05
76	0x3e7ee1f3	0.2489088
77	0x3be17cb7	0.0068813222
78	0x3f3ba36e	0.7329625
79	0x3f7173a5	0.94317085
80	0x00000000	0.0
81	0x3ec2e87a	0.3806799
82	0x379e73fb	1.8889075e-05
83	0x3f1e37d2	0.61803925
84	0x3f68b6b2	0.9090377
85	0x378d35da	1.6833586e-05
86	0x3cd80a15	0.026371995
87	0x38d1f337	0.00010011199
88	0x3f78fb41	0.97258383
89	0x3f7e7020	0.9938984
90	0x3846ff9b	4.744493e-05
91	0x3d983698	0.07432288
92	0x3e20a15e	0.15686557
93	0x3f411fa5	0.7543891
94	0x3f691b54	0.91057324
95	0x394255de	0.0001853327
96	0x3ea249e6	0.31697005
97	0x3e06a7fc	0.13150018
98	0x3f0a5cd0	0.5404787
99	0x3f497e68	0.78708506
100	0x3892381d	6.9722744e-05
101	0x3ea27ce3	0.31735906
102	0x3dec548a	0.11539562
103	0x3f0dd93c	0.554096
104	0x3f5b662e	0.8570279
105	0x3959864d	0.00020744764
106	0x3f133e74	0.5751717
107	0x3d5124af	0.051060375
108	0x3eb65554	0.35611975
109	0x3f2dd7c0	0.67907333
110	0x38a42935	7.827805e-05
111	0x3f093790	0.53600407
112	0x3d1ac80c	0.037788436
113	0x3ecef060	0.40417767
114	0x3f54883b	0.8302037
115	0x3958ff7d	0.00020694542
116	0x3f1ae617	0.6050734
117	0x3bd59e4b	0.006519114
118	0x3ec28813	0.3799444
119	0x3f2cc48c	0.67487407
120	0x389d675b	7.505595e-05
121	0x3e7eec78	0.24894893
122	0x3be1a519	0.0068861363
123	0x3f3bc880	0.73352814
124	0x3f719bd5	0.94378406
125	0x00000000	0.0
126	0x3ec2ef73	0.3807331
127	0x379e73fb	1.8889075e-05
128	0x3f1e5dd3	0.61861914
129	0x3f68e4d4	0.90974164
130	0x378d35e3	1.6833603e-05
131	0x3cd8235b	0.026384046
132	0x38d210de	0.00010016722
133	0x3f793f5c	0.97362304
134	0x3f7ea467	0.9946961

network_body.observation_encoder.processors.2.normalizer.running_mean f4 [11]
0	0x3f7fff0c	0.99998546
1	0xbd37107c	-0.044693455
2	0xbaffc4f9	-0.0019513658
3	0x3f014a4f	0.5050401
4	0x00000000	0.0
5	0x3e98c2f3	0.29836234
6	0x3e6b1f2a	0.22961107
7	0x3e24a252	0.16077545
8	0x3db8913e	0.09012078
9	0x3c78d46e	0.015187366
10	0x3de4e5aa	0.111766174

network_body._body_endoder.seq_layers.0.weight f4 [256, 181]
0	0xbd67a82f	-0.056556877
1	0x3e6a7376	0.22895607
2	0xbe4b988b	-0.1988241
3	0x3e168b8e	0.14701673
4	0x3d2a8a6b	0.041635912
5	0xbda3efde	-0.080047354
6	0xbdd80eaa	-0.10549672
7	0x3d8d6292	0.069035664
8	0x3e8c021d	0.27345362
9	0x3e582f92	0.21111897
10	0xbbc14299	-0.0058978316
11	0xbd04de7f	-0.03243875
12	0xbd998551	-0.07496131
13	0xbd8d923c	-0.069126576
14	0x3e4dd050	0.20098996
15	0x3e9b0dea	0.30284053
16	0xbbdc158e	-0.0067164367
17	0xbea5724b	-0.3231376
18	0xbd7f2df9	-0.062299702
19	0xbcf1ac85	-0.029501209
20	0xbcb082e8	-0.021546796
21	0x3d3a1c09	0.045436893
22	0xbc47b904	-0.012190107
23	0xbd4b115d	-0.049577106
24	0xbe333805	-0.17501839
25	0xbc16d0b4	-0.009205032
26	0xbbc036b3	-0.0058658957
27	0xbd2f4458	-0.042789787
28	0x3e32631c	0.1742062
29	0x3c101db8	0.008796148
30	0x3d174961	0.036935214
31	0xbb256caa	-0.002524177
32	0x3cd6fe7a	0.02624439
33	0xbe35ee57	-0.177667
34	0xbe6cc683	-0.23122601
35	0x3d36ec83	0.04465915
36	0x3d74dc2c	0.059780285
37	0xbc42c8d3	-0.011888701
38	0xbc0e564c	-0.008687567
39	0x3e0ac7cd	0.1355278
40	0x3c374470	0.01118575
41	0x3e814913	0.25251064
42	0xbdca9be2	-0.098930135
43	0xbd6123df	-0.05496585
44	0x3de9c04e	0.11413632
45	0xbe086881	-0.13321115
46	0xbd657572	-0.056020208
47	0xbd897c58	-0.0671317
48	0x3e062f35	0.13103946
49	0x3dabde1a	0.08391972
50	0x3dddd0bd	0.10830829
51	0x3dd910f6	0.10598938
52	0x3e1a5888	0.15072834
53	0xbe3938cf	-0.18088077
54	0x3c05d619	0.008168721
55	0xbc2fdd9a	-0.010733986
56	0x3d4dc392	0.05023534
57	0xbdb80b29	-0.08986504
58	0xbd272af9	-0.040812466
59	0xbe0f1b4b	-0.13975255
60	0xbd935bd3	-0.071952485
61	0xbcacdd20	-0.021101534
62	0x3e2f79fa	0.17136374
63	0x3c0abf86	0.008468514
64	0x3dea1953	0.114306115
65	0x3e14a10a	0.14514557
66	0x3b38e81e	0.0028214525
67	0xbde72a3c	-0.112873524
68	0xbac7743d	-0.0015217137
69	0x3e37e48b	0.17958276
70	0xbcd580e0	-0.026062429
71	0xbd935fe4	-0.07196024
72	0xbcf23416	-0.029565852
73	0xbbdbfa0c	-0.0067131575
74	0x3d210241	0.03930879
75	0x3c33d752	0.010976629
76	0x3c9cd75c	0.01914566
77	0x3daa74dd	0.08323071
78	0x3c893a56	0.01675145
79	0x3c6cb096	0.014446398
80	0x3cda1d16	0.026625197
81	0x3d13d50c	0.03609185
82	0xbbe1fd22	-0.006896631
83	0xbd7bb43d	-0.061451185
84	0x3e2f3ad2	0.17112282
85	0xbd58a0df	-0.052887794
86	0xbc7e1644	-0.015508238
87	0xbce85783	-0.028362041
88	0xbde27d41	-0.110590465
89	0x3e516b43	0.20451073
90	0x3c6e1d5d	0.014533368
91	0xbd92d004	-0.07168582
92	0xbcee9490	-0.029123574
93	0x3e33d877	0.17563044
94	0x37fc5811	3.008175e-05
95	0x3d15d1fe	0.036577217
96	0x3e100bac	0.14066952
97	0xbcae2a09	-0.021260278
98	0xbce201f6	-0.027588826
99	0x3d2203fe	0.03955459
100	0xbe7098a9	-0.23495735
101	0x3dd61d58	0.104548156
102	0xbe21a06c	-0.15783852
103	0xbd74260b	-0.059606593
104	0xbe639e4c	-0.22228354
105	0x3cdde054	0.027084507
106	0xbcc582c5	-0.024110207
107	0x3d39a673	0.045324754
108	0x3c2b0c58	0.010439955
109	0xbc165929	-0.009176531
110	0xbe106162	-0.14099649
111	0x3d25c1db	0.040468078
112	0xbd7637ef	-0.060111936
113	0x3e1e5e0d	0.15465565
114	0xbc040233	-0.008057165
115	0xbcc68541	-0.024233462
116	0x3e102638	0.1407708
117	0xbd1df2e4	-0.038561717
118	0xbdba35b6	-0.09092276
119	0xbd8ea8ea	-0.069658116
120	0xbe07f558	-0.13277185
121	0xbde79610	-0.11307919
122	0x3dfae1de	0.12250112
123	0x3e0da1e3	0.13831286
124	0x3d5298b6	0.051415168
125	0xbcd5a35b	-0.02607887
126	0x3e84b92b	0.25922522
127	0x3e02d93a	0.12778178
128	0xbdd93bac	-0.10607085
129	0x3dcec692	0.10096468
130	0xbc88b8ef	-0.016689746
131	0xbced1779	-0.028941857
132	0xbe19c533	-0.15016632
133	0x3d323fe1	0.04351795
134	0x3e40664a	0.1878902
135	0x3d0c000c	0.034179732
136	0xbd50a0d5	-0.05093463
137	0x3cdb704c	0.026786946
138	0x3e8e7b17	0.27828285
139	0xbc1c1b1a	-0.009527946
140	0x3d7d06aa	0.061773933
141	0x3e1cc699	0.15310134
142	0x3b80684d	0.0039186836
143	0x3dd77a38	0.10521358
144	0x3e15837a	0.14600936
145	0x3d3b7315	0.045764048
146	0x3dfd2818	0.12361163
147	0xbe0d6745	-0.13808925
148	0xbdb372d9	-0.0876214
149	0xbe2c26bc	-0.16811651
150	0x3e02b217	0.12763248
151	0x3db56603	0.08857348
152	0xbcd35355	-0.025796572
153	0xbd2b9f6a	-0.041900076
154	0x3d6f9040	0.058487177
155	0x3d24e192	0.040254183
156	0xbcab3851	-0.020900877
157	0xbd41cea3	-0.047316205
158	0x3ddc134a	0.107458666
159	0x3d3a6ea8	0.045515686
160	0x3ca2ec96	0.019888204
161	0x3d992548	0.07477814
162	0x3d4d8beb	0.050182264
163	0xbd190fb5	-0.037368495
164	0x3dbd1b78	0.09233755
165	0x3d1de000	0.0385437
166	0xbe31cf5b	-0.17364256
167	0xbd29e6b9	-0.0414798
168	0xbc801555	-0.015635172
169	0x3d342fcf	0.043990906
170	0xbdb25bae	-0.08708893
171	0xbdbb1dd5	-0.091365494
172	0xbd13837b	-0.03601406
173	0xbe0882a5	-0.13331087
174	0xbcac2979	-0.02101587
175	0x3c3f7eb6	0.011687925
176	0x3a37d2fe	0.0007012336
177	0x3def81ce	0.1169468
178	0xbde0f56b	-0.1098431
179	0xbd8c86b8	-0.06861633
180	0xbda455d3	-0.08024182
181	0xbd2208d9	-0.03955922
182	0x3ecef8ca	0.40424186
183	0x3debc900	0.11512947
184	0x3e11f08a	0.14251915
185	0x3eaa7300	0.33290863
186	0x3d2c92a1	0.042132024
187	0xbe02a831	-0.12759472
188	0x3daeffea	0.085449055
189	0x3d406d51	0.046979252
190	0x3d99e30f	0.07514011
191	0x3dcf82a9	0.10132343
192	0x3e72ed57	0.2372335
193	0xbde347cb	-0.11097678
194	0x3e4f28ec	0.20230454
195	0xba8b0436	-0.0010606113
196	0x3db2cc97	0.08730429
197	0x3d32921c	0.043596372
198	0xbcceed59	-0.02525966
199	0x3e08d21b	0.13361399
200	0xbd36c064	-0.04461707
201	0x3c953a02	0.018216137
202	0xbe0078d9	-0.125461
203	0xbdfc558e	-0.12321006
204	0x3e15b703	0.14620595
205	0x3e178c9a	0.14799729
206	0xbddc9287	-0.107701354
207	0xbb997b9b	-0.0046839244
208	0x3e36fe61	0.17870475
209	0x3e5601b1	0.20899083
210	0x3e80272c	0.25029886
211	0x3c6ef6ea	0.014585236
212	0x3d1f672b	0.038916748
213	0x3cb6ff9d	0.022338683
214	0x3db1fe1c	0.08691046
215	0x3d4a36a1	0.049368504
216	0x3e89807e	0.26855844
217	0xbd8e7893	-0.069565915
218	0x3e1aee6c	0.15130013
219	0x3de056df	0.10954069
220	0xbc91d777	-0.017802937
221	0x3ed22b8f	0.41048858
222	0x3d99f342	0.07517101
223	0x3e656d2f	0.22404931
224	0xbdf46590	-0.11933434
225	0xbda972b8	-0.08273834
226	0x3ee17163	0.4403182
227	0x3d92159f	0.0713303
228	0x3e7da668	0.2477051
229	0xbeb006b2	-0.34380108
230	0xbe050d49	-0.12993349
231	0x3ea2ad70	0.31772947
232	0x3d11bd28	0.035580784
233	0x3e3c0840	0.18362522
234	0xbd9aaf95	-0.07553021
235	0xbcc3fa62	-0.023923103
236	0x3e804bdd	0.2505788
237	0xbdda0326	-0.10645132
238	0x3d58878a	0.052863635
239	0x3d8d5f89	0.069029875
240	0x3d311e36	0.043241702
241	0x3e5f471a	0.21804467
242	0x3db346aa	0.087537125
243	0x3df6a940	0.120440006
244	0x3da8953b	0.082315885
245	0x3daadd4e	0.08342992
246	0x3e9d80ef	0.3076243
247	0xbc7b178d	-0.015325439
248	0x3e34f1b5	0.17670329
249	0xbd5599ab	-0.052148502
250	0x3ba5f51e	0.0050646206
251	0x3d7d75de	0.061879985
252	0xbd93655c	-0.07197067
253	0x3e984446	0.29739588
254	0x3d8b268c	0.067944616
255	0x3de5d406	0.11222081

network_body._body_endoder.seq_layers.0.bias f4 [256]
0	0xbd835c47	-0.06414085
1	0xbeb211d6	-0.34779233
2	0xbdcb29a3	-0.09920051
3	0xbe7b2fb4	-0.24529916
4	0xbe52f436	-0.20600972
5	0xbe3bd567	-0.18343125
6	0xbc0fdfc1	-0.008781374
7	0xbf03a27a	-0.51419795
8	0xbdb113c2	-0.08646347
9	0x3e94c186	0.29053897
10	0xbdc52fda	-0.096282676
11	0xbee84843	-0.4536763
12	0x3e8282a3	0.25490293
13	0xbea9980a	-0.3312381
14	0xbd2da1af	-0.04239052
15	0xbe60ed87	-0.2196561
16	0x3e2adc45	0.16685589
17	0xbe3a1ee0	-0.1817584
18	0xbb96b457	-0.004599135
19	0xbdaedc50	-0.08538115
20	0xbd9267fa	-0.07148738
21	0xbe4996de	-0.19686458
22	0xbea4b93b	-0.3217257
23	0xbe3134aa	-0.17305246
24	0xbe34ccd5	-0.17656262
25	0xbe93b968	-0.2885239
26	0xbde5db3e	-0.11223458
27	0xbe2a98c3	-0.16659836
28	0xbdb0b4dc	-0.08628246
29	0xbdb99d76	-0.090632364
30	0x3a30b016	0.0006740106
31	0xbf1de08e	-0.6167077
32	0xbefa131b	-0.488427
33	0xbf1ae74c	-0.6050918
34	0x3c58099f	0.013185888
35	0xbddc5955	-0.10759226
36	0xbed0ca08	-0.40779138
37	0xbc3618d4	-0.011114318
38	0xbe486b02	-0.1957207
39	0xbd8a02b1	-0.067387946
40	0xbe2387d2	-0.1596978
41	0x3e17112f	0.14752649
42	0x3d6350c9	0.055496965
43	0xbed83bca	-0.42233115
44	0xbebb32af	-0.36562106
45	0xbee466bc	-0.4460963
46	0xbd5a7dbb	-0.053342562
47	0xbe5d9dd2	-0.21642235
48	0xbee9ad67	-0.45640108
49	0xbb07da6e	-0.002072956
50	0xbd9603c1	-0.07324935
51	0xbe9369b6	-0.2879159
52	0xbaafae45	-0.0013403377
53	0x3e571677	0.21004663
54	0xbf1490e9	-0.58033615
55	0x3e5c4b81	0.21513177
56	0xbe450eb8	-0.19243896
57	0x3c5fcbff	0.013659476
58	0xbdfe3538	-0.124124944
59	0xbeb8c338	-0.3608644
60	0xbc4bf699	-0.01244893
61	0xbef3e6de	-0.47637075
62	0xbee5a55c	-0.44852722
63	0xbe7eda1f	-0.24887894
64	0xbe7e3cc5	-0.24827869
65	0x3dfb9efb	0.122861825
66	0xbe37b3a1	-0.17939617
67	0xbeb364aa	-0.35037738
68	0xbeda9c26	-0.42697257
69	0xbdf6fd94	-0.12060085
70	0xbef45e1b	-0.47728047
71	0xbe8c1c1c	-0.27365196
72	0xbda052f0	-0.07828319
73	0x3c1b02d4	0.0094611235
74	0x3d9de678	0.07709974
75	0xbebe1a9d	-0.3712968
76	0xbeebf83f	-0.46087834
77	0xbebd4476	-0.36966294
78	0xbe302845	-0.17202862
79	0xbee9dbac	-0.4567541
80	0xbe9dc183	-0.308117
81	0xbe00a357	-0.12562309
82	0x3ea12019	0.314698
83	0xbdc5a5f4	-0.09650794
84	0xbe0d075f	-0.13772343
85	0x3e70c013	0.2351077
86	0xbe2b4329	-0.16724838
87	0x3ea2091b	0.31647572
88	0x3d5b34e7	0.05351725
89	0xbedf038d	-0.43557397
90	0xbe497408	-0.19673169
91	0xbdded34e	-0.10880147
92	0xbdd6f0e5	-0.10495166
93	0xbe1ef641	-0.15523626
94	0xbe98d629	-0.2985089
95	0xbc97cf68	-0.018531516
96	0xbe36d391	-0.17854144
97	0xbe2b3477	-0.16719232
98	0xbd8c7c83	-0.06859686
99	0xbe91d003	-0.28479013
100	0xbdcf6d22	-0.10128237
101	0xbe6ab8ad	-0.2292201
102	0xbe253b41	-0.16135885
103	0xbc82066c	-0.015872203
104	0x3e8b8147	0.27247068
105	0xbefdcda1	-0.49570945
106	0xbe3086d1	-0.17238928
107	0xbee80cda	-0.45322305
108	0x3e5cad5f	0.21550511
109	0xbe8b1ee9	-0.2717202
110	0xbda474a9	-0.08030064
111	0xbda3fe09	-0.08007438
112	0xbf1815af	-0.59408087
113	0xbe02be1a	-0.1276783
114	0xbd143ab8	-0.03618881
115	0xbc2e107a	-0.0106240455
116	0xbe38c69a	-0.1804451
117	0x3caa9160	0.020821273
118	0x3d949661	0.07255245
119	0xbe9d0f87	-0.3067591
120	0xbeed0989	-0.46296337
121	0xbe07612c	-0.13220662
122	0xbe9d99e0	-0.3078146
123	0xbe3c616f	-0.18396543
124	0x3cf2c3dc	0.029634409
125	0xbed1f293	-0.41005382
126	0xbd4a5ff5	-0.049407918
127	0xbeeda585	-0.46415344
128	0xba86a50e	-0.0010272579
129	0xbe648899	-0.22317733
130	0x3e2a29cf	0.16617511
131	0xbb05836c	-0.0020372523
132	0xbdba3a89	-0.09093196
133	0xbe7358e8	-0.23764384
134	0x3d95eea9	0.073209114
135	0xbe3cebb3	-0.18449287
136	0xbe244d25	-0.16045053
137	0xbd33b577	-0.04387423
138	0xbe1882a5	-0.14893587
139	0xbe87406f	-0.26416346
140	0x3ea9fce2	0.33200747
141	0xbddfd015	-0.109283604
142	0x3e084aa4	0.13309723
143	0xbebf1f77	-0.37328693
144	0xbdaf15b6	-0.08549063
145	0xbe5a7d45	-0.21336849
146	0x3e1c18d4	0.15243846
147	0xbedcf324	-0.43154252
148	0xbc50123e	-0.012699662
149	0xbec0755b	-0.37589535
150	0x3d954117	0.072878055
151	0x3b8c0f9c	0.0042743217
152	0x3becad1a	0.0072227838
153	0xbece95c3	-0.40348634
154	0x3eb4318a	0.35194045
155	0x3d663ef5	0.056212384
156	0xbeb70b22	-0.3575068
157	0xbe6e0b4d	-0.23246498
158	0x3bfdb66d	0.007742694
159	0xbdff0ffe	-0.12454222
160	0xbd6a6985	-0.057229538
161	0x3bfd69cf	0.0077335606
162	0xbebb4b24	-0.36580765
163	0x3e828d2e	0.25498337
164	0xbeb7788e	-0.35834163
165	0xbe4752cf	-0.19465183
166	0xbebfc1de	-0.37452596
167	0x3d95b37f	0.07309627
168	0x3db911d4	0.090366036
169	0xbe8df02f	-0.27722308
170	0xbde19862	-0.11015393
171	0x3e911982	0.28339773
172	0x3d9ff618	0.078106105
173	0xbe249ae7	-0.16074716
174	0xbeff43e5	-0.49856487
175	0x3e2a4f08	0.1663171
176	0xbea114d8	-0.31461215
177	0xbe8a3110	-0.26990557
178	0xbf076b0d	-0.5289772
179	0xbe158542	-0.14601615
180	0xbd6388dd	-0.055550445
181	0xbd6d016c	-0.057862684
182	0x3d4040d7	0.046936836
183	0x3dbe4bf7	0.09291833
184	0x399552f8	0.0002848131
185	0x3e00244d	0.12513848
186	0xbe886397	-0.2663848
187	0x3dc7e1aa	0.09759839
188	0xbe54f7a7	-0.20797597
189	0xbd28dd32	-0.041226573
190	0xbde5371f	-0.11192154
191	0xbe9db0b8	-0.30798888
192	0x3cd97791	0.026546272
193	0x3dd79142	0.105257526
194	0xbee3c114	-0.44483244
195	0xbec5cbb8	-0.38631988
196	0xbdf35dfe	-0.11883162
197	0xbd9d2606	-0.07673268
198	0x3e50167e	0.2032108
199	0x3e341a1a	0.17588082
200	0x3c860fad	0.016364897
201	0xbe0385c2	-0.12843993
202	0xbebb71e8	-0.3661034
203	0xbe2517ad	-0.16122313
204	0xbcbd734b	-0.023126265
205	0xbde3416c	-0.110964626
206	0xbeecb4b4	-0.46231616
207	0xbdefaf07	-0.11703306
208	0xbe7c2d8c	-0.2462675
209	0xbecd3f83	-0.40087518
210	0xbead189f	-0.33807847
211	0x3e493933	0.19650726
212	0xbe453205	-0.19257362
213	0x3e81f409	0.25381497
214	0xbe044c51	-0.12919737
215	0xbe059c71	-0.13047959
216	0xbf0c0d85	-0.5470813
217	0xbf0c3ab1	-0.54777056
218	0xbe346916	-0.17618212
219	0xbe8eca08	-0.27888513
220	0xbe895fbb	-0.2683085
221	0x3e843ba2	0.25826746
222	0xbef282c7	-0.473654
223	0xbe5046a5	-0.20339449
224	0x3ddd8fd3	0.10818448
225	0x3d397d66	0.045285605
226	0xbc1f643b	-0.009728487
227	0x3e5a1e06	0.21300516
228	0xbe918615	-0.2842261
229	0xbebbf065	-0.36706844
230	0xbe9d5cfe	-0.3073501
231	0xbe98087c	-0.29693973
232	0xbeae376c	-0.3402666
233	0xbd91d40b	-0.07120522
234	0x3dd032ba	0.10165925
235	0xbee9553e	-0.45572847
236	0xbdec4a00	-0.11537552
237	0xbda821d6	-0.08209579
238	0xbe892b61	-0.26790908
239	0xbf115cca	-0.5678221
240	0x3c80c145	0.015717158
241	0xbeed8c54	-0.46396124
242	0xbef17d60	-0.47165966
243	0x3d59a2ab	0.053133648
244	0xbf0a3552	-0.5398761
245	0x3da6be17	0.081417255
246	0x3d708d19	0.05872831
247	0xbdef7915	-0.116930164
248	0xbe86c991	-0.26325658
249	0xbe242483	-0.16029553
250	0xbeaae379	-0.33376673
251	0xbeaa9cd7	-0.33322784
252	0xbeb04e7c	-0.3443488
253	0x3e3e7bb5	0.18601878
254	0xbcb2eebd	-0.021842355
255	0xbe523963	-0.20529704

network_body._body_endoder.seq_layers.2.weight f4 [256, 256]
0	0xbd39a509	-0.045323405
1	0x3d32ed22	0.04368318
2	0xbe14dda7	-0.14537679
3	0x3d9ca4f5	0.076486506
4	0x3b948ffb	0.0045337654
5	0xbcdd452a	-0.027010519
6	0xbea9544d	-0.3307213
7	0x3ce7fe26	0.02831943
8	0xbd973201	-0.07382584
9	0xbdffdc7b	-0.12493225
10	0xbcf2569f	-0.02958232
11	0x3d58f556	0.052968346
12	0xbe1e2505	-0.1544381
13	0xbdd1839a	-0.10230179
14	0xbd5d7ee9	-0.05407611
15	0xbb206bac	-0.002447824
16	0xbd718485	-0.05896427
17	0xbe1f7962	-0.15573648
18	0xbd80d7b3	-0.06291141
19	0xbc3638da	-0.011121953
20	0xbd934a6c	-0.07191929
21	0xbe3a0efd	-0.1816978
22	0xbd2f47d6	-0.042793117
23	0xbda152bd	-0.07877109
24	0x3dc37926	0.095445916
25	0x3d1f5498	0.038899034
26	0x3e241a74	0.16025716
27	0xbe4b3159	-0.19843043
28	0xbd0f435e	-0.034976356
29	0xbe6855b0	-0.22688937
30	0xbd1dae72	-0.038496442
31	0x3cb1660f	0.02165511
32	0xbdb699f7	-0.08916085
33	0x3e255532	0.1614578
34	0xbebf515c	-0.3736676
35	0xbe2d91f9	-0.16950215
36	0x3dcf1c9b	0.10112878
37	0xbe0a0425	-0.13478144
38	0xbe094933	-0.1340683
39	0xbe559fe5	-0.20861776
40	0x3e39dbe2	0.18150285
41	0xbec6219e	-0.38697523
42	0xbdb6ec9b	-0.08931848
43	0xbcc30cb7	-0.023809774
44	0xbe14bd45	-0.14525326
45	0x3ca3ae50	0.01998058
46	0xbe4b2225	-0.19837244
47	0xbdd41aed	-0.10356698
48	0xbe3fef29	-0.18743576
49	0x3c95968f	0.018260268
50	0x3d817fdc	0.06323215
51	0x3d02d515	0.031941492
52	0xbe08e4d1	-0.13368537
53	0xbd572aee	-0.052531175
54	0xbdcd9a77	-0.100392275
55	0xbe9a2caa	-0.301122
56	0xbd462ebd	-0.048384417
57	0xbe511e5a	-0.20421734
58	0x3cb160f0	0.021652669
59	0xbcbfa5a3	-0.023394411
60	0xbe9590cb	-0.2921203
61	0xbd1e47d1	-0.03864271
62	0xbd6b25c7	-0.057409074
63	0xbbdee9bc	-0.0068027657
64	0x3e296294	0.16541511
65	0xbe768cef	-0.240772
66	0xbd40dace	-0.04708367
67	0xbe06a9a5	-0.13150652
68	0x3cd36670	0.025805682
69	0xbe388d91	-0.18022753
70	0xbdb1da49	-0.08684213
71	0x3da52a67	0.08064728
72	0xbd261955	-0.040551502
73	0x3deb2ffd	0.114837624
74	0xbe8b2612	-0.27177483
75	0xbc8983e7	-0.016786529
76	0xbd927010	-0.071502805
77	0xbd912058	-0.07086247
78	0x3d98955b	0.07450362
79	0x3e295103	0.1653481
80	0xbe6f255e	-0.23354098
81	0xbe816efb	-0.25279984
82	0xbe779668	-0.24178469
83	0x3d1d6532	0.038426585
84	0xbe34412c	-0.17602986
85	0xbe6fee2e	-0.23430702
86	0xbe488779	-0.19582929
87	0xbe2799c5	-0.16367252
88	0xbde26188	-0.11053759
89	0x3d8d8720	0.06910539
90	0xbdad3fe8	-0.08459455
91	0x3b098848	0.002098577
92	0x3dd476ad	0.10374198
93	0xbd275860	-0.040855765
94	0xbd04cbb6	-0.032420836
95	0xbe30a9f8	-0.17252338
96	0xbbd33da5	-0.0064465576
97	0xbe46f9d6	-0.19431242
98	0xbd8bb8ef	-0.06822383
99	0x3c85bebc	0.0163263
100	0xbdeab601	-0.11460496
101	0xbd8d107d	-0.068879105
102	0x3daeaa2f	0.08528554
103	0xbe20b28c	-0.1569311
104	0xbdfe7eba	-0.12426515
105	0xbd295dff	-0.041349407
106	0x3acd2d37	0.0015653734
107	0x3ce46180	0.027878523
108	0xbd7ce918	-0.061745733
109	0xbd158b79	-0.036509965
110	0xbe842013	-0.2580572
111	0xbe5350f6	-0.20636353
112	0x3d277764	0.040885344
113	0x3dc6fae9	0.09715826
114	0x3d424416	0.047428213
115	0xbdf0239f	-0.11725544
116	0xbe0bc712	-0.13650158
117	0xbd8d5921	-0.069017656
118	0xbeaa1089	-0.3321574
119	0x3e36bafe	0.1784477
120	0xbd7e2b49	-0.062053
121	0xbdcb37fd	-0.09922788
122	0xbe09e22d	-0.13465185
123	0xbdab40a5	-0.08361939
124	0xbcfb0b5b	-0.030645063
125	0x3d3e2e90	0.046431124
126	0xbe40f50a	-0.18843475
127	0x3e096e34	0.13420945
128	0xbd279262	-0.040911086
129	0xbc62e7cf	-0.013849213
130	0xbd851efb	-0.0650005
131	0xbda1c3fc	-0.07898709
132	0xbe405e5b	-0.18785994
133	0xbcdb9c58	-0.026807949
134	0xbcc0f9da	-0.023556639
135	0xbc58a98e	-0.013224019
136	0xbe6cdbbb	-0.23130696
137	0xbc2a3843	-0.01038939
138	0xbe1160f7	-0.14197145
139	0x3d33264d	0.0437377
140	0xbe3ff11e	-0.18744323
141	0x3db1670d	0.086622335
142	0xbe64b9e0	-0.2233653
143	0xbdbdb693	-0.09263339
144	0xbd96fd55	-0.07372538
145	0x3e22f716	0.15914568
146	0xbe36b7ae	-0.17843506
147	0x3dae6b72	0.08516587
148	0xbde0e137	-0.10980456
149	0xbe08e624	-0.13369042
150	0x3d23728f	0.039904173
151	0xbe6fb164	-0.23407513
152	0xbde89d51	-0.11358131
153	0xbda7f8b9	-0.08201737
154	0xbe9fc3d0	-0.3120408
155	0x3aa495a5	0.0012556805
156	0xbe0e4f89	-0.13897528
157	0xbe00fb78	-0.12595928
158	0xbe741529	-0.23836197
159	0x3ac2a9c8	0.0014851624
160	0x3da7454d	0.08167515
161	0xbd09a0ed	-0.033600736
162	0xbdcb0d29	-0.099146195
163	0xbe74c597	-0.239035
164	0xbc5d9b21	-0.013525755
165	0x3db69ef0	0.08917034
166	0xbcf0a5f6	-0.029376011
167	0xbe5dcf7e	-0.21661183
168	0xbda12b00	-0.0786953
169	0xbe3694b3	-0.17830162
170	0x3e03a039	0.12854089
171	0xbe5b6077	-0.21423517
172	0x3c0f3551	0.008740739
173	0xbd548ff0	-0.051895082
174	0x3e272123	0.16321234
175	0xbdfe5ec0	-0.12420416
176	0xb7ee7692	-2.8427025e-05
177	0xbcd81f6a	-0.026382167
178	0xbd210090	-0.039307177
179	0xbca99e1f	-0.02070528
180	0xbd0df22a	-0.034654774
181	0xbe4602fd	-0.19337077
182	0xbe3b7dbd	-0.18309684
183	0xbe0a55a4	-0.13509232
184	0xbe90ff69	-0.28319862
185	0xbe0d9d10	-0.13829446
186	0x3d20a276	0.039217435
187	0xbe002c51	-0.12516905
188	0xbc8e61be	-0.017380591
189	0xbe8ef485	-0.2792093
190	0xbdfbcda7	-0.122950844
191	0xbd4380be	-0.0477302
192	0xbdc9d7e5	-0.09855632
193	0xbe89e186	-0.26929873
194	0x3e25e088	0.16198933
195	0x3d863982	0.065539375
196	0x3c1f0366	0.0097054
197	0x3e12ed35	0.143483
198	0xbea094bf	-0.31363484
199	0xbd3f8b6f	-0.046763834
200	0xbe20f9e9	-0.15720333
201	0xbe5ff205	-0.21869667
202	0xbe4fdf5d	-0.2030005
203	0x3dd0b707	0.1019116
204	0xbe4d9bf1	-0.20079018
205	0xbde9bb14	-0.114126354
206	0x3c6356e9	0.013875701
207	0x3ad71767	0.0016410173
208	0xbdef6433	-0.11689033
209	0xbd6fac39	-0.058513854
210	0xbd64178b	-0.055686515
211	0xbe64ea15	-0.2235492
212	0x3e21dd02	0.15806964
213	0xbded4ce9	-0.11586935
214	0xbd309028	-0.043106228
215	0xbe07d264	-0.13263851
216	0x3c3e4202	0.011612417
217	0x3e58d823	0.211762
218	0xbca045d3	-0.019564545
219	0x3d507af7	0.05089852
220	0x3d61ea92	0.055155344
221	0xbe2abd3d	-0.16673751
222	0xbd126eca	-0.035750188
223	0xbe18618f	-0.14880966
224	0xbe441da3	-0.1915193
225	0xbe398ba4	-0.18119675
226	0xbe1b300d	-0.15155049
227	0xbd797471	-0.060902063
228	0xbdbb6b08	-0.09151274
229	0x3a50d3f2	0.00079661526
230	0xbcb222d5	-0.021745125
231	0x3d10c1db	0.035341125
232	0x3c12522a	0.008930722
233	0x3dd3d407	0.103431754
234	0xbe760098	-0.24023664
235	0xbced9877	-0.029003365
236	0x39363b89	0.00017379051
237	0xbe035180	-0.12824059
238	0xbd950689	-0.07276637
239	0x3da2a267	0.07941132
240	0xbddaf418	-0.106910884
241	0x3df0fc11	0.11766828
242	0xbceae752	-0.028674755
243	0xbc2ced5d	-0.010554639
244	0x3e4e6bcc	0.20158309
245	0xbd71ba6e	-0.059015684
246	0xbe1b97c5	-0.15194614
247	0xbc874de4	-0.016516633
248	0x3d553d5d	0.052060474
249	0xbde4c37a	-0.11170097
250	0x3d3e3dee	0.04644578
251	0x3d38ad07	0.045086887
252	0x3d984735	0.07435457
253	0xbef0ae62	-0.47008044
254	0xbe347362	-0.1762214
255	0xbd242a0c	-0.04007916

network_body._body_endoder.seq_layers.2.bias f4 [256]
0	0xbe917404	-0.28408825
1	0xbe6a93d8	-0.2290796
2	0xbebff433	-0.37490997
3	0xbe9791a4	-0.29603302
4	0xbeb7ced6	-0.3589999
5	0xbe6ed5bc	-0.2332372
6	0xbdb3c1e4	-0.08777216
7	0xbe2e08f8	-0.16995609
8	0xbe8e154a	-0.27750617
9	0xbe57bf85	-0.21069153
10	0xbd806feb	-0.06271347
11	0xbed53af2	-0.41646534
12	0xbdafba37	-0.085804395
13	0xbeb21bc1	-0.347868
14	0xbe297d62	-0.16551736
15	0xbe43a45d	-0.19105668
16	0xbe9d8a0d	-0.30769387
17	0xbe2789df	-0.16361187
18	0xbe56b2cb	-0.20966642
19	0xbdbaaac8	-0.09114605
20	0xbe801967	-0.2501938
21	0xbe8489ba	-0.25886327
22	0xbe42c582	-0.19020656
23	0xbdf3a385	-0.11896423
24	0xbdfda97c	-0.12385842
25	0xbd778160	-0.060426116
26	0xbe336634	-0.17519456
27	0xbe356b94	-0.17716819
28	0xbe83b05c	-0.2572049
29	0xbe19f0d4	-0.15033275
30	0xbe2cda9a	-0.16880265
31	0xbdfee03c	-0.12445113
32	0xbeb55e80	-0.3542366
33	0xbe6dbaf4	-0.23215848
34	0xbe617dde	-0.22020671
35	0xbe1094ce	-0.14119264
36	0xbdac62e2	-0.08417298
37	0xbe0d4b12	-0.13798168
38	0xbe2e2000	-0.17004395
39	0xbe8268d4	-0.25470603
40	0xbdd9ffed	-0.10644517
41	0xbe1f5cbd	-0.1556272
42	0xbe44a44f	-0.19203304
43	0xbe068685	-0.13137253
44	0xbddb871a	-0.10719128
45	0xbd9382c3	-0.07202675
46	0xbdfdaf4a	-0.12386949
47	0xbe895f5c	-0.26830566
48	0xbe539ad2	-0.20664528
49	0xbe22ef89	-0.15911688
50	0xbe4e080f	-0.20120262
51	0xbe85b1d3	-0.26112232
52	0xbded4a4e	-0.11586438
53	0xbe975ef7	-0.2956464
54	0xbe112224	-0.1417318
55	0xbe1caaba	-0.15299502
56	0xbe41f3e3	-0.18940692
57	0xbdba01f7	-0.09082406
58	0xbe0da696	-0.13833079
59	0xbe6b570b	-0.22982423
60	0xbe6f866b	-0.2339112
61	0xbe7a305b	-0.24432509
62	0xbdaa3e95	-0.08312718
63	0xbe5e0cec	-0.21684617
64	0xbd3cd9e5	-0.046106238
65	0xbe3db8e6	-0.18527564
66	0xbe1cfe66	-0.1533142
67	0xbe83b008	-0.2572024
68	0xbdb54af9	-0.088521905
69	0xbea8c38c	-0.3296169
70	0xbde14607	-0.10999685
71	0xbd11ecc3	-0.035626184
72	0xbe9930cb	-0.2992004
73	0xbe0c1868	-0.13681185
74	0xbdcc8fe2	-0.09988381
75	0xbe526daa	-0.20549646
76	0xbe056e62	-0.13030389
77	0xbe16bd12	-0.14720562
78	0xbe684982	-0.22684291
79	0xbd98a68d	-0.07453642
80	0xbe6114e9	-0.21980633
81	0xbeb7f41e	-0.35928434
82	0xbe02412b	-0.12720172
83	0xbe08c6d8	-0.13357103
84	0xbe98af49	-0.29821232
85	0xbe5c4e2c	-0.21514195
86	0xbe2c59e0	-0.1683116
87	0xbe8b7da2	-0.27244288
88	0xbe267b52	-0.1625798
89	0xbe900be6	-0.28134078
90	0xbe208566	-0.15675887
91	0xbe4cbbee	-0.19993564
92	0xbdf6d13f	-0.12051629
93	0xbe168ec6	-0.14702901
94	0xbe64cfdf	-0.22344922
95	0xbe427a9c	-0.18992084
96	0xbe8b2eb7	-0.27184078
97	0xbe185705	-0.14876945
98	0xbe87608a	-0.2644084
99	0xbe47b08f	-0.19500946
100	0xbe45434e	-0.19263956
101	0xbe2b2290	-0.16712403
102	0xbe7ea1d0	-0.24866414
103	0xbe912d5f	-0.28354928
104	0xbe6cad59	-0.23113002
105	0xbe52a3e9	-0.2057034
106	0xbeb96bf6	-0.3621518
107	0xbdb0ad85	-0.08626846
108	0xbe49c222	-0.19702962
109	0xbe2495dc	-0.16072792
110	0xbe6b7924	-0.2299543
111	0xbe1bed32	-0.15227202
112	0xbcc9ffa7	-0.024658037
113	0xbe01e8a9	-0.12686409
114	0xbe8f2e72	-0.27965122
115	0xbd2e0802	-0.042488106
116	0xbe83335a	-0.25625116
117	0xbe3f4267	-0.18677674
118	0xbe019a57	-0.12656532
119	0xbe22a71d	-0.15884061
120	0xbcb75515	-0.022379437
121	0xbc92f629	-0.017939644
122	0xbeb78b28	-0.35848355
123	0xbe7b188c	-0.24521083
124	0xbdd89efc	-0.10577199
125	0xbe25834b	-0.16163366
126	0xbdf90300	-0.12158775
127	0xbe14859f	-0.14504097
128	0xbea4d48e	-0.32193416
129	0xbe1ffa92	-0.15622929
130	0xbe08bc34	-0.13353044
131	0xbe861621	-0.26188758
132	0xbdb3f879	-0.08787627
133	0xbe427da3	-0.18993239
134	0xbe518a47	-0.20462905
135	0xbec14e7f	-0.377552
136	0xbdebe7b7	-0.115188055
137	0xbe2935a6	-0.16524372
138	0xbe551ec4	-0.20812517
139	0xbe0cfe3d	-0.13768859
140	0xbe894655	-0.26811472
141	0xbe717b25	-0.23582132
142	0xbe8a268f	-0.26982543
143	0xbeb16262	-0.34645373
144	0xbe05f166	-0.13080367
145	0xbe6f82cc	-0.23389739
146	0xbe814c05	-0.2525331
147	0xbe4b667b	-0.19863312
148	0xbe551a45	-0.20810802
149	0xbe11198a	-0.14169899
150	0xbee899a6	-0.45429724
151	0xbe00bd0e	-0.12572119
152	0xbe9fd389	-0.31216076
153	0xbdb7a8a1	-0.0896771
154	0xbe3781ed	-0.17920657
155	0xbe008c8b	-0.12553613
156	0xbbf32d9b	-0.007421208
157	0xbd8048ad	-0.06263862
158	0xbe5c7d16	-0.21532091
159	0xbdd6e3b2	-0.10492648
160	0xbe79d343	-0.24396996
161	0xbec45b09	-0.38350704
162	0xbe183219	-0.1486286
163	0xbe467079	-0.19378842
164	0xbe42929b	-0.19001238
165	0xbed47de4	-0.41502297
166	0xbe194734	-0.14968568
167	0xbdd0d1f2	-0.10196294
168	0xbe1b598c	-0.15170878
169	0xbc31edcd	-0.010859919
170	0xbdeaa0f9	-0.11456484
171	0xbdad7369	-0.08469278
172	0xbe079c26	-0.1324316
173	0xbdc4926d	-0.09598241
174	0xbd706da7	-0.058698323
175	0xbea5dcee	-0.32395118
176	0xbe8e22a0	-0.27760792
177	0xbe8d9569	-0.27653053
178	0xbd4fd5ba	-0.050740935
179	0xbe83e5b4	-0.25761187
180	0xbea50b63	-0.3223525
181	0xbebdb4ee	-0.370521
182	0xbe6fd51f	-0.23421143
183	0xbe607d82	-0.21922877
184	0xbe7f19f7	-0.24912249
185	0xbe3f3a98	-0.18674695
186	0xbdcdae68	-0.10043031
187	0xbde5806f	-0.112061374
188	0xbdf5144c	-0.11966762
189	0xbd9c2264	-0.07623747
190	0xbdf96006	-0.12176518
191	0xbe9dcc13	-0.3081976
192	0xbe3c8881	-0.18411447
193	0xbea39661	-0.31950668
194	0xbe3944cb	-0.18092649
195	0xbe2d6cbf	-0.16936015
196	0xbeba8681	-0.36430743
197	0xbe7ac080	-0.24487495
198	0xbdacb418	-0.08432788
199	0xbdaf8b78	-0.085715234
200	0xbdd2f0ac	-0.10299811
201	0xbe8f7ed7	-0.2802646
202	0xbe8c625e	-0.27418798
203	0xbd9d5cba	-0.07683702
204	0xbd65e340	-0.056124926
205	0xbe212bbf	-0.15739344
206	0xbeaa002a	-0.3320325
207	0xbe378c35	-0.17924578
208	0xbe59a5bd	-0.2125463
209	0xbe6640e7	-0.22485696
210	0xbd61df58	-0.055144638
211	0xbe39d678	-0.1814822
212	0xbe8bec23	-0.27328596
213	0xbe6caf1c	-0.23113674
214	0xbe208f41	-0.15679647
215	0xbe2a57be	-0.16635033
216	0xbe836056	-0.25659436
217	0xbdcd6071	-0.1002816
218	0xbdad56ba	-0.084638074
219	0xbdf1a803	-0.11799624
220	0xbe410b1b	-0.18851893
221	0xbdfeb2f9	-0.1243648
222	0xbe6e8680	-0.23293495
223	0xbeabb744	-0.33538258
224	0xbe1850a0	-0.14874506
225	0xbe63a54d	-0.22231026
226	0xbdfa1e84	-0.12212852
227	0xbe3d2729	-0.1847197
228	0xbe8e580b	-0.27801546
229	0xbe2d819f	-0.16943978
230	0xbe3bbfcf	-0.18334888
231	0xbdf42550	-0.11921179
232	0xbea4864b	-0.32133707
233	0xbeb32f5e	-0.34997076
234	0xbe9574fe	-0.2919082
235	0xbe1b9927	-0.15195142
236	0xbe2b80d6	-0.16748366
237	0xbe7bdb98	-0.24595487
238	0xbe0d6baf	-0.1381061
239	0xbeafccc0	-0.343359
240	0xbd872553	-0.06598916
241	0xbe7b3199	-0.24530639
242	0xbe8b7286	-0.27235812
243	0xbe0fea1c	-0.1405415
244	0xbe6f8736	-0.23391423
245	0xbddabcf6	-0.10680573
246	0xbe7fd674	-0.24984151
247	0xbe816686	-0.25273532
248	0xbe1005c1	-0.14064695
249	0xbe61c06b	-0.22046058
250	0xbea241b4	-0.31690753
251	0xbe1aeafd	-0.15128703
252	0xbded65fe	-0.11591719
253	0xbe1ca7f1	-0.1529844
254	0xbe64793d	-0.22311874
255	0xbe02dff2	-0.12780741

action_model._discrete_distribution.branches.0.weight f4 [4, 256]
0	0x3acccf1f	0.0015625692
1	0xbd89f87c	-0.06736848
2	0xbe39b914	-0.18137008
3	0x3c0aaf18	0.008464597
4	0xbc95afd8	-0.018272325
5	0x3d94bd12	0.07262625
6	0x3c50f1ff	0.012753009
7	0xbe892a53	-0.26790103
8	0x3df0dda0	0.117610216
9	0xbe2959ba	-0.16538134
10	0xbe07afe3	-0.13250689
11	0xbd76eee5	-0.06028642
12	0x3dd78859	0.10524053
13	0xbd130bba	-0.035899855
14	0x3cf362cf	0.029710202
15	0xbd9de617	-0.07709902
16	0xbe6f3dfc	-0.23363489
17	0x3d3c3379	0.045947526
18	0x3db81aed	0.08989511
19	0xbc8d0be1	-0.017217578
20	0xbc966708	-0.018359676
21	0x3c3da92d	0.011575979
22	0xbe25c44f	-0.16188167
23	0xbe1f5284	-0.15558821
24	0xbe3513d5	-0.17683347
25	0x3d25eba7	0.04050794
26	0x3e760db2	0.24028662
27	0xbcb4ac0b	-0.022054693
28	0xbd1c3ed1	-0.038145844
29	0xbd14200f	-0.036163386
30	0xbc9dc227	-0.019257618
31	0x3d5b9f95	0.053618986
32	0x3d9d9245	0.07693914
33	0x3ca42894	0.02003888
34	0xbd86edfd	-0.065883614
35	0xbe2c6538	-0.16835487
36	0x3d8ce35d	0.068793036
37	0x3c188a00	0.0093102455
38	0x3e0c644f	0.1371014
39	0x3d127d13	0.03576381
40	0x3d5b0b90	0.053477824
41	0xbe0039cd	-0.12522049
42	0x3caccf9c	0.02109509
43	0xbc4610f2	-0.012089001
44	0x3d9f0049	0.07763726
45	0xbcae93e8	-0.021310762
46	0x3d51a42d	0.05118196
47	0x3e090c6f	0.1338365
48	0x3ddf9727	0.10917502
49	0xbcfc0cb5	-0.030767778
50	0x3cc4b070	0.024009913
51	0xbe80e2af	-0.25172946
52	0xbe8ac27a	-0.271015
53	0xbe183298	-0.1486305
54	0xbbd5e192	-0.006527134
55	0xbcd5ef23	-0.026115006
56	0x36f240ec	7.21972e-06
57	0xbdde53f1	-0.10855854
58	0x3d7b1bd7	0.061305847
59	0x3df28008	0.11840826
60	0x3dfd08e3	0.12355211
61	0xbd94bd6d	-0.072626926
62	0x3e395833	0.18100052
63	0xbe5145aa	-0.20436731
64	0x3d8bd78e	0.06828223
65	0x3da2e6de	0.07954191
66	0xbe4513df	-0.19245861
67	0x3d8fd74a	0.07023485
68	0x3ddf4ff9	0.109039254
69	0xbd0de8c7	-0.034645822
70	0xba2fc209	-0.00067046337
71	0x3db77e57	0.08959644
72	0x3d48dbe6	0.049037836
73	0x3d711119	0.058854196
74	0xbe0f856b	-0.14015739
75	0xbd1c4692	-0.03815324
76	0x3dfca6a5	0.123364724
77	0x3dcfd138	0.10147327
78	0xbd8fd8c5	-0.070237674
79	0xbd87f8d9	-0.06639261
80	0x3d9bbd42	0.076044574
81	0xbab3686a	-0.0013687734
82	0xbe02f186	-0.12787446
83	0x3e040083	0.1289082
84	0xbb967aa9	-0.004592259
85	0xbe2608bc	-0.1621427
86	0x3cb53780	0.022121191
87	0xbde61ecd	-0.112363435
88	0x3d9bb4be	0.07602833
89	0x3d204506	0.039128326
90	0x3d1cbe89	0.038267646
91	0xbd52d00e	-0.051467948
92	0xbced5c90	-0.028974801
93	0x3e400038	0.18750083
94	0xbc8c8849	-0.01715483
95	0x3d64284a	0.055702485
96	0x3bd59260	0.0065176934
97	0x3e4a323e	0.19745728
98	0xbd00e991	-0.031472746
99	0x3d8c536f	0.06851851
100	0xbe4d58e6	-0.20053443
101	0xbcb777e0	-0.022396028
102	0x3d5696bd	0.05238985
103	0x3c45a8ed	0.012064201
104	0x3e0d7eb2	0.13817862
105	0xbe1c149f	-0.15242241
106	0xbc8e8638	-0.017397985
107	0xbd3aef63	-0.045638453
108	0x3cbf154a	0.023325581
109	0x3dfcb1b4	0.12338582
110	0xbd857d4f	-0.06518041
111	0x3de9cb65	0.114157476
112	0xbc529e29	-0.012855091
113	0x3d84098e	0.06447135
114	0x3bf976f8	0.007613059
115	0x3bdad26f	0.0066779177
116	0x3ddebc42	0.10875751
117	0xbd0f68cc	-0.03501205
118	0x3dd52cac	0.10408911
119	0xbaefb851	-0.0018289183
120	0x3d688034	0.05676289
121	0xbdd2b855	-0.10289065
122	0x3d78ac07	0.060710933
123	0x3c177098	0.009243153
124	0x3d8c7ba7	0.06859522
125	0x3d0ba166	0.03408947
126	0x3e16db35	0.14732058
127	0xbce14e14	-0.02750305
128	0xbde4fb6e	-0.11180769
129	0x3cb32098	0.021866128
130	0x3d2774e0	0.040882945
131	0xbe42df52	-0.19030502
132	0xbdf47619	-0.11936588
133	0xbe033f7f	-0.1281719
134	0xbd9542d6	-0.072881386
135	0x3d252dd7	0.04032692
136	0x3c65b451	0.014020042
137	0x3d9f4431	0.07776678
138	0xbca652f6	-0.02030323
139	0x3dcd2427	0.10016661
140	0xbd204e01	-0.03913689
141	0x3db018eb	0.08598503
142	0xbcff9501	-0.03119898
143	0xbc2a2d40	-0.010386765
144	0x3d1a495f	0.03766763
145	0xbd936763	-0.07197454
146	0x3b8b584c	0.004252469
147	0x3d0b53a1	0.0340153
148	0x3d89e8ba	0.06733842
149	0xbd4825f2	-0.048864312
150	0x3d0f6c77	0.03501555
151	0xbd438d51	-0.04774219
152	0x3d8e2df6	0.0694236
153	0xbdd65b6b	-0.10466655
154	0x3d1ba51a	0.03799925
155	0x3db95d58	0.09051007
156	0x3cf455ed	0.029826129
157	0x3e1e7dc5	0.15477665
158	0xbdb2d47f	-0.08731937
159	0xbdab8d39	-0.083765455
160	0x3d15840d	0.036502887
161	0xbd2efec6	-0.04272344
162	0x3db790f1	0.08963192
163	0xbb02aaf1	-0.0019938315
164	0x3b95c072	0.0045700604
165	0xbd88d34b	-0.06680926
166	0x3e0f9732	0.1402252
167	0xbe076ff6	-0.13226303
168	0xbc6401a2	-0.013916405
169	0x3d459e42	0.04824663
170	0x3da245da	0.079234794
171	0xbd42f6e4	-0.047598734
172	0x3d2c5906	0.042077087
173	0x3ccc3dc6	0.0249318
174	0xbcc2fdc9	-0.023802655
175	0x3c729488	0.01480592
176	0xbd29bad5	-0.041437943
177	0x3d090886	0.033455394
178	0xbceccaf3	-0.028905367
179	0xbe2c8d48	-0.1685077
180	0x3ca74434	0.020418264
181	0x3dd90efc	0.10598561
182	0x3dc9e0c3	0.09857323
183	0x3e3ed436	0.1863564
184	0x3d58bf82	0.05291701
185	0xbd826373	-0.06366625
186	0x3d8e0095	0.06933705
187	0xbde0d355	-0.109778084
188	0x3c874fea	0.016517598
189	0xbe0e6daf	-0.13909028
190	0x3e453a4c	0.1926052
191	0x3c2a8a4e	0.010408951
192	0x3c1bc070	0.00950633
193	0x3d861972	0.06547822
194	0xbe025728	-0.1272856
195	0xbe86e064	-0.2634307
196	0x3d4e7b2c	0.050410435
197	0xbe9afa9c	-0.30269325
198	0x3cda1d11	0.026625188
199	0xbc667d56	-0.014067968
200	0x3d47b42b	0.048755806
201	0x39c4aecc	0.00037514267
202	0x3e3f5ae5	0.18687017
203	0xbd445c41	-0.047939543
204	0x3d142eb4	0.036177352
205	0xbda02c4c	-0.07820949
206	0x3c83c6e7	0.016086055
207	0x3c6c5e99	0.014426851
208	0xbcd2199f	-0.025646983
209	0x3dad3334	0.08457032
210	0x3d19fba2	0.03759349
211	0xb925b817	-0.00015804205
212	0xbde0d83b	-0.10978743
213	0x3e08e200	0.13367462
214	0xbc4bbd9c	-0.012435343
215	0x3de7f0fb	0.1132526
216	0xbcc4794b	-0.023983618
217	0xbd8909a2	-0.066912904
218	0xbd3dce26	-0.046339177
219	0x3ad8eed5	0.001655067
220	0x3ca78468	0.020448878
221	0x3d61f367	0.055163767
222	0xbe72e8ca	-0.23721614
223	0x3bd3b880	0.006461203
224	0xbcbad953	-0.022808706
225	0xbcfd8640	-0.030947804
226	0x3db8707d	0.090058304
227	0x3d8115fd	0.06303022
228	0x3bbf7322	0.0058425823
229	0xbc0c3259	-0.008556926
230	0x3e182fc4	0.14861971
231	0x3deb8105	0.11499218
232	0xbcc9b851	-0.024624022
233	0xbdd6b805	-0.10484318
234	0xbe1f14a7	-0.15535222
235	0xbc24ba28	-0.010054149
236	0xbbfefeae	-0.007781825
237	0x3c42e982	0.011896493
238	0xbe016026	-0.12634334
239	0xbce1f3df	-0.027582107
240	0xbb62d6a2	-0.0034612794
241	0xbdeba384	-0.115057975
242	0xbdac1bcd	-0.0840374
243	0x3e729e2f	0.23693155
244	0x3cfca01a	0.030838061
245	0x3e06f883	0.13180737
246	0xbd8d7110	-0.069063306
247	0xbd851b4d	-0.06499348
248	0x3bc851be	0.00611326
249	0xbe58214b	-0.2110645
250	0x3d191d10	0.03738123
251	0x3c03e5da	0.008050406
252	0xbcef8f2a	-0.02924307
253	0x3e240c94	0.16020423
254	0x3e12c1f1	0.14331795
255	0x3e1d994c	0.1539051

action_model._discrete_distribution.branches.0.bias f4 [4]
0	0x3e307e07	0.17235576
1	0xbe7924aa	-0.24330392
2	0xbe452d6b	-0.19255607
3	0x3e771d5d	0.24132295

action_model._discrete_distribution.branches.1.weight f4 [3, 256]
0	0x3c61fa49	0.013792583
1	0xbd168d2d	-0.03675573
2	0xbda63b8f	-0.08116829
3	0x3c83c13f	0.016083358
4	0x3ba42177	0.005008872
5	0xbe16c896	-0.14724955
6	0xbd8dd264	-0.069248945
7	0xbe340096	-0.17578349
8	0xbbbe5f19	-0.0058096764
9	0xbd9e5b9e	-0.07732318
10	0xbda068b9	-0.07832474
11	0xbcdc2eeb	-0.026877841
12	0x3d82f2d5	0.06393973
13	0xbd2830bd	-0.041062105
14	0x3d81dde5	0.06341151
15	0x3ce083ae	0.02740654
16	0xbe4ddf79	-0.2010478
17	0x3e903a29	0.28169373
18	0xbd9659da	-0.073413566
19	0x3dfac8e1	0.12245346
20	0x3d041b35	0.03225251
21	0xbbe074cb	-0.0068498603
22	0xbe36df37	-0.17858587
23	0x3c2cbd56	0.010543188
24	0xbd0f098b	-0.03492121
25	0xbd07f9a8	-0.033197075
26	0xbe0385f3	-0.12844066
27	0x3d82a0da	0.06378336
28	0x3c246c93	0.010035652
29	0xbc256a03	-0.010096076
30	0x3e4c7c7d	0.19969364
31	0x3e15fc27	0.1464697
32	0xbde1f87b	-0.11033722
33	0xbc13cbbd	-0.009020743
34	0x3e24b1b7	0.16083418
35	0x3e1b1b29	0.1514708
36	0xbd828eaa	-0.06374867
37	0x3c325f8a	0.010887036
38	0x3d2de61e	0.042455785
39	0x3dd962f5	0.10614578
40	0xbd22f71e	-0.03978645
41	0xbdb9281f	-0.090408556
42	0xbe137f02	-0.14403918
43	0x3d0c0566	0.034184836
44	0xbd7d8c45	-0.06190135
45	0x3d09830b	0.033572238
46	0x3726bb55	9.937988e-06
47	0x3dcca2a8	0.09991962
48	0x3d72dbee	0.059291773
49	0x3d9237bc	0.07139537
50	0x3da5e99e	0.081011996
51	0xbe6229aa	-0.22086206
52	0xbe65f090	-0.22455049
53	0xbe0b3782	-0.13595393
54	0x3d5156fa	0.051108338
55	0x3e35e790	0.17764115
56	0x3dc0963e	0.094036564
57	0x3e13e125	0.14441355
58	0x3d6bca2a	0.057565846
59	0xbdc31f4a	-0.09527452
60	0x3dbb0804	0.09132388
61	0x3c84f16b	0.016228398
62	0x3e04c0ea	0.12964216
63	0xbe8ece30	-0.27891684
64	0xbd08ea0c	-0.03342633
65	0x3da49332	0.08035888
66	0x3cc8aa25	0.024495194
67	0x3bc0c333	0.0058826446
68	0xbcc3089d	-0.023807818
69	0x3b50b656	0.0031846962
70	0x3ce2173a	0.027598966
71	0xbc0c792e	-0.008573813
72	0x3c62e197	0.01384773
73	0xbdbfa6f3	-0.09358015
74	0xbdabbf18	-0.083860576
75	0x3d29c034	0.041443065
76	0x3cf48f92	0.029853616
77	0xbd29e920	-0.04148209
78	0xbd6f0889	-0.05835775
79	0xbadea0ea	-0.0016985212
80	0x3d59f793	0.05321462
81	0xbd56651f	-0.05234253
82	0x3b1c89ac	0.002388577
83	0x3e276aee	0.16349384
84	0x3d78de0d	0.06075864
85	0xbcc7ba6a	-0.024380881
86	0xbcf35ff3	-0.029708838
87	0xbc87fd7c	-0.016600363
88	0x3e0ec09c	0.13940662
89	0x3da60aa4	0.08107498
90	0xbb26b901	-0.002543986
91	0x3d022b64	0.03177966
92	0xbdce8304	-0.10083583
93	0xbaa0c370	-0.0012265276
94	0x3cc151a8	0.023598507
95	0x3e0f4afe	0.13993451
96	0xbd6befdd	-0.0576018
97	0x3d8dfc20	0.06932855
98	0x3e1d7652	0.15377167
99	0x3daccb0a	0.08437164
100	0xbdb74a87	-0.08949762
101	0xbb717fe8	-0.003684992
102	0x3e0fefa3	0.14056258
103	0xbd8d2dac	-0.06893477
104	0x3e05d288	0.13068593
105	0xbe7d4004	-0.24731451
106	0x3c8b67dd	0.0170173
107	0x3e0e4edb	0.13897268
108	0x3deb3c94	0.11486164
109	0xbde711cc	-0.11282691
110	0x3d2d24ec	0.04227154
111	0x3ccc937b	0.024972668
112	0xbdb68913	-0.089128636
113	0x3acc528f	0.0015588569
114	0xbd87f260	-0.06638026
115	0xbdaa3299	-0.08310432
116	0x3df65d3e	0.12029503
117	0x3d88de30	0.06683004
118	0x3d158a23	0.03650869
119	0x3ddd003d	0.10791061
120	0x3d86b698	0.06577796
121	0x3dde02dd	0.1084039
122	0x3cbb60b5	0.022873262
123	0xbdb5a4b8	-0.08869308
124	0xbcbec924	-0.02328927
125	0xbd20a090	-0.039215624
126	0x3e01b0be	0.12665078
127	0xbd66621a	-0.0562459
128	0xbc4bed9d	-0.012446788
129	0x3dc72c62	0.09725262
130	0x3c7537af	0.014966889
131	0xbdc6fe7d	-0.097165085
132	0xbdf0c419	-0.11756153
133	0x3db56b78	0.08858389
134	0x3d28fca0	0.041256547
135	0xbc1e7bea	-0.009673098
136	0x3cfacdac	0.03061565
137	0x3c6f4e21	0.01460603
138	0xbd0f9d74	-0.03506227
139	0x3d90b654	0.07066026
140	0x3d0f41b1	0.034974758
141	0x3cec4353	0.028840696
142	0x3de26cba	0.11055894
143	0xbcde3479	-0.02712463
144	0xbd9d1248	-0.076695025
145	0xbd98ef07	-0.07467466
146	0x3b45a748	0.0030159522
147	0xbe137ef9	-0.14403905
148	0x3dd2d8b1	0.10295237
149	0xbcf4e274	-0.029893138
150	0xbdd0c465	-0.10193709
151	0xbce4a571	-0.02791092
152	0x3d07d99c	0.033166513
153	0x3cfa5a5a	0.030560661
154	0x3c230fcc	0.009952497
155	0xbbbd4472	-0.0057759816
156	0xbc70158d	-0.014653576
157	0x3d8a7d37	0.06762164
158	0x3d530acf	0.05152398
159	0x3e19db8b	0.15025155
160	0xbc1b3f9c	-0.009475615
161	0xbce8f382	-0.028436426
162	0xbcaec618	-0.021334693
163	0x3df580a5	0.119874276
164	0x3bdfbd4d	0.0068279863
165	0xbd1af0a4	-0.03782715
166	0x3d12d705	0.03584959
167	0x3cd0187a	0.025402296
168	0x3cd9d6e9	0.026591735
169	0x3d50edb2	0.051007934
170	0x3d896651	0.067089684
171	0xbc6422c9	-0.013924309
172	0x3d87dd1f	0.066339724
173	0x3cdcef3d	0.026969546
174	0x3e0509aa	0.12991968
175	0x3d55f8c3	0.05223919
176	0x3bcc986e	0.006243757
177	0x3d1fe29e	0.03903448
178	0x3d07e603	0.03317834
179	0xbd216bf9	-0.03940961
180	0x3d8d83f7	0.06909936
181	0x3c9eb553	0.019373572
182	0x3e3ceb53	0.18449144
183	0xbd327cb7	-0.04357597
184	0x3ddfd4d5	0.10929266
185	0xbaa63c36	-0.0012682739
186	0x3c0addac	0.008475702
187	0xbc60c76e	-0.013719423
188	0x3d8d044a	0.06885584
189	0xbc861f69	-0.0163724
190	0x3b825b63	0.0039781793
191	0x3c134ead	0.008990926
192	0x3db63f72	0.0889882
193	0x3b9bfda2	0.00476046
194	0x3d91cd21	0.07119203
195	0xbe240c80	-0.16020393
196	0x3d093566	0.03349819
197	0xbe520530	-0.20509791
198	0xbded14c1	-0.11576224
199	0xbb9ad663	-0.004725264
200	0xbd183e98	-0.03716907
201	0xbe0f267f	-0.13979529
202	0xbd1dfc57	-0.03857073
203	0x3e0195ea	0.12654844
204	0xbd6e0767	-0.05811253
205	0x3c7f025a	0.0155645255
206	0xbd8a1c22	-0.06743647
207	0xbd8e3662	-0.069439664
208	0xbe11a2c7	-0.14222251
209	0xbd175e31	-0.036955062
210	0xbc85a302	-0.01631308
211	0x3d50c4a9	0.0509688
212	0x3d253f18	0.040343374
213	0xba25779b	-0.0006312073
214	0x3c87e7bd	0.016589994
215	0xbd906a84	-0.07051566
216	0x3d9cfea1	0.07665754
217	0x3d945d9b	0.07244416
218	0x3c88978f	0.016673831
219	0xbdd9a948	-0.10627991
220	0xbe16d634	-0.1473015
221	0x3df04b9c	0.11733171
222	0xbe4e239f	-0.20130776
223	0x3ccd2516	0.025042098
224	0x3ca13da9	0.019682722
225	0x3d134e70	0.035963476
226	0x3d65c2ae	0.056093864
227	0x3daa4fc3	0.083159946
228	0x3d26c5a1	0.040715817
229	0xbddc6dce	-0.10763131
230	0x3b83867a	0.0040138336
231	0x3c8a69a7	0.016896082
232	0xbd1b653d	-0.037938345
233	0x3cb9df29	0.022689419
234	0xbe296b39	-0.16544808
235	0xbdef7c38	-0.11693615
236	0xbd3824fa	-0.04495714
237	0x3e030800	0.1279602
238	0x3bcd31d6	0.0062620444
239	0x3c48efe4	0.012264226
240	0xbb912971	-0.004429989
241	0xbdc84e39	-0.09780545
242	0x3c2ca15f	0.010536521
243	0x3e1e8cab	0.15483348
244	0xbcec0e07	-0.028815283
245	0xbcd137b2	-0.025539253
246	0xbbcf40d7	-0.006324868
247	0xbddc8ed0	-0.10769427
248	0x3da75100	0.081697464
249	0xbe59e7ab	-0.2127978
250	0x3d95d54e	0.07316075
251	0xbddd8b58	-0.10817593
252	0xbddfe8ba	-0.10933061
253	0xbcf311f1	-0.029671641
254	0xbe1f8bd8	-0.1558069
255	0xbb91959e	-0.0044428846

action_model._discrete_distribution.branches.1.bias f4 [3]
0	0xbd01684e	-0.031593613
1	0xbb9195cb	-0.0044429055
2	0x3d61a7c4	0.055091634

onnx::Div_88 f4 [35]
0	0x3e1d609f	0.1536889
1	0x39f726a1	0.00047140292
2	0x3e491f5f	0.19640873
3	0x3e7b74a4	0.24556214
4	0x3e011b60	0.12608099
5	0x3e836233	0.25660858
6	0x39772700	0.00023570284
7	0x3e300668	0.17189944
8	0x3e9a9b21	0.3019648
9	0x3e2393a0	0.15974283
10	0x3e8645f1	0.26225236
11	0x39aec359	0.00033333412
12	0x3e37d487	0.17952166
13	0x3e9eb0e7	0.3099434
14	0x3e2354a9	0.15950264
15	0x3eaf1582	0.34196097
16	0x39772700	0.00023570284
17	0x3e43624f	0.1908047
18	0x3ec1d913	0.37860927
19	0x3e7646e0	0.24050474
20	0x3eb3eec9	0.35143116
21	0x39772700	0.00023570284
22	0x3e46cd7e	0.19414327
23	0x3ec67001	0.38757327
24	0x3e56f868	0.20993197
25	0x3ed6d711	0.41960958
26	0x39772700	0.00023570284
27	0x3e37f37e	0.17963979
28	0x3ee115c5	0.4396192
29	0x3e8e2711	0.2776418
30	0x3ebd4f07	0.36974356
31	0x39772700	0.00023570284
32	0x3e4d9395	0.2007583
33	0x3ecf71c9	0.405165
34	0x3e63b7ee	0.22238132

onnx::Div_91 f4 [135]
0	0x3be07c8b	0.006850784
1	0x3e864163	0.2622176
2	0x3eba1feb	0.36352476
3	0x3edcb328	0.43105435
4	0x3e402a84	0.18766218
5	0x3c5e7c7c	0.013579484
6	0x3eee34df	0.46524712
7	0x3eacf503	0.3378068
8	0x3eff3266	0.49843138
9	0x3e8b7491	0.2723737
10	0x3c0849d8	0.008318387
11	0x3eee4b16	0.4654166
12	0x3ea37ee2	0.3193274
13	0x3efe87c1	0.49712947
14	0x3e49c671	0.19704606
15	0x3c6b0e2a	0.014346639
16	0x3efd191f	0.49433228
17	0x3e614bea	0.22001615
18	0x3ef507b2	0.47857434
19	0x3e99e65b	0.3005856
20	0x3c104e92	0.008807795
21	0x3eff5771	0.498714
22	0x3e43186e	0.19052288
23	0x3efb27f3	0.49053916
24	0x3e46f17b	0.19428055
25	0x3c6ae579	0.014336937
26	0x3efa4d9b	0.48887333
27	0x3da4bb87	0.080435805
28	0x3ef8606c	0.48511064
29	0x3e93cda5	0.28867832
30	0x3c0d628c	0.008629452
31	0x3edd5db4	0.43235552
32	0x3da93e14	0.082637936
33	0x3ee2ac22	0.44271952
34	0x3e072415	0.13197358
35	0x39772700	0.00023570284
36	0x3ef89709	0.4855273
37	0x3b8e9dca	0.004352306
38	0x3ef8d6b3	0.48601303
39	0x3e171cda	0.147571
40	0x3b86a806	0.0041093854
41	0x3e240a6c	0.160196
42	0x3c23e1ae	0.010002537
43	0x3e291aaa	0.16514078
44	0x3d7f7b79	0.062373612
45	0x3be12643	0.006871016
46	0x3e8645c6	0.26225108
47	0x3eba2a97	0.36360618
48	0x3edc8a52	0.4307428
49	0x3e3ecbf3	0.18632488
50	0x3c5ec101	0.01359582
51	0x3eee369f	0.46526048
52	0x3eacfd2d	0.33786908
53	0x3eff2dde	0.4983968
54	0x3e8b2092	0.27173287
55	0x3c088fc1	0.008335055
56	0x3eee4e0d	0.46543923
57	0x3ea389d7	0.319411
58	0x3efe845d	0.4971036
59	0x3e489b70	0.19590545
60	0x3c6b7793	0.01437177
61	0x3efd1745	0.49431816
62	0x3e6159e9	0.22006954
63	0x3ef51a1f	0.4787149
64	0x3e99b3f5	0.3002011
65	0x3c109dca	0.008826682
66	0x3eff572c	0.49871194
67	0x3e432c87	0.19059955
68	0x3efb35e7	0.49064562
69	0x3e45d96f	0.19321226
70	0x3c6b3eb0	0.014358208
71	0x3efa4b2b	0.48885474
72	0x3da4c8e2	0.08046128
73	0x3ef8722e	0.48524612
74	0x3e939a86	0.2882883
75	0x3c0da5f1	0.008645521
76	0x3edd60a0	0.43237782
77	0x3da94d0b	0.08266648
78	0x3ee28644	0.44243062
79	0x3e04f6a1	0.12984706
80	0x39772700	0.00023570284
81	0x3ef89890	0.48553896
82	0x3b8e9dca	0.004352306
83	0x3ef8c529	0.4858792
84	0x3e155787	0.1458417
85	0x3b86a805	0.004109385
86	0x3e24138c	0.16023082
87	0x3c23ed52	0.010005312
88	0x3e274497	0.16334759
89	0x3d6a4c86	0.057201885
90	0x3be1cf7c	0.006891189
91	0x3e864a32	0.26228482
92	0x3eba343e	0.36367983
93	0x3edc640a	0.43045074
94	0x3e3d69cd	0.18497391
95	0x3c5efce7	0.013610101
96	0x3eee38d6	0.46527737
97	0x3ead06d6	0.33794278
98	0x3eff2840	0.49835396
99	0x3e8ac7df	0.27105615
100	0x3c08d586	0.008351689
101	0x3eee50fc	0.4654616
102	0x3ea3956f	0.31949946
103	0x3efe8183	0.49708185
104	0x3e477155	0.19476826
105	0x3c6be8d3	0.014398771
106	0x3efd1598	0.49430537
107	0x3e6167c6	0.22012243
108	0x3ef52b3a	0.47884542
109	0x3e997ff1	0.29980424
110	0x3c10fa00	0.008848667
111	0x3eff56b0	0.49870825
112	0x3e434181	0.19067957
113	0x3efb43cf	0.4907517
114	0x3e44c26b	0.1921479
115	0x3c6b9fdb	0.014381374
116	0x3efa4898	0.4888351
117	0x3da4d63a	0.08048673
118	0x3ef882c1	0.48537257
119	0x3e9366b6	0.287893
120	0x3c0df6a6	0.008664763
121	0x3edd6394	0.43240035
122	0x3da95c0b	0.08269509
123	0x3ee25c7b	0.44211182
124	0x3e02c011	0.1276858
125	0x39772700	0.00023570284
126	0x3ef89a1a	0.4855507
127	0x3b8e9dca	0.004352306
128	0x3ef8b2e6	0.4857399
129	0x3e1387eb	0.14407317
130	0x3b86a805	0.004109385
131	0x3e241cee	0.16026661
132	0x3c23f8f6	0.010008087
133	0x3e2573ab	0.16157405
134	0x3d52ecf5	0.05149551

onnx::Div_94 f4 [11]
0	0x39aec2a4	0.00033332885
1	0x3effbbf6	0.4994809
2	0x3ec5da71	0.3864322
3	0x398a7168	0.00026405905
4	0x39772700	0.00023570284
5	0x3eea430b	0.45754275
6	0x3ed7566a	0.42058116
7	0x3e913dc4	0.28367436
8	0x3ecd80ef	0.4013743
9	0x3eb7aeb4	0.35875475
10	0x3e552a92	0.2081702
