Usable_Data/Versuch_4-1.2/PKWParking.onnx (onnx, 882958 bytes, 15 tensors)

discrete_act_size_vector f4 [1, 2]
000000 00 00 80 40 00 00 40 40
       4.0 3.0

network_body.observation_encoder.processors.0.normalizer.running_mean f4 [315]
000000 89 e3 5e 3c 78 d0 36 3e a8 ea 41 3d 23 d2 a7 3d
       0.013604053 0.17852962 0.047342926 0.08194377
000010 21 95 08 3c af a9 2a 3f 3b 05 52 3f 5e aa f6 3b
       0.008336336 0.66665167 0.8203923 0.0075276336
000020 19 f6 1d 3e 9b 82 3f 3d 7a 26 9e 3d 97 b0 26 3c
       0.1542591 0.046755414 0.077221826 0.010173938
000030 f2 78 2e 3f 6c ec 55 3f 4c 08 4e 3c fa 1c 73 3e
       0.681533 0.83563876 0.01257522 0.23741522
000040 91 6c ee 3d 4e dc a4 3d dc 03 07 3c f8 15 06 3f
       0.11641801 0.08049832 0.008240666 0.5237727
000050 79 c6 3a 3f 27 df ca 3b 79 42 2c 3e 52 ab 87 3d
       0.72959095 0.0061911526 0.16822232 0.06624474
000060 37 83 90 3d 93 71 06 3c 51 f1 27 3f 21 ee 50 3f
       0.07056277 0.008205789 0.65602595 0.81613356
000070 3c c0 58 3c e6 4f 76 3e e7 17 21 3e 14 a5 bc 3d
       0.013229426 0.24053916 0.15731774 0.09211174
000080 bd 30 5a 3c 9c 62 e8 3e e9 a8 33 3f 0e 5d d4 3b
       0.013317284 0.45387733 0.7017961 0.0064808195
000090 bf 32 68 3e a7 66 9e 3d 61 22 f9 3d de 88 b6 3b
       0.22675608 0.07734423 0.121647604 0.005570515
0000a0 a3 56 05 3f 60 5e 43 3f e8 46 30 3c d5 61 8b 3e
       0.5208532 0.7631588 0.010759093 0.27223077
0000b0 e1 a1 3c 3e 03 9b cb 3d 88 a3 fa 3b 4f 77 c0 3e
       0.18421127 0.099416755 0.007648889 0.37591025
0000c0 a6 0e 32 3f c7 62 cb 3b e2 bd 86 3e 34 c9 b5 3d
       0.695536 0.0062068435 0.26316744 0.08876267
0000d0 c5 8b 0f 3e 82 dc 82 3b c7 af e7 3e 8c ce 3c 3f
       0.14018162 0.0039935717 0.45251295 0.73752666
0000e0 db d9 13 3c b2 91 8b 3e 81 b7 4d 3e 56 c7 e6 3d
       0.009024109 0.27259594 0.20089532 0.11268489
0000f0 9c 1d 22 3b 54 84 b2 3e 5b 51 33 3f 38 87 ad 3b
       0.0024736887 0.34866583 0.70046014 0.0052956603
000100 67 fb 90 3e 47 19 be 3d 5d a8 b1 3d 1e 1a c3 3a
       0.28316805 0.09282165 0.08674691 0.0014885103
000110 3b 13 fe 3e a5 ba 46 3f 3d 12 ef 3b 69 17 80 3e
       0.49624047 0.77628547 0.0072958753 0.2501786
000120 f4 fa 34 3e b5 2b 9c 3d 61 0f 7a 3a 17 9a ec 3e
       0.17673856 0.07625524 0.0009539035 0.4621131
000130 46 a8 46 3f 85 1f a0 3a c8 4c 57 3e a1 e0 3d 3d
       0.77600515 0.0012216425 0.21025383 0.0463568
000140 28 ec 8d 3d 58 b4 1a 3a 97 f1 22 3f 4c 09 53 3f
       0.06929809 0.0005901507 0.63649887 0.8243606
000150 12 00 31 3b e0 0c 3b 3e ac aa 03 3d 23 ae 44 3d
       0.0027008099 0.1826663 0.032145187 0.048017632
000160 f2 f1 cc 39 da 4a 34 3f 70 45 56 3f 00 00 00 00
       0.00039090175 0.70426714 0.83699703 0.0
000170 d8 29 1c 3e f4 66 03 3c 04 ea 58 3d a0 f6 a2 36
       0.15250337 0.008020151 0.05295755 4.856687e-06
000180 d8 62 40 3f b5 a7 65 3f 84 04 53 38 af f5 fd 3d
       0.75150824 0.89709026 5.0310526e-05 0.12400376
000190 c8 4d df 3b 73 e3 73 3d 8f ae 10 38 50 8a 47 3f
       0.006814692 0.059543084 3.4494846e-05 0.77945423
0001a0 e0 af 6b 3f de fb 5e 3c 1c dc 36 3e 53 01 42 3d
       0.9206524 0.0136098545 0.17857403 0.047364544
0001b0 a8 dd a7 3d c6 a2 08 3c 70 b0 2a 3f 16 0f 52 3f
       0.081965744 0.008339589 0.6667547 0.8205427
0001c0 99 c8 f6 3b 85 ff 1d 3e 20 91 3f 3d 8a 32 9e 3d
       0.0075312373 0.15429504 0.04676926 0.07724483
0001d0 50 c6 26 3c 84 80 2e 3f 87 f6 55 3f a9 1e 4e 3c
       0.010179117 0.6816485 0.83579296 0.012580552
0001e0 e9 27 73 3e 83 7e ee 3d 22 e8 a4 3d e0 12 07 3c
       0.23745693 0.11645224 0.08052088 0.008244246
0001f0 0a 1c 06 3f 3a cf 3a 3f 33 f7 ca 3b 1a 49 2c 3e
       0.52386534 0.7297245 0.006194019 0.16824761
000200 4b b2 87 3d 28 8f 90 3d db 80 06 3c cc f9 27 3f
       0.066258036 0.07058555 0.0082094325 0.65615535
000210 d3 f8 50 3f 75 d7 58 3c 7f 5b 76 3e cc 20 21 3e
       0.81629676 0.013234963 0.2405834 0.15735167
000220 96 b1 bc 3d d0 46 5a 3c 15 6e e8 3e 07 b2 33 3f
       0.09213559 0.013322547 0.45396486 0.70193523
000230 37 76 d4 3b 01 3b 68 3e 71 6d 9e 3d bc 2f f9 3d
       0.006483819 0.22678758 0.07735718 0.12167308
000240 88 99 b6 3b 64 5e 05 3f cf 68 43 3f 2a 5a 30 3c
       0.0055725016 0.52097154 0.763318 0.010763684
000250 11 68 8b 3e a6 ab 3c 3e 50 a3 cb 3d ed c4 fa 3b
       0.27227834 0.18424854 0.09943259 0.00765287
000260 72 82 c0 3e e3 17 32 3f cc 79 cb 3b 99 c2 86 3e
       0.37599522 0.695677 0.0062095877 0.2632034
000270 69 d0 b5 3d 70 92 0f 3e 1d eb 82 3b a4 be e7 3e
       0.08877642 0.14020705 0.003995313 0.45262635
000280 97 d8 3c 3f 79 ea 13 3c bb 97 8b 3e c8 c1 4d 3e
       0.7376799 0.009028071 0.272642 0.20093453
000290 d1 cf e6 3d e3 3c 22 3b 9e 8f b2 3e f9 5a 33 3f
       0.112701066 0.002475553 0.34875196 0.7006069
0002a0 10 9a ad 3b a4 00 91 3e 70 1f be 3d 3e b1 b1 3d
       0.0052979067 0.283208 0.0928334 0.086763844
0002b0 b3 3f c3 3a e9 22 fe 3e 60 c5 46 3f 6d 2d ef 3b
       0.0014896303 0.4963601 0.7764492 0.0072991163
0002c0 42 1c 80 3e 18 02 35 3e 34 35 9c 3d 45 52 7a 3a
       0.2502156 0.1767658 0.07627335 0.0009549002
0002d0 78 a8 ec 3e 81 b2 46 3f 77 34 a0 3a 63 57 57 3e
       0.4622228 0.77616125 0.0012222667 0.21029429
0002e0 1b e9 3d 3d 2f f7 8d 3d 74 cd 1a 3a a6 f9 22 3f
       0.046364885 0.06931912 0.00059052487 0.63662183
0002f0 7f 13 53 3f f7 12 31 3b 01 16 3b 3e c5 b6 03 3d
       0.82451624 0.002701936 0.18270113 0.032156724
000300 ba ba 44 3d 1b 35 cd 39 ca 53 34 3f 3f 50 56 3f
       0.04802964 0.00039140214 0.7044035 0.83716196
000310 00 00 00 00 51 33 1c 3e d3 72 03 3c b2 f9 58 3d
       0.0 0.1525395 0.008022982 0.052972503
000320 a0 f6 a2 36 fb 6b 40 3f 29 b4 65 3f 84 04 53 38
       4.856687e-06 0.75164765 0.8972803 5.0310526e-05
000330 7d 05 fe 3d c8 6c df 3b 24 f2 73 3d 44 34 11 38
       0.124033906 0.0068183877 0.059557095 3.461937e-05
000340 ca 93 47 3f ae bb 6b 3f 33 14 5f 3c 9e e7 36 3e
       0.77959883 0.9208325 0.013615656 0.17861792
000350 1b 17 42 3d 08 e9 a7 3d 51 b0 08 3c 33 b7 2a 3f
       0.047385316 0.08198744 0.008342818 0.6668579
000360 b7 18 52 3f b3 e6 f6 3b 2b 09 1e 3e 99 9f 3f 3d
       0.8206896 0.0075348257 0.15433185 0.046783064
000370 84 3e 9e 3d dd db 26 3c 48 88 2e 3f c1 00 56 3f
       0.07726768 0.010184255 0.681767 0.835949
000380 f9 34 4e 3c ed 32 73 3e d0 8f ee 3d 4c f3 a4 3d
       0.012585872 0.23749895 0.11648524 0.08054218
000390 15 22 07 3c 3c 22 06 3f db d7 3a 3f 42 0f cb 3b
       0.008247872 0.5239599 0.7298562 0.006196887
0003a0 a8 4f 2c 3e 3a b9 87 3d 42 9b 90 3d 23 90 06 3c
       0.16827261 0.06627126 0.07060863 0.008213076
0003b0 4e 02 28 3f 77 03 51 3f 9d ee 58 3c 2a 67 76 3e
       0.65628517 0.8164591 0.013240484 0.24062791
0003c0 98 29 21 3e fe bd bc 3d 76 5c 5a 3c 5a 79 e8 3e
       0.15738523 0.09215926 0.0133277085 0.45405084
0003d0 3c bb 33 3f 3d 8f d4 3b 42 43 68 3e 5b 74 9e 3d
       0.7020757 0.006486802 0.22681907 0.07737037
0003e0 53 3d f9 3d 59 aa b6 3b 27 66 05 3f 26 73 43 3f
       0.121699 0.0055745062 0.52109 0.7634758
0003f0 79 6d 30 3c 55 6e 8b 3e 6b b5 3c 3e ee ab cb 3d
       0.010768288 0.27232614 0.1842858 0.09944902

network_body.observation_encoder.processors.1.normalizer.running_mean f4 [13]
000000 cd 0a 8a 3c c8 0a 8a 3c ae da 73 3f 73 66 85 be
       0.016850853 0.016850844 0.95255554 -0.26054725
000010 41 f1 81 3d 52 8d e3 3e 00 00 00 00 67 0e 26 3e
       0.06344844 0.44443756 0.0 0.16216432
000020 22 c7 0b 3e 91 26 fb 3d 06 ca 13 3e 1d 7a 05 3b
       0.13650182 0.12263215 0.14432535 0.0020366975
000030 ca 31 2d 3d
       0.04228381

network_body._body_endoder.seq_layers.0.weight f4 [256, 328]
000000 fd 0b 2d bd 76 cb 79 3d 97 a7 80 bc 10 c2 80 3d
       -0.04224776 0.06098505 -0.015704913 0.062870145
000010 56 7e 13 3e 61 25 b4 bd ca b8 c6 bd 8f b1 11 3e
       0.14403662 -0.08796192 -0.097032145 0.1422789
000020 1d a4 3e 3d aa 8f b3 bd 72 fd 42 3e d4 27 bb 3c
       0.04654323 -0.08767636 0.19041994 0.02284614
000030 cc fd a1 bd 40 ce e7 bd 23 37 db 3d 61 b6 a8 3c
       -0.07909736 -0.11318636 0.10703876 0.020594778
000040 67 43 23 bd 2b 42 b0 3e 86 c8 38 3e 6a b4 04 be
       -0.0398592 0.34425482 0.18045244 -0.12959448
000050 b9 19 fa bd 78 37 bc 3d a4 6f 0d 3e fa 7d fb bd
       -0.122119375 0.09190267 0.13812119 -0.122798875
000060 44 38 31 3c 03 f3 0e 3e 7b 38 3c bd 6a d6 b6 bb
       0.010816637 0.13959889 -0.0459523 -0.0055797594
000070 d4 49 80 bc 9e f9 e7 3d 5f 64 da 3c 52 b7 b1 bd
       -0.015660204 0.113269076 0.026659189 -0.08677544
000080 23 83 5e 3d e4 c9 1f 3d 47 8f dd bd 1e 8b 41 3e
       0.05432428 0.039010897 -0.108183436 0.18900725
000090 32 0e 3f bd 25 0b ac 3d 1a 66 a3 bd 8b 95 48 bc
       -0.046644397 0.08400563 -0.07978459 -0.012242685
0000a0 f8 1e 4d 3c 7b 95 d4 3d c1 09 80 3d 2a cc e6 3d
       0.012519591 0.10380074 0.062518604 0.1126941
0000b0 10 4a 11 3c 54 73 ed 3d af b0 e1 3d 60 c9 b1 bd
       0.0088677555 0.11594263 0.11020028 -0.08680987
0000c0 57 ba 69 bd 10 58 d4 3d 2e 68 eb bd 19 7c d5 3c
       -0.057062473 0.10368359 -0.1149448 0.026060151
0000d0 40 f6 2d be 90 4a 3b 3e 45 33 34 3e a2 cc 22 3e
       -0.16988468 0.18290162 0.17597683 0.15898374
0000e0 f8 9a d4 3d 41 07 a5 3d 2a da a4 bd 65 36 1f 3e
       0.103811204 0.08058024 -0.08049424 0.15548094
0000f0 d9 fc 7f bb 43 fe 87 3d f9 95 09 bd 23 51 f7 3d
       -0.003906062 0.066402934 -0.03359029 0.120760225
000100 60 bb 29 be df 31 9e 3e 52 42 c5 3b 10 bf c7 bc
       -0.16575384 0.30897424 0.006019869 -0.024383098
000110 a1 f0 06 3e 77 e1 2b 3d 4d c4 6a 3d 1e 22 ca 3d
       0.1317773 0.041963067 0.057316113 0.098697886
000120 3c 2b b2 3d 91 38 37 3d 69 e3 3a 3e 16 3a 80 3c
       0.086996526 0.04473168 0.18250813 0.015652698
000130 04 38 fe bc a0 39 37 3d 2d bc 6e be 37 22 78 3d
       -0.03103257 0.04473269 -0.23313971 0.060579505
000140 d3 0b 95 bd ea d7 6b 3e 47 10 e0 3c 62 65 44 3c
       -0.07277646 0.23031583 0.027351512 0.011987062
000150 66 ba 45 3e 47 f2 86 3e 01 d4 1c 3c d5 3f 08 3e
       0.19309387 0.26356718 0.00957203 0.133056
000160 84 7e a4 3d 40 ef 5b bd 0e f2 a1 3b 2e 72 0a bd
       0.080319434 -0.053694963 0.0049421852 -0.033800296
000170 a0 f9 22 3d c8 91 2b bc ff 1a 92 bd 96 55 b0 bd
       0.039788842 -0.010471769 -0.07134055 -0.08610074
000180 a1 94 f0 3d 3b b0 63 3e af 9b 28 3e 2b 3f 09 3e
       0.11747099 0.22235195 0.16465639 0.13403003
000190 7e 0d b9 3c d0 ad 15 3e 87 d8 79 3e ba 50 81 bd
       0.022589441 0.14617085 0.24399005 -0.063142255
0001a0 09 ea a7 bd ed 89 59 3c 56 23 0c bc 90 84 56 bd
       -0.081989355 0.013277513 -0.008553347 -0.052372515
0001b0 25 8d f8 3d 2b 6b df 3d 1b 4d d0 bc f7 4d 08 be
       0.12136296 0.109091125 -0.025427392 -0.13310991
0001c0 cf 72 fd 3d 54 f3 35 bd c5 08 da bd cb b5 6c 3e
       0.123754136 -0.04442151 -0.10646204 0.23116224
0001d0 35 f4 be bc 10 4b 09 3b fd 8e 50 3c 2a 31 52 3d
       -0.023309806 0.0020949282 0.012729404 0.051316418
0001e0 26 2d ef 3c 6a ad 1e 3e 60 36 63 3e 34 06 c2 3d
       0.029196333 0.1549584 0.22188711 0.094738394
0001f0 36 35 0e be e3 51 fd bd 4c 7d 16 3e 81 92 ac 3d
       -0.13887486 -0.12369134 0.14696234 0.08426381
000200 7c 77 01 be 96 49 a7 bc 5c 43 3a 3e 5a f6 c1 3b
       -0.12643236 -0.02042083 0.18189758 0.00591926
000210 64 ee c4 3d 45 79 09 3c 65 f4 39 3e 62 cb ed bb
       0.09615782 0.008390729 0.18159635 -0.007256911
000220 eb 7b 4c bc 2a bf d7 3d cc 3e 72 3c 25 fc 04 3d
       -0.012480716 0.105345085 0.01478548 0.032467026
000230 cc 51 62 3e 87 66 23 3d 6d 73 39 3d 16 97 c7 bd
       0.22101516 0.0398927 0.045276094 -0.09745614
000240 ae 70 c0 bc 20 45 f0 3d 8c 2f 60 bd 9e c5 88 3d
       -0.02349123 0.117319345 -0.054732844 0.066783175
000250 17 c5 0c 3e f8 b2 a2 3d 4c 75 3d 3e 03 6a 8b 3c
       0.13747059 0.07944292 0.18501776 0.017018324
000260 b2 1c 32 3d 10 4d 19 be 3c e4 ee 3d 09 ff 93 bd
       0.043484397 -0.14970803 0.11664626 -0.072263785
000270 49 78 31 bd 3a 90 12 be ab 6d 68 3e fc ca 11 3e
       -0.043327603 -0.1431283 0.22698085 0.14237589
000280 9e 99 cc 3d 4c b0 e2 ba 62 5e 80 3c 5b 34 84 bd
       0.09990238 -0.0017294972 0.015670005 -0.064552985
000290 dc 29 90 3d 89 b2 67 3d ba 79 0e 3b 6e 45 fe 3c
       0.07039234 0.05656675 0.0021740035 0.031038966
0002a0 73 a0 f2 3d 19 54 2a bd 8d e8 4d 3e c8 b8 93 bc
       0.118470095 -0.041584108 0.20108242 -0.018032447
0002b0 12 12 0d 3d 48 24 18 3e 15 b1 08 3d d5 83 33 3e
       0.03444106 0.1485759 0.033372004 0.17530759
0002c0 d7 8f 4a bd b5 c8 d7 3d 63 d5 74 3c f3 19 ca 3d
       -0.049453583 0.10536329 0.0149434535 0.09868231
0002d0 31 f2 15 3c cf 16 41 be 44 b0 00 3e 1b 80 8d bc
       0.009151981 -0.18856357 0.1256724 -0.017273
0002e0 c7 80 be 3c 19 3e 4a bc c4 82 81 3e fe 3b 88 3d
       0.023254765 -0.012343907 0.2529508 0.066520676
0002f0 23 b1 08 bb fe 9e 19 3e b2 e3 2d 3e 13 56 40 bd
       -0.0020857535 0.15002057 0.1698139 -0.046957087
000300 df 23 36 3e fc f5 96 3d d7 31 71 be 36 5f 77 bd
       0.17787121 0.073711365 -0.23554169 -0.060393535
000310 f6 fd 0c bc e6 bf 06 bc 0f 09 b6 bb 42 d8 f6 bd
       -0.008605471 -0.008224463 -0.005555279 -0.12052967
000320 55 74 54 bd bd e2 ed 3d 2f 27 6d 3d 6c 5d 56 3d
       -0.051868755 0.116155125 0.057898697 0.052335188
000330 38 ac 8c 3d 28 eb aa 3d 8f 21 05 3e 83 e3 2d 3e
       0.068687856 0.08345634 0.13001083 0.1698132
000340 48 a0 98 3d 45 47 8e bd 75 a1 c6 3d 47 86 97 b9
       0.07452446 -0.06947187 0.09698764 -0.0002890101
000350 64 17 a4 bd a0 12 13 3e ac 1a 33 3d 3b fb 9f 3c
       -0.08012274 0.14362574 0.04372661 0.019528976
000360 b3 a2 82 bd 13 a6 28 3e 01 75 c1 3d 1e 83 09 be
       -0.06378689 0.16469602 0.09446145 -0.13428923
000370 61 c4 8e 3e 8d 82 6d bd 4d aa 0d ba 7d a6 19 3d
       0.278842 -0.05798583 -0.00054041 0.03751229
000380 d4 36 69 3d 74 f0 f2 3d 39 74 b6 3d bc 14 9d 3e
       0.056937054 0.11862269 0.089088865 0.30679882
000390 e9 51 0d 3e cc 3b 74 bd 9a 9a 93 bd 36 c2 fe 3d
       0.13800777 -0.05962734 -0.07207222 0.124393865
0003a0 17 18 00 3e 7a 86 31 bd a6 00 26 3c 66 2b 3c 3e
       0.1250919 -0.043341137 0.010131991 0.1837593
0003b0 96 dc e0 bd 18 35 15 bc d7 ec 7c bd 04 9d fe 3d
       -0.109795734 -0.009106897 -0.061749306 0.12432292
0003c0 f0 e2 c2 3c 2f e5 a3 3c 84 1c 80 3d 5f 68 32 bd
       0.023789853 0.020006744 0.06255439 -0.043556567
0003d0 f4 8f aa 3c 28 fc 83 3e c6 f8 02 bd 01 2e ac 3d
       0.020820595 0.25778317 -0.03197553 0.08407212
0003e0 11 0d 0c 3d b8 a1 9a 3d d8 ee 3d 3d 96 be 4a bd
       0.03419215 0.07550377 0.046370357 -0.049498163
0003f0 e3 03 d9 bc 53 62 45 bd a7 9a 17 3d c7 4b ad 3e
       -0.026491111 -0.048189472 0.037012722 0.33846876

network_body._body_endoder.seq_layers.0.bias f4 [256]
000000 88 c9 0c be da 97 1c be 95 0a 3e bd 1d 2a 8d bd
       -0.13748753 -0.15292302 -0.04639681 -0.06892798
000010 37 f4 e6 bd 14 80 81 b9 1c f8 45 be 8f 79 40 be
       -0.11277049 -0.00024700223 -0.19332927 -0.18796371
000020 0a e1 96 be 68 3d c9 be 3f bb 5e be 60 25 3a be
       -0.29468566 -0.39304662 -0.21751116 -0.1817832
000030 88 a7 bf be 01 fe f9 ba 1a 1a 05 bf 8f bc 50 bd
       -0.37432504 -0.0019072891 -0.5199295 -0.050961073
000040 ec ec bf bd 92 7c 51 be 20 30 15 be 03 a7 95 be
       -0.09371361 -0.20457676 -0.1456914 -0.29228982
000050 b1 0d 96 be 17 85 e4 bd e1 6d a0 be c4 eb 73 be
       -0.2930732 -0.111581974 -0.3133383 -0.23820406
000060 6b ba 7b be f0 52 ad be 6f 6f 68 be 04 5a 23 be
       -0.24582832 -0.3385234 -0.22698759 -0.15952307
000070 87 9c 8f be ca f7 8f be 4d 7d b0 3d 85 95 85 be
       -0.28049108 -0.28118736 0.08617649 -0.26090637
000080 13 87 25 be 3a 02 cc bd 7b 40 0c be bd 19 cf be
       -0.16164808 -0.09961362 -0.13696472 -0.40449324
000090 75 86 a3 be 30 80 77 bd e4 62 2c be 4b 2e ac bd
       -0.3193852 -0.060424984 -0.16834599 -0.08407267
0000a0 2d 20 55 be fd 47 2e 3d 0f cc 5d be 05 7e 58 bc
       -0.20813055 0.042549122 -0.21659873 -0.013213639
0000b0 cd 0e bd bd db 12 08 be 9d d5 1f be 77 7e 8c be
       -0.09231339 -0.13288443 -0.15608831 -0.27440235
0000c0 62 4c 2c 3d 87 67 6e be de e3 c1 be ea d1 17 be
       0.04206503 -0.2328168 -0.3786916 -0.1482617
0000d0 ef 87 89 be 84 d9 7c bd c7 b3 71 be ad 69 72 bd
       -0.26861522 -0.061730877 -0.23603736 -0.05918281
0000e0 5d e5 f1 bd 95 2d 73 be c7 a4 06 3d 80 8c ed bd
       -0.11811326 -0.23747857 0.032871988 -0.11599064
0000f0 79 3b 0d be 0d 2f 33 bd ba 7c 04 3e 8e 16 8f bd
       -0.13792218 -0.043746043 0.12938204 -0.06986724
000100 90 d8 0c be ce 15 0d be 12 60 12 bd 64 7c c2 be
       -0.13754487 -0.13777849 -0.03573615 -0.37985528
000110 35 bb 79 be fb 8a d3 bd 95 df aa be 4e f7 92 bd
       -0.2438782 -0.10329243 -0.33373705 -0.07176076
000120 d8 4b bc bd e8 24 9b bd a3 a8 c1 bd 89 f2 99 be
       -0.091941535 -0.07575399 -0.09455993 -0.30067852
000130 12 7d 93 be 98 69 79 be 39 0b 29 be 11 33 c7 bd
       -0.2880636 -0.24356687 -0.16508187 -0.09726537
000140 73 84 0d bd 02 a7 9f be a4 3a 0e 3e a4 e8 82 bd
       -0.03455014 -0.31182104 0.13889557 -0.06392029
000150 16 db d7 be ca b4 e9 be d7 7e 46 be 42 fb d1 be
       -0.42159337 -0.45645744 -0.19384323 -0.41012007
000160 9a 16 ea bd c4 ef a9 be 78 13 17 be b1 97 ba be
       -0.11430092 -0.3319074 -0.1475352 -0.36443856
000170 50 e3 7a be 87 03 0b be 9b 23 af be ce 6f 04 be
       -0.24500775 -0.13575564 -0.34206852 -0.12933275
000180 87 34 55 3d b7 0b 50 be 6e f8 25 be a5 29 0e be
       0.052052047 -0.20316969 -0.1620805 -0.13883074
000190 3e 24 b1 be cd 6d fc bc 2f 3d 54 bd e9 bc b6 be
       -0.34597963 -0.030814076 -0.05181616 -0.35691002
0001a0 ca 3b bc bd 3a d2 9d bc 27 b8 e4 3c 02 a4 31 3e
       -0.09191091 -0.019265283 0.027919842 0.1734772
0001b0 56 3d c6 bc 00 4c 69 be 46 e7 71 be ea 20 7a be
       -0.02419917 -0.22782898 -0.2362338 -0.24426618
0001c0 f5 26 9f be 60 06 4d be 7d 03 40 be 73 8b 09 be
       -0.3108441 -0.20021963 -0.1875133 -0.13432102
0001d0 78 e3 9b be 29 63 f2 bd c1 28 80 3c a0 6b 4d be
       -0.30446982 -0.118353195 0.015644433 -0.20060587
0001e0 1f 75 1b be e4 94 a2 bd ec 84 27 be bf b0 82 be
       -0.15181397 -0.07938555 -0.163593 -0.25525472
0001f0 e8 a4 78 be 6c ef 7b bd a2 d7 df bd 99 e4 7b bd
       -0.24281657 -0.061507627 -0.109298006 -0.061497305
000200 a3 e4 f9 bd 1c df 2c be 96 79 52 be 05 20 c4 be
       -0.12201812 -0.16881984 -0.20554194 -0.3830568
000210 21 a3 b6 3c 73 b0 74 be 97 ad 0c bd 9f 7a 8e 3d
       0.022294583 -0.23895435 -0.034345236 0.06956982
000220 66 c4 76 be 2b 7a c5 3c 6e ef 4f be 14 cc ce be
       -0.24098358 0.024106106 -0.20306179 -0.40390074
000230 41 7e ae 3d 56 be 13 bf 7d e6 98 be 69 c3 17 be
       0.08520175 -0.57712305 -0.2986335 -0.14820637
000240 aa a9 07 be 28 22 86 bd 7f ea 8d bc 8e 26 c4 bd
       -0.13248315 -0.065494835 -0.01732373 -0.09577666
000250 a0 90 ce bd 79 c6 2e be e9 85 ef bc 0a 40 9e 3b
       -0.10086179 -0.17067899 -0.029238658 0.0048294114
000260 39 79 9e 3b 23 00 8f bd f0 3b 4f be 5c 21 d9 3c
       0.004836228 -0.06982448 -0.20237708 0.026505165
000270 24 fd b2 be 30 37 86 be c3 6b 7d be 97 2d f8 3b
       -0.34958756 -0.2621398 -0.24748139 0.007573794
000280 78 db c6 be b0 79 99 bd 61 46 e3 bc eb 09 1d be
       -0.38839316 -0.07493913 -0.02774352 -0.15335815
000290 47 91 4e bd e8 41 72 be c9 ed 74 be 7b e7 01 be
       -0.050431516 -0.23657954 -0.23918833 -0.12685959
0002a0 49 3d 75 be 04 76 bf be a1 7a 4e 3d 30 3c c3 be
       -0.2394916 -0.37394726 0.050409917 -0.38131857
0002b0 8a 51 84 3d 07 5d e0 bd f6 36 e8 bd ad e0 73 be
       0.06460865 -0.109552436 -0.11338608 -0.23816176
0002c0 c7 e8 04 bf 3c 1d 04 be 3b 68 74 be 88 21 97 be
       -0.5191769 -0.12901777 -0.23867886 -0.2951777
0002d0 7e 4d 1e be b6 a0 cc 3d 2f 9d 8d 3b 93 9f c3 be
       -0.15459248 0.09991591 0.0043217163 -0.38207683
0002e0 d7 7b 32 be 7d 73 f9 ba 62 e7 71 3e 44 18 52 be
       -0.17430054 -0.001903161 0.23623422 -0.20517069
0002f0 22 f1 4d be 8a 40 94 be 5a e1 ad be ad 2b af be
       -0.20111516 -0.2895549 -0.33960992 -0.3421301
000300 50 9d b3 bc 70 7d fe bc 99 4d 98 be 45 2f b9 be
       -0.021925598 -0.031065673 -0.29746702 -0.36168876
000310 2b be 0c be bb 29 0c bf e4 4e 96 bd f7 6f 32 be
       -0.13744418 -0.54751176 -0.07339266 -0.17425524
000320 7e e0 5d be 31 95 20 be c4 30 d4 3c 9f 49 b9 be
       -0.21667668 -0.15681912 0.02590216 -0.3618898
000330 16 1c 08 3c ae fd de be 69 2e 4f be 25 02 59 be
       0.008307477 -0.43552917 -0.20232548 -0.21192224
000340 1c 91 fc bd 6c 20 04 be 1e 9e 3e be 4d f0 11 be
       -0.12332365 -0.12902993 -0.18615004 -0.14251824
000350 b1 d2 89 bc e3 51 92 be a9 2f 3d bd 89 a2 bc bd
       -0.016824098 -0.285781 -0.04618803 -0.092106886
000360 20 58 0c bd 8e 70 64 3d 0c 1e 2a be a9 b8 d3 bd
       -0.03426373 0.055771403 -0.16613024 -0.103379555
000370 23 e8 07 be f5 56 b1 be 67 ae 32 bd d1 6f a7 bd
       -0.13272147 -0.34636655 -0.043623354 -0.08175624
000380 67 d8 16 3e 5f 8a b0 be 5a 0c 46 be d1 0d 63 be
       0.14730988 -0.3448057 -0.19340649 -0.2217324
000390 a2 dd 2e be 34 36 56 be 15 05 78 be d2 af 40 3d
       -0.17076734 -0.20919114 -0.24220689 0.047042675
0003a0 87 5e 43 be 1c 24 d4 be 09 36 b5 bd ea 91 52 bd
       -0.19079028 -0.414338 -0.08848197 -0.051408686
0003b0 6c 65 91 bd 39 aa fa be c6 75 29 be 56 14 68 bc
       -0.07099423 -0.48957995 -0.16548833 -0.014165005
0003c0 b3 64 d9 bd bc bf b2 be fe 3f d6 be 30 04 a9 bd
       -0.1061491 -0.34911907 -0.41845697 -0.08252752
0003d0 cc 7b ea be 10 b9 c5 bd 83 d2 3b be 66 ff 1e bf
       -0.45797575 -0.096544385 -0.18342023 -0.6210846
0003e0 d0 ae d4 be ea 65 9f bd cd f9 05 bf 5a 61 b4 be
       -0.4153962 -0.077831104 -0.5233429 -0.35230523
0003f0 60 9a 25 be 06 b7 9a 3b dc 0a 33 bd ff 1e 44 be
       -0.1617217 0.004721525 -0.04371153 -0.19152449

network_body._body_endoder.seq_layers.2.weight f4 [256, 256]
000000 08 28 fe bc 1f c2 29 3d 4e d6 bb 3d aa 83 03 3e
       -0.031024948 0.041444894 0.09171735 0.12843195
000010 ef ec 39 be b2 e6 0b be 4b f5 d5 3d 51 1a e7 bd
       -0.18156789 -0.13662222 0.104471765 -0.11284316
000020 52 2c 3f be 66 42 43 3d f9 45 a2 3a 14 9e 2e be
       -0.1866925 0.047670744 0.0012380473 -0.1705249
000030 2e 49 88 3d 39 ed 05 be aa 55 1a 3d a8 92 9a be
       0.06654583 -0.13078775 0.037679352 -0.30190015
000040 94 da 05 be b2 3c b8 bd e1 7c fd bd 3f bf 66 bc
       -0.13071662 -0.08995952 -0.123773344 -0.014083683
000050 ac 98 d5 3d b8 6b c2 3d 19 2e 9a 3d fd a6 36 3e
       0.104295105 0.09493202 0.07528324 0.17837138
000060 b6 0e 01 3d f2 7c 2d be ce 60 9b 3d 8a 44 7a 3d
       0.03150817 -0.16942194 0.075868234 0.06110052
000070 1a 13 73 bc 9d c8 22 be 7c 72 ad 3c 61 e3 fd bc
       -0.014836097 -0.1589684 0.021172754 -0.030992212
000080 be ab a8 be 31 30 a0 bd aa 96 0d be 64 85 c9 3c
       -0.3294353 -0.07821692 -0.13827005 0.024599738
000090 b8 cf c7 bc b0 a5 07 3e c7 2f 99 3d 2d 78 a2 be
       -0.02439104 0.13246799 0.07479816 -0.31732312
0000a0 76 53 15 bd c7 4a f0 bc a9 36 d9 3d c4 73 69 bd
       -0.036456548 -0.029332532 0.10606129 -0.05699517
0000b0 22 d5 91 bd 4b ad 58 be 3e 39 5e bb ed a6 7e be
       -0.0712073 -0.21159856 -0.003390863 -0.24868365
0000c0 43 b3 38 3d 44 e9 23 be dc 18 c1 bd cc 2e 9c be
       0.045092832 -0.16006953 -0.0942857 -0.30504453
0000d0 c5 98 10 be a0 20 22 3e cb dc 9e 3d 79 eb 8e 3d
       -0.14120777 0.15832758 0.07756957 0.069785066
0000e0 d4 ef 57 be 29 d4 af bd 6a d2 20 3e 13 dd 18 be
       -0.21087581 -0.08585388 0.15705267 -0.14928083
0000f0 25 f3 82 be 2b b5 68 3d af 29 2f 3e d0 93 d2 bd
       -0.2557613 0.0568134 0.17105745 -0.10282099
000100 b9 79 36 3e 8e 43 93 3d 54 d3 58 bd 21 f7 5d be
       0.17819871 0.071906194 -0.052935913 -0.21676303
000110 5f ef a7 bd 2a fd e2 3d 8b 63 b2 bb 9b 9b 31 3d
       -0.08199953 0.110834435 -0.0054439954 0.043361288
000120 7a 6b 5a 3c 62 89 72 3e 36 6b f2 3c 47 7f a3 bc
       0.0133312885 0.2368522 0.029592138 -0.019958152
000130 92 bb 59 bc c7 ed 67 be c1 28 79 bd 60 ee c8 bc
       -0.013289349 -0.22649299 -0.06082988 -0.024527729
000140 f2 16 33 be 39 61 bc bb c8 70 58 3d c6 8c 6a 3c
       -0.17489222 -0.0057488945 0.05284193 0.01431579
000150 2b 2e e4 bd 31 13 a0 bc 90 bb 72 be 1c f4 10 be
       -0.11141618 -0.019540401 -0.23704362 -0.1415562
000160 71 6d 0a be 93 59 51 bc df 24 7d bc e3 a4 c9 3d
       -0.13518311 -0.012777704 -0.015450685 0.09845903
000170 85 bf 9a bd ac 2b 10 3c c1 82 df bd 49 83 0d 3d
       -0.07556061 0.008799475 -0.10913611 0.03454903
000180 d6 13 a3 bb ea c3 e7 bc cd 32 9d be 88 66 69 bd
       -0.00497673 -0.028291661 -0.3070282 -0.056982547
000190 91 5e 88 bd c7 76 3c be 70 5f cf bd 44 92 9b bc
       -0.06658662 -0.18404685 -0.10125625 -0.018990643
0001a0 a5 61 83 be 8c d9 6d 3d d2 b9 a7 3c 8e 24 3a be
       -0.25660434 0.058068797 0.020474348 -0.18178007
0001b0 f8 73 9b be 78 42 b1 bd a6 b3 07 3e 82 53 68 bd
       -0.30361915 -0.08655256 0.13252124 -0.056720264
0001c0 1f 8b 81 bd 82 d4 06 be d3 4b 9f 3d 19 e1 2b be
       -0.06325363 -0.13167003 0.07778134 -0.16785087
0001d0 a0 82 3b be 69 6f 50 bc 8a 5e b1 3c a3 90 17 3d
       -0.18311548 -0.012721875 0.021651525 0.03700317
0001e0 78 f7 bd be 66 54 91 be d2 34 c1 bd 0e ef ea bd
       -0.37102866 -0.28384703 -0.09433903 -0.11471377
0001f0 e0 c4 a5 bc 4b d0 84 be 6e 40 24 be e8 be cc 3d
       -0.020235479 -0.25940165 -0.16040203 0.0999735
000200 23 9f 2a bd 7c 96 16 3e e8 cb a5 bc b0 6f 8d bd
       -0.04165567 0.14705843 -0.020238832 -0.06906068
000210 61 c9 1b be 97 2c 00 bd 6e 2c 69 be 73 d7 c4 bc
       -0.15213539 -0.031292524 -0.22770855 -0.024028515
000220 96 d4 39 3e 3e 7f 4a 3e 54 6d 15 be f0 17 e6 bd
       0.18147501 0.19775102 -0.14592487 -0.112350345
000230 75 c5 21 be 04 76 aa bd 14 02 07 bc 2e 8b a6 3d
       -0.1579798 -0.08323291 -0.008240242 0.08132015
000240 24 80 f7 bd df c7 1a 3d cd 9f ca 3b f1 54 d7 3d
       -0.12084988 0.03778827 0.0061836005 0.10514248
000250 8e 18 95 3e c2 39 a5 bd 95 bd b4 bd 51 a0 0c 3d
       0.29120296 -0.08067657 -0.088252224 0.034332577
000260 5a e9 da 3d db fb 21 3e 7f 17 6d be 8f 26 e8 3d
       0.106890395 0.15818731 -0.23153494 0.113354795
000270 0c e6 20 be 53 c9 f5 bd 63 a0 24 bd d6 40 79 bd
       -0.15712756 -0.1200129 -0.04019202 -0.060852848
000280 6d 95 f6 bc 5e 50 09 be 73 08 a0 bd f3 0e be 3c
       -0.030100549 -0.13409564 -0.078141116 0.023200488
000290 88 53 38 be c3 26 27 3e 2b d7 27 be e8 a3 4d 3d
       -0.18000615 0.1632338 -0.16390674 0.05020514
0002a0 a6 a6 5e 3a 70 ce 34 3c 84 05 06 be 4b d0 0a be
       0.00084934605 0.011035547 -0.13088042 -0.1355602
0002b0 16 44 ff 3c e2 5b 9d 3b 00 aa c9 be 6a 37 32 bd
       0.031160396 0.004802213 -0.39387512 -0.04350988
0002c0 ce 0d 12 3d 5d e8 6d bc 33 68 cd 3d 8d 60 97 3d
       0.035657696 -0.014520732 0.1002964 0.073914625
0002d0 70 10 ee bd f0 04 24 3d 67 05 be bc 32 c9 a4 3c
       -0.11624229 0.04004377 -0.023195935 0.020115469
0002e0 a1 57 b7 bc da 27 55 3e 1b 6f 84 3d 15 dd b1 3d
       -0.022380652 0.20815983 0.06466504 0.08684746
0002f0 34 ca 22 bc d8 3b ad 3d c1 63 0f bd 4a 96 ac 3d
       -0.009935904 0.0845868 -0.035007242 0.08427103
000300 e1 85 bd bd 91 58 d2 3d 97 15 60 be 19 61 66 be
       -0.09254051 0.10270799 -0.21883236 -0.22497977
000310 d4 22 f0 bd 70 a7 a6 bb 17 1a 65 3d 0c 3c 16 be
       -0.11725393 -0.005085878 0.055933084 -0.14671344
000320 74 19 fa bd c1 41 4e 3e e3 2d 53 be 37 63 21 3c
       -0.12211886 0.2014227 -0.20622973 0.009850315
000330 08 f0 c6 bc fc 30 8a bd 28 dd 47 3c c2 21 f0 3d
       -0.024284378 -0.06747624 0.012198724 0.11725189
000340 95 a1 35 bd ab 0d fc bd 76 8e 83 be 04 d3 e8 3c
       -0.04434355 -0.123072945 -0.25694627 0.028420933
000350 16 f2 cc bd 03 5a 25 3e a9 69 46 be 54 38 f4 bc
       -0.10007112 0.16147618 -0.19376244 -0.029812016
000360 28 78 50 3d 00 8a 13 3e f1 42 c5 3d 9e c7 07 3e
       0.05089584 0.14408112 0.09631909 0.13259742
000370 f1 27 11 3d 77 29 10 3c 54 b0 f8 bd 6b ca 43 3d
       0.03543848 0.0087989485 -0.12143007 0.047800463
000380 2c 4a 1d 3e 77 67 9e 3d b0 8e ab bc 98 15 17 be
       0.15360326 0.07734578 -0.020942062 -0.14754331
000390 2d 1e 59 be 05 1d e1 bc 69 35 1d 3e 71 15 fa bd
       -0.21202917 -0.027479658 0.15352406 -0.12211121
0003a0 91 83 7b 3b 8c 2d ed bd 80 c9 66 bc c4 1d 8a bc
       0.003837798 -0.11580953 -0.014086127 -0.016859896
0003b0 3f 6d ef bd c7 17 fb bd 10 9d 88 bd 40 d0 0b 3e
       -0.11690759 -0.122603945 -0.06670582 0.1365366
0003c0 52 d4 00 be 83 13 44 3d 5e bf 52 bd 2a 03 0d be
       -0.12580994 0.04787017 -0.051452033 -0.13770738
0003d0 40 a2 1a 3d a8 31 2e 3d 79 99 d7 bd 65 35 d9 3c
       0.03775239 0.042527825 -0.105273195 0.026514718
0003e0 67 58 34 bd df 7a dc bd 65 2d c3 3d 35 5c 0d be
       -0.04402962 -0.10765623 0.09530143 -0.13804705
0003f0 5e 40 3e be 6b 70 75 bc 99 e3 4e be be 0c f5 bd
       -0.18579242 -0.014980416 -0.20204009 -0.11965321

network_body._body_endoder.seq_layers.2.bias f4 [256]
000000 33 b8 d5 bd a5 7e d8 bd da fa 6f be 83 3b 46 be
       -0.10435524 -0.105710305 -0.23435536 -0.1935864
000010 7a c0 2d be 4d 5d 0c 3d 91 a5 45 be 27 fd a6 be
       -0.16967955 0.034268666 -0.1930144 -0.32615015
000020 19 0b 33 be 77 0a 62 be 2d ca f3 bd e1 62 38 be
       -0.17484702 -0.22074305 -0.11903796 -0.1800647
000030 5f 4c 03 be a5 ec 29 bd 40 69 1b be 6b df 28 be
       -0.12822102 -0.041485447 -0.15176868 -0.16491477
000040 9a a4 18 be c2 1a 98 bc 28 6d 38 be 7d 99 2c be
       -0.1490654 -0.018567447 -0.1801039 -0.16855426
000050 1b 8a b8 bd 1d be 26 be de 13 7b bd e8 6b 1c 3d
       -0.090107165 -0.1628346 -0.061298244 0.038188845
000060 b5 0e 3f 3c 3f 65 7a bd 35 e6 dc bd 8a 7b 93 bd
       0.011661221 -0.061131712 -0.10786096 -0.072012976
000070 5a eb 81 be c6 85 80 bd 03 e0 03 be b4 9e 4c be
       -0.25374871 -0.06275515 -0.12878422 -0.19982415
000080 de 97 98 bd 2b 43 ae bc d8 13 7c be 6a 2d cd be
       -0.07450841 -0.021272263 -0.24616945 -0.4007371
000090 b9 41 e7 bd 74 d7 4f be a1 30 e5 bd ab 3c 54 be
       -0.112918325 -0.20297033 -0.11190916 -0.20726268
0000a0 42 b3 ee bd 2b 2a 57 bd ff 3e 5e be f9 5c 98 be
       -0.116552845 -0.05253045 -0.21703719 -0.29758433
0000b0 f4 cc 84 bd 2b b0 92 be b1 7a 7a be d8 83 01 bd
       -0.06484404 -0.2865003 -0.24460866 -0.031619877
0000c0 09 4d dd bd 5e 41 79 3e 12 98 6b be d8 f3 c8 3c
       -0.10805709 0.24341342 -0.23007229 0.024530336
0000d0 a5 d1 9b bd 2b 80 3f be a5 7d 96 be f2 ed 2d 3c
       -0.07608346 -0.18701236 -0.29392734 0.010615813
0000e0 4a 93 12 be 11 b5 21 be c0 b6 8e bd dc 06 f8 bd
       -0.14313999 -0.15791728 -0.069684505 -0.12110683
0000f0 13 5d 8b bc 97 fe a7 3c 15 aa 18 be 03 94 44 be
       -0.017012155 0.02050714 -0.14908631 -0.19197087
000100 37 85 3e be 64 4f f5 bd 56 42 d0 3c 96 22 3c be
       -0.18605505 -0.11978033 0.025422256 -0.18372568
000110 ce 5a 47 be c8 a1 8b be 93 9c 09 be 10 79 b5 3b
       -0.19468233 -0.27271867 -0.13438635 0.0055381134
000120 ba 96 83 be f1 7b c8 bd 79 6f b1 bd 3d ab c8 bd
       -0.25700933 -0.09789265 -0.0866384 -0.09798286
000130 3b b2 3a be 54 46 03 be 68 a3 8e bd 85 5c 11 be
       -0.18232052 -0.12819797 -0.06964761 -0.1419545
000140 e6 30 96 3e 19 3d 85 bd ed fd 12 be ef 83 a6 bd
       0.29334182 -0.06505794 -0.14354677 -0.08130633
000150 13 e9 d7 bd 44 82 22 be 0f f1 a4 bd 3e 2a 5a be
       -0.10542502 -0.15870005 -0.08053791 -0.21305177
000160 88 a1 50 be 1f 5b 15 be a6 e7 1f be da ff 15 be
       -0.2037412 -0.14585541 -0.1561571 -0.14648381
000170 f4 92 a4 bc b2 6d 81 3c 33 91 f9 3c 53 7d 60 be
       -0.020089604 0.015799377 0.030464744 -0.21922807
000180 6b cb d4 bd b7 41 4f be 79 26 79 bd 75 52 16 3b
       -0.103903614 -0.20239912 -0.060827706 0.0022937332
000190 10 f5 08 be fe 6a e1 3e 7b 27 da bd 78 e3 93 be
       -0.13374734 0.4402694 -0.106520616 -0.28884482
0001a0 c6 37 54 be 12 20 01 be f6 fc dc bd fb b7 fd bd
       -0.20724401 -0.1260989 -0.10790436 -0.12388607
0001b0 1b 81 7b be f2 77 b1 bd 65 2d 63 bd d6 0f 7a be
       -0.24560969 -0.08665456 -0.055463213 -0.24420103
0001c0 08 55 f1 bd 2d c2 27 be 46 a5 6c be 3f 25 26 be
       -0.117837965 -0.16382666 -0.23109922 -0.16225146
0001d0 dc 3f 34 be 36 47 d7 bd b4 c2 19 be bc d6 a1 be
       -0.17602485 -0.10511629 -0.1501568 -0.31609142
0001e0 9a 74 02 be 9f 90 08 bd b5 58 b4 bd 25 04 3a bc
       -0.12739792 -0.033341046 -0.08805982 -0.011353527
0001f0 a8 14 8a 3d a7 b6 88 bd 7b df 4c be 27 fa 88 be
       0.06742221 -0.06675463 -0.20007126 -0.2675335
000200 ce c5 04 be 1d 8f 34 be 30 fa c7 bd ae bd 2f be
       -0.12966082 -0.17632718 -0.09764516 -0.17162201
000210 d6 5d 68 be 59 43 87 bd d5 2e d9 bd fb b1 88 bd
       -0.22692046 -0.066046424 -0.106046356 -0.06674572
000220 22 f2 f4 bd e5 22 62 be 02 49 6b be 1f 39 c9 bc
       -0.11960246 -0.22083624 -0.22977069 -0.02456337
000230 e8 cb 52 bc 57 3a 25 be 0f ad 73 be 09 eb 93 be
       -0.012865998 -0.16135536 -0.23796485 -0.28890255
000240 64 ee 04 be 6c 12 3c be 90 a2 4c be ef 5e c8 3d
       -0.12981564 -0.18366402 -0.19983888 0.09783732
000250 79 64 89 bd 07 61 40 be a3 c7 29 be 16 a9 07 be
       -0.06708617 -0.18787013 -0.16580062 -0.13248095
000260 d1 0f af 3d cd c6 40 be 1c d9 c8 bd 4a 91 91 be
       0.085479386 -0.18825836 -0.09807035 -0.2843116
000270 01 c0 8b be b2 4b 09 be 7f 2d 6d be c7 08 21 be
       -0.27294925 -0.13407782 -0.23161887 -0.15726005
000280 2c 43 1e be 21 93 3c 3e ab 66 07 be da ac 80 be
       -0.15455312 0.184155 -0.13222758 -0.25131875
000290 3c 45 55 be 95 47 27 be 80 00 1a be ee 95 02 be
       -0.20827192 -0.163359 -0.15039253 -0.12752506
0002a0 c8 7b 7d be 93 4c 90 be 84 af b6 bc c9 ee de bd
       -0.2475425 -0.28183421 -0.02230049 -0.108853884
0002b0 c9 c8 62 bc 62 a3 8a bd 52 fe b5 bd 2e 15 34 be
       -0.013841816 -0.06769444 -0.088863984 -0.17586204
0002c0 83 1d 1c be f0 54 5b be d2 09 8e 3e 6e 91 80 be
       -0.15245633 -0.2141912 0.27741867 -0.25110954
0002d0 62 24 a9 3e 1c f4 68 bd c4 3a 73 bd 38 e3 04 bd
       0.3303557 -0.056873426 -0.059382215 -0.032443255
0002e0 59 ba e7 bd d2 ee 46 be 20 d2 f9 bd 96 01 ad bd
       -0.1131484 -0.1942704 -0.12198281 -0.08447568
0002f0 93 e3 d6 bd cb 3e 4f bd 09 35 4e be 66 ae a6 bd
       -0.10492625 -0.050596993 -0.20137419 -0.081387326
000300 41 c0 4d be 4f 31 5a be 0c 81 33 be d3 57 61 be
       -0.2009287 -0.21307872 -0.17529696 -0.22006159
000310 07 5e 2f be 22 30 04 bc b9 02 e9 bd b9 2b f1 bc
       -0.17125712 -0.008068116 -0.113774724 -0.029439794
000320 4f 00 23 be 8c 33 30 be 63 cc f4 bd 00 5d 40 bd
       -0.15918086 -0.17207164 -0.11953046 -0.04696369
000330 84 bf 71 be bf ad 01 be 51 08 2d be ed ca 3f bd
       -0.23608214 -0.12663935 -0.16897704 -0.046824384
000340 76 b6 c6 bd 0b 42 00 be 1a 85 1d be 58 52 a3 bd
       -0.097027704 -0.12525193 -0.15382805 -0.0797469
000350 1f 78 b8 bd 8c 2e 3f be fc 18 bf bc 3a 26 36 be
       -0.09007286 -0.186701 -0.023327343 -0.1778802
000360 cb 05 3b be aa c3 50 be 83 dc ca bd 37 6a a3 3e
       -0.18263929 -0.2038714 -0.099053405 0.31916973
000370 dc a0 41 be 54 a9 1a be 04 4d 0a be ea 2b 11 3c
       -0.18909019 -0.15103656 -0.13505942 0.008860568
000380 1d 1e 40 be f7 7f 82 be 91 81 6f be fe 9f 84 be
       -0.18761487 -0.25488254 -0.2338927 -0.25903314
000390 94 e5 06 be a6 a2 10 be 2b cc 22 be 56 b3 75 be
       -0.13173515 -0.14124545 -0.15898196 -0.23994192
0003a0 88 0a 5d be 50 d2 07 be 28 0b 82 be 4d df 32 be
       -0.21586049 -0.13263822 -0.25399137 -0.17467995
0003b0 ee 07 59 be 07 fd 2c bd 6a 0d 5e be 98 86 ba bd
       -0.21194431 -0.042233493 -0.21684805 -0.09107703
0003c0 11 9c 8a be 16 0c 5f be 6d fb 72 be b0 78 1c be
       -0.27072194 -0.21781954 -0.23728724 -0.15280414
0003d0 a4 48 31 be 3d c7 79 bd 18 38 36 bd e7 31 43 be
       -0.17312866 -0.060981024 -0.04448709 -0.19062005
0003e0 1e 3d 9c bd 63 3a 82 bd 97 b4 91 be c6 02 40 be
       -0.07628845 -0.06358793 -0.28458092 -0.18751058
0003f0 39 71 91 be 6d cd 52 be b0 1c 86 bd 6c 3f 63 be
       -0.28406695 -0.20586176 -0.065484405 -0.22192162

network_body._body_endoder.seq_layers.4.weight f4 [256, 256]
000000 71 0e be 3d b7 36 34 bd 6a 87 34 3e 4a e4 45 be
       0.09280098 -0.043997493 0.17629781 -0.19325367
000010 30 c5 13 3d 14 c0 c9 3c c4 72 4e 3d 6e c9 43 be
       0.036076725 0.024627723 0.050402418 -0.19119808
000020 8e f7 70 be f8 c8 ad bd e6 82 b9 bd c9 73 cc bd
       -0.23531935 -0.08485597 -0.0905817 -0.09983022
000030 e8 4a 20 be da 91 96 be a5 74 7b 3e 54 38 bf be
       -0.15653574 -0.2940815 0.24556215 -0.37347662
000040 91 34 6b be 3d 82 11 bd 22 02 ac bd 7a 20 df bd
       -0.22969271 -0.035524596 -0.08398844 -0.10894866
000050 1b a1 4d 3e 58 4a bf be 5b 0e 81 be 0c 48 38 be
       0.20080988 -0.37361407 -0.25206265 -0.17996234
000060 06 e9 13 bc ff 41 b8 3d 42 21 81 be 02 d4 4b bc
       -0.009027725 0.08996963 -0.25220686 -0.012440683
000070 6e d2 6b be 35 1c c8 bc 89 0b a6 bd dd 7f cc bd
       -0.23029491 -0.024427513 -0.08107669 -0.099853255
000080 7d ac bf 3d 22 6f 7d be cf 07 22 be 96 98 79 bd
       0.093590714 -0.24749425 -0.15823291 -0.060936533
000090 13 dd 19 be ff 85 1f 3e b7 3c 88 be f1 fd 0d be
       -0.1502574 0.15578459 -0.26608822 -0.13866402
0000a0 a4 92 d3 3b eb e3 bd 3d 66 fd 23 be ab ad f6 bc
       0.00645669 0.092719875 -0.16014633 -0.030112108
0000b0 ca 6a 57 bd 6b 42 28 bd 4e c6 86 be 06 b1 08 be
       -0.052592076 -0.041078966 -0.2632317 -0.13348779
0000c0 b3 72 dc bd 0b 6f 4a 3c 69 35 36 be a4 11 29 be
       -0.10764065 0.012355576 -0.17793812 -0.16510636
0000d0 08 7f 93 be 3f 7e 8b be e9 27 e8 be 32 e5 46 3d
       -0.28807855 -0.27244756 -0.4534295 0.04855842
0000e0 68 8b da bd 36 c7 3e 3e ba 99 0b 3e 12 8a e6 3c
       -0.10671121 0.1863068 0.13632861 0.028142009
0000f0 92 15 89 3b 93 28 09 3d d1 f1 2c be 73 e7 8d bd
       0.0041834796 0.03348596 -0.1688912 -0.06928911
000100 fe fd 43 3e 74 f9 6a 3e 9e 3e c1 3b 52 ef 1f 3e
       0.19139859 0.22946721 0.005897357 0.15618637
000110 bf 81 f8 bd b4 2d bf 3c 1b d7 ae 3c 5e db 19 bd
       -0.12134122 0.023337223 0.021342805 -0.03756272
000120 50 df c5 3d 10 68 76 bd 4a e2 b7 3c 29 62 22 3e
       0.09661734 -0.060157835 0.02244677 0.15857758
000130 2d 65 67 bd 62 d6 3c 3e 8c ef 3e bc 12 33 65 be
       -0.056492973 0.18441156 -0.011653792 -0.22382763
000140 dc aa 59 3d 2a dd b1 bd 9c 29 87 3d cd 72 90 3c
       0.05314146 -0.08684762 0.06599733 0.017632866
000150 3e e5 55 bc 3b 2a 83 be 4b 7d c6 bc ff 20 f4 bd
       -0.013055144 -0.25618157 -0.024229666 -0.11920356
000160 92 69 fc bd 52 9a 44 be 7f a2 c2 bd 06 89 f5 bd
       -0.123248234 -0.19199494 -0.0950365 -0.11989026
000170 5a 31 85 be ca e5 66 be fc f0 0d be 38 1d 59 be
       -0.26014215 -0.22548595 -0.1386146 -0.21202552
000180 f7 c9 92 3d 97 ff 37 be 83 16 09 3e 10 c1 a2 3b
       0.07167428 -0.17968594 0.13387494 0.0049668625
000190 06 6a 63 bd d7 db 43 bd 59 95 93 be a9 35 04 3c
       -0.055521034 -0.047817077 -0.2882488 0.008069434
0001a0 d5 75 f8 bd fd 16 c6 be 1a 47 16 be 2d e8 67 3c
       -0.1213185 -0.38689414 -0.1467556 0.014154476
0001b0 69 e5 86 bd ea d2 d7 3c 61 81 8a bd 5f d7 82 be
       -0.06586725 0.026345689 -0.06762958 -0.2555494
0001c0 c0 e6 15 3e 7e bc ad be ac df 01 3b b0 5d f2 bd
       0.14638805 -0.3393287 0.0019817157 -0.11834276
0001d0 60 0d 53 3d 3f 56 3d bd 05 f1 56 3e 3b 24 ae bd
       0.051526427 -0.04622483 0.20990379 -0.08503004
0001e0 93 42 41 be f2 7c f3 be a1 12 e7 3d 7a d7 06 3d
       -0.18873052 -0.47556263 0.1128285 0.03292034
0001f0 0c b0 97 bc fb 14 03 be 14 2f 82 be f8 b8 2a bc
       -0.018516563 -0.12800972 -0.25426543 -0.010420077
000200 14 08 cd be 68 a2 aa bd 53 bd a3 be 22 08 64 bd
       -0.40045226 -0.08331758 -0.3198038 -0.05567182
000210 b6 54 9a bd c6 77 7d 3c 42 20 10 bc 8b 94 17 bd
       -0.075356886 0.015470451 -0.008796753 -0.037006896
000220 90 cd 6d be c9 cb 80 bd e7 a8 3b 3e 0f 40 16 3d
       -0.23222947 -0.06288869 0.1832615 0.036682185
000230 2e ee 18 3e e3 ba 25 be 6f 15 61 be c1 6e 7e bd
       0.14934608 -0.16184573 -0.21980833 -0.062117342
000240 c1 6a 86 3d d6 ee 9a bd e7 bd cd bd b5 24 00 3e
       0.065633304 -0.075650856 -0.100459866 0.12514003
000250 70 d1 17 bd 62 ec cb bc 1c 0b 7e 3d ca dc ca 3c
       -0.03706497 -0.02489299 0.062022313 0.024763484
000260 da 27 19 3d 42 84 31 bd 57 65 74 be 00 5a c1 3d
       0.03739152 -0.04333902 -0.23866783 0.09440994
000270 6c 36 f8 bd 4e 87 95 bd f8 ee 09 be bc 2a 33 bc
       -0.12119755 -0.07301198 -0.13470066 -0.010935482
000280 40 66 1b bd 51 3a 82 3c a6 0d 73 be 20 e9 1d be
       -0.03793931 0.015896948 -0.23735675 -0.15420961
000290 fd c9 69 3d 2e 45 37 be f9 4c 9c 3d 3b 67 4b be
       0.057077397 -0.17897484 0.07631869 -0.19863598
0002a0 22 eb 0b be 86 a8 a8 be d7 b7 68 3d 48 b0 d4 be
       -0.13663915 -0.32941073 0.05681595 -0.41540742
0002b0 6c eb 29 bd 8e 1c 82 bd cb cf 91 3d 9f f6 68 be
       -0.04148428 -0.063531026 0.071197115 -0.22750328
0002c0 45 40 42 bd 37 90 45 be e6 9d 03 be 30 09 4e be
       -0.047424573 -0.19293295 -0.12853202 -0.20120692
0002d0 d6 93 e0 3b 7c 48 1e be ad 5e 34 be c9 e9 de bd
       0.006853561 -0.15457338 -0.17614241 -0.10884435
0002e0 26 28 37 bd d2 8a 2c be bd 3a c3 ba 6c 27 49 3d
       -0.044716023 -0.16849831 -0.0014894825 0.04910986
0002f0 e2 c9 33 be d7 db ee 3c 48 7c 71 be 31 de 42 bd
       -0.17557481 0.029157562 -0.23582566 -0.04757518
000300 d7 2f 91 be 82 9d 16 bd 37 c1 ab 3d 22 c5 06 be
       -0.2835681 -0.036771305 0.08386462 -0.13161138
000310 57 2b 00 3e 43 15 86 be 23 4a c9 bc b4 a3 ba 3c
       0.12516533 -0.26188096 -0.024571484 0.022783138
000320 12 81 04 bd ba d5 4f be fe 32 aa bd 1b f9 21 bc
       -0.032349654 -0.20296374 -0.08310507 -0.0098860515
000330 4a 8b 22 bd bf 1c 7e be 4d 75 3d 3e 9f 43 96 be
       -0.039683618 -0.24815653 0.18501778 -0.29348466
000340 65 7a 2d bd e3 ae c5 3d 69 50 e9 bc 9b ef d8 bd
       -0.042353053 0.096524976 -0.028480725 -0.10592576
000350 2a 3f e7 3d 3d b0 a3 bc ed 63 ba 3d ab 70 ac be
       0.112913445 -0.019981498 0.091010906 -0.3367971
000360 71 a9 02 be 0b 0a cc be 4f 19 48 be c4 93 ff 3c
       -0.1275995 -0.39851412 -0.19540904 0.03119839
000370 1c 04 e7 bc 5b 60 e4 bd b1 3a d7 bd 94 18 f9 3d
       -0.028200202 -0.11151191 -0.10509241 0.12162891
000380 45 bf e6 bd 8e f6 94 bd 34 54 48 be eb 40 bb bd
       -0.112669505 -0.07273589 -0.19563371 -0.091432415
000390 20 98 52 be 3f de b3 bd 8b 35 eb bd e8 97 13 3e
       -0.20565844 -0.087826245 -0.11484822 0.14413416
0003a0 92 ec 3e be d0 b0 2b 3e d1 27 17 be 45 68 ca 3c
       -0.18644932 0.16766667 -0.14761283 0.024707923
0003b0 57 47 3c 3d 0b 86 5c bd 8f 97 6c be 24 87 e8 3d
       0.045966472 -0.05383877 -0.2310469 0.11353901
0003c0 31 6e 20 bd e5 a5 fa bd 19 92 2b be 16 8a 2f be
       -0.039167587 -0.12238673 -0.1675495 -0.1714252
0003d0 f2 8b fb 3b dd f5 81 be 21 0d 4e be b9 71 73 3d
       0.007676595 -0.2538289 -0.20122196 0.059434626
0003e0 a6 ef 43 be 1e 40 97 3e 5c fc 79 bc 33 bc 56 be
       -0.19134387 0.29541105 -0.015257921 -0.2097023
0003f0 51 ba 18 bd 9f dc 9c be e4 29 0a bd e5 43 52 be
       -0.03728706 -0.3063707 -0.033731356 -0.20533712

network_body._body_endoder.seq_layers.4.bias f4 [256]
000000 f6 5e 1e 3d 9d 36 4d be 16 8d 3c be 1c 0a 18 be
       0.03866478 -0.20040365 -0.18413195 -0.14847606
000010 cf 65 6c be 9b 1a bc be 35 d3 c4 be 5b d7 92 be
       -0.23085712 -0.36739048 -0.38442388 -0.28679928
000020 07 df 80 be 8e ca 20 be 2c 1c 8e be a4 dc 2f be
       -0.25170156 -0.15702268 -0.27755868 -0.17174011
000030 9d 5e 6d be a9 85 1b be c4 74 96 bd e0 ab d6 be
       -0.23180623 -0.15187706 -0.0734649 -0.41928005
000040 5a 8e ed bd 77 53 56 be fc 5d 64 be 6b ef d5 bd
       -0.11599417 -0.20930277 -0.22301477 -0.10446056
000050 18 a2 13 bd cb 3e 69 be 3b cb d9 3c 67 43 c8 bd
       -0.036043257 -0.2277786 0.026586166 -0.09778481
000060 fd 25 44 bb 98 2c 4d be 6a ec 75 be a1 b4 ec 3a
       -0.002992987 -0.20036542 -0.24015966 0.0018059203
000070 86 bd 0b be ef fd 85 be b2 b8 a0 be a7 65 57 be
       -0.13646516 -0.26170298 -0.3139091 -0.21034871
000080 f7 f0 e8 bd fa 99 83 be c2 c5 0d be 6c 09 9c 3c
       -0.113740854 -0.25703412 -0.1384497 0.019047461
000090 b1 31 bd bd 7e ba ac bd 6d 0f 3c be b0 b2 4c be
       -0.092379935 -0.08434008 -0.1836526 -0.19990039
0000a0 af 7d cd 3d 2a b6 9e be 8d 24 3a bd 1b 83 47 be
       0.10033738 -0.30998355 -0.045445014 -0.19483607
0000b0 fc 7a e6 bd 38 57 6b be cc a3 06 be 3b f1 87 be
       -0.11253926 -0.2298249 -0.13148421 -0.26551232
0000c0 8a 2f 86 be df bc 97 be 47 bc c2 be 14 36 3d be
       -0.26208144 -0.29636285 -0.3803427 -0.1847766
0000d0 0d e0 99 be bc 17 0b be 5d 93 84 be 95 54 ca bd
       -0.3005375 -0.13583273 -0.2589368 -0.09879414
0000e0 53 79 55 be 09 bf ec bd 5b 11 cd be af 5f ff bd
       -0.20847063 -0.115598746 -0.40052304 -0.12469422
0000f0 9e 67 53 be c3 0b 44 be a5 06 08 be eb 48 d7 bd
       -0.20644996 -0.19145112 -0.13283785 -0.10511955
000100 0f af 28 be 5d 23 cb bd 4c f7 9e 3c 6e 8b 97 be
       -0.1647303 -0.099188544 0.01940503 -0.29598564
000110 a5 2c b3 be 16 06 34 3d 4f 03 85 be d6 88 4b be
       -0.34995 0.043951117 -0.25979087 -0.19876418
000120 7b 67 b1 be 2f 03 fb 3c b1 dd c1 bc a2 c9 a0 be
       -0.34649262 0.030641166 -0.023665281 -0.31403834
000130 55 42 f7 bd cd cb 70 be 5a 3a e8 bd ff 4b af be
       -0.12073199 -0.23515244 -0.11339255 -0.34237668
000140 d2 39 02 be 93 e7 96 bd ed 22 10 be b2 8c a3 bd
       -0.12717369 -0.07368388 -0.14075823 -0.0798582
000150 83 23 a1 be a6 b6 6f be 68 f5 0a be ec 17 7c be
       -0.31472406 -0.23409519 -0.13570178 -0.246185
000160 ca 1c 17 be ca 68 8d bc 7d 90 c5 bd 2f fb 35 be
       -0.14757076 -0.017261881 -0.096466996 -0.177716
000170 c6 3f cf be 99 70 a2 be 91 35 9a 3b 65 7c af bc
       -0.40478343 -0.3172653 0.0047060926 -0.02142162
000180 cf 3a f7 bd 54 a3 02 be 3d 19 0f be cf 1e be be
       -0.12071764 -0.12757617 -0.13974471 -0.3713288
000190 67 54 3f bd d7 e1 75 be b7 a6 53 be b5 0a 7e bd
       -0.04671135 -0.24011932 -0.20669065 -0.06202193
0001a0 ee e9 5c be b6 4a 0e 3d 58 2a 53 be 0e 56 a1 be
       -0.21573612 0.03473922 -0.20621622 -0.31510967
0001b0 af 8f 2d be 77 17 a0 be ce de 75 be 14 e3 b9 be
       -0.16949342 -0.31267902 -0.24010774 -0.3630606
0001c0 57 3c b0 be 86 ab be bd 71 35 8e be 00 09 ef bd
       -0.34421036 -0.09310059 -0.27775148 -0.116716385
0001d0 1c 9b 02 be 8c 96 20 be 12 a2 5d be 84 9b 3b be
       -0.12754482 -0.15682429 -0.21643856 -0.18321043
0001e0 6b 13 eb bd 46 5c 6b be 4b 38 91 bd 88 16 e1 bd
       -0.11478313 -0.22984418 -0.07090815 -0.109906256
0001f0 ea ec 8c be 79 fc 28 be ce 53 95 be 0d 21 21 bd
       -0.275245 -0.1650256 -0.291655 -0.03933816
000200 ba 79 a0 bd e0 6e 35 bd 30 34 37 bd 78 cb 91 bd
       -0.078357175 -0.04429519 -0.044727504 -0.07118887
000210 55 82 06 be 94 ee 86 be 12 a8 80 bd c6 4c e0 3b
       -0.13135655 -0.26353896 -0.06282057 0.0068450896
000220 f6 9d 97 be 6d 88 d3 bd fb 9d d6 bd 83 f8 c1 be
       -0.29612702 -0.103287555 -0.10479351 -0.37884912
000230 0f 96 3b be ce af bf bd 4a f6 ba be 9e da b4 bd
       -0.18318962 -0.09359704 -0.3651603 -0.088307604
000240 b2 19 8f bd 8e 48 5a bd eb 09 09 be 81 60 cc bd
       -0.06987323 -0.05329185 -0.1338269 -0.09979344
000250 78 1e c7 bd f7 c3 69 be 35 cd c7 be 47 a4 2b be
       -0.09722608 -0.22828661 -0.39023748 -0.16761886
000260 75 0d 4c be 5d e6 bf bd 32 f0 5f be 14 e6 98 bd
       -0.19927008 -0.0937011 -0.21868971 -0.07465759
000270 15 70 b6 bd c9 86 bb bd 63 23 63 be 61 b0 c4 bd
       -0.08908097 -0.091565676 -0.22181468 -0.09603954
000280 9c 10 ae be 35 ec 95 bd 51 d9 99 bd 87 64 90 be
       -0.33997047 -0.073204435 -0.07512153 -0.28201696
000290 8d 69 16 be c3 a6 65 be bc b4 35 be eb 02 ea bd
       -0.14688702 -0.22426896 -0.17744726 -0.11426338
0002a0 90 0d 31 3c 00 3b a3 be e9 a1 d2 bd f2 9d 83 be
       0.010806456 -0.3188095 -0.10284788 -0.2570644
0002b0 7f 09 03 be 76 1c 02 be 84 40 6b be 2b b7 d7 bd
       -0.12796591 -0.1270617 -0.2297383 -0.105329834
0002c0 6b 36 68 bd f3 c2 2c 3d 98 1f 0f be 13 5d f1 bd
       -0.056692522 0.042178106 -0.13976896 -0.117853306
0002d0 a4 e1 a9 bd 05 fa 70 be fc 6e 7f be 75 1d 6d be
       -0.08294991 -0.23532875 -0.24944681 -0.23155768
0002e0 c8 ff 00 bd 31 61 96 be ab e0 8c be d5 23 32 be
       -0.031493932 -0.29371026 -0.27515158 -0.17396481
0002f0 95 5a c8 be aa e8 03 be f2 50 c2 bd 29 c4 9f be
       -0.3913161 -0.12881723 -0.09488095 -0.31204346
000300 21 66 ce bd be 19 3c be a8 24 be be ea a6 48 be
       -0.10078073 -0.18369195 -0.37137341 -0.19594923
000310 30 c8 19 be cb 0c 6a be cd 0d 00 be 07 a7 d9 be
       -0.15017772 -0.22856443 -0.12505265 -0.42510244
000320 be 88 92 be 55 4b b9 be 2f cf a1 be cc fd 42 be
       -0.2861995 -0.36190286 -0.3160338 -0.19042128
000330 be 38 be bd 7c 42 6b be e3 56 4a be f4 b6 5f be
       -0.092881665 -0.2297458 -0.19759707 -0.21847135
000340 86 db 2b bd 62 14 6a be 73 11 12 be 0a 1f 81 bd
       -0.0419574 -0.22859338 -0.14264469 -0.06304748
000350 d3 f3 42 be 53 a1 a8 bd a7 a0 e2 bd 7f 35 9d be
       -0.19038324 -0.08233895 -0.11065798 -0.30704877
000360 e8 f3 28 be 9e f7 c0 bd 78 fb a3 3c 25 92 8f bd
       -0.16499293 -0.09422229 0.02001737 -0.07010297
000370 10 1a 24 be cf ee c7 bd 70 c4 b9 be bf 04 89 be
       -0.16025567 -0.09762346 -0.36282682 -0.26761433
000380 db 4e bb 3d 4a 5e 94 be 43 45 21 be e7 37 dc bd
       0.091459 -0.28978187 -0.15749077 -0.1075285
000390 c6 9c 19 be 74 c4 27 bd 6f f4 99 be 6b f8 14 be
       -0.1500121 -0.040958837 -0.300693 -0.14547889
0003a0 09 8a 8d be 7c bd 56 be 64 9b 8e be 07 a6 7f bd
       -0.27644375 -0.2097072 -0.2785293 -0.062414195
0003b0 fd 43 47 be 78 88 32 be cf e4 9d be fa db 96 be
       -0.19459529 -0.17434871 -0.3083863 -0.29464704
0003c0 80 c8 91 be 4d 8e 7a be e3 32 92 be c0 55 35 3d
       -0.28473282 -0.24468346 -0.28554448 0.04427123
0003d0 a3 a3 76 be 0a c2 8f bd db 7c 55 3c 2f a7 25 bd
       -0.2408586 -0.07019432 0.013030256 -0.04044264
0003e0 ba 4c 3e bd 2c 7a 6d be 80 ad f8 bd 6f 75 d0 be
       -0.04645989 -0.23191136 -0.121424675 -0.40714595
0003f0 8b 77 8d be 67 44 91 be 56 f1 b3 3c 50 5e 64 be
       -0.27630267 -0.283725 0.021965664 -0.22301602
