Assets/Trained Models/Presentation/3-2.1.onnx (onnx, 468050 bytes, 15 tensors)

discrete_act_size_vector f4 [1, 2]
0	0x40800000	4.0
1	0x40400000	3.0

network_body.observation_encoder.processors.0.normalizer.running_mean f4 [35]
0	0x3cb042c9	0.02151622
1	0x00000000	0.0
2	0x3d57c026	0.05267348
3	0x3f6d0107	0.9257969
4	0x3f76d689	0.96421105
5	0x3d6dfffa	0.058105446
6	0x00000000	0.0
7	0x3d1993dd	0.03749453
8	0x3f67840b	0.90435857
9	0x3f73d149	0.9524122
10	0x3d174a34	0.036936
11	0x3499429c	2.8546935e-07
12	0x3c9f602a	0.019455034
13	0x3f718bba	0.9435383
14	0x3f7a34dc	0.97736907
15	0x3db0825e	0.086186156
16	0x00000000	0.0
17	0x3d5d6e3a	0.0540602
18	0x3f5ba83b	0.85803574
19	0x3f6b251c	0.918535
20	0x3de9b058	0.11410588
21	0x00000000	0.0
22	0x3d17907f	0.037003037
23	0x3f58c5d8	0.84676886
24	0x3f6d6eda	0.9274727
25	0x3e063c30	0.13108897
26	0x00000000	0.0
27	0x3d26f576	0.040761434
28	0x3f538a88	0.82633257
29	0x3f68a0e7	0.9087052
30	0x3e2240e8	0.15845072
31	0x00000000	0.0
32	0x3d2d2048	0.042267114
33	0x3f4bd083	0.7961504
34	0x3f6784fe	0.90437305

network_body.observation_encoder.processors.1.normalizer.running_mean f4 [135]
0	0x38e54a9a	0.000109334665
1	0x3d67202e	0.056427173
2	0x3ea23f4e	0.31688923
3	0x3f1adef4	0.6049645
4	0x3f53d753	0.82750434
5	0x39e48ae6	0.00043591036
6	0x3e7506bc	0.2392835
7	0x3e90290f	0.28156325
8	0x3ee7c7e7	0.452697
9	0x3f460ed0	0.7736635
10	0x3871dce6	5.7664605e-05
11	0x3e0f9bf3	0.14024334
12	0x3e7368ad	0.237704
13	0x3f1b014e	0.60548866
14	0x3f5e7862	0.8690244
15	0x39a1a40c	0.00030830537
16	0x3e9c2ba2	0.3050204
17	0x3dd0ab7a	0.101889566
18	0x3f11245b	0.566961
19	0x3f46c667	0.7764649
20	0x387f08be	6.080488e-05
21	0x3e9d87c5	0.30767646
22	0x3d96794a	0.07347353
23	0x3f18f8a6	0.5975441
24	0x3f619b40	0.8812752
25	0x39a21717	0.0003091625
26	0x3ea803c0	0.3281536
27	0x3c658780	0.0140093565
28	0x3f25390a	0.6454016
29	0x3f4f046f	0.8086614
30	0x37f1dc7f	2.8832115e-05
31	0x3e17c757	0.14822136
32	0x3cbd9796	0.02314357
33	0x3f509576	0.8147806
34	0x3f725799	0.94664913
35	0x00000000	0.0
36	0x3e5c8eac	0.215388
37	0x3665e3ca	3.425625e-06
38	0x3f47b7af	0.78014654
39	0x3f732a34	0.9498627
40	0x00000000	0.0
41	0x3c348257	0.011017404
42	0x381a74fa	3.6825404e-05
43	0x3f7bf27f	0.98416895
44	0x3f7dc6b7	0.9913134
45	0x38e848c2	0.00011076174
46	0x3d678e31	0.05653209
47	0x3ea2995b	0.31757626
48	0x3f1b2fc7	0.6061978
49	0x3f5446a6	0.829203
50	0x39e5e3ca	0.00043848
51	0x3e753bd7	0.23948608
52	0x3e9084af	0.2822623
53	0x3ee85bb5	0.45382467
54	0x3f467b9a	0.7753235
55	0x3876a6ed	5.8806432e-05
56	0x3e0fb688	0.14034474
57	0x3e73c5ed	0.23805971
58	0x3f1b6359	0.6069847
59	0x3f5ef484	0.8709185
60	0x39a28a24	0.0003100197
61	0x3e9c4a70	0.3052554
62	0x3dd1811a	0.10229702
63	0x3f117f07	0.56834453
64	0x3f473bb2	0.7782546
65	0x38801d7c	6.1090075e-05
66	0x3e9d9ff9	0.30786112
67	0x3d96b8d5	0.07359473
68	0x3f196744	0.59923196
69	0x3f621cb4	0.8832505
70	0x39a2fced	0.00031087492
71	0x3ea8245e	0.32840246
72	0x3c66efeb	0.014095287
73	0x3f25aa5a	0.6471306
74	0x3f4f8044	0.8105509
75	0x37f1dc7f	2.8832115e-05
76	0x3e17df62	0.14831308
77	0x3cbdb013	0.023155248
78	0x3f5115b9	0.8167377
79	0x3f72de46	0.9487041
80	0x00000000	0.0
81	0x3e5cb420	0.21553087
82	0x3665e3ca	3.425625e-06
83	0x3f4836d5	0.7820867
84	0x3f73b0b2	0.9519149
85	0x00000000	0.0
86	0x3c348cf8	0.011019938
87	0x381a74f9	3.68254e-05
88	0x3f7c7b93	0.9862606
89	0x3f7e4d7a	0.9933697
90	0x38eb4717	0.00011218915
91	0x3d67fc92	0.056637354
92	0x3ea2f310	0.31826067
93	0x3f1b806d	0.6074284
94	0x3f54b617	0.8309035
95	0x39e71663	0.00044076433
96	0x3e756fe1	0.2396846
97	0x3e90e0ef	0.2829661
98	0x3ee8efbe	0.4549541
99	0x3f46e88a	0.77698576
100	0x387b711e	5.9948412e-05
101	0x3e0fd10b	0.14044587
102	0x3e7423d5	0.23841794
103	0x3f1bc559	0.60848004
104	0x3f5f70c0	0.8728142
105	0x39a36ffb	0.00031173215
106	0x3e9c68fb	0.30548844
107	0x3dd25810	0.10270703
108	0x3f11d9b8	0.5697284
109	0x3f47b0f0	0.7800436
110	0x3880b6c0	6.1375555e-05
111	0x3e9db842	0.3080464
112	0x3d96f96e	0.07371794
113	0x3f19d5d7	0.6009192
114	0x3f629e7e	0.8852309
115	0x39a3e2e1	0.0003125882
116	0x3ea8448f	0.32864806
117	0x3c685867	0.014181233
118	0x3f261bd1	0.64886194
119	0x3f4ffc10	0.8124399
120	0x37f1dc7f	2.8832115e-05
121	0x3e17f788	0.1484052
122	0x3cbdc880	0.023166895
123	0x3f5195ef	0.81869406
124	0x3f7364f1	0.950759
125	0x00000000	0.0
126	0x3e5cd907	0.21567164
127	0x3665e3ca	3.425625e-06
128	0x3f48b601	0.78402716
129	0x3f7436dd	0.95396215
130	0x00000000	0.0
131	0x3c349b60	0.011023372
132	0x381a74f9	3.68254e-05
133	0x3f7d028e	0.98832023
134	0x3f7ed6e1	0.9954663

network_body.observation_encoder.processors.2.normalizer.running_mean f4 [11]
0	0x3f7fff0b	0.9999854
1	0x3e42eb7c	0.19035143
2	0x3db84f9d	0.0899956
3	0x3f014a4f	0.5050401
4	0x00000000	0.0
5	0x3f2ccd4e	0.6750077
6	0x3f1897f1	0.59606844
7	0x3ed8b39f	0.4232454
8	0x3cebd28b	0.028786918
9	0x3dbf9f79	0.09356589
10	0x3ea14973	0.3150135

network_body._body_endoder.seq_layers.0.weight f4 [256, 181]
0	0x3dfa3b75	0.12218372
1	0xbcf18f4f	-0.02948728
2	0x3e001999	0.12509765
3	0xbde8bac5	-0.113637485
4	0xbdf21a68	-0.11821443
5	0x3e578b75	0.21049292
6	0xbe12b92b	-0.14328448
7	0xbc11f6af	-0.008908912
8	0xbea1259e	-0.31474012
9	0xbd4dbf88	-0.050231487
10	0x3d4242e6	0.04742708
11	0x3d2aee56	0.0417312
12	0x3e033139	0.12811746
13	0xbb04e77d	-0.002027958
14	0x3ccb6524	0.024828501
15	0xbca08fd7	-0.019599838
16	0xbdefd210	-0.11709988
17	0x3df93e07	0.12170034
18	0x3a85944b	0.001019129
19	0xbe19de3d	-0.15026183
20	0xbd51ea2a	-0.051248707
21	0x3da27790	0.07932961
22	0x3db58aad	0.08864341
23	0xbdc9072b	-0.0981582
24	0xbc7c4a63	-0.015398595
25	0x3d3435f4	0.043996766
26	0x3da35707	0.079755835
27	0x3cfdb11a	0.030968238
28	0xbcc86593	-0.024462497
29	0x3dffcd64	0.12490347
30	0xbe242460	-0.16029501
31	0xbcd2693c	-0.025684945
32	0x3e3d68b8	0.18496978
33	0x3e174573	0.14772587
34	0x3cec6321	0.028855862
35	0x3d0d7c4d	0.03454237
36	0x3c98aab2	0.018636081
37	0x3c7f4738	0.015580945
38	0x3a8f5cde	0.0010937711
39	0x3d16e612	0.036840506
40	0x3d17be8c	0.037046954
41	0xbd693728	-0.056937367
42	0x3e045496	0.12922892
43	0xbc872f3b	-0.016502013
44	0x3cf0c54c	0.029390953
45	0xbd9c350b	-0.07627305
46	0xbde13cf2	-0.109979525
47	0x3ddfd086	0.109284446
48	0x3bd50369	0.0065006507
49	0xbe109e5f	-0.14122914
50	0xbbf248f1	-0.007393949
51	0xbcc176b3	-0.02361617
52	0xbd95d6ba	-0.073163465
53	0xbdc99e58	-0.09844655
54	0x3d4e07cd	0.05030041
55	0xbb742124	-0.0037251199
56	0xbda10273	-0.07861795
57	0x3d219f1b	0.039458375
58	0xba74492a	-0.00093187636
59	0x3d0ff347	0.035144117
60	0xbe19a2e8	-0.1500355
61	0xbe5b3dea	-0.21410337
62	0x3d3ed364	0.046588317
63	0x3df7ef08	0.121061385
64	0x3dd66534	0.10468522
65	0xbd94660e	-0.07246028
66	0xbe131580	-0.1436367
67	0xbd6c0fc3	-0.05763222
68	0xbe1b2785	-0.15151794
69	0xbb446376	-0.002996651
70	0x3d99c4d3	0.07508244
71	0xbdb7f198	-0.08981627
72	0xbd8086c1	-0.06275702
73	0x3ba8dd4c	0.005153334
74	0x3c12d193	0.008961099
75	0x3c98d23b	0.018654933
76	0xbd8f4bee	-0.06996904
77	0xbd9dfc06	-0.07714085
78	0x3deb83bb	0.11499735
79	0x3e3bc804	0.18338019
80	0xbbbf6364	-0.0058407057
81	0xbc0c548b	-0.0085650785
82	0x3d26d71a	0.04073248
83	0xbe29563a	-0.16536799
84	0xbd91e764	-0.071242124
85	0x3ce1bbf3	0.027555441
86	0xbb214d26	-0.0024612634
87	0x3da1e242	0.079044834
88	0xbc8864b8	-0.016649589
89	0x3d507f27	0.050902512
90	0x3c971fd3	0.018447792
91	0xbdbc9ca5	-0.09209565
92	0xbd8de754	-0.06928888
93	0xbd895a41	-0.06706668
94	0xbe14f4e4	-0.14546543
95	0xbcdd7eec	-0.02703806
96	0xbd69364f	-0.05693656
97	0x3d9e3ec8	0.07726818
98	0xbc2e8f34	-0.0106542595
99	0x3d06c4e4	0.032902613
100	0x3d4a7a2d	0.049432922
101	0x3d4982c5	0.049196977
102	0xbde0b3f1	-0.10971821
103	0x3ccae767	0.024768544
104	0xbdf1d615	-0.11808411
105	0xbd3cea86	-0.046122096
106	0xbda9f30d	-0.082983114
107	0xbc9b2173	-0.018936848
108	0x3e29c4b7	0.16578947
109	0x3da091bc	0.078402966
110	0xbd994195	-0.07483212
111	0xbd78c68d	-0.060736228
112	0x3daa6833	0.08320656
113	0xbe1d1951	-0.15341689
114	0xbca54c13	-0.020177877
115	0x3cb8d256	0.022561233
116	0xbd9a6bf7	-0.07540124
117	0xbe360322	-0.17774633
118	0x3e48711e	0.19574401
119	0x3b790784	0.0037998864
120	0xbe0a9de7	-0.13536797
121	0xbdac93d5	-0.08426634
122	0xbd193b62	-0.037410147
123	0x3dcb4b5f	0.09926485
124	0xbc48ca9a	-0.012255335
125	0x3d3ed3a6	0.046588562
126	0x3d88dd58	0.06682843
127	0xbda2a00c	-0.07940683
128	0x3ca27370	0.019830436
129	0xbca03028	-0.019554213
130	0x3dfd587b	0.12370392
131	0xbe17d875	-0.14828666
132	0x3d90b4da	0.07065745
133	0xbda1a248	-0.07892281
134	0x3c3f129e	0.0116621535
135	0xbae06ccd	-0.0017122269
136	0x3dc871e5	0.09787349
137	0x3d97a448	0.07404381
138	0x3d92281b	0.07136556
139	0xbd98ae57	-0.07455128
140	0xbdd016d6	-0.101606056
141	0xbe32503e	-0.17413422
142	0xbd1758d8	-0.036949962
143	0x3d08e69b	0.033423048
144	0x3e20d7d2	0.15707329
145	0xbde598c3	-0.112107776
146	0xbc0c4fcc	-0.008563947
147	0xbbec88cf	-0.0072184573
148	0xbcfefb2b	-0.031125626
149	0xbc98bd71	-0.01864502
150	0xbd9a010e	-0.075197324
151	0xbcce0c35	-0.025152305
152	0x3e4e6565	0.20155866
153	0x3e023c9e	0.12718436
154	0x3deb5250	0.11490309
155	0x3c1d6f39	0.009609037
156	0xbdfc52c0	-0.12320471
157	0x3d912b81	0.07088376
158	0x3bc6054c	0.006043112
159	0xbe0a191e	-0.13486144
160	0x3cd4e80a	0.025989551
161	0xbde63e61	-0.112423666
162	0xbe1ddc81	-0.15416147
163	0x3ce8114c	0.02832856
164	0x3ce51ab4	0.027966835
165	0x3c84691d	0.016163403
166	0xbd573461	-0.052540187
167	0xbe017183	-0.12640958
168	0x3d9058b7	0.07048171
169	0xbe151234	-0.14557725
170	0x3de5c1b2	0.11218585
171	0x3d86c2c5	0.06580118
172	0x3db40141	0.08789302
173	0x3dee5509	0.11637313
174	0xbcd47691	-0.025935443
175	0x3e2e00fa	0.1699256
176	0xbbd9db12	-0.0066484297
177	0x3db7a5ca	0.08967169
178	0x3e205cf0	0.15660453
179	0xbe4d1fde	-0.20031688
180	0x3e66d08d	0.22540493
181	0x3d946293	0.07245364
182	0xbe50709a	-0.20355454
183	0x3da8e5a2	0.08246924
184	0xbe619aac	-0.22031659
185	0x3c9b4941	0.018955829
186	0xbcade85e	-0.021228965
187	0xbc8d9cd5	-0.017286697
188	0x3d2422da	0.0400723
189	0xbbdb5a15	-0.006694088
190	0xbd94e406	-0.072700545
191	0xbdc63ccc	-0.09679565
192	0xbd0554a8	-0.032551438
193	0x3c24ac78	0.010050885
194	0xbcfe40f4	-0.031036831
195	0x3cc6209c	0.024185471
196	0xbd98eab3	-0.0746664
197	0xbd49a707	-0.049231555
198	0x3ddad074	0.106842905
199	0xbe20a6c1	-0.15688612
200	0xbc1af69d	-0.009458211
201	0xbc1af616	-0.0094580855
202	0xbd8b5150	-0.068026185
203	0x3d32507e	0.043533795
204	0xbcd0ae30	-0.025473684
205	0x3bf787eb	0.0075540445
206	0x3dad2a1d	0.08455298
207	0x3cdebce0	0.027189672
208	0xbdba7894	-0.0910503
209	0x3c5047e7	0.012712455
210	0x3cf28e86	0.029608976
211	0xb9a234e1	-0.00030938446
212	0x3d09306f	0.033493455
213	0x3d901a14	0.07036224
214	0xbdb3c29f	-0.087773554
215	0xbe0335f0	-0.12813544
216	0x3d914010	0.07092297
217	0x3d8498a6	0.06474428
218	0xbd47d644	-0.048788324
219	0x3d4a2618	0.049352735
220	0x3dc2bdec	0.09508881
221	0x3dd6db34	0.104910284
222	0x3dafd4c2	0.08585502
223	0xbd6cf0b2	-0.057846732
224	0x3d2bae84	0.041914478
225	0xbd7ff8aa	-0.062493004
226	0x3e17ab11	0.1481135
227	0xbcefa28e	-0.029252317
228	0xbdcb7628	-0.09934646
229	0x3de24d1f	0.11049866
230	0x3e38ee5f	0.18059681
231	0xbe22d6c9	-0.15902247
232	0x3e040f4b	0.12896459
233	0xbd2f3815	-0.042778093
234	0x3dbcc36c	0.09216961
235	0x3cdcd609	0.026957529
236	0x3c168cee	0.009188874
237	0xbc54c1f8	-0.012985699
238	0x3d8615c6	0.06547122
239	0xbe134ddf	-0.14385174
240	0x3da59f19	0.08086986
241	0x3d46b91a	0.04851637
242	0xbd4339f2	-0.047662683
243	0xbd1f50b0	-0.03889531
244	0x3ce2a53e	0.027666684
245	0xbb1f6065	-0.002431893
246	0x3e772fd8	0.24139345
247	0xbcab0c17	-0.020879788
248	0xba880bcc	-0.0010379492
249	0xbcda34a0	-0.026636422
250	0x3e50acab	0.20378368
251	0xbb009577	-0.0019620338
252	0xbd360d96	-0.04444655
253	0x3d43cfb6	0.04780551
254	0x3dea17ec	0.11430344
255	0x3d1baf77	0.038009133

network_body._body_endoder.seq_layers.0.bias f4 [256]
0	0x3d2d3c30	0.042293727
1	0x3d252e6d	0.04032748
2	0x3ca4cc6c	0.020117007
3	0x3d46eb21	0.04856408
4	0xbe2e9b9a	-0.17051545
5	0xbd0b9b88	-0.034083873
6	0xbe37664d	-0.17910118
7	0xbd43fa6f	-0.047846254
8	0x3d14c964	0.036324874
9	0xbddb0cc8	-0.10695797
10	0x3d872a4f	0.065998666
11	0xbe3980ca	-0.18115535
12	0xbd618f4c	-0.0550683
13	0xbd88a76b	-0.066725574
14	0xbe8467a1	-0.25860313
15	0xbdc36eb7	-0.095426016
16	0xbd518c7f	-0.05115938
17	0xbca0d00f	-0.01963046
18	0x3d35b16f	0.044358667
19	0xbe0f3502	-0.13985065
20	0xbdb0de0e	-0.086361036
21	0x3da87fc6	0.08227496
22	0x3cf40048	0.02978529
23	0x3d6d641c	0.0579568
24	0xbd022bc7	-0.03178003
25	0xbd7f579f	-0.06233942
26	0x3c9639e0	0.018338144
27	0xbd709789	-0.058738265
28	0xbd39cc77	-0.04536101
29	0x3ccc58fb	0.024944773
30	0xbd371753	-0.044699978
31	0xbd642ea7	-0.055708554
32	0xbd13e27d	-0.036104668
33	0xbd523f77	-0.051330056
34	0xbe1532f8	-0.14570224
35	0x3d9b99e2	0.0759771
36	0x3a7b1495	0.0009577957
37	0xbe546684	-0.20742232
38	0xbc1e2aad	-0.009653729
39	0xbce3cae3	-0.027806705
40	0x3d2aae9d	0.04167043
41	0x3d5bf55b	0.053700786
42	0xbdd23ded	-0.10265718
43	0xbdc5514b	-0.09634646
44	0x3d141e13	0.036161494
45	0xbc14b41b	-0.009076144
46	0xbde4666f	-0.1115235
47	0xbd2d2a28	-0.04227653
48	0xbe02c182	-0.1276913
49	0x3cc47b0b	0.023984453
50	0xbd485359	-0.04890761
51	0xbe10c208	-0.14136517
52	0xbe19b9a2	-0.1501222
53	0xbd947c93	-0.07250323
54	0xbe3945de	-0.18093058
55	0xba7e2a20	-0.0009695608
56	0xbd231215	-0.039812166
57	0xbd927c4f	-0.07152616
58	0xbd8a76f1	-0.067609675
59	0xbbfbae65	-0.0076807016
60	0xbd28ae73	-0.041181993
61	0xbd265f73	-0.04061837
62	0xbc4a66bd	-0.012353596
63	0xbc29de21	-0.010367901
64	0xbde7fb65	-0.113272466
65	0xbccd4644	-0.02505792
66	0x3cedc480	0.029024363
67	0xbe372c67	-0.17888032
68	0xbd10d74c	-0.035361573
69	0xbc8308cd	-0.015995407
70	0xbd554840	-0.052070856
71	0xbcd3b79a	-0.025844384
72	0xbc04f5ec	-0.008115273
73	0xbc6edccf	-0.014579012
74	0xbe33e575	-0.17568
75	0xbe25dc38	-0.16197288
76	0xbd74b029	-0.059738312
77	0xbb86e8a7	-0.00411709
78	0xbd51dedf	-0.051237937
79	0xbe09b0ff	-0.13446425
80	0xbdc0d2a9	-0.0941518
81	0xbe81abee	-0.25326484
82	0xbd610dd2	-0.05494482
83	0xbd504aff	-0.05085277
84	0xbd7f9fab	-0.06240813
85	0xbe22dccc	-0.1590454
86	0xbe1f6927	-0.15567456
87	0xbcdde998	-0.027088925
88	0xbd8204a5	-0.06348542
89	0xbd8facfc	-0.07015416
90	0xbdadd95f	-0.08488726
91	0x3c2c5466	0.010518169
92	0x3b78832d	0.0037919984
93	0xbdc6d37a	-0.09708305
94	0xbe16bd4e	-0.14720652
95	0xbcae9899	-0.021312999
96	0x3cc2ee2f	0.023795215
97	0x3e0d3fa1	0.13793804
98	0xb9105d3c	-0.00013767643
99	0xbd9ed5df	-0.077556364
100	0xbd448313	-0.047976565
101	0xbdec58ae	-0.11540352
102	0x3d39ac7e	0.045330517
103	0xbd59a92f	-0.05313986
104	0x3c979b36	0.018506628
105	0xbd81983b	-0.06327864
106	0xbdb1d04c	-0.086823076
107	0xbd3198fb	-0.043358784
108	0x3d32c0ed	0.04364102
109	0xbd63fe67	-0.05566254
110	0xbb8a94fa	-0.004229185
111	0xbe0555db	-0.13021033
112	0x3c2ede6c	0.010673147
113	0xbd175980	-0.03695059
114	0xbe039176	-0.12848458
115	0xbd19a3c6	-0.037509702
116	0xbca9cf23	-0.020728653
117	0xbda38002	-0.079834
118	0xbd2d0f30	-0.042250812
119	0xbda2134d	-0.079138376
120	0x3cf0813b	0.029358497
121	0xbc3e0789	-0.011598476
122	0xbc9ac14e	-0.018891003
123	0xbcfecc6e	-0.031103339
124	0xbc8d6401	-0.0172596
125	0x3cd2a120	0.025711596
126	0xbc5a470b	-0.013322602
127	0xbd8898f2	-0.06669797
128	0x3d8f1cc8	0.069879115
129	0x3d33a256	0.043855987
130	0xbda61515	-0.0810949
131	0xbd9ff3c5	-0.07810167
132	0x3d884477	0.06653684
133	0xbd6c053e	-0.057622187
134	0x3bacf9c5	0.0052787983
135	0xbb906a70	-0.0044072196
136	0xbe1b7b87	-0.1518384
137	0x3d1911bd	0.037370432
138	0x3bca96f1	0.0061825444
139	0xbd6aed9e	-0.057355516
140	0xbd91b543	-0.07114651
141	0xbd807ac6	-0.06273417
142	0xbe03634e	-0.1283085
143	0xbd0b8e09	-0.034071002
144	0xbe44d21c	-0.19220775
145	0xbdc469de	-0.09590505
146	0xbdc07f94	-0.093993336
147	0xbd77576e	-0.060386114
148	0xbe614378	-0.21998394
149	0xbe424894	-0.18972999
150	0xbd841484	-0.064492255
151	0xbd0ba775	-0.034095246
152	0x3c32dbc2	0.010916652
153	0xbdefb60c	-0.117046446
154	0x3c14aa04	0.009073738
155	0xbc799f84	-0.015235785
156	0xbdcab356	-0.09897487
157	0x3c033b68	0.008009769
158	0xbdf6a5ca	-0.120433405
159	0xbe263267	-0.16230164
160	0xbe1ed38e	-0.15510389
161	0xbdb12e7d	-0.08651445
162	0xbe01c81b	-0.1267399
163	0xbcdbc65d	-0.026827985
164	0x3d08ee37	0.033430304
165	0xbd939c1b	-0.07207509
166	0xbe3c9d68	-0.1841942
167	0xbdf3b3a6	-0.118994996
168	0xbc4c1337	-0.012455753
169	0xbd26f91e	-0.04076492
170	0xbdb2ed35	-0.0873665
171	0xbd349c25	-0.044094224
172	0xbdb0a434	-0.08625069
173	0x3ba94520	0.005165711
174	0xbc91fa11	-0.017819436
175	0x3ce89361	0.028390588
176	0x3ddcc709	0.107801504
177	0xbdf02a1f	-0.11726784
178	0x3d82c004	0.0638428
179	0x3cb359f0	0.021893471
180	0xbd1d7698	-0.038443178
181	0xbba2f4d3	-0.004973033
182	0x3d59f820	0.053215146
183	0x3d5e1663	0.05422057
184	0x3d88e61b	0.06684514
185	0xbd9cff05	-0.076658286
186	0x3d1c91de	0.038225047
187	0xbd3ed38b	-0.04658846
188	0xbe1c1a5d	-0.15244432
189	0x3cf93173	0.030419087
190	0xbdc0a449	-0.09406335
191	0xbda79ea2	-0.08184554
192	0xbd8beb5f	-0.06832003
193	0xbd9bde54	-0.07610765
194	0xbe073d3f	-0.13206957
195	0x3c9c5f0c	0.01908829
196	0xbe15c9d4	-0.14627773
197	0xbcd4148a	-0.0258887
198	0xbdd871d8	-0.10568589
199	0xbdd62a1f	-0.10457253
200	0xbdd65f0f	-0.1046735
201	0xbe4ab485	-0.19795425
202	0xbd0467ee	-0.032325678
203	0xbce027a8	-0.02736266
204	0xbe22819d	-0.15869756
205	0xbd95f110	-0.0732137
206	0x3d76394b	0.060113233
207	0x3c883d27	0.016630722
208	0x3bd9c2d0	0.006645538
209	0x3d1546a7	0.036444332
210	0xbdc1a71d	-0.094557025
211	0x3d3cd526	0.04610171
212	0x3d213a0c	0.039362
213	0x3a8b4d5d	0.0010627914
214	0xbda2e93c	-0.07954642
215	0x3d9ea961	0.0774715
216	0xbdaeb4a3	-0.085305475
217	0x3da2e24f	0.07953321
218	0x3dca38fe	0.09874152
219	0xbdeb499d	-0.1148865
220	0xbc3357f3	-0.010946262
221	0xbdaa1acc	-0.08305892
222	0x3c8241ef	0.01590058
223	0x3cf9ea54	0.030507244
224	0x3dc832e7	0.09775334
225	0xbd1c6e01	-0.038190845
226	0xbdd7a089	-0.105286665
227	0xbde273e6	-0.11057262
228	0xbbf9be3e	-0.0076215556
229	0xbe01d152	-0.12677506
230	0xbd3861e1	-0.04501522
231	0x3cc64e85	0.024207363
232	0xbc98fab2	-0.018674228
233	0xbbf1f6ed	-0.007384172
234	0xbdc0ce5c	-0.0941436
235	0x3d99618e	0.0748931
236	0x3d313a9a	0.043268777
237	0xbdd1d99b	-0.10246583
238	0xbdb41627	-0.08793288
239	0xbe14af14	-0.14519912
240	0x3d7f8ea2	0.062391885
241	0xbcd0341b	-0.02541547
242	0xbd30d4a3	-0.043171536
243	0xbdb58ee8	-0.08865148
244	0xbe2ec74e	-0.17068216
245	0xbd330447	-0.04370525
246	0x3cd6b39c	0.026208691
247	0xbd319e93	-0.04336412
248	0x3b9ef33b	0.0048507727
249	0x3d9b6570	0.07587707
250	0xbd8a27d6	-0.06745879
251	0xbdc15a2e	-0.094410285
252	0xbdf0b370	-0.11752975
253	0xbc406656	-0.011743149
254	0xbca3e877	-0.020008309
255	0xbdcfdae1	-0.1014917

network_body._body_endoder.seq_layers.2.weight f4 [256, 256]
0	0xbd4b690e	-0.049660735
1	0xbc623c7f	-0.013808369
2	0xbe3ad07d	-0.18243594
3	0xbe267452	-0.1625531
4	0xbcd245c9	-0.025668042
5	0xbe2d1368	-0.16901934
6	0xbe14b142	-0.14520743
7	0xbdd2713a	-0.102755025
8	0xbd6b70ee	-0.057480745
9	0xbd996e11	-0.074916966
10	0xbd16a96e	-0.036782674
11	0x3d1bf9b6	0.03807994
12	0xbcfdd0e4	-0.030983396
13	0x3d00f19b	0.031480413
14	0x3c8224cc	0.015886687
15	0xbd5ce29e	-0.053927056
16	0xbdb8ac03	-0.09017184
17	0xbe0926fd	-0.13393779
18	0xbdfee638	-0.124462545
19	0x3c0f37a2	0.008741291
20	0xbd96439f	-0.073371165
21	0xbe18b57a	-0.14912978
22	0xbdb7562b	-0.08951982
23	0xbdc49b3c	-0.09599921
24	0x3b20eb8b	0.0024554457
25	0x3df972b5	0.12180082
26	0x3b94b6e7	0.004538405
27	0xbc02cf34	-0.007983971
28	0xbcf6c87c	-0.030124895
29	0xbe1c47c3	-0.1526175
30	0xbc2ee0ba	-0.010673696
31	0xbd033ce1	-0.03204048
32	0xbdf98976	-0.12184422
33	0x3a02b4da	0.00049860554
34	0xbbe35984	-0.0069381613
35	0xbd60d176	-0.054887258
36	0xbda13d64	-0.078730375
37	0x3df1980f	0.11796581
38	0xbdbecff2	-0.09317006
39	0x3d00dfda	0.03146348
40	0xbcac1a06	-0.021008503
41	0x3d958288	0.073002875
42	0xbda5b6ba	-0.08091493
43	0xbc0afe31	-0.0084834555
44	0xbe203cfb	-0.15648262
45	0x3d827a90	0.06371033
46	0xbc3fca57	-0.011705956
47	0x3ddf5442	0.10904743
48	0xbd58494b	-0.052804273
49	0xbc5d0039	-0.013488823
50	0xbd4987c7	-0.049201753
51	0xbda4bcc8	-0.0804382
52	0x3d11538e	0.035480075
53	0xbd81dbff	-0.06340789
54	0xbd715c0c	-0.058925673
55	0xbe2a792c	-0.16647786
56	0xbbed054c	-0.0072332975
57	0xbd4cf4b2	-0.050038047
58	0x3d3cde36	0.046110354
59	0x3d335c25	0.043789048
60	0xbd6266d3	-0.055273842
61	0x3d68f4bf	0.056874033
62	0xbc8497f5	-0.01618574
63	0xbd8cb86c	-0.06871113
64	0xbc940cd8	-0.01807253
65	0x3cb658ad	0.02225908
66	0xbd1f2417	-0.038852777
67	0x3cb1685a	0.021656204
68	0xbdac17e0	-0.08402991
69	0xbd828ba7	-0.06374293
70	0x3db0ff55	0.08642451
71	0xbde804e8	-0.11329061
72	0xbd300052	-0.042969055
73	0xbc742d8d	-0.014903438
74	0xbad588c4	-0.001629137
75	0x3e135626	0.14388332
76	0xbc4a18e4	-0.012335036
77	0x3d8d7761	0.06907535
78	0x3c087157	0.008327804
79	0xbdc734c9	-0.09726865
80	0xbcc9560e	-0.024577167
81	0x3d87258e	0.0659896
82	0xbbff0da7	-0.00778361
83	0x3d35554f	0.04427081
84	0xbe63c9de	-0.22244975
85	0xbd1e0a4b	-0.038584035
86	0x3c321571	0.01086937
87	0xbd4e3d84	-0.050351635
88	0xbd50b407	-0.050952937
89	0x3d9a9b2e	0.075491294
90	0xbd0c1b48	-0.034205705
91	0x3dccb989	0.099963255
92	0x3d31f571	0.04344696
93	0x3d9c85cf	0.076427095
94	0xbda9f1ed	-0.08298097
95	0xbd508121	-0.050904397
96	0xbdef860d	-0.1169549
97	0xbe771595	-0.24129327
98	0xbd9ae531	-0.07563246
99	0x3d909260	0.07059169
100	0xbd70e533	-0.05881233
101	0x3cab8466	0.020937156
102	0xbe09ded8	-0.13463914
103	0x3dd3f62f	0.1034969
104	0xbd4b8710	-0.049689353
105	0xbdacb212	-0.08432402
106	0xbe86271f	-0.26201722
107	0xbd969836	-0.07353251
108	0xbd82e744	-0.06391767
109	0xbca5baab	-0.020230612
110	0xbd1fe26a	-0.039034285
111	0xbe70487b	-0.23465149
112	0xbc0ecfe6	-0.008716559
113	0xbd927127	-0.07150488
114	0xbd448c2d	-0.047985245
115	0xbd1db5e1	-0.03850353
116	0xbdf0f0e9	-0.117647
117	0x3dacc5b9	0.0843615
118	0x3d226dcb	0.039655488
119	0xbdd52293	-0.10406985
120	0xbdea6e24	-0.11446789
121	0xbc1630e0	-0.009166926
122	0xbd3e156b	-0.046407145
123	0xbe0568a3	-0.13028197
124	0xbd3addef	-0.04562181
125	0xbd9ca607	-0.07648855
126	0xbd7b42e1	-0.061343078
127	0xbe0583ae	-0.13038513
128	0x3da3c008	0.079956114
129	0xbd896dbc	-0.06710383
130	0x3d8e09e9	0.06935484
131	0xbd920488	-0.071297705
132	0xbccab8ff	-0.024746416
133	0x3d4f0f59	0.050551746
134	0x3d0f5feb	0.035003584
135	0x3db7f246	0.08981757
136	0xbd880aff	-0.06642722
137	0xbe6dfaff	-0.23240279
138	0xbcc68d9a	-0.024237443
139	0xbbedc9e1	-0.007256732
140	0x3dc6d8cc	0.097093195
141	0x3bf05c90	0.007335253
142	0xbd25e7db	-0.040504318
143	0x3d4358e2	0.047692187
144	0xbd393c05	-0.045223255
145	0xbdc79e94	-0.09747043
146	0x3da28e45	0.07937292
147	0xbe345e7a	-0.17614165
148	0xbc5f3ade	-0.013624875
149	0x3da7f584	0.08201125
150	0x3cbc6d20	0.023001254
151	0xbdfec6d8	-0.1244027
152	0xbdce099f	-0.10060429
153	0xbc8883aa	-0.016664345
154	0xbe4b5b01	-0.19858934
155	0xbda7c628	-0.08192092
156	0xbe26107c	-0.16217226
157	0x3cc5a5ce	0.024126913
158	0xbd85fcf2	-0.06542386
159	0x37ac8cb5	2.056952e-05
160	0x3e26af7d	0.16277881
161	0xbe227649	-0.15865435
162	0xbd2abaff	-0.04168224
163	0x3cbc6d65	0.023001382
164	0xbda45b3b	-0.08025213
165	0xbcc6bc4d	-0.02425971
166	0x3d61f9d1	0.055169884
167	0x3e1b41f7	0.15161882
168	0xbce39d1a	-0.027784873
169	0x3c3a1f0f	0.011359944
170	0xbe1a615f	-0.15076207
171	0x3d508242	0.050905474
172	0x3dc5bac4	0.09654763
173	0xbd381c76	-0.044949017
174	0xbd96009f	-0.07324337
175	0xbe25266b	-0.16127937
176	0xbe5c029b	-0.21485369
177	0xbd557354	-0.05211194
178	0xbe34a7c9	-0.1764213
179	0x3d33cf96	0.04389914
180	0xbe371aaa	-0.17881265
181	0xbc6b1f99	-0.014350795
182	0xbd2595e0	-0.040426135
183	0xbde7dfd7	-0.11321991
184	0xbd145e61	-0.03622282
185	0xbdc541e7	-0.096317105
186	0xbc8605d8	-0.016360208
187	0xbd79bc97	-0.06097087
188	0x3dc11176	0.094271585
189	0x3d1d146e	0.03834956
190	0xbd2adc8f	-0.041714247
191	0xbd88590f	-0.066576116
192	0xbde7dbe5	-0.113212384
193	0xbdada6ef	-0.08479106
194	0xbe019003	-0.12652592
195	0xbd4a743b	-0.049427252
196	0xbe1b837e	-0.15186879
197	0xbd8387ad	-0.064223625
198	0x3d9088f4	0.07057372
199	0xbaae1f5b	-0.0013284491
200	0xbd99989e	-0.074998125
201	0xbd17e4ee	-0.03708356
202	0x3d6dc4cd	0.058049012
203	0x3d138728	0.036017567
204	0x3db27991	0.08714593
205	0xbd5cc570	-0.05389923
206	0xbe0afa8e	-0.13572142
207	0xbd75643f	-0.059910055
208	0xbd181522	-0.03712953
209	0x3c0eddb1	0.008719848
210	0x3c077a31	0.008268879
211	0xbe1cb123	-0.15301947
212	0xbdbdafc7	-0.092620425
213	0xbd8095f8	-0.06278604
214	0x3da38815	0.0798494
215	0x3d140ca6	0.036144875
216	0x3d171d32	0.036893077
217	0xbdacd9a8	-0.08439952
218	0xbe116d44	-0.14201838
219	0x3d840e59	0.06448049
220	0x3d52dd95	0.05148085
221	0xbe84be6a	-0.25926524
222	0xbd3b8af2	-0.045786805
223	0xbde70972	-0.112810984
224	0xbd87de57	-0.06634205
225	0xbbf82f04	-0.007573964
226	0x3e12eab8	0.1434735
227	0xbbefb879	-0.007315692
228	0xbdb36b40	-0.08760691
229	0x3d72709b	0.05918942
230	0xbd747b08	-0.059687644
231	0x3a2f7e46	0.00066945364
232	0x3d14611a	0.036225416
233	0xbd2bafc0	-0.041915655
234	0xbcb01ba7	-0.02149756
235	0x3b94ea0d	0.0045445026
236	0xbd8abd9c	-0.06774446
237	0xbc0ee487	-0.008721477
238	0xbdfa0519	-0.122080036
239	0xbca7b983	-0.020474201
240	0x3ca43b48	0.020047799
241	0xbb7b2a26	-0.0038324683
242	0xbb45333e	-0.0030090357
243	0x3d59be36	0.053159915
244	0x3cd38395	0.02581958
245	0x3ca39571	0.01996872
246	0xbdc90dee	-0.0981711
247	0xbd95f59f	-0.07322239
248	0xbd863901	-0.065538414
249	0xbd509d51	-0.05093128
250	0x3d09ca4d	0.033640195
251	0xbd2be122	-0.04196275
252	0x3be7997b	0.007067857
253	0x3c65fd54	0.014037449
254	0xbdda2592	-0.10651697
255	0x3d1b1596	0.037862383

network_body._body_endoder.seq_layers.2.bias f4 [256]
0	0xbdf58c38	-0.11989635
1	0xbddb1149	-0.10696656
2	0xbdb0bd17	-0.08629816
3	0xbe466d30	-0.19377589
4	0xbd2b7076	-0.041855298
5	0xbe3db144	-0.18524653
6	0xbd388e71	-0.045057718
7	0xbe84adb4	-0.25913775
8	0xbe2757be	-0.16342065
9	0xbd45301f	-0.048141595
10	0xbe214732	-0.15749815
11	0xbce32320	-0.02772671
12	0xbe0b8e25	-0.13628443
13	0xbc91762c	-0.017756544
14	0xbe427d56	-0.18993124
15	0xbdb6da48	-0.089283526
16	0xbe71cf92	-0.23614338
17	0xbdbf04a6	-0.093270585
18	0xbe0a74a5	-0.13521059
19	0xbe06fb40	-0.13181782
20	0xbdcd30e7	-0.10019093
21	0xbdf97b29	-0.12181694
22	0xbe083175	-0.13300116
23	0xbcbe21c9	-0.02320947
24	0xbe1fe6da	-0.15615407
25	0xbdceb72e	-0.100935325
26	0xbd706eb3	-0.05869932
27	0xbe28fb41	-0.16502096
28	0xbdc7d883	-0.09758093
29	0xbe4115ca	-0.18855968
30	0xbdf5bf76	-0.11999409
31	0xbdad08ce	-0.08448945
32	0xbc4fa0a9	-0.012672582
33	0xbddfdf8f	-0.10931312
34	0xbd9c107c	-0.07620332
35	0xbe2806cf	-0.16408847
36	0xbe167ab9	-0.14695252
37	0xbddd5df2	-0.10808934
38	0xbdccf7b5	-0.10008184
39	0xbdd14d0c	-0.10219774
40	0xbdcb345d	-0.09922097
41	0xbe570b05	-0.21000297
42	0xbe0f4def	-0.13994573
43	0xbe23ae25	-0.159844
44	0xbe1131c0	-0.14179134
45	0xbe256576	-0.16151986
46	0xbe1eaa8c	-0.15494746
47	0xbd762577	-0.060094323
48	0xbdfd658f	-0.123728864
49	0xbddec048	-0.108765185
50	0xbe244788	-0.16042912
51	0xbd986798	-0.07441634
52	0xbd80bb9a	-0.06285782
53	0xbda25503	-0.07926371
54	0xbd9b525a	-0.07584067
55	0xbdf05bf6	-0.1173629
56	0xbe1bd7f4	-0.15219098
57	0xbdcad1d1	-0.099033006
58	0xbe3a301e	-0.18182418
59	0xbe0eea2a	-0.13956514
60	0xbd64c9be	-0.05585646
61	0xbe80f211	-0.25184682
62	0xbe27400b	-0.16333024
63	0xbd8694f0	-0.06571376
64	0xbe26bf43	-0.16283898
65	0xbe27247d	-0.16322513
66	0xbd53ea04	-0.051736847
67	0xbd74c028	-0.059753567
68	0xbdb4db72	-0.08830918
69	0xbdadf0a5	-0.08493165
70	0xbe938d29	-0.28818634
71	0xbe18b404	-0.1491242
72	0xbe23eb5e	-0.16007754
73	0xbcb9b4f3	-0.022669291
74	0xbe060b63	-0.13090281
75	0xbdfcb100	-0.123384476
76	0xbd768ff0	-0.060195863
77	0xbd65a7b6	-0.056068145
78	0xbdcbd026	-0.099518105
79	0x3d8874ff	0.0666294
80	0xbe0e281a	-0.13882485
81	0xbe27d2df	-0.16389035
82	0xbda6efcc	-0.081512064
83	0xbde6c6f5	-0.11268417
84	0xbd9b63c3	-0.075873874
85	0xbdf0af02	-0.1175213
86	0x3d2097dc	0.039207324
87	0xbe07a76f	-0.13247465
88	0xbe1ab5ed	-0.15108462
89	0xbe2203b4	-0.15821725
90	0xbdc51ae7	-0.09624272
91	0xbd9e518a	-0.07730396
92	0xbe1e114f	-0.1543629
93	0xbdecd9ac	-0.11564955
94	0xbe0502c6	-0.12989339
95	0xbdb296c5	-0.08720163
96	0xbd66ecc0	-0.056378126
97	0xbda0af85	-0.07845978
98	0xbe37ff90	-0.17968583
99	0xbdb64004	-0.08898929
100	0xbd9ad91e	-0.07560943
101	0xbda3a551	-0.07990516
102	0xbdc10cf6	-0.094263
103	0xbde8dada	-0.113698676
104	0xbde55df8	-0.11199564
105	0xbdf4403e	-0.11926316
106	0xbe2f19c1	-0.17099668
107	0xbe15bad7	-0.14622055
108	0xbde922e0	-0.11383605
109	0xbe226387	-0.15858279
110	0xbdbdb5af	-0.09263169
111	0xbdbb86d1	-0.091565736
112	0xbddd5fea	-0.1080931
113	0xbe1d0aed	-0.15336199
114	0xbd727488	-0.059193164
115	0xbde10266	-0.109867856
116	0xbde9814e	-0.11401616
117	0xbe01f98d	-0.12692852
118	0xbe6abee7	-0.22924386
119	0xbd9b362c	-0.07578692
120	0xbd7b2f1f	-0.061324235
121	0xbda56306	-0.08075528
122	0xbdc3a480	-0.0955286
123	0xbded6397	-0.11591261
124	0xbd90c9e3	-0.07069757
125	0xbdb682eb	-0.08911689
126	0xbe02cd88	-0.12773716
127	0xbe6d8640	-0.23195744
128	0xbd04fd41	-0.032468084
129	0xbdb30817	-0.087417774
130	0xbd3273aa	-0.043567337
131	0xbe3a2baa	-0.18180719
132	0xbd52a7e5	-0.051429648
133	0xbe05a02f	-0.13049386
134	0xbe3743fd	-0.17897029
135	0xbe33215f	-0.17493199
136	0xbe0902c6	-0.13379964
137	0xbe13d1e4	-0.14435536
138	0xbe441f2e	-0.19152519
139	0xbd895b14	-0.06706825
140	0xbd6156fd	-0.0550146
141	0xbb51f8da	-0.0032039196
142	0xbddfa294	-0.10919681
143	0xbc6549be	-0.013994632
144	0xbe1a5ba2	-0.15074018
145	0xbe0dbeef	-0.13842367
146	0xbe458baa	-0.19291559
147	0xbd472343	-0.048617613
148	0xbccf9f51	-0.025344523
149	0xbd980f36	-0.07424776
150	0xbd9fa025	-0.07794217
151	0xbd4118c3	-0.047142755
152	0xbcbbad0a	-0.02290966
153	0xbd42fe23	-0.047605645
154	0xbda64d1d	-0.08120177
155	0xbde8b11c	-0.11361906
156	0xbe0aa449	-0.13539232
157	0xbe0be62c	-0.13662022
158	0xbe6887e1	-0.22708084
159	0xbe21479b	-0.15749972
160	0xbdf5ac01	-0.11995698
161	0xbdf111d5	-0.11770979
162	0xbda8a89e	-0.08235286
163	0x3d191cf5	0.03738113
164	0xbd9140ed	-0.07092462
165	0xbe0d6c7e	-0.13810918
166	0xbd8dd959	-0.069262214
167	0x3cd03b2c	0.02541884
168	0xbe611119	-0.21979178
169	0xbe0463e2	-0.12928727
170	0xbd90b6eb	-0.07066139
171	0xbdc898cc	-0.09794769
172	0xbdcd23c6	-0.10016589
173	0xbca1e821	-0.019764008
174	0xbd7cfb2a	-0.061762966
175	0xbe1c8a1a	-0.15287057
176	0xbd8dbf46	-0.06921248
177	0xbd41b7f3	-0.04729457
178	0xbd82915f	-0.063753836
179	0xbdef714d	-0.11691532
180	0xbd95c928	-0.07313758
181	0xbd8cf027	-0.06881743
182	0xbe00c735	-0.12575991
183	0xbd4c825b	-0.049929004
184	0xbd3b9a51	-0.045801464
185	0xbd0e1a7a	-0.03469322
186	0xbb9f9e46	-0.0048711626
187	0xbdc4a4a1	-0.09601713
188	0xbd3b2c8e	-0.045696788
189	0xbcd7a13d	-0.026322002
190	0xbd745d05	-0.059659023
191	0xbdb6a89c	-0.089188784
192	0xbe002d44	-0.12517267
193	0xbbcf416e	-0.0063249385
194	0xbdd18f73	-0.10232439
195	0xbda85cbc	-0.08220813
196	0xbd0cab0b	-0.034342807
197	0xbdea493f	-0.11439752
198	0xbd9104ce	-0.070809945
199	0xbe13342a	-0.14375368
200	0xbe5e3076	-0.21698174
201	0xbd969b24	-0.073538095
202	0xbda04253	-0.0782515
203	0xbd1f6a45	-0.038919706
204	0xbe6f8e24	-0.23394066
205	0xbdcd1195	-0.10013119
206	0xbd9ce565	-0.07660941
207	0xbd406055	-0.04696687
208	0xbdb02a34	-0.086017996
209	0xbe2b905f	-0.16754292
210	0xbe4c5835	-0.19955523
211	0xbe0862eb	-0.13318984
212	0xbe02616c	-0.12732476
213	0xbd118ce4	-0.035534754
214	0xbe2c7e69	-0.16845097
215	0xbc839c5e	-0.016065773
216	0xbe440100	-0.19141006
217	0xbd515ac3	-0.051111948
218	0xbdb0fa31	-0.0864147
219	0xbd60090b	-0.054696124
220	0xbe0c0a21	-0.13675739
221	0xbc8bee61	-0.017081441
222	0xbda3bc21	-0.07994867
223	0xbde39ebd	-0.11114261
224	0xbdb9ef19	-0.090788074
225	0xbddaab67	-0.10677224
226	0xbdb38710	-0.087659955
227	0xbcc9bb04	-0.024625309
228	0xbe2f59f7	-0.17124163
229	0xbdc46513	-0.09589591
230	0xbdb610d3	-0.08889928
231	0xbd8f1fa0	-0.06988454
232	0xbe049170	-0.12946105
233	0x3c3596ca	0.011083314
234	0xbdca12e5	-0.09866885
235	0xbe2f1cc1	-0.17100812
236	0xbe13401c	-0.14379925
237	0xbe11395e	-0.1418204
238	0xbded4cda	-0.11586924
239	0xbe02af80	-0.1276226
240	0xbe3678e6	-0.17819557
241	0xbe4a842d	-0.19776984
242	0xbd075c72	-0.033047147
243	0xbe64c1e2	-0.22339585
244	0xbe109572	-0.14119509
245	0xbe3bb1fd	-0.18329616
246	0xbe58fcb0	-0.21190143
247	0xbd960c9f	-0.07326626
248	0xbda38557	-0.07984417
249	0xbdadca47	-0.08485847
250	0xbd4830ee	-0.048874788
251	0xbbb6fb2f	-0.0055841426
252	0xbdb8d84e	-0.09025632
253	0xbde17aca	-0.11009748
254	0xbe0768c0	-0.13223553
255	0xbe169f55	-0.14709218

action_model._discrete_distribution.branches.0.weight f4 [4, 256]
0	0x3d3207dc	0.043464527
1	0xbcbd5a42	-0.023114327
2	0x3ce794bf	0.02826917
3	0x3d19f28d	0.03758483
4	0x3d6f79b1	0.058465663
5	0x3d408aed	0.04700749
6	0x3d1b3f2c	0.037902042
7	0x3cadad48	0.021200791
8	0xbc89795c	-0.016781501
9	0xbc1dc707	-0.009629971
10	0xbc3a8d7a	-0.01138627
11	0xbd020471	-0.031742517
12	0xbcd88ec4	-0.026435263
13	0x3d51e513	0.051243853
14	0x3d91aeea	0.0711344
15	0xba454fdf	-0.00075268553
16	0x3c9cf392	0.019159112
17	0xba7afae9	-0.00095741317
18	0x3c58fd9c	0.013244059
19	0x3bce2ad4	0.0062917266
20	0xbca1a167	-0.019730283
21	0xbb906f64	-0.00440781
22	0xbd2a5e23	-0.041593682
23	0x3a2f30f5	0.00066830154
24	0x3d2538c2	0.04033733
25	0x3c46ea38	0.012140803
26	0x3cc597b6	0.024120193
27	0x3d08e0f1	0.033417646
28	0xbd07ca91	-0.033152167
29	0x3c980603	0.018557554
30	0xbd479be9	-0.048732672
31	0x3b295c5c	0.0025842404
32	0x3d83195c	0.06401321
33	0xbbd7b161	-0.0065824245
34	0xbc03cefa	-0.0080449525
35	0x3cc68a01	0.024235727
36	0xbd587ac2	-0.052851446
37	0xbd261519	-0.040547464
38	0xbd2ef394	-0.042712763
39	0xbbb724ab	-0.005589088
40	0x3c6f789b	0.014616157
41	0x3d2089ab	0.03919379
42	0xbc89e0eb	-0.016830882
43	0x3cf2a319	0.029618787
44	0x3d247fb8	0.040160865
45	0x3d483198	0.04887542
46	0x3c3fb875	0.011701693
47	0x3cb04cd9	0.021521019
48	0x3cfcb83e	0.030849572
49	0x3d43cb21	0.04780114
50	0xbd473193	-0.048631262
51	0xbcba4c43	-0.022741443
52	0x3bc14c2b	0.0058989725
53	0x3c237ca9	0.009978452
54	0x3c929b7a	0.017896403
55	0x3c4e7cf5	0.012603034
56	0xbc1b9b7b	-0.009497519
57	0xbc52edec	-0.012874108
58	0x3d2a4ff1	0.041580144
59	0xbda13f88	-0.07873446
60	0xbd245935	-0.040124137
61	0x3c04e57e	0.008111356
62	0x3cadfdec	0.021239243
63	0xbc9df8c6	-0.019283663
64	0x3cb21db4	0.02174268
65	0xbce0cd33	-0.027441597
66	0xbc3774de	-0.011197297
67	0x3c6e9e31	0.014564083
68	0xbcae6c7a	-0.02129196
69	0x3c0cd87b	0.008596535
70	0x3cac47b0	0.021030277
71	0x3db90782	0.09034635
72	0x3c00a4e9	0.007851818
73	0xbc271a5d	-0.010199157
74	0x3d0a795d	0.033807147
75	0x3c090f78	0.008365504
76	0xbc9cdafa	-0.019147385
77	0xbc7111cf	-0.014713719
78	0xbc8dea3e	-0.01732361
79	0xbc6dba9d	-0.014509824
80	0x3c91e334	0.017808534
81	0xbc2bb933	-0.010481167
82	0x3b950dda	0.0045487704
83	0x3db4d8cf	0.088304155
84	0xbb81fb6b	-0.003966739
85	0xbbc5494d	-0.006020701
86	0xbd7cacfa	-0.0616884
87	0x3ccdc421	0.025117936
88	0x3cbb77a8	0.022884205
89	0xbd10940d	-0.035297442
90	0xbce72356	-0.028215092
91	0xbd28a442	-0.041172273
92	0xbbe1568d	-0.0068767727
93	0xbcf2c0bb	-0.029632917
94	0xbc469a57	-0.012121758
95	0x3bc430d6	0.005987267
96	0xbc45091d	-0.012026099
97	0x3d038c39	0.03211615
98	0x3d953fbf	0.07287549
99	0xbc04fc53	-0.008116799
100	0xba99965f	-0.0011717788
101	0xbca18bca	-0.019719977
102	0x3bdb04b0	0.0066839084
103	0xbd1a31f3	-0.03764529
104	0xbc8a3f92	-0.016876016
105	0x3b541c7d	0.0032365613
106	0x3d151f2f	0.036406692
107	0x3be5e472	0.007015758
108	0xbb495297	-0.0030719393
109	0x3ca1e7f1	0.019763919
110	0xbbf6f860	-0.007536933
111	0x3d103140	0.03520322
112	0xbc92ac73	-0.017904496
113	0x3ceb509c	0.028724961
114	0xbbedc896	-0.0072565777
115	0x3bb80a2d	0.0056164474
116	0x3d420189	0.047364745
117	0x3c74eb11	0.014948622
118	0xbadd791e	-0.0016897058
119	0xbc01473d	-0.00789052
120	0x3bd67a63	0.0065453514
121	0x3c50cb23	0.012743744
122	0xbceb0878	-0.028690562
123	0x3b0cd6e7	0.0021490396
124	0xbb6f5a1f	-0.0036522222
125	0xbd23ef3a	-0.040023066
126	0x3bc89e39	0.0061223772
127	0x3d38840a	0.045047797
128	0x3ae20c2d	0.001724606
129	0x3c3785ec	0.011201363
130	0x3ce79448	0.028268948
131	0x3d043858	0.032280296
132	0x3ca6dce9	0.02036901
133	0xbcbbc528	-0.02292116
134	0x3d44d383	0.048053276
135	0x3b2d4636	0.0026439554
136	0x38abd42f	8.193438e-05
137	0x3d31d62e	0.04341715
138	0x3cc189fb	0.023625365
139	0xbd06c620	-0.03290379
140	0xbd5e55d4	-0.05428107
141	0xbd19f2be	-0.037585013
142	0xbd03171a	-0.032004453
143	0x3baf81be	0.0053560426
144	0x3d04c22f	0.03241175
145	0xbd4ec11b	-0.05047713
146	0x3d52d556	0.051472984
147	0x3ce36cca	0.027761836
148	0xbbc31e11	-0.005954512
149	0x3d36d3dc	0.04463564
150	0x3c0823e1	0.008309335
151	0x3b08800f	0.0020828282
152	0x3d32b2aa	0.04362742
153	0xbc94e6eb	-0.018176517
154	0xbbd87f55	-0.006606976
155	0xbbe1af03	-0.006887318
156	0x3d000af9	0.031260464
157	0xbc071db5	-0.008246829
158	0x3c14ec00	0.00908947
159	0xbb0d26e4	-0.0021538073
160	0xbcaa4686	-0.020785581
161	0xbc92042c	-0.017824255
162	0xbc1c296e	-0.009531362
163	0x3d734f84	0.059402004
164	0x3ceb5ec5	0.028731713
165	0x3cebed3d	0.028799647
166	0xbd74e9a3	-0.059793126
167	0x3c9feea8	0.01952298
168	0xb90da4aa	-0.0001350815
169	0xbb3e1dfc	-0.0029009571
170	0x3d315a5b	0.04329906
171	0x3c0901b9	0.008362227
172	0xbbbdd789	-0.005793516
173	0xbda0fefe	-0.07861136
174	0x3b537986	0.0032268479
175	0x3d3286be	0.04358553
176	0xbd1a6a41	-0.037698988
177	0x3cfdbaf5	0.030972937
178	0x3c5e37ea	0.013563136
179	0xbcb20723	-0.021731919
180	0x3b26388a	0.002536329
181	0xbc9eb36b	-0.019372663
182	0xbcf54665	-0.029940793
183	0xbd79a07f	-0.060944077
184	0x3c1f5eb0	0.009727165
185	0xbcccf470	-0.0250189
186	0xbcd2eb38	-0.025746927
187	0x3bd02dd0	0.0063531175
188	0x3c4b50bc	0.012409385
189	0xbd6588e7	-0.056038763
190	0xbd76b01b	-0.06022654
191	0xbc476f89	-0.012172588
192	0x3da5d661	0.0809753
193	0xbd3f5ec3	-0.04672123
194	0x3c4b7fe0	0.0124206245
195	0x3d5b91a4	0.05360569
196	0x3ce8d0e3	0.028419917
197	0x3d21d025	0.039505143
198	0x3c31f802	0.010862352
199	0x3cc4bca9	0.024015741
200	0x3cbaff34	0.022826768
201	0x3c8e629c	0.017381005
202	0x3cc20343	0.023683196
203	0x3d174902	0.03693486
204	0x3cab8a68	0.02094002
205	0xbc471c07	-0.012152678
206	0x3cffcfab	0.031226953
207	0x3b3038d3	0.0026889339
208	0xbbf43317	-0.0074523794
209	0x3d83d5db	0.06437274
210	0x3c9590a0	0.01825744
211	0x3d41668b	0.047216933
212	0xbc1f72de	-0.009731976
213	0xbc89310d	-0.016747022
214	0x3d8f08e5	0.06984118
215	0x3c3ff5be	0.011716304
216	0x3ce48b96	0.027898591
217	0xbbc4ee3b	-0.0060098446
218	0x3c35dc7d	0.011099932
219	0x3c01b04f	0.00791557
220	0x3bd6daf4	0.006556863
221	0xbcc900e0	-0.02453655
222	0x3cc11603	0.023570066
223	0xbca143d3	-0.019685661
224	0x3ba9018b	0.0051576546
225	0xbd353902	-0.04424382
226	0xbc8e6339	-0.017381297
227	0x3c404f08	0.0117375925
228	0x3c381550	0.01123555
229	0xbc4933ae	-0.012280388
230	0xbcdbb49f	-0.026819525
231	0x3b978a7d	0.0046246634
232	0xbc3bbe5b	-0.0114589585
233	0xbc800a89	-0.015630024
234	0x3c3e845f	0.011628239
235	0xbad9fde7	-0.0016631455
236	0x3cd50d7b	0.026007405
237	0x3adca0d0	0.0016832594
238	0x3dd31c1d	0.103080966
239	0x3cf6be66	0.030120086
240	0x3d94d212	0.0726663
241	0x3c3309ae	0.010927601
242	0x3c302489	0.010750898
243	0x3cdb993a	0.026806463
244	0x3cb8c1c2	0.022553328
245	0x3583f969	9.832848e-07
246	0xbcdabba4	-0.026700802
247	0xbc65f28e	-0.01403488
248	0x3c49b254	0.012310583
249	0x3cd2a754	0.025714554
250	0x3cc13ecc	0.023589514
251	0x3cf074ec	0.029352628
252	0x3d603efd	0.05474757
253	0x3a219f4c	0.00061653997
254	0x3be45cda	0.0069690766
255	0x3cc1b7ec	0.023647271

action_model._discrete_distribution.branches.0.bias f4 [4]
0	0x3d19e722	0.03757394
1	0xbcb4c47c	-0.022066347
2	0xbbe4e8ff	-0.006985783
3	0xbb8a796f	-0.004225902

action_model._discrete_distribution.branches.1.weight f4 [3, 256]
0	0x3d09f240	0.033678293
1	0xbb69ca01	-0.0035673382
2	0x3c6f97b4	0.014623571
3	0xba147427	-0.000566306
4	0xbc692249	-0.014229366
5	0xba42aafc	-0.00074259914
6	0x3d30130e	0.042986922
7	0x3bcf8f5b	0.006334228
8	0xbc55eda2	-0.013057144
9	0xbcf195e4	-0.029490419
10	0xbc039327	-0.008030689
11	0x3d00e403	0.03146745
12	0x3c5d3be4	0.013503049
13	0x3c9cb878	0.01913093
14	0xbd207186	-0.039170764
15	0xbccbd768	-0.024882987
16	0xbc7db92e	-0.015486045
17	0x3d1baeb3	0.038008403
18	0x3c34d860	0.011037916
19	0xbc81a0df	-0.01582378
20	0xba5a823b	-0.0008335446
21	0x3bcf62eb	0.0063289306
22	0xbce0780a	-0.02740099
23	0x3d1a9432	0.037738986
24	0xbcc916a5	-0.02454693
25	0x3c752010	0.014961258
26	0x3d0d4dd1	0.03449804
27	0xbc76ead1	-0.015070633
28	0x3baffd13	0.005370745
29	0x3d57daaf	0.052698787
30	0x3ca58bec	0.020208322
31	0x3c8f6a90	0.017506868
32	0x3d0b2459	0.03397021
33	0x3bfed389	0.007776682
34	0x3c3942d7	0.01130744
35	0x3cf70678	0.030154452
36	0xbd1b58ac	-0.03792636
37	0x3c091f99	0.00836935
38	0x3ccdf164	0.025139518
39	0x398f5d7a	0.0002734473
40	0x3c9418b7	0.018078191
41	0x3bd2534f	0.0064186226
42	0x3bf283f7	0.0074009853
43	0x3c149fa8	0.009071268
44	0x3badd520	0.0053049475
45	0x3d10f60c	0.0353909
46	0xbd225e92	-0.03964097
47	0x3cbd5b0f	0.02311471
48	0xbc1b714d	-0.009487462
49	0xbc5beeca	-0.013423631
50	0x3b87f5f2	0.004149192
51	0xbc8ef9e9	-0.01745315
52	0xbbbab164	-0.005697416
53	0xbb510b96	-0.0031897775
54	0xbd02fe7c	-0.031980976
55	0x3d5d554e	0.05403643
56	0x3d158028	0.036499172
57	0x3c6c0c8e	0.01440729
58	0xbc3d82cb	-0.011566828
59	0xbcc0dc48	-0.023542538
60	0xbb89fd91	-0.0042111357
61	0x3c57f429	0.013180771
62	0x3b882709	0.004155044
63	0x3b72604b	0.0036983665
64	0x3cfcc156	0.030853909
65	0xbc16a2f5	-0.009194125
66	0x3d4e11c0	0.050309896
67	0xbb95de9f	-0.0045736576
68	0x3b8c1885	0.004275384
69	0xbcb9b3bc	-0.022668712
70	0x3bdaa61b	0.0066726333
71	0x3cf95826	0.03043754
72	0xbaa702b5	-0.0012741896
73	0xbc88f6e1	-0.016719284
74	0xbc869b0c	-0.016431354
75	0x3c9b31e7	0.018944694
76	0x3ae7550b	0.0017649246
77	0xbd8dcd29	-0.06923897
78	0x3bc0b920	0.0058814436
79	0x3b882d99	0.0041558263
80	0xbcf2d99c	-0.02964478
81	0x3ab96cd0	0.0014146809
82	0x3d12d2e2	0.035845645
83	0xbce90a3b	-0.028447261
84	0xbb11c0ce	-0.0022240165
85	0xbbdc50c9	-0.0067234975
86	0x3cc6b0bb	0.024254194
87	0xbcbfa7c8	-0.023395434
88	0x3ba2688c	0.0049563106
89	0x3c0fc3dd	0.008774725
90	0x3cc7bee0	0.024383008
91	0xbc43cae7	-0.011950231
92	0x3ce3170e	0.027720954
93	0xbc196dcc	-0.0093645565
94	0xbcde5cd8	-0.02714388
95	0xb9096bdf	-0.00013105523
96	0xbc2ad1ac	-0.010425966
97	0x3baf9086	0.0053578047
98	0xba6c4ee2	-0.000901444
99	0xbc6fbe00	-0.014632702
100	0xb9925d2e	-0.00027916714
101	0x3b7eaf9b	0.0038861993
102	0xbc0c1830	-0.008550689
103	0x3d2de808	0.04245761
104	0xbc3a067d	-0.011354086
105	0x3c61158e	0.013738049
106	0xbc6fd5ef	-0.014638408
107	0xbc6012a8	-0.013676323
108	0x3badc9f7	0.005303617
109	0x3bf45c87	0.007457319
110	0xbbd4e421	-0.0064969216
111	0x3d11eb65	0.03562488
112	0xbcd07a6f	-0.025449006
113	0x3cb7a8ad	0.022419298
114	0xbcb4b4d1	-0.022058876
115	0xbcbd82e8	-0.02313371
116	0x3c8c08bf	0.017094014
117	0x3b82d125	0.003992217
118	0x3c71bd1d	0.014754561
119	0x3be5747e	0.0070024123
120	0xba1c2c54	-0.0005957533
121	0xba63b923	-0.00086869503
122	0x3c2c7a2c	0.010527175
123	0xbb80db13	-0.0039323657
124	0xbd279db8	-0.040921897
125	0xbb82e2a9	-0.003994305
126	0x3c40193e	0.011724768
127	0xbca46c63	-0.020071214
128	0xbc03cb0d	-0.008044017
129	0xbca66582	-0.020312075
130	0x3cb31cc7	0.021864308
131	0xb8f0a268	-0.00011474342
132	0x3c840f77	0.016120655
133	0x3c65faf4	0.014036883
134	0xbbe2e8da	-0.0069247307
135	0xbc15ff28	-0.009155072
136	0xbbad97a3	-0.0052976175
137	0x3cd58947	0.026066436
138	0x3a1a5210	0.0005886862
139	0xbba5e43b	-0.0050626076
140	0xba80f80e	-0.0009839551
141	0x3ba96eab	0.0051706634
142	0x3c3c9ba0	0.011511713
143	0xbc22e680	-0.009942651
144	0xbd6fc460	-0.058536887
145	0x3d172f65	0.036910433
146	0xbc84c14a	-0.016205449
147	0x3d3fb8d1	0.046807114
148	0x3d943a76	0.07237713
149	0xbc98ddff	-0.018660543
150	0xbc144973	-0.009050715
151	0xbd1b7959	-0.037957523
152	0x3c0a131b	0.008427407
153	0xbd07dc43	-0.033169042
154	0x3d141031	0.036148254
155	0x3cad1e43	0.021132594
156	0xbc6a0b16	-0.01428487
157	0x3a2b4e75	0.00065348233
158	0x3c1f0726	0.009706294
159	0x3c1a1300	0.009403944
160	0x3cd2b7cc	0.025722407
161	0x3d06ab1f	0.032878038
162	0xbbe4412f	-0.0069657783
163	0x3c89ce3e	0.016821977
164	0xbc8e73d8	-0.017389223
165	0x3c8b3e95	0.016997615
166	0xbcc94f37	-0.024573905
167	0x3c9cb72f	0.019130317
168	0xbc0e766e	-0.008695228
169	0xbc38141a	-0.011235261
170	0x3cbea746	0.023273122
171	0x3ca7b69c	0.020472817
172	0x3c323744	0.010877434
173	0x3ce39019	0.027778672
174	0xba317396	-0.0006769238
175	0x3bf4b8ab	0.007468303
176	0x3c833819	0.01601796
177	0x3cc475cd	0.023981953
178	0xbcc08492	-0.023500714
179	0x3da0f05c	0.07858345
180	0x3cd55bf7	0.026044829
181	0xbc5d589a	-0.013509894
182	0xb84a060d	-4.816619e-05
183	0x3cf1f696	0.029536527
184	0xbba3ac10	-0.0049948767
185	0xbc17feb4	-0.009277035
186	0x3c940780	0.018069983
187	0xbbd81488	-0.0065942444
188	0x39dd9295	0.00042261617
189	0x3d4cf805	0.050041217
190	0xbb99afa8	-0.0046901293
191	0x3ce7a3c7	0.028276337
192	0xbc57dd93	-0.013175386
193	0x3cc3d586	0.023905527
194	0x3cb5b550	0.022181183
195	0x3b6f7dcb	0.0036543484
196	0x3be897a8	0.007098157
197	0xbc980efc	-0.018561833
198	0xbd17826c	-0.036989614
199	0x3d56c7a9	0.052436505
200	0xbb0ad640	-0.0021184832
201	0xbc13b930	-0.00901632
202	0xbc14c81c	-0.009080913
203	0x3b4726e5	0.0030388173
204	0x3b8a2805	0.0042161965
205	0x3ab51012	0.0013813993
206	0x3c3a2be6	0.011363005
207	0x3ce0f4fb	0.027460566
208	0x3cacfd5a	0.021116901
209	0xbc56f323	-0.013119492
210	0x3bce294b	0.0062915436
211	0x3c91fdab	0.017821154
212	0xbc35d835	-0.011098911
213	0x3cc40db4	0.023932315
214	0xbc88eef8	-0.016715512
215	0xbd5c9811	-0.05385596
216	0xbbd581a2	-0.0065156976
217	0xbc2014d3	-0.00977059
218	0xbc98d2d0	-0.01865521
219	0xbc5b1243	-0.013371053
220	0xbaec5f08	-0.0018033693
221	0x3d2b273c	0.041785464
222	0x3d3c190b	0.04592232
223	0xbc356869	-0.011072257
224	0x3b401665	0.0029310223
225	0xbc979390	-0.01850298
226	0x3c920a14	0.017827071
227	0x3c0473e9	0.008084276
228	0x3c44a0de	0.012001244
229	0x3c153dd4	0.009108979
230	0xbbf8a6bf	-0.007588237
231	0xbc6581ed	-0.0140080275
232	0xbc6495ee	-0.013951762
233	0x3cec1e92	0.02882317
234	0x3bbdf2d6	0.0057967706
235	0x3c1df3c9	0.009640642
236	0xbc07e679	-0.008294695
237	0xbbd80eed	-0.006593576
238	0xbd9816f3	-0.07426252
239	0x3a7141f2	0.0009203247
240	0xbc659ef7	-0.014014951
241	0xbafe6c32	-0.0019410907
242	0x3c2629e7	0.010141826
243	0xbd3cc533	-0.0460865
244	0xbc0018fc	-0.007818457
245	0xbbb3a6ed	-0.0054825456
246	0xbc2b8d30	-0.010470673
247	0x3d213f32	0.03936691
248	0x3bf870ee	0.0075818216
249	0xbc287624	-0.010282073
250	0x3d394de8	0.045240313
251	0xbb661b7a	-0.0035111592
252	0x3c32481d	0.010881451
253	0xbb41b769	-0.0029558784
254	0x3c0c8ab3	0.00857799
255	0xbd2574b2	-0.040394492

action_model._discrete_distribution.branches.1.bias f4 [3]
0	0x3d0ff8d2	0.035149403
1	0xbcb4f91d	-0.022091443
2	0xbc25f259	-0.010128581

onnx::Div_88 f4 [35]
0	0x3e14948d	0.14509793
1	0x3a0c0fc6	0.00053429266
2	0x3e64bdd7	0.22338043
3	0x3e863085	0.26208892
4	0x3e10b264	0.1413055
5	0x3e6f8e8e	0.23394224
6	0x3a0c0fc6	0.00053429266
7	0x3e4287f1	0.1899717
8	0x3e969239	0.29408434
9	0x3e22fc60	0.15916586
10	0x3e412156	0.18860373
11	0x3a46137c	0.0007556004
12	0x3e0d6dda	0.13811436
13	0x3e6c52b9	0.23078431
14	0x3ddca03f	0.10772752
15	0x3e8fb04e	0.28064197
16	0x3a0c0fc6	0.00053429266
17	0x3e678fec	0.22613496
18	0x3eb2b1d2	0.3490129
19	0x3e5e3036	0.21698079
20	0x3ea2c8ff	0.31793973
21	0x3a0c0fc6	0.00053429266
22	0x3e414c7c	0.18876833
23	0x3eb86d4d	0.3602089
24	0x3e3dbbbb	0.18528645
25	0x3eaccc78	0.33749747
26	0x3a0c0fc6	0.00053429266
27	0x3e4a7b1b	0.19773524
28	0x3ec1f5ad	0.37882748
29	0x3e67a6f6	0.22622284
30	0x3ebaf651	0.3651605
31	0x3a0c0fc6	0.00053429266
32	0x3e4e07d5	0.20120175
33	0x3ece434e	0.40285724
34	0x3e5365c7	0.20644294
