Assets/Trained Models/Presentation/3-2.2.onnx (onnx, 733191 bytes, 17 tensors)

discrete_act_size_vector f4 [1, 2]
4.0 3.0
00000000: 0000 8040 0000 4040

network_body.observation_encoder.processors.0.normalizer.running_mean f4 [35]
0.00489518 3.7500226e-07 0.04824768 0.9468857 0.97419363 0.03854067 0.0 0.05550897
0.90595406 0.9523685 0.021780899 6.2500465e-07 0.03468716 0.94349664 0.9774807 0.08612325
0.0 0.072895974 0.8403972 0.9059815 0.078616746 0.0 0.048350774 0.87205684
0.9392252 0.12810197 0.0 0.06745551 0.8026874 0.88995945 0.11920263 0.0
0.046797413 0.8329229 0.9178307
00000000: bf67 a03b eb53 c934 5c9f 453d 1a67 723f
00000010: c164 793f d2dc 1d3d 0000 0000 605d 633d
00000020: 9bec 673f 6cce 733f db6d b23c fec5 2735
00000030: 2014 0e3d ff88 713f 2d3c 7a3f 6361 b03d
00000040: 0000 0000 7c4a 953d 4524 573f 67ee 673f
00000050: d101 a13d 0000 0000 760b 463d 1e3f 5f3f
00000060: 1071 703f 2a2d 033e 0000 0000 1d26 8a3d
00000070: ec7c 4d3f 62d4 633f 8220 f43d 0000 0000
00000080: a5ae 3f3d 6f3a 553f f4f6 6a3f

network_body.observation_encoder.processors.1.normalizer.running_mean f4 [135]
0.0002348762 0.02366674 0.29977566 0.6568052 0.8490274 0.0002743776 0.19039607 0.23832457
0.54083085 0.8187597 0.000114501105 0.106417656 0.2515406 0.6259463 0.8710005 0.00018900205
0.2563323 0.07677861 0.6229196 0.80626243 0.000106000785 0.26875362 0.08204431 0.6196562
0.88915867 0.00019912573 0.29481012 0.018639583 0.6593748 0.82723415 3.962524e-05 0.15991753
0.017887514 0.80207616 0.94803995 2.5000062e-07 0.17311305 1.7625254e-05 0.8232513 0.961943
0.0 0.006462611 8.325058e-05 0.98950183 0.99493355 0.00023700217 0.023674948 0.29994917
0.65811205 0.8504712 0.00027712702 0.19040225 0.23846167 0.5421399 0.82022446 0.000116376825
0.10642517 0.25168633 0.62727153 0.87247247 0.0001912518 0.25633824 0.076832645 0.6242818
0.8077423 0.00010762587 0.26876056 0.08210501 0.62103283 0.89062405 0.00020137613 0.29481843
0.018650543 0.66082215 0.828797 4.0250205e-05 0.15992521 0.017896809 0.8035397 0.94957536
2.5000062e-07 0.17311832 1.7875138e-05 0.8247166 0.9635594 0.0 0.006465518 8.337556e-05
0.9911174 0.996395 0.00023937738 0.023682414 0.30012408 0.65942097 0.85191613 0.00028012705
0.19040851 0.23859811 0.5434528 0.82168686 0.00011825091 0.106432416 0.25183395 0.62859654
0.87392706 0.00019387672 0.25634378 0.07688861 0.62565136 0.8092092 0.00010925141 0.26876953
0.082167216 0.6223882 0.8921227 0.00020375122 0.29482776 0.018661438 0.66229886 0.8302767
4.1000185e-05 0.15993285 0.017906437 0.80500686 0.9510702 2.5000062e-07 0.17312405 1.812509e-05
0.82631224 0.9650005 0.0 0.006468826 8.350037e-05 0.9925726 0.99817806
00000000: 1a49 7639 c0e0 c13c 327c 993e 6324 283f
00000010: dc59 593f 57da 8f39 30f7 423e 5b0b 743e
00000020: e473 0a3f 3c9a 513f 5020 f038 80f1 d93d
00000030: eec9 803e 043e 203f e4f9 5e3f da2e 4639
00000040: fd3d 833e 1b3e 9d3d a977 1f3f 3767 4e3f
00000050: bd4c de38 139a 893e d906 a83d caa1 1e3f
00000060: e79f 633f 68cc 5039 5af1 963e 0ab2 983c
00000070: c9cc 283f 9ec5 533f 4733 2638 6cc1 233e
00000080: d688 923c dd54 4d3f bfb2 723f d337 8634
00000090: 8c44 313e f2d9 9337 99c0 523f e541 763f
000000a0: 0000 0000 4fc4 d33b d196 ae38 fe4f 7d3f
000000b0: f7b3 7e3f c983 7839 f7f1 c13c f092 993e
000000c0: 087a 283f 7bb8 593f 5c4b 9139 cff8 423e
000000d0: 4c2f 743e aec9 0a3f 3bfa 513f 550f f438
000000e0: 71f5 d93d 08dd 803e de94 203f 5b5a 5f3f
000000f0: c48a 4839 c43e 833e 6f5a 9d3d efd0 1f3f
00000100: 33c8 4e3f 33b5 e138 fc9a 893e ac26 a83d
00000110: 02fc 1e3f f0ff 633f 7e28 5339 71f2 963e
00000120: 06c9 983c a42b 293f 0a2c 543f 54d2 2838
00000130: 6fc3 233e 549c 923c c7b4 4d3f 5f17 733f
00000140: d337 8634 ee45 313e 91f2 9537 a120 533f
00000150: d4ab 763f 0000 0000 b2dc d33b ead9 ae38
00000160: dfb9 7d3f be13 7f3f 6001 7b39 9f01 c23c
00000170: dda9 993e d0cf 283f 2d17 5a3f 04de 9239
00000180: 73fa 423e 1053 743e b91f 0b3f 125a 523f
00000190: 79fd f738 3df9 d93d 61f0 803e b4eb 203f
000001a0: afb9 5f3f 634b 4b39 7e3f 833e c777 9d3d
000001b0: b02a 203f 5628 4f3f e71d e538 299c 893e
000001c0: 4947 a83d d554 1f3f 2762 643f 0da6 5539
000001d0: aaf3 963e dfdf 983c 6b8c 293f 048d 543f
000001e0: 9df7 2b38 70c5 233e 85b0 923c ee14 4e3f
000001f0: 5679 733f d337 8634 6e47 313e 560b 9837
00000200: 3389 533f 460a 773f 0000 0000 72f8 d33b
00000210: eb1c af38 3d19 7e3f 9988 7f3f

network_body.observation_encoder.processors.2.normalizer.running_mean f4 [12]
0.14807357 0.9999854 0.20203327 -0.017265322 0.5050401 0.0 0.56910664 0.4703428
0.2746942 0.21656467 -0.013272194 0.19093469
00000000: 99a0 173e 0bff 7f3f cfe1 4e3e 0170 8dbc
00000010: 4f4a 013f 0000 0000 f9b0 113f c5d0 f03e
00000020: b8a4 8c3e 21c3 5d3e 9e73 59bc 6284 433e

network_body._body_endoder.seq_layers.0.weight f4 [256, 182]
0.0026175324 0.16770858 0.11366252 0.13631466 -0.09844405 0.38207608 0.11616079 -0.14682987
-0.16278765 -0.067212045 -0.03837307 0.23626359 -0.038135573 0.026423331 0.14128532 0.14309198
0.10351311 0.005074552 -0.07903999 -0.060980175 0.17872836 -0.0029789046 -0.19902913 0.04083246
0.00936903 0.0028702847 0.054151714 -0.18349594 0.041402254 0.0033541461 0.08609592 -0.021549754
0.13421854 0.06777289 0.004489461 0.13660227 -0.066196114 0.0054126293 -0.12886286 -0.052752007
0.15005606 0.2049397 0.23672369 -0.085927576 0.081739 0.32485566 0.1119553 -0.0026691693
0.02113726 -0.03591786 0.1345686 -0.04633666 0.11156103 0.054654863 0.12327545 0.24571794
-0.04261853 0.19589657 0.17390096 0.028901644 0.12127427 0.15552443 0.12524937 -0.07255479
-0.026434643 0.17781484 0.02342222 0.18722658 0.025022661 -0.0020429476 0.38862705 0.018506387
0.25661525 -0.024200246 -0.01982487 -0.02242785 -0.009646043 0.15284616 0.008464611 0.19045874
0.45356435 -0.020546999 0.07870582 0.022569923 0.08534184 0.21095923 0.129239 0.09846729
0.112892136 -0.012379356 0.38315466 0.050288796 0.042159766 -0.08838567 -0.1625495 0.0377514
-0.035723705 0.19323656 0.13822189 0.13298184 0.15337652 -0.1439547 0.11221649 0.14969787
-0.10981396 0.27926952 0.18986401 0.10436147 0.017134149 0.059785217 0.227077 0.05297027
0.09999443 0.04537554 -0.13269912 0.21814832 0.07669507 0.12006092 -0.07498963 -0.23043802
-0.12046455 0.036474343 0.3087004 0.016735904 -0.05863151 0.2877081 0.07659519 0.14869583
-0.28540593 0.032945152 0.24061319 -0.13355826 0.1171914 0.05663375 -0.04903857 0.22296299
-0.18652603 -0.04493925 0.17213602 0.11186108 0.049058482 0.08613559 0.1589426 -0.045278355
0.1654735 0.24638423 -0.033511784 0.09910068 0.021138625 -0.15689892 0.050813213 0.084628835
0.24612242 -0.032425445 0.10116064 0.100890785 -0.027925842 0.21006428 -0.0314083 -0.17010365
0.3090094 0.20713682 0.22880101 -0.1894574 -0.23090146 0.09994166 0.0041972427 0.17093179
-0.070714705 0.028614324 0.16082716 -0.24985522 0.1929606 -0.024131179 -0.3678654 -0.027380005
-0.03783115 0.37680626 -0.2502966 -0.36480168 -0.06222495 0.25069383 0.18369246 0.2857415
0.09188983 0.06557128 0.018083273 0.121287085 -0.018219978 0.20674613 -0.07559324 0.080330044
0.06518413 0.4225116 0.1596317 -0.12262206 -0.13403589 0.1601261 0.01994156 0.19166103
0.077434644 0.07009056 0.16060624 -0.10416744 0.19646694 0.011937466 0.08717937 -0.1962707
0.02743194 0.26186666 0.2455376 0.13375267 -0.045500513 0.080637045 -0.11714346 0.19346347
0.20350723 0.26869372 0.01053071 0.1693345 -0.008494166 0.33744678 0.09729755 0.2735511
0.0068331356 -0.0072032697 0.20574671 0.27311376 0.2651565 0.3481107 -0.06282832 0.18704815
0.2236687 0.062293775 0.029599564 -0.022110566 0.038831927 0.19921309 0.043919366 0.34620553
0.1726869 0.04469045 0.31757373 0.124441594 0.32559133 0.14124082 -0.11614569 0.21785337
0.08696186 0.23137878 -0.10241439 -0.12749144 0.107383154 0.16179642 0.16458037 -0.028820809
00000000: e88a 2b3b ccbb 2b3e e5c7 e83d 1296 0b3e
00000010: 099d c9bd 7a9f c33e b5e5 ed3d 925a 16be
00000020: ceb1 26be 78a6 89bd 152d 1dbd 15ef 713e
00000030: 0c34 1cbd be75 d83c 19ad 103e b486 123e
00000040: aefe d33d 6d48 a63b b8df a1bd 59c6 79bd
00000050: 9104 373e ba39 43bb 4bce 4bbe f03f 273d
00000060: 8f80 193c 631b 3c3b 30ce 5d3d 5ce6 3bbe
00000070: 6995 293d 3cd1 5b3b 0f53 b03d 1c89 b0bc
00000080: 9670 093e 83cc 8a3d 541c 933b 77e1 0b3e
00000090: d491 87bd 6d5c b13b a0f4 03be 7d12 58bd
000000a0: 4ca8 193e b6db 513e b267 723e ccfa afbd
000000b0: c766 a73d 7b53 a63e d248 e53d 3bed 2ebb
000000c0: 0c28 ad3c 9b1e 13bd 5acc 093e 82cb 3dbd
000000d0: 1c7a e43d c7dd 5f3d d777 fc3d 7c9d 7b3e
000000e0: c590 2ebd 1c99 483e 1813 323e 24c3 ec3c
000000f0: a55e f83d cc41 1f3e 5f41 003e 9b97 94bd
00000100: 778d d8bc 1815 363e f5df bf3c 53b8 3f3e
00000110: 53fc cc3c f9e2 05bb 20fa c63e b59a 973c
00000120: 1363 833e 983f c6bc c467 a2bc 9cba b7bc
00000130: 700a 1ebc b483 1c3e 27af 0a3c 9e07 433e
00000140: 9639 e83e 2e52 a8bc 8430 a13d 8fe4 b83c
00000150: b4c7 ae3d b205 583e 3a57 043e 38a9 c93d
00000160: fe33 e73d c8d2 4abc d92c c43e a0fb 4d3d
00000170: b8af 2c3d 8c03 b5bd 6073 26be 36a1 1a3d
00000180: 0553 12bd cedf 453e 0a8a 0d3e 642c 083e
00000190: bc0e 1d3e dc68 13be c2d1 e53d 664a 193e
000001a0: 24e6 e0bd 6afc 8e3e b66b 423e 77bb d53d
000001b0: ea5c 8c3c 58e1 743d e086 683e 5bf7 583d
000001c0: e1c9 cc3d b4db 393d 47e2 07be 4662 5f3e
000001d0: 4e12 9d3d 80e2 f53d 2a94 99bd f2f7 6bbe
000001e0: 1eb6 f6bd 1f66 153d fb0d 9e3e bc19 893c
000001f0: 9827 70bd 7a4e 933e f0dd 9c3d b843 183e
00000200: ba20 92be 7ff1 063d 4e63 763e 7fc3 08be
00000210: 0b02 f03d cbf8 673d abdc 48bd 6950 643e
00000220: ae00 3fbe 3812 38bd 6d44 303e 6c17 e53d
00000230: 8cf1 483d db67 b03d d9c1 223e cc75 39bd
00000240: e371 293e 264c 7c3e a743 09bd 4cf5 ca3d
00000250: e92a ad3c 1caa 20be 8421 503d e251 ad3d
00000260: 8407 7c3e 8bd0 04bd 4f2d cf3d d49f ce3d
00000270: bcc4 e4bc 171b 573e fda5 00bd a72f 2ebe
00000280: 7b36 9e3e ad1b 543e d04a 6a3e 1f01 42be
00000290: 6f71 6cbe 37ae cc3d 0689 893b be08 2f3e
000002a0: dfd2 90bd 9668 ea3c e0af 243e 0cda 7fbe
000002b0: 7797 453e c0ae c5bc db58 bcbe 084c e0bc
000002c0: d6f4 1abd c0ec c03e e026 80be 49c7 babe
000002d0: 97df 7ebd f15a 803e e019 3c3e b64c 923e
000002e0: bc30 bc3d 3c4a 863d 5f23 943c 5d65 f83d
000002f0: 1042 95bc 42b5 533e a1d0 9abd 1484 a43d
00000300: 427f 853d 7153 d83e 7e76 233e 4621 fbbd
00000310: b440 09be 19f8 233e 7c5c a33c ca42 443e
00000320: 0e96 9e3d a48b 8f3d f675 243e bd55 d5bd
00000330: a12e 493e 5d95 433c 198b b23d 30fb 48be
00000340: f3b8 e03c 6313 863e 356e 7b3e 76f6 083e
00000350: bf5e 3abd 0925 a53d e9e8 efbd 4a1b 463e
00000360: 3364 503e 3992 893e 0089 2c3c 0666 2d3e
00000370: 1d2b 0bbc d3c5 ac3e f043 c73d e40e 8c3e
00000380: 7fe8 df3b 6809 ecbb 44af 523e 91d5 8b3e
00000390: 98c2 873e 913b b23e 22ac 80bd 8d89 3f3e
000003a0: 6809 653e c227 7f3d c97a f23c 3821 b5bc
000003b0: 3a0e 1f3d 84fe 4b3e cbe4 333d da41 b13e
000003c0: d6d4 303e 550d 373d 0699 a23e 3cdb fe3d
000003d0: e8b3 a63e 6fa1 103e cbdd edbd f414 5f3e
000003e0: 0f19 b23d 8fee 6c3e a3be d1bd 1e8d 02be
000003f0: b3eb db3d f6ad 253e c287 283e 9e19 ecbc

network_body._body_endoder.seq_layers.0.bias f4 [256]
-0.27003732 -0.26082832 -0.48797587 -0.167809 -0.040641267 -0.41438246 0.13218388 -0.26456457
-0.044138897 0.0033099658 -0.069804125 -0.13704254 -0.17985506 -0.0801343 -0.035552632 -0.19457076
-0.4190159 -0.11906049 -0.28491393 0.1038955 -0.1448582 -0.24300697 -0.23052973 0.0134021565
-0.07600473 0.019909183 -0.21412762 -0.030839322 -0.17921461 -0.3139951 -0.07668623 0.01258112
-0.089050144 -0.117952906 0.032334737 -0.0565473 0.039719824 0.0184212 0.045981277 -0.09717668
0.0072712232 -0.041063488 -0.13507284 -0.2790881 0.02132685 -0.30042887 -0.15512379 -0.08835269
-0.13542198 -0.30081502 -0.21174473 -0.005481381 -0.25945762 -0.24160123 -0.23333558 -0.21651001
-0.06303587 -0.22772485 -0.28967774 -0.09185812 -0.31331697 -0.098459825 0.006496428 -0.2039601
-0.024546187 -0.039476193 0.02331818 -0.30635083 -0.04886632 -0.07143471 0.06454839 0.036275856
0.26462647 0.02378469 -0.19090033 -0.40611675 -0.28079996 0.28376752 -0.20064022 -0.24172348
-0.020928906 0.054105602 -0.04773592 -0.15475383 -0.06652598 -0.019881116 -0.12629378 -0.13045624
0.14410359 -0.07068019 -0.22245078 -0.16294515 -0.06312854 -0.1932628 -0.10010519 -0.40660098
0.028359737 -0.390991 -0.33181813 -0.42144653 -0.24681026 0.26302078 0.16884303 -0.028154537
-0.432412 -0.00762309 -0.33020258 -0.12161712 -0.19944654 -0.35026485 0.006197702 -0.096772626
-0.34681472 -0.008940784 -0.012763146 -0.10001589 -0.37105763 -0.17081548 -0.13998254 -0.10370093
-0.18924215 -0.24667221 -0.1156137 -0.16740583 -0.056578886 -0.2226508 -0.45086357 -0.18704505
0.04864177 0.071056545 -0.3445183 -0.06996855 -0.023231566 -0.20642266 -0.18665811 -0.18843248
-0.057998225 -0.07893353 -0.06532536 0.01563962 -0.34460247 -0.04731517 0.043757983 -0.19822931
-0.112215854 -0.21774195 -0.3886905 -0.21841191 -0.19676277 -0.023628404 -0.24211085 -0.031356156
-0.13730207 -0.07428912 -0.21573764 0.15350918 -0.0935268 -0.07259589 -0.21506764 -0.3229202
0.032854732 -0.067701854 -0.028461933 -0.109220766 0.0068187155 0.14015558 0.053495113 -0.1750652
-0.26789802 -0.40892607 0.046686135 -0.18918563 -0.16266228 -0.21009348 -0.23339961 -0.10858014
0.04471786 -0.07901343 0.085523844 -0.050559316 -0.11651766 -0.1977975 -0.067904435 0.041591987
-0.05291845 0.1712566 -0.49292082 -0.15287489 0.08571859 -0.059527375 0.046659898 0.0787541
-0.113204785 -0.06605926 -0.12532489 -0.14555675 -0.08976118 -0.2231691 -0.37876296 -0.034616437
-0.08186835 0.030006202 -0.15199895 -0.26676294 0.061209098 0.027467571 -0.28514946 -0.06711564
-0.1330454 -0.3642249 -0.12100199 -0.09029582 -0.2498477 0.05421622 -0.05479264 -0.22619975
-0.12876984 0.043171126 -0.22344546 -0.13503477 -0.16266878 -0.33358613 -0.13431971 0.17317045
-0.013414352 -0.045550898 -0.1124303 0.07821277 -0.14231014 -0.08066732 -0.23877208 -0.0844423
-0.033438936 -0.19918808 0.08574106 -0.27652755 -0.07458322 -0.2423966 -0.08205927 -0.061814256
0.16924663 0.09807069 -0.18842436 -0.23627946 -0.095443726 -0.14645208 -0.05452615 -0.26938185
-0.115426995 0.090987146 -0.42528427 0.020946631 -0.16195273 -0.0036606546 -0.21504036 0.082030326
00000000: 5542 8abe 4a8b 85be f9d7 f9be 1fd6 2bbe
00000010: 7577 26bd f029 d4be 365b 073e 0275 87be
00000020: fdca 34bd 03ec 583b 77f5 8ebd e154 0cbe
00000030: ed2b 38be 741d a4bd a39f 11bd 8f3d 47be
00000040: 4189 d6be fcd5 f3bd 3de0 91be 2ac7 d43d
00000050: b555 14be d2d6 78be fc0f 6cbe b894 5b3c
00000060: 5ea8 9bbd 9518 a33c 4544 5bbe bfa2 fcbc
00000070: 0984 37be f7c3 a0be ac0d 9dbd 0b21 4e3c
00000080: ec5f b6bd 4b91 f1bd 6e71 043d 249e 67bd
00000090: 41b1 223d 0ee8 963c dd56 3c3d 9104 c7bd
000000a0: 7143 ee3b 3032 28bd 8950 0abe a3e4 8ebe
000000b0: a5b5 ae3c d0d1 99be c5d8 1ebe 41f2 b4bd
000000c0: 0fac 0abe 6d04 9abe 9cd3 58be 289d b3bb
000000d0: a1d7 84be 5066 77be 86ef 6ebe cdb4 5dbe
000000e0: f318 81bd b430 69be a450 94be 1c20 bcbd
000000f0: 156b a0be 4ea5 c9bd fddf d43b ebda 50be
00000100: 1615 c9bc cab1 21bd c505 bf3c 04da 9cbe
00000110: 0d28 48bd 5c4c 92bd f231 843d fe95 143d
00000120: 1f7d 873e 1cd8 c23c 607b 43be 89ee cfbe
00000130: 03c5 8fbe fa49 913e a174 4dbe 5c86 77be
00000140: 1973 abbc d69d 5d3d bd86 43bd ca77 1ebe
00000150: c63e 88bd b9dd a2bc 2853 01be 5296 05be
00000160: e48f 133e c7c0 90bd 23ca 63be 18db 26be
00000170: 8949 81bd afe6 45be f303 cdbd 012e d0be
00000180: ae52 e83c f92f c8be 11e4 a9be d7c7 d7be
00000190: d4bb 7cbe a9aa 863e 30e5 2c3e 58a4 e6bc
000001a0: 1b65 ddbe 1dcb f9bb 5010 a9be 6612 f9bd
000001b0: b73b 4cbe ea55 b3be 1816 cb3b ba30 c6bd
000001c0: b391 b1be 5e7c 12bc 841c 51bc 22d5 ccbd
000001d0: 44fb bdbe 41ea 2ebe 9557 0fbe 2761 d4bd
000001e0: b2c8 41be a497 7cbe e0c6 ecbd 6f6c 2bbe
000001f0: 43bf 67bd 92fe 63be 97d7 e6be bd88 3fbe
00000200: 983c 473d 1886 913d b464 b0be ac4b 8fbd
00000210: 2050 bebc 7660 53be 4e23 3fbe 72f4 40be
00000220: 8c8f 6dbd e7a7 a1bd 4dc9 85bd a91e 803c
00000230: bc6f b0be 8dcd 41bd 923b 333d a0fc 4abe
00000240: 6dd1 e5bd bff7 5ebe 7102 c7be 5fa7 5fbe
00000250: 2e7c 49be 5b90 c1bc e8eb 77be 506f 00bd
00000260: ea98 0cbe e524 98bd 54ea 5cbe 8331 1d3e
00000270: fb8a bfbd 27ad 94bd b13a 5cbe cc55 a5be
00000280: af92 063d 45a7 8abd 0029 e9bc 23af dfbd
00000290: 886f df3b f284 0f3e b11d 5b3d 4b44 33be
000002a0: ee29 89be c25e d1be f639 3f3d e1b9 41be
000002b0: f190 26be bf22 57be 4f00 6fbe 445f debd
000002c0: 132a 373d cbd1 a1bd 2027 af3d 4917 4fbd
000002d0: d0a0 eebd 6e8b 4abe 7b11 8bbd 5c5c 2a3d
000002e0: 04c1 58bd e45d 2f3e 1e60 fcbe 3c8b 1cbe
000002f0: 3a8d af3d fad2 73bd 731e 3f3d d449 a13d
00000300: e9d7 e7bd 144a 87bd 2b55 00be d40c 15be
00000310: b6d4 b7bd 7186 64be 38ed c1be f7c9 0dbd
00000320: 98aa a7bd 91cf f53c 9da5 1bbe 2795 88be
00000330: 64b6 7a3d ac03 e13c 1cff 91be ed73 89bd
00000340: 0e3d 08be b07b babe e4cf f7bd 04ed b8bd
00000350: 13d8 7fbe d411 5e3d 3f6e 60bd e8a0 67be
00000360: 3edc 03be 35d4 303d e3ce 64be 8e46 0abe
00000370: a592 26be cdcb aabe 1b8b 09be 9853 313e
00000380: dfc7 5bbc 9493 3abd db41 e6bd 042e a03d
00000390: c0b9 11be e834 a5bd ab80 74be 16f0 acbd
000003a0: 44f7 08bd f6f7 4bbe 0299 af3d 0595 8dbe
000003b0: 16bf 98bd d036 78be b10e a8bd f230 7dbd
000003c0: fd4e 2d3e 49d9 c83d 51f2 40be 3ef3 71be
000003d0: 0078 c3bd 89f7 15be d056 5fbd 6bec 89be
000003e0: fd64 ecbd 7857 ba3d dcbe d9be 4598 ab3c
000003f0: f0d6 25be 98e7 6fbb 8a33 5cbe 84ff a73d

network_body._body_endoder.seq_layers.2.weight f4 [256, 256]
0.02046672 0.10472858 0.19033699 -0.1412043 -0.040077697 0.16341028 -0.023059588 0.029681765
-0.042321358 0.051178247 0.0005046227 0.109411925 -0.0055231084 0.097168244 0.027114866 0.010466921
0.08745755 -0.024942951 -0.014097609 -0.08728184 0.0652021 0.08531987 0.06825159 0.032134697
0.089729026 -0.2693152 -0.25481427 -0.06710849 -0.3424824 0.100038536 0.033759173 0.05591524
-0.18088757 -0.062136345 0.13005291 0.020040626 -0.07066201 -0.17166032 0.039745975 0.052938264
-0.22171655 -0.1963291 -0.1261961 -0.011318707 -0.111029334 0.09610406 -0.0148003325 -0.17924038
0.020736676 -0.05704374 0.014419739 -0.13179299 -0.026224602 -0.23438874 0.032471403 0.019178133
0.04183784 -0.09958623 0.07794757 0.05392335 0.1520256 -0.053563073 -0.051955357 -0.07134969
0.03727022 -0.18150215 -0.20228982 0.0732899 -0.1075413 -0.058867566 -0.12905206 -0.11561777
-0.13408966 -0.08705739 0.10461433 -0.039544225 0.0007406106 -0.042084415 0.13181755 -0.017413268
-0.10199993 -0.04330687 0.124436855 0.016281882 0.039978478 0.056275617 0.05743799 -0.027772268
-0.10873686 -0.078603305 -0.1903093 0.050643653 -0.01046318 -0.041232813 0.0635985 0.09830477
-0.18988165 -0.13958979 -0.0036668943 0.01171706 -0.025489155 0.098777816 -0.03181215 -0.029232327
-0.067394234 -0.07149992 0.11443728 -0.1661065 0.08572828 -0.05110295 -0.110295095 -0.051745057
-0.23467138 -0.15835378 -0.18057817 -0.02875799 -0.07775282 -0.10496239 0.023445562 -0.06021557
0.05727484 -0.23405421 -0.20725143 -0.12770177 -0.08124961 -0.069369845 -0.013436039 0.13970795
-0.17590852 0.07868533 -0.050194856 -0.1886249 -0.052827083 -0.013427578 -0.044326037 -0.020048944
-0.13925947 -0.07912205 -0.11800061 -0.15192726 -0.030472163 -0.037717376 -0.014082498 0.027731106
0.16242771 0.087164015 0.0047047017 -0.09165484 0.0629981 0.08117186 -0.20905462 -0.09783219
-0.0011797433 0.042899743 -0.015655296 -0.023924887 -0.1740414 0.012161878 -0.02839373 -0.030928805
0.020226039 0.05963821 -0.0054749884 -0.2578852 0.15761515 -0.0020773152 -0.012405772 0.11646902
-0.07642228 -0.031198954 0.048311338 0.10306713 0.10231567 0.007846302 0.112147786 0.061193056
0.016484568 -0.15845826 -0.04087201 -0.23746695 0.08406201 -0.19543195 -0.06305966 -0.008643531
0.008423378 -0.18403228 0.07611851 -0.17354454 0.024132293 -0.030622572 -0.05132011 -0.27965227
-0.17223834 -0.043400064 -0.14366314 0.095281236 -0.06238275 0.031406585 0.32194793 -0.09932985
-0.018909784 -0.05898218 0.017535202 0.063284084 0.066169746 -0.12403624 0.0884567 0.016630262
0.05399119 0.13315606 -0.22233692 -0.006617923 0.17880596 -0.12624387 -0.03214135 -0.178211
-0.10684877 -0.07894986 0.025636923 -0.16362461 0.06429067 -0.08786197 -0.004732171 -0.25526986
-0.120322056 -0.05789479 0.0044543454 -0.19007619 -0.18924753 -0.26399463 0.12230909 0.10863447
0.12276748 0.19175203 0.093124434 -0.10497493 0.01705886 0.0412538 -0.23588684 -0.1099938
-0.041812394 0.047485303 -0.059940517 0.160754 0.02470894 0.00244655 0.08605245 0.043612756
0.012592915 -0.07034545 0.15677646 -0.15187071 0.13306428 -0.20834589 0.037309337 -0.25679594
00000000: d3a9 a73c f07b d63d b3e7 423e dc97 10be
00000010: 8328 24bd 0655 273e 76e7 bcbc 2c27 f33c
00000020: 2959 2dbd 48a0 513d a848 043a 5c13 e03d
00000030: 31fb b4bb 2500 c73d ff1f de3c 737d 2b3c
00000040: f21c b33d 2955 ccbc a8f9 66bc d2c0 b2bd
00000050: ae88 853d 2fbc ae3d 7dc7 8b3d ac9f 033d
00000060: dac3 b73d afe3 89be 0477 82be 2d70 89bd
00000070: da59 afbe 01e1 cc3d 0f47 0a3d 6107 653d
00000080: 973a 39be ae82 7ebd 972c 053e 3d2c a43c
00000090: 3eb7 90bd b9c7 2fbe adcc 223d cbd5 583d
000000a0: aa09 63be 7f0a 49be 8d39 01be 1972 39bc
000000b0: 5963 e3bd 35d2 c43d 187d 72bc ca8a 37be
000000c0: f6df a93c b2a6 69bd c540 6c3c bef4 06be
000000d0: fad4 d6bc 9a03 70be bc00 053d 761b 9d3c
000000e0: 285e 2b3d def3 cbbd faa2 9f3d bbde 5c3d
000000f0: 99ac 1b3e f464 5bbd 24cf 54bd c91f 92bd
00000100: a9a8 183d b3db 39be 1025 4fbe 0419 963d
00000110: 9d3e dcbd 1e1f 71bd 3926 04be 02c9 ecbd
00000120: cd4e 09be 254b b2bd 0a40 d63d 20f9 21bd
00000130: 8925 423a b560 2cbd 2efb 063e 45a6 8ebc
00000140: 57e5 d0bd 8b62 31bd c0d8 fe3d 9561 853c
00000150: 79c0 233d 4381 663d 1944 6b3d ab82 e3bc
00000160: 6eb1 debd c5fa a0bd 71e0 42be b86f 4f3d
00000170: c26d 2bbc bde3 28bd ee3f 823d 0354 c93d
00000180: 5670 42be a0f0 0ebe 4750 70bb e9f8 3f3c
00000190: a2ce d0bc 064c ca3d 754d 02bd a278 efbc
000001a0: fd05 8abd 8d6e 92bd 185e ea3d d317 2abe
000001b0: 4f92 af3d 5451 51bd 65e2 e1bd a0f2 53bd
000001c0: b24d 70be 7e27 22be 7ce9 38be e095 ebbc
000001d0: df3c 9fbd 86f6 d6bd e810 c03c 9aa4 76bd
000001e0: 0699 6a3d e8ab 6fbe b839 54be 41c4 02be
000001f0: 3266 a6bd c711 8ebd d522 5cbc 9a0f 0f3e
00000200: 5d21 34be c625 a13d 1f99 4dbd e326 41be
00000210: 3661 58bd 58ff 5bbc 388f 35bd af3d a4bc
00000220: 099a 0ebe be0a a2bd 4eaa f1bd d292 1bbe
00000230: c2a0 f9bc 897d 1abd 47ba 66bc 582c e33c
00000240: 7353 263e 0c83 b23d e629 9a3b 88b5 bbbd
00000250: 2605 813d 6f3d a63d 6a12 56be 3e5c c8bd
00000260: 9ea1 9aba a4b7 2f3d 893f 80bc 20fe c3bc
00000270: e937 32be 9d42 473c f899 e8bc 685e fdbc
00000280: 14b1 a53c 3247 743d 8867 b3bb 8709 84be
00000290: de65 213e 9123 08bb 9441 4bbc 4f87 ee3d
000002a0: 4983 9cbd f394 ffbc 1ce2 453d dc14 d33d
000002b0: e18a d13d c78d 003c bdad e53d 92a5 7a3d
000002c0: a50a 873c e242 22be 6969 27bd 892a 73be
000002d0: b428 ac3d 501f 48be 6c25 81bd 999d 0dbc
000002e0: 3502 0a3c f572 3cbe 05e4 9b3d a9b5 31be
000002f0: 16b1 c53c 30dc fabc 0935 52bd 952e 8fbe
00000300: 3f5f 30be 44c4 31bd 6e1c 13be cf22 c33d
00000310: 0e85 7fbd 31a4 003d 5cd6 a43e 736d cbbd
00000320: b1e8 9abc 4c97 71bd fca5 8f3c 169b 813d
00000330: 0184 873d b606 febd c928 b53d 303c 883c
00000340: de25 5d3d 105a 083e 4aac 63be 29db d8bb
00000350: e918 373e 1346 01be a6a6 03bd f27c 36be
00000360: 87d3 dabd 77b0 a1bd 8604 d23c 368d 27be
00000370: d4aa 833d faf0 b3bd 5410 9bbb bbb2 82be
00000380: 696b f6bd 1623 6dbd c2f5 913b 55a3 42be
00000390: 1bca 41be 4e2a 87be 307d fa3d c07b de3d
000003a0: 846d fb3d a55a 443e 06b8 be3d 19fd d6bd
000003b0: 06bf 8b3c bff9 283d 528c 71be 6e44 e1bd
000003c0: 7943 2bbd f37f 423d 3084 75bd b29c 243e
000003d0: 676a ca3c 4c56 203b 443c b03d 4aa3 323d
000003e0: 8452 4e3c 4611 90bd 028a 203e ff83 1bbe
000003f0: 0142 083e a058 55be add1 183d c27a 83be

network_body._body_endoder.seq_layers.2.bias f4 [256]
-0.356996 -0.27221957 -0.11195922 -0.17064777 -0.11760622 -0.20189911 -0.1079483 -0.059820138
-0.11214872 -0.19317661 -0.14316987 -0.20423144 -0.17563671 -0.16933875 -0.40732962 0.15710244
-0.111297175 -0.10233342 -0.13518848 -0.25060594 -0.15544783 -0.28376815 0.070665866 -0.1811889
-0.2808663 0.027358364 -0.118707925 -0.19469173 -0.24630053 0.16034952 -0.23115589 -0.16159607
-0.18702517 0.0019193059 -0.04475408 -0.122801125 -0.17253637 -0.20531183 0.010823178 -0.107085265
-0.19806881 -0.093891434 -0.10899312 -0.27012816 -0.1652048 -0.30814296 0.0042486074 0.15977849
-0.014128649 -0.10717279 -0.06560315 -0.05339106 -0.18293984 -0.29417685 0.12028665 0.34122443
-0.22579443 -0.24434398 -0.19721486 -0.103415854 -0.25134408 -0.26526263 -0.31533435 -0.19866283
-0.2933022 -0.23966834 -0.24680056 -0.20137651 0.026479343 -0.13567013 -0.25569713 -0.033578876
-0.24629109 -0.28811964 -0.24511541 -0.066677086 -0.13069619 -0.17483594 -0.2102409 -0.23290141
-0.24948315 -0.21069553 -0.2967279 -0.3129524 -0.12927389 -0.080856025 0.058193836 0.004014361
-0.28291354 -0.18176049 -0.19586371 -0.30087313 -0.21763635 -0.24019511 0.009336495 -0.074719965
-0.32070726 -0.128543 -0.17286347 -0.16352575 -0.10990483 -0.18121542 -0.06735387 -0.1782465
-0.15596768 -0.18809204 -0.25046209 -0.263933 -0.30332264 -0.112496324 -0.15785518 -0.13431212
-0.2020307 -0.21065567 -0.20834757 0.018082704 -0.0024314495 -0.24113752 -0.1610005 -0.13626425
-0.16724113 -0.24643177 -0.3008361 -0.21917427 -0.20510662 -0.117471665 -0.13587981 0.006920633
-0.023469593 -0.24783497 -0.21370997 -0.2965743 -0.17483127 -0.062193364 0.028171675 0.24889138
-0.15827216 -0.24619041 -0.048907284 -0.31056702 -0.057686735 -0.19615954 -0.2865639 -0.2566493
-0.018471088 -0.23553231 -0.13698663 -0.24834017 -0.03523195 -0.14345951 -0.15664777 -0.059045777
-0.15421547 -0.10580812 -0.17303465 -0.048559736 0.06425932 -0.23742501 -0.1458104 -0.15485834
-0.19913845 -0.08665048 0.014244402 -0.27921236 -0.17004384 -0.30304024 -0.21304373 -0.22180848
-0.31550634 0.116080776 -0.14469433 -0.27446264 -0.044102836 -0.00078022195 -0.22586313 -0.21171258
-0.20022923 -0.13284697 -0.15644039 -0.21821226 0.3278964 -0.07861175 0.18981826 0.0969821
0.21092471 -0.044645052 -0.28130755 -0.10347343 -0.1803086 -0.030605849 -0.07239527 -0.17904389
-0.01733217 -0.22705732 -0.03932728 -0.06872912 -0.19683936 -0.192881 0.06904397 -0.16022779
-0.28668275 -0.08761118 -0.18518186 -0.11491592 -0.1376488 -0.052867442 -0.034841385 -0.13807611
-0.27903676 -0.07534407 -0.19920841 -0.3382799 -0.29998827 -0.14413638 -0.22179373 -0.04524264
-0.056320954 -0.22722904 -0.13549261 -0.12038116 -0.15068069 -0.27429748 -0.24213025 -0.19424435
0.32333678 -0.25604033 -0.23710403 -0.13404916 -0.09682424 -0.17505445 -0.08104311 0.09321102
-0.12397823 -0.08909995 -0.07073167 -0.19827245 0.09580919 -0.075767316 -0.11291849 -0.11897617
-0.17975217 -0.2189934 -0.057809018 -0.2510496 0.2013364 -0.18516868 -0.22171487 -0.2650745
-0.22511771 0.07752406 -0.19657269 -0.2123397 -0.1675291 -0.21273316 -0.17847286 -0.05014648
00000000: 2ec8 b6be 5d60 8bbe e04a e5bd 4abe 2ebe
00000010: 88db f0bd a4be 4ebe 0014 ddbd f605 75bd
00000020: 3aae e5bd 17d0 45be 1f9b 12be 0c22 51be
00000030: 1cda 33be 2367 2dbe 828d d0be 76df 203e
00000040: c6ef e3bd 2f94 d1bd d96e 0abe 6c4f 80be
00000050: b72d 1fbe 0f4a 91be 44b9 903d 9589 39be
00000060: b5cd 8fbe a61e e03c 241d f3bd 455d 47be
00000070: 3536 7cbe aa32 243e 21b4 6cbe 7179 25be
00000080: 8783 3fbe 3891 fb3a 0e50 37bd 287f fbbd
00000090: 60ad 30be 443d 52be b353 313c 854f dbbd
000000a0: 8dd2 4abe 274a c0bd c937 dfbd 3d4e 8abe
000000b0: 722b 29be eac4 9dbe e737 8b3b f99c 233e
000000c0: d97b 67bc 687d dbbd f25a 86bd 96b0 5abd
000000d0: 9554 3bbe 599e 96be d958 f63d f8b4 ae3e
000000e0: a836 67be 4f35 7abe b1f2 49be b1cb d3bd
000000f0: 2cb0 80be 81d0 87be 8173 a1be 456e 4bbe
00000100: b52b 96be 9e6b 75be 49b9 7cbe a535 4ebe
00000110: 35eb d83c 1ced 0abe bcea 82be 018a 09bd
00000120: bb33 7cbe 6b84 93be 89ff 7abe ff8d 88bd
00000130: 39d5 05be 3108 33be 6449 57be b57d 6ebe
00000140: 8378 7fbe 92c0 57be b8ec 97be 4c3b a0be
00000150: 6060 04be d897 a5bd a95c 6e3d e78a 833b
00000160: 0bda 90be 6c1f 3abe 7f90 48be 0b0c 9abe
00000170: 10dc 5ebe b5f5 75be 19f8 183c c806 99bd
00000180: be33 a4be c7a0 03be 1f03 31be 4b73 27be
00000190: c915 e1bd 8990 39be d3f0 89bd 4086 36be
000001a0: feb5 1fbe 339b 40be 913c 80be 3a22 87be
000001b0: 1b4d 9bbe 7964 e6bd caa4 21be 1e89 09be
000001c0: 23e1 4ebe 1fb6 57be 1159 55be 2e22 943c
000001d0: f458 1fbb c1ec 76be 51dd 24be db88 0bbe
000001e0: 4241 2bbe 9c58 7cbe 3007 9abe 386f 60be
000001f0: 7807 52be fc94 f0bd 1424 0bbe 7ac6 e23b
00000200: 4e43 c0bc 73c8 7dbe c9d6 5abe 96d8 97be
00000210: f806 33be 78be 7ebd 49c8 e63c 62dd 7e3e
00000220: 1912 22be 5719 7cbe 0153 48bd a402 9fbe
00000230: ed48 6cbd 0cde 48be 81b8 92be 8967 83be
00000240: ae50 97bc 622f 71be 3946 0cbe e34c 7ebe
00000250: 614f 10bd 0de7 12be 4668 20be fcd9 71bd
00000260: a9ea 1dbe edb1 d8bd ff2f 31be 93e6 46bd
00000270: 649a 833d 8b1f 73be 524f 15be 2f93 1ebe
00000280: f3ea 4bbe cf75 b1bd 5a61 693c ecf4 8ebe
00000290: f91f 2ebe 1728 9bbe 2328 5abe c321 63be
000002a0: 0c8a a1be c2bb ed3d c02a 14be 5e86 8cbe
000002b0: 2da5 34bd cf87 4cba aa48 67be 2fcb 58be
000002c0: e408 4dbe 0909 08be e931 20be 0973 5fbe
000002d0: 09e2 a73e 32ff a0bd b85f 423e 8d9e c63d
000002e0: a6fc 573e bbdd 36bd 8b07 90be e1e9 d3bd
000002f0: d1a2 38be 1eb9 fabc f943 94bd 4857 37be
00000300: 32fc 8dbc b781 68be a415 21bd dac1 8cbd
00000310: 4290 49be 9982 45be ed66 8d3d c112 24be
00000320: 15c8 92be 7e6d b3bd 50a0 3dbe 0a59 ebbd
00000330: cff3 0cbe 888b 58bd d7b5 0ebd d363 0dbe
00000340: e8dd 8ebe fe4d 9abd 4afd 4bbe 0633 adbe
00000350: 1098 99be 7d98 13be e51d 63be 5950 39bd
00000360: cdb0 66bd bbae 68be 93be 0abe 668a f6bd
00000370: 0a4c 1abe b870 8cbe fef0 77be fee7 46be
00000380: 668c a53e b817 83be 66cb 72be 2f44 09be
00000390: ca4b c6bd 7941 33be eef9 a5bd 6be5 be3d
000003a0: 4ce8 fdbd 097a b6bd c4db 90bd ef07 4bbe
000003b0: 9c37 c43d e52b 9bbd cf41 e7bd c7a9 f3bd
000003c0: f410 38be ce3f 60be 26c9 6cbd 9389 80be
000003d0: 212b 4e3e dc9c 3dbe 3909 63be d8b7 87be
000003e0: 4285 66be efc4 9e3d 5a4a 49be 946f 59be
000003f0: c08c 2bbe b9d6 59be 97c1 36be 6566 4dbd

network_body._body_endoder.seq_layers.4.weight f4 [256, 256]
-0.023254622 -0.03548825 -0.10076968 0.004166468 -0.11144452 -0.03454879 -0.24829634 -0.048090775
-0.080343254 0.033063073 -0.12091979 -0.07562737 0.03567844 0.042117227 0.017283663 -0.07350161
0.040799685 0.101626225 -0.10886774 0.04430684 -0.027205953 0.047091518 0.10722411 0.08910868
-0.02039577 -0.10468571 0.1321222 0.019977665 0.12658785 -0.027487928 0.0047905557 -0.036000114
-0.06732741 -0.21643317 -0.06362587 0.122382805 0.06892612 0.05694973 -0.2560451 -0.11256958
0.14839819 -0.2869167 -0.18775901 -0.008818084 -0.25327608 0.043463904 -0.5898096 0.018044272
-0.14004417 -0.026838262 -0.090453304 0.052881155 -0.094786935 0.12112096 0.034809325 -0.04210786
-0.055655953 -0.17855875 0.0049974117 0.08085916 -0.014707261 -0.0025397073 0.1343195 0.10404423
-0.012988581 -0.0155028775 0.20814225 -0.16261627 -0.15216844 -0.2322772 -0.041973203 0.24607517
-0.06505611 0.052447718 0.16120811 -0.031414576 -0.14390647 0.0012392852 0.14366554 -0.00017757501
-0.09914768 -0.011793504 -0.091982126 -0.020725222 -0.18767801 -0.060794964 -0.16451333 -0.084374405
-0.04494236 0.05850575 0.15244013 0.052376203 -0.02407773 -0.044841196 -0.10261699 -0.05153433
-0.079310864 0.09033112 -0.14702694 -0.18085153 0.020041227 0.15581222 -0.016755156 -0.026896527
0.0053575034 0.25167936 -0.13497874 0.29835182 0.035018113 -0.2005621 -0.12809081 -0.1089169
-0.055009495 -0.024602467 0.095226705 0.20658249 -0.070361346 -0.033450913 -0.011499257 -0.21513715
0.07468442 -0.07898655 0.016221475 -0.06785156 0.3196892 0.22926737 -0.028089616 0.09586388
0.07109153 0.04282438 -0.031559248 0.08859857 -0.13636242 -0.16548938 0.12008806 -0.017526852
0.03163806 0.028691735 -0.011309612 -0.085600644 0.22150919 -0.07153256 0.0033969735 0.22782259
-0.006610294 0.03439497 0.008360032 -0.02769 -0.121042676 0.0038363305 -0.10885383 -0.043829918
-0.032016348 -0.20127542 -0.027969912 0.07998893 -0.045358345 -0.06758334 0.004379941 0.004663088
0.0010816683 0.17051014 0.11173829 -0.081831984 0.22165394 0.033695847 -0.021631923 0.07467379
0.050690398 -0.13840969 0.029315261 0.14680372 -0.14153612 0.042052463 0.07352304 -0.08350348
-0.055534396 -0.07593953 0.17992088 -0.08620974 -0.077254966 0.056742612 -0.120182134 -0.10183313
-0.061007693 -0.11791211 -0.022061415 0.063606106 0.160385 0.044612087 0.13911977 0.010039109
-0.18733779 -0.10297969 -0.09086713 0.039246224 0.04529531 -0.159028 -0.1429827 -0.024969483
0.08491324 -0.07540113 0.014096158 -0.24841845 -0.042268988 0.30094206 -0.04567742 -0.22800498
-0.0987448 0.10295137 -0.010703555 0.077939756 0.0106836995 -0.2223929 0.21715201 -0.03936992
-0.096629374 0.016643662 -0.012444733 0.17856205 -0.13370322 0.22791252 -0.085952416 -0.054570675
-0.011039219 -0.19563426 0.008337111 0.04277465 0.01450544 -0.007835386 0.01347133 -0.22329192
0.3298604 0.06868919 -0.12282643 -0.15724547 0.002106881 -0.07837064 -0.112453714 0.063364655
-0.24131936 -0.234433 0.04136086 -0.08247359 -0.2933719 0.08397182 0.00991704 -0.11007542
0.060094457 0.018217618 0.094533086 -0.060100216 -0.29635844 0.098293096 0.036774047 -0.031185776
00000000: 7a80 bebc 215c 11bd 5660 cebd de86 883b
00000010: 063d e4bd 0883 0dbd 6541 7ebe d5fa 44bd
00000020: 018b a4bd 256d 073d cba4 f7bd 86e2 9abd
00000030: 8e23 123d 1d83 2c3d 7896 8d3c 0388 96bd
00000040: 921d 273d 6921 d03d 0df6 debd 177b 353d
00000050: 05df debc 09e3 403d 5098 db3d 9d7e b63d
00000060: 0815 a7bc 7665 d6bd 0b4b 073e 33a8 a33c
00000070: 3fa0 013e 5d2e e1bc 18fa 9c3b db74 13bd
00000080: f4e2 89bd a8a0 5dbe 484e 82bd d6a3 fa3d
00000090: 2329 8d3d 1f44 693d 5818 83be e18a e6bd
000000a0: b2f5 173e bfe6 92be e643 40be ba79 10bc
000000b0: 67ad 81be 3507 323d c3fd 16bf 95d1 933c
000000c0: bd67 0fbe eadb dbbc 953f b9bd e999 583d
000000d0: a71f c2bd 440e f83d 3994 0e3d 4b79 2cbd
000000e0: 7ff7 63bd 1bd8 36be 54c1 a33b 7d99 a53d
000000f0: b9f6 70bc 3871 26bb 0d8b 093e 2415 d53d
00000100: 0fce 54bc c8ff 7dbc 3e23 553e e184 26be
00000110: 0bd2 1bbe 13da 6dbe 18ec 2bbd 21fb 7b3e
00000120: 233c 85bd 6bd3 563d bd13 253e 92ac 00bd
00000130: 385c 13be 836f a23a 0f1d 133e 6e33 3ab9
00000140: f00d cbbd 8a39 41bc 2061 bcbd f1c7 a9bc
00000150: aa2e 40be 2404 79bd 2f76 28be 7dcc acbd
00000160: 7b15 38bd baa3 6f3d 4419 1c3e 6e88 563d
00000170: a93e c5bc 67ab 37bd db28 d2bd a915 53bd
00000180: bc6d a2bd 86ff b83d 3b8e 16be 2531 39be
00000190: 802d a43c 3d8d 1f3e 1c42 89bc 1b56 dcbc
000001a0: ff8d af3b 1edc 803e de37 0abe 92c1 983e
000001b0: 276f 0f3d 2760 4dbe 3d2a 03be d30f dfbd
000001c0: a351 61bd 1d8b c9bc 3806 c33d 5c8a 533e
000001d0: 9c19 90bd d303 09bd 6167 3cbc ea4c 5cbe
000001e0: 25f4 983d b3c3 a1bd e6e2 843c c2f5 8abd
000001f0: 4eae a33e 11c5 6a3e 321c e6bc 4854 c43d
00000200: 7098 913d 9e68 2f3d 4544 01bd 2b73 b53d
00000210: 97a2 0bbe 0c76 29be bbf0 f53d 7994 8fbc
00000220: e996 013d ee0a eb3c f34b 39bc 644f afbd
00000230: 4ed3 623e aa7f 92bd c29f 5e3b 534a 693e
00000240: 2a9b d8bb bde1 0c3d 84f8 083c 24d6 e2bc
00000250: 39e5 f7bd f26a 7b3b c2ee debd 0087 33bd
00000260: 9323 03bd 251b 4ebe 2821 e5bc 3cd1 a33d
00000270: acc9 39bd 2269 8abd 9c85 8f3b d1cc 983b
00000280: c4c6 8d3a 369a 2e3e 0bd7 e43d 8797 a7bd
00000290: 40f9 623e a804 0a3d 6e35 b1bc 92ee 983d
000002a0: bca0 4f3d 45bb 0dbe 8f26 f03c b753 163e
000002b0: d8ee 10be 343f 2c3d 3f93 963d df03 abbd
000002c0: 0978 63bd 2f86 9bbd 2e3d 383e bb8e b0bd
000002d0: da37 9ebd f16a 683d 0d22 f6bd e38d d0bd
000002e0: 34e3 79bd e87b f1bd 24ba b4bc eb43 823d
000002f0: f73b 243e 2abb 363d 6a75 0e3e 137b 243c
00000300: 7ad5 3fbe 04e7 d2bd 8c18 babd a6c0 203d
00000310: 9387 393d 3cd8 22be 0f6a 12be cd8c ccbc
00000320: fee6 ad3d e86b 9abd 92f3 663c 6861 7ebe
00000330: 3f22 2dbd 1415 9a3e 3f18 3bbd 237a 69be
00000340: b73a cabd 2bd8 d23d f75d 2fbc e19e 9f3d
00000350: af0a 2f3c f7ba 63be 195d 5e3e 5a42 21bd
00000360: 9fe5 c5bd 4a58 883c fee4 4bbc f8d8 363e
00000370: 7fe9 08be e661 693e d207 b0bd 8085 5fbd
00000380: d7dd 34bc 5954 48be 6198 083c 7934 2f3d
00000390: 3aa8 6d3c fe5f 00bc dab6 5c3c a3a6 64be
000003a0: 76e3 a83e ebac 8c3d 6c8c fbbd f504 21be
000003b0: 9913 0a3b c980 a0bd 224e e6bd 54c5 813d
000003c0: 6c1c 77be 340f 70be 016a 293d eae7 a8bd
000003d0: d734 96be 6bf9 ab3d 157b 223c 396f e1bd
000003e0: 9b25 763d 1d3d 953c 909a c13d a52b 76bd
000003f0: 4bbc 97be e44d c93d 62a0 163d 5079 ffbc

network_body._body_endoder.seq_layers.4.bias f4 [256]
-0.11843097 -0.31194887 -0.23222269 -0.21392213 -0.1423866 -0.08313759 -0.16556856 -0.17592718
-0.16444348 -0.1048838 -0.17541468 -0.11721627 -0.089134105 -0.12632632 -0.04661067 -0.08250207
-0.17534289 -0.26720166 -0.121687956 -0.15288843 -0.05893647 -0.31410235 -0.15890577 -0.13666803
-0.19236885 -0.18986732 -0.24790822 -0.16970877 -0.13916767 -0.29805702 -0.12384218 -0.19887562
-0.07000164 -0.19855438 -0.37114695 -0.19670776 -0.18309073 -0.277674 -0.16078606 -0.31280285
-0.14103875 0.023614578 -0.27563787 -0.17421547 -0.0704955 -0.087835126 -0.34681153 -0.089716926
-0.22044517 -0.046655707 -0.12768067 -0.2690058 -0.26645398 -0.18233858 -0.16008876 -0.20478038
-0.22607058 -0.17127368 -0.1528774 -0.14752327 -0.28841045 -0.24737617 -0.17359088 -0.022358319
-0.20887567 -0.17463015 -0.12896366 0.010062976 -0.16390651 -0.28543738 -0.014275142 -0.22808464
-0.18511185 0.1897416 -0.10020027 -0.08995659 -0.19961824 -0.14015174 -0.17724076 -0.21476512
-0.124188505 -0.24797018 -0.13326499 -0.042127654 -0.11740015 -0.23253712 -0.21439847 -0.2247396
-0.13651976 -0.35739437 -0.14297484 -0.22679353 -0.22129524 -0.24786645 -0.18169059 -0.057365138
0.007860069 -0.107877724 -0.06695054 -0.09672598 -0.17314228 -0.28227568 -0.18122047 -0.20650959
-0.005350357 -0.16787103 -0.19790879 -0.17579266 -0.1509177 -0.12205499 -0.106494546 -0.2611719
-0.057824265 -0.23489672 -0.38617036 -0.3509143 -0.053921975 -0.3280873 -0.18676129 -0.24169943
-0.13691434 -0.09226543 -0.14468898 -0.100373924 -0.18432882 -0.24479644 -0.10778077 -0.3368206
-0.086777866 -0.22541685 -0.17430738 -0.1977441 -0.10595902 -0.22751331 -0.23008165 -0.16041355
-0.1828017 -0.04855566 -0.21683122 -0.1932314 -0.05161549 -0.15116273 -0.1475783 -0.22425506
-0.08116338 -0.20263214 -0.23241499 -0.29613575 -0.09696211 -0.123758145 0.03876871 -0.21116944
-0.20566377 0.037213214 -0.31028232 -0.29543024 -0.33887506 -0.24746786 -0.21709517 -0.28023437
-0.07975627 -0.17360859 -0.22701007 -0.06821388 -0.090448886 -0.11743975 -0.20395081 -0.12506549
-0.2751824 -0.14150338 -0.026490176 -0.21341011 -0.19566062 -0.16650225 -0.21460621 -0.17901546
-0.16775243 -0.06042024 -0.034668673 -0.085694976 -0.1425147 -0.3080343 -0.15438077 -0.3719293
-0.17880486 -0.24321668 -0.15429528 -0.1823933 -0.06667337 -0.21741673 -0.052173752 -0.050903678
-0.12948275 -0.27720425 -0.16278885 -0.10123684 -0.23915508 -0.24195512 -0.28788048 -0.076503925
-0.21919155 -0.22854026 -0.09738592 -0.03968316 -0.25277364 -0.10501849 -0.17159495 -0.15282126
-0.21324962 -0.17079827 -0.21737406 -0.19640908 -0.08363761 -0.09006956 -0.27215528 -0.10902687
-0.22458293 -0.23537904 -0.26798958 -0.2031617 -0.10430933 -0.049592633 -0.13037331 -0.20009065
-0.08182413 -0.18149751 -0.2038367 -0.11080267 -0.18038398 -0.20527518 -0.109335855 -0.1472775
-0.22299516 -0.19623205 -0.0479859 0.010785767 -0.4083815 -0.10119779 -0.06686634 -0.27532446
-0.07753774 -0.10310355 -0.10933045 -0.18037106 -0.09662088 -0.2013623 -0.12406297 -0.063641615
-0.13893446 -0.08653439 -0.1942255 -0.19315682 -0.27787435 -0.238923 -0.16920416 -0.08926301
00000000: f08b f2bd c3b7 9fbe c9cb 6dbe 670e 5bbe
00000010: cbcd 11be 0a44 aabd ce8a 29be 4126 34be
00000020: df63 28be 51cd d6bd e89f 33be 150f f0bd
00000030: f18b b6bd b05b 01be d4ea 3ebd d8f6 a8bd
00000040: 168d 33be a8ce 88be 8937 f9bd c98e 1cbe
00000050: 5e67 71bd 06d2 a0be 32b8 22be b4f2 0bbe
00000060: 57fc 44be 946c 42be a7db 7dbe 23c8 2dbe
00000070: f881 0ebe ee9a 98be f8a0 fdbd 0da6 4bbe
00000080: 055d 8fbd d751 4bbe f906 bebe c26d 49be
00000090: 237c 3bbe 492b 8ebe 1aa5 24be b227 a0be
000000a0: 766c 10be 5c73 c13c 6820 8dbe 8a65 32be
000000b0: f25f 90bd e7e2 b3bd 4891 b1be 82bd b7bd
000000c0: 61bc 61be 0e1a 3fbd b9be 02be 21bb 89be
000000d0: a86c 88be f7b6 3abe 4fee 23be f3b1 51be
000000e0: 0c7f 67be 5e62 2fbe e58b 1cbe 5710 17be
000000f0: 89aa 93be 2e50 7dbe cfc1 31be cb28 b7bc
00000100: 81e3 55be 3fd2 32be 0d0f 04be 2edf 243c
00000110: 1cd7 27be d924 92be 49e2 69bc 058f 69be
00000120: f68d 3dbe 9f4b 423e cd35 cdbd 293b b8bd
00000130: b968 4cbe f083 0fbe 9a7e 35be 63eb 5bbe
00000140: 8b56 febd e5eb 7dbe 9e76 08be 0c8e 2cbd
00000150: 7d6f f0bd 361e 6ebe 468b 5bbe 2322 66be
00000160: d6cb 0bbe 65fc b6be ff67 12be 903c 68be
00000170: 389b 62be b4d0 7dbe 190d 3abe b5f7 6abd
00000180: 85c7 003c ffee dcbd 5d1d 89bd 4518 c6bd
00000190: 364c 31be 7086 90be dc91 39be 4077 53be
000001a0: 0c52 afbb 62e6 2bbe 9aa8 4abe fe02 34be
000001b0: 2b8a 1abe f7f7 f9bd d019 dabd 53b8 85be
000001c0: 23d9 6cbd c488 70be 1fb8 c5be 0aab b3be
000001d0: 4add 5cbd 0ffb a7be 5a3e 3fbe 0e80 77be
000001e0: 4633 0cbe a8f5 bcbd 5929 14be d890 cdbd
000001f0: b2c0 3cbe ebab 7abe 2abc dcbd c073 acbe
00000200: 98b8 b1bd add3 66be a27d 32be 6e7d 4abe
00000210: 0b01 d9bd 40f9 68be 869a 6bbe 7343 24be
00000220: 5e30 3bbe 4de2 46bd 0109 5ebe 74de 45be
00000230: c46a 53bd 67ca 1abe c41e 17be 1ea3 65be
00000240: fc38 a6bd cd7e 4fbe 32fe 6dbe 1b9f 97be
00000250: 1294 c6bd e974 fdbd f0cb 1e3d cd3c 58be
00000260: 8699 52be e26c 183d 53dd 9ebe a242 97be
00000270: 0881 adbe 3768 7dbe 324e 5ebe e17a 8fbe
00000280: 4157 a3bd 73c6 31be 5475 68be b8b3 8bbd
00000290: 443d b9bd 4084 f0bd 7bd8 50be 2b11 00be
000002a0: b5e4 8cbe 43e6 10be ed01 d9bc 2e88 5abe
000002b0: 425b 48be 917f 2abe bbc1 5bbe d44f 37be
000002c0: 4bc7 2bbe 377b 77bd bd00 0ebd d980 afbd
000002d0: 60ef 11be acb6 9dbe fe15 1ebe 846d bebe
000002e0: 9f18 37be cb0d 79be 95ff 1dbe 4fc5 3abe
000002f0: 0c8c 88bd 7ea2 5ebe 25b4 55bd 6080 50bd
00000300: 2097 04be b7ed 8dbe 1fb2 26be 4355 cfbd
00000310: 12e5 74be 15c3 77be 1265 93be 17ae 9cbd
00000320: c073 60be 7506 6abe 4572 c7bd cf8a 22bd
00000330: 8c6b 81be ef13 d7bd 96b6 2fbe 2d7d 1cbe
00000340: 1c5e 5abe bee5 2ebe 4e97 5ebe 761f 49be
00000350: 324a abbd 6476 b8bd f057 8bbe 7b49 dfbd
00000360: 11f9 65be 3407 71be ee35 89be 9f09 50be
00000370: 21a0 d5bd a521 4bbd 9580 05be 90e4 4cbe
00000380: 6993 a7bd 7cda 39be 91ba 50be 83ec e2bd
00000390: 94b6 38be a833 52be 7aeb dfbd eacf 16be
000003a0: d858 64be 0ef1 48be dd8c 44bd c9b6 303c
000003b0: 6117 d1be c940 cfbd 38f1 88bd 54f7 8cbe
000003c0: 1bcc 9ebd f427 d3bd a5e8 dfbd 31b3 38be
000003d0: 2be1 c5bd eb31 4ebe ba14 febd 8956 82bd
000003e0: d644 0ebe f138 b1bd 0de3 46be e7ca 45be
000003f0: 8c45 8ebe 3ba8 74be db43 2dbe 86cf b6bd

action_model._discrete_distribution.branches.0.weight f4 [4, 256]
-0.09488723 0.10092579 0.1803177 -0.06867677 -0.07086328 0.16703433 -0.11198477 0.0019710436
0.050748795 -0.06074078 -0.16275279 -0.025291586 0.045238093 0.066517256 0.11586955 -0.0046458696
0.1706603 0.18708889 0.11274766 0.10161206 0.025279973 0.14680313 -0.07268965 -0.042603705
-0.04236145 0.15268081 -0.063506454 -0.0005683067 0.14507864 -0.11746343 0.05200402 -0.08122935
-0.047685012 0.07884217 0.015151842 -0.09429447 0.16627607 0.06308604 0.1344938 -0.07659694
0.20278408 0.17090024 -0.09003566 -0.0005693087 0.22330724 -0.07695489 0.0588113 0.026344096
0.031655166 -0.09967514 -0.055811707 -0.01980381 -0.006811132 0.0426499 -0.018318506 -0.069238916
0.068521485 -0.018738933 -0.015900336 0.09716655 -0.04836188 0.0015911172 -0.033855792 0.04409152
-0.038133223 0.0327919 0.08207103 0.069230154 0.17125255 -0.11406071 0.116595976 0.106003664
0.0981 -0.038488768 -0.0103802765 0.19728734 0.03488914 -0.019217674 0.1264951 -0.030769587
0.0655106 0.10156581 0.090337746 0.09589914 -0.13493784 -0.02609519 0.1007881 0.010528618
-0.06427105 0.21254583 0.036259174 -0.02965052 0.13968366 0.12525749 0.0037068755 0.040289383
0.09194239 0.10269332 0.04690673 0.03105952 0.11761918 -0.013295674 -0.10307061 -0.002446826
0.045209683 0.06890984 -0.1300453 0.014992436 0.059623994 -0.061069485 0.07766887 -0.012659653
0.11537841 0.13747853 0.13315777 -0.084177025 0.07345481 0.14313732 0.009057626 0.082935594
0.1569374 -0.16672713 -0.15496002 0.02373911 -0.098372124 -0.01781737 0.07573983 0.11125248
-0.034845434 0.14387271 -0.007908248 -0.05568019 -0.07596117 -0.044575445 -0.10618626 -0.086572915
0.03169363 0.27708808 0.19274499 -0.07587027 -0.016794097 -0.11968479 0.039409287 -0.0075092106
-0.0019245053 0.045682322 0.21841124 0.024788577 0.09443049 0.23395643 0.05685312 0.046983395
0.0576963 8.1581195e-05 0.060775634 0.06734165 0.093272634 0.12404641 0.06475997 -0.1068007
0.12890469 -0.009479956 0.13365126 -0.012712749 -0.0010898948 -0.0049144616 0.08641051 -0.022000315
0.01603589 0.079432614 0.11477636 0.030192098 -0.0359267 -0.14288801 0.25195777 0.028760092
-0.006816356 0.04003658 -0.036425617 -0.059073035 0.09805149 0.005142058 0.103787504 -0.02776209
0.0020645019 -0.009335763 0.07471198 -0.06918353 0.08250421 0.054777015 -0.0073233163 0.06903442
0.07292052 0.14769955 0.15310651 0.06486855 0.26823932 0.12699255 0.1238329 -0.0914306
-0.046922714 0.067778036 0.07491683 -0.0625361 -0.05253921 -0.08618194 -0.010794505 -0.06946458
-0.07580639 0.08052503 0.14519532 0.15635698 -0.010181876 0.10339524 0.2523219 0.015989842
0.13173826 0.14054987 0.17040339 0.23276989 0.028539535 0.18720387 0.16300562 -0.17665929
-0.1037538 -0.024169315 0.022125736 -0.0075146575 0.06920667 0.015017905 -0.06278904 0.0060325176
0.076438755 -0.15759654 -0.023732191 -0.062682435 0.05937244 -0.003573483 -0.05358906 0.10583776
0.101041034 0.1920873 -0.12014786 0.06335856 -0.0038973968 0.1333372 -0.04254221 0.018764397
-0.061809994 -0.084354065 -0.020405186 -0.026744947 -0.01244498 0.15952784 0.097426236 -0.03920239
00000000: 3c54 c2bd 2eb2 ce3d 34a5 383e 68a6 8cbd
00000010: c420 91bd 0c0b 2b3e 4558 e5bd a02c 013b
00000020: f8dd 4f3d 53cb 78bd aba8 26be 4d30 cfbc
00000030: 944b 393d 333a 883d 044d ed3d 613c 98bb
00000040: 93c1 2e3e 3b94 3f3e 3fe8 e63d fc19 d03d
00000050: f217 cf3c 8f53 163e 50de 94bd 3981 2ebd
00000060: 3383 2dbd 5c58 1c3e ac0f 82bd 6bfa 14ba
00000070: 7f8f 143e ab90 f0bd 2b02 553d 935b a6bd
00000080: 5c51 43bd 0178 a13d 6e3f 783c 761d c1bd
00000090: 4644 2a3e 4133 813d beb8 093e dbde 9cbd
000000a0: a1a6 4f3e 7900 2f3e 9e64 b8bd a93d 15ba
000000b0: a7aa 643e 869a 9dbd 1ee4 703d 93cf d73c
000000c0: d9a8 013d 7b22 ccbd d19a 64bd 9a3b a2bc
000000d0: eb2f dfbb a9b1 2e3d b110 96bc 22cd 8dbd
000000e0: fe54 8c3d 6482 99bc 6c41 82bc 42ff c63d
000000f0: 1b17 46bd 098d d03a 5fac 0abd 4f99 343d
00000100: 9531 1cbd cd50 063d db14 a83d 8ac8 8d3d
00000110: d45c 2f3e a998 e9bd dfc9 ee3d 7318 d93d
00000120: a7e8 c83d 66a6 1dbd 0912 2abc b105 4a3e
00000130: eae7 0e3d 626e 9dbc ee87 013e 8010 fcbc
00000140: 6c2a 863d bc01 d03d ff02 b93d c566 c43d
00000150: 252d 0abe 94c5 d5bc fe69 ce3d 3980 2c3c
00000160: 8aa0 83bd 9da5 593e 8084 143d a6e5 f2bc
00000170: 3c09 0f3e 8043 003e 0def 723b 7b06 253d
00000180: 4b4c bc3d e050 d23d 4521 403d 8970 fe3c
00000190: 53e2 f03d 19d6 59bc af16 d3bd ee5a 20bb
000001a0: ca2d 393d 9a20 8d3d 982a 05be d6a2 753c
000001b0: 4a38 743d ff23 7abd db10 9f3d 6f6a 4fbc
000001c0: 844b ec3d 2cc7 0c3e 835a 083e 0165 acbd
000001d0: 7a6f 963d 9792 123e 7066 143c 23da a93d
000001e0: 33b4 203e 84ba 2abe d7ad 1ebe 8678 c23c
000001f0: 5377 c9bd bcf5 91bc 7c1d 9b3d 57d8 e33d
00000200: 16ba 0ebd 5e53 133e 9991 01bc e910 64bd
00000210: 8891 9bbd be94 36bd 2f78 d9bd 244d b1bd
00000220: 2ed1 013d 7dde 8d3e f15e 453e df61 9bbd
00000230: c693 89bc 4d1d f5bd a26b 213d d30f f6bb
00000240: af3f fcba 631d 3b3d 32a7 5f3e 6a11 cb3c
00000250: c664 c13d 4692 6f3e d1de 683d a971 403d
00000260: f552 6c3d 9216 ab38 dfef 783d 6bea 893d
00000270: b905 bf3d 0b0c fe3d e0a0 843d 53ba dabd
00000280: 97ff 033e d151 1bbc e0db 083e 2249 50bc
00000290: cdda 8eba 7e09 a1bb fef7 b03d 013a b4bc
000002a0: b35d 833c 91ad a23d de0f eb3d 6b55 f73c
000002b0: e027 13bd 3c51 12be 9c00 813e 499a eb3c
000002c0: bd5b dfbb 66fd 233d 0733 15bd 91f6 71bd
000002d0: 38cf c83d b57e a83b 8b8e d43d 536d e3bc
000002e0: 984c 073b 07f5 18bc 9802 993d 18b0 8dbd
000002f0: f8f7 a83d dd5d 603d 6ef8 efbb eb61 8d3d
00000300: 5b57 953d 8d3e 173e f4c7 1c3e cdd9 843d
00000310: aa56 893e 560a 023e 1a9c fd3d f73f bbbd
00000320: 0832 40bd 36cf 8a3d ff6d 993d ed12 80bd
00000330: 5b33 57bd 2880 b0bd 6fdb 30bc 7243 8ebd
00000340: 6140 9bbd 4fea a43d 15ae 143e 0b1c 203e
00000350: e2d1 26bc e2c0 d33d 5630 813e 21fd 823c
00000360: 65e6 063e 4eec 0f3e 3a7e 2e3e 3b5b 6e3e
00000370: becb e93c 5fb2 3f3e f2ea 263e 2ce6 34be
00000380: df7c d4bd bafe c5bc 0841 b53c 843d f6bb
00000390: 3abc 8d3d a90d 763c 8a97 80bd 6dac c53b
000003a0: ec8b 9c3d fd60 21be 036a c2bc a65f 80bd
000003b0: 8430 733d 1931 6abb 3480 5bbd 78c1 d83d
000003c0: 9aee ce3d 88b2 443e 1510 f6bd 22c2 813d
000003d0: 786b 7fbb 8c89 083e be40 2ebd cbb7 993c
000003e0: 7a2c 7dbd d3c1 acbd c728 a7bc 3818 dbbc
000003f0: 08e6 4bbc 445b 233e 6887 c73d af92 20bd

action_model._discrete_distribution.branches.0.bias f4 [4]
0.1468757 -0.1970261 -0.15696257 0.24516292
00000000: 9566 163e 36c1 49be ccba 20be fd0b 7b3e
