Usable_Data/Versuch_3-2.2/PKWParking/PKWParking-1999893.onnx (onnx, 469082 bytes, 15 tensors)

discrete_act_size_vector f4 [1, 2]
00000000: 0000 8040 0000 4040
4.0 3.0

network_body.observation_encoder.processors.0.normalizer.running_mean f4 [35]
00000000: e065 143c 0000 0000 d13d a53c 5d84 783f
00000010: c668 7c3f c82f e83c 0000 0000 eaa1 9a3c
00000020: 49e9 733f e794 7a3f ea13 443d 7f39 0635
00000030: ece0 c03c 7db7 6d3f 2da3 783f bd61 753d
00000040: 0000 0000 58ba 323d 5670 653f 4a5e 713f
00000050: 6dd7 f13d 0000 0000 1c72 223d 0c35 573f
00000060: 0b04 6c3f 738e b03d 0000 0000 f89d 5a3d
00000070: 4208 5c3f bc0a 6d3f 7f43 293e 0000 0000
00000080: 52db 383d 1eb5 493f 3eec 653f
0.009057492 0.0 0.020171078 0.9707697 0.9859737 0.028343096 0.0 0.018876035
0.9527784 0.97883457 0.047870554 5.000256e-07 0.023544751 0.92858106 0.97123986 0.059907664
0.0 0.043634742 0.89624536 0.942845 0.11808667 0.0 0.039659604 0.8406532
0.9219367 0.0862092 0.0 0.053373307 0.859501 0.92594504 0.16529654 0.0
0.045131035 0.7879199 0.898136

network_body.observation_encoder.processors.1.normalizer.running_mean f4 [135]
00000000: 33d1 fe38 2013 1f3d 6e70 d23e 9eb2 0a3f
00000010: def6 493f 5aa6 e538 52da 383e 3b8c a63e
00000020: df22 f73e 9a00 4c3f 5a01 b239 6d26 e53d
00000030: 27ec b73e 40f5 023f ead9 543f 5bdb 9338
00000040: 6fba 6d3e ea84 a13d 02d7 2a3f 45b0 553f
00000050: fd93 b339 257b 643e e88c e83d bb59 243f
00000060: 26e5 643f 5a84 8c38 7b6e 823e 0dbd 2a3c
00000070: 7f87 393f 3188 593f b2a4 9439 2b74 ea3d
00000080: d2a0 0a3d 3fc3 563f 653e 753f 0000 0000
00000090: 44e0 283e 318f b837 1ef1 543f 36d8 753f
000000a0: 0000 0000 613f 093c 7652 8838 db02 7d3f
000000b0: cb6e 7e3f de8d 0239 0e28 1f3d 8e8d d23e
000000c0: 5101 0b3f 1250 4a3f 62d8 e938 f4ec 383e
000000d0: f6a3 a63e d0c0 f73e 575b 4c3f 1cd7 b339
000000e0: e550 e53d 1306 b83e d63f 033f 6633 553f
000000f0: bb00 9738 69d9 6d3e 40a7 a13d 3529 2b3f
00000100: da0b 563f b026 b539 7e9d 643e 1eb6 e83d
00000110: 48a9 243f 6940 653f 4b9d 8e38 8b80 823e
00000120: 3cd6 2a3c 7bde 393f 2ae5 593f 37b1 9539
00000130: 51a3 ea3d 0eb0 0a3d 8c1c 573f 549d 753f
00000140: 0000 0000 1ff3 283e 318f b837 de4d 553f
00000150: 8b38 763f 0000 0000 cf5c 093c 7752 8838
00000160: 3c63 7d3f c4cd 7e3f 5bb3 0539 883c 1f3d
00000170: a2aa d23e 0750 0b3f aea8 4a3f 300a ee38
00000180: 19ff 383e c3bb a63e f55e f83e 0bb6 4c3f
00000190: 3976 b639 7e7b e53d 1720 b83e 308a 033f
000001a0: b28c 553f 3f26 9a38 06f8 6d3e 35ca a13d
000001b0: 607b 2b3f 3867 563f c082 b739 57bf 643e
000001c0: d6e0 e83d 92f8 243f d09b 653f 08b6 9038
000001d0: aa92 823e 5def 2a3c 9835 3a3f 3742 5a3f
000001e0: c200 9739 7cd0 ea3d 48bf 0a3d 0876 573f
000001f0: 20fc 753f 0000 0000 9e05 293e 318f b837
00000200: b9aa 553f 1699 763f 0000 0000 367a 093c
00000210: 7652 8838 b8c4 7d3f 1530 7f3f
0.0001215063 0.0388366 0.41101402 0.541788 0.78892314 0.00010950556 0.18052033 0.32528862
0.48268792 0.7968842 0.00033951813 0.1118897 0.35922357 0.5115547 0.8314501 7.0503644e-05
0.2321565 0.078866795 0.66734326 0.8347209 0.000342518 0.22312601 0.11355001 0.6419942
0.8941215 6.7003726e-05 0.25474915 0.01042105 0.72472376 0.84973437 0.00028351467 0.114479385
0.033844776 0.8389167 0.9579833 0.0 0.164918 2.2001188e-05 0.83180416 0.96033037
0.0 0.008376927 6.500345e-05 0.9883248 0.99387807 0.00012450616 0.03885656 0.41123623
0.54298884 0.7902843 0.0001115061 0.1805914 0.32546967 0.48389292 0.79826874 0.0003430181
0.1119707 0.35942134 0.5126928 0.8328155 7.200377e-05 0.23227467 0.078932285 0.6685975
0.83611834 0.00034551835 0.22325704 0.11362861 0.643208 0.8955141 6.800386e-05 0.25488696
0.010427054 0.72605103 0.851153 0.0002855153 0.114569314 0.033859305 0.84027934 0.9594319
0.0 0.16498993 2.2001188e-05 0.8332194 0.9618003 0.0 0.008383944 6.5003456e-05
0.98979545 0.99532723 0.00012750684 0.038876086 0.41145808 0.5441899 0.79163635 0.00011350622
0.18066062 0.32565126 0.48509946 0.79965276 0.00034801828 0.11205195 0.35961983 0.5138273
0.8341781 7.350416e-05 0.23239145 0.07899896 0.6698513 0.8375125 0.00035001896 0.22338615
0.11371009 0.6444179 0.89690876 6.900361e-05 0.2550252 0.010433045 0.7273803 0.85257286
0.0002880153 0.114655465 0.033873826 0.84164476 0.9608784 0.0 0.16506049 2.2001188e-05
0.8346363 0.9632734 0.0 0.008390954 6.500345e-05 0.99128294 0.9968274

network_body.observation_encoder.processors.2.normalizer.running_mean f4 [12]
00000000: 7b49 c93d 0aff 7f3f 6daa ac3e ef71 4b3d
00000010: 4f4a 013f 0000 0000 698c 433f 60f1 2a3f
00000020: 0539 033f e9fa 0dbe e52a bf3d 7bc9 d33e
0.098284684 0.99998534 0.33723775 0.049669202 0.5050401 0.0 0.76386124 0.6677456
0.5125888 -0.13865246 0.09334353 0.41364655

network_body._body_endoder.seq_layers.0.weight f4 [256, 182]
00000000: 78ab 37bd 3480 1bbd 945b 823d 9dfd bb3d
00000010: d115 18be 361c 42bc 3cbe 9d3b 835a 01bc
00000020: 3358 823d b0f0 ea3c 4614 c1bd bfd1 223d
00000030: f402 f43c cea3 823d 087e 293e 7660 febc
00000040: 1be4 1f3d b4c6 c8bd aeb4 663c 0102 1f3e
00000050: 6388 793d fa27 663d 940e acbd 1de5 983c
00000060: 12ec 93bd eb05 313e cd47 1fbd a55e 083e
00000070: 71f4 a1bd 8067 efbd 1072 e1bd 3780 d53d
00000080: 8fc5 a5bd 2376 d5bc ff5a 743d efcd c73c
00000090: cd76 f2bd 6b28 bf3d 9fd1 0cbd aac8 5b3e
000000a0: c012 793c aa1c 1f3c 1f6f 9fbc 7295 adbd
000000b0: c8cb 94bd 3d37 d4bd e0e4 85bb ebe5 2fbd
000000c0: b0a4 93bb 6e05 fabd c9b5 233d 6179 e1bc
000000d0: 9716 803d c308 28bd 39f8 c63c c6c1 1bbd
000000e0: 654b 823d 5508 99bd 4128 d13c fa5a 0b3b
000000f0: ac27 b23d 18c9 12be 1aed 3cbd 3952 fc3d
00000100: c6aa 1e3e 3863 c53c 0766 b2bc f784 a33d
00000110: accc 99ba 5aad 173d aa00 a0bd 62bc d93c
00000120: 8cc7 1e3d 162b 06be 460d 973c 1a3f 823d
00000130: 634c e8bd 9291 3b3e 82a7 393d 3928 b2bc
00000140: 66be b13d f798 14be 1a52 4bbd 4c55 163e
00000150: 6cab 3c3e 4aac cdbc 3108 4abe e647 52bd
00000160: e031 05be dbad 8fbd 1e7b 8dbd 81d8 283d
00000170: 02ee 13be 3985 1cbe de41 ecbc e3f4 af3d
00000180: 00dd 1c3d d66b ccbc f527 26bd c9f9 463d
00000190: 906b 6fbd e16a 8a3d 1696 da3c d074 e8bd
000001a0: c483 41be 9e45 0f3d 53bf 91bd 29d0 cc3b
000001b0: b50d 323e fde2 84bd 9704 92bb ce4a 243c
000001c0: a58d 80bd bbc8 453d 5ca0 85bd 3541 873c
000001d0: 7375 643c f191 453d 5e03 5fbd aff8 a4bd
000001e0: a92d bf3d 9bb3 cfbd ae22 7abc a8db dbbc
000001f0: f9f1 d33d adbf 6dbd 93c6 e6bc 2970 77be
00000200: 0292 313d 5916 663e 22a0 cd3d ebc4 6bbd
00000210: a4bb 90bc 3bcc f53d 3aea 9c3d 59cd 07bd
00000220: 66e0 953d 0afd ccbd c9e6 05bd 6c7a e6bd
00000230: 8b3e 873d cdb9 863d cbf7 a73d 29c2 44bd
00000240: a8f2 0f3e a668 bebd 7f5e 883d 66e9 42bd
00000250: 1149 aa3d 5828 8abd 6d15 d73d 72dc a0bd
00000260: 2b55 ee3a f76d 62bd 1f66 17bd b342 233e
00000270: 75dc 80bd 9839 e9bc 4b58 ee3b 2951 43bd
00000280: 074e b63b b292 70bd 6561 dbbc 96ef a13d
00000290: 4948 103b a70e b93d 89f0 b8bd 8376 c13b
000002a0: 8eaa 2ebd 392e cbbc d24b 0dbd 10ec 29bd
000002b0: 33ca 43bd b7ef 3bbd e1b3 00be 75f9 ebbb
000002c0: a414 543d 1f90 9a3d bf7b 4abd 9554 d2bd
000002d0: 560f 5e3e 2a7d 2fbe 5942 09be 5b92 8e3d
000002e0: 7ebb 76bd d8fc 0b3e 2248 1b3d a5d6 0a3d
000002f0: 3e05 753c 0908 dc3d 16d1 d2bb 5f7f 093d
00000300: 3f97 583e b1d3 903d dabc 883c 7336 dbbd
00000310: 78e8 863d 2da2 093e 328b 4ebd b4ea d13b
00000320: b9f7 8b3c 2261 403c 888a e4bc 35b7 b13b
00000330: e63a 17be 0532 223d 6c73 af3c 2807 52bb
00000340: 6c7b 94bd fa76 b63d c0b2 053e 81e8 d33c
00000350: 9b5a 123d 9a3c 953c eb71 0cbe 6af3 e03d
00000360: a7de f43d d6b9 813d cda6 40bd cfac 223e
00000370: 220a 32bd b8b2 2ebd 8038 a6bc 2514 5a3e
00000380: 1c60 313d bfe6 e4bd c9eb 983d fd15 933d
00000390: 9bd5 7bbd 5baf 2a3d 8aef 733c a055 3b3d
000003a0: 14b4 a93c f959 85bc 7ad4 ecbd 52b4 0d3c
000003b0: 188b 93bb fe74 26bd cef7 223d 8d34 1b3d
000003c0: a472 40be 5ee4 02bd ee8f 863d 4d37 63bd
000003d0: acf5 333d cd3b 0f3d 7db4 53bd 1c96 de3b
000003e0: 98f3 c8bd d16a 42bd 2a0c 053d 25d5 813c
000003f0: a55f 9fbd e7b2 e63d 80ba f43d 5265 40be
-0.04484126 -0.03796406 0.063651234 0.09179232 -0.14852072 -0.011847546 0.0048139375 -0.007895115
0.06364479 0.028679222 -0.09427695 0.03975081 0.029786564 0.063788995 0.16551983 -0.031051856
0.039035898 -0.098035246 0.014081163 0.15528108 0.060921084 0.05619047 -0.08401218 0.018663937
-0.07222761 0.17287414 -0.038886834 0.13317354 -0.079079516 -0.11689663 -0.11008084 0.10424846
-0.08094322 -0.026057309 0.059657093 0.024390189 -0.11839066 0.09333881 -0.034379598 0.21463266
0.015202224 0.009711424 -0.019462166 -0.0847577 -0.07265431 -0.10362098 -0.004086122 -0.042943876
-0.0045057163 -0.12208067 0.039968286 -0.027523698 0.06254309 -0.04102398 0.024288284 -0.038026594
0.063620366 -0.07472292 0.02553189 0.0021263943 0.08698973 -0.14334524 -0.046124555 0.1232037
0.15494832 0.024095163 -0.021777166 0.079843454 -0.0011733971 0.037030555 -0.07812627 0.026579086
0.03876452 -0.13102373 0.018438946 0.06359692 -0.113426946 0.1831725 0.045325764 -0.021747695
0.08678894 -0.14511476 -0.049638845 0.14680976 0.18424767 -0.025106568 -0.19729687 -0.0513381
-0.13007307 -0.07015582 -0.06908248 0.0412221 -0.14446262 -0.15285195 -0.028840002 0.0859163
0.0382967 -0.024953764 -0.04056545 0.048578057 -0.05845219 0.06758667 0.026682895 -0.11350405
-0.18897921 0.0349785 -0.0711657 0.0062504006 0.17388041 -0.06488607 -0.0044561136 0.0100276
-0.062770166 0.048287135 -0.06524727 0.016510585 0.013944018 0.048234884 -0.05444657 -0.08055245
0.09334881 -0.10141679 -0.015267057 -0.026838139 0.10348887 -0.058044124 -0.02817086 -0.2416388
0.043352135 0.22469462 0.100403085 -0.057560842 -0.017667599 0.120018445 0.07661863 -0.03315482
0.07318191 -0.10009201 -0.032690797 -0.11253819 0.06603726 0.065784074 0.0820156 -0.048036728
0.1405741 -0.09297304 0.06658649 -0.047585867 0.083147176 -0.06745976 0.105021335 -0.078545466
0.0018183341 -0.055280652 -0.036962625 0.15943412 -0.06292049 -0.028469846 0.007273709 -0.047684822
0.005563501 -0.05873365 -0.02677984 0.079070255 0.0022015742 0.09035998 -0.090302534 0.0059040203
-0.042643122 -0.024802314 -0.034496136 -0.041484892 -0.047800254 -0.045882907 -0.12568618 -0.0072013685
0.051777497 0.0754702 -0.04943442 -0.10270039 0.21685538 -0.1713759 -0.13404216 0.06961509
-0.0602374 0.13670671 0.037910588 0.033896107 0.014954863 0.1074372 -0.0064336164 0.033568736
0.21151446 0.07071627 0.016691614 -0.10703745 0.06587309 0.13440771 -0.050425716 0.0064061526
0.017085897 0.011741908 -0.027898088 0.0054234513 -0.14768562 0.039598484 0.021417342 -0.0032047722
-0.07250103 0.08909412 0.13056469 0.025867702 0.03573094 0.018217374 -0.13715331 0.109839275
0.1195653 0.063342735 -0.047034074 0.15886234 -0.043466695 -0.04265091 -0.020290613 0.21296747
0.043304548 -0.11176824 0.074668474 0.07181928 -0.061483007 0.04167114 0.0148886535 0.045735955
0.02071575 -0.016278254 -0.11563964 0.008648949 -0.0045026653 -0.040638916 0.039787106 0.037891913
-0.18793732 -0.03195607 0.06570421 -0.05547266 0.043935463 0.03496914 -0.0516858 0.006792797
-0.09812087 -0.04746515 0.032482304 0.015848706 -0.077819146 0.11264592 0.119496346 -0.1878865

network_body._body_endoder.seq_layers.0.bias f4 [256]
00000000: b8e5 11bd f63b c2bd 5c0d 0fbc 1cd6 32be
00000010: a5fe cbbd 5b83 07be 32c3 813b 3d07 e7bd
00000020: be0a 663c 9dee 20bd 8e23 923d 8a27 a33d
00000030: 162c d4bd e6f4 78bd 4a51 383c 7cff c33c
00000040: d61c a3bd 53fe efbc 623b d8bd ef48 29be
00000050: a5e3 a8bd 55ff 6b3d 278d 673b 5ff2 5bbd
00000060: eb89 32bd 5928 f83a 5a1e 28be a489 543d
00000070: 1808 4bbc 483e 8e3d 8e36 883d bb1c 72bd
00000080: 8ec7 d43c 078f aabc f348 a4bd 478d c6bc
00000090: a441 263d 732e e83d 8edd 3cbd 484d 8b3d
000000a0: 25d4 b0bc b36b b0bd 59c4 b3bd f11e 42be
000000b0: 6fb6 97bd 85d3 2bbd 4dd4 33bd 5ff3 1a3c
000000c0: e3d9 6d3c e683 57bd 45f1 a9bd 7132 a03c
000000d0: 6775 3ebc 3598 e2bd 93af 60bd 1ddd fd3c
000000e0: 3390 a6bc 669e d0bc 9333 e43b faba c43c
000000f0: d7ef 23bd ba6d 2bbe 4450 e4bd c07b 653c
00000100: a1d4 04be 3b35 6fbe 3901 f3bc fca4 efba
00000110: 5bff 0bbe b3c3 093d 188d b3bd 2bf1 6abc
00000120: 86bb 8abd da16 67bd c4c9 08be 7fb1 bcbd
00000130: 8df1 683b 985e 6ebd f05d c0bd 38f2 05bd
00000140: 9558 58bd 7d08 e6bd 1708 04be 7897 91bc
00000150: 678a 84bd 76e7 2bbc 6162 20be 8151 00bd
00000160: 9a94 063d f64c 923d d80e 67bb ab63 8f3b
00000170: 25d6 953d c3a0 98bd da9b febd 6a1d 55bd
00000180: ba4c 93bd 8df8 783d 6836 85bd da38 c9bd
00000190: e0ed 75bd 8c65 41bd fffe c4bd b84f c73c
000001a0: e42d f8bd a4a6 19bd 0dd3 d93c a3a5 f0ba
000001b0: 2b9b 15be 8987 98bd 07fa 21bd f957 8cbc
000001c0: 791d dbbc 4e55 91bd d71b f5bc 497f 50bd
000001d0: c7f2 c0bc ec64 5ebd 0b63 7c3d fb07 76bd
000001e0: 09fa 80bd 55a4 e3bd e89e aabd afc0 70bd
000001f0: a6bf 98bd 90f7 04be 02aa dfba 8065 4ebd
00000200: 1c29 233b 4d40 31bc d5c7 723d e2f2 ca3c
00000210: 90cf c5bb 6dd9 34bd 68d0 5fbd 25d8 96bd
00000220: 4c90 e7bd efb7 23bd 5e30 3b3d 1a99 eb3c
00000230: a936 31be 5c81 e9bc c919 c6bd c672 803d
00000240: 2d33 a6bb baf0 90bd f158 06be f1fa 8abd
00000250: 3e08 d7bd 7e3b 9ebd b9af 2fbd 8571 a6bd
00000260: 430f bdbd bdd8 9ebd 2476 91bd e8b2 eebd
00000270: 5754 703d 596a d13b 2f01 d0bd 6f0f ebbc
00000280: 7e89 48bd 0289 e2bc 0b87 293d 3e64 e9bc
00000290: b16e 19bd ae84 c23a c2f0 5dbd 1718 b7bd
000002a0: a8dc ffbc 4ecc 13be 5995 28bd cd2a d0bd
000002b0: 9491 793b 0245 b8bd 682c 87bd d99f 97bd
000002c0: a5c6 45bd 704f 27be fae3 8ebd f798 b8bd
000002d0: 4294 d63d 7aee b03d 9ec7 92bd 91f2 4d3d
000002e0: 5d8d f1bb bc3a 9dbd 2c82 3d3a 16c7 dfbd
000002f0: 17b7 6dbd 9ffa eebd 3984 6cbd b5a5 edbd
00000300: a594 503c 4d3c 9cbd 30a9 b0bc 2e40 8bbd
00000310: 2b2f 87bd ea69 c93c 244c 933b 9eb4 d83c
00000320: d466 98bd 4982 e33c 5601 b9bd 943a a53c
00000330: da91 c3bd 977f 76bd 8ae5 213d 8145 adbd
00000340: fd44 323d 6d27 aebc 3924 05bd 92c5 363c
00000350: ed3b 63bd f15a 5abd 14f8 0cbe d280 a5bc
00000360: e250 9c3d 9009 4abe e3eb d9bb b138 fcbd
00000370: 90c6 93bd cceb c3bc 2f86 0fbc cabd 7ebc
00000380: f9a7 113c dcac 9cbc f94d 5dbd fea0 59bd
00000390: 8066 30be 61ae 08be 419d 79bc f2c2 eebd
000003a0: f490 30bd 61a5 4fbd 3e1b f0bd 5bf2 a23c
000003b0: 3958 eabc b932 403d 2604 1bbd 8cd8 d2bd
000003c0: 4cda 94bc 8fb6 54bd e8f8 a1bd e2b9 f73d
000003d0: f025 04be ad32 aebb e8fe 8bbc 5443 fdbc
000003e0: 4ebc 36bd 23fe e3bd 42d6 11bc 0810 35bd
000003f0: b26f 853d 4d8b b2bc a981 83bd d6a2 0fbd
-0.035619467 -0.09484093 -0.0087312125 -0.17464489 -0.09960679 -0.13233702 0.0039600367 -0.112806775
0.014040647 -0.03929006 0.07135688 0.07966526 -0.10359971 -0.06078043 0.01124985 0.023925535
-0.079644844 -0.029296076 -0.105582014 -0.16531728 -0.08246545 0.05761655 0.0035331936 -0.05369794
-0.04358856 0.0018932923 -0.16417828 0.051889077 -0.012392066 0.06945473 0.066510305 -0.05910943
0.025974061 -0.020820154 -0.080217265 -0.024237288 0.040589944 0.113369845 -0.04610973 0.068018496
-0.021585533 -0.08614292 -0.08777685 -0.18957116 -0.07407843 -0.041949768 -0.043903638 0.009457438
0.01451728 -0.052616023 -0.08297972 0.019555302 -0.011624671 -0.110641874 -0.05485494 0.030989224
-0.020332431 -0.025466155 0.006964156 0.024014939 -0.04002365 -0.16741076 -0.11148122 0.014006555
-0.12971736 -0.2336015 -0.029663669 -0.0018283422 -0.13671629 0.0336339 -0.08767146 -0.0143397255
-0.067740485 -0.056418277 -0.13358217 -0.09213542 0.0035544366 -0.05819568 -0.09392917 -0.0327017
-0.052818853 -0.11232088 -0.12893711 -0.017772421 -0.06471711 -0.010492196 -0.15662529 -0.03132773
0.03285656 0.071435854 -0.003525665 0.004375895 0.073162355 -0.07452538 -0.1243207 -0.052030005
-0.07192369 0.06078391 -0.06504518 -0.09825297 -0.06004131 -0.047215983 -0.09618949 0.024330005
-0.12118128 -0.037512437 0.026589895 -0.001835991 -0.14609973 -0.07447726 -0.039545085 -0.017131792
-0.026747452 -0.07096349 -0.029920502 -0.05090264 -0.023553265 -0.054295465 0.061617892 -0.060066205
-0.062976904 -0.11115328 -0.0833109 -0.058777507 -0.07458429 -0.12985063 -0.0017064216 -0.050389767
0.002489633 -0.010818553 0.059272606 0.024774019 -0.0060367063 -0.044152666 -0.05464211 -0.07365445
-0.11306819 -0.039970335 0.045700423 0.028759528 -0.17306007 -0.028504066 -0.09672887 0.06271891
-0.0050720186 -0.07077165 -0.13119866 -0.067861445 -0.10499619 -0.07726191 -0.04289219 -0.08127121
-0.092314266 -0.07756183 -0.07102612 -0.116552174 0.058674183 0.0063908515 -0.10156476 -0.028693883
-0.048959248 -0.027653221 0.041388553 -0.028490182 -0.03745908 0.0014840567 -0.054184683 -0.08940142
-0.031233147 -0.14433405 -0.041158054 -0.101644136 0.0038081156 -0.08997537 -0.06600267 -0.074035354
-0.048285145 -0.16338897 -0.06977077 -0.09013551 0.10477497 0.08639236 -0.0716698 0.050280157
-0.007371588 -0.07677218 0.0007229175 -0.109266445 -0.058035936 -0.11668896 -0.057743285 -0.11603872
0.012730752 -0.07628689 -0.02156505 -0.06799351 -0.066007935 0.024586637 0.0044951607 0.026453312
-0.07441488 0.027772086 -0.09033458 0.020169534 -0.09549303 -0.060180273 0.039525546 -0.084605224
0.043522824 -0.021259034 -0.032505248 0.011155503 -0.05547707 -0.053309385 -0.1376651 -0.020203028
0.07632615 -0.1973021 -0.0066504343 -0.123155005 -0.07215607 -0.023916148 -0.008760019 -0.015548179
0.008890145 -0.019125395 -0.05402944 -0.05313205 -0.172266 -0.1334777 -0.015235246 -0.116582766
-0.043106988 -0.050694827 -0.11723946 0.019890955 -0.028606521 0.046923373 -0.037845753 -0.10295209
-0.018170498 -0.051931914 -0.07908803 0.12096001 -0.12905097 -0.0053160996 -0.017089322 -0.030915894
-0.044613175 -0.11132457 -0.008901181 -0.04420474 0.06515445 -0.02179494 -0.06421215 -0.0350674

network_body._body_endoder.seq_layers.2.weight f4 [256, 256]
00000000: 5d20 863d 3c0e a53d 5aea 7fbb 041b f5bc
00000010: 25f2 833d 4053 c63d 9078 63bd 2a1b 823d
00000020: 2cd2 a73c c03d c7bb 4271 ddbc b857 32be
00000030: c729 103d 5b7b 0bbe f635 60bd 8bc1 de3b
00000040: 2b60 04be b1dd c8bd 83ac 6bbb d5a1 6f3d
00000050: c8d2 353d 976a 83bd 7d94 f8bc 96df e53c
00000060: 4226 223d c425 a6bd cc15 1bbc c93b e93d
00000070: 12e4 27bb 5b3f 81bd 22e1 6d3c 6fa0 173c
00000080: 87e2 88bd 9cf1 dd3d 83e2 dcbc 91a9 cfbd
00000090: 7243 28be 7ddb 00bc ef13 16bb 9eed 23be
000000a0: fb12 c7bd 69b4 9fbc 6583 913d 06ff 053e
000000b0: 4cd1 823b 159a 4a3d 6838 4b3d c74b a73b
000000c0: 4744 3939 a7a9 a93c 7909 6dbd fb39 38be
000000d0: efb3 583d 6ba0 b639 4150 8bbd 2cc5 27bd
000000e0: edb2 f53d d160 47be ced2 0abd 0b28 85bd
000000f0: 936b 9cbc bbc4 ab3d 91f8 cd3c a97b 643c
00000100: 2bf6 cbbc 4731 613d 3a4d debd 4397 17be
00000110: 6b7c 7abd 1061 70bd 3e31 fbbd 2f0c 83bc
00000120: d337 05be 16eb 593c d48a e6bd eabc da3b
00000130: eb59 29be 89db 10be 530d 22be cb53 383c
00000140: 3a10 aebd 280e f63c d7d6 a8bd 1e08 9ebc
00000150: c396 d63c 1dcf e1bd 7253 f13c 8ad6 c73c
00000160: 60c0 9abc e005 cdbc c716 0fbd 239c 98bc
00000170: 100c a6bd ce1e 54bd b2aa ef3d 56bd 39bc
00000180: 1218 193d 6728 d4bd 9f01 27bb 1d8e cb3d
00000190: e521 00be 6791 8fbc fb2d 1d3d 7193 83bd
000001a0: 354d e43c 4648 68bd 73a9 cdbb 92d5 063d
000001b0: c370 a03b 7b75 053b 0ff3 f83c c999 aebd
000001c0: 3d42 ca3d e2f8 bf3c 3c53 a0bd c411 2dbd
000001d0: e62e f0bd c2fd cfbd 420e 07be ee8f d1bd
000001e0: 7ad4 24bd 5326 d83b 2e8a adbd f8e0 e23b
000001f0: 7b84 9f3d 8824 aaba 27ee 7abc 54ce 093e
00000200: 208d 523d 3124 d7bd 46c1 0bbe f498 83bd
00000210: d91e f9bd 763f b63b 5be6 b43d 42c8 b93d
00000220: 9632 8f3d d630 d2bd a016 aebd 288d 1a3d
00000230: 6164 8e3c c0c9 bdbd 61b8 42bd e4eb aa3b
00000240: 4b0b 63bc 3044 a5bd ce3b e83d 3e2a cfbd
00000250: f408 543e a03a 993b 59a0 473b e6ff 94bc
00000260: 4132 f9bb 535d 8dbc 7078 23be 8770 193d
00000270: d984 f6bd 79a2 043d ac5f 0b3d eb72 cfbd
00000280: 1052 4a3d f2f5 ac3c 9ab3 24be 08b0 c93c
00000290: afab 6dbd 3d7c 87bd 7c70 47bd f76c a03c
000002a0: 6356 7cbd cd01 c63b df59 33bd 770e 2abe
000002b0: 0e6e b7bd 974b 1fbd 3941 85bd 99a7 4abd
000002c0: cd67 97be 5284 20bc db0a 9b3d 5e81 41bb
000002d0: 4bb2 4f3d 4d7d 9cbd 3ebe 173d 9dc1 6cbd
000002e0: 6189 183d dc75 903d dc29 94bb b331 8dbc
000002f0: 1260 da3c b9d1 0e3e cf8c 503c a243 84bd
00000300: 0aef 963b 67b2 623b bcce 733d b9ec f6bc
00000310: c2a7 bc3c 0dca cdbc 99e8 163c 0d7e 6cbe
00000320: 0ee0 adbb 4def 663d 5c18 6d3d 6bfb eabc
00000330: b803 10bd fa2e 4d3d 5d46 8abc 0c09 e93b
00000340: 4752 563d a568 adbd 138c 35bd 983e b6bd
00000350: 3c36 ebbc 52a0 9abc fa5f 003e 74f3 44bd
00000360: 679d 7abe 251f 8fba 4ce1 d8bd 5aed b03d
00000370: 534a 0a3d a1ee c9bd c74f 883d bff4 85bd
00000380: ce7a 123d 19be 1dbd 9409 d23c 0c57 9fbd
00000390: 4379 9fbc 817e a13d d28a 1cbe b5cd f13d
000003a0: 3606 75bb 4a85 2cbd 3df9 8bbd e811 bebb
000003b0: cf16 cebc 9396 0c3d d4dd e2bc 8635 a83c
000003c0: 4949 c13d 380e d43c 8c69 513b 4b79 fabd
000003d0: 1295 223c 2db1 b539 9d21 32be c2d2 77bc
000003e0: ee29 45bd 7625 cf3d b847 a7bd 0a31 aebd
000003f0: add0 193c e48a 73bc a081 b43c 0de2 f23d
0.065491416 0.080593556 -0.0039049597 -0.029920109 0.0644267 0.096838474 -0.0555349 0.063528374
0.02048596 -0.006080359 -0.027031545 -0.17416275 0.035196092 -0.13621275 -0.05473896 0.0067979745
-0.1292731 -0.09807909 -0.003596098 0.058503944 0.04439047 -0.06416815 -0.030344242 0.028060716
0.039587267 -0.08112672 -0.009465646 0.11388356 -0.0025618118 -0.06310912 0.014519008 0.009254559
-0.06683832 0.10837099 -0.026963478 -0.10139764 -0.16431978 -0.00786483 -0.0022900065 -0.16008613
-0.09720417 -0.019495206 0.0710514 0.13085565 0.0039922353 0.04946335 0.04961434 0.005105469
0.0001766841 0.02071078 -0.057870362 -0.17990868 0.052905973 0.00034833266 -0.068024166 -0.040959522
0.11997018 -0.19470526 -0.033892445 -0.06501778 -0.019094264 0.08387133 0.02514294 0.0139454985
-0.024897655 0.054978635 -0.108545735 -0.14803796 -0.06115381 -0.058686316 -0.122652516 -0.01599702
-0.13009576 0.013300678 -0.11256948 0.0066753523 -0.16538207 -0.14146246 -0.15825395 0.011250447
-0.08499189 0.030036047 -0.082441024 -0.01929098 0.026194936 -0.11025832 0.029458735 0.024394292
-0.01889056 -0.025027215 -0.03493383 -0.01862914 -0.081077695 -0.05178719 0.117024794 -0.011336645
0.03737647 -0.10359269 -0.0025483144 0.09939215 -0.1251293 -0.017525388 0.03837393 -0.064246066
0.027868846 -0.05670955 -0.0062763034 0.03291852 0.0048962547 0.0020364213 0.030389337 -0.08525426
0.09875915 0.023434106 -0.07828376 -0.04225327 -0.11727695 -0.10155822 -0.13189033 -0.102325305
-0.040241696 0.0065963655 -0.08473621 0.006923791 0.077889405 -0.0012980858 -0.015315569 0.13457614
0.05140412 -0.1050495 -0.13647947 -0.06425658 -0.12164087 0.0055617644 0.08832999 0.09071399
0.069920704 -0.10263221 -0.08500409 0.037732273 0.017381849 -0.092669964 -0.04753912 0.0052161086
-0.013857673 -0.08069646 0.11339532 -0.10115479 0.2070654 0.004676178 0.0030460565 -0.018188428
-0.0076048677 -0.017256415 -0.15963912 0.03746083 -0.120370574 0.03238151 0.034026787 -0.10129341
0.049394667 0.02111337 -0.16084138 0.024620071 -0.05802506 -0.066154934 -0.048691258 0.019583208
-0.061605822 0.006042695 -0.04378688 -0.1660708 -0.08956538 -0.038890447 -0.06506581 -0.04947624
-0.2957138 -0.009797173 0.0757043 -0.0029526572 0.050707143 -0.07641087 0.037046663 -0.05780183
0.03724039 0.0705373 -0.0045215916 -0.017235612 0.026657138 0.1394719 0.012728884 -0.064582124
0.0046061324 0.00345912 0.05952333 -0.030142175 0.023029212 -0.02512076 0.009210729 -0.2309496
-0.0053062504 0.05638056 0.05788456 -0.028684339 -0.035159796 0.05009363 -0.016879255 0.007111674
0.05232456 -0.08467225 -0.04432304 -0.088986576 -0.028712384 -0.018875275 0.12536612 -0.048083737
-0.24474107 -0.0010919316 -0.10589847 0.08639021 0.033762287 -0.09859968 0.06655841 -0.06540822
0.035761647 -0.03851137 0.025639333 -0.07780275 -0.019467002 0.07885457 -0.15287331 0.11806814
-0.0037387735 -0.0421193 -0.06834648 -0.0058004744 -0.02515736 0.034323286 -0.027693667 0.020533334
0.09437806 0.025885686 0.003195378 -0.12230166 0.009923236 0.00034655016 -0.17395635 -0.015125932
-0.04813569 0.10114567 -0.08167976 -0.08505447 0.009388131 -0.014864657 0.022034466 0.11859522

network_body._body_endoder.seq_layers.2.bias f4 [256]
00000000: bdf3 f6bd 8407 f3bc cdcf 3bbd 38d8 093d
00000010: 7782 18bd 642c f2bd 3667 e13c d8cd bebc
00000020: 811d a2bd 2a82 d3bd c86f 94bd e934 d7bd
00000030: 15a1 32bd 976f 60bd 6e95 15be c486 9939
00000040: f36c 17bd fc15 8dbd e309 98bc 8aa8 ddbc
00000050: 1513 3bbd 13a9 4dbd 2919 a8bd c152 22bd
00000060: 7498 c0bd 90c2 88bc ff54 be3b 6c07 e4bd
00000070: ac84 ffbd c8b8 adbd 892e 9cbd 08a0 bbbd
00000080: 7f91 a5bd 384d a6bc 57bb 0fbe 6971 36bd
00000090: c2ad a9bd 0455 b4bd a308 65bd e58d e1bd
000000a0: 216f 68bd 8134 47bd b8aa 75bd d3bf b7bd
000000b0: 680e 863c 0393 4bbd 2211 a7bd f9e3 e1bd
000000c0: 11bb 2dbd 5293 43bc f707 fdbd 2339 79bd
000000d0: 31ca efbc 8db2 d5bd 7603 e3bd 32a2 dbbd
000000e0: bb84 1cbe 4d5c b0bd cf9e b0bd 2314 a5bd
000000f0: 0a59 dabc 2355 b6bd d4b0 8abd ae62 75bd
00000100: 2a75 c7bd 8f37 66bd 09b1 82bd f102 9dbd
00000110: 8b95 99bd 3502 97bd 1c99 96bd 1c8a b1bd
00000120: 0c78 f5bd 7ffd 47be 0545 9fbd 86e2 0fbd
00000130: 6fd6 47bd b688 9bbd bef6 15be d346 b2bd
00000140: 9fc5 f8bd b63f d3bd b706 89bd 1462 4dbd
00000150: 3258 16bd a825 1abd e889 a0bd fcfd b1bd
00000160: 21c1 74bc 0fed bcbd 2c41 13be 9146 a4bd
00000170: 70f5 bdbd c241 bebd 74cf e2bd 3f62 20be
00000180: 69c4 5dbd b062 9cbd 26c0 9dbd 9748 17bc
00000190: 4371 c9bc 9f0e 9abd 1653 76bc 47ee 27bd
000001a0: 5c2b e5bd 801e d6bd d7c3 bdbd 72a4 72bd
000001b0: afe0 26bd 830d a2bd 822f 5ebd 7d96 3ebc
000001c0: 6435 f8bc f40f dbbc 1e7e 94bd 0343 efbd
000001d0: 53f7 28be 2a7a c2bd 42c6 babd 145d 9cbd
000001e0: 6ca5 cdbd 13ad 30be 75a6 86b9 a783 a2bd
000001f0: 4a96 99bd 1154 54bd 6fcc b7bc cc3f 18bd
00000200: 57f0 0bbe f199 85bd 3fdb b8bc 2183 21be
00000210: ae90 13be f9f7 ffbd 769d 9abd 87b5 c9bd
00000220: 40ea 0fbd 9a17 f0bd fb6f 03be a5f1 83bd
00000230: 8ad1 06bd 3ae8 89bd 7880 ddbc d688 78bd
00000240: 9ecb b1bd 303d 32bd 8ae0 8dbd d88d 83bc
00000250: 5cc3 02be 9d6c edbd ee31 e4bd 5bf7 f2bd
00000260: 5bba 30be e899 0ebc 91ba 97bd 7064 66bd
00000270: f3cd efbd 0ec0 b7bd 9a5e 8fbd 9ff6 bfbd
00000280: 0875 5ebb 714d 7e3c 30ab 5fbd 3921 ccbd
00000290: 15e9 84bd 166f bcbc d5b5 00be dde0 9cbd
000002a0: 6427 acbd f69e ecbc 2f43 78bd 249d 22be
000002b0: 8098 07be 6469 83bd de88 debb a146 15bb
000002c0: ba59 dabd 6a7c 6dbd c1f1 86bc bf91 adbd
000002d0: 820c aebc d971 96bd e7ae fcbd 8c3b 8bbd
000002e0: 45de 7dbd c30b 4dbd eb06 f9bd 5151 99bd
000002f0: f898 1ebd 6002 90bd b149 cfbd 3400 9ebd
00000300: a32a 46bd fa5f 08bd 767f c9bd 0623 33bd
00000310: 6dfe 81bb a315 a2bd c179 2fbe e91b aabd
00000320: 06af a4bd ca3b 48bd 5814 79bd 7281 50bd
00000330: 6b3b 3fbd dd65 c3bc 2c41 57bd cf67 b4bd
00000340: e56b a6bd aa28 45bd d7cb 39bd ca12 a1bd
00000350: 9575 92bd f26b a3bd 3bde b9bd c708 07be
00000360: 48d3 bebd 912e 69bd 5851 55bd f6c1 f0bd
00000370: b1ec 2bbd 295a 36bd 4866 bb3c fd7a 63bd
00000380: 4990 dcbd 45ab b4bd ae6a b6bd be46 01be
00000390: d039 aabd 259e 56bd 43f3 86bd 70d7 d2bd
000003a0: 4989 9fbc e51c f3bd 292b 34be 1593 adbd
000003b0: 5510 f4bd 7a19 1dbd 95ef 84bd c089 a7ba
000003c0: 7704 03bd c1fa e2bd 165f 0fbe c39d 3fbd
000003d0: 7af9 33bd da7f 48bd 5ec7 70bd 878d 77bd
000003e0: 352d 9abd a0fa 1cbd 865d eabc f553 78bc
000003f0: 878e 95bd 27e4 28bd 1169 b8bd f9ae 84bd
-0.12058208 -0.02966667 -0.04585247 0.033653468 -0.037233796 -0.11824873 0.027515035 -0.023291513
-0.07915784 -0.10327561 -0.07247883 -0.10508139 -0.04361065 -0.05479392 -0.14607784 0.00029282842
-0.036969136 -0.06888959 -0.018559402 -0.027057905 -0.045672495 -0.05021007 -0.08207924 -0.0396297
-0.09404078 -0.016694337 0.005808472 -0.11134228 -0.12476477 -0.0848251 -0.076260634 -0.09161383
-0.08084392 -0.020300493 -0.14036308 -0.04454175 -0.08285095 -0.08805278 -0.05591644 -0.11013392
-0.056746606 -0.048634056 -0.059977263 -0.089721344 0.016364291 -0.04970075 -0.08157565 -0.110298105
-0.04241473 -0.011936979 -0.12355035 -0.060845505 -0.029271217 -0.104344465 -0.110846445 -0.10724296
-0.15285008 -0.08611355 -0.0862404 -0.080604814 -0.026653785 -0.08902957 -0.067720085 -0.05990856
-0.09739144 -0.05620533 -0.06381423 -0.07666577 -0.07499226 -0.07373468 -0.07353422 -0.086689204
-0.11985788 -0.19530295 -0.07776836 -0.03512814 -0.048788484 -0.07594435 -0.14644906 -0.08704915
-0.12147068 -0.10314886 -0.06690734 -0.050142363 -0.036705203 -0.037633568 -0.078388035 -0.08691022
-0.014938624 -0.09224903 -0.1438033 -0.08021272 -0.09275329 -0.09289886 -0.11074725 -0.15662478
-0.05414239 -0.07636011 -0.07702665 -0.009233615 -0.02459014 -0.0752232 -0.015034458 -0.040998723
-0.11189911 -0.10455036 -0.09265869 -0.05923886 -0.04074162 -0.079127334 -0.054244526 -0.011632559
-0.030298896 -0.026741005 -0.072506174 -0.11682703 -0.16500597 -0.09495957 -0.09119846 -0.07634941
-0.10041317 -0.17253523 -0.00025682492 -0.07935267 -0.074993685 -0.051837984 -0.022436349 -0.037170216
-0.13665901 -0.065235026 -0.022565482 -0.15772678 -0.1441066 -0.12498469 -0.075495645 -0.09849077
-0.035135508 -0.11723252 -0.12835686 -0.064425744 -0.032914676 -0.06733747 -0.027038798 -0.060677372
-0.08681415 -0.043515384 -0.06927593 -0.016058847 -0.12769836 -0.11592982 -0.11142336 -0.118635856
-0.17258589 -0.008703686 -0.074086316 -0.05624813 -0.117092036 -0.089721784 -0.07000466 -0.09373211
-0.0033944268 0.015521393 -0.054606616 -0.09967274 -0.06489769 -0.023002189 -0.12569363 -0.07660077
-0.08405951 -0.028884392 -0.060610946 -0.15880257 -0.13241768 -0.06416586 -0.006791218 -0.0022777694
-0.10661645 -0.05797998 -0.0164727 -0.084750645 -0.021246199 -0.073459335 -0.123380475 -0.06798467
-0.06197955 -0.050060045 -0.121595226 -0.07486213 -0.0387201 -0.07031703 -0.101214774 -0.077148825
-0.048380505 -0.033294655 -0.09838764 -0.043734573 -0.0039670975 -0.07914283 -0.17136289 -0.08306105
-0.080411956 -0.048885144 -0.060810417 -0.0509047 -0.046687525 -0.023852283 -0.052552387 -0.088088624
-0.08126048 -0.048134483 -0.045360412 -0.07864912 -0.07151333 -0.07979573 -0.0907559 -0.13186942
-0.093176425 -0.056929175 -0.05207953 -0.11755745 -0.041973773 -0.044519577 0.02287592 -0.055537213
-0.10769708 -0.088217296 -0.08907066 -0.12624642 -0.08311808 -0.052396912 -0.06589367 -0.10294998
-0.019474642 -0.118707456 -0.1759459 -0.08475319 -0.119171776 -0.038354374 -0.06491009 -0.0012782142
-0.03198668 -0.11082984 -0.14001116 -0.046781313 -0.04393909 -0.048950054 -0.05878388 -0.060437705
-0.07528154 -0.038324952 -0.028609049 -0.015156736 -0.073025756 -0.041233208 -0.09004415 -0.06478686

action_model._discrete_distribution.branches.0.weight f4 [4, 256]
00000000: 5ca2 51bb 527c 673d e858 81bd f794 833c
00000010: 6370 35bc 6a4b 7e3c 4f28 623d 0c85 2d3b
00000020: 2ac8 92bb e669 4fbb 217f 013b 3113 0b3c
00000030: ee54 9cbc 3490 a0bc 14b5 46bc 321c 38bd
00000040: c69b a63c fe84 ee3c d862 82bd 9e1a 0b3d
00000050: ce5d 59bd b0ee ae3c 8faf 44bc dbfe 06bd
00000060: b053 88bc 21cc b5bb 90d0 4f3b 578b 5cbc
00000070: 1957 2b3c 60df 473c 64c1 48bb be2a 36bd
00000080: 3425 983c 7b5d 91bb 8947 2dbd 3e45 823c
00000090: f489 abbb b7cc abbc 33ce 913a 9f14 0fbc
000000a0: 8e54 2b3c 8c0a 78ba d8b0 953c 725d 803d
000000b0: 8942 283d ed63 59bc 9765 05bd f797 c23c
000000c0: f612 21bd 1334 52bd ee28 79bb c014 5ebd
000000d0: 4c53 80bc f7e8 22bd 805c 7fbb 91fc 873b
000000e0: a4f8 043c 63ca 14bc bd8a 2b3d de07 cebb
000000f0: 9e2f 78bb 725d 863c 3842 bf3c 2d1f 273c
00000100: e996 2abc 73c1 003d 7efb 87bb 28f7 feba
00000110: 1bc7 713c 5ea3 243c 512d 00bc d815 bdbb
00000120: 7c5f 95bc 7972 f73b e4b0 c13a 4ac3 a0bd
00000130: 367f 36bc 1f07 193d cf3f c83c 3f3a 993b
00000140: eb66 b6b9 6eb5 343d 7da7 42bb af92 fd3c
00000150: 4724 09bc 0949 91bd d87a 473c 7f27 10bd
00000160: 098d 50bc 4368 e33c ce63 273c 9c97 92bc
00000170: 2044 ad3c b618 3ebd 3061 08bd 2908 153c
00000180: 3c72 383c c4b6 28bc 51a0 913c 9be2 063d
00000190: 40cf 91bc 280e 81bd b356 873c 6ad3 cebc
000001a0: 83b4 4d3b 27b9 313b 8aae 21bc e87a 5ebc
000001b0: 4b38 8e3c 7ef9 acba 8e4e 8b3c 5482 0fbd
000001c0: d4ce d3bc 7fbf e2ba 763e 1a3c 22a8 d83a
000001d0: 4c4e 823c 2bbb 23ba 5f91 243c ca65 003c
000001e0: 0ce5 d8bc c582 dfbc 4e89 c5bd f160 08bd
000001f0: 2303 8d3d 15b7 58bc 912e 3cbd 0e56 cfbc
00000200: a615 063d 4f55 793b 085f 3f3d 7548 8c3c
00000210: 9dba c23b 2bb5 3a3c 6876 11bc 6b48 41bb
00000220: cd82 053d 836a 07bd e8a0 96bc 97cb e33c
00000230: cb06 cabc 9d8d fbbc bfa4 d4bd 6e51 cabc
00000240: 863a 66bc d95a 7c3d ed48 58bd fb45 b6bc
00000250: f9ca 333c 2bba 903c 133f 15bb 5484 313d
00000260: 72f9 8f3c 0b4e eebc 6a9d 3a3d 1632 b4bb
00000270: 676d 063b 7640 0abd b48f d7bd 3be3 093c
00000280: 9123 bb3c 60c4 15bd b2cd d53a ee55 f7bc
00000290: 764e f6bc 1174 2a3c 269b 973b 8b2e 323c
000002a0: 1068 633c fbdd f5bc 26a8 853b 9521 983c
000002b0: 5a72 8d3a 90fb b03c 32a5 a73c cd07 513d
000002c0: c701 32bc 3c4f aabc e2c0 4abd 4548 a53c
000002d0: 597e 3b3b 815d 5f3c e3c1 a53c 62b3 e83c
000002e0: 461b 86bb 4194 a03c ab56 343d c4c3 9dbc
000002f0: 51b3 07bc 682c 13bd 755b 88bc 440e ec3b
00000300: 0067 6c3c 9b40 903b dcd7 223c cf8d ad3b
00000310: 6906 b13b b320 773c eba3 47bc f195 ae3b
00000320: 0e95 723c 7e46 703c a783 3e3b 14b8 743c
00000330: 9152 663c 0e15 4abd 9294 303c e82c 893c
00000340: 3e76 1ebd e2d7 1fbd a520 f1bc 730c bd3c
00000350: 9974 11bc 6990 1fbb 6209 5c3c 7218 dc3b
00000360: 12de b63c f7c3 9cbd d189 aa3c 82d3 07bb
00000370: 2355 153d ab0a aa3b 7392 30bd 9e63 18bd
00000380: e1d0 fe3c 556d 153b 5b71 e9bb 64a4 f5b9
00000390: 4fc1 993b 399c 97bb d477 90bc 919c f13a
000003a0: afb2 b33c 36ce bcbc bc56 423b faec 833c
000003b0: f995 8d3c 12c9 dc3c b2a2 803c 4afb 4bbb
000003c0: 9d1d 1cbb bb15 8b3d 3e6c e43c 8f93 ba3b
000003d0: 7ad1 24bd e474 573d 338b 62bb c410 833b
000003e0: 451a 603d 7223 eb3c e110 a7bd ef30 55ba
000003f0: 968f 093c 8185 11bc b829 cd3b b483 6d3c
-0.0031987643 0.056515045 -0.06315786 0.016062243 -0.011074158 0.01552091 0.055214223 0.0026477007
-0.004479428 -0.0031648814 0.0019759613 0.008488462 -0.019083466 -0.019600011 -0.012128133 -0.044948764
0.02033795 0.02911615 -0.06366509 0.03396093 -0.053067975 0.02135405 -0.012004747 -0.032957893
-0.016641468 -0.0055480157 0.0031710006 -0.013460956 0.010457777 0.012199253 -0.0030632848 -0.044474356
0.018572427 -0.0044361926 -0.04230455 0.015902158 -0.005234951 -0.02097164 0.0011124074 -0.008732944
0.010457171 -0.0009462021 0.018272802 0.06267823 0.041079078 -0.013268453 -0.032567587 0.023754103
-0.039324723 -0.051319193 -0.003801878 -0.054219007 -0.015664719 -0.039772954 -0.0038965046 0.0041499813
0.008115921 -0.009081456 0.041880358 -0.006287559 -0.003787018 0.01640198 0.023347005 0.010200304
-0.010411956 0.031434488 -0.0041498533 -0.001945232 0.014756943 0.010048715 -0.007823304 -0.0057704262
-0.018234007 0.007551488 0.0014777449 -0.078497484 -0.011138728 0.037360307 0.024444489 0.004676133
-0.00034790425 0.044118337 -0.0029701882 0.030953733 -0.008370466 -0.070940085 0.012175284 -0.035193916
-0.012728938 0.027759677 0.010216666 -0.017894559 0.021150649 -0.046410285 -0.03329581 0.009096184
0.011257704 -0.010297481 0.01777664 0.03293095 -0.01779902 -0.06301528 0.016520834 -0.025247294
0.003138811 0.0027118416 -0.0098682735 -0.013579108 0.017360827 -0.0013196913 0.017005231 -0.0350364
-0.02585546 -0.0017299502 0.009414306 0.00165296 0.015906475 -0.0006245847 0.010044425 0.007836768
-0.026476406 -0.027284035 -0.096453294 -0.033295576 0.06885364 -0.013227244 -0.045942847 -0.025309589
0.03273549 0.0038045233 0.04672149 0.017124394 0.005942656 0.011395733 -0.008878328 -0.0029492627
0.032595444 -0.033060562 -0.018387273 0.02780704 -0.024661442 -0.030707175 -0.10382985 -0.024697032
-0.014052039 0.061610077 -0.052803922 -0.022250166 0.010973685 0.017666897 -0.002277319 0.04333909
0.017575 -0.029089948 0.045560278 -0.005499135 0.0020511986 -0.03375288 -0.10525456 0.008415992
0.022844108 -0.03656423 0.0016311912 -0.030192342 -0.03006671 0.010403649 0.0046266494 0.0108753545
0.013879791 -0.030013075 0.0040788827 0.0185707 0.0010791526 0.02160433 0.020464513 0.05103283
-0.010864682 -0.020789735 -0.049500354 0.020176062 0.0028609245 0.013633133 0.020234054 0.028405849
-0.0040926067 0.019601943 0.044027966 -0.019258387 -0.008282498 -0.03593102 -0.016645173 0.007203849
0.014428854 0.004402233 0.00993916 0.005296446 0.0054023755 0.01508348 -0.012185077 0.005327933
0.014806045 0.014665244 0.002907017 0.014936466 0.014057771 -0.049336486 0.010777609 0.016745046
-0.038686983 -0.03902424 -0.029434511 0.023077225 -0.008877897 -0.002434755 0.013429971 0.0067167813
0.022322688 -0.07654565 0.02081767 -0.0020725434 0.036458146 0.00518926 -0.043108415 -0.037204377
0.03110546 0.0022800763 -0.0071241087 -0.00046852522 0.0046922336 -0.0046267775 -0.017635264 0.0018433501
0.021935789 -0.023047548 0.0029653748 0.01610421 0.017283427 0.026951347 0.01570258 -0.0031125122
-0.0023821362 0.06791254 0.027883645 0.00569386 -0.040238835 0.05260171 -0.0034567832 0.0039998014
0.054712553 0.028703425 -0.08157516 -0.0008132597 0.00839605 -0.0088819275 0.006261077 0.0144967325

action_model._discrete_distribution.branches.0.bias f4 [4]
00000000: f0e1 1c3c 5e34 92ba d505 3d3b 0ce2 01bc
0.009575352 -0.0011154523 0.0028842587 -0.007927429

action_model._discrete_distribution.branches.1.weight f4 [3, 256]
00000000: f474 06bd 8306 753c 363c 9c3c a159 1f3d
00000010: bec8 4cbd 7ad0 de3c 4742 7c3c 1907 e73a
00000020: 2e94 233b 79f4 ce3b f5ec 0b3c f7e6 68bc
00000030: 5eb6 2cbd 363e 973c 5cb2 9b3c 3135 623d
00000040: 9081 9c3c 2981 c7bc b502 53bd 6b30 83bc
00000050: 87e6 103c 16d6 ccbc 677f 2b3d c0fa 8abd
00000060: b160 d0bc 55cc cf3c f668 17b9 4c0b 09bc
00000070: aa6c 5cbc 9cc6 843c f82c 89bc 977e 4cba
00000080: 6a40 0abc 2507 34bc 89fa 0cbb 5f4b 37ba
00000090: e2be 2dbc c751 29bc 7499 cb3b 11d4 75bb
000000a0: 113e 9b3b 0543 d0bb 2faa 62bc 8e23 a4bc
000000b0: 7049 173c 1c26 1f3c b1cb 24bc 49ad 8d3c
000000c0: dfd7 db3c 0880 a8bb ab00 fc39 1187 4dbb
000000d0: 0dcf 75bc d3e2 603b cde5 b4bb 58c5 a8bb
000000e0: 448a 38bd abcf 1dbc f76a f1bb 11e7 cf3c
000000f0: d8e0 143d f3c5 153b 4c4d dabb 724e 28bc
00000100: 0b02 cabb 7454 3bbd 13de 4ebc 4420 743c
00000110: ba2c 85bd aba8 dfbb d618 14bc b02c 093b
00000120: adf7 0a3c 7465 113c 21da 24bc ed67 08bd
00000130: 96db 7a3c 184d e0bb 6c71 043c c8b9 1ebc
00000140: 84f8 58bb bd80 943b e151 49bc 2dfb 8d3b
00000150: 278e 09bc d1f5 b43c cb00 2fbc 3a80 00bc
00000160: 5f1d feba ea9c 1f3c 2097 ddbb add0 47bc
00000170: 025a 513b 3b97 1dbd 1402 68bb e45d 363c
00000180: 6a83 8fbc 5107 adbc 2698 473b 15af c3bc
00000190: 44f6 593c 2957 8e3c b0d6 af3a 12e9 0c3d
000001a0: eca0 babb c63f 1abc 3e22 4cbc 68e4 2ebc
000001b0: fed7 d2bc 1c67 11bc 9e3f 5abc 148a 343d
000001c0: 1378 debb 5122 42bc 061a a5bc 6c03 263c
000001d0: 39da 89bb b636 bbbc 4656 cdbc 06bd 38bd
000001e0: f14a 3abd eb05 5c3c 2507 fc39 bccb 9bbb
000001f0: 8ff8 483c d71d 04bd 4b52 4eb9 d2c2 1d3d
00000200: 4a62 903b f49f 34bb d011 403a e2d7 4a3c
00000210: 2506 aa3a 8d68 f1bb c1ff 9dbc d806 dabb
00000220: 4cfe f9bc 8802 8c3c 3ae5 4b3d a8ef 82bc
00000230: 18b5 b13c 1539 b03c bce9 85bb 6a64 a6bc
00000240: f5a5 b53c 6432 d4ba 8a99 313b 50e4 8439
00000250: 1547 ebbc ee99 4f3b 031a 0abc b624 71bc
00000260: 8eb0 22bc 9569 7cbd ca23 89bc 3e41 59bc
00000270: ddbb 6dbc b8c2 d83b 0f3d 1c3d 29f4 dfbb
00000280: 0a64 2bbc 441e 9e3c b319 12bc feb6 683c
00000290: 4ddd b23c 2921 5abb 9591 8fba c4cc 8e3c
000002a0: b827 21bc 3f3f 08ba e08e 833b 2e82 cb3c
000002b0: a1cc 3b3c 4283 d7bc f9ed b83c aa18 2c3a
000002c0: 99df d33b db2e cfbb 1ba0 b83b 598f b73c
000002d0: ebfb a23c 7f58 74bd a241 9d3b 6446 11bd
000002e0: 3748 78bc b5b1 fcbb 0e4a 05bd f11e 3fbc
000002f0: 2aeb 4dbc 4d8f 74bc 303c 83bc f933 8fbc
00000300: 048a e3bb 18dc b5bb 1762 9338 c758 0bbd
00000310: 9bd4 273d f817 193c 702f 38bc b437 f83a
00000320: 27db 67bc c7a0 6dbd 9091 f1b9 6265 4fbc
00000330: 2fac aa3c a399 353d 48eb 013c 8fab 11bc
00000340: 6044 57b9 6217 30ba f526 cebc 6c3a 29bc
00000350: b09d 72bc bc9e babc 2f91 7ebc f58f b2bb
00000360: ce7f 90bd 0cf7 fbbb 5032 9bbc 9576 8a3b
00000370: de3b 2c3c fa71 8cbc 8076 fc3c 6884 c2bc
00000380: 717f 44bd ff32 acbd 9ece 91bb f21f 9e3a
00000390: e84d 65bc 3942 ab3c cd85 ee3c 8508 01bc
000003a0: 7216 df3c 31cc a0bc fd03 acbc b881 acbc
000003b0: e4b3 2ebb 21e5 bf39 bcbd e2bc 96dd afbb
000003c0: 2f69 d33c bd24 a3bc 0af1 eab8 db1f d33b
000003d0: a9ef 5b3c b621 de3b 4ef7 d0bb 516d adbb
000003e0: d1ff 37bd 43fe abbb 188a c8bc b7e8 70bc
000003f0: 2bd9 2d3a b46d ee3c c670 edbb 936b 4ebc
-0.03282638 0.014955166 0.01907168 0.038903836 -0.04999613 0.027199019 0.015396661 0.0017626017
0.0024960148 0.0063157645 0.008540382 -0.014215223 -0.042166106 0.018462282 0.019005947 0.05522651
0.019104749 -0.02435358 -0.051516254 -0.016014298 0.0088440245 -0.025004428 0.041869547 -0.06786108
-0.025436731 0.025365988 -0.00014439583 -0.00836451 -0.013453642 0.016207986 -0.016745076 -0.0007800846
-0.008438209 -0.0109880315 -0.0021511635 -0.0006992127 -0.010604592 -0.010334439 0.0062133614 -0.0037510435
0.0047376235 -0.0063556456 -0.01383452 -0.020036485 0.009233817 0.009713676 -0.010058329 0.017294543
0.026836334 -0.0051422156 0.00048065683 -0.0031361023 -0.015002978 0.0034314885 -0.0055205585 -0.0051504783
-0.045053735 -0.009632031 -0.0073674875 0.025378736 0.03634724 0.0022853583 -0.0066620465 -0.010272609
-0.0061647943 -0.045734838 -0.012626189 0.014900271 -0.065026715 -0.0068255267 -0.0090391245 0.0020931177
0.008481902 0.008874286 -0.010061772 -0.033302236 0.015311142 -0.006845128 0.0080836825 -0.009687848
-0.0033107111 0.0045319484 -0.012287588 0.004332921 -0.008395708 0.02208987 -0.010681341 -0.007843072
-0.0019387415 0.009742001 -0.0067624003 -0.012195748 0.0031944518 -0.038474303 -0.003540163 0.011130784
-0.017518718 -0.021121653 0.0030455678 -0.023887197 0.013303343 0.017375546 0.0013415422 0.03440196
-0.005695453 -0.009414619 -0.012459336 -0.0106745735 -0.025737759 -0.008874681 -0.013320832 0.044076994
-0.0067892163 -0.011849002 -0.02015401 0.010132652 -0.0042069224 -0.022853237 -0.025065552 -0.04510214
-0.045481626 0.013429145 0.0004807051 -0.0047545116 0.012266292 -0.03225502 -0.00019676347 0.038515873
0.004406248 -0.002756116 0.0007326873 0.012380572 0.0012971802 -0.0073671998 -0.019286992 -0.006653648
-0.030516766 0.01709105 0.049779154 -0.015983418 0.021692798 0.021511594 -0.004086701 -0.020311553
0.022173861 -0.0016189334 0.0027099573 0.00025347108 -0.028720418 0.0031677443 -0.008429053 -0.014718225
-0.009929789 -0.06162413 -0.016740698 -0.013260184 -0.014510122 0.006615009 0.038144168 -0.006834526
-0.010460863 0.019301541 -0.00891726 0.014203785 0.02183404 -0.0033283925 -0.0010953421 0.017431624
-0.00983613 -0.00051974127 0.0040148348 0.024842348 0.011462362 -0.026307706 0.022574412 0.00065649545
0.006465864 -0.0063227243 0.0056343204 0.02240722 0.019895514 -0.05965471 0.004799084 -0.03546752
-0.015153936 -0.007711614 -0.032541327 -0.011665092 -0.0125682745 -0.014926744 -0.01601991 -0.017480837
-0.006943943 -0.005549919 7.027777e-05 -0.03402021 0.04097424 0.0093440935 -0.011241779 0.0018937499
-0.014151371 -0.058014657 -0.00046075555 -0.012658449 0.020834057 0.044335973 0.007929631 -0.008891
-0.0002052947 -0.00067173515 -0.02516506 -0.01032887 -0.014808103 -0.022780769 -0.015537544 -0.00544929
-0.07055627 -0.0076893624 -0.01894489 0.004225562 0.01051232 -0.017144192 0.030818224 -0.023744777
-0.0479731 -0.08408164 -0.0044496795 0.0012063964 -0.013995625 0.0209056 0.029116536 -0.007875566
0.027232382 -0.019628616 -0.020997996 -0.021057948 -0.0026657516 0.00036601073 -0.027678363 -0.0053669913
0.025806991 -0.01991498 -0.000112028865 0.0064430065 0.013423839 0.006778921 -0.0063771373 -0.0052925725
-0.0449217 -0.005248816 -0.02447991 -0.014703921 0.0006631787 0.029105045 -0.0072461097 -0.01259889

action_model._discrete_distribution.branches.1.bias f4 [3]
00000000: 950e 583d f910 e63b a31f 75bd
0.05274828 0.0070210663 -0.059844624

onnx::Div_88 f4 [35]
00000000: 4c08 c23d 645e 393a 7df6 0f3e 717f 2c3e
00000010: 8057 b93d 51ef 293e 645e 393a e95a 0b3e
00000020: 2f34 593e c2a8 d63d 1e9e 5a3e 5113 833a
00000030: bf43 1b3e ebd9 833e ddc8 f23d 5d03 733e
00000040: 645e 393a 632f 513e 3521 9c3e 9480 393e
00000050: b13a a53e 645e 393a a2d7 473e 5364 bb3e
00000060: eda9 453e adb4 8f3e 645e 393a 212c 663e
00000070: 0cec b13e 165a 513e 702e be3e 645e 393a
00000080: 3a93 543e a24b d13e 77ff 593e
0.09474239 0.0007071255 0.14058872 0.1684549 0.090498924 0.16595198 0.0007071255 0.13608898
0.21211313 0.10481407 0.2134938 0.0010000264 0.15162562 0.25752196 0.11854718 0.23731752
0.0007071255 0.20428233 0.30494085 0.18115455 0.3227134 0.0007071255 0.19515851 0.3659998
0.19303103 0.28067532 0.0007071255 0.22477771 0.34750402 0.20444521 0.37144804 0.0007071255
0.20759287 0.40878016 0.21288858

onnx::Div_91 f4 [135]
00000000: 67f3 343c 0dd8 453e e9e9 fb3e e91a ff3e
00000010: 30b9 813e 28d2 2b3c 0fed c43e 14dd ef3e
00000020: cbd8 ff3e 2976 7b3e c106 973c 0b66 a13e
00000030: cfa4 f53e 84ee ff3e c097 613e b40a 0a3c
00000040: b52b d83e daff 893e 973c f13e 5166 8c3e
00000050: e8b0 973c f72a d53e 9870 a23e c975 f53e
00000060: 7fc7 3d3e 9698 063c d616 df3e a7fa cf3d
00000070: c2af e43e c6fb 873e b608 8a3c 8204 a33e
00000080: c22b 393e 2237 bc3e c542 033e 645e 393a
00000090: dc01 be3e 086e 9b3b 3f82 bf3e f1cc e03d
000000a0: 645e 393a d2a9 ba3d c597 043c 7b08 dc3d
000000b0: c7d6 8d3d 9029 373c 89e4 453e 0def fb3e
000000c0: 670d ff3e 6ddc 803e d660 2d3c d7f4 c43e
000000d0: e6e5 ef3e f0dd ff3e 559f 793e 28cd 973c
000000e0: 0e73 a13e 66ac f53e e9ea ff3e c352 5f3e
000000f0: b07e 0b3c 9c35 d83e 530d 8a3e ea01 f13e
00000100: 2a7b 8b3e 4a5a 983c 7736 d53e fc7c a23e
00000110: a546 f53e 8f92 3a3e ed96 073c f120 df3e
00000120: d309 d03d f657 e43e a2fd 863e e084 8a3c
00000130: c912 a33e 8335 393e a891 bb3e 2c80 fb3d
00000140: 645e 393a 650a be3e 086e 9b3b 2add be3e
00000150: d3a7 d33d 645e 393a bcbd ba3d c597 043c
00000160: 54c5 cd3d ca41 6c3d f458 393c b8f0 453e
00000170: 4ff4 fb3e b6ff fe3e eefa 7f3e 83eb 2e3c
00000180: 51fc c43e a0ee ef3e fbe2 ff3e 3dc3 773e
00000190: dae6 983c 1680 a13e 0bb4 f53e fbe6 ff3e
000001a0: 9605 5d3e 43ee 0c3c 573f d83e f61a 8a3e
000001b0: f1c6 f03e 808d 8a3e fe56 993c b341 d53e
000001c0: ee89 a23e eb16 f53e 054c 373e 6d93 083c
000001d0: 182b df3e f818 d03d 55ff e33e 76fc 853e
000001e0: 791f 8b3c 6a20 a33e 453f 393e b3ea ba3e
000001f0: b8ed ef3d 645e 393a ad12 be3e 086e 9b3b
00000200: 9536 be3e 4096 c53d 645e 393a 85d1 ba3d
00000210: c597 043c ab65 be3d fe4f 303d
0.01104436 0.19320698 0.49201897 0.49825218 0.253366 0.010487117 0.3846211 0.46848357
0.49970087 0.24556793 0.018435838 0.31523165 0.479773 0.4998666 0.22030544 0.008425403
0.42220846 0.26953012 0.4711654 0.2742181 0.018516973 0.41634342 0.31726527 0.47941425
0.18533133 0.00821509 0.4357211 0.1015523 0.44665343 0.26559275 0.016849857 0.31839377
0.18083099 0.36760813 0.1281844 0.0007071255 0.37110794 0.0047433414 0.37404057 0.109765895
0.0007071255 0.09114422 0.008092825 0.10743805 0.06925731 0.011179343 0.1932546 0.4920582
0.49814913 0.25168172 0.0105821695 0.38468048 0.46855086 0.49974012 0.24377187 0.018530443
0.31533092 0.47983092 0.4998391 0.21808915 0.008514091 0.422284 0.2696329 0.47071773
0.27242404 0.01859774 0.41643116 0.3173598 0.4790546 0.1821997 0.00827573 0.4357982
0.10158124 0.4459836 0.2636538 0.016909063 0.3185027 0.1808682 0.36634564 0.12280306
0.0007071255 0.37117305 0.0047433414 0.3727811 0.10334744 0.0007071255 0.0911822 0.008092825
0.10047403 0.05767993 0.011312712 0.19330108 0.4920983 0.49804467 0.24998066 0.010676268
0.38473752 0.46861744 0.4997786 0.24195571 0.018664766 0.31543034 0.47988924 0.49980912
0.21584162 0.008601728 0.42235824 0.26973695 0.4702678 0.2706108 0.018718239 0.41651687
0.31745857 0.47869048 0.17900093 0.00833593 0.43587565 0.101610124 0.4453074 0.26169175
0.01698278 0.31860667 0.18090542 0.36507186 0.11715263 0.0007071255 0.37123623 0.0047433414
0.37151018 0.096477985 0.0007071255 0.09121994 0.008092825 0.092967354 0.043045036

onnx::Div_94 f4 [12]
00000000: ef6b 983e 4a13 833a 3586 043f a5db dd3e
00000010: faaa 4f3a 645e 393a 7f73 d93e c729 f13e
00000020: 3d45 b63e 4e74 3c3f 5b84 e13e 4c5b a13e
0.29769847 0.0010000255 0.51767284 0.43331638 0.0007921901 0.0007071255 0.4247093 0.47102186
0.355997 0.73614967 0.44046292 0.31514966
