Usable_Data/Versuch_3-2.2/PKWParking/PKWParking-25000158.onnx (onnx, 733191 bytes, 17 tensors)

discrete_act_size_vector f4 [1, 2]
00000000: 0000 8040 0000 4040
4.0 3.0

network_body.observation_encoder.processors.0.normalizer.running_mean f4 [35]
00000000: 9462 353d 0000 0000 e986 133c 6655 723f
00000010: 28f6 7a3f 2475 573e 0000 0000 fecc c93b
00000020: f485 483f ba39 643f 80f8 313e ffbf 5634
00000030: bc45 ad3b 9623 523f b2c5 703f 33ee 963e
00000040: 0000 0000 8ee9 cf3b 31e3 323f fed9 4e3f
00000050: fc5e a53e 0000 0000 9ef8 bb3b babf 2b3f
00000060: c91d 5a3f 611f ad3e 0000 0000 0264 ba3b
00000070: 78f2 273f 7b14 4a3f 01f8 9b3e 0000 0000
00000080: 913c e83b 3e14 303f fbd3 573f
0.044283465 0.0 0.009004333 0.9466156 0.98031855 0.2104078 0.0 0.00615847
0.78329396 0.89150584 0.17379951 2.0000151e-07 0.005287854 0.8208555 0.9405166 0.29478607
0.0 0.0063449806 0.69877917 0.8080138 0.3229903 0.0 0.0057364246 0.67089427
0.852017 0.33813003 0.0 0.0056881914 0.6560435 0.789375 0.3046265 0.0
0.007087298 0.6878089 0.8430783

network_body.observation_encoder.processors.1.normalizer.running_mean f4 [135]
00000000: ff5c 223b 6913 cf3d 8d97 873c 21ed 5f3f
00000010: e6bd 783f a643 c53a 0809 3d3f 9659 4f3c
00000020: 8f96 7a3e ffd1 1b3f cf9d 143b 8103 873e
00000030: a711 373c d453 383f e55d 6e3f cc04 173a
00000040: 03e9 643f 6ee8 ba3b c4bb c43d ba5e da3e
00000050: 5b50 783a 77b8 4e3f 69f3 943b e71e 3b3e
00000060: c3f1 593f 020a 9139 cdc0 5f3f 15d5 a73a
00000070: 929d fa3d fe25 ea3e 99d2 6238 bca7 683e
00000080: 6ac1 c63a 649b 443f 7cbe 783f 01c0 d637
00000090: ac63 173f 8f73 a937 28db d03e e822 583f
000000a0: 10a7 9537 2e7b 043d 183f bd37 b76b 773f
000000b0: 0c81 7e3f c179 223b 3028 cf3d deb5 873c
000000c0: 07fe 5f3f 08cd 783f fe64 c53a 8e10 3d3f
000000d0: a087 4f3c 05bf 7a3e 8ce0 1b3f 9eb9 143b
000000e0: f30c 873e 4b39 373c 2161 383f 0f6e 6e3f
000000f0: 3325 173a 64f3 643f bb11 bb3b 7df7 c43d
00000100: 8178 da3e 0289 783a 3ec1 4e3f 9216 953b
00000110: d444 3b3e b002 5a3f f134 9139 d5ca 5f3f
00000120: 72f5 a73a d0e8 fa3d 3341 ea3e 9aac 6338
00000130: 83b6 683e f4dd c63a 16aa 443f 9ccd 783f
00000140: f7bf d637 8569 173f 8b73 a937 5af5 d03e
00000150: d233 583f 07a7 9537 608c 043d 4295 bd37
00000160: d683 773f 8286 7e3f d996 223b fa3c cf3d
00000170: a4d4 873c 520e 603f f8dc 783f e186 c53a
00000180: eb17 3d3f c3b7 4f3c 36e7 7a3e 0bef 1b3f
00000190: 55d5 143b a816 873e ff63 373c cc6e 383f
000001a0: d67d 6e3f 9b47 173a 80fd 643f 273c bb3b
000001b0: 9037 c53d 0792 da3e 0dc4 783a 40ca 4e3f
000001c0: c939 953b 2969 3b3e c713 5a3f 5c65 9139
000001d0: 79d4 5f3f 0017 a83a 8b35 fb3d c05c ea3e
000001e0: 7fae 6438 31c5 683e a6fb c63a cdb8 443f
000001f0: f3de 783f 01c0 d637 7c6f 173f 8f73 a937
00000200: d20f d13e c343 583f 07a7 9537 ca9e 043d
00000210: 49eb bd37 af96 773f 6b8c 7e3f
0.0024774668 0.10111124 0.016551757 0.87471205 0.9716476 0.0015050068 0.73841906 0.012655636
0.24471496 0.60867304 0.002267707 0.2636986 0.011173642 0.7200291 0.9311202 0.00057609077
0.8941805 0.0057039773 0.09606126 0.42650396 0.0009472423 0.8075022 0.0045456183 0.18273507
0.85134524 0.00027664012 0.87403566 0.0012804592 0.122370854 0.4573211 5.4078733e-05 0.22720236
0.0015163843 0.7679961 0.97165656 2.5600197e-05 0.5913646 2.0200181e-05 0.40792203 0.8442826
1.7839979e-05 0.032344036 2.2559936e-05 0.96648735 0.9941566 0.002479181 0.10115087 0.016566213
0.8749699 0.9718785 0.0015060005 0.73853385 0.012666613 0.2448693 0.60889506 0.0022693644
0.26377067 0.011183093 0.72023207 0.93136686 0.0005765736 0.89433885 0.0057089007 0.09617517
0.42670062 0.0009480865 0.80763614 0.0045498097 0.18287975 0.8516035 0.00027696 0.8741887
0.0012814237 0.12251437 0.45752868 5.4281765e-05 0.22725873 0.0015172348 0.7682203 0.97188735
2.5600179e-05 0.59145385 2.0200174e-05 0.40812188 0.8445407 1.7839962e-05 0.032360435 2.260006e-05
0.9668554 0.9942399 0.002480915 0.10119052 0.016580887 0.8752185 0.9721217 0.0015070104
0.7386462 0.01267809 0.24502262 0.60911626 0.0022710164 0.26384473 0.0111932745 0.7204406
0.9316076 0.0005770863 0.8944931 0.005713958 0.09629738 0.42689535 0.0009489663 0.8077736
0.0045540077 0.18301834 0.8518643 0.00027732074 0.8743358 0.0012824237 0.12266072 0.45773888
5.452195e-05 0.22731473 0.0015181198 0.76844484 0.97215194 2.5600197e-05 0.59154487 2.0200181e-05
0.40832382 0.84478396 1.7839962e-05 0.032377996 2.2640119e-05 0.967143 0.9943301

network_body.observation_encoder.processors.2.normalizer.running_mean f4 [12]
00000000: 4b23 4d3c 0aff 7f3f c617 fcbe b044 48bd
00000010: 4f4a 013f 0000 0000 ba58 823d 9abe 4b3d
00000020: 0e68 183d 1c68 5f3c ad0d 0f3c 63c7 d73c
0.0125206215 0.99998534 -0.49236888 -0.04889363 0.5050401 0.0 0.063645795 0.04974232
0.03720861 0.013635661 0.008731288 0.026340192

network_body._body_endoder.seq_layers.0.weight f4 [256, 182]
00000000: 8f62 543e 8bbf c9bc 4b3b 873f eefb 75bd
00000010: 3118 c9bc 6a01 69be b5f9 813c 8f65 913f
00000020: e7e0 773c ff62 edbb 3032 c03d 5b20 503f
00000030: 171c 943f 7c85 25be 2ccb 3b3c 5027 5dbd
00000040: a29e 403d 0c2e aa3f 68a6 8ebc 81e4 bbbd
00000050: 249b 37bd d7f1 023d 013d 993f 1d8e 4abb
00000060: d5c0 d6bd cc30 553e f130 13bd deee ac3f
00000070: d57e e1be 5ccd c4be 7757 433e dcc5 1abd
00000080: f9be 8e3f b525 5cbe 7b62 09be 8a2d 7f3f
00000090: a060 80be 23f4 8f3f b6ad e93d 7782 04bd
000000a0: f379 a23f e055 9abd 1e69 963f c6d1 2d3d
000000b0: 6e4e f73d f56d 9f3f 24d2 e5bd 37be 903f
000000c0: 6fd9 043e 98bd efbd 999a 8e3f 2ccf 7dbd
000000d0: 5606 9d3f 61bc 883c cfcf 92bd e074 a13f
000000e0: 426b 82bd 5d00 833f 54e1 4a3c 09a2 5dbe
000000f0: f4c5 a33f a9db a2be d222 ad3f e702 d13e
00000100: 4c3f 38be bc1e 913f 9f92 d93c 9574 a63f
00000110: ca77 733d 1353 f6bd da45 803f 6d7b 52bd
00000120: a609 983f 7cd1 3d3d dfeb a4bd 3c8d 8b3f
00000130: 686d 093e 45d4 8d3f b492 fc3c 8557 0fbe
00000140: b9ba 8e3f 91a4 e8be 119d 943f 79de 613e
00000150: 096e 33be d865 a53f dd5f eebc ca90 8d3f
00000160: a900 86bd 263c 983d 4bc1 8b3f 2b8b 13be
00000170: fbd0 933f 51dd 843d 98f2 c2bc 5ce1 973f
00000180: 81b7 c0bd 2445 923f 1a1b 9c3c c27a 8fbd
00000190: 6f49 823f de4a 80be e9be 8b3f f109 693e
000001a0: 5f56 99be fc17 a13f a97c c7be 8ff5 903f
000001b0: ff27 b53e f565 2abd f0c7 973f 4231 91bd
000001c0: c910 a23f 99c7 32be b8c7 87be 06be 953f
000001d0: eb70 dbbd 10f9 9d3f 64d1 c93d c3a1 62bd
000001e0: ef8f 8e3f 5349 96bd a6c1 8c3f 9160 cfbd
000001f0: 1af8 92be 869d 933f cd54 50bd a008 7c3f
00000200: 3e55 793e d0a8 d7bd 454f 9a3f 74a7 a6bc
00000210: d407 a33f b91e 60bd d704 81bd f06b 9e3f
00000220: 3e71 8bbc b400 893f 44ec 153c 88f5 173e
00000230: 12df 833f 6965 81be 05c2 873f 5133 5d3e
00000240: b6ac 45bd fefa 933f 4b4b 27be b0fb a13f
00000250: 0a83 eb3d 1f8b 64be d0ee 893f f80b bbbe
00000260: 1668 a73f 0400 933e fea8 b0bd 8b45 8a3f
00000270: 32e5 e83b de6a 9a3f 255e 4bbd ea3c 97bd
00000280: 92f3 873f edbc eabc 883d 9b3f a73e a83d
00000290: 9c24 893d 6f32 993f a25a f03c 1e89 8a3f
000002a0: 2416 973d 9e2c 38be 453e 8c3f 90e5 97bf
000002b0: 1bbf 883f 7a83 7fbe e064 87bf 2a57 193c
000002c0: 844f 883f 7528 903f e9a4 913f 977f 2b3f
000002d0: 04db a43f 9f00 8b3f 0953 bf3c 7963 fe3c
000002e0: 6eb9 4d3f deef 21bd 3e3e 573d e610 a3bd
000002f0: 9273 0e3a 58bf 8f3f 61e7 26be 5bc9 31bd
00000300: 0286 813e 8e4b 3c3f 7a95 5c3f 34bd 56bd
00000310: 0a31 c5be 7be4 54bc b548 6d3d 983d 8b3f
00000320: 376f 7cbe d1c1 9abe 3b16 ccbd 1206 4dbd
00000330: c131 613f e05c 513d 849b e3bc 8380 bd3e
00000340: f180 40bd 4875 563f 61b3 a2be 9c95 e1be
00000350: 34e4 453e 47bc c4bc 9539 673f 3381 aebe
00000360: 06ea 4abe de2e 7a3f 3056 a7be 16d3 3e3f
00000370: 105b ac3e 08df a8be d3d0 4c3f ff49 50be
00000380: 97cb 533f 2c72 ae3d ade6 0c3e a214 5b3f
00000390: 9336 223e b8b9 6c3f be98 e6bd 4167 1bbe
000003a0: 87e2 7e3f 4466 263d 37a0 783f af2a 8cbc
000003b0: 40c2 d93d deea 713f 918c e0bd 0792 7b3f
000003c0: 4233 0a3e 3c07 d1be 967b 7c3f c501 76be
000003d0: 41d1 873f 13ad 883e dfcb 66be c4c8 833f
000003e0: 5abe 9cbd 0bee 683f b81b 033e 842b 0fbe
000003f0: 9d1c 543f a94d 443e 3fd0 683f a1b1 b2bd
0.20740722 -0.024627468 1.056497 -0.060054712 -0.024547668 -0.22754446 0.01586614 1.1359118
0.0151293045 -0.0072444673 0.093845725 0.8129937 1.1571072 -0.16164201 0.011462014 -0.05399257
0.047026284 1.3295302 -0.017413333 -0.09174443 -0.044825688 0.031968918 1.1971742 -0.003090746
-0.104859985 0.20819396 -0.035935346 1.3510396 -0.44042078 -0.38437927 0.19076334 -0.03778635
1.115203 -0.21498759 -0.13416474 0.9967886 -0.2507372 1.124638 0.11410086 -0.032350983
1.2693466 -0.075359106 1.1750829 0.042436384 0.12075506 1.2455431 -0.11221722 1.1308049
0.1297357 -0.11706084 1.114093 -0.061965153 1.2267559 0.016691389 -0.071685426 1.2613792
-0.06368114 1.0234486 0.012382824 -0.21643843 1.2794785 -0.31808212 1.3526251 0.40822527
-0.17992896 1.1337504 0.026559172 1.3004328 0.05944041 -0.12027564 1.0021317 -0.05138724
1.1877944 0.046342358 -0.08052801 1.0902476 0.13420641 1.1080405 0.030831672 -0.1399823
1.1150733 -0.45438054 1.1610433 0.22057523 -0.17522444 1.2921705 -0.029098446 1.1059811
-0.06543095 0.074333474 1.0918363 -0.14408557 1.1548151 0.06487525 -0.023797318 1.1865649
-0.094100006 1.142735 0.019055892 -0.07005836 1.017866 -0.2505712 1.0917636 0.22757699
-0.29948708 1.2585444 -0.38962296 1.1324939 0.35382077 -0.04160114 1.1857891 -0.07089473
1.2661372 -0.17458953 -0.2651956 1.1698616 -0.10714897 1.2341633 0.09854391 -0.05533005
1.1137675 -0.07338204 1.0996597 -0.101258405 -0.2870491 1.1532447 -0.050862122 0.9845066
0.24348924 -0.10530245 1.2055441 -0.02034352 1.2736764 -0.0547168 -0.06299751 1.237669
-0.017021772 1.070334 0.009150568 0.14839756 1.0302451 -0.25272682 1.0606085 0.21601607
-0.048260413 1.1560972 -0.16337316 1.2654934 0.11499603 -0.22318695 1.0776005 -0.3653257
1.307864 0.2871095 -0.08625983 1.0802473 0.0071074003 1.2063863 -0.04965033 -0.07384665
1.0621207 -0.02865454 1.2128153 0.08215075 0.06696436 1.1968516 0.029340092 1.0823095
0.0737727 -0.1798577 1.0956503 -1.1866932 1.0683321 -0.24952498 -1.057766 0.00935916
1.0649266 1.1262347 1.1378452 0.6699156 1.2879338 1.0859565 0.023355024 0.031053292
0.8036107 -0.039535396 0.052549593 -0.079622075 0.00054340914 1.1230268 -0.16299202 -0.04340492
0.25297552 0.7355279 0.86165583 -0.052426532 -0.38513976 -0.012993927 0.057930667 1.0878172
-0.246518 -0.30225995 -0.099651776 -0.050054617 0.87966543 0.051113963 -0.027784117 0.3701211
-0.046997968 0.83772707 -0.3177748 -0.44059455 0.19325334 -0.024015559 0.9032224 -0.34082946
-0.19815835 0.97727764 -0.32682943 0.7454084 0.33663225 -0.3298266 0.8000614 -0.20340727
0.8273253 0.0851787 0.13759871 0.8557836 0.15841131 0.92470884 -0.11259602 -0.15176107
0.99564403 0.04062487 0.9711947 -0.017110197 0.10632753 0.94499004 -0.10964311 0.98269695
0.13496116 -0.40825832 0.9862608 -0.24024113 1.0610734 0.26694545 -0.22538708 1.0295644
-0.07653494 0.90988225 0.12803543 -0.13981444 0.8285616 0.1917025 0.9094276 -0.08725286

network_body._body_endoder.seq_layers.0.bias f4 [256]
00000000: d25c a0bf a4a0 7fbf 71f2 f4be a961 51bf
00000010: 775d adbf 730e 7abf 60cc c3bf 5936 86bf
00000020: d15b 50bf c73b dbbd 932d 47bf 40c6 a6bf
00000030: 7c35 86bf a8ef 86bf 36bf 97bd 4678 073e
00000040: 8b7c a1bf eda5 7cbe 87f6 4ebf 48c0 85bf
00000050: 3def 72bf a97f 89bf 3cb5 d1bf ac8e 89bf
00000060: 9b40 77bf 96b0 ef3d 4116 1c3e 3f30 adbf
00000070: b81b 8fbe 36bd 8cbf 70de 3cbf f36d 33bf
00000080: 103f a3bf ae88 193e eadd 94bf 6771 6cbf
00000090: ea0e adbf 9d61 2bbf 94bd 70bf 9c05 02bf
000000a0: 1ed0 11bf df70 18bf be82 93bf 34dd 95bf
000000b0: 0ae2 93bf 87db 85bf 08f1 62bf d460 b5be
000000c0: f9ad 31bf 51b3 5dbf 0606 c5bf ae7a 263e
000000d0: bbeb 10bf 86d0 8dbf 9608 17bf 1f13 ef3b
000000e0: f53a afbf 8dc9 94bf 55d7 a3bf 2c2f 94bf
000000f0: eba9 8fbf fc0c afbf 9c41 563f 1c83 1ebd
00000100: 9735 9b3d a7fa 88bd 626a efbe 7001 87be
00000110: 2c0d 683e f39c 8cbf 70f3 b5bf 54cf 15bf
00000120: 3307 41bf 1630 10bf 8e62 e4be 547f 62bf
00000130: 63c7 61bf 2614 a9bf 8040 313e ca22 68be
00000140: b197 84bf 3581 3cbe e60e 2dbf 9200 5fbf
00000150: f361 cebf 9df7 8abf 1e6c 81bf de1c c3bf
00000160: 933f 4d3d 2c55 99bf 589a abbf 4991 8bbf
00000170: bc12 59bf c741 9dbf 07b2 52bf e87f f5be
00000180: ebda 42be 2e55 02bf b54f 8fbf a489 37be
00000190: 9c8b 65bf 7672 aabf 08c5 a4bf d424 36bf
000001a0: 9e32 a4bf 1786 9abf ee46 a3bf ad5b 55bf
000001b0: 0be8 cfbf 5682 adbf f01f aabf 4805 03bf
000001c0: 1fc5 b2bf b7cb 46bf efb7 bdbe 40c4 1ebf
000001d0: 741f 8dbf 96e9 83bf a337 53bf 08a7 6cbf
000001e0: ff00 97bd 9433 acbf d484 5cbf ba40 f6be
000001f0: fd5d 723e 02b5 b4bf 7fec c0be 37a7 aebf
00000200: 8db3 51bf 9cd7 c2bf b43d 8bbf 649b a9bf
00000210: 3052 48be 0511 49bf e013 a3bf 8995 51bf
00000220: 0ae3 89be 0235 c2bf f809 22be fbfe adbf
00000230: 2146 9fbf 8589 8dbf b6e3 80bf b950 88bf
00000240: 9a15 46bf 7188 8ebf 5fd3 51be 7176 eabe
00000250: 972a 2f3d aad3 6dbf 2d09 95be b921 72bf
00000260: 6372 d0bf 0063 abbf b223 23bc 7edc 9bbf
00000270: dd20 cabf 6183 61be 9976 383d 4e7d b1bf
00000280: 8b04 99bf eb62 a8bf 373a 97bf 521f 73bf
00000290: 63e0 5fbf f3dc 0ebf 9876 80bf 1d8e b8bf
000002a0: 3029 1dbd 52c5 bebe 019e 31bf caa9 2ebf
000002b0: 96d2 6bbf 61d9 b4bf d394 a9bf f1d1 c1bf
000002c0: 8763 9ebf 4e80 adbf 9dc8 94bf 61e8 9dbf
000002d0: c77a 44bf a5f7 1dbf 964c 7d3e d1af 80bf
000002e0: 4f3e debe ae38 d33a 7aa8 3ebf b173 bcbf
000002f0: c9c4 993e 0162 b6bf e998 8ebf f5d7 06bf
00000300: b0e1 a6bf c734 8cbf fe03 21bf cd4d 9ebe
00000310: d9bd 4cbf cc6e 84bf 79ba 8ebf 3c07 90bf
00000320: f0bb b6bf 0f6c a4be 8005 c2bf 523b 5abf
00000330: afe2 92bf ae29 20bf 0e45 96bf fb9c e5be
00000340: 59f5 e7be 9c87 9dbf 4df0 79bf 7105 51bf
00000350: fd98 9ebf d17d 0fbf 4acc a0bf 3644 4fbf
00000360: 4847 e13e 69de 8cbf c04e abbe 6516 82be
00000370: df8c 5ebf bea3 7f3b fe7a 9abf 6dd6 253e
00000380: f9bd bebf c509 a0bf 41b0 a1bf e5dc 9abf
00000390: a793 18bf df99 a4bf 56c3 a2bf e7d3 5fbf
000003a0: 891e a4be 7cb5 95bf 9a3b a9be a773 9ebf
000003b0: 8470 b5bd 7904 77bf 0d43 c3be 89c1 cebe
000003c0: 0169 7bbf 288e 98bf 913c 41bf 5a34 cdbe
000003d0: badb 74be 7885 8dbf 74da 95bf 65f0 f83e
000003e0: 80a1 29bf 7295 0ebf 061f 82bf 1f70 a6bf
000003f0: c27f b3bf da0c b8bf 8b7a 91bf e296 aabf
-1.2528327 -0.99854493 -0.47841218 -0.8178964 -1.3544148 -0.976783 -1.5296745 -1.0485336
-0.813901 -0.10704761 -0.77803916 -1.3029251 -1.0485072 -1.0541887 -0.074095175 0.13229474
-1.2616132 -0.2467267 -0.8084492 -1.0449305 -0.948963 -1.0742084 -1.6383433 -1.0746665
-0.96582955 0.11703603 0.15242864 -1.3530349 -0.27950835 -1.0995243 -0.7377691 -0.70089644
-1.275362 0.14993545 -1.1630223 -0.9236054 -1.3520176 -0.6694582 -0.94039273 -0.5078981
-0.56958187 -0.5954723 -1.1524274 -1.1708131 -1.1553357 -1.045762 -0.88649035 -0.35425436
-0.69406086 -0.8660174 -1.5392463 0.16257736 -0.56609696 -1.1079261 -0.58997476 0.0072959806
-1.3689867 -1.1624008 -1.2800089 -1.1576896 -1.122373 -1.3675838 0.8369386 -0.038699254
0.07578581 -0.06688433 -0.4676085 -0.26368284 0.22661275 -1.0985397 -1.4214916 -0.5851948
-0.7540161 -0.56323373 -0.4460644 -0.8847554 -0.88194865 -1.3209274 0.17309761 -0.22669521
-1.0358793 -0.18408664 -0.6760086 -0.87110245 -1.6123642 -1.0856816 -1.011112 -1.5243185
0.050109457 -1.1979117 -1.3406477 -1.0903713 -0.8479421 -1.2285699 -0.823029 -0.47949147
-0.19028823 -0.50911224 -1.11962 -0.179236 -0.8966615 -1.3316181 -1.2872629 -0.71149945
-1.2827947 -1.2072171 -1.2756021 -0.8334301 -1.6242689 -1.35554 -1.3290997 -0.51179934
-1.3966407 -0.77654594 -0.37054393 -0.62018204 -1.1025224 -1.030566 -0.8250677 -0.9244237
-0.07373237 -1.345324 -0.8614018 -0.48096257 0.23668666 -1.4117739 -0.37680432 -1.364478
-0.819146 -1.5222049 -1.0878205 -1.3250546 -0.19562602 -0.78541595 -1.274044 -0.818688
-0.2693103 -1.5172427 -0.15824115 -1.3593439 -1.2443277 -1.1057593 -1.0069492 -1.0649635
-0.7737671 -1.1135389 -0.20490788 -0.4579349 0.042765226 -0.929011 -0.29108563 -0.94582707
-1.6284908 -1.3389587 -0.009957241 -1.2176664 -1.5791279 -0.22022773 0.04503498 -1.3866365
-1.1954511 -1.3155187 -1.1814641 -0.94969666 -0.8745176 -0.5580589 -1.0036192 -1.441837
-0.038369358 -0.37259918 -0.6938172 -0.6822783 -0.92118204 -1.4128839 -1.3248543 -1.5142194
-1.2374123 -1.355478 -1.1623722 -1.2336541 -0.76749843 -0.61706 0.24736246 -1.0053655
-0.43406913 0.0016114914 -0.74475825 -1.4722806 0.30032948 -1.4248658 -1.1140414 -0.52673274
-1.3037624 -1.0953606 -0.62896717 -0.30918732 -0.79977185 -1.0346313 -1.1150657 -1.1252208
-1.4276104 -0.32113692 -1.5157928 -0.85246766 -1.1475428 -0.625636 -1.1739824 -0.4484633
-0.45304373 -1.230701 -0.97632295 -0.8164893 -1.2390438 -0.56051356 -1.2562344 -0.80963457
0.43999696 -1.1005374 -0.3345852 -0.2540771 -0.869337 0.003900751 -1.2068784 0.16195078
-1.4901725 -1.2502981 -1.2631913 -1.2098662 -0.596003 -1.2859458 -1.2715862 -0.8743271
-0.32054546 -1.169601 -0.33053285 -1.2379044 -0.08859351 -0.964912 -0.38137093 -0.4038203
-0.982071 -1.1918383 -0.7548304 -0.40079004 -0.23911944 -1.1056356 -1.1707292 0.48620906
-0.66262054 -0.55696785 -1.0165718 -1.3002967 -1.4023364 -1.4378922 -1.1365522 -1.3327296

network_body._body_endoder.seq_layers.2.weight f4 [256, 256]
00000000: fc53 86bd 6a3f 373e 56b8 06be 3abc 5b3d
00000010: b238 b53d bcfa 203e b127 a13e 6fd0 86be
00000020: 0283 9cbe b07e 8abd bc15 813e 6dc3 ac3d
00000030: c34a 4ebe b45b dc3d 9e6f e6bd c5ed dfbe
00000040: 57fe de3e 022e 31be cda2 d63e f66a 8d3e
00000050: 8c87 783d 4c98 c93e 4ab4 a03e 7c88 9b3d
00000060: 579d b1bb 198b c6be 6cdf 35be db5f 813e
00000070: 3503 e1bd d42a 743e 78de 12be 22eb 4a3e
00000080: 0c91 0f3e f82c 09bf 8528 06bd ded3 cebd
00000090: e916 333e c7a5 c33c c01f 813e c29b 043e
000000a0: 9016 723e 1035 8c3d 9b23 263e d8a6 af3e
000000b0: dee3 7c3e 1d42 933e 1f6c c13d 79fb 10bf
000000c0: b0b4 12be 78ee 6a3e b7df 293e d33b b1be
000000d0: b6f3 17be 8a1a 4e3e 1478 a8bd 909e 93be
000000e0: 83d6 d03d 8b30 a73e 43d1 1c3c a5e8 eb3e
000000f0: d245 c63e cee6 9f3e 9d19 e4be 9faa c1be
00000100: ec9f abbe 1c80 c3be 1166 7e3e 8c17 3a3e
00000110: bf37 15bf dcb6 eb3d 8cd3 673e 72e1 5fbe
00000120: 58a8 643d b3e1 29be ac71 bdbd e755 84bd
00000130: b1cc fabb 7d17 a3bd 988b 94be 8e9a 8a3e
00000140: d30e 903e 2ead 36bd a830 883e e8b3 a83e
00000150: 4c09 2a3e 175a 913e 1225 fa3c 24cb c43e
00000160: 38d2 a73c 0e62 9c3e e757 313e 9fa2 823e
00000170: 1934 63ba 782f 9f3d 273c 85be cda5 7a3e
00000180: 78e0 f4be 2f52 be3a fe84 933e 3918 a6be
00000190: 96fb 023f 0d5d 013e dc37 4c3e 9b60 963d
000001a0: 6476 0e3d e958 8e3e 6f34 223e 005c 023e
000001b0: 2e64 b63c fb50 033e 35ea 3c3e 0e18 21bd
000001c0: c9ed cc3d 6ff4 eebd 17ca d9be 66be 9abe
000001d0: 5336 3a3e 420c eb3c f55c dd3d 6f22 a8bd
000001e0: a4b9 41be b506 233e 31bf dcbd cf84 cd3d
000001f0: f37f e3be 5b26 e73d 8c98 283e f7d5 48be
00000200: 7da4 c03e 6823 8b3e 0fcb 21bd 584d 613e
00000210: 0bfa e0bd 2114 ad3d 4ef2 183d 6b9e 593e
00000220: 55c7 ae3b bd5f 823e 26d1 db3d 6ae9 343e
00000230: 9422 413e c438 32bc 24f3 6d3e 1181 c53e
00000240: 77ad 85bb abdc acbc 1cfe 75bd abd9 a2bd
00000250: 3534 a9be 98d5 d93d a4f6 673e 9e11 a13e
00000260: fbb3 24be 8b8a f13d fc2f 213e 5ad7 5f3e
00000270: 9752 10bc fc7e 3e3e 3f92 29be 3002 b33e
00000280: e0fa 2ebe 89e2 113e a962 b13d ff7e 413e
00000290: 7763 373d 62aa b93e 7696 203e 9711 22bd
000002a0: 70c6 95be 3208 6e3e f696 223e cb14 403d
000002b0: 0937 653e 917c 793e 5e7f 243e 7972 183c
000002c0: 6845 143e 90e0 f73d c0f2 a83e b462 efbc
000002d0: 42ac 3abd 6688 ff3d ea00 efbd 349d 683e
000002e0: 9193 91be 8481 09bf 7a83 5ebd 1b2a 943e
000002f0: 688c 62be 808c d9bd 1260 1c3d 7e7c ed3e
00000300: b433 223e 8987 fc3d 728a ad3e 6bdc eb3d
00000310: c202 9fbd 2a25 5ebe 3c08 773e 3f69 d83e
00000320: f4f9 a9bd 5ac6 ff3c b167 3fbc 6a18 3f3e
00000330: 10b7 653e d8e1 013e ec44 463d c06e 98be
00000340: 4b70 7a3e ec84 843e 7e48 8d3e 5d80 a83d
00000350: 0774 a2bd 3f8c 92be 7e84 7f3e bfb1 193e
00000360: c35b 8cbe a7ee 853e d52c e33d 8ed6 96be
00000370: 23a6 ea3c a743 49bd f2c3 f63d 81a7 01be
00000380: ac94 803d 3a7b 8a3e 844c ab3e dd1c 643e
00000390: c2bc 113e 5456 583e a3e4 19be 6144 d8bd
000003a0: 2d8d 90be 0065 cc3e 4d43 853e fd90 1f3e
000003b0: 937c 5a3e 6787 86bc 1835 d13d 4a0f 613e
000003c0: e91f bb3e 50b3 21be a143 803e d920 3dbd
000003d0: 86cb 79bd b1aa b93d 5cd1 c43c faa2 10be
000003e0: 767c a33d a0e4 b33c 477d 503d e60c cc3d
000003f0: 20d7 193b 325c 31bd 7673 003d 4f1e 47bc
-0.065589875 0.17895284 -0.13156256 0.053646304 0.088487044 0.15720648 0.31475595 -0.26330897
-0.305687 -0.06762445 0.25211895 0.08435712 -0.20145707 0.107596785 -0.11251758 -0.4373609
0.4355342 -0.17302707 0.41921082 0.27620667 0.060676143 0.39374006 0.3138755 0.07594392
-0.0054203677 -0.38777998 -0.1776101 0.25268444 -0.1098694 0.23844463 -0.14342678 0.19816259
0.14020175 -0.5358424 -0.032753486 -0.10099004 0.17489208 0.02388276 0.25219536 0.12950042
0.2364142 0.06846058 0.1622452 0.3430698 0.246963 0.28761378 0.094444506 -0.56633717
-0.1432674 0.22942531 0.16589247 -0.34615955 -0.14839062 0.20127311 -0.08226028 -0.2883191
0.10197165 0.32654223 0.009571376 0.4607593 0.38725144 0.31230778 -0.4455079 -0.37825486
-0.33520448 -0.38183677 0.24843623 0.18173045 -0.58288187 0.11509487 0.22639292 -0.21863344
0.055824608 -0.16590004 -0.09250197 -0.06461697 -0.0076537956 -0.079634644 -0.29012752 0.2707104
0.2813631 -0.04459875 0.26599622 0.32949758 0.16605109 0.28389046 0.030535255 0.38436234
0.020485982 0.3054356 0.17318688 0.25514695 -0.0008667126 0.07772726 -0.26022455 0.2447731
-0.47827506 0.0014520342 0.28812402 -0.32440355 0.5116514 0.12633152 0.19943184 0.07342645
0.034780875 0.27802208 0.15840314 0.12730408 0.022264566 0.1282386 0.18448718 -0.03932958
0.100062914 -0.11667716 -0.42536995 -0.30223387 0.18184786 0.028692368 0.10808746 -0.08209693
-0.18918473 0.15920527 -0.10778654 0.10035097 -0.44433555 0.112866126 0.16464442 -0.19612871
0.37625495 0.2717545 -0.039500292 0.2200216 -0.10985192 0.08451105 0.037340455 0.21251838
0.005333821 0.25463668 0.10733251 0.17667165 0.18860847 -0.010877792 0.23237282 0.38575032
-0.0040795165 -0.021101316 -0.06005679 -0.07951673 -0.33047643 0.10636443 0.2265268 0.31458753
-0.16084282 0.11794003 0.15740961 0.21859494 -0.008808753 0.18603128 -0.16559695 0.34962606
-0.17087889 0.14246573 0.08661396 0.18896101 0.04477259 0.36262804 0.15682396 -0.039567556
-0.29252958 0.23245314 0.158779 0.04689483 0.22384275 0.24363925 0.16064212 0.009304636
0.14479601 0.12103379 0.32997704 -0.02922187 -0.045574434 0.12477188 -0.11670096 0.22716218
-0.28432897 -0.5371325 -0.054324605 0.28938374 -0.22123873 -0.106225014 0.038177557 0.46384043
0.15840036 0.12330539 0.33894688 0.11516651 -0.07764198 -0.21693864 0.24124235 0.42267796
-0.08299628 0.031222511 -0.011682437 0.18661657 0.22433114 0.12683809 0.048405573 -0.29771996
0.24456899 0.2588266 0.2759437 0.08227608 -0.07932287 -0.28622624 0.24952886 0.15009211
-0.2741376 0.2615864 0.110925354 -0.29460567 0.028643673 -0.049136784 0.12049092 -0.12661554
0.06278357 0.2704714 0.33456814 0.22276635 0.14232162 0.21126682 -0.15028624 -0.10559917
-0.2823271 0.39920807 0.2602791 0.15582652 0.21336584 -0.016421987 0.10215205 0.21978489
0.36547783 -0.15791059 0.25051597 -0.046173904 -0.06098511 0.0906576 0.024025612 -0.1412467
0.079827234 0.021959603 0.050900724 0.09963398 0.0023474172 -0.043300815 0.031360112 -0.012153222

network_body._body_endoder.seq_layers.2.bias f4 [256]
00000000: caeb 13bf db9c cebe 402e 45be 9be7 87be
00000010: 9816 46bf 559e 27be 9cd7 a3be aac5 d0ba
00000020: c583 d3be 7f32 02bf 10d1 75be 2409 6fbd
00000030: 7320 0bbf b751 00be cd99 9cbe 2ac3 89be
00000040: b6e0 babe 8d27 cfbe 1fa5 5bbe 6200 95be
00000050: 3e42 013e 0937 d8be acda b1be 95c7 e7be
00000060: aa3e 1d3d 1109 17bf 2a2a 67be 55e8 01bf
00000070: 8e8c 1cbe 3389 513e 32b7 bfbe 649b f8bd
00000080: a6d6 b6be d4da 06be e304 27bf db42 e4be
00000090: 113d 67be 0922 18bf 7bf7 72be e61c 3ebd
000000a0: cfe6 e2be 8abe 16bf df8c 10be fc24 24bf
000000b0: 628b 1e3e 40ad d0be bc2f 1ebf 7b4d fdbe
000000c0: 6f5e e1be b691 6fbe f256 abbe 5a28 e1be
000000d0: e712 e3be 5ef5 aebe 89e3 d5bb 4b82 8d3b
000000e0: c02c 79bd f3da 72be be00 7cbe 5831 66bd
000000f0: be50 a93c 5d16 e0be 97f5 c4be 1120 4dbe
00000100: c016 cdbe 5148 cabe c5b8 c1be 18aa 85be
00000110: ecd7 8abe 8b21 03bf df7b 51bc ce0a 65be
00000120: 7210 d5be 3411 00bf 00d2 a2be cc85 a9be
00000130: 336e 1cbf 55af 86be f16a 1fbe 1043 5fbe
00000140: cd90 cabe 4b3c b4be 0eb9 1abe ab3c 12be
00000150: c848 3abe f93d 3cbf 8ed0 95bd 95c1 a7be
00000160: 62e3 99be 4b9d d8be dd9c abbe 2857 28bf
00000170: 7091 2fbe a4dd 8ebe d20a e8be 7844 a4be
00000180: b27b 31bf 8b9e 453f c48f acbd 9fbd 09bf
00000190: 5db1 22bf 289f c9be 9e6d ed3d 9213 c5be
000001a0: 2389 84be a16b c5bd 41a5 cebd 559a 8dbe
000001b0: d2a6 54bf 03a7 0bbe d36c 9ebe b128 e8be
000001c0: e81a d5be b26e 1dbf c4ea f6be f855 a8be
000001d0: 0f50 debd 3114 fabe de57 8cbe 1aa4 ffbe
000001e0: cc80 85be 81a9 f3be 9f04 bbbe 2901 d1be
000001f0: 0eac 39be f31e 9cbe 1ffc 3cbf dae0 d5be
00000200: 9928 f5bd 3867 d8be 6c0f d3be e390 06bf
00000210: 8938 51be 394b 8cbe d53c 80be d628 aabe
00000220: b255 07bf 41fe cd3c cc21 7dbe d935 50be
00000230: 4dbb 0ebd 348f 47be cedb 72bd da41 84be
00000240: 5ca9 0dbf 1bda a3be cad5 b3be d837 22bf
00000250: 45d5 63be 93d2 f9be 1026 eebe 7b7a 9bbe
00000260: 67f8 fdbd 84e5 12bf 32a6 17bf d71f 92be
00000270: 8340 fbbe 7b79 07bf 2e31 8c3d 3dea b0be
00000280: 0280 b2be 661d 65be 70de 09bf 535d 13bf
00000290: e0b0 8ebd 88ce c9be 4370 e5be 8915 c5be
000002a0: 0e79 b3be 9550 4fbf 13da 6dbe dff6 0a3f
000002b0: 02a5 bbbe 2e6b 90be 2c6e c9be c9c2 03be
000002c0: cd95 4bbe 1825 34bd 6428 16bf 7538 ffbe
000002d0: c081 56be 6acc 5bbe f7e9 0abf f0aa 1b3f
000002e0: e74e 8abe 8309 87be 740e afbe 3a57 f3bd
000002f0: 567f e2be 40a6 12bf 4439 a8be 7eab 183f
00000300: 6754 0fbe a2d4 1abf 29ec a3be 281e 9f3d
00000310: e3d2 96be 3ea5 85be 2734 aabe 6c0e 28be
00000320: 2e6f b7bd 9db4 76be fac8 07be 3f20 46bf
00000330: 5442 0fbe 78a6 e2be 21cb 9bbe 2f39 9dbe
00000340: 4421 a4be f1af 97be ad5f c2be bc74 59be
00000350: 59d4 02bf ff3b 2abe de81 553d ea9f 893e
00000360: 6539 85be 83d5 86be 0742 49bd d4b9 50bf
00000370: a7eb bebe 6d79 72be 9415 debe 2097 2cbe
00000380: 45aa 17bf 7645 1d3e 7a14 8abe e5a5 92be
00000390: c647 72bd 2981 b9be fe50 79be 501a d4bd
000003a0: b9b6 40be ed42 3ebe 1ab8 3abf 2c14 09bf
000003b0: 6622 12bd b3a1 8abe b486 25be a3e5 9dbe
000003c0: c660 9abe 60d0 bebe 1e9b a4be fb4a 3ebe
000003d0: 84fa 14be 5e0e d6be 7746 92be 42cb 2bbf
000003e0: b5de 88be fc2f 5dbe f03e bbbe f3bc 2fbe
000003f0: b36d 17bf 3d94 14bf ef8a 00bf 37d6 c1be
-0.5778166 -0.40354046 -0.19255924 -0.26543888 -0.77378225 -0.16368993 -0.32000434 -0.0015928049
-0.4131147 -0.508583 -0.24005532 -0.058358327 -0.5434639 -0.12531172 -0.3058609 -0.2690671
-0.36499566 -0.40459862 -0.21449707 -0.29101855 0.12622926 -0.42229488 -0.34737146 -0.45269457
0.03838984 -0.5899821 -0.22574678 -0.50745136 -0.15287992 0.20462494 -0.37444454 -0.121390134
-0.3571064 -0.13169414 -0.6524183 -0.44582257 -0.22581889 -0.59426934 -0.23727219 -0.04641428
-0.44316718 -0.5888449 -0.14116238 -0.64118934 0.15482858 -0.4075718 -0.61791587 -0.49473175
-0.4401736 -0.23395428 -0.33464772 -0.43976098 -0.4435036 -0.34171575 -0.0065273684 0.0043185106
-0.060833693 -0.23716335 -0.24609658 -0.0561994 0.020668384 -0.43767062 -0.3846862 -0.20031764
-0.4005642 -0.39508298 -0.3783628 -0.26106334 -0.2711786 -0.5122306 -0.012785881 -0.22367403
-0.4161411 -0.5002625 -0.31800842 -0.3310989 -0.6110565 -0.26305643 -0.15568139 -0.21802926
-0.395636 -0.3520225 -0.15109655 -0.14280955 -0.18191826 -0.7353206 -0.07315169 -0.3276488
-0.30056292 -0.42307505 -0.33518115 -0.6575799 -0.17145324 -0.27903473 -0.45320755 -0.32083488
-0.6932937 0.7719504 -0.084258586 -0.53804964 -0.63551885 -0.3937924 0.115931734 -0.38491493
-0.25885877 -0.09639669 -0.100901134 -0.27656808 -0.8306705 -0.13637929 -0.309424 -0.45343545
-0.4162209 -0.6149703 -0.48225987 -0.3287809 -0.10855114 -0.4884353 -0.27410787 -0.49929887
-0.26074827 -0.4759026 -0.36526963 -0.40821198 -0.1813204 -0.30492362 -0.73822206 -0.4177311
-0.11970634 -0.4226625 -0.41222703 -0.5256483 -0.20431723 -0.2740114 -0.2504641 -0.3323428
-0.52865136 0.025145652 -0.24719924 -0.20333041 -0.034846593 -0.19488221 -0.059291653 -0.2583149
-0.55336547 -0.3200234 -0.35124046 -0.6336646 -0.22249325 -0.48793468 -0.46513414 -0.30366883
-0.124008946 -0.57381463 -0.5923797 -0.28539917 -0.49072656 -0.5291974 0.06845318 -0.3455371
-0.34863287 -0.22374496 -0.5385504 -0.57564276 -0.0696733 -0.39415383 -0.4481221 -0.38492993
-0.35053295 -0.80982333 -0.2322772 0.54282945 -0.36649328 -0.28206772 -0.39341867 -0.12867273
-0.19881363 -0.043980688 -0.5865538 -0.4984776 -0.20947933 -0.21464697 -0.5426325 0.60807705
-0.27013323 -0.26374444 -0.34190714 -0.118818715 -0.44237775 -0.5728493 -0.3285619 0.59636676
-0.1399704 -0.604807 -0.32016113 0.07769424 -0.2945777 -0.26102632 -0.33242914 -0.16411752
-0.08956753 -0.24092336 -0.1326026 -0.77392954 -0.13990146 -0.4426763 -0.30428413 -0.3070769
-0.3205663 -0.2962642 -0.3796362 -0.21235937 -0.51105267 -0.16624449 0.052125804 0.26879817
-0.2602035 -0.26334772 -0.049135234 -0.8153355 -0.37289163 -0.23679133 -0.43375838 -0.16854525
-0.59244186 0.15358528 -0.26968747 -0.28642192 -0.05915048 -0.36231354 -0.24347302 -0.10356581
-0.18819703 -0.18580218 -0.72937167 -0.53546405 -0.035677336 -0.27076492 -0.16164666 -0.3083926
-0.30151957 -0.37268353 -0.32149595 -0.1858329 -0.14548689 -0.41807836 -0.28569385 -0.6710702
-0.26732412 -0.21600336 -0.36571455 -0.17161922 -0.5915176 -0.58038694 -0.50211996 -0.37858745

network_body._body_endoder.seq_layers.4.weight f4 [256, 256]
00000000: d7a1 0f3e bd5a 0ebe d120 9f3e 9193 ce3e
00000010: 53c4 1a3e 88c0 863d 7b6f 973e ab19 3c3d
00000020: 554e 733e 84b4 ce3d 1455 3f3e 0a46 cd3e
00000030: 59ad cfbd 89cf dbbe af56 0a3e ce14 3ebe
00000040: eab0 8d3e cb4b 8d3e 692d 9e3e d7a5 7e3d
00000050: 9743 a3be 9cd1 d53e 3989 593e 399f 35bc
00000060: f5dd 0c3e c27d 663e 984a bb3e 699a 7b3e
00000070: 7aad 773d c8fd 6cbe d07b ba3e 6b42 f03d
00000080: afb4 febd e4dc 503e b5a1 5e3e c7ef 043d
00000090: 9da2 7a3e b5bb f33d 16c8 713e b085 90bd
000000a0: 4a3e b83e 113b 073e 6a18 583e 441c 483e
000000b0: df39 22be 380c 9c3e a76a 873e 951b 5d3e
000000c0: 38ae 1bbe dc1c 453d 093b 053e 1258 ce3d
000000d0: e7e1 2f3e 9b70 373e b5ea cfbd b28e 0abd
000000e0: 1a99 3d3e d76b bc3e 88d5 a83d 0c9c 933e
000000f0: b2a0 87be 9256 0c3e 4a09 ed3e 78cd 913e
00000100: f6ac a83e 7cb0 d73e 81fd 973e 0cb5 833e
00000110: a43f 6f3d 28e8 a03e b782 dfbd 0c70 d33d
00000120: 737e 13bc 8672 4c3e f40a 2f3e e98c b23e
00000130: 1eb5 af3e 95c6 9e3e 9779 173e 87eb a93e
00000140: da76 223e 2e90 3a3c 2b94 8c3e 80a0 0a3f
00000150: 77c7 a6bc 2813 96bc b69b c3bd 3057 aa3e
00000160: 3d89 b93e b668 953e b1c0 893e 3b42 39bd
00000170: 3622 ae3e 76f1 d83d a884 453d a7cb cc3e
00000180: cc04 913c 1558 04bf 1724 d23e 493a 393e
00000190: 0f7e 103e b22e 893e 5e91 73be 57a7 b93d
000001a0: 1662 1f3e e3e5 d53e 3e0a 03be 0d6c 103e
000001b0: 4c1c a03d d6ab 683e c959 5bbd c0c5 983e
000001c0: 0955 5ebd 34ee 603e 9750 d33d 2033 dc3e
000001d0: 1b3e 85be 06c5 fc3d 11df 4e3e 8ea1 35be
000001e0: f361 543b a6e9 8c3e b870 683e 40a5 a63e
000001f0: e3ea c43e ab55 ae3e a994 a13d 5e9c c43e
00000200: 4ec9 193e 943f b53e 7fa0 5f3e 9104 2d3e
00000210: bcce 883e 21d3 8c3e 24b6 4b3d da38 033e
00000220: ae92 4a3e 54a8 68be 8176 943e ff79 b63e
00000230: 5778 273e 30fe b93e 0d00 3bbd 281e cd3d
00000240: 0919 98bd e1b2 4e3e a466 bfbc 1734 1b3e
00000250: c53d 963d 22a0 7a3e 357b 4a3e 54e7 973e
00000260: ab37 503e 580e 4dbe b1e1 a23e f00d 733e
00000270: 18ce 993d 5c04 0f3e 5ec8 a7be 8d61 bd3e
00000280: 3fb3 943e f1d5 c63d 9b89 343e e958 733d
00000290: 174f 843e f0c9 d53e 8757 b43e d5e8 713e
000002a0: 1a20 873e 8f0e 6c3d 65ee 353d 187c eebe
000002b0: 2885 9b3e 8633 443e a8f9 ed3d 5f63 1b3c
000002c0: 4da3 9d3e 7275 14be a72e 773c ca04 8b3e
000002d0: 8e4d 7b3e 0f96 023c 95b5 433d fa88 f1be
000002e0: 54d5 cb3e f48c 333e 018f 21be d745 513e
000002f0: 668d 0d3e 5ead 2cbe c042 653e 4caf dcbe
00000300: 2fac 0b3d 8c4e bdbd 95be 88bc 99e1 c1bd
00000310: adf4 803e 81d2 383e 1a78 923e db7a 943e
00000320: 19af 1d3e f156 dbbb ef7a ce3c e1ef 13be
00000330: 9813 853e 3886 2d3e 7c7e c83e 49e2 4c3e
00000340: 555d 513e aa4b dd3d 9005 0a3c da83 113e
00000350: 2342 993d 98ec a03e 9877 8dbe 3cfa 82be
00000360: b457 ae3e 955d a23e 42c7 cf3e 7757 c73e
00000370: 27f9 a2bd efb5 b73e 3833 bdbd ea75 603e
00000380: 30a9 4d3e 89ca cdbe f9f6 eb3d 223d 8d3d
00000390: 85f7 16be 7f22 2f3e 4b48 a73e ce70 b4be
000003a0: c90c 2e3e 9ad5 a13e 7fd7 5d3e 70b3 963e
000003b0: 4f09 3abc 9a91 4f3e 7d31 933e 0fdf e03e
000003c0: 7602 d33c 00be 2d3e 80ec 193e e4ff ca3e
000003d0: 0a53 a63e 37e7 243e 7233 ae3e 7e41 d93e
000003e0: 84b5 823e d4b5 373e 58c1 643e 2494 df3d
000003f0: 0b87 82bc 0ec9 553e 818c 383c 8aad 973c
0.14026581 -0.13901801 0.31079724 0.4034696 0.15113954 0.06579691 0.2957724 0.045922916
0.2376035 0.100930244 0.18684798 0.40092498 -0.10140485 -0.42931774 0.1350963 -0.18562624
0.27674037 0.27596888 0.3089402 0.062169876 -0.31887504 0.41761482 0.21243753 -0.011085325
0.13756545 0.2250891 0.36580348 0.24570622 0.060468175 -0.23143685 0.36422586 0.11731418
-0.124368064 0.20396763 0.21741374 0.032455232 0.24476095 0.11901037 0.23611483 -0.07056749
0.35985023 0.13206126 0.21103063 0.19542032 -0.15842389 0.30478072 0.26448557 0.21592553
-0.15203178 0.048123226 0.13010801 0.10075392 0.17176019 0.1791405 -0.10152189 -0.03382749
0.18515435 0.36801025 0.08243853 0.28829992 -0.26489788 0.13704899 0.4629615 0.28477073
0.3294446 0.42126834 0.29685596 0.25724065 0.0584103 0.3142712 -0.10913604 0.103241056
-0.009002316 0.19965562 0.17094022 0.3487313 0.3431787 0.3101088 0.14792477 0.33187506
0.15865651 0.011386914 0.27456793 0.54151154 -0.020358784 -0.018319681 -0.09551184 0.33269644
0.36237517 0.2918145 0.26904824 -0.045229178 0.34010476 0.1059293 0.048222214 0.39999124
0.017702483 -0.516969 0.4104316 0.1808864 0.14110588 0.26793438 -0.23785922 0.09065121
0.1556476 0.41776952 -0.12796876 0.14103718 0.07817897 0.227218 -0.053552423 0.2983837
-0.054280315 0.21965867 0.10318106 0.43007755 -0.26023945 0.12342267 0.2020228 -0.1773741
0.0032407015 0.2752201 0.22699249 0.3254795 0.38460454 0.34049734 0.07889683 0.3840055
0.15018198 0.3540007 0.21838568 0.16896273 0.26720226 0.2750483 0.04973425 0.12814656
0.19782516 -0.22720462 0.2899666 0.3563995 0.163545 0.36326742 -0.045654345 0.100155175
-0.0742665 0.20185424 -0.023364373 0.1515659 0.07336 0.24475148 0.19773562 0.29668677
0.20333736 -0.20025003 0.31812814 0.23735785 0.075100124 0.13966507 -0.32770056 0.36988488
0.29043004 0.09708775 0.17630617 0.059410963 0.2584159 0.4175563 0.35223028 0.23623975
0.2639168 0.05763107 0.044416804 -0.4657905 0.30375028 0.1916028 0.11619884 0.009484141
0.3078865 -0.14497927 0.015086806 0.2715209 0.24541304 0.007970347 0.047780592 -0.47174817
0.39811194 0.17534238 -0.15777208 0.20436798 0.1382347 -0.1686301 0.22388744 -0.4310249
0.034099754 -0.09243497 -0.01669244 -0.094668575 0.25186673 0.18049051 0.28607255 0.2899998
0.15398826 -0.006693714 0.025205104 -0.14446975 0.2599151 0.16945732 0.39159 0.20008196
0.2044576 0.108054474 0.008424178 0.14210454 0.07483318 0.31430507 -0.27630305 -0.2558154
0.34051287 0.31712022 0.4058171 0.38933918 -0.07957678 0.35880992 -0.09238285 0.2191998
0.20084071 -0.40193585 0.11521716 0.06896426 -0.14742859 0.17103003 0.32672343 -0.35242313
0.16997065 0.31608278 0.21664236 0.29433775 -0.011354758 0.20270386 0.28748694 0.4392018
0.02575801 0.1696701 0.15031624 0.39648354 0.3248523 0.16103826 0.34023625 0.4243278
0.2552911 0.17940456 0.2233938 0.109169275 -0.015933534 0.20877478 0.0112639675 0.018515367

network_body._body_endoder.seq_layers.4.bias f4 [256]
00000000: c14b fbbe 4b18 0abf a611 dcbe 3a2c 77be
00000010: 0917 c1be 1b97 1abe 61c7 e9be 156c a8bc
00000020: 0fd3 98be 67b8 fdbe 3ded b6be f851 02bf
00000030: 1625 53be 5c9c 77be 7504 aebe 3594 cabe
00000040: 2607 59be 12ef 60be 7543 6abe 80ae 6ebe
00000050: 1045 1a3c fd35 85be 80d8 f4be c78d 51be
00000060: 313d 15be 1b7c bebe cf56 6dbe c858 1abe
00000070: 9165 64be 6448 e5be b45e aebe 6fbf 1bbe
00000080: f8df 73be 4ec4 69be ea75 bfbd 994b 6ebe
00000090: fa64 06be c8d6 81be 4889 4ebe f3b7 1cbe
000000a0: 116a 0cbe 8d62 97be d0aa 39be c0c0 f1be
000000b0: 7b84 cfbe 520d d0bd 7986 9ebe 9ab3 e4bd
000000c0: 5499 f4bd e3dd d1be fe88 82be 09c5 14be
000000d0: 4c38 99be ce1a 83be 170e 74be 0c97 16be
000000e0: f73f ecbe db2e c4be 3b29 15be 0eb3 a4bd
000000f0: bd22 73be 8801 00be 63d4 56be 0ff9 86be
00000100: ea20 e2be 63ea afbe d8ba 3ebe e8fb 30be
00000110: 8182 a7bd f2e0 b1be eb86 e3be ad1a d2be
00000120: 3284 cdbe b5ae 1abe dcc2 33be ed1d ddbe
00000130: 7ff1 babe 20ad 49be a9e8 54be 461e 31be
00000140: 1dcd e7be 0f30 06be 18c8 a5be 15e2 1cbd
00000150: db54 e7be 1bf7 98be f7d7 49bd 3aef 6fbe
00000160: 9e07 04bf d792 13be 3bc8 d1be 25e9 42be
00000170: ee99 e5be b3d7 5ebe f2a1 05bf f72c b4be
00000180: acd4 32be d373 0abf 326a eabd f13b 1dbe
00000190: bb8e f1be 4c11 04bf c6ce b2be ecdc 9bbe
000001a0: 0688 e1be b057 70be eacc 4abe a99e c2be
000001b0: 9b23 65be c083 89be 7cba d9bd 069e 01be
000001c0: a4fc bbbe 8d32 33bd 79b7 debe 9bf3 f2bc
000001d0: 02c7 b5bd 8def afbd 80e0 b6be 0199 53be
000001e0: fd1b 41be d830 24be fbdf 1ebe 0ea3 cfbb
000001f0: cc0c 51be 1a0a e2be 64d0 923c 4af7 1cbe
00000200: fe2b 9ebe 3a52 03bf 8295 92be c57c 13be
00000210: 4992 eabe ddf5 d3be 52cb 17be 3eaf 8ebe
00000220: 6d64 b2bc 9ef4 36be bf1a b5be 91dc b5be
00000230: ec7e e6be 9d7f fcbd 59e4 43be 469f cabe
00000240: 43a7 51be 1bb5 c2be 294c 0bbe e1d7 d1be
00000250: db89 f5be 6396 81be 82e4 e7be 3401 9fbe
00000260: 157d 43be 38bb a9be 337a 91be 7d93 66be
00000270: 5c97 3e3d 0e46 3ebe 8000 d0be 395d dcbd
00000280: a0a1 abbe 6507 88be 1235 a5be da44 613b
00000290: 326c abbe 6351 20be 99ed 57bd 6593 32be
000002a0: 7df0 b2be db67 66be 4ce5 c1bd 29ef 84bd
000002b0: 6a19 5ebe a1e0 98be 08e1 3b3d 6208 84be
000002c0: e3fc 20bc b96f 6bbe 442a 80be f984 a3be
000002d0: 1f13 8ebd b2a1 0ebe 58cb c9be 8ab6 7cbe
000002e0: 5318 03bf 2e94 bebe a10d 16be 0a90 c0be
000002f0: 08e3 c8be a498 d9be d08f d2be 1156 f7be
00000300: 864c b7be db59 7dbe 60e8 30be e606 bcbc
00000310: ea8d 34bd 07f7 c0be 6fa3 b8be af8f c6be
00000320: 83c5 1dbe 0bf1 20be fbf4 c5bd dcf7 9ebe
00000330: 7c4d 57be bf90 edbe bcbd 0ebe 306b 36be
00000340: e0ed 90be fe1d 18be 1b55 8fbe 5fca 0abe
00000350: dc70 0bbe a5a4 05bf b77f a7bd 0c4e 83bd
00000360: 69f9 fdbd 45f6 25be f6e5 2dbe 634b 40be
00000370: 8361 c1be 62aa 61be 77ae 76be a455 b2be
00000380: 00a5 c5be ca65 d8be 645b 4dbe ca55 cebd
00000390: 3f9e bcbd 8bf3 80be 073d 05be 074b 71be
000003a0: 3b11 aebe 8b31 e5be 1c51 5abe f9b5 bbbe
000003b0: 108d b2be d22d 3ebe 8d09 16be 948b dfbe
000003c0: d734 1bbe 3138 97be 084a 66be b9a9 c6be
000003d0: 5077 1bbe ce6a 0ebe 3d31 c0be 024a 01bf
000003e0: 1841 99be c6b0 4cbe 77d8 aebe ae5c f2bd
000003f0: 63cf 98be c771 9bbe e26c 73bd 4475 71be
-0.49081233 -0.5394332 -0.42982215 -0.24137965 -0.37712887 -0.15096705 -0.45659927 -0.02055935
-0.29848525 -0.4955475 -0.35727873 -0.50906324 -0.20619616 -0.2418074 -0.33987775 -0.39566198
-0.21194133 -0.21966198 -0.22877295 -0.23308754 0.00941588 -0.26017752 -0.47821426 -0.2046424
-0.14574124 -0.3720406 -0.23177646 -0.1507293 -0.2230437 -0.44781792 -0.34056628 -0.15209745
-0.23815906 -0.2282879 -0.09348662 -0.23271026 -0.13124457 -0.25359178 -0.20169556 -0.15304546
-0.13712336 -0.29567376 -0.18131566 -0.4721737 -0.40530762 -0.10158791 -0.3096197 -0.11167069
-0.119433075 -0.409896 -0.25495142 -0.14528288 -0.29925764 -0.25606388 -0.238335 -0.14706057
-0.4614255 -0.38316998 -0.1456651 -0.080419645 -0.2374372 -0.12500584 -0.20979457 -0.26361892
-0.44165736 -0.3435851 -0.18625963 -0.17283595 -0.081791885 -0.34741932 -0.44438872 -0.41035977
-0.4013992 -0.15105708 -0.17554802 -0.43186894 -0.36512372 -0.19694948 -0.20791878 -0.17296705
-0.45273677 -0.1310427 -0.32379222 -0.038301546 -0.45181927 -0.29876027 -0.049278226 -0.23431101
-0.5157412 -0.14411484 -0.40973076 -0.1903425 -0.44844002 -0.2176197 -0.52200234 -0.35190555
-0.1746394 -0.54082984 -0.114460364 -0.15354897 -0.47179207 -0.5158889 -0.3492338 -0.30441988
-0.4404909 -0.2347095 -0.19804731 -0.38011673 -0.22376864 -0.2685833 -0.10631272 -0.12657937
-0.36716187 -0.04374938 -0.43499354 -0.029657176 -0.08875848 -0.085906126 -0.35718155 -0.20663835
-0.18858333 -0.16034257 -0.1551513 -0.0063365763 -0.20415038 -0.44148332 0.017921634 -0.15328708
-0.30892938 -0.5129734 -0.2862969 -0.14403065 -0.45814732 -0.41398516 -0.14823654 -0.27868074
-0.021776402 -0.17866752 -0.35371968 -0.3551984 -0.4501871 -0.12329028 -0.19130076 -0.3957464
-0.20473962 -0.38028798 -0.13603272 -0.40985015 -0.47956738 -0.25310048 -0.45291525 -0.31055605
-0.19090684 -0.3315065 -0.28413543 -0.225172 0.046531066 -0.18581411 -0.4062538 -0.10759968
-0.33521748 -0.26568142 -0.32267052 0.0034373314 -0.33480984 -0.15656047 -0.052716825 -0.17439039
-0.34949103 -0.22500555 -0.09467563 -0.06490929 -0.21689382 -0.29858878 0.045868903 -0.25787646
-0.009825918 -0.22991838 -0.25032246 -0.31937388 -0.06937241 -0.1392887 -0.3941295 -0.24679008
-0.5120899 -0.37222427 -0.14653637 -0.37609893 -0.3923571 -0.42499268 -0.41125345 -0.4830785
-0.3580057 -0.24741308 -0.17276144 -0.022952508 -0.044080652 -0.37688467 -0.3606219 -0.38781497
-0.15407376 -0.1571695 -0.09665867 -0.31048477 -0.21025652 -0.46399495 -0.13939565 -0.17814326
-0.28306484 -0.14855191 -0.27994618 -0.13553761 -0.13617271 -0.5220435 -0.081786565 -0.06411371
-0.12401087 -0.16207226 -0.16982254 -0.18778758 -0.37769708 -0.22037652 -0.2408999 -0.34830964
-0.38602448 -0.4226516 -0.20054394 -0.10074957 -0.092098705 -0.2518581 -0.13011561 -0.23563777
-0.3399752 -0.4476436 -0.21320003 -0.36662272 -0.34873247 -0.18572167 -0.14652081 -0.43661177
-0.15156876 -0.29535058 -0.22489178 -0.38801363 -0.15182233 -0.1390793 -0.37537566 -0.5050355
-0.29932475 -0.19989309 -0.34149525 -0.118340835 -0.29845724 -0.30360243 -0.05943001 -0.2357989

action_model._discrete_distribution.branches.0.weight f4 [4, 256]
00000000: 81f3 793d 59e9 37bd 28e0 45be b199 aabd
00000010: c047 df3c 24d0 abbd 092b 913c dfb1 0d3d
00000020: fee6 9abd c462 9b3d 3873 88be fe0f 893c
00000030: e8b2 e53d c401 8c3e f895 77bb dba1 6cbd
00000040: aa78 33be b3d4 5e3c a3e9 9d3d cde4 0d3f
00000050: 6297 9f3d bdad 31be a159 1c3d 8155 b43d
00000060: 99db 04bd f085 d0bd 92a6 9cbd 37cb b13d
00000070: 0056 6fbe 3d08 65be e402 af3d 4f17 c53c
00000080: 2b5a a2bc 9db4 553d 92b0 883d c436 c23d
00000090: 9fe2 ffbd 5c19 5abc 5d89 77bd dbf9 f1bb
000000a0: 4f7a 893d d58c fe3c ce16 943c 7aa8 3dbe
000000b0: 27ed 98be 6533 2d3e c8fa 5fbe 91f2 b83b
000000c0: 828d b43c e547 19be cdb6 983c 6cbf d9bd
000000d0: bf87 c73d a742 113e e580 dabd 3584 823e
000000e0: 5c9f 3b3c ece5 97be e04d 46bd fbeb de3d
000000f0: ea61 18be 9534 0f3e d4ab 4a3e ab1f 5c3c
00000100: 0f3c 6bbe fb2c 083d f37b 513e a385 943e
00000110: 6ca5 8a3d 491f ed3d eed6 1a3c 2b33 4abe
00000120: 7230 6dbe 47d7 95be 5aee 9b3e 3769 16be
00000130: 18d1 8d3d 5ae0 45be 0ee0 813e 538a adbe
00000140: 3a73 023d b85b 84be 7f86 d4bc 0dd1 4a3e
00000150: 21ce f8bc 2e05 29bd 8b54 57be da03 4cbe
00000160: 0f60 be3d fd24 f03d 870d 22be d8f6 2c3e
00000170: 60c7 b9bd d260 55be fbd2 a43d 9d07 3a3d
00000180: cede de3e dc9f b7bd ce68 9f3d dac8 d43d
00000190: 5ab7 25bd 1014 2d3d 4c16 f8bd 4585 a2bd
000001a0: b6ed aa3d 6e4c 5e3e 520f 933e a3b4 b43c
000001b0: c0dc bf3c a652 76be 1473 8dbe 0f53 1cbd
000001c0: f3cb febd 7b5e d33d 2b90 a6bd 7244 a63e
000001d0: f163 f03d c17a 8f3d b2cb a93d 909e 0c3e
000001e0: 0d08 673d 1a0f a03c 033d acbd 349f 243e
000001f0: 237f dd3d f194 69be f1ce c63e bfab 583e
00000200: c46f 5fbe 47e7 783c 3ae9 7a3e 0d57 b2bd
00000210: f78a 99bd 1499 b4bd 2831 cdbd 2ed0 abbe
00000220: 9408 bfbd 0405 c93d c37f 9abd 20c3 97be
00000230: 1d83 f0bd f633 e53d 5f4d c1bd 4535 75bd
00000240: 0b86 debd b23d 56be 6a3f b8bd 6ea3 993d
00000250: 8011 75bc b997 11be fdde 4fbd 27ba 113d
00000260: 5397 463d aba1 3abe c550 933e 1e84 483d
00000270: 15a5 d53d cc1f 103d f11a 08be e400 d53d
00000280: a22d 0bbe bf83 223e 5a7e 04be 7fb3 623d
00000290: 1251 aa3c 3444 6d3e 5eab a63e 566c fbbe
000002a0: 323d 6dbb a800 efbd 9fcd 113e 4537 c63d
000002b0: d477 d6bd 2c2b b33d 8798 81bd 516a eabd
000002c0: bdc7 d03c c852 4cbd c209 babd 047c 00be
000002d0: 5e88 bfbe bd8b 2abc 658b c63c d869 06be
000002e0: 6eb8 30bc 071b fd3d d313 d2bc 6ca6 d6bd
000002f0: b000 98bc 7925 11be 938c 273d d50a 44bd
00000300: 8d5c 64ba 4e92 16bc e89e 2fbc 0dc9 1abe
00000310: 26e3 523e de1b 63bd ac83 7c3c b035 00be
00000320: 02f5 b43e d164 96be dc36 233c 4993 cb3c
00000330: be63 07be 259c 39be 7cff bc3d c8c4 92bd
00000340: 1401 4e3e f3fe 2d3e 2e32 7b3c 8d7e 7d3d
00000350: 7f0d b53b dc54 2dbe 06e5 aebb da98 333e
00000360: e601 22be 803d b0bc 4156 cd3d 62af df3d
00000370: bd21 2b3e bac8 31bd ac75 993e 41ee 22bd
00000380: 1ff7 59be 30d0 3fbe 9888 103e cd15 09be
00000390: 4970 43ba 6bcd 2abe 40d4 373e 3e13 103e
000003a0: 1601 e8bd 8283 e5bd a4b1 eb3d c5c2 06be
000003b0: d47e a8bb 985e b23d 9543 15bf f2f8 d4bd
000003c0: 8617 94bd 7117 003b d3d4 893d 131b 88bd
000003d0: f9c3 c5bd 9dd5 9e3c d183 62be d0f0 a0bd
000003e0: 096c d3bd 000e 37be 50d6 1dbe 0a2b 743c
000003f0: 488e 77be 938b 1e3e fb90 803e a39e 3a3c
0.06102324 -0.044900272 -0.1932379 -0.083300956 0.027255893 -0.08389309 0.017720716 0.03459346
-0.075635895 0.075871974 -0.26650405 0.016731258 0.11215764 0.27345097 -0.0037778597 -0.057771545
-0.17526498 0.013600516 0.07710578 0.5542725 0.07792546 -0.17351432 0.038171414 0.08805371
-0.032435987 -0.101817966 -0.07648958 0.08681338 -0.2337265 -0.22366424 0.08545473 0.024058966
-0.019818386 0.0521742 0.06674303 0.09483102 -0.124943964 -0.01331171 -0.060433734 -0.0073845214
0.06712782 0.031073013 0.01807728 -0.185213 -0.29868433 0.16914137 -0.21873009 0.0056441505
0.022040132 -0.14968832 0.018641854 -0.10632214 0.097426884 0.14185582 -0.10669116 0.2549149
0.011451568 -0.29667604 -0.04841411 0.108848535 -0.14881101 0.13984902 0.1979211 0.013435285
-0.2297213 0.03324602 0.20457439 0.29008207 0.06769833 0.11578233 0.009450657 -0.19746082
-0.23163012 -0.29265806 0.30455285 -0.14688574 0.06924647 -0.19323865 0.25366253 -0.33894596
0.03184817 -0.25851226 -0.025943039 0.19806309 -0.030371727 -0.041264705 -0.21028344 -0.19923344
0.092956655 0.11725805 -0.15825473 0.16891038 -0.09071231 -0.20837715 0.08048054 0.045417417
0.4352936 -0.08966038 0.07783662 0.10389872 -0.04045806 0.04225546 -0.12113628 -0.079355754
0.08346121 0.21708843 0.28722626 0.02205879 0.023420691 -0.24054965 -0.2762686 -0.03816515
-0.12441244 0.10320755 -0.081329666 0.32474095 0.11737812 0.07005835 0.08290805 0.13732362
0.056404162 0.019538451 -0.084100746 0.16076356 0.10815265 -0.22810723 0.3882976 0.21159266
-0.21819979 0.01519186 0.24503031 -0.0870801 -0.074972086 -0.0881826 -0.100191414 -0.33557266
-0.09327808 0.0981541 -0.075439 -0.29641056 -0.11743758 0.111915514 -0.094385855 -0.059865255
-0.108654104 -0.20921972 -0.0899647 0.07501875 -0.014957786 -0.14218034 -0.050749768 0.03557792
0.048484158 -0.18225734 0.2877256 0.04895412 0.104318775 0.035186574 -0.13291527 0.104005605
-0.13591626 0.1587057 -0.12938824 0.055346962 0.02079061 0.23170549 0.32552618 -0.4910609
-0.0036199805 -0.11670047 0.14238594 0.096785106 -0.10472074 0.08748469 -0.063279204 -0.114460595
0.025485868 -0.049883634 -0.090838924 -0.12547308 -0.37408727 -0.010409293 0.02423639 -0.13126314
-0.010786159 0.12358671 -0.025644219 -0.10480961 -0.018555015 -0.14174451 0.040905546 -0.047861893
-0.0008711301 -0.009190155 -0.010719039 -0.15115757 0.20594463 -0.055446498 0.015412252 -0.1252048
0.35343176 -0.29373792 0.00996181 0.024850504 -0.13221642 -0.1812597 0.09228417 -0.07166439
0.20117599 0.16991787 0.015331788 0.061888266 0.0055252905 -0.16926903 -0.0053373603 0.17538777
-0.15821037 -0.0215137 0.10026217 0.109221235 0.16712089 -0.04340432 0.2997259 -0.039777998
-0.21285675 -0.18731761 0.14114606 -0.13387223 -0.00074553915 -0.16679923 0.1795206 0.1406984
-0.11328332 -0.11206724 0.11508492 -0.13160236 -0.005142072 0.087094486 -0.58306247 -0.10399045
-0.07231049 0.0019545222 0.06730046 -0.06645789 -0.096565194 0.019388968 -0.22120596 -0.07858431
-0.103233404 -0.17876434 -0.15413785 0.014902839 -0.2417537 0.15482931 0.2511061 0.011390361

action_model._discrete_distribution.branches.0.bias f4 [4]
00000000: 5425 423f 3be1 58bf 132d 52bf 3454 2e3f
0.7583821 -0.84718674 -0.8210003 0.68097234
