Usable_Data/Versuch_3-2.2/PKWParking/PKWParking-15999923.onnx (onnx, 733191 bytes, 17 tensors)

discrete_act_size_vector f4 [1, 2]
000000 00 00 80 40 00 00 40 40
       4.0 3.0

network_body.observation_encoder.processors.0.normalizer.running_mean f4 [35]
000000 a4 b3 1f 3d 00 00 00 00 43 6b 5b 3c 1c 90 72 3f
       0.038989678 0.0 0.013392272 0.94751143
000010 3b c3 7a 3f fd ee 4e 3e 00 00 00 00 0b 4b 19 3c
       0.9795415 0.20208354 0.0 0.009356271
000020 04 d2 49 3f 0c f1 64 3f 34 42 1d 3e f2 c5 a7 34
       0.78836083 0.8943031 0.15357286 3.1250198e-07
000030 51 98 01 3c 4c a0 56 3f 34 a4 71 3f 7f 6b 97 3e
       0.00790985 0.83838344 0.9439118 0.295742
000040 00 00 00 00 cd ab 1e 3c 3d c7 31 3f c5 96 4e 3f
       0.0 0.009684515 0.6944464 0.80698806
000050 d5 54 99 3e 00 00 00 00 3b c1 0f 3c c8 f2 30 3f
       0.29947534 0.0 0.008774097 0.69120455
000060 f6 1d 5c 3f 97 2a b3 3e 00 00 00 00 95 c9 10 3c
       0.85983217 0.3499343 0.0 0.008837123
000070 a5 18 24 3f 49 33 48 3f 55 61 94 3e 00 00 00 00
       0.64100105 0.78203255 0.28980508 0.0
000080 a6 65 35 3c 5a cd 32 3f 79 01 59 3f
       0.011071598 0.6984459 0.8476787

network_body.observation_encoder.processors.1.normalizer.running_mean f4 [135]
000000 86 d7 fb 3a b8 23 b9 3d 15 db d3 3c ed e6 5f 3f
       0.0019214011 0.09040016 0.025861302 0.8746174
000010 5f 21 78 3f af e3 78 3a c4 3e 33 3f 0b d5 a1 3c
       0.9692592 0.0009494377 0.7001765 0.019754907
000020 2c df 8c 3e 9f f9 20 3f 69 91 ee 3a ab 6a 89 3e
       0.27514017 0.6288089 0.0018201295 0.26839194
000030 2b 82 8e 3c 2c 4b 35 3f 2b 79 6d 3f 9d f0 df 39
       0.017396053 0.7081783 0.9276301 0.00042713145
000040 e0 84 5c 3f 85 05 12 3c 23 59 fe 3d 39 9e e6 3e
       0.8614025 0.008912449 0.12419345 0.4504259
000050 f8 13 6d 3a a3 6b 46 3f 23 bb e8 3b 24 81 57 3e
       0.0009043808 0.7750799 0.0071023866 0.21045357
000060 0a 82 59 3f c2 03 b1 39 40 4f 5a 3f 28 1d 03 3b
       0.8496405 0.0003376287 0.85277176 0.0020006392
000070 a4 6b 11 3e 04 9a f2 3e e7 97 a6 38 ad 9d 6a 3e
       0.14201218 0.4738313 7.943791e-05 0.22911711
000080 4a 42 1b 3b 4e 83 43 3f ed c3 77 3f f4 c5 27 38
       0.0023690634 0.7637223 0.96783334 4.000026e-05
000090 25 a7 13 3f 2c 62 04 38 6e 3e d8 3e 71 69 59 3f
       0.5767692 3.1562682e-05 0.4223513 0.84926516
0000a0 f8 d4 e9 37 5f d4 13 3d 97 d9 13 38 54 6e 76 3f
       2.7874936e-05 0.036091205 3.5250177e-05 0.962621
0000b0 0b ea 7d 3f ea 07 fc 3a 0a 35 b9 3d 3e 08 d4 3c
       0.99185246 0.0019228433 0.090433195 0.025882836
0000c0 b8 f9 5f 3f 85 36 78 3f 68 1a 79 3a b1 45 33 3f
       0.87490416 0.9695819 0.0009502531 0.70028216
0000d0 77 f7 a1 3c 1f fa 8c 3e 6d 0b 21 3f 79 bf ee 3a
       0.01977132 0.27534577 0.6290806 0.0018215022
0000e0 1c 74 89 3e fe 9f 8e 3c 0e 5b 35 3f 25 8d 6d 3f
       0.26846397 0.017410275 0.70842063 0.92793494
0000f0 d5 3b e0 39 7c 8e 5c 3f 8a 25 12 3c 56 b2 fe 3d
       0.00042769188 0.86154914 0.008920083 0.12436359
000100 d4 be e6 3e 9b 4e 6d 3a ac 73 46 3f 05 f1 e8 3b
       0.45067465 0.00090525456 0.7752025 0.00710881
000110 24 b4 57 3e d0 95 59 3f 14 47 b1 39 ad 58 5a 3f
       0.21064812 0.8499422 0.00033813028 0.8529156
000120 88 36 03 3b cc 9f 11 3e 1c bc f2 3e f4 1d a7 38
       0.0020021517 0.14221114 0.4740914 7.96876e-05
000130 f6 ab 6a 3e 65 58 1b 3b 67 94 43 3f 80 d6 77 3f
       0.2291716 0.002370381 0.7639832 0.96811676
000140 ee c5 27 38 de ac 13 3f 2a 62 04 38 c4 5f d8 3e
       4.000024e-05 0.5768565 3.1562675e-05 0.42260563
000150 68 7e 59 3f e9 d4 e9 37 ef e8 13 3d e5 1c 14 38
       0.84958506 2.7874908e-05 0.036110815 3.531286e-05
000160 67 8b 76 3f ff 02 7e 3f ee 37 fc 3a aa 46 b9 3d
       0.9630646 0.9922332 0.0019242743 0.09046681
000170 ee 35 d4 3c da 0b 60 3f 2d 4c 78 3f 6a 51 79 3a
       0.025904622 0.87518084 0.96991235 0.0009510728
000180 96 4c 33 3f e6 1a a2 3c f4 14 8d 3e 82 1d 21 3f
       0.70038736 0.019788217 0.27555048 0.6293565
000190 84 ed ee 3a b6 7d 89 3e 11 bf 8e 3c 67 6b 35 3f
       0.0018228744 0.26853722 0.017425092 0.7086701
0001a0 0f 9f 6d 3f 7f 8f e0 39 48 98 5c 3f 3c 46 12 3c
       0.9282083 0.00042831522 0.8616986 0.008927878
0001b0 2a 0d ff 3d 6b df e6 3e 51 89 6d 3a c0 7b 46 3f
       0.12453683 0.4509233 0.0009061294 0.7753258
0001c0 fa 26 e9 3b f6 e6 57 3e ad a9 59 3f 74 92 b1 39
       0.007115242 0.21084198 0.8502453 0.00033869187
0001d0 2b 62 5a 3f c2 50 03 3b b8 d2 11 3e 82 de f2 3e
       0.8530604 0.002003715 0.14240539 0.47435385
0001e0 80 a4 a7 38 1d ba 6a 3e 62 6f 1b 3b 7c a5 43 3f
       7.993821e-05 0.22922559 0.0023717512 0.76424384
0001f0 33 ec 77 3f f4 c5 27 38 ad b2 13 3f 2c 62 04 38
       0.96844786 4.000026e-05 0.5769451 3.1562682e-05
000200 17 81 d8 3e b3 91 59 3f e9 d4 e9 37 c9 fe 13 3d
       0.42285988 0.84987944 2.7874908e-05 0.036131654
000210 10 60 14 38 bd 9f 76 3f c3 0f 7e 3f
       3.5375415e-05 0.9633749 0.992428

network_body.observation_encoder.processors.2.normalizer.running_mean f4 [12]
000000 29 14 a0 3c 0a ff 7f 3f ff 5b e4 be e7 01 68 bd
       0.019540863 0.99998534 -0.44601437 -0.05664244
000010 4f 4a 01 3f 00 00 00 00 93 4a ca 3d 22 15 9f 3d
       0.5050401 0.0 0.09877505 0.07767703
000020 a5 07 6d 3d 25 4c a9 3c 02 74 5e 3c 8b d7 27 3d
       0.05786862 0.020666191 0.013577463 0.040977042

network_body._body_endoder.seq_layers.0.weight f4 [256, 182]
000000 fb 91 26 3e 8b bf c9 bc 9c dd 07 3f de 0d 71 bb
       0.16266625 -0.024627468 0.53072524 -0.0036781947
000010 a8 8c 2f 3d 4c b1 9a be b5 f9 81 3c b7 24 19 3f
       0.04285875 -0.30213392 0.01586614 0.5982165
000020 b0 f0 c1 3d 87 bf 8f 3d 63 fb 5b 3e 29 32 01 3f
       0.094697356 0.07018953 0.21482615 0.50467163
000030 65 9d 1e 3f ec 4a 8e be fc d1 c2 bd 3c a4 ab bd
       0.61958915 -0.27791536 -0.095127076 -0.083809346
000040 a2 9e 40 3d 55 b1 4a 3f 2e 5e 9e 3c ca 2d af bc
       0.047026284 0.7917684 0.019332018 -0.021384139
000050 d9 5f 9d 3d d7 f1 02 3d 68 d6 28 3f cb 76 f5 bd
       0.07684297 0.031968918 0.6595216 -0.119855486
000060 fd 45 6f be 1e 72 74 3e f1 30 13 bd a4 3c 50 3f
       -0.23366542 0.23871657 -0.035935346 0.8134253
000070 a6 44 ee be 68 53 a3 be 37 e0 44 3e dc c5 1a bd
       -0.4653675 -0.3189957 0.19226156 -0.03778635
000080 c2 ca 13 3f d1 35 56 be 6e 4b 27 be 7c 69 ec 3e
       0.5773126 -0.20918967 -0.16337368 0.46174228
000090 7a 28 ea bd 6f f6 15 3f ce dd bc bb 5f b4 e3 bd
       -0.114335015 0.5857915 -0.005763746 -0.111183874
0000a0 0f 71 3c 3f 3a 82 12 be 4f f1 22 3f f6 36 f6 3d
       0.73610014 -0.1430749 0.6364946 0.12022202
0000b0 c4 8d fd 3d 7e fb 35 3f 76 6c 1f bb e1 a5 17 3f
       0.12380555 0.7108687 -0.0024326122 0.59237486
0000c0 e3 5b 0b 3d 59 a9 5c be 19 83 15 3f 5f 70 45 bd
       0.034023177 -0.21548976 0.58403164 -0.04820287
0000d0 a7 6a 30 3f 5d c5 a7 bb c9 b1 0f bd 12 b5 3a 3f
       0.6891274 -0.005119963 -0.03508166 0.7293254
0000e0 e8 8b ea bd 11 f3 f8 3e e5 f1 85 3d 2d 18 21 be
       -0.11452466 0.48622945 0.06540278 -0.15731879
0000f0 24 b3 40 3f 51 39 cb bd a8 82 51 3f fd 34 43 3e
       0.75273347 -0.099230416 0.8183999 0.19063182
000100 9b 69 00 be 33 60 1f 3f 13 bb ab 3c fc 01 44 3f
       -0.12540285 0.62256163 0.020963227 0.7656553
000110 9c 7f 96 3d dc 24 d9 bc 96 7f 00 3f 09 9d 93 3c
       0.07348558 -0.026506834 0.5019468 0.018019216
000120 0f 2b 31 3f 1e 78 b4 bc 5f c3 81 bd 61 d1 18 3f
       0.6920633 -0.022029933 -0.06336092 0.59694487
000130 26 bb 79 3d c6 34 1c 3f f6 62 9c 3d 74 f4 8f bd
       0.060969494 0.61018026 0.07636063 -0.070290476
000140 9e 7c 14 3f ce 3d 65 be ad 47 1f 3f 5d 8f de 3c
       0.5800265 -0.22386858 0.62218744 0.02716797
000150 19 85 66 be f9 48 42 3f 2c 1b d9 bd 49 41 11 3f
       -0.2251171 0.758926 -0.10600886 0.5674024
000160 6e b7 ad 3c 4e 37 ca 3d 28 a2 0e 3f e3 a1 07 bc
       0.02120563 0.0987383 0.5571618 -0.008278343
000170 6a ca 1d 3f 4d 83 75 bd 7a d5 e6 bd 36 10 28 3f
       0.61636984 -0.05993967 -0.11271186 0.65649736
000180 e8 7c b3 bd 15 e9 1a 3f 53 ae 8a 3c 5b 18 07 bd
       -0.08764058 0.60511905 0.016928827 -0.03298221
000190 08 c1 f8 3e a6 ed 46 be fc f6 0d 3f 12 61 38 3e
       0.4858477 -0.19426593 0.55454993 0.1800578
0001a0 10 01 81 be bb 56 3b 3f d2 04 1d be fd 27 19 3f
       -0.25196123 0.73179215 -0.1533387 0.5982664
0001b0 b4 2d f4 3d b0 c7 d6 3b f7 ae 2c 3f 64 6a 96 bd
       0.1192278 0.0065545663 0.67454475 -0.07344511
0001c0 b8 3a 3b 3f a8 bd 2c be 20 8e 35 be a2 72 2b 3f
       0.7313647 -0.16869223 -0.17729998 0.6697179
0001d0 0e 71 36 bc 33 0a 3d 3f 55 9a b5 3a c2 d9 ea bc
       -0.011135353 0.7384369 0.0013855199 -0.028668288
0001e0 12 d6 1e 3f ef a4 01 be 6b 0d 1a 3f 8c a0 68 bd
       0.62045395 -0.12660573 0.60176724 -0.056793734
0001f0 d1 b4 2e be c5 41 1e 3f 31 2b 27 3e c5 2e e4 3e
       -0.17061163 0.61819106 0.1632507 0.44566932
000200 cf 87 82 3d ac 50 0e be 70 1b 2c 3f 9b 3a 64 bd
       0.0637356 -0.13897961 0.67229366 -0.055719953
000210 97 2f 3c 3f ac ff f8 bb 30 16 02 bd 8c f7 33 3f
       0.73510116 -0.007598838 -0.03175944 0.702996
000220 78 10 b5 3d eb 29 08 3f c4 77 ac bd ec 7d 81 3d
       0.08841032 0.5318896 -0.08421281 0.06322846
000230 03 0e 00 3f 8a 03 4e be 14 e3 05 3f da 78 31 3e
       0.5002138 -0.20118538 0.5229962 0.17331257
000240 cd f9 8f bc 34 c3 1f 3f 5d 5c 83 bd e7 6f 3a 3f
       -0.017575169 0.6240723 -0.06414101 0.72827
000250 a7 f3 d6 3c 9b b5 4e be b3 02 0d 3f 20 78 d9 bd
       0.02623923 -0.20186464 0.55082244 -0.10618615
000260 02 0d 46 3f 94 29 fc 3c 3a bc 8c bc 00 a9 11 3f
       0.773636 0.030781545 -0.017179597 0.568985
000270 2e da 43 bc 63 ee 2b 3f 96 b5 cc bc 81 65 c0 3c
       -0.011953874 0.67160624 -0.02498893 0.0234859
000280 99 dd 0f 3f 2b cc 74 3d 31 93 37 3f 6a 22 c9 bb
       0.56197506 0.059765022 0.7170897 -0.0061381357
000290 28 b9 9d 3d 53 1c 34 3f d1 f7 76 bd 47 9a 15 3f
       0.077013314 0.7035572 -0.06029493 0.58438534
0002a0 f2 d1 27 3e ab c4 34 bd 95 9c 0e 3f bb b7 26 bf
       0.16388682 -0.04413287 0.55707675 -0.651241
0002b0 35 8e 62 3f a6 95 65 be 39 e2 05 bf 2a 57 19 3c
       0.8849824 -0.22420368 -0.52298313 0.00935916
0002c0 58 73 06 3f d6 2c 16 3f fa 22 19 3f f9 1b 08 3e
       0.5251975 0.58662164 0.59818995 0.1329192
0002d0 1f 31 40 3f cb dd 0b 3f ad c3 2f 3e 79 63 fe 3c
       0.7507495 0.54635304 0.17164488 0.031053292
0002e0 8c 67 21 3f 8f e1 5b be 1e 6a 25 be 3d 28 8f bc
       0.63048625 -0.21472763 -0.16153762 -0.017475242
0002f0 92 73 0e 3a d3 23 6b 3f a0 2a 65 be 27 b4 2a be
       0.00054340914 0.9185154 -0.22379541 -0.16670285
000300 25 d8 88 3d ac e1 0e 3f 69 39 28 3f 0a 45 09 3e
       0.06681851 0.558131 0.657126 0.13405243
000310 3a 28 44 be 84 62 d1 bd b5 48 6d 3d 5f 1f 62 3f
       -0.1915597 -0.102238685 0.057930667 0.8832912
000320 4a 4f 20 be 0d 70 4e be 79 0a 32 be 12 06 4d bd
       -0.15655246 -0.20159931 -0.17386808 -0.050054617
000330 9a d6 2c 3f 2b a4 00 3e e6 b0 b4 3d 45 a3 a4 3e
       0.67514956 0.12562625 0.08822803 0.32155815
000340 f1 80 40 bd d1 19 22 3f 8d bd 89 be d4 cf d0 be
       -0.046997968 0.6332064 -0.26902428 -0.4078356
000350 d7 af ee 3d 47 bc c4 bc 08 dc 32 3f b2 1f 87 be
       0.116546325 -0.024015559 0.6986699 -0.2639137
000360 80 61 e1 bd 35 df 45 3f d7 b1 49 bd 2f 71 0a 3f
       -0.11004925 0.7729371 -0.049241867 0.54078954
000370 7c df 9f 3d 7c b7 ee be 3f 9a 18 3f a2 1e 8a bc
       0.07806298 -0.46624362 0.5961036 -0.01686031
000380 7a 6b 1f 3f 39 bc ab bd 47 0a a9 bd 78 c5 26 3f
       0.6227337 -0.0838551 -0.082539134 0.65145063
000390 ea 32 1d bc 50 5a 38 3f 23 8e 91 3d 48 73 87 3d
       -0.009594658 0.72012806 0.071071886 0.06613785
0003a0 32 b7 4a 3f 33 af f7 bc 1f 45 44 3f 04 1f 8b 3d
       0.79185784 -0.030234909 0.7666797 0.06793025
0003b0 57 bc 5b 3c c9 8e 3d 3f 37 2d 18 be 70 37 47 3f
       0.013411603 0.74046 -0.14860998 0.77818966
0003c0 d3 8a 3e 3e 0c 15 03 be b1 52 48 3f 29 1b 01 be
       0.18607645 -0.12800997 0.7825118 -0.12608017
0003d0 7b 55 5b 3f a9 6d 24 3e 6a ac 2d be 87 b4 53 3f
       0.8567731 0.16057457 -0.16960302 0.8269734
0003e0 4f 0a 62 3d d2 9e 34 3f 65 43 07 3c 35 86 e1 bd
       0.055185612 0.7055484 0.008255814 -0.11011926
0003f0 1a 79 20 3f e0 ee c6 3c 00 45 35 3f bf b5 b9 3d
       0.62684786 0.024283826 0.7080841 0.090678684

network_body._body_endoder.seq_layers.0.bias f4 [256]
000000 fb 51 36 bf 8a 31 4b bf ba 42 b8 bd 63 54 46 bf
       -0.7121884 -0.79372466 -0.08997102 -0.77472514
000010 a9 c1 67 bf f0 f8 3d bf 0d 8b 81 bf ef c6 10 bf
       -0.90529877 -0.74207973 -1.012056 -0.5655355
000020 c5 7a 28 bf b6 45 02 be 44 7f 3d bf 7e d6 3a bf
       -0.6581233 -0.12721905 -0.74022317 -0.7298354
000030 cf aa 7b bf 6e ef 65 bf de d3 c7 3c a7 f0 9b 3d
       -0.9830751 -0.89818466 0.024393018 0.0761426
000040 a2 9e 35 bf 29 be e5 bd cd 62 e9 be 0c 55 5e bf
       -0.7094518 -0.11217911 -0.45583192 -0.8684852
000050 8f c9 0d bf 8c 4b ef be 5e 29 9f bf 24 9f 32 bf
       -0.5538568 -0.46737325 -1.2434499 -0.6977408
000060 95 5a 23 bf 21 32 1b 3e fe 8d a8 3d 12 dc 67 bf
       -0.6381009 0.15155841 0.08230208 -0.90570176
000070 5b 15 25 be 41 be 5d bf 1b 9c 82 be 67 e8 a3 be
       -0.16121428 -0.8661843 -0.25509724 -0.32013246
000080 51 d3 54 bf 9f 72 cc 3d c9 77 0f bf 67 d6 18 bf
       -0.83134943 0.099828 -0.5604215 -0.5970215
000090 7d c3 51 bf 00 ce dd be ee 3e 13 bf 5a e4 67 be
       -0.81938916 -0.43321228 -0.575179 -0.22645703
0000a0 4a a9 fc be 9f 29 02 bf 65 3e de be 1b 73 3c bf
       -0.49347907 -0.5084476 -0.43406978 -0.73613137
0000b0 20 91 6b bf 9c 09 45 bf 2b f5 02 bf 44 99 4a bd
       -0.9201832 -0.7696779 -0.51155347 -0.04946257
0000c0 5e 3c 62 be 00 64 f0 be 65 67 85 bf 1b 0d 56 3e
       -0.22093341 -0.46951294 -1.0422179 0.20903437
0000d0 15 c1 38 be ef 99 f8 be a5 ae 0d be b8 2f 5d bb
       -0.18042405 -0.48554942 -0.13836153 -0.0033750366
0000e0 3c 30 44 bf 8a 97 2d bf 37 1c 37 bf 4e 03 5d bf
       -0.766361 -0.67809355 -0.7152743 -0.8633317
0000f0 f8 65 60 bf 29 09 7f bf ea 6f 0b 3f 48 4f 67 bc
       -0.8765559 -0.9962335 0.5446764 -0.014118023
000100 ce 1f a1 3d 44 e7 66 bd f2 b8 5c be 15 14 2d be
       0.078673944 -0.056372896 -0.21554926 -0.16902192
000110 58 a0 31 3e 5f f7 36 bf 5d 17 80 bf a8 32 78 be
       0.17346323 -0.7147121 -1.000713 -0.24238074
000120 7a b5 da be 62 5b 9c be 7c 41 39 be 5a 4f a0 be
       -0.4271658 -0.3053847 -0.18091387 -0.3131054
000130 56 af 0e bf 12 9a 39 bf fe ee 5b 3e 7b 20 19 be
       -0.5573629 -0.7250072 0.21477887 -0.14953797
000140 05 be 30 bf ce 32 76 bd 1c ae 8d be 83 83 4f bf
       -0.69039947 -0.060107045 -0.27671897 -0.81060046
000150 e8 61 98 bf 0f 0e 6f bf e7 be 17 bf 11 8f 8b bf
       -1.1904879 -0.93380827 -0.5927567 -1.0903035
000160 8a 3a 00 3e 90 81 3c bf c5 d4 2c bf 5e 4a 24 bf
       0.12522331 -0.73635197 -0.6751216 -0.64175975
000170 4e 61 0f bf e1 de 70 bf 28 a6 f4 be 08 7e 61 be
       -0.5600785 -0.94090086 -0.47783017 -0.22020733
000180 3f c0 99 bd 9e a2 16 be b6 0f 44 bf bf ef eb bd
       -0.07507371 -0.14710471 -0.76586473 -0.11520337
000190 3c b9 0c bf 8f 73 13 bf 03 a4 5d bf 16 4b d7 be
       -0.54970145 -0.57598203 -0.8657839 -0.42049474
0001a0 72 ba 62 bf a6 76 1b bf 12 98 7c bf 6c d7 40 bf
       -0.8856574 -0.6072792 -0.9866954 -0.7532871
0001b0 8a a7 97 bf 9d 31 69 bf 29 70 7a bf 30 6b e4 bd
       -1.1848004 -0.9109133 -0.9782739 -0.11153257
0001c0 9a 99 47 bf e0 9c ed be 1d b5 92 bd e0 b7 56 be
       -0.7796875 -0.4640875 -0.07163451 -0.2096858
0001d0 d8 d0 f8 be 4a a6 3b bf 5b 14 d8 be 52 df 31 bf
       -0.48596835 -0.7330061 -0.4220303 -0.69481385
0001e0 9c 74 42 3d f3 55 77 bf 4f de df be 25 52 63 be
       0.04747449 -0.96615523 -0.43724295 -0.22199304
0001f0 61 bd 33 3e c3 1c 2d bf fe 55 32 be e6 b5 60 bf
       0.17552711 -0.6762201 -0.17415616 -0.87777555
000200 71 32 34 bf e1 57 77 bf 03 44 4d bf 6b 92 0f bf
       -0.7038947 -0.9661847 -0.801819 -0.5608279
000210 22 e1 20 3d b6 32 e1 be e0 4f 3c bf 47 d0 12 bf
       0.039277203 -0.43984002 -0.7355938 -0.57349056
000220 cf b2 17 be 3b 1f 8e bf 8a 66 bc bc 18 4c 89 bf
       -0.14814304 -1.1103281 -0.022998113 -1.0726347
000230 3b 44 69 bf e1 04 14 bf 4a 25 2d bf b1 e2 45 bf
       -0.91119736 -0.57819945 -0.67635024 -0.7729903
000240 42 03 d8 be 56 98 0e bf 4d 07 bf bd a8 8f ab be
       -0.42189986 -0.55701196 -0.093275644 -0.3350804
000250 62 2f 91 3d f9 df b3 be cc 1e ca ba d8 13 55 bf
       0.07089116 -0.35131815 -0.0015420555 -0.83233404
000260 a3 5d 8b bf 83 53 85 bf 31 c5 91 3d 8d 0f 0d bf
       -1.0887951 -1.0416111 0.071176894 -0.55101854
000270 3b c7 81 bf d7 ed a9 bd eb 5c 17 3e e0 38 3c bf
       -1.0138925 -0.082973175 0.14781539 -0.73524284
000280 b9 81 1c bf ee 7f 3f bf b5 d4 3f bf eb 43 41 bf
       -0.6113544 -0.7480458 -0.7493394 -0.7549426
000290 ae 2f 07 bf b9 6d a7 be 6c 77 0b bf 3e 99 85 bf
       -0.5280713 -0.327009 -0.544791 -1.0437391
0002a0 1c 56 91 bc 92 4a 63 be e0 2c 0a be 72 91 a8 be
       -0.017741255 -0.22196415 -0.13493681 -0.32923466
0002b0 14 df 5e bf 38 f1 61 bf 1d 0b 85 bf 05 07 66 bf
       -0.8705914 -0.88258696 -1.0394017 -0.8985446
0002c0 39 52 32 bf 21 76 7b bf a1 9e 22 bf ea 03 2a bf
       -0.6965671 -0.98227125 -0.635233 -0.6641222
0002d0 3e 66 a3 be 45 3a 83 be 04 39 53 3e bd f4 21 bf
       -0.31913942 -0.25630394 0.20627218 -0.63264066
0002e0 42 3a 06 be 58 c6 92 3d ad 25 07 bf 8b 85 56 bf
       -0.13108161 0.07166737 -0.52791864 -0.8379752
0002f0 2e dd 92 3e 7e 8c 69 bf 3d 81 1b bf 44 f1 50 be
       0.28684372 -0.9123 -0.60744077 -0.20404536
000300 55 40 56 bf a2 85 4c bf 9c 1f d4 be eb 61 dc bd
       -0.8369191 -0.7989141 -0.41430366 -0.10760864
000310 a4 5e fe be 5f 2a 47 bf a5 b5 5f bf 1b 9c 36 bf
       -0.4968158 -0.7779903 -0.8738654 -0.7133195
000320 ba 1c 66 bf 24 a4 9d bd eb a0 6f bf 29 2c 44 bf
       -0.89887583 -0.07697323 -0.93604916 -0.76629883
000330 cf 04 55 bf 06 0c 05 bf 89 1b 29 bf f7 b1 c8 bd
       -0.8321046 -0.5197147 -0.6605764 -0.09799569
000340 20 17 25 be d4 51 44 bf 3f ac 1c bf 23 2d a4 be
       -0.16122103 -0.7668736 -0.61200327 -0.32065687
000350 e1 74 73 bf 78 33 83 bd 63 3f 09 bf cd 3e c4 be
       -0.9510022 -0.06406301 -0.53612345 -0.38329163
000360 28 ff 9a 3e 79 f8 68 bf 95 4b 34 be c5 bc da bc
       0.30272794 -0.9100414 -0.17606957 -0.02670134
000370 9b 72 ff be 77 82 b9 3d db 46 6c bf f4 ad 10 3e
       -0.49892125 0.09058087 -0.92295617 0.14128858
000380 a3 99 89 bf 55 91 3f bf ba 01 6b bf 5d fa 55 bf
       -1.0750011 -0.74831134 -0.9179951 -0.8358515
000390 93 8f 99 be 05 99 17 bf 30 c5 26 bf 01 3e 00 bf
       -0.2999235 -0.59217864 -0.65144634 -0.5009461
0003a0 6c f8 46 be 3d eb 4c bf b4 c5 2a be 9f 85 68 bf
       -0.19430703 -0.80046445 -0.1667698 -0.9082889
0003b0 0d f8 78 bd b5 55 1c bf 6f 11 91 be 2e 88 5e be
       -0.060783435 -0.6106828 -0.28333613 -0.21731636
0003c0 76 99 59 bf f5 65 00 bf 08 be d1 be b7 fb 79 be
       -0.8499979 -0.50155574 -0.40965295 -0.24412428
0003d0 ca 6b b3 bc 95 a1 56 bf bf 30 4c bf 5b dd ad 3e
       -0.021901984 -0.83840305 -0.7976188 0.33957943
0003e0 a5 40 a4 be 9f 8f 5d be 2d 8d 05 bf d7 35 6c bf
       -0.3208057 -0.21636818 -0.5216854 -0.92269653
0003f0 25 7b 82 bf d4 e4 44 bf e5 a2 1b bf 75 bb 7d bf
       -1.0193831 -0.76911664 -0.6079543 -0.9911416

network_body._body_endoder.seq_layers.2.weight f4 [256, 256]
000000 d1 85 fa bc 03 f5 7d 3e 24 3b 86 bd be 4b 11 3e
       -0.030581387 0.24800496 -0.06554249 0.1418905
000010 93 71 26 3e f1 3b 86 3d 17 33 8f 3e 0d 83 7e be
       0.16254263 0.06554402 0.27968666 -0.2485468
000020 83 ad 75 be 0b e7 6d bd 1f ec 93 3e cc 65 13 3e
       -0.2399197 -0.058081668 0.28891084 0.14394301
000030 78 fc d7 bd 17 2c a2 3d fb b2 06 be c1 05 bb be
       -0.105462015 0.07918566 -0.13154213 -0.36527827
000040 b0 e0 f1 3e 91 16 61 be d8 3a dd 3e cc 4e 54 3e
       0.47241735 -0.21981265 0.43208957 0.20733184
000050 3d 03 b9 bb 1a ad c5 3e 87 7c 94 3e 36 55 87 bd
       -0.005646138 0.3860863 0.29001257 -0.066080496
000060 68 94 02 3e d3 4d f2 be 8b 3e 87 be 27 21 94 3e
       0.12751925 -0.47325 -0.26414904 0.28931543
000070 1e 56 de bd 47 aa 69 3e 0d f6 91 bd d7 d8 47 3e
       -0.10856269 0.22818862 -0.071270086 0.19516312
000080 98 a4 bf 3d 81 8d ba be 33 b6 1c bd 9f 5d a7 bc
       0.09357566 -0.36436084 -0.038259696 -0.020430384
000090 a7 8b 69 3e d5 19 64 3d d4 73 34 3e 79 3c 0d 3e
       0.2280718 0.055688698 0.1762231 0.137926
0000a0 3d b5 a3 3e 9d 68 0c 3d 77 d9 92 3d 7f 62 a6 3e
       0.3197421 0.034279454 0.071703844 0.32497022
0000b0 3c d2 75 3e fe 87 b7 3e f1 3e 62 3e b5 ed 00 bf
       0.2400598 0.3584594 0.22094323 -0.5036271
0000c0 41 17 fb bd fc 3f a3 3e 28 92 12 3e ec 4f b7 be
       -0.12260295 0.31884754 0.14313567 -0.35803163
0000d0 92 7d 63 be 3b 48 c6 3e 88 1e 5f be db a7 b7 be
       -0.2221587 0.38726982 -0.2178899 -0.3587025
0000e0 91 78 c7 bb 49 c7 b3 3e 04 9f f2 bd b9 79 b1 3e
       -0.0060873707 0.3511298 -0.11846736 0.3466318
0000f0 6a 52 ce 3e 94 f7 65 3e 27 87 88 be 73 e3 9c be
       0.40297252 0.22457725 -0.26665613 -0.3064228
000100 3b 4b 6d be fa 6f c8 be f7 0b ad 3e 27 3d 2c 3e
       -0.2317323 -0.3914793 0.3379819 0.16820203
000110 1c f8 8a be c8 d2 d3 3d 7a 36 7a 3e 9d ce 2f be
       -0.27142417 0.10342938 0.24434844 -0.1716866
000120 69 e3 5a 3b 86 0b 60 bd 2d 3e d4 bd 38 18 e3 bd
       0.0033399707 -0.05469849 -0.103634216 -0.11088604
000130 08 41 43 3d e8 59 05 be 32 c1 98 be 5f a8 9e 3e
       0.04766944 -0.13022578 -0.29834896 0.30987832
000140 0a 31 94 3e 29 e9 9b bd 31 0b 43 3d bd db 78 3e
       0.28943664 -0.07612831 0.047618095 0.24302574
000150 9d f5 2a 3e 77 81 8e 3e 21 6e ba 3d b6 0c 7c 3e
       0.16695257 0.2783315 0.09103037 0.24614224
000160 1a b1 4f bd 7c 52 c0 3e f7 81 0a 3e d0 80 7e 3e
       -0.050706007 0.3756293 0.1352614 0.24853826
000170 9a 6a 7d 3d ca f4 ec 3d 07 54 74 be 93 c2 61 3e
       0.06186924 0.11570127 -0.23860179 0.2204688
000180 d3 da 90 be 23 ec de 3d 42 f0 82 3e eb 92 92 be
       -0.2829195 0.10884883 0.25573927 -0.28627715
000190 86 bb dc 3e 91 ef 02 3e c9 01 70 3e 71 b1 1c 3e
       0.4311182 0.127867 0.23438181 0.15302064
0001a0 1d 55 90 bb f0 85 8c 3e c4 d5 5e 3e 19 b3 38 3e
       -0.0044046775 0.27445936 0.21761233 0.1803707
0001b0 40 38 80 3d 8a c9 23 3e 5f ca 77 3e 60 6e 12 be
       0.06260729 0.1599485 0.24198292 -0.14299917
0001c0 ce 4c 31 3c 75 94 37 bd fd 43 d9 be 76 58 79 be
       0.010821534 -0.044819314 -0.42434683 -0.24350151
0001d0 65 bc 24 3e 9b 8f 17 3d 1f 09 41 3e b4 e7 17 bd
       0.16087492 0.037002187 0.18851136 -0.037086204
0001e0 93 1f 9c be a8 06 f4 3d b4 6a bc bc dd 8b 16 3e
       -0.3049284 0.11915332 -0.023000099 0.14701791
0001f0 80 cb e5 be d0 d1 24 3e f2 d4 e0 3d 1a 85 3c be
       -0.4488182 0.16095662 0.10978116 -0.18410149
000200 77 0f b9 3e bb 5c 64 3e 82 7e ca bb cf 47 b0 3e
       0.3614461 0.22300999 -0.0061796317 0.34429786
000210 27 bb d6 bc 71 17 4d 3d 82 6e 18 3e e1 d0 5f 3e
       -0.026212288 0.050071184 0.14885905 0.21857025
000220 d4 b1 ca 3c 41 aa 80 3e e8 1c eb 3d ed 4e 0e 3e
       0.024742998 0.25129893 0.11480123 0.13897295
000230 b5 e3 56 3e e3 f3 43 bd a6 da 96 3e 2a c8 b0 3e
       0.20985301 -0.04784001 0.2946369 0.34527713
000240 29 8f 0b bc f6 66 28 bd b8 b1 c4 bd 87 62 89 bd
       -0.008518019 -0.041113816 -0.0960421 -0.06708246
000250 c1 a0 a8 be 1e 6b 9a 3d c1 9d cf 3d 7e 3a eb 3d
       -0.32935145 0.07539962 0.10137511 0.11485766
000260 e1 79 ea bc b2 42 67 3e 76 cf 1e 3d 0a 02 a5 3e
       -0.02862257 0.22584036 0.03877207 0.32228118
000270 d6 df 5e bc 92 11 0a 3e 3d ed d1 bd dd 3b c9 3e
       -0.013603171 0.13483265 -0.10250328 0.39303485
000280 82 e5 1d be c2 1b 4b 3e 2e 64 4a 3e 2e b2 78 3e
       -0.15419582 0.19834808 0.19764778 0.2428672
000290 20 a8 bc 3d 7f 07 c1 3e ec c6 48 3e a8 b0 ff bd
       0.09211755 0.37701032 0.19607133 -0.124848664
0002a0 0c 89 c9 be ab 5d 83 3d 88 7f 95 3e 44 ac 2c 3e
       -0.3936237 0.0641435 0.2919886 0.16862589
0002b0 1d 23 6b 3e 2a 42 79 3e 61 1e 11 3e 9e 1e 41 3d
       0.22962613 0.24341646 0.14171745 0.04714834
0002c0 a2 48 3d 3e 09 31 42 3e 0b 02 9e 3e 6f cb 99 3d
       0.18484738 0.18964018 0.30860934 0.07509505
0002d0 fd 71 58 bd b5 80 31 3e 9c 82 b8 3c 9e c0 17 3e
       -0.052843083 0.17334254 0.022523217 0.14819571
0002e0 2b e3 4b bd f2 92 1f bf 2f 41 d4 3d 78 4e 99 3e
       -0.04977719 -0.62333596 0.10363995 0.2994268
0002f0 50 ed 88 be 65 48 ce bd 55 1c d0 3c 5c a9 5b 3e
       -0.26743555 -0.10072402 0.025404135 0.21451324
000300 d6 e4 c7 3d 30 52 0d 3e e7 10 75 3e 16 06 5b bd
       0.09760444 0.13800883 0.23932229 -0.0534726
000310 0a 01 25 be 4d ac 40 be f0 08 5b 3e 9e ca bf 3e
       -0.16113678 -0.18815728 0.21390128 0.37459272
000320 ba ef 2c bd bc 0f 03 3e f7 c2 28 bd 10 91 4c 3e
       -0.04222081 0.12798971 -0.041201558 0.19977212
000330 ff d5 b2 3e 72 f1 1d 3e 9d 25 41 3d 7a 0f 97 be
       0.3492889 0.15424135 0.04715501 -0.29503995
000340 ba a6 4e 3e ea 89 85 3e 8d 0d 7a 3e 0f 7f 94 3d
       0.20180789 0.26081783 0.24419232 0.07250797
000350 bc d9 f3 bd 27 56 05 be 2b 74 8b 3e 55 0c 4a 3e
       -0.11906764 -0.13021146 0.27237067 0.19731267
000360 74 82 2c be c8 ce 13 3e 4b 72 25 3e 5e 16 f1 bd
       -0.16846639 0.1443435 0.1615688 -0.11771844
000370 bc 1f 1b bc ec 32 ee bd dc 82 54 3b 84 75 e2 3b
       -0.009468015 -0.11630806 0.003242663 0.0069109816
000380 54 6c b0 3d d6 d0 8c 3e 89 f1 c0 3e d6 ae 94 3e
       0.08614412 0.2750308 0.37684277 0.2903964
000390 32 0a 8d 3d 67 9d fe 3d a6 20 f0 bd 06 4e f7 bc
       0.0688671 0.12432366 -0.11724977 -0.030188572
0003a0 85 f8 31 be c8 6a b4 3e a9 8b 15 bd 79 bf ec 3d
       -0.17379959 0.35237718 -0.036510143 0.11559958
0003b0 6e b4 b0 3d a9 b1 c7 ba 6f d5 a7 bc 98 da 83 3d
       0.08628164 -0.0015235442 -0.020487515 0.06438178
0003c0 6c 10 be 3e 96 88 f2 bd 26 1d db 3e 77 55 98 bc
       0.37121904 -0.11842458 0.42795676 -0.01859544
0003d0 06 e5 a3 bd 7d 49 e3 3d 46 62 c0 3d cf f1 95 bd
       -0.08002667 0.11098001 0.09393744 -0.07321512
0003e0 19 a7 08 3e c6 60 e2 3d 2d b3 e4 3d 81 40 c2 3d
       0.13344993 0.11053614 0.111669876 0.094849594
0003f0 01 aa 01 3c 01 77 53 bd b6 ca aa 3d be 03 57 3d
       0.007914067 -0.051627163 0.08339445 0.052493803

network_body._body_endoder.seq_layers.2.bias f4 [256]
000000 6f 9c f6 be a5 4b 8e be 9a 72 98 be d2 1b 5a be
       -0.48166224 -0.27792087 -0.29774934 -0.21299675
000010 b4 b0 d8 be 95 5e 57 bd 67 98 8a be ab e0 be bc
       -0.42322314 -0.052580435 -0.270694 -0.02330049
000020 71 b7 b8 be 4d 57 de be 9f 97 9a be 33 17 0b be
       -0.36077455 -0.4342598 -0.30193803 -0.13583069
000030 db 6e 97 be 2e 8a ae bd e0 50 8d be 15 b6 42 be
       -0.29576764 -0.085224494 -0.27600765 -0.19014771
000040 ab d8 94 be 69 ab a1 be 94 eb d5 bd 10 12 e2 bd
       -0.29071555 -0.31576088 -0.104453236 -0.110386014
000050 66 79 76 3e 97 14 7a be 70 2d bd be ca 74 c2 be
       0.24069747 -0.24421917 -0.3694873 -0.37979728
000060 42 5e 23 bd 4f 14 c0 be ad 4a ab be df 25 91 be
       -0.039884813 -0.37515494 -0.3345541 -0.28349206
000070 aa f2 f7 bc f0 00 fd 3d b5 73 95 be 69 27 dd bd
       -0.030267078 0.123536944 -0.2918984 -0.107985325
000080 e2 b3 d4 bd 77 49 45 be 04 c7 d1 be b6 9b a3 be
       -0.103858724 -0.19266306 -0.4097215 -0.31954736
000090 a5 1a da bd a4 a7 e7 be 76 89 8c be dd 0f 5d bd
       -0.10649613 -0.45245087 -0.27448624 -0.053970207
0000a0 81 33 81 be 64 ce be be d4 74 db bc 34 20 d8 be
       -0.25234607 -0.3726684 -0.026789106 -0.4221207
0000b0 c3 b8 d7 3d 5f 79 b9 be 9b b6 d4 be f5 fb d5 be
       0.105332874 -0.3622541 -0.41545567 -0.4179379
0000c0 84 df af be 39 eb 68 be 2d 98 73 be a0 9c 9d be
       -0.34350216 -0.2274598 -0.23788519 -0.30783558
0000d0 09 0d 46 be b5 f2 44 be 53 94 a8 3d d5 ff d4 bc
       -0.1934091 -0.1923321 0.082314156 -0.026000896
0000e0 79 8f d4 bd bf b3 73 be a4 70 8a be 4a 15 15 bd
       -0.10378928 -0.23799036 -0.27039063 -0.036397256
0000f0 db 88 65 3d d7 5c b5 be 90 29 b4 be ea a4 60 be
       0.05603872 -0.35422394 -0.3518796 -0.2193791
000100 70 80 d0 be e1 8a 98 be 84 cd 4b be e1 4e 7b be
       -0.4072299 -0.29793456 -0.19902617 -0.24541809
000110 68 9f ca bd c5 98 85 be 16 60 8e 3c 38 e9 dc bd
       -0.098936856 -0.26093116 0.017379802 -0.107866704
000120 66 d8 5c be 21 3d 72 be e7 50 a3 be 63 82 bc be
       -0.21566924 -0.23656131 -0.3189766 -0.36818227
000130 b8 b8 a5 be 1a 60 79 be bf 18 37 be d1 9d 20 be
       -0.32367492 -0.24353066 -0.17880534 -0.15685202
000140 f0 e7 b9 be 3c f3 42 be e1 58 e2 bd 17 13 53 be
       -0.36309767 -0.19038099 -0.110521086 -0.20612751
000150 a2 f2 a0 bd 56 d8 f9 be ee b8 9d bd b4 51 31 be
       -0.078587785 -0.48797864 -0.07701288 -0.17316324
000160 a5 b8 7f be 39 c3 3d be 95 6a 9e be 48 11 f0 be
       -0.2497278 -0.18531503 -0.3094069 -0.46888185
000170 83 9b 65 be 36 d4 8e be 21 34 82 be bc 5e 5c be
       -0.22422604 -0.2789628 -0.25430396 -0.21520513
000180 0a 2f ca be 3c 8f 03 3f 96 44 12 be 47 58 8c be
       -0.39489013 0.51390433 -0.14283976 -0.274111
000190 5b ec fa be 9c bf 19 be 6c 2a db 3d ab d1 97 be
       -0.4900845 -0.150145 0.10701451 -0.2965215
0001a0 d9 9a 82 be 4f 66 34 be f8 a5 c9 3c 9c d6 9b be
       -0.25508764 -0.17617153 0.024615273 -0.3043717
0001b0 10 98 15 bf 9a 79 f0 bd a9 53 a8 be 97 a5 bf be
       -0.58435154 -0.11741944 -0.32876328 -0.37431023
0001c0 ef aa 4b bd c7 fd fd be 66 c9 e6 be 16 ce 7b be
       -0.04972356 -0.4960768 -0.4507553 -0.24590334
0001d0 d0 8d 3d 3d 40 32 14 be 83 cd c4 be 60 60 37 be
       0.04627782 -0.14472294 -0.38438043 -0.17907858
0001e0 66 06 73 be 9e da b2 be 5e 4d 5e be 7f 8b a2 be
       -0.2373291 -0.34932417 -0.217092 -0.31747052
0001f0 c9 f1 30 be ed e4 90 be ae 9f 0b bf 6f 24 9a be
       -0.17279734 -0.28299657 -0.54540527 -0.30105922
000200 a1 af 87 be 0e 96 74 be 46 64 c3 be 1e 67 cc be
       -0.26501182 -0.23885366 -0.3816244 -0.39922422
000210 8c c4 54 be 99 f6 37 bd df 27 81 be ea 15 95 be
       -0.20778102 -0.04491291 -0.25225732 -0.29118282
000220 6f 70 c5 be 5f e1 c1 bd cc f3 7a be 5e 6d 7c be
       -0.38562343 -0.09466814 -0.24507064 -0.24651095
000230 14 8d 9a bd 3c db 9d bd 15 37 11 bc 4e 0c 1d be
       -0.0754644 -0.07707831 -0.00886323 -0.15336725
000240 95 1e ae be ad cd 89 be e4 61 8b be c7 2f db be
       -0.34007707 -0.2691473 -0.27223122 -0.4280989
000250 d1 c0 0e be 86 d2 a5 be 5b b0 7a be c2 d4 91 be
       -0.13940741 -0.3238718 -0.24481337 -0.28482634
000260 37 87 84 bd 90 45 d2 be 87 cd 8b be c7 ed 1d be
       -0.06471103 -0.41068697 -0.27305242 -0.15422736
000270 f9 2b 9b be 47 b5 a2 be 46 32 00 3e a8 13 b1 be
       -0.30306986 -0.3177893 0.12519178 -0.3458531
000280 91 93 e0 be 8b 13 47 be 5a a1 ba be e8 55 bf be
       -0.43862584 -0.19441049 -0.36451226 -0.3737023
000290 34 49 e0 bd 53 c4 90 be 91 e1 98 be e7 54 8e be
       -0.109514624 -0.28274783 -0.29859594 -0.2779915
0002a0 45 a7 43 be d9 3b f4 be a5 23 60 be e8 7c e0 3e
       -0.19106777 -0.4770191 -0.21888597 0.43845296
0002b0 d7 1c 82 be e6 96 ad be ba dc 65 be b7 52 b0 bd
       -0.25412628 -0.3390419 -0.22447482 -0.086095266
0002c0 66 cb 24 be 8b 10 8a 3b dd 22 91 be 72 18 67 be
       -0.16093215 0.004213398 -0.2834691 -0.22567919
0002d0 2f a8 0d be c5 92 21 be a7 dd cb be ad 91 05 3f
       -0.13833688 -0.15778644 -0.39817545 0.5217541
0002e0 ea 71 9e be 69 21 5d be 4c c6 6c bd 66 56 33 be
       -0.30946285 -0.21594776 -0.057806298 -0.17513427
0002f0 dd 13 7d be d1 4c 91 be e8 e7 44 be 69 ea bc 3e
       -0.24714608 -0.2837892 -0.1922909 0.3689759
000300 4f 53 fd bd 1b 6a e4 be a8 eb dc bd 9d 26 31 3e
       -0.123694055 -0.44612202 -0.10787135 0.17299886
000310 a1 bc ae be 0f 71 16 be 81 88 85 be 77 df 12 be
       -0.34128287 -0.14691566 -0.26080707 -0.14343058
000320 e7 81 90 bd ff 68 c4 bd 06 37 36 be 5c fb f6 be
       -0.07056027 -0.09590339 -0.17794427 -0.48238647
000330 ad 8e 38 be 89 82 b9 be eb 23 95 be 36 04 8c be
       -0.18023176 -0.36232403 -0.29128966 -0.27346963
000340 f8 48 a6 be 7f fa f7 bd 5e 64 1f be c9 12 d5 bd
       -0.32477546 -0.12108325 -0.15565631 -0.104039736
000350 8e 56 b7 be 24 35 0e be 24 1d 79 3d 47 01 81 3e
       -0.35808223 -0.13887459 0.060818806 0.25196287
000360 b5 f5 84 be 9e ff 96 be a2 f2 b9 bd 12 a5 0f bf
       -0.2596871 -0.29491895 -0.09079482 -0.5611125
000370 39 cc d0 be 17 82 38 bd a0 ea 3e be fb 5f 57 be
       -0.4078081 -0.04504594 -0.1864419 -0.21032707
000380 0d 3a c7 be d8 6b d2 3d ef 9d b0 be 7d 5a 8a be
       -0.38911477 0.10274476 -0.34495494 -0.27022162
000390 2f 78 1e bd be 2e a2 be 01 dc 92 be 4d 26 10 3e
       -0.038688835 -0.31676286 -0.28683475 0.1407711
0003a0 e7 d0 d0 bd 8a 78 71 be 37 34 ea be fa 2b b6 be
       -0.10196095 -0.23581138 -0.45742962 -0.35580426
0003b0 f9 70 16 bd 78 1e 9d be 44 09 22 be 45 2f 9c be
       -0.036728833 -0.30687308 -0.15823847 -0.30504814
0003c0 c3 ed 6c be 84 1e 92 be c4 7e 35 be df 16 4f bd
       -0.23137574 -0.28538907 -0.17724138 -0.05055892
0003d0 ad 44 4d be 0a ec 72 be 7c 3b b6 be c2 8e d1 be
       -0.20045729 -0.23722854 -0.35592258 -0.40929228
0003e0 20 78 93 be 48 23 80 be 31 8d dc be 60 17 0e be
       -0.28802586 -0.25026917 -0.4307647 -0.13876104
0003f0 f1 71 a7 be b2 10 b1 be d5 14 d9 be e6 2f 5c be
       -0.32704118 -0.3458305 -0.42398706 -0.21502647

network_body._body_endoder.seq_layers.4.weight f4 [256, 256]
000000 71 92 f2 3d 1a 42 15 be 19 8b 92 3e 8f a0 c1 3e
       0.11844338 -0.14575997 0.28621748 0.3781781
000010 5c 6e 17 3e 9e 6d dd 3d 74 6b 93 3e 5b 0a 86 3d
       0.14788193 0.108119234 0.28792918 0.06544944
000020 e9 91 7a 3e f5 d6 e5 3d d0 66 1f 3e 60 cc c2 3e
       0.24469723 0.112226404 0.15566564 0.3804655
000030 22 bc d0 bd d7 54 d5 be a2 5d f3 3d 5f a3 50 be
       -0.101921335 -0.4166629 0.118830934 -0.20374821
000040 da 06 84 3e 0a 3b 89 3e a1 be 99 3e ed 09 bc 3d
       0.25786477 0.26802856 0.3002825 0.09181581
000050 8d d7 a3 be 67 03 d8 3e 0b 42 47 3e 16 af 88 bc
       -0.3200039 0.42190096 0.19458787 -0.01668505
000060 54 e0 2c 3e 11 09 4f 3e 10 62 a6 3e 95 65 76 3e
       0.1688245 0.20218302 0.3249669 0.24062188
000070 ae 22 18 3d a5 28 81 be b4 d4 b4 3e 3b a8 98 3d
       0.037142448 -0.25226322 0.3531853 0.074539624
000080 cc 6f f9 bd 6a fe 37 3e 0e 9f 52 3e 14 3c da 3c
       -0.12179527 0.17968145 0.20568487 0.026639976
000090 ff c0 72 3e e3 4f d6 3d e2 4e 57 3e 14 df 6f bd
       0.23706435 0.10464456 0.21026185 -0.058562353
0000a0 71 10 ba 3e 9e d6 1a 3e a1 9e 3f 3e 9d 09 37 3e
       0.3634067 0.15120932 0.18712856 0.17874761
0000b0 ad b6 03 be 71 9c 91 3e d8 44 85 3e 24 03 4e 3e
       -0.12862654 0.28439668 0.26029086 0.20118386
0000c0 92 de 0a be e2 23 2e 3d 2b 60 09 3e 43 e9 c9 3d
       -0.13561466 0.04251469 0.13415591 0.09858944
0000d0 49 de 2f 3e eb 2e 1d 3e 66 32 bb bd e1 e8 88 bb
       0.17174639 0.15349929 -0.09140472 -0.004178152
0000e0 35 f6 13 3e 81 87 af 3e 55 90 dd 3d 24 84 a4 3e
       0.1444939 0.3428307 0.10818545 0.32132065
0000f0 5d 0c 4b be 70 21 01 3e 66 ce ec 3e fe fc 82 3e
       -0.19828935 0.12610412 0.4625122 0.25583643
000100 8f f2 a8 3e f6 50 d1 3e 74 ee 88 3e b7 fc 78 3e
       0.32997558 0.4088208 0.26744425 0.24315153
000110 6d d6 9b 3d b7 6f a3 3e f7 0d 11 be 33 45 c5 3d
       0.07609258 0.3192117 -0.14165483 0.09632339
000120 a1 98 8c bc bf 15 3c 3e 95 34 12 3e f3 47 a4 3e
       -0.017162623 0.1836767 0.14277871 0.32086143
000130 fa 14 b0 3e f5 98 a9 3e 65 4f 25 3e 45 86 99 3e
       0.34391004 0.3312451 0.16143568 0.29985252
000140 72 67 13 3e 83 6a 2d 3d a1 dd 84 3e bc 37 04 3f
       0.1439493 0.042337906 0.2595034 0.51647544
000150 9a 97 f8 bc 38 63 8c bc 66 8e 89 bd 99 fb ab 3e
       -0.030345727 -0.017137155 -0.067166135 0.3359039
000160 31 11 b5 3e df e0 83 3e aa 95 71 3e c1 33 cb bc
       0.35364679 0.257575 0.23592249 -0.024804952
000170 07 42 a0 3e 75 b8 ca 3d c0 69 2a 3d 6e 4a ca 3e
       0.31300375 0.09898464 0.041604757 0.3950991
000180 3a 7f eb 3c 10 35 d0 be 21 0a c9 3e 2f 6a 28 3e
       0.02874719 -0.40665483 0.3926554 0.16446756
000190 f2 02 16 3e 36 a9 8a 3e ca 96 78 be f7 ea aa 3d
       0.14649561 0.27082223 -0.24276271 0.08345597
0001a0 03 62 09 3e c3 64 ca 3e 9d 94 f2 bd 46 36 ca 3d
       0.13416295 0.3953 -0.11844752 0.09873633
0001b0 a8 e2 db 3d 28 14 49 3e 47 3c 31 bd 47 49 91 3e
       0.107365906 0.19636595 -0.043270376 0.2837622
0001c0 0c 6b 20 bd d5 f8 50 3e fb ba d3 3d 46 07 c9 3e
       -0.039164588 0.20407422 0.10338398 0.39263362
0001d0 5b 20 81 be 20 97 e2 3d 98 63 3f 3e 92 72 36 be
       -0.25219998 0.11063981 0.18690336 -0.17817143
0001e0 1b f4 77 bc 88 d5 8a 3e d9 0d 61 3e 27 7c 96 3e
       -0.015133883 0.27116036 0.21977939 0.29391596
0001f0 b2 1a b4 3e 53 8c a5 3e dc 4f b3 3d 03 6d c6 3e
       0.35176617 0.3233362 0.08755466 0.38755044
000200 a9 0f f8 3d 21 45 b7 3e cc 3f 5b 3e b5 4e 1b 3e
       0.12112362 0.3579493 0.21411055 0.15166743
000210 4f 02 80 3e e5 c6 82 3e f4 7c 5f 3d 99 78 e1 3d
       0.2500176 0.2554237 0.054562524 0.1100933
000220 db 00 4b 3e eb 60 30 be a4 1f 8a 3e a4 c4 b4 3e
       0.19824545 -0.17224471 0.26977265 0.35306275
000230 39 e8 0d 3e cb 44 c7 3e a5 cb 3c bd d4 b3 f7 3d
       0.13858117 0.38919672 -0.046092648 0.12094846
000240 31 0b 7d bd dd 41 48 3e 1b 7a 50 bd b7 53 1f 3e
       -0.06177825 0.19556375 -0.0508977 0.15559278
000250 0a 8d 67 3d ad c7 70 3e ba 20 37 3e d4 66 8a 3e
       0.05653099 0.2351367 0.17883578 0.27031577
000260 19 60 48 3e ab 73 3b be 5f 68 9a 3e cc 23 5a 3e
       0.19567908 -0.18305843 0.30157754 0.21302718
000270 39 d5 88 3d 4d d9 1a 3e 4f a4 a4 be 7e 6d b9 3e
       0.06681294 0.15121956 -0.32156608 0.36216348
000280 06 8c 92 3e 90 a1 12 3e cc 9f 45 3e 86 95 6d 3d
       0.28622454 0.14319444 0.19299239 0.058003925
000290 ac 79 7c 3e 37 97 c6 3e 7f 69 ab 3e dc 3e 5d 3e
       0.24655789 0.38787243 0.33478925 0.2160601
0002a0 28 4e 8f 3e c4 ec 84 3d e1 06 01 3d 12 23 cb be
       0.27989316 0.06490472 0.0315007 -0.39675194
0002b0 ff 1e 95 3e 2d be 2b 3e f1 2d aa 3d b9 c9 28 3d
       0.2912521 0.16771765 0.08309544 0.041208003
0002c0 2e d8 a9 3e 44 af 03 be 33 66 04 3d d0 d6 82 3e
       0.33172745 -0.12859827 0.032324027 0.25554514
0002d0 c5 f6 54 3e 3e ad 2d 3d df 6c 51 3d a4 1c bc be
       0.2079726 0.042401545 0.05112922 -0.367406
0002e0 0d c9 c1 3e 84 f9 3f 3e 56 ac 28 be 70 16 43 3e
       0.37848702 0.18747526 -0.16471991 0.19051528
0002f0 00 9b 08 3e 35 10 2c be 73 3a 50 3e 14 03 c1 be
       0.13340378 -0.16803057 0.20334797 -0.3769766
000300 d4 cd f4 bb 56 60 96 bd 0d 87 9c 3b 0e b5 c8 bd
       -0.0074708257 -0.07342593 0.0047768415 -0.098001584
000310 dc 49 73 3e 03 95 2b 3e 6e f7 8a 3e e4 75 98 3e
       0.23758644 0.16756062 0.271419 0.29777443
000320 c6 a6 04 3e ca 46 c1 bc a3 2a 9d 3d f6 b7 02 be
       0.12954244 -0.023593325 0.07674148 -0.12765488
000330 ec 6b 96 3e 8e b6 2f 3e 0a 83 c7 3e 0d 3c 1c 3e
       0.29379213 0.17159483 0.38967162 0.15257283
000340 cd c0 43 3e 81 ee b1 3d 5e 3a 75 3d 54 dd 0c 3e
       0.19116516 0.08688069 0.059870116 0.13756305
000350 58 c3 9c 3d ad 27 9b 3e 35 a4 86 be b7 2c 54 be
       0.07654446 0.30303708 -0.26297155 -0.20720182
000360 21 7d 9e 3e 32 ee 96 3e a9 77 be 3e 61 87 c8 3e
       0.3095484 0.29478604 0.37200668 0.39165786
000370 38 73 c0 bd 68 3d bb 3e 12 a9 e1 bd 97 b7 55 3e
       -0.09396976 0.36570287 -0.11018576 0.20870815
000380 ac a2 44 3e 98 77 dd be ea 4f b0 3d 1e c8 10 3d
       0.1920268 -0.43255305 0.086089924 0.035347097
000390 1d a2 2c be 0b a5 1d 3e b9 f2 a4 3e 2c 34 9c be
       -0.16858716 0.1539499 0.32216433 -0.30508554
0003a0 38 83 29 3e df 05 95 3e 6a 2c 62 3e d1 6b a0 3e
       0.16553962 0.29106042 0.22087255 0.31332257
0003b0 4a 8e 80 bc 83 e1 47 3e 7d b6 87 3e 4c 7a d7 3e
       -0.015692849 0.1951962 0.26506415 0.42085493
0003c0 1b b1 13 3c c5 86 1f 3e 11 e4 06 3e c8 44 be 3e
       0.009014393 0.15578754 0.13172938 0.3716185
0003d0 eb 52 9c 3e 6d f6 21 3e bf cf a5 3e 49 30 e1 3e
       0.3053201 0.1581666 0.3238506 0.4398215
0003e0 f9 6d 81 3e b4 e9 39 3e 18 18 57 3e f2 82 00 3e
       0.25279215 0.18155557 0.21005285 0.12549952
0003f0 bc ea 89 bc b4 a1 52 3e 49 27 59 3c be 23 95 3b
       -0.016835563 0.20569497 0.013253995 0.00455138

network_body._body_endoder.seq_layers.4.bias f4 [256]
000000 52 7b d7 be 10 de 04 bf ef 3d bc be 5b da 67 be
       -0.42086273 -0.5190134 -0.36766002 -0.2264189
000010 de 1f 8b be ec 26 53 be 1b 85 f9 be 07 c8 86 bd
       -0.2717275 -0.20620316 -0.48734364 -0.06581121
000020 91 27 97 be aa d4 df be e4 8a a4 be b1 a9 f0 be
       -0.29522374 -0.43716937 -0.32137215 -0.47004464
000030 c6 57 d1 bd 3e c9 81 be 4e 17 c4 bd 2d a2 93 be
       -0.102218196 -0.25348848 -0.095747575 -0.28834668
000040 a4 cb 52 be 20 7a 0d be ac c0 26 be b0 00 9e be
       -0.20585495 -0.13816118 -0.16284436 -0.308599
000050 50 95 ae bd 0a 9c 21 be 67 ed cd be 03 3e 5f be
       -0.08524573 -0.1578218 -0.40220186 -0.21801
000060 48 4a 54 be c6 54 9f be e1 88 43 be d0 3f 9a bd
       -0.20731461 -0.31119365 -0.19095184 -0.075317025
000070 6d 5f 5b be 74 e6 ba be dc 82 f5 bd 3f 22 43 be
       -0.21423121 -0.36503947 -0.1198785 -0.19056033
000080 da 29 80 be e4 22 56 be 88 d0 f3 bd 38 1a fa bd
       -0.2503193 -0.20911747 -0.119050086 -0.12212032
000090 23 45 06 be 0a b1 92 be 79 98 98 be 3b 48 23 be
       -0.13112311 -0.28650695 -0.29803827 -0.15945522
0000a0 72 8a 52 bd 02 4f 69 be 2d 07 0c be 2b 68 e5 be
       -0.051401563 -0.22784045 -0.13674612 -0.44806036
0000b0 ac 0f f0 be 40 e9 60 be 8e f8 a6 be 24 d0 77 bd
       -0.46886957 -0.21963978 -0.32611507 -0.060501233
0000c0 e4 e3 f6 bd a2 a7 d5 be 11 7f 59 be cb ce 8e bd
       -0.120551854 -0.41729456 -0.21239878 -0.069730364
0000d0 fe 4d 3f be ca 67 a6 be 99 55 2f be 9d 18 13 be
       -0.18682095 -0.3250106 -0.17122497 -0.14364858
0000e0 4c 89 de be 1f 2e 8b be 74 0b 47 be bd a3 70 be
       -0.43464124 -0.27183625 -0.19437963 -0.23499961
0000f0 bf f3 66 be 54 b4 a5 bd 9f b5 13 be d3 c3 02 be
       -0.2255392 -0.080910355 -0.14424752 -0.12770014
000100 0b 25 dc be 90 90 af be 4b 77 83 be 15 57 a3 bd
       -0.42997012 -0.3428998 -0.2567695 -0.07975594
000110 50 50 3c be 33 10 c1 be 75 73 b9 be d2 f2 79 be
       -0.18390012 -0.37707672 -0.362209 -0.24409035
000120 97 e9 b6 be 52 1c e9 bd 8a 56 bf bd 47 d5 93 be
       -0.3572509 -0.11382355 -0.09342678 -0.28873655
000130 0d cf 28 be f4 50 ac bd 0a 34 9a bd ff 2f 42 be
       -0.16485234 -0.08413878 -0.07529457 -0.18963622
000140 fc de ce be 5c c0 64 be 73 d3 7e be 65 e1 ba bd
       -0.404045 -0.22339004 -0.24885349 -0.09125022
000150 4e 16 b6 be c9 00 85 be 25 d5 f2 bd f8 dc 0f be
       -0.35563892 -0.25977162 -0.1185706 -0.14049137
000160 7a d9 02 bf 61 1b 73 be ae 71 c9 be fa 6c 32 be
       -0.5111309 -0.23740913 -0.39344543 -0.17424384
000170 78 05 84 be fe ef c5 bd 14 06 04 bf b8 f6 6e be
       -0.25785422 -0.096649155 -0.51571774 -0.23336303
000180 27 41 84 be 3d bf 03 bf df a3 f5 bd b8 ad 93 be
       -0.25830957 -0.5146368 -0.119941466 -0.28843474
000190 32 97 e9 be 90 39 fc be be 05 86 be 71 20 9d be
       -0.45623165 -0.49262667 -0.26176256 -0.30688813
0001a0 56 00 b7 be b2 4a 7a be c2 2e 34 be 3c 0f 47 be
       -0.35742444 -0.24442557 -0.17595962 -0.19439405
0001b0 33 72 b9 bd 84 3a 82 be 3d 12 2a be a8 c6 4b bd
       -0.09054985 -0.2543527 -0.1660852 -0.04975
0001c0 42 9b 84 be 74 0b 11 be d1 b8 ad be c4 d2 69 bd
       -0.25899702 -0.14164525 -0.33930066 -0.057085767
0001d0 4b ff b1 bd 99 9f 2a be 83 28 b9 be 55 b4 51 be
       -0.086912714 -0.16662444 -0.3616372 -0.20478947
0001e0 e0 99 46 be 88 56 8f be 38 16 07 be 6f 6f 14 bd
       -0.19394636 -0.27995706 -0.1319207 -0.036239084
0001f0 34 30 16 be 7c e0 90 be 1c cf 53 bd d2 5c a3 be
       -0.14666826 -0.28296268 -0.051711187 -0.31906754
000200 e2 3f 93 be 3d 51 01 bf 70 1b 90 be 89 01 60 be
       -0.28759676 -0.50514585 -0.28145933 -0.21875586
000210 39 03 c0 be b2 0b c7 be 67 a5 f5 bd 8b 2c 7e be
       -0.3750246 -0.3887611 -0.119944386 -0.2482168
000220 56 46 f2 bc b5 d6 28 be 43 6a bc be 56 71 95 be
       -0.029574554 -0.16488154 -0.3679982 -0.2918803
000230 d5 f5 99 be 46 f9 b1 bd 6d dd e0 bd 34 28 c6 be
       -0.30070367 -0.08690123 -0.109797336 -0.38702548
000240 3c 8f d5 bd 0f fd a1 be a3 de e4 bd f3 5f ae be
       -0.104277104 -0.3163838 -0.11175277 -0.34057578
000250 0d da ed be e1 f6 83 be 59 29 a9 be b1 6b 84 be
       -0.46455422 -0.2577429 -0.33039358 -0.25863412
000260 5f 0c 90 be 49 7f 8f be 8c 4b 8a be b3 6a 0f be
       -0.28134438 -0.28026798 -0.27010763 -0.14005546
000270 3d 8e ac bd a7 ed 6b be b5 dd cb be 51 80 b4 bd
       -0.08425567 -0.23039876 -0.39817587 -0.08813537
000280 33 a8 4c be 14 42 8f be ab 2d 9a be 28 69 9f bc
       -0.19986038 -0.279801 -0.30112967 -0.019459322
000290 4c 56 d1 be 12 8c 06 be 94 b7 df bd 79 6b 3f be
       -0.40886152 -0.1313937 -0.109236866 -0.18693341
0002a0 59 53 86 be 04 07 1c be 51 29 8a bd dc d2 4c bd
       -0.26235464 -0.15237051 -0.06746162 -0.05000578
0002b0 d0 08 e0 bd e5 be 24 be 29 93 05 be ec 4b 79 be
       -0.10939181 -0.16088445 -0.13044418 -0.24345368
0002c0 44 f6 4d bd 9b 44 88 bd 48 30 a0 be 12 03 ca be
       -0.050283685 -0.066537105 -0.31286836 -0.39455467
0002d0 05 eb 05 be 8c 73 83 be b4 03 9b be c2 dc f6 bd
       -0.13077934 -0.25674093 -0.30276263 -0.12053825
0002e0 00 be ee be e9 8d a0 be f7 5a 12 be 49 7b 8d be
       -0.46629333 -0.3135827 -0.14292513 -0.27633122
0002f0 a6 2c 6f be 01 97 cd be 73 1c e8 be 1a 10 b9 be
       -0.23356876 -0.4015427 -0.45334205 -0.36145097
000300 1e 6f b3 be 16 11 5c be 88 bb 11 be 2c dc e3 bd
       -0.35045713 -0.21490893 -0.14231694 -0.11125979
000310 3a 2b 31 bd 47 c4 6b be 0e 08 95 be a4 5e ae be
       -0.043254115 -0.23024093 -0.29107708 -0.3405658
000320 d2 63 0b be 9b 68 eb bd 39 e2 9c be 2f c0 7d be
       -0.13612297 -0.11494561 -0.30641344 -0.24780343
000330 4c e9 10 be f6 f6 d3 be 6d e6 6e bd 99 c8 fc bd
       -0.14151496 -0.41399354 -0.05832522 -0.123429485
000340 4b d8 cf be 12 f1 97 be 07 8a 6b be c3 eb da bd
       -0.40594706 -0.2967611 -0.23001872 -0.10689499
000350 16 05 ff bd af a5 03 bf 47 a5 80 bd 27 15 f5 bd
       -0.12452142 -0.5142469 -0.06281524 -0.11966925
000360 75 38 33 be 47 3f ea bd 16 49 08 be 48 17 58 be
       -0.17502005 -0.114378504 -0.1330913 -0.21102631
000370 08 d4 b8 be 5c 21 20 be ac 46 70 be 17 51 40 be
       -0.36099267 -0.15637726 -0.23464459 -0.18780933
000380 cb 8f 9e be f3 d2 a5 be 59 b3 f4 bc 1e 45 de bd
       -0.3096908 -0.32387504 -0.029870676 -0.10853027
000390 bb 9f 0c be a7 b4 6c be 8d 0c d2 bd 0c 9a 9b be
       -0.13732807 -0.23115788 -0.102563 -0.30390966
0003a0 61 7f 86 be 25 ef c0 be 99 b0 3d be cd 5a c7 be
       -0.26269057 -0.37682453 -0.18524398 -0.38936463
0003b0 7a 4b 08 be 44 bd 47 be b0 93 31 be af 5d 96 be
       -0.13310042 -0.19505793 -0.17341495 -0.2936835
0003c0 3c 6a 30 be 6c 1f bf bd 72 1a bc be a0 5a a2 be
       -0.17228025 -0.09332165 -0.36738926 -0.31709766
0003d0 38 a9 dd bc e5 29 be bd e8 f8 99 be 87 9a e9 be
       -0.027058229 -0.092853345 -0.30072713 -0.45625708
0003e0 d1 46 83 be 26 cf f3 bd e2 b2 a6 be e4 16 49 be
       -0.25639966 -0.11904745 -0.32558352 -0.19637638
0003f0 41 fc b8 be 8e 44 ba be b9 17 f7 bd 8f 6d 39 be
       -0.36129954 -0.36380428 -0.120650716 -0.181082
