Usable_Data/Versuch_4-1.2/PKWParking/PKWParking-537144.onnx (onnx, 882958 bytes, 15 tensors)

discrete_act_size_vector f4 [1, 2]
4.0 3.0
00000000: 0000 8040 0000 4040

network_body.observation_encoder.processors.0.normalizer.running_mean f4 [315]
0.021817202 0.07582118 0.2629949 0.18601663 0.007534291 0.43461224 0.6446073 0.019059975
0.09520331 0.25797302 0.17713447 2.7925342e-05 0.44571227 0.6504774 0.021817202 0.05573728
0.27950174 0.19593568 0.0023382884 0.43747556 0.6380479 0.019059975 0.09740012 0.23055632
0.1673347 0.0 0.47811443 0.67779934 0.011263261 0.055158187 0.32259408 0.19166711
0.0053542317 0.40403223 0.64504033 0.010553924 0.094166175 0.23177886 0.18683971 0.0
0.4498467 0.6870585 0.008506085 0.052334186 0.32851836 0.14722644 0.005266735 0.43992814
0.6843461 0.0 0.09283159 0.26318607 0.19860548 2.9787101e-05 0.41225308 0.6988001
0.0 0.03777383 0.36307147 0.13867201 0.0050060907 0.43681493 0.72119135 0.0
0.073477454 0.26472172 0.14324236 0.0 0.45252237 0.7540946 0.0 0.0038164712
0.38659984 0.1202133 0.0 0.45821476 0.7795335 0.0 0.055415154 0.30253693
0.11404736 0.0 0.47609693 0.76896524 0.0 0.0010816435 0.34836957 0.10294247
0.0 0.50784546 0.82017386 0.0 0.0028111553 0.2792174 0.09674671 0.0
0.57537687 0.8172976 0.0 0.0 0.25805873 0.10091502 0.0 0.59841746
0.8281817 0.021822805 0.075839944 0.26307604 0.18605076 0.0075379997 0.4346105 0.64464456
0.019063786 0.09521833 0.2580639 0.17716649 2.9787148e-05 0.44571042 0.6505223 0.021822805
0.055757724 0.2795852 0.19597138 0.002340154 0.43747023 0.63808316 0.019063786 0.09741322
0.23062682 0.16735509 0.0 0.47814852 0.677863 0.011266978 0.055176966 0.32266653
0.19170035 0.005357963 0.4040416 0.64508003 0.010555807 0.09418339 0.23182015 0.1868677
0.0 0.44988984 0.6871354 0.008507931 0.05234899 0.328574 0.14726374 0.0052686096
0.43995377 0.6844091 0.0 0.09284639 0.26320493 0.19864447 1.4893543e-05 0.412323
0.69889265 0.0 0.037781265 0.36309567 0.13870753 0.005007961 0.43688223 0.7212753
0.0 0.07349414 0.26470888 0.14327233 0.0 0.4526079 0.7542138 0.0
0.003816473 0.3865981 0.12024877 0.0 0.45831215 0.77965903 0.0 0.055430017
0.30250493 0.11407153 0.0 0.47621238 0.76910824 0.0 0.0010835063 0.34833816
0.102975994 0.0 0.50797117 0.8203254 0.0 0.0028130221 0.27916652 0.09676331
0.0 0.5755335 0.81746566 0.0 0.0 0.25800472 0.1009373 0.0
0.59857714 0.82834995 0.02182838 0.075858556 0.26315796 0.18608394 0.0075417375 0.4346756
0.64475125 0.019067487 0.095233135 0.2581554 0.17719777 3.164877e-05 0.44577503 0.65063506
0.02182838 0.05577829 0.27966964 0.19600675 0.0023420074 0.43753183 0.638187 0.019067487
0.097426124 0.23071264 0.1673552 0.0 0.47825497 0.67799914 0.011270686 0.05519549
0.32276744 0.19171022 0.00536169 0.4041145 0.6451928 0.010557687 0.09419965 0.23188522
0.1868955 0.0 0.44997585 0.6872691 0.008509795 0.052363858 0.32865965 0.14730102
00000000: fdb9 b23c 2348 9b3d 44a7 863e 257b 3e3e
00000010: 37e2 f63b 7f85 de3e fc04 253f aa23 9c3c
00000020: f4f9 c23d 0a15 843e bd62 353e 3741 ea37
00000030: 6634 e43e b085 263f fdb9 b23c c64c 643d
00000040: da1a 8f3e 5da3 483e f83d 193b ccfc df3e
00000050: 1b57 233f aa23 9c3c b779 c73d f516 6c3e
00000060: ca59 2b3e 0000 0000 6acb f43e 4284 2d3f
00000070: 8a89 383c 8ded 613d 0d2b a53e 6244 443e
00000080: 8d72 af3b 50dd ce3e 5d21 253f 5eea 2c3c
00000090: 32da c03d 7057 6d3e e952 3f3e 0000 0000
000000a0: 4f52 e63e 11e3 2f3f 1b5d 0b3c 5f5c 563d
000000b0: 8f33 a83e 87c2 163e 9394 ac3b 433e e13e
000000c0: 4e31 2f3f 0000 0000 7d1e be3d 53c0 863e
000000d0: 3c5f 4b3e 50df f937 d612 d33e 90e4 323f
000000e0: 0000 0000 bbb8 1a3d 81e4 b93e 0900 0e3e
000000f0: 220a a43b 35a6 df3e ff9f 383f 0000 0000
00000100: 597b 963d 9b89 873e 20ae 123e 0000 0000
00000110: 03b1 e73e 580c 413f 0000 0000 c31d 7a3b
00000120: 6af0 c53e 6432 f63d 0000 0000 209b ea3e
00000130: 828f 473f 0000 0000 00fb 623d 1fe6 9a3e
00000140: aa91 e93d 0000 0000 fac2 f33e e8da 443f
00000150: 0000 0000 efc5 8d3a 7f5d b23e 80d3 d23d
00000160: 0000 0000 2902 023f eaf6 513f 0000 0000
00000170: 5c3b 383b 95f5 8e3e 2423 c63d 0000 0000
00000180: e64b 133f 6a3a 513f 0000 0000 0000 0000
00000190: 4620 843e 89ac ce3d 0000 0000 e331 193f
000001a0: b703 543f bdc5 b23c f951 9b3d e7b1 863e
000001b0: 1784 3e3e 5301 f73b 4485 de3e 6d07 253f
000001c0: a82b 9c3c d401 c33d f420 843e 226b 353e
000001d0: 6adf f937 2834 e43e a188 263f bdc5 b23c
000001e0: 3662 643d cb25 8f3e b9ac 483e 455d 193b
000001f0: 19fc df3e 6b59 233f a82b 9c3c 9580 c73d
00000200: 7029 6c3e 225f 2b3e 0000 0000 e2cf f43e
00000210: 6e88 2d3f 2299 383c 3e01 623d 8c34 a53e
00000220: 194d 443e da91 af3b 8ade ce3e f723 253f
00000230: 43f2 2c3c 39e3 c03d 4362 6d3e 3f5a 3f3e
00000240: 0000 0000 f657 e63e 1be8 2f3f d964 0b3c
00000250: e56b 563d da3a a83e 4ecc 163e 4da4 ac3b
00000260: 9f41 e13e 6f35 2f3f 0000 0000 4026 be3d
00000270: ccc2 863e 7569 4b3e 48df 7937 001c d33e
00000280: a1ea 323f 0000 0000 87c0 1a3d ade7 b93e
00000290: 5909 0e3e d219 a43b 07af df3e 80a5 383f
000002a0: 0000 0000 1884 963d ec87 873e fbb5 123e
000002b0: 0000 0000 39bc e73e 2814 413f 0000 0000
000002c0: cb1d 7a3b 30f0 c53e fd44 f63d 0000 0000
000002d0: e4a7 ea3e bc97 473f 0000 0000 960a 633d
000002e0: ede1 9a3e 569e e93d 0000 0000 1cd2 f33e
000002f0: 47e4 443f 0000 0000 7004 8e3a 6159 b23e
00000300: 14e5 d23d 0000 0000 660a 023f d800 523f
00000310: 0000 0000 ae5a 383b eaee 8e3e d82b c63d
00000320: 0000 0000 2a56 133f 6e45 513f 0000 0000
00000330: 0000 0000 3219 843e 37b8 ce3d 0000 0000
00000340: 5a3c 193f be0e 543f 6ed1 b23c bb5b 9b3d
00000350: a4bc 863e ca8c 3e3e ae20 f73b cd8d de3e
00000360: 6b0e 253f 6b33 9c3c 9709 c33d f22c 843e
00000370: 5573 353e 9cbe 0438 a03c e43e 0590 263f
00000380: 6ed1 b23c c777 643d dc30 8f3e feb5 483e
00000390: 5d7c 193b 2c04 e03e 3960 233f 6b33 9c3c
000003a0: 5987 c73d ef3f 6c3e 295f 2b3e 0000 0000
000003b0: d6dd f43e 5a91 2d3f afa8 383c ab14 623d
000003c0: c641 a53e af4f 443e 1eb1 af3b 19e8 ce3e
000003d0: 5b2b 253f 26fa 2c3c bfeb c03d 5273 6d3e
000003e0: 8961 3f3e 0000 0000 3c63 e63e def0 2f3f
000003f0: ab6c 0b3c 7c7b 563d 1446 a83e 14d6 163e

network_body.observation_encoder.processors.1.normalizer.running_mean f4 [13]
0.025808666 0.025808666 0.8288458 -0.6495168 0.031183725 0.4444376 0.0 0.047054198
0.018216707 0.026640486 0.04649 -0.0024104677 0.011763549
00000000: b26c d33c b26c d33c 3d2f 543f bc46 26bf
00000010: 0375 ff3c 538d e33e 0000 0000 e7bb 403d
00000020: 343b 953c 263d da3c 4c6c 3e3d f0f8 1dbb
00000030: e7bb 403c

network_body._body_endoder.seq_layers.0.weight f4 [256, 328]
-0.06179425 0.1763944 -0.003413305 0.09886226 0.10103565 0.043979134 0.044685416 0.20548293
-0.005900028 -0.033418193 0.02644094 0.093719974 0.047501218 0.0847387 0.076148935 -0.011019054
-0.046919007 0.11525004 0.108363286 -0.006271576 -0.03153053 -0.027450897 0.020599023 0.037687033
-0.0067167706 -0.04649304 0.07258567 0.03516198 -0.015969748 0.091854155 -0.014663468 -0.006812854
-0.0014666619 -0.1264938 0.039888512 0.049331952 0.008057579 -0.01842893 0.12440071 -0.04378541
-0.054945316 0.030316107 0.05146567 0.037475713 0.045901943 0.021779452 0.053251747 -0.09474614
0.15608323 0.025285553 0.08563625 0.03650008 0.015033733 0.08875983 -0.08535386 0.1069117
-0.06596716 -0.025300687 0.05797987 -0.042681426 0.09496093 0.0030080087 0.039422594 -0.002643057
0.047633436 0.05873272 -0.01650343 -0.003208795 0.005474886 0.110898234 -0.010699846 0.024078663
0.00084237347 0.05801764 -0.074131146 -0.025617704 0.009742948 0.064919814 -0.013077552 0.19458377
-0.018191222 -0.06558676 0.015618379 0.022669611 -0.032020584 0.15147877 0.020603469 -0.009228927
-0.031515904 0.06830594 0.07103864 -0.054656103 -0.03556237 0.116458625 -0.02659311 0.05659618
0.011444684 0.05795419 -0.04270456 0.12598939 0.00841765 0.07346784 -0.033956397 -0.046739288
-0.045567133 0.07736186 0.09051144 -0.0038223255 -0.12185753 -0.008076716 0.031517375 0.13595194
-0.0018702184 -0.012906554 0.028898176 -0.081019394 0.0024812894 0.0006998987 0.029500801 0.05474427
-0.06088478 -0.011275088 0.06798444 0.041731216 -0.096392564 -0.15071872 0.029565154 -0.07294832
0.053007655 -0.0825717 -0.06925598 0.07533613 0.057837304 -0.009522981 -0.02883394 0.019948982
0.02633137 0.012114047 0.09060368 -0.07488887 0.14684588 0.027430687 -0.03969307 0.05653411
-0.008802821 -0.044806335 -0.022539191 0.02315186 0.057740036 -0.005951731 -0.10705365 0.035075657
0.030197227 -0.00076400966 -0.0018895161 0.00402756 0.04311684 -0.040019706 -0.0066260556 0.014451941
-0.010147083 0.015046866 -0.03298557 -0.010754462 -0.09103721 0.04514282 -0.040109023 0.035536338
-0.063345425 0.003847042 -0.013081238 -0.029453512 0.02232702 0.059903152 0.13081004 -0.017253833
-0.020262554 0.021144405 0.123364024 0.19051719 -0.053600065 0.060422137 -0.08198861 -0.03701984
0.061195917 0.0012807265 -0.010515357 -0.050581917 -0.06022002 -0.10866999 0.0062607094 0.06397873
0.087558284 -0.029554792 0.061079793 -0.008258412 0.15522748 0.06759671 0.105162255 -0.11077016
0.008419625 -0.030046597 -0.013239292 -0.018309915 -0.04144132 0.07141006 0.060277615 -0.13045578
-0.12741143 -0.018738361 -0.030984938 -0.03243029 0.005518287 -0.07491439 -0.020572247 0.023647815
-0.02764725 0.0025068566 0.08100664 0.024363266 -0.0054524774 0.08805876 -0.044201367 0.029977081
0.03979845 -0.0031426938 -0.015866539 0.026249463 0.1155946 -0.005168145 0.06060792 0.0075211707
0.018620955 -0.026668457 -0.0036779551 -0.010144657 0.12356747 0.08305422 0.026993418 0.016366499
-0.034941304 -0.09424942 0.027347809 0.07728812 0.078148395 0.028937595 0.113681674 -0.049703322
0.0324655 -0.033473425 0.07741664 -0.03524833 -0.095468014 0.11727182 -0.022696165 -0.06596447
00000000: f81b 7dbd bca0 343e c1b1 5fbb 4c78 ca3d
00000010: c7eb ce3d 7723 343d 0e08 373d 1e6a 523e
00000020: 0655 c1bb 84e1 08bd ac9a d83c 42f0 bf3d
00000030: a390 423d 7c8b ad3d f9f3 9b3d 4389 34bc
00000040: 252e 40bd 3708 ec3d 92ed dd3d cb81 cdbb
00000050: 2826 01bd b4e0 e0bc 48bf a83c b85d 1a3d
00000060: 5b18 dcbb 7c6f 3ebd cca7 943d 0206 103d
00000070: fdd2 82bc 081e bc3d 0b3f 70bc 5d3e dfbb
00000080: 023d c0ba 9787 01be 2362 233d 4d10 4a3d
00000090: f003 043c 44f8 96bc cdc5 fe3d 5458 33bd
000000a0: 570e 61bd 7c59 f83c abcd 523d 2280 193d
000000b0: ad03 3c3d d26a b23c 811e 5a3d 440a c2bd
000000c0: 48d4 1f3e a623 cf3c 0f62 af3d 1c81 153d
000000d0: 0c50 763c b7c7 b53d 01ce aebd 85f4 da3d
000000e0: ca19 87bd 6343 cfbc 4d7c 6d3d b8d2 2ebd
000000f0: e07a c23d 0322 453b 9679 213d 2337 2dbb
00000100: 471b 433d b891 703d 3432 87bc a64a 52bb
00000110: ac66 b33b 9d1e e33d 684e 2fbc 9e40 c53c
00000120: bad2 5c3a e8a3 6d3d 12d2 97bd 38dc d1bc
00000130: e3a0 1f3c aef4 843d 3b43 56bc f840 473e
00000140: c205 95bc 5a52 86bd 3be4 7f3c 9fb5 b93c
00000150: 0428 03bd 401d 1b3e 9bc8 a83c ed34 17bc
00000160: d216 01bd fce3 8b3d b57c 913d 14df 5fbd
00000170: d9a9 11bd dc81 ee3d cbd9 d9bc 65d1 673d
00000180: 7c82 3b3c 5f61 6d3d faea 2ebd 5d03 013e
00000190: 2fea 093c 4f76 963d dd15 0bbd b271 3fbd
000001a0: 9aa4 3abd e56f 9e3d 105e b93d fb7f 7abb
000001b0: 7190 f9bd 3454 04bc 5d18 013d fc36 0b3e
000001c0: 1e22 f5ba 0376 53bc debb ec3c 7fed a5bd
000001d0: 219d 223b 6879 373a aaab f13c 873b 603d
000001e0: 5262 79bd 26bb 38bc 6d3b 8b3d 5aee 2a3d
000001f0: 7769 c5bd 0256 1abe 9f32 f23c ee65 95bd
00000200: 8e1e 593d 5a1b a9bd 14d6 8dbd d449 9a3d
00000210: cfe6 6c3d 4706 1cbc 2835 ecbc 0c6c a33c
00000220: e3b4 d73c ff79 463c 6c8e b93d 565f 99bd
00000230: c45e 163e 52b6 e03c 3395 22bd 5090 673d
00000240: b539 10bc d986 37bd 1ca4 b8bc f8a8 bd3c
00000250: d180 6c3d bd06 c3bb f23e dbbd 7eab 0f3d
00000260: 2d60 f73c d247 48ba a4a9 f7ba 9ff9 833b
00000270: 499b 303d b4eb 23bd 621f d9bb d5c7 6c3c
00000280: f33f 26bc 2187 763c e11b 07bd 7c33 30bc
00000290: b771 babd ade7 383d 5c49 24bd 8d8e 113d
000002a0: 3fbb 81bd a81e 7c3b b052 56bc 7e48 f1bc
000002b0: 28e7 b63c 025d 753d 11f3 053e e957 8dbc
000002c0: a8fd a5bc 0837 ad3c 47a6 fc3d f016 433e
000002d0: be8b 5bbd 347d 773d a5e9 a7bd 1ea2 17bd
000002e0: 92a8 7a3d 0dde a73a 9b48 2cbc fc2e 4fbd
000002f0: 45a9 76bd 5f8e debd a326 cd3b 4807 833d
00000300: c251 b33d e41c f2bc ce2e 7a3d 4a4e 07bc
00000310: f4f3 1e3e 2570 8a3d 4f5f d73d 77db e2bd
00000320: 78f2 093c 4824 f6bc 9ee9 58bc adfe 95bc
00000330: 60be 29bd 703f 923d a9e5 763d 3396 05be
00000340: 2478 02be 3181 99bc 20d4 fdbc a0d5 04bd
00000350: bfd2 b43b b76c 99bd 2187 a8bc 10b9 c13c
00000360: 7c7c e2bc 134a 243b cfe6 a53d 7995 c73c
00000370: b2aa b2bb 2758 b43d 7e0c 35bd 7f92 f53c
00000380: b303 233d a7f5 4dbb 8bfa 81bc 1d09 d73c
00000390: ddbc ec3d 8b59 a9bb 0340 783d 2774 f63b
000003a0: f98a 983c cf77 dabc d909 71bb c735 26bc
000003b0: f110 fd3d 5518 aa3d 4d21 dd3c 0913 863c
000003c0: 9d1e 0fbd d705 c1bd 8308 e03c 3c49 9e3d
000003d0: 440c a03d 890e ed3c f0d1 e83d b695 4bbd
000003e0: 8bfa 043d 6e1b 09bd 9e8c 9e3d 8e60 10bd
000003f0: bc84 c3bd 352c f03d 4fed b9bc 6118 87bd

network_body._body_endoder.seq_layers.0.bias f4 [256]
-0.03477578 -0.059566904 0.012965335 -0.043816745 -0.033310067 -0.047707763 -0.03487793 -0.01525569
-0.026552066 -0.012073863 0.005245591 -0.011732616 -0.006936245 -0.02518567 -0.021548111 -0.0009190691
-0.047393024 0.0064514787 -0.03876196 -0.027873011 -0.003036571 -0.050874196 -0.03404155 -0.016434086
-0.024215002 -0.03414039 -0.06074636 -0.024583854 -0.05023448 -0.0066977073 0.04139972 -0.039312556
0.0032715243 0.008165871 -0.049101993 -0.024247225 -0.013610515 -0.042366967 -0.067570575 -0.05016253
-0.005660101 -0.015224044 -0.031050602 -0.048520867 -0.024454642 -0.015114802 -0.07188299 -0.098978184
-0.046527505 -0.028890038 0.01089438 -0.0014901747 -0.03423674 -0.04493507 -0.047236845 -0.0067024315
0.00044524137 -0.017497504 -0.010836921 -0.04194291 0.01820513 0.053129654 -0.056882292 -0.036728084
-0.044596672 -0.01656685 -0.025244592 -0.05545481 0.03035529 -0.019838456 -0.0056790323 -0.00083486526
-0.06282117 -0.010123546 -0.001322338 0.009506836 0.0044050505 -0.0066701923 0.0121242935 -0.033432588
-0.017957367 0.0028023904 -0.05524937 0.021655252 -0.03783485 -0.052069616 -0.02861074 0.0019412957
-0.02263253 0.015398918 -0.02840396 -0.021090735 0.008457602 -0.008842175 0.021874523 0.0035960297
-0.012314814 -0.043055866 -0.047469262 0.009073025 -0.052547753 -0.0091115255 -0.00023671846 -0.018269721
-0.037490144 -0.023374302 -0.0056009917 0.011002289 -0.035287913 -0.091544725 -0.02282812 -0.0068024294
-0.024889715 -0.045842946 -0.03941764 -0.040907726 -0.007902449 -0.009457911 -0.067547835 0.0064215297
-0.0933946 -0.012485341 -0.03837725 -0.007314017 -0.01799839 -0.009522713 -0.05260915 -0.065653265
-0.013927387 -0.03100897 -0.029516665 -0.036877725 -0.0008833609 -0.03632941 -0.009581934 -0.014813575
-0.036265526 -0.04021712 0.003986377 -0.07794179 -0.002719394 -0.0009876478 -0.02337667 -0.036488343
-0.011598853 -0.0041799275 -0.027741572 -0.046747327 -0.017822709 -0.021048864 -0.024935935 -0.011400242
-0.024524724 0.007076444 -0.014954856 -0.019161463 0.011088299 -0.049983583 -0.01259687 0.027094116
-0.04522631 -0.048193213 -0.03526429 -0.023261128 -0.03079213 -0.071663514 -0.0206868 0.007832397
-0.006662987 -0.021178037 -0.0033708783 -0.035669513 -0.043658383 -0.055642843 0.0014160033 -0.017857647
-0.051971707 -0.02920582 -0.010991607 -0.032410044 -0.033054568 -0.019966248 -0.0026325353 0.03054376
-0.09247766 -0.051318962 -0.04819739 -0.061272044 -0.051319204 -0.027135327 0.01052182 -0.009599619
0.009839566 -0.030688152 -0.046275854 -0.020506047 -0.00671867 -0.01085775 0.022335071 -0.03713196
-0.04886134 -0.009169098 -0.029529205 0.0054558064 -0.08026034 -0.041518014 -0.031302206 -0.024593571
-0.02848825 0.0005007073 -0.07280584 -0.03988819 -0.04228464 0.055190302 -0.02140056 0.021020439
-0.01814294 -0.017165886 -0.047873896 -0.009064262 -0.029414853 -0.037833024 -0.06629818 -0.05958689
0.0042857137 -0.038859 -0.020148221 0.023271462 -0.009758259 0.026667336 -0.040403154 0.007475324
-0.045218784 -0.01956008 -0.065064654 -0.059236977 -0.05850795 -0.028901571 -0.037331298 -0.031394925
0.0044708652 -0.04886758 0.019766014 0.0002539753 0.0151107125 -0.040380858 -0.022915564 -0.035003353
0.026448505 -0.015655175 0.041104157 -0.03937991 -0.04394619 -0.036823474 0.015370452 -0.03429318
00000000: 0c71 0ebd 6dfc 73bd 8e6c 543c 3079 33bd
00000010: 2370 08bd 3769 43bd 29dc 0ebd 00f3 79bc
00000020: b883 d9bc 74d1 45bc 35e3 ab3b 293a 40bc
00000030: 7149 e3bb 2e52 cebc aa85 b0bc afed 70ba
00000040: 301f 42bd ed66 d33b dcc4 1ebd f155 e4bc
00000050: 3501 47bb 7661 50bd 276f 0bbd c7a0 86bc
00000060: 8a5e c6bc cbd6 0bbd 2dd1 78bd 1464 c9bc
00000070: acc2 4dbd 7178 dbbb c192 293d 3406 21bd
00000080: 1267 563b 25ca 053c 2c1f 49bd 1ea2 c6bc
00000090: a3fe 5ebc fc88 2dbd 7162 8abd 3a77 4dbd
000000a0: 5e78 b9bb 456e 79bc d55d febc d1bd 46bd
000000b0: 1a55 c8bc 13a4 77bc 6437 93bd 13b5 cabd
000000c0: a093 3ebd cdaa ecbc 577e 323c f751 c3ba
000000d0: d33b 0cbd d60d 38bd 6c7b 41bd 12a0 dbbb
000000e0: 496f e939 ed56 8fbc 578d 31bc 54cc 2bbd
000000f0: ed22 953c 7b9e 593d 68fd 68bd 3070 16bd
00000100: 00ab 36bd 34b7 87bc bfcd cebc 9524 63bd
00000110: a8ab f83c 4284 a2bc 2d17 babb dcda 5aba
00000120: 63a8 80bd 3bdd 25bc 4d52 adba 8fc2 1b3c
00000130: 3e58 903b a191 dabb f9a4 463c 9cf0 08bd
00000140: 541b 93bc 4fa8 373b 2a4d 62bd 5b66 b13c
00000150: b7f8 1abd f346 55bd 1261 eabc 1373 fe3a
00000160: db67 b9bc be4b 7c3c 6caf e8bc 7ac6 acbc
00000170: c191 0a3c c5de 10bc 3332 b33c 5eab 6b3b
00000180: 13c4 49bc 595b 30bd 216f 42bd 06a7 143c
00000190: 503c 57bd 8248 15bc a137 78b9 62aa 95bc
000001a0: 448f 19bd 777b bfbc 8688 b7bb f242 343c
000001b0: 0f8a 10bd cd7b bbbd 0a02 bbbc eae6 debb
000001c0: 84e5 cbbc d0c5 3bbd 6474 21bd dc8e 27bd
000001d0: 4679 01bc 5bf5 1abc 8556 8abd b26b d23b
000001e0: ab45 bfbd 518f 4cbc 7731 1dbd 6caa efbb
000001f0: 5c71 93bc 2705 1cbc b17c 57bd 3875 86bd
00000200: b22f 64bc 8606 febc efcc f1bc 190d 17bd
00000210: 5991 67ba 26ce 14bd 8bfd 1cbc a3b4 72bc
00000220: 298b 14bd b5ba 24bd 27a0 823b f29f 9fbd
00000230: dc37 32bb f673 81ba 6e80 bfbc cd74 15bd
00000240: 1e09 3ebc c6f7 88bb 4b42 e3bc 207a 3fbd
00000250: ee00 92bc ab6e acbc 7246 ccbc 15c8 3abc
00000260: 13e8 c8bc 84e1 e73b 3605 75bc 80f8 9cbc
00000270: b2ab 353c 96bb 4cbd 1a63 4ebc 7bf4 dd3c
00000280: 393f 39bd 3f66 45bd 4a71 10bd 1f8e bebc
00000290: c73f fcbc 52c4 92bd 5d77 a9bc 7453 003c
000002a0: 3055 dabb 907d adbc f4e9 5cbb 321a 12bd
000002b0: 22d3 32bd c0e9 63bd 3099 b93a 334a 92bc
000002c0: 49e0 54bd 0b41 efbc 2416 34bc 65c0 04bd
000002d0: 3a64 07bd 4290 a3bc 9d86 2cbb e836 fa3c
000002e0: ed64 bdbd d533 52bd a06a 45bd 65f8 7abd
000002f0: 1634 52bd e84a debc b663 2c3c b847 1dbc
00000300: 2236 213c b865 fbbc c08b 3dbd 4cfc a7bc
00000310: 4a28 dcbb b4e4 31bc 0af8 b63c af17 18bd
00000320: d422 48bd fc39 16bc 3be7 f1bc 9fc6 b23b
00000330: 885f a4bd cb0e 2abd be36 00bd 7578 c9bc
00000340: 3160 e9bc e641 033a 3a1b 95bd cc61 23bd
00000350: a932 2dbd 3a0f 623d 3a50 afbc 0e33 ac3c
00000360: 81a0 94bc 799f 8cbc 6b17 44bd 4582 14bc
00000370: 6bf7 f0bc cdf6 1abd 57c7 87bd 6211 74bd
00000380: 2c6f 8c3b 9d2a 1fbd e20d a5bc cba3 be3c
00000390: 1be1 1fbc 7575 da3c c77d 25bd 90f3 f43b
000003a0: 5537 39bd 763c a0bc 9e40 85bd 79a2 72bd
000003b0: 08a6 6fbd fdc2 ecbc b4e8 18bd f797 00bd
000003c0: 5680 923b 5f29 48bd 56ec a13c fd27 8539
000003d0: ec92 773c 6666 25bd 6cb9 bbbc ad5f 0fbd
000003e0: 89aa d83c 483f 80bc d55c 283d d44c 21bd
000003f0: ec00 34bd 36d4 16bd 59d4 7b3c 0177 0cbd

network_body._body_endoder.seq_layers.2.weight f4 [256, 256]
0.053713027 -0.10654377 0.02036857 -0.13289993 0.033164464 -0.012020533 -0.097011134 -0.009782148
-0.016028736 0.01233747 0.02913181 -0.031069346 -0.0046913503 -0.00068824465 -0.073510095 0.04205808
0.007538541 -0.07730951 0.0136747835 0.025990544 -0.07732755 0.04482582 -0.09548687 -0.107457586
0.029644296 -0.065194026 -0.024793312 0.0064776875 -0.018907374 0.02374257 0.07017542 -0.11998078
-0.002763382 -0.014271993 0.06706886 -0.04703099 -0.09343789 -0.038013257 -0.012446392 0.05955109
-0.11935609 -0.2070872 0.019612968 0.015464947 -0.014844046 0.052934807 0.10628794 0.028733786
0.066311866 0.009121885 -0.054619063 -0.07821965 -0.05254624 -0.07763544 0.16293491 -0.008809458
-0.04298236 0.048058946 -0.03039695 0.0068270448 0.0052873697 -0.118907176 -0.0015414001 0.08423932
-0.003886927 0.033833746 0.046687875 -0.07319846 0.0053007277 -0.032085694 -0.07074579 -0.10902393
-0.03854046 0.034313884 0.01189815 -0.045700315 -0.049657773 -0.057623833 -0.046343584 0.003633584
-0.028672969 -0.027797006 0.098954424 -0.024580691 0.02744181 0.09594244 -0.024580617 -0.10556585
-0.053306367 0.00040661712 -0.043438423 0.042246424 -0.037207097 -0.14486887 -0.08667946 -0.06660045
0.021744573 0.04510336 0.019123018 -0.0012156795 -0.026159193 0.10576396 -0.06228278 -0.020385941
0.011702011 0.027109737 0.009710712 -0.03440151 -0.063433975 0.106266946 -0.041418027 -0.060101524
-0.075057715 -0.11255198 0.019476179 0.0022662105 -0.024920616 0.030493645 0.10566372 -0.042570118
0.09933658 0.0023604191 0.03331922 -0.067510985 -0.026653463 -0.02887389 0.039538864 -0.052433703
-0.04936097 0.04090878 0.031445596 -0.03887222 0.05025105 -0.060907435 -0.12297365 -0.0010527429
-0.09533044 0.02619793 -0.12099543 -0.027063979 -0.06719591 -0.06988179 0.06508194 -0.05079323
-0.04401354 -0.019420888 0.015517984 -0.1416752 -0.042266756 -0.07229405 -0.071104534 0.09722607
0.13583529 -0.009626696 0.09763402 0.07802026 -0.08612344 0.056596853 0.08466841 -0.08502451
-0.14499035 0.008654439 0.07121391 -0.009652514 0.10111737 0.18967003 0.021335112 -0.02978304
-0.02537915 0.002084349 0.03293067 0.03837205 0.014128968 -0.035305817 0.0059441538 -0.010304628
0.00849278 0.06757867 -0.045304265 0.060266286 0.11347434 -0.08972519 0.04570736 -0.050051056
-0.051974025 -0.08262778 -0.02821623 0.05006816 0.0030966257 -0.0408383 0.025215464 -0.011984578
-0.13194284 0.0887104 -0.02438007 -0.059058182 -0.026300594 -0.07550544 -0.044311542 -0.1072912
0.042443775 -0.02905546 0.042041678 -0.055150393 0.157407 0.119572334 0.014843666 -0.026002245
-0.06439587 -0.0734483 -0.029942276 0.0006456151 0.036801174 -0.042757902 0.052598074 0.021874942
-0.0050292737 -0.08721316 0.013788888 -0.10933284 -0.08646064 -0.12658238 0.029927097 0.08989562
-0.13407132 -0.025865603 -0.087436005 0.052795064 -0.052176572 -0.041399755 -0.1064109 -0.029779848
-0.039465353 -0.09909184 0.088097475 0.098715484 0.055639867 0.018769236 0.083039775 -0.09020271
0.039054833 -0.026428903 0.08115947 -0.0032465467 -0.02445704 0.088555396 -0.14728619 -0.033347573
-0.013886266 0.15114741 -0.117980845 -0.07860994 -0.018394848 0.119812734 0.010256512 0.03427363
00000000: 3102 5c3d 9f33 dabd fddb a63c eb16 08be
00000010: 76d7 073d c5f1 44bc c6ad c6bd 4d45 20bc
00000020: b24e 83bc 1a23 4a3c d5a5 ee3c 2485 febc
00000030: e6b9 99bb 516b 34ba 768c 96bd 1845 2c3d
00000040: de05 f73b 7354 9ebd 330c 603c 1fea d43c
00000050: e85d 9ebd 479b 373d 9f8e c3bd b912 dcbd
00000060: 98d8 f23c 7284 85bd 581b cbbc c842 d43b
00000070: a3e3 9abc c77f c23c 21b8 8f3d 7cb8 f5bd
00000080: db19 35bb 14d5 69bc 665b 893d 91a3 40bd
00000090: 5d5c bfbd cab3 1bbd f4eb 4bbc d8eb 733d
000000a0: f770 f4bd ab0e 54be 60ab a03c b060 7d3c
000000b0: 7134 73bc 2bd2 583d 7ead d93d 1e63 eb3c
000000c0: 84ce 873d f573 153c 3db8 5fbd a031 a0bd
000000d0: ba3a 57bd 54ff 9ebd 69d8 263e 8c55 10bc
000000e0: 450e 30bd 75d9 443d 0603 f9bc 67b5 df3b
000000f0: ac41 ad3b 9b85 f3bd ce08 caba aa85 ac3d
00000100: d0bb 7ebb 4195 0a3d c93b 3f3d 13e9 95bd
00000110: bab1 ad3b 4a6c 03bd 2be3 90bd f047 dfbd
00000120: 9adc 1dbd b78c 0c3d 75f0 423c 4130 3bbd
00000130: f365 4bbd f806 6cbd c5d2 3dbd 6c21 6e3b
00000140: 93e3 eabc 8cb6 e3bc 9ea8 ca3d 725d c9bc
00000150: a6cd e03c 787d c43d 4a5d c9bc e932 d8bd
00000160: c757 5abd 3a2f d539 7dec 31bd 960a 2d3d
00000170: 7866 18bd 8158 14be 0085 b1bd d165 88bd
00000180: ad21 b23c 4dbe 383d e0a7 9c3c 6f57 9fba
00000190: ce4b d6bc c69a d83d 3a1c 7fbd 6b00 a7bc
000001a0: cbb9 3f3c 3d15 de3c ae19 1f3c 99e8 0cbd
000001b0: ace9 81bd 7ca2 d93d f3a5 29bd 042d 76bd
000001c0: dcb7 99bd a781 e6bd 828c 9f3c b484 143b
000001d0: 5226 ccbc cfcd f93c 3866 d83d 015e 2ebd
000001e0: fa70 cb3d 43b1 1a3b bc79 083d 3343 8abd
000001f0: 5d58 dabc f088 ecbc 81f3 213d b9c4 56bd
00000200: ba2e 4abd f78f 273d 19cd 003d 7a38 1fbd
00000210: 0cd4 4d3d 137a 79bd 9cd9 fbbd 31fc 89ba
00000220: 9b3c c3bd 0b9d d63c 74cc f7bd 47b5 ddbc
00000230: 029e 89bd 2f1e 8fbd ae49 853d 900c 50bd
00000240: 8b47 34bd 8e18 9fbc 243f 7e3c 4e13 11be
00000250: e81f 2dbd e70e 94bd 419f 91bd 761e c73d
00000260: 6818 0b3e 4ab9 1dbc 58f4 c73d 16c9 9f3d
00000270: 7c61 b0bd 1ad2 673d a266 ad3d 5521 aebd
00000280: 5a78 14be 59cb 0d3c 99d8 913d 9425 1ebc
00000290: a016 cf3d dc38 423e f9c6 ae3c 90fb f3bc
000002a0: efe7 cfbc 9399 083b 4fe2 063d 032c 1d3d
000002b0: 307d 673c d59c 10bd 2dc7 c23b bed4 28bc
000002c0: 4d25 0b3c b066 8a3d f790 39bd c8d9 763d
000002d0: 3c65 e83d d7c1 b7bd a437 3b3d 5602 4dbd
000002e0: b7e2 54bd c138 a9bd b925 e7bc 4514 4d3d
000002f0: c2f0 4a3b 1046 27bd a990 ce3c f75a 44bc
00000300: 061c 07be ccad b53d b6b8 c7bc fee6 71bd
00000310: 5874 d7bc 99a2 9abd 0580 35bd 7dbb dbbd
00000320: 86d9 2d3d b705 eebc e533 2c3d 61e5 61bd
00000330: 4d2f 213e 57e2 f43d d932 733c a902 d5bc
00000340: fbe1 83bd 106c 96bd 8149 f5bc 7f3e 293a
00000350: d4bc 163d e922 2fbd 1471 573d 1433 b33c
00000360: 9bcc a4bb d09c b2bd caea 613c e5e9 dfbd
00000370: 4712 b1bd d09e 01be ac29 f53c 321b b83d
00000380: fe49 09be 1ae4 d3bc a611 b3bd a33f 583d
00000390: 1ab7 55bd ca92 29bd f5ed d9bd def4 f3bc
000003a0: 6ca6 21bd aaf0 cabd 736c b43d 582b ca3d
000003b0: a1e6 633d f1c1 993c c210 aa3d 33bc b8bd
000003c0: f6f7 1f3d 6d81 d8bc f036 a63d 04c4 54bb
000003d0: 215a c8bc 885c b53d 31d2 16be 7797 08bd
000003e0: 3983 63bc 63c6 1a3e f19f f1bd 40fe a0bd
000003f0: cbb0 96bc 6160 f53d ee0a 283c 8162 0c3d

network_body._body_endoder.seq_layers.2.bias f4 [256]
-0.06249959 -0.012637078 -0.00452954 -0.013054647 -0.037055634 0.015738962 -0.013014981 0.0069631916
-0.015476792 -0.013326367 -0.019892277 0.023213211 -0.033883423 -0.012136492 -0.060372915 -0.028627347
-0.0069573824 -0.031119255 -0.0045727966 -0.08727885 0.020942759 0.01523246 -0.043019626 -0.040054884
-0.004387485 -0.012905974 -0.06086859 -0.052386027 0.026450053 0.009672215 -0.03997487 -0.036546793
-0.001041935 -0.022548096 -0.061053902 -0.014753853 -0.033607963 0.029249381 -0.034014717 0.01762365
-0.01690878 -0.005242657 -0.019318165 -0.03367652 0.007183484 0.0029639462 -0.021942703 -0.065807216
-0.06373431 -0.048812564 -0.018752152 -0.027001107 -0.06386394 -0.08813215 -0.021465965 -0.014751477
0.00070196163 -0.020571226 0.010242362 0.03001776 -0.0020031212 -0.01337554 -0.011110881 -0.003560228
0.032337572 -0.07199245 -0.07924327 -0.029153366 0.012696351 -0.010689788 0.0034019724 -0.014297751
0.013429503 -0.08170191 -0.006430891 0.035113193 -0.039604954 0.03381342 -0.009530134 -0.013089016
0.017513206 -0.008247908 -0.0044819466 -0.03693024 -0.036695097 -0.03231953 0.02202074 0.034332722
-0.016221758 -0.032025747 -0.053577315 -0.04771133 -0.054420657 -0.06471755 0.019976446 -0.013895403
-0.010539285 -0.016198581 -0.031482026 -0.0040558535 0.0091160415 -0.0149651235 -0.033812303 -0.026232937
-0.091761746 -0.04707315 -0.02777633 0.011836282 -0.046265334 -0.060192734 -0.03887851 -0.05502881
-0.032890983 -0.09304152 -0.0048170337 -0.026103426 0.001711787 -0.017203702 0.01628582 -0.047365718
-0.010341216 0.008926801 -0.086549945 -0.03602793 0.006398559 -0.09295183 -0.01968595 -0.038118724
-0.008245507 -0.032295633 0.018687507 -0.029586202 0.013065882 -0.035038542 -0.031959467 -0.031853702
-0.008933143 -0.007813308 -0.025090627 -0.026229627 -0.02589269 0.022676032 -0.035162758 -0.03529031
0.0073575494 0.026624639 -0.05564672 -0.008566455 -0.103045 -0.0325991 0.009671238 -0.033416357
-0.011522105 0.0024780792 -0.028568232 0.015374965 -0.0030797806 -0.035609715 0.018450538 -0.0006199526
-0.005699849 0.00030271383 0.018499695 -0.037557043 -0.063382424 -0.01606833 -0.023848243 0.006950626
-0.071174696 -0.015478479 -0.0040237014 0.019801738 -0.025605908 -0.0023648415 -0.030264517 -0.0043507805
0.0466495 -0.059968017 0.019620862 0.011562895 -0.00808175 -0.041766744 -0.024210485 -0.04759487
0.019697996 -0.0019391149 -0.03926003 -0.036547925 0.013203176 -0.07557405 -0.0073244767 -0.0069078933
-0.004577906 -0.021867 -0.04883485 0.0062134056 0.023645753 -0.031142889 -0.0035530382 -0.030006977
-0.054674886 -0.035399735 -0.060117606 -0.020288631 -0.08311956 -0.034750845 -0.010669055 0.01186669
0.0027118737 0.044669013 0.009715128 0.011167275 -0.010391869 -0.0035071499 -0.019292979 -0.05606903
-0.07262444 -0.027390271 -0.053855043 -0.046668988 -0.03813622 -0.014533103 -0.08731467 -0.021624142
-0.057061467 -0.07816603 -0.016029771 -0.025603084 -0.05834136 -0.024900725 -0.029392796 -0.050082017
-0.03170422 -0.048473973 -0.0077644386 -0.072227135 -0.06273892 -0.008130921 0.0026662177 -0.0553479
-0.026799088 -0.009471491 -0.07470727 0.0034899064 -0.040273454 -0.06905622 0.028151875 -0.06422949
0.009996929 -0.061350867 -0.007166401 -0.023755897 -0.03182362 -0.027789468 -0.0016193723 -0.020585703
00000000: 92ff 7fbd bf0b 4fbc 896c 94bb 28e3 55bc
00000010: a6c7 17bd ffee 803c c93c 55bc 7c2b e43b
00000020: 5f92 7dbc d656 5abc 21f5 a2bc a229 be3c
00000030: 58c9 0abd 23d8 46bc 9749 77bd e683 eabc
00000040: c1fa e3bb cfed febc 66d7 95bb 41bf b2bd
00000050: 2690 ab3c 9191 793c 5935 30bd 9710 24bd
00000060: e4c4 8fbb 9473 53bc 5851 79bd bb92 56bd
00000070: c8ad d83c 3678 1e3c b0bc 23bd 17b2 15bd
00000080: 8991 88ba c9b6 b8bc a813 7abd 25ba 71bc
00000090: 81a8 09bd 669c ef3c 0453 0bbd 795f 903c
000000a0: 4884 8abc 98ca abbb 2141 9ebc 64f0 09bd
000000b0: 6e63 eb3b c43e 423b 2fc1 b3bc efc5 86bd
000000c0: 2287 82bd afef 47bd 1d9e 99bc 6d31 ddbc
000000d0: 19cb 82bd a17e b4bd 64d9 afbc 2eb0 71bc
000000e0: d903 383a fd84 a8bc 94cf 273c cee7 f53c
000000f0: cc46 03bb 1525 5bbc 6a0a 36bc b752 69bb
00000100: 6774 043d c770 93bd 4c4a a2bd 0ad3 eebc
00000110: 5b04 503c 3824 2fbc a0f3 5e3b 1d41 6abc
00000120: 6b07 5c3c 5553 a7bd 39ba d2bb dad2 0f3d
00000130: ce38 22bd f17f 0a3d 4724 1cbc 5073 56bc
00000140: db77 8f3c 3c22 07bc 4bdd 92bb 2a44 17bd
00000150: 994d 16bd 7c61 04bd d764 b43c 78a0 0c3d
00000160: 7ee3 84bc 6e2d 03bd e373 5bbd f56c 43bd
00000170: 32e8 5ebd a38a 84bd a5a5 a33c 8ba9 63bc
00000180: f7ac 2cbc e3b2 84bc 4cf3 00bd f7e6 84bb
00000190: 735b 153c 4730 75bc c57e 0abd 75e6 d6bc
000001a0: 95ed bbbd c6cf 40bd 308b e3bc f7ec 413c
000001b0: b880 3dbd a88c 76bd 133f 1fbd e465 61bd
000001c0: b2b8 06bd 8d8c bebd 35d8 9dbb dad6 d5bc
000001d0: 0a5e e03a c7ee 8cbc d769 853c 8e02 42bd
000001e0: 346e 29bc b841 123c 1941 b1bd 0692 13bd
000001f0: 01ab d13b 875d bebd 6e44 a1bc 6122 1cbd
00000200: 2a18 07bc 6d48 04bd 8b16 993c c35e f2bc
00000210: 4812 563c 9384 0fbd eee7 02bd 0779 02bd
00000220: 515c 12bc 6403 00bc dc8a cdbc 84df d6bc
00000230: e81c d4bc 16c3 b93c d306 10bd 928c 10bd
00000240: 9917 f13b ea1b da3c d1ed 63bd 515a 0cbc
00000250: 4209 d3bd a286 05bd 1d74 1e3c 97df 08bd
00000260: 36c7 3cbc 4567 223b ed07 eabc 47e7 7b3c
00000270: 25d6 49bb 7edb 11bd 9525 973c 5184 22ba
00000280: cdc5 babb 90b5 9e39 ac8c 973c 6ad5 19bd
00000290: a5ce 81bd bba1 83bc 645d c3bc 14c2 e33b
000002a0: 0ac4 91bd 7299 7dbc 41d9 83bb 4137 a23c
000002b0: 7bc3 d1bc 75fb 1abb 4bed f7bc fe90 8ebb
000002c0: 8c13 3f3d 06a1 75bd eebb a03c 4c72 3d3c
000002d0: 5169 04bc 9b13 2bbd 1155 c6bc d7f2 42bd
000002e0: b15d a13c e629 feba 20cf 20bd 47b3 15bd
000002f0: 2252 583c 91c6 9abd 2a02 f0bb 9c5b e2bb
00000300: 4202 96bb 6c22 b3bc 0d07 48bd d399 cb3b
00000310: bdb4 c13c 5f1f ffbc 17da 68bb 31d1 f5bc
00000320: c6f2 5fbd 50ff 10bd e13d 76bd 5834 a6bc
00000330: 963a aabd e756 0ebd 43cd 2ebc 816c 423c
00000340: b1b9 313b dbf6 363d 332c 1f3c f2f6 363c
00000350: a842 2abc 36d8 65bb 4f0c 9ebc a4a8 65bd
00000360: 1fbc 94bd 9061 e0bc 1b97 5cbd fb27 3fbd
00000370: ba34 1cbd 411c 6ebc 09d2 b2bd 1d25 b1bc
00000380: 49b9 69bd 8315 a0bd de50 83bc 8fbd d1bc
00000390: 5af7 6ebd 9bfc cbbc 29c9 f0bc cd22 4dbd
000003a0: 49dc 01bd a58c 46bd d56c febb d2eb 93bd
000003b0: 437d 80bd 8e37 05bc b6bb 2e3b 7bb4 62bd
000003c0: c389 dbbc 502e 1bbc 2000 99bd eab6 643b
000003d0: c7f5 24bd 596d 8dbd c39e e63c c08a 83bd
000003e0: 29ca 233c 0c4b 7bbd 21d4 eabb ba9b c2bc
000003f0: 7c59 02bd bda6 e3bc 1e41 d4ba 59a3 a8bc

network_body._body_endoder.seq_layers.4.weight f4 [256, 256]
-0.050032135 0.010416441 0.0022186371 0.12666364 -0.09150697 0.02543104 -0.015123701 0.044340536
0.0576855 -0.020063458 0.10150668 -0.060496915 -0.014556006 0.07600643 0.09693308 0.03701309
-0.03577618 0.07486989 -0.03581368 -0.048614837 -0.098951004 -0.02688563 0.0931615 -0.08852105
-0.054410536 0.0395705 -0.078737356 -0.1493527 0.058330476 0.09776688 -0.16608678 -0.035252776
-0.026438639 -0.06410487 -0.10088216 -0.012167021 0.068706065 -0.04980943 0.020044211 0.027102722
-0.16277362 0.044479385 0.052386697 0.03882876 -0.06875628 0.07255197 0.06672336 0.05402926
0.014775152 -0.002450143 0.028254936 -0.097151525 0.006296462 -0.0027150079 -0.065989435 -0.074324355
-0.028568555 -0.10465449 -0.05391296 0.0126156295 -0.071503446 -0.09866037 0.060886968 -0.06641362
0.019632194 -0.040897544 -0.06438769 0.023041934 -0.047458414 -0.048435844 -0.12930623 0.02415174
-0.056841068 0.061973926 -0.09399125 -0.053578693 -0.0945936 -0.14830011 0.006230972 0.024206469
0.06004521 -0.034996003 -0.13976689 0.124306016 0.006601243 -0.073306695 -0.055201456 0.023620822
0.074410476 0.077422105 -0.0069785654 0.032387134 -0.0019524479 0.030161213 0.04795075 -0.054402098
-0.016624903 -0.075858034 -0.008250917 -0.065581724 -0.07549874 -0.0051515326 0.075980745 0.11398157
0.07240963 0.051814463 -0.075345024 -0.096975796 -0.068357 0.02469564 -0.027166521 0.011025357
-0.0782562 0.037708886 0.09246602 0.014226903 -0.13986294 -0.004175905 0.08788159 0.027720043
-0.039451547 -0.10595472 -0.10856799 -0.006561944 -0.103146 0.09410947 -0.05079527 -0.0048616254
-0.0944571 0.063621104 -0.0622303 -0.087403156 -0.1074037 0.061513152 -0.07684266 0.021294437
-0.002512678 -0.033109523 -0.082665354 0.031521365 -0.12243473 -0.009411824 -0.053664908 0.023823945
-0.16118823 -0.13643655 -0.08267896 -0.03402608 -0.05353669 -0.009192096 -0.031138962 -0.05511796
-0.030123414 0.0010087901 0.056311976 -0.037676707 0.04210513 0.011945108 0.051968616 -0.012518123
-0.10171356 -0.08290558 0.03865165 0.048715144 -0.03307821 -0.023021944 0.013193556 0.0073182476
0.0650306 0.08211524 -0.069964446 -0.08319353 0.09598635 -0.031012122 0.01753359 0.008025462
0.05126325 0.009720771 -0.02340908 0.113888636 -0.036370467 0.06589619 0.09215834 -0.04429684
0.08289596 -0.007207489 -0.07326561 -0.004779619 0.07428888 0.026493704 0.057890452 -0.012214901
0.18823428 0.04805268 0.14891122 -0.004668593 -0.03206116 -0.069802545 0.03938108 0.03233352
0.022198055 0.01169829 0.059222814 -0.014868143 -0.087842315 0.090562895 -0.04132551 -0.13502245
-0.022629721 -0.061520003 -0.008155284 -0.010120019 -0.12647992 -0.029908668 0.021153377 0.030018747
0.08720913 -0.07141982 -0.12691878 -0.055193946 0.037139915 0.011204191 0.054305766 0.06287928
-0.10673023 -0.018964203 -0.031129211 0.018824458 -0.045049865 0.1363807 0.028140709 -0.083151266
-0.06540577 0.061255667 -0.07739545 -0.016741458 0.06898298 0.07748378 0.021201681 0.015436534
0.13532753 0.018746778 0.14699285 -0.021637984 -0.047620624 0.14066067 0.09725972 -0.02812074
-0.030966362 -0.055643704 -0.048156362 0.20547704 0.027792027 -0.074277274 -0.013528284 -0.04513298
00000000: 7fee 4cbd b8a9 2a3c 8e66 113b 1db4 013e
00000010: 0268 bbbd c254 d03c 66c9 77bc 6c9e 353d
00000020: a147 6c3d 1f5c a4bc bce2 cf3d 9dcb 77bd
00000030: 507c 6ebc 42a9 9b3d da84 c63d 0a9b 173d
00000040: 0b8a 12bd 6355 993d 5eb1 12bd 5a20 47bd
00000050: d3a6 cabd 413f dcbc 75cb be3d 864a b5bd
00000060: 95dd 5ebd ad14 223d 0d41 a1bd eaef 18be
00000070: f0eb 6e3d 013a c83d a712 2abe 3765 10bd
00000080: d895 d8bc 6a49 83bd 4e9b cebd 2f58 47bc
00000090: c4b5 8c3d f904 4cbd c233 a43c 8706 de3c
000000a0: 21ae 26be 0430 363d 6f93 563d e80a 1f3d
000000b0: 18d0 8cbd 2196 943d 42a6 883d c94d 5d3d
000000c0: 7b13 723c 9492 20bb e576 e73c 61f7 c6bd
000000d0: 8d52 ce3b 46ee 31bb 7825 87bd 5e37 98bd
000000e0: 9a08 eabc 1855 d6bd d6d3 5cbd c9b1 4e3c
000000f0: 6670 92bd 730e cabd 9d64 793d dd03 88bd
00000100: b2d3 a03c 2f84 27bd b1dd 83bd 70c2 bc3c
00000110: c163 42bd aa64 46bd da68 04be dfd9 c53c
00000120: 2ed2 68bd 5fd8 7d3d 7c7e c0bd 5575 5bbd
00000130: 4aba c1bd fcdb 17be 2e2d cc3b a54c c63c
00000140: f7f1 753d f857 0fbd 0d1f 0fbe 2794 fe3d
00000150: 3d4f d83b d221 96bd ec1a 62bd 7480 c13c
00000160: 8564 983d 7b8f 9e3d 73ac e4bb 5fa8 043d
00000170: 48e9 ffba a614 f73c 0168 443d bcd4 5ebd
00000180: f330 88bc 755b 9bbd db2e 07bc b64f 86bd
00000190: 159f 9abd 30ce a8bb cb9b 9b3d 2b6f e93d
000001a0: 804b 943d 673b 543d 7e4e 9abd 3f9b c6bd
000001b0: c1fe 8bbd 834e ca3c 538c debc b3a3 343c
000001c0: c944 a0bd a274 1a3d d35e bd3d f517 693c
000001d0: 3b38 0fbe 08d6 88bb 43fb b33d 2515 e33c
000001e0: f297 21bd cafe d8bd e558 debd 9305 d7bb
000001f0: 363e d3bd 77bc c03d b30e 50bd 454e 9fbb
00000200: b972 c1bd c84b 823d 33e5 7ebd 6d00 b3bd
00000210: 79f6 dbbd 37f5 7b3d af5f 9dbd ac71 ae3c
00000220: beab 24bb da9d 07bd 744c a9bd 8c1c 013d
00000230: 0fbf fabd 0d34 1abc bccf 5bbd 6f2a c33c
00000240: 870e 25be 06b6 0bbe 9653 a9bd ee5e 0bbd
00000250: 4a49 5bbd 729a 16bc 2317 ffbc 5fc3 61bd
00000260: 61c5 f6bc 6139 843a 63a7 663d e452 1abd
00000270: 6e76 2c3d 6ab5 433c 0bdd 543d d018 4dbc
00000280: 334f d0bd 67ca a9bd 3151 1e3d 8889 473d
00000290: 047d 07bd 8498 bcbc c929 583c e9cd ef3b
000002a0: c32e 853d 092c a83d 8549 8fbd 5f61 aabd
000002b0: 7e94 c43d 220d febc 9aa2 8f3c 3a7d 033c
000002c0: 6af9 513d de43 1f3c 66c4 bfbc 723e e93d
000002d0: 33f9 14bd 95f4 863d 83bd bc3d 9a70 35bd
000002e0: 5bc5 a93d cd2c ecbb 480c 96bd 5a9e 9cbb
000002f0: c524 983d 5309 d93c 8a1e 6d3d 0221 48bc
00000300: 7dc0 403e e3d2 443d 2f7c 183e fffa 98bb
00000310: 9052 03bd a3f4 8ebd 0e4e 213d 2770 043d
00000320: b2d8 b53c 2faa 3f3c 9f93 723d 8399 73bc
00000330: ace6 b3bd 0a79 b93d f044 29bd 5343 0abe
00000340: f761 b9bc 66fc 7bbd be9d 05bc 70ce 25bc
00000350: f483 01be 0603 f5bc d949 ad3c e0e9 f53c
00000360: b39a b23d 8e44 92bd fff6 01be 0c13 62bd
00000370: 0620 183d c891 373c b96f 5e3d dac6 803d
00000380: 6195 dabd d15a 9bbc b002 ffbc c035 9a3c
00000390: 3586 38bd 62a7 0b3e 5887 e63c 364b aabd
000003a0: 76f3 85bd 39e7 7a3d 8181 9ebd 6225 89bc
000003b0: f346 8d3d d1af 9e3d 26af ad3c 84e9 7c3c
000003c0: 4d93 0a3e d892 993c 4b85 163e 2442 b1bc
000003d0: d80d 43bd 5a09 103e 1b30 c73d 775d e6bc
000003e0: 2bad fdbc a7ea 63bd 9b3f 45bd 9368 523e
000003f0: 1bac e33c af1e 98bd bca5 5dbc 5cdd 38bd

network_body._body_endoder.seq_layers.4.bias f4 [256]
-0.032990903 -0.03314505 -0.013607973 0.016578663 -0.0032846872 -0.06873818 -0.0392697 -0.056712627
-0.06763902 -0.107170455 -0.03290118 -0.05200366 -0.07756067 -0.038693525 -0.023329059 -0.054704513
-0.031088803 -0.03661602 -0.018864475 -0.024944305 -0.02249692 -0.0335919 0.0038079075 -0.03726473
-0.019067211 -0.050842244 0.011749796 -0.028425572 -0.026189916 -0.0519053 -0.00060856796 -0.07143425
-0.007815359 -0.072214 -0.024874886 -0.105247155 -0.0333152 -0.055664532 -0.07574705 -0.012654797
-0.0042233025 -0.043152492 -0.12912238 -0.04355798 -0.075037934 -0.035694916 -0.05339438 -0.0015105375
-0.026120987 0.03885364 -0.05051314 -0.060337655 -0.02798115 -0.03698314 -0.024655573 0.00020994197
-0.04765242 -0.009801484 -0.06519932 -0.00842337 -0.096361175 -0.003295888 -0.061066616 -0.0067098294
0.006103204 -0.052722085 0.009591616 -0.032747142 -0.026687497 -0.020733165 0.0025806238 -0.09230135
-0.0732236 -0.035173085 0.033161294 -0.033218 -0.05083706 0.010201605 -0.059100915 -0.014054192
-0.09028589 -0.03502193 -0.0456907 -0.0045916233 -0.10403352 -0.051131915 -0.012585347 -0.00053704885
-0.11414175 -0.058360085 -0.00470176 0.0099215545 -0.09009883 -0.0393582 -0.07094026 -0.006510044
-0.007171622 -0.032840434 -0.047460932 -0.047630195 -0.01823902 -0.04339033 0.0062975925 -0.014393847
-0.08326401 -0.047574718 -0.037292827 -0.023399116 -0.044024505 -0.044285227 -0.032462656 -0.00670544
-0.046443637 -0.07362188 0.008931067 -0.085767396 -0.08293021 -0.065829426 -0.021468954 -0.063767165
-0.08222481 -0.05976844 0.010575859 -0.048071913 0.0076633706 -0.023947375 -0.024449464 -0.010492568
-0.06554492 -0.016954586 -0.028330425 0.04147455 -0.05589448 -0.008514214 -0.042668313 -0.0036222
-0.015272759 -0.07013735 -0.016975129 -0.117512256 -0.058367155 -0.019973816 -0.035631705 -0.045264322
-0.05418972 -0.022337593 0.010861416 -0.032724958 -0.042229034 0.009936243 -0.008789003 -0.012094802
-0.07789253 -0.073487245 -0.09856883 -0.07971527 -0.029304072 -0.03384427 -0.006722463 -0.03567932
-0.024933508 -0.051196124 -0.045154575 -0.080071166 -0.0042033647 -0.019866161 -0.03951648 -0.06523555
-0.08402678 -0.06511764 -0.04510648 -0.020224681 -0.016561221 -0.056042414 -0.07588388 -0.06624066
-0.020910388 -0.011314149 -0.020464959 -0.08816719 -0.03339183 0.010829497 -0.08305222 -0.05141975
-0.07754764 0.0005114132 -0.073475994 0.009472696 -0.028611138 -0.06822652 -0.06302659 -0.08528062
-0.06539106 -0.04795382 -0.038726497 -0.102894 -0.057988565 -0.08073241 0.01793575 -0.08466196
0.008739098 -0.002074865 -0.02545619 -0.05981176 -0.08107206 -0.12864831 -0.063234076 -0.0644541
-0.04444534 -0.014373532 -0.0049135294 -0.058374353 -0.040747263 -0.009424525 -0.04502022 -0.049328744
-0.010005882 -0.02670174 -0.07121341 -0.019282898 -0.04156039 -0.03488996 -0.029740851 -0.058135226
-0.0851457 -0.010195423 -0.058058906 0.013681984 -0.07701742 -0.029173605 -0.015659343 -0.02565744
-0.032939028 -0.05457315 -0.0645718 -0.051534075 -0.05732221 -0.010154222 -0.10239597 -0.040550273
-0.021262482 -0.069067344 -0.018821834 -0.072253674 -0.025197618 -0.0490484 -0.021382391 -0.06807075
-0.03755004 -0.098051265 -0.037224285 -0.063599624 -0.02890578 -0.060231265 -0.03305972 -0.005297285
00000000: 7821 07bd 1bc3 07bd faf3 5ebc facf 873c
00000010: e843 57bb 9ac6 8cbd 44d9 20bd 804b 68bd
00000020: 5486 8abd 2f7c dbbd 63c3 06bd ca01 55bd
00000030: 21d8 9ebd 1a7d 1ebd 951c bfbc d711 60bd
00000040: f2ad febc aefa 15bd ac89 9abc 0058 ccbc
00000050: 764b b8bc a997 09bd 168e 793b e7a2 18bd
00000060: d732 9cbc f53f 50bd 3782 403c bfdc e8bc
00000070: 3c8c d6bc a79a 54bd 4e88 1fba 1f4c 92bd
00000080: fe0b 00bc efe4 93bd 6bc6 cbbc d28b d7bd
00000090: 8575 08bd 7e00 64bd 4521 9bbd 1156 4fbc
000000a0: a163 8abb abc0 30bd a838 04be da69 32bd
000000b0: 7dad 99bd d534 12bd 11b4 5abd 3afd c5ba
000000c0: aefb d5bc ff24 1f3d dee6 4ebd 9e24 77bd
000000d0: ba38 e5bc a27b 17bd 7cfa c9bc de23 5c39
000000e0: 2f2f 43bd 6796 20bc 3987 85bd 2d02 0abc
000000f0: 0259 c5bd d3ff 57bb fd20 7abd 21de dbbb
00000100: 63fd c73b 1df3 57bd 2726 1d3c de21 06bd
00000110: bd9f dabc 99d8 a9bc af1f 293b 7d08 bdbd
00000120: 41f6 95bd a711 10bd 23d4 073d 990f 08bd
00000130: 853a 50bd a224 273c cd13 72bd 8e43 66bc
00000140: cfe7 b8bd 2873 0fbd 2c26 3bbd 5475 96bb
00000150: 870f d5bd b36f 51bd c532 4ebc bdc8 0cba
00000160: 26c3 e9bd fc0a 6fbd 3911 9abb 048e 223c
00000170: bc85 b8bd 1036 21bd 2149 91bd 3552 d5bb
00000180: edff eabb b183 06bd 6566 42bd e117 43bd
00000190: ff69 95bc 0fba 31bd 095c ce3b 2cd4 6bbc
000001a0: 5286 aabd b5dd 42bd 5dc0 18bd 81af bfbc
000001b0: 0a53 34bd 6d64 35bd 90f7 04bd 4fb9 dbbb
000001c0: af3b 3ebd 11c7 96bd 9c53 123c d1a6 afbd
000001d0: 50d7 a9bd 94d1 86bd a9df afbc 5c98 82bd
000001e0: 7b65 a8bd c0cf 74bd 5e46 2d3c 0ee7 44bd
000001f0: 031d fb3b 492d c4bc 3e4a c8bc 05e9 2bbc
00000200: 6a3c 86bd 58e4 8abc 3515 e8bc 38e1 293d
00000210: 9cf1 64bd 347f 0bbc f8c4 2ebd 6f62 6dbb
00000220: 983a 7abc 2ca4 8fbd 6d0f 8bbc 44aa f0bd
00000230: 6612 6fbd 21a0 a3bc 8df2 11bd 1567 39bd
00000240: 0af6 5dbd 54fd b6bc 15f4 313c 9b0a 06bd
00000250: 5af8 2cbd a0cb 223c c0ff 0fbc 4729 46bc
00000260: 1e86 9fbd 7b80 96bd 74de c9bd c241 a3bd
00000270: 180f f0bc 4aa0 0abd 1b48 dcbb 7b24 12bd
00000280: 5b41 ccbc 07b3 51bd 01f4 38bd 5afc a3bd
00000290: 61bc 89bb 5cbe a2bc 08dc 21bd 379a 85bd
000002a0: 3c16 acbd 665c 85bd 93c1 38bd 3bae a5bc
000002b0: 66ab 87bc bb8c 65bd 0269 9bbd 2fa9 87bd
000002c0: 434c abbc fb5e 39bc 21a6 a7bc 0091 b4bd
000002d0: dfc5 08bd 346e 313c 4817 aabd 849d 52bd
000002e0: 4cd1 9ebd 5c10 063a 957a 96bd 5e33 1b3c
000002f0: e861 eabc 59ba 8bbd 1614 81bd 9ba7 aebd
00000300: c0eb 85bd 3a6b 44bd ad9f 1ebd 17ba d2bd
00000310: 6b85 6dbd 0957 a5bd feed 923c 4063 adbd
00000320: 6f2e 0f3c 75fa 07bb 8089 d0bc 2dfd 74bd
00000330: 1c09 a6bd 62bc 03be de80 81bd 8300 84bd
00000340: 510c 36bd f67e 6bbc ac01 a1bb f219 6fbd
00000350: 9ae6 26bd 5369 1abc 1f67 38bd f00c 4abd
00000360: b6ef 23bc 9cbd dabc 56d8 91bd 2bf7 9dbc
00000370: 3a3b 2abd c6e8 0ebd 16a3 f3bc 341f 6ebd
00000380: de60 aebd b40a 27bc 2dcf 6dbd 662a 603c
00000390: 4fbb 9dbd 7cfd eebc 0648 80bc 8d2f d2bc
000003a0: 13eb 06bd 1888 5fbd 383e 84bd 6515 53bd
000003b0: b2ca 6abd e55d 26bc fab4 d1bd 0b18 26bd
000003c0: a82e aebc 2e73 8dbd 3f30 9abc bcf9 93bd
000003d0: 3c6b cebc fae6 48bd 202a afbc ad68 8bbd
000003e0: 12ce 19bd 1acf c8bd 7e78 18bd 8540 82bd
000003f0: d0cb ecbc 0fb5 76bd a169 07bd d994 adbb
