Usable_Data/Versuch_4-1.2/PKWParking/PKWParking-3999988.onnx (onnx, 882958 bytes, 15 tensors)

discrete_act_size_vector f4 [1, 2]
0	0x40800000	4.0
1	0x40400000	3.0

network_body.observation_encoder.processors.0.normalizer.running_mean f4 [315]
0	0x3cb21646	0.021739136
1	0x3defd869	0.11711199
2	0x3d3b2c69	0.04569665
3	0x3d8b1676	0.067913935
4	0x3c628f0e	0.013828052
5	0x3f3ad97e	0.72988117
6	0x3f579106	0.84205663
7	0x3c5fd06d	0.013660532
8	0x3e2df806	0.16989145
9	0x3d7e5c35	0.062099654
10	0x3d908efe	0.070585236
11	0x3c887aa3	0.01666004
12	0x3f216443	0.6304361
13	0x3f4cfd99	0.8007446
14	0x3c95f9b0	0.018307537
15	0x3e3e9b74	0.18613988
16	0x3d6c36eb	0.05766956
17	0x3d9bcfee	0.07608019
18	0x3c6bc968	0.014391281
19	0x3f1f7dea	0.62301505
20	0x3f4a2a2b	0.78970593
21	0x3c3d4cf9	0.011553996
22	0x3e4020cf	0.18762515
23	0x3db1eb4f	0.0868746
24	0x3da29778	0.079390466
25	0x3c52a626	0.012856996
26	0x3f14cd5b	0.5812585
27	0x3f45ab7a	0.7721478
28	0x3c9df659	0.019282507
29	0x3e775a0a	0.24155441
30	0x3dcbfc7d	0.09960268
31	0x3db9c808	0.09071356
32	0x3cb6c4cf	0.022310643
33	0x3f005a9c	0.5013826
34	0x3f39316f	0.72341055
35	0x3c4a9be6	0.012366271
36	0x3e74387d	0.23849674
37	0x3dc3e825	0.095657624
38	0x3e0292a5	0.12751253
39	0x3be718e0	0.007052526
40	0x3eea7e68	0.45799565
41	0x3f3bb615	0.7332471
42	0x3c6f6ca4	0.014613304
43	0x3e8ac98a	0.27106887
44	0x3e2567ad	0.1615283
45	0x3ddc1eb2	0.10748042
46	0x3c6f15a8	0.014592566
47	0x3ec3ee18	0.3826759
48	0x3f2e62c9	0.68119484
49	0x3c44d595	0.012013813
50	0x3e89e5a5	0.26933017
51	0x3de03141	0.109468944
52	0x3df1fca2	0.11815764
53	0x3b7c3300	0.0038482547
54	0x3ed7308f	0.42029235
55	0x3f39f3bf	0.7263755
56	0x3c3d9588	0.011571296
57	0x3e931134	0.28724062
58	0x3e4ba243	0.19886117
59	0x3df3f18f	0.11911308
60	0x3b9f16ca	0.0048550116
61	0x3ea69aba	0.32539922
62	0x3f2d113a	0.6760441
63	0x3c26dcf6	0.010184517
64	0x3e874a2b	0.26423773
65	0x3dce7967	0.100817494
66	0x3da8f800	0.08250427
67	0x3a9c456b	0.0011922544
68	0x3eff785f	0.49896523
69	0x3f474916	0.77845895
70	0x3c10a9b2	0.008829521
71	0x3e8bbd87	0.27293035
72	0x3e47197e	0.19443318
73	0x3dbffeea	0.09374793
74	0x3af0415e	0.0018330028
75	0x3ec8d1e0	0.39222622
76	0x3f3ddeaf	0.74167913
77	0x3b20a53d	0.0024512552
78	0x3e3df826	0.18551692
79	0x3d215f8b	0.039397758
80	0x3d8327c8	0.06404072
81	0x399d6aef	0.00030025045
82	0x3f2a1b29	0.66447693
83	0x3f54920c	0.8303535
84	0x3b879e6f	0.00413876
85	0x3e4195f8	0.18904865
86	0x3d83517e	0.06412028
87	0x3d759741	0.0599587
88	0x3a4db7d7	0.00078475237
89	0x3f2351f8	0.6379695
90	0x3f5157f3	0.81774825
91	0x00000000	0.0
92	0x3de38b9b	0.11110612
93	0x3beeca04	0.0072872657
94	0x3d6f1907	0.058373477
95	0x00000000	0.0
96	0x3f472ede	0.7780589
97	0x3f691794	0.910516
98	0x38d3d06e	0.00010100087
99	0x3e1c31be	0.1525335
100	0x3c3b9493	0.011448997
101	0x3d50ddc5	0.050992746
102	0x38913a47	6.924994e-05
103	0x3f3d8724	0.74034333
104	0x3f65e214	0.8979809
105	0x3cb22879	0.021747814
106	0x3defe562	0.11713673
107	0x3d3b4004	0.045715347
108	0x3d8b20c4	0.06793359
109	0x3c62a63b	0.013833578
110	0x3f3ae1f2	0.73001015
111	0x3f579b4e	0.8422135
112	0x3c5feaa4	0.0136667825
113	0x3e2e00f6	0.16992554
114	0x3d7e6eb3	0.06211729
115	0x3d909aea	0.070607975
116	0x3c888c82	0.016668562
117	0x3f216b57	0.6305441
118	0x3f4d0782	0.8008958
119	0x3c9607c5	0.018314252
120	0x3e3ea27d	0.18616672
121	0x3d6c4c0f	0.057689723
122	0x3d9bdc1f	0.07610344
123	0x3c6be5ce	0.014398051
124	0x3f1f859c	0.62313247
125	0x3f4a3415	0.7898572
126	0x3c3d6307	0.0115592545
127	0x3e402884	0.18765455
128	0x3db1f47d	0.086892106
129	0x3da2a474	0.07941523
130	0x3c52c169	0.012863495
131	0x3f14d4d9	0.5813728
132	0x3f45b580	0.7723007
133	0x3c9e04ea	0.019289453
134	0x3e7763de	0.2415919
135	0x3dcc0752	0.09962334
136	0x3db9d3d8	0.09073609
137	0x3cb6d812	0.022319827
138	0x3f006178	0.50148726
139	0x3f393b05	0.7235568
140	0x3c4ab411	0.012372033
141	0x3e7441d2	0.23853233
142	0x3dc3f171	0.09567536
143	0x3e0299ec	0.12754029
144	0x3be73841	0.0070562665
145	0x3eea8baf	0.45809695
146	0x3f3bbfce	0.73339546
147	0x3c6f83a4	0.014618788
148	0x3e8acf7f	0.27111432
149	0x3e256f55	0.16155751
150	0x3ddc2775	0.10749713
151	0x3c6f3428	0.014599837
152	0x3ec3fa13	0.3827673
153	0x3f2e6c3c	0.681339
154	0x3c44ecaa	0.012019316
155	0x3e89ea99	0.26936796
156	0x3de03b90	0.10948861
157	0x3df20646	0.11817603
158	0x3b7c505e	0.003850005
159	0x3ed73ee0	0.42040157
160	0x3f39fe04	0.7265322
161	0x3c3da85f	0.011575787
162	0x3e93176d	0.2872881
163	0x3e4bab7b	0.19889633
164	0x3df3fb3e	0.11913155
165	0x3b9f321e	0.0048582694
166	0x3ea6a5c1	0.32548335
167	0x3f2d1a76	0.676185
168	0x3c26efe7	0.010189033
169	0x3e874eed	0.26427403
170	0x3dce81c9	0.10083348
171	0x3da900fc	0.08252141
172	0x3a9c5e8a	0.001193003
173	0x3eff8822	0.4990855
174	0x3f4753b6	0.7786211
175	0x3c10b74e	0.008832766
176	0x3e8bc2a4	0.27296937
177	0x3e47221c	0.19446605
178	0x3dc00aba	0.09377046
179	0x3af0848d	0.001835005
180	0x3ec8de34	0.39232028
181	0x3f3de874	0.7418282
182	0x3b20ba43	0.0024525083
183	0x3e3e02d5	0.18555768
184	0x3d21694c	0.03940706
185	0x3d83319c	0.064059466
186	0x399d6aef	0.00030025045
187	0x3f2a2346	0.66460073
188	0x3f549c64	0.83051133
189	0x3b87aaef	0.00414025
190	0x3e419eac	0.18908185
191	0x3d835da4	0.06414345
192	0x3d75a8bd	0.059975374
193	0x3a4dfb2a	0.0007857556
194	0x3f2359a3	0.6380865
195	0x3f516261	0.8179074
196	0x00000000	0.0
197	0x3de39c27	0.11113768
198	0x3beee98b	0.007291024
199	0x3d6f28f3	0.05838866
200	0x00000000	0.0
201	0x3f47384a	0.77820265
202	0x3f6923f7	0.91070503
203	0x38d3d06e	0.00010100087
204	0x3e1c3aa9	0.15256752
205	0x3c3bb0eb	0.011455755
206	0x3d50ec22	0.051006444
207	0x3891c090	6.950006e-05
208	0x3f3d9010	0.74047947
209	0x3f65ed93	0.89815634
210	0x3cb23ab0	0.0217565
211	0x3deff2cb	0.11716231
212	0x3d3b532e	0.045733623
213	0x3d8b2b3c	0.06795356
214	0x3c62bd03	0.013839009
215	0x3f3aea37	0.73013633
216	0x3f57a5a0	0.842371
217	0x3c6004c1	0.013673008
218	0x3e2e09b5	0.1699589
219	0x3d7e8151	0.062135044
220	0x3d90a6de	0.070630774
221	0x3c889e56	0.016677063
222	0x3f21728f	0.6306543
223	0x3f4d112d	0.80104333
224	0x3c9615e6	0.018320989
225	0x3e3ea998	0.18619382
226	0x3d6c6149	0.057709966
227	0x3d9be843	0.0761266
228	0x3c6c0218	0.014404796
229	0x3f1f8d69	0.6232515
230	0x3f4a3e17	0.7900099
231	0x3c3d7923	0.011564526
232	0x3e403023	0.18768363
233	0x3db1fd9b	0.086909495
234	0x3da2b15f	0.07943987
235	0x3c52dcd7	0.012870035
236	0x3f14dc4e	0.5814866
237	0x3f45bf5e	0.7724513
238	0x3c9e13a2	0.019296471
239	0x3e776d94	0.24162894
240	0x3dcc1207	0.09964376
241	0x3db9dfbc	0.09075877
242	0x3cb6eb5f	0.02232903
243	0x3f006834	0.50159
244	0x3f3944d6	0.7237066
245	0x3c4acc2c	0.01237778
246	0x3e744af8	0.23856723
247	0x3dc3fab2	0.09569301
248	0x3e02a16c	0.1275689
249	0x3be757bc	0.0070600193
250	0x3eea992c	0.45819986
251	0x3f3bc994	0.7335446
252	0x3c6f9ac4	0.014624301
253	0x3e8ad58c	0.27116048
254	0x3e2576d7	0.16158615
255	0x3ddc3048	0.107513964

network_body.observation_encoder.processors.1.normalizer.running_mean f4 [13]
0	0x3cd8dc6e	0.026472297
1	0x3cd8dc70	0.0264723
2	0x3f6d1fba	0.92626536
3	0xbe6f4637	-0.23366629
4	0x3cead6a7	0.028666807
5	0x3ee38d52	0.44443756
6	0x00000000	0.0
7	0x3e5505b5	0.20802958
8	0x3e2c8cf4	0.16850644
9	0x3e1856bf	0.14876841
10	0x3e38d836	0.18051228
11	0x3bfabbf8	0.007651802
12	0x3d5ff62b	0.054678123

network_body._body_endoder.seq_layers.0.weight f4 [256, 328]
0	0xbd1e90f6	-0.038712464
1	0x3c9cc6d4	0.019137777
2	0x3d9f7d94	0.07787624
3	0x3dac4e95	0.08413426
4	0x3e004d6b	0.12529533
5	0xbdb5af79	-0.088713594
6	0xbdd10835	-0.102066435
7	0x3e02d51f	0.12776612
8	0xbd0946f9	-0.03351495
9	0xbc1715b6	-0.009221485
10	0x3d78df5d	0.06075989
11	0x3cd1de8d	0.025618816
12	0xbc382d48	-0.011241265
13	0xbdac53e1	-0.08414436
14	0x3de63e72	0.11242379
15	0xbb5fa2fc	-0.0034124246
16	0xbd3a7d04	-0.04552938
17	0x3e6d6b68	0.23185503
18	0x3e4039a3	0.18771987
19	0xbe056279	-0.13025846
20	0xbe0f72f0	-0.14008689
21	0x3d8bb1a1	0.068209894
22	0x3de3240f	0.11090862
23	0xbd3345ce	-0.043767743
24	0x3e1698f6	0.14706787
25	0x3dcefd5f	0.101069205
26	0xbe205376	-0.15656838
27	0xbd7c0d44	-0.06153609
28	0xbbe2d606	-0.0069224862
29	0x3d7784f5	0.060429532
30	0x3d2cbd3b	0.04217265
31	0xbda3a25c	-0.07989952
32	0x3d8c3a66	0.06847076
33	0xbd190ff3	-0.037368726
34	0xbde183d8	-0.11011475
35	0x3e26be68	0.16283572
36	0x3d3e8971	0.046517793
37	0x3cc95650	0.02457729
38	0xbcdd107a	-0.026985396
39	0x3c93af00	0.018027782
40	0xbda9074a	-0.082533434
41	0xbc2389a1	-0.009981544
42	0x3d7e7f07	0.06213286
43	0x3d025b23	0.031825196
44	0xbc9fde0d	-0.019515062
45	0x3d4d8016	0.05017098
46	0x3db8a524	0.09015873
47	0xbd867aae	-0.06566368
48	0xbc3e7274	-0.011623967
49	0x3da42e57	0.08016651
50	0xbc496539	-0.0122922
51	0xbd09674c	-0.033545777
52	0xbe252f97	-0.16131435
53	0x3e2b6d51	0.1674092
54	0x3dc0cbfc	0.09413907
55	0x3d059bc6	0.03261926
56	0x3dac9aee	0.08427988
57	0x3d0e6cda	0.034771778
58	0xbda91aca	-0.08257063
59	0x3e5725ec	0.2101056
60	0xbd19af96	-0.037520967
61	0xbc77e5ef	-0.015130504
62	0xbd9cfa26	-0.076648995
63	0x3dc80f6f	0.09768569
64	0xbc997f22	-0.01873738
65	0x3e16bd59	0.14720668
66	0xbd369d3e	-0.04458355
67	0xbc73d28b	-0.01488174
68	0x3d997719	0.07493419
69	0xbd032d6c	-0.03202574
70	0x3d40a930	0.04703635
71	0x3d16e22b	0.036836784
72	0x3cf8aee1	0.030356826
73	0x3d31de7c	0.04342507
74	0x3e0c3ccf	0.13695072
75	0x3d1fe5b0	0.039037406
76	0xbc38f645	-0.011289184
77	0x3cdbf83b	0.026851764
78	0xbdf11b6d	-0.11772809
79	0xbd902e07	-0.07040029
80	0xbc653bec	-0.013991337
81	0x3e05cca5	0.13066347
82	0xbd78da81	-0.060755257
83	0xbe07267e	-0.13198277
84	0x3e147279	0.14496793
85	0x3e558b76	0.20853981
86	0xbd5dd88f	-0.054161604
87	0x3dd96acb	0.10616072
88	0x3d3ade0d	0.04562192
89	0xbbf72456	-0.0075421734
90	0x3cb9eedb	0.022696903
91	0xbd0a722e	-0.033800296
92	0x3da2918e	0.079379186
93	0x3da982f9	0.08276934
94	0xbd7212d4	-0.059099987
95	0xbd50b46e	-0.05095332
96	0xbb778765	-0.003776991
97	0x3dbfa0a7	0.09356814
98	0x3e052c10	0.1300509
99	0x3c98833f	0.01861727
100	0xbce8338a	-0.028344888
101	0x3e0c3b05	0.13694389
102	0x3e56725a	0.20942059
103	0xbcdaf708	-0.026729122
104	0xbd82e92f	-0.063921325
105	0x3be2d118	0.0069218986
106	0xbd5dbaf1	-0.05413336
107	0x3d92825a	0.07153769
108	0x3dbec1c7	0.09314304
109	0x3ddc8729	0.10767967
110	0x3bca2294	0.006168673
111	0xbde4b4db	-0.11167308
112	0x3dcb6461	0.09931255
113	0xbd8f6a89	-0.07002742
114	0xbd69d646	-0.057089113
115	0x3dd341d9	0.10315294
116	0xbcdba37e	-0.026811358
117	0x3d592da6	0.05302205
118	0x3d414400	0.04718399
119	0x3d4bd96e	0.049767904
120	0x3bbef1d2	0.005827167
121	0x3e0b14de	0.13582179
122	0x3e0988cb	0.13431089
123	0x3dd212f2	0.1025752
124	0xbe0b97d6	-0.1363214
125	0xbe09776b	-0.1342446
126	0x3de870a1	0.11349607
127	0x3d832c97	0.06404989
128	0xbd817025	-0.06320218
129	0x3df041af	0.11731278
130	0x3e141fe7	0.14465295
131	0xbdea0d16	-0.11428277
132	0x3d0a3315	0.033740122
133	0x3c1c28f7	0.009531251
134	0x3e008a89	0.12552847
135	0x3c6f400f	0.014602675
136	0xbd31d0e4	-0.043412104
137	0x3de599e0	0.1121099
138	0xbcfb2d52	-0.030661259
139	0x3d4dda11	0.050256792
140	0x3e3e3f49	0.18578829
141	0x3e077c69	0.13231052
142	0x3d037ca4	0.03210129
143	0xbcc19a80	-0.023633242
144	0x3c7b68b7	0.01534479
145	0x3c1c5a27	0.009542978
146	0xbe2cdf9f	-0.1688218
147	0x3d8c1ac5	0.068410434
148	0x3d8016fa	0.062543824
149	0x3d490c37	0.049083915
150	0x3e122513	0.14271955
151	0x3bf99cf3	0.0076175868
152	0x3d8171d9	0.06320543
153	0xbdc9d636	-0.098553106
154	0x3dbe7680	0.09299946
155	0x3c943777	0.018092854
156	0xbd809829	-0.06279022
157	0xbdf7cdec	-0.12099823
158	0x3e5424ed	0.20717211
159	0x3d5c94a0	0.053852677
160	0xbd154303	-0.03644086
161	0xbccf5f9a	-0.025314141
162	0xbcf1b511	-0.029505285
163	0xbd95f8ff	-0.07322883
164	0x3e03692d	0.1283309
165	0x3cc296fb	0.023753634
166	0xbdae8598	-0.08521575
167	0xbc25f203	-0.010128501
168	0x3dc31ad9	0.09526605
169	0x3defe58e	0.11713706
170	0x3d079230	0.0330984
171	0xbd98cb13	-0.07460608
172	0x3d31308c	0.04325919
173	0x3dc66fee	0.09689318
174	0xbd1b25ef	-0.037877973
175	0x3e21a3e7	0.1578518
176	0xbde8db12	-0.11369909
177	0x3d42cf19	0.047560785
178	0x3cd35265	0.025796125
179	0x3d592f1a	0.053023435
180	0x3d34e556	0.044164024
181	0xbe229c9c	-0.15880054
182	0x3dcedd26	0.101007745
183	0x3dcc3906	0.09971814
184	0xbdf72b0f	-0.1206876
185	0x3cef8d78	0.029242262
186	0x3e1e94de	0.15486476
187	0xbbbfba77	-0.0058510858
188	0xbe03f7e4	-0.12887532
189	0x3dd976c1	0.10618354
190	0x3dd84977	0.10560887
191	0xbdd947e4	-0.10609415
192	0x3df4168b	0.11918362
193	0x3d1fcd25	0.039014
194	0xbe26c006	-0.16284189
195	0xbcab4948	-0.020908967
196	0xbc0cfdf6	-0.008605471
197	0x3d1a04db	0.037602287
198	0x3ded80f0	0.115968585
199	0xbdb2beb8	-0.08727783
200	0xbc88fd4e	-0.016722348
201	0xbc60f987	-0.013731367
202	0xbd9c41f4	-0.07629767
203	0x3c914713	0.017734086
204	0xbd19148b	-0.037373107
205	0x3cddb96a	0.027065951
206	0x3df7020f	0.120609395
207	0x3e0a7cf7	0.13524233
208	0x3ddcaae8	0.10774785
209	0xbd4412e4	-0.047869578
210	0x3dbccefa	0.09219165
211	0xbd483f60	-0.048888564
212	0x3d78a69f	0.060705777
213	0x3e0256a6	0.12728366
214	0x3d3a1fa7	0.045440342
215	0x3d787ab7	0.060663905
216	0xbd091c6c	-0.03347437
217	0x3e199e32	0.15001753
218	0x3d856412	0.065132275
219	0xbd56b0e6	-0.052414797
220	0x3e002572	0.12514284
221	0xbd756a0e	-0.059915595
222	0x3d5663c0	0.052341223
223	0x3d97d965	0.074145116
224	0x3d6eb25f	0.058275577
225	0x3daa8ecd	0.08328018
226	0x3d65470d	0.055975962
227	0x3e46a3a1	0.19398357
228	0x3e15d819	0.14633216
229	0xbc76493a	-0.015032107
230	0xbd38ae80	-0.04508829
231	0x3dc32dfc	0.09530255
232	0x3df331ff	0.118747704
233	0x3d3387b7	0.0438306
234	0x3e122ddc	0.14275306
235	0x3e1f1344	0.15534693
236	0xbe681a40	-0.22666264
237	0xbd5ee5b4	-0.05441828
238	0xbd6da34d	-0.058017064
239	0x3d89593d	0.06706474
240	0x3d0b71de	0.03404414
241	0xbc9c4fd6	-0.019081037
242	0x3d9bd76f	0.0760945
243	0xbd69cda3	-0.057080876
244	0x3d81eac6	0.063436076
245	0x3e63e16b	0.22253959
246	0x3d9067d0	0.07051051
247	0x3dd11436	0.10208933
248	0x3dfe0782	0.12403776
249	0x3dd91e14	0.1060144
250	0xbd858ab8	-0.06520599
251	0xbe13a0f1	-0.14416863
252	0xbc3fb2d2	-0.011700349
253	0xbe00d781	-0.12582208
254	0xba7fe5af	-0.00097617035
255	0x3e8fcab0	0.28084326

network_body._body_endoder.seq_layers.0.bias f4 [256]
0	0xbdd2370e	-0.10264407
1	0xbd8326e7	-0.064039044
2	0xbd9208dd	-0.07130597
3	0xbdf49649	-0.11942727
4	0xbd327e64	-0.043577567
5	0xb7a87d31	-2.0085457e-05
6	0xbe40611f	-0.18787049
7	0xbd9cfee4	-0.07665804
8	0xbde267a9	-0.11054928
9	0xbe61e875	-0.22061332
10	0xbdbcf7db	-0.09226962
11	0xbd9e4856	-0.07728641
12	0xbe396de8	-0.18108332
13	0x3d6d9528	0.058003575
14	0xbe8169e6	-0.25276107
15	0xbbd8882a	-0.006608029
16	0xbdcc0368	-0.09961587
17	0xbdff7739	-0.12473912
18	0xbdb435ef	-0.087993495
19	0xbe4584d9	-0.19288959
20	0xbe77195a	-0.24130765
21	0xbd406243	-0.04696871
22	0xbe04278d	-0.12905712
23	0xbe871050	-0.26379633
24	0xbe28b30e	-0.16474554
25	0xbe66a95a	-0.2252554
26	0xbe2feab2	-0.17179373
27	0xbd886b27	-0.06661063
28	0xbe2e48e8	-0.17019999
29	0xbe4b8507	-0.19874965
30	0x3db86263	0.09003141
31	0xbe0dee21	-0.1386037
32	0xbdc18a26	-0.09450178
33	0xbcf0cd07	-0.02939464
34	0xbddb45d0	-0.10706675
35	0xbe762009	-0.24035658
36	0xbe4c687c	-0.19961733
37	0xbc087307	-0.008328206
38	0xbdf0fc20	-0.11766839
39	0xbe02f8a0	-0.12790155
40	0xbd9f8314	-0.07788673
41	0x3acbb363	0.0015541132
42	0xbdfc91c2	-0.123324886
43	0xbd3085a5	-0.043096203
44	0xbd94a445	-0.072578944
45	0xbe1b8d82	-0.151907
46	0x3c126641	0.008935512
47	0xbe047e39	-0.12938775
48	0xbcfb389c	-0.030666642
49	0xbe24042d	-0.16017218
50	0xbe75df42	-0.24010947
51	0xbd204a47	-0.039133336
52	0xbdf39150	-0.118929505
53	0xbd93d76b	-0.07218822
54	0xbe1a3546	-0.15059385
55	0xbd3da64f	-0.046301182
56	0xbc54b6ee	-0.012983067
57	0xbd44651b	-0.047947984
58	0xbc847a93	-0.01617173
59	0xbd80cc05	-0.06288914
60	0xbdd5843c	-0.10425612
61	0x3d322274	0.04348989
62	0x3dd42760	0.10359073
63	0xbda5d817	-0.080978565
64	0xbda9bfd2	-0.0828854
65	0xbdc0a515	-0.09406487
66	0xbcf8391d	-0.030300671
67	0xbe5205a6	-0.20509967
68	0xbe24c408	-0.16090405
69	0xbda0dfcc	-0.07855186
70	0xbe4861be	-0.19568536
71	0xbcc7b93a	-0.024380315
72	0xbd0d2853	-0.034462284
73	0xbd984293	-0.07434573
74	0xbd524ecc	-0.051344678
75	0xbe3d1a59	-0.18467082
76	0xbe18f3cc	-0.14936751
77	0xbdf145b2	-0.117808715
78	0xbe161c27	-0.14659177
79	0xbdee4aca	-0.11635359
80	0xbd4a9ad9	-0.04946408
81	0xbe3171ee	-0.17328617
82	0x3cb3e41f	0.021959363
83	0xbdcf310e	-0.10116778
84	0xbe4db004	-0.20086676
85	0xbe72c44e	-0.23707697
86	0xbe013b7e	-0.1262035
87	0xbe5145fe	-0.20436856
88	0xbd845e8f	-0.06463348
89	0xbe8f7393	-0.28017864
90	0xbd021551	-0.03175861
91	0xbe56e6a5	-0.20986421
92	0xbddd8845	-0.10817007
93	0xbdb612a0	-0.08890271
94	0xbe8ac827	-0.2710583
95	0xbda5273d	-0.08064125
96	0x3d384f60	0.044997573
97	0xbdf58b9e	-0.119895205
98	0xbde23d80	-0.110468864
99	0xbdcaabbd	-0.09896038
100	0xbe494f6d	-0.19659205
101	0x3d21de97	0.03951892
102	0xbd230e6c	-0.039808676
103	0xbe1fe331	-0.1561401
104	0xbdef7a9a	-0.11693306
105	0xbdaa9155	-0.08328501
106	0x3cf3d2e8	0.029763654
107	0x3d889115	0.06668297
108	0x3d0eabcc	0.034831807
109	0xbdd4337e	-0.10361384
110	0xbe13956f	-0.14412473
111	0xbd9ee9c0	-0.07759428
112	0xbe47bbc8	-0.19505227
113	0xbdd5797d	-0.10423563
114	0xbdd613ed	-0.10453019
115	0xbde3dc5e	-0.11126016
116	0xbe2860ea	-0.1644322
117	0xbe03e560	-0.12880468
118	0x3c712366	0.014717912
119	0xbdceb8bc	-0.10093829
120	0xbd84cf32	-0.06484832
121	0xbd1da975	-0.038491685
122	0xbde21152	-0.1103846
123	0xbe3f7a4f	-0.18699001
124	0xbdec14df	-0.11527418
125	0xbe1ef599	-0.15523376
126	0xbd8a80fa	-0.067628816
127	0xbdb41af4	-0.087942034
128	0xbc8faaeb	-0.017537555
129	0xbd7f563f	-0.06233811
130	0xbe15b138	-0.14618385
131	0xbe7c9423	-0.24665885
132	0x3d0528e2	0.032509692
133	0xbdcff4a0	-0.101540804
134	0xbb27cb83	-0.002560348
135	0xbcc6d562	-0.02427167
136	0xbe14f5ef	-0.14546941
137	0x3b10596d	0.0022025958
138	0xbdc17252	-0.09445633
139	0xbe478248	-0.19483292
140	0x3cf53b6b	0.02993556
141	0xbea13c17	-0.31491157
142	0xbe27f891	-0.16403414
143	0xbcea1e3c	-0.02857887
144	0x3b92be0e	0.0044782227
145	0xbc332775	-0.0109347
146	0xbcd72119	-0.0262609
147	0xbc19210c	-0.009346258
148	0xbd2587a1	-0.04041255
149	0xbe12638c	-0.14295787
150	0xbd95be50	-0.0731169
151	0xbd0cd528	-0.03438297
152	0xbcc7b5f6	-0.024378758
153	0xbd03eb61	-0.032206897
154	0xbe2033fd	-0.15644832
155	0xbbae16f3	-0.0053127944
156	0xbe8e794c	-0.27826917
157	0xbe1878b8	-0.148898
158	0xbdec27db	-0.11531039
159	0x3cd26730	0.02568397
160	0xbe65b1f4	-0.22431165
161	0xbdbb198b	-0.09135731
162	0x3d557f25	0.052123208
163	0xbdf65b06	-0.1202908
164	0xbc640d67	-0.013919211
165	0xbe26f01a	-0.16302529
166	0xbe240d66	-0.16020736
167	0xbd4969ab	-0.04917304
168	0xbe1455b9	-0.14485826
169	0xbe6890e7	-0.22711526
170	0x3cfce177	0.030869229
171	0xbe2a5952	-0.16635635
172	0x3cef38ec	0.029201947
173	0xbc110fa3	-0.008853826
174	0xbd9bc232	-0.07605399
175	0xbd9b6104	-0.07586864
176	0xbe94489c	-0.28961647
177	0xbccf8154	-0.025330223
178	0xbe49aaf6	-0.19694123
179	0xbe22de42	-0.15905097
180	0xbd3c5a87	-0.04598477
181	0x3d365bb2	0.04452104
182	0x3c353ec2	0.011062326
183	0xbe4fc043	-0.20288186
184	0xbcf5fe45	-0.030028472
185	0xbbb08279	-0.0053866473
186	0x3e4063ca	0.18788067
187	0xbe061dae	-0.1309726
188	0xbe2d7da5	-0.16942461
189	0xbe43ab97	-0.19108425
190	0xbe16aaa5	-0.14713533
191	0xbde81e7b	-0.11333939
192	0x3a55f016	0.0008161081
193	0xbd089490	-0.033344805
194	0xbe20a805	-0.15689094
195	0xbe73b970	-0.23801208
196	0xbdddb2d3	-0.10825124
197	0xbeb48e90	-0.35265017
198	0xbcda6627	-0.026660038
199	0xbde7a757	-0.113112144
200	0xbe0018a9	-0.12509407
201	0xbe246c52	-0.16056946
202	0x3c9f9c53	0.01948372
203	0xbe482907	-0.195469
204	0x3d6e44f5	0.05817123
205	0xbe5e63d8	-0.21717775
206	0xbddcf594	-0.10789028
207	0xbe35e111	-0.17761637
208	0xbd4eae8b	-0.050459426
209	0xbd6c42ab	-0.057680767
210	0xbdafe3f7	-0.08588403
211	0xbe1dc570	-0.15407348
212	0xbcb38579	-0.02191423
213	0xbe2ecba3	-0.17069869
214	0xbc6b4079	-0.014358633
215	0xbd143053	-0.036178898
216	0xbd3906ac	-0.04517238
217	0x3d6dfe28	0.05810371
218	0xbdafbfb2	-0.08581485
219	0xbd3f5d32	-0.046719737
220	0xbe095772	-0.13412264
221	0xbe5d0872	-0.21585253
222	0xbd7994dd	-0.060932983
223	0xbcd94461	-0.026521863
224	0x3d8cea95	0.068806805
225	0xbe2d3116	-0.16913256
226	0xbe4f5985	-0.20248993
227	0xbdc53899	-0.09629936
228	0xbd93d8db	-0.07219096
229	0xbe119583	-0.1421719
230	0xbe25f7c1	-0.16207792
231	0x3bd59c45	0.006518873
232	0xbd9bc078	-0.0760507
233	0xbe78069d	-0.24221273
234	0xbb59ee33	-0.003325355
235	0x3d0d5f03	0.03451444
236	0xbc08921a	-0.008335615
237	0xbe8881ca	-0.2666152
238	0xbdb47d7a	-0.08812995
239	0xbcf9529d	-0.0304349
240	0xbd9062fb	-0.07050129
241	0xbe43695a	-0.19083157
242	0xbe7d8ff1	-0.2476194
243	0xbd823198	-0.063571155
244	0xbe730a9d	-0.23734517
245	0xbd973d09	-0.073846884
246	0xbdccb2de	-0.09995054
247	0xbe9b51e0	-0.30335903
248	0xbe5e9d38	-0.21739662
249	0xbca5eee0	-0.020255506
250	0xbe8350c3	-0.25647554
251	0xbe78fb2c	-0.24314564
252	0xbe055bc7	-0.13023292
253	0x3c98675e	0.018603977
254	0x3c665fbc	0.014060911
255	0xbd963ca1	-0.07335783

network_body._body_endoder.seq_layers.2.weight f4 [256, 256]
0	0x3d38cd59	0.04511771
1	0x3d162fb8	0.036666602
2	0x3cdb958a	0.026804704
3	0x3d7f1fac	0.062286064
4	0xbe89d4a6	-0.2692005
5	0xbdc0e86b	-0.0941933
6	0x3d038989	0.032113586
7	0xbdca6c41	-0.09883929
8	0xbe31fab0	-0.17380786
9	0xbded047f	-0.11573123
10	0x3c8bd9bf	0.017071603
11	0xbe345e26	-0.1761404
12	0x3b00174d	0.0019545138
13	0xbd3bb645	-0.045828123
14	0xbcf86fd4	-0.030326761
15	0xbe498d93	-0.19682913
16	0xbdab6c83	-0.08370306
17	0xbca44b3d	-0.020055408
18	0xbb9db1d3	-0.004812458
19	0x3dbf5ec3	0.09344246
20	0x3cef2c10	0.029195815
21	0x3da15028	0.07876617
22	0x3de7fd06	0.11327557
23	0x3da3ed23	0.080042146
24	0x3c09d7ee	0.008413298
25	0xbe6495de	-0.22322795
26	0x3e2389db	0.15970556
27	0x3dc4a6c0	0.096021175
28	0x3dae3143	0.0850549
29	0xbe041b16	-0.12900957
30	0xbd27acc4	-0.040936247
31	0xbe061a50	-0.13095975
32	0xbe058d85	-0.13042267
33	0x3cbb5da2	0.022871796
34	0xbe1ade8b	-0.15123956
35	0x3dbde28e	0.092717275
36	0x3b8bb696	0.0042637093
37	0x3de9916a	0.11404689
38	0x3b992b31	0.0046743383
39	0xbe612e4b	-0.21990316
40	0x3cd90b83	0.026494747
41	0xbd908fce	-0.070586786
42	0x3cf263e3	0.029588645
43	0xbe199131	-0.14996792
44	0xbcfbe0a0	-0.030746758
45	0xbdc4e070	-0.096131206
46	0x3e252b88	0.16129887
47	0xbe4d60c4	-0.20056444
48	0x3ca12a9b	0.019673636
49	0xbdb60dbd	-0.08889339
50	0xbdb26dd1	-0.08712352
51	0xbe18a01c	-0.14904827
52	0xbcfab5e4	-0.03060431
53	0x3dd05b18	0.10173625
54	0x3d3b8bc7	0.0457876
55	0xbc110767	-0.0088518625
56	0xbdbee60c	-0.09321222
57	0x3cbadb23	0.02280957
58	0x3c409867	0.011755086
59	0x3b3f8134	0.0029221298
60	0xbdafd061	-0.08584667
61	0xbc9b65d9	-0.018969463
62	0x3d5330dc	0.051560268
63	0x3c97e88c	0.018543504
64	0x3b10b6e0	0.0022081658
65	0x3d50ac8c	0.050945804
66	0xbd8d6288	-0.06903559
67	0xbdebb316	-0.11508767
68	0xbd262648	-0.04056385
69	0x3dbd54b7	0.09244674
70	0x3d121154	0.035661057
71	0xbd917c0e	-0.0710374
72	0x3c893907	0.016750826
73	0x3e07db06	0.13267145
74	0xbc0ff620	-0.008786708
75	0xbbe10e54	-0.006868163
76	0x3bea2c16	0.0071463687
77	0xbe10fefa	-0.14159766
78	0xbdd4d66f	-0.103924625
79	0x3b9da891	0.0048113544
80	0xbe3cf8a5	-0.18454225
81	0x3cd88ed6	0.026435297
82	0xba8fd796	-0.0010974284
83	0x3c8a1d62	0.016859714
84	0xbdb2934a	-0.087194994
85	0x3a4be8fe	0.0007778554
86	0xbe656ecc	-0.22405547
87	0xbda4cc54	-0.08046785
88	0xbe043b92	-0.1291335
89	0x3bb97df0	0.005660765
90	0xbd4d8687	-0.050177123
91	0x3e382ba9	0.17985405
92	0xbdc1a7e9	-0.094558544
93	0x3d64bd35	0.055844504
94	0xbdcd996a	-0.10039027
95	0x3d904689	0.070447035
96	0xbc32f873	-0.010923493
97	0x3d456dc0	0.04820037
98	0xbe2d8f24	-0.16949135
99	0x3e027ff4	0.12744123
100	0x3ce90a45	0.02844728
101	0xb926ee94	-0.00015919871
102	0xbd88f982	-0.06688215
103	0x3d80cb81	0.06288815
104	0xbe012f0b	-0.12615602
105	0xbd95b6df	-0.073102705
106	0x3c111b44	0.008856598
107	0xbe2dc13a	-0.16968241
108	0xbe28071f	-0.16408966
109	0xbdcd4db4	-0.10024586
110	0x3dbfc0de	0.09362958
111	0x3da0a88e	0.07844649
112	0xbd0c1449	-0.034199033
113	0x3befb70c	0.007315522
114	0x3d5fffb9	0.054687236
115	0x3b95d777	0.0045728046
116	0xbd8bd8db	-0.06828471
117	0xbd62db52	-0.05538494
118	0x3c7e441b	0.015519167
119	0x3cd90969	0.026493745
120	0xbe6b416d	-0.22974177
121	0xbd9dae7d	-0.076992966
122	0xbcf07917	-0.029354615
123	0xbdaf440a	-0.08557899
124	0x3d7d1169	0.06178418
125	0xbcbd72fe	-0.023126122
126	0xbe0b2e3b	-0.13591854
127	0xbccd54c1	-0.025064828
128	0xbdb921de	-0.09039663
129	0x3e0eb64b	0.13936727
130	0xbd6bd5b0	-0.057576835
131	0xbcd90c31	-0.026495071
132	0xbe17b599	-0.14815368
133	0x3d293aff	0.04131603
134	0xbe8cb4e7	-0.27481768
135	0xbe0d4dd4	-0.1379922
136	0x3e0d482c	0.13797063
137	0x3e0d7e18	0.13817632
138	0xbce07786	-0.027400743
139	0x3b0286dc	0.0019916808
140	0xbdd03854	-0.10166994
141	0xbe064597	-0.13112484
142	0x3d27a37f	0.040927406
143	0x3e336601	0.1751938
144	0x3c924a9c	0.017857842
145	0x3d9aa3f3	0.07550802
146	0xbd71a469	-0.058994684
147	0x3cad89d9	0.021183895
148	0x3e4a46b0	0.19753528
149	0xbd1ed95e	-0.038781516
150	0xbdfe54b9	-0.12418503
151	0x3c025209	0.007954129
152	0x3d0e3916	0.03472241
153	0x3ca86676	0.02055667
154	0xbe0abadc	-0.13547844
155	0x3e16e238	0.14734733
156	0xbd5a40f2	-0.053284593
157	0xbdeb93df	-0.115028135
158	0xba6113c7	-0.0008586016
159	0xbdda0345	-0.10645155
160	0x3bed1925	0.0072356635
161	0xbdcde3b6	-0.10053198
162	0xbdbb55f2	-0.09147252
163	0x3d9055db	0.07047626
164	0xbdaa11c0	-0.08304167
165	0x3def9058	0.11697453
166	0xbdf8e55b	-0.12153121
167	0xbc50053a	-0.012696559
168	0xbc6169c3	-0.013758126
169	0x3d29a65a	0.04141841
170	0xbe57c87c	-0.21072572
171	0xbdf01af8	-0.11723894
172	0xbc9ef8d3	-0.019405758
173	0x3dae2678	0.08503431
174	0xbe53ed62	-0.20696023
175	0xbc4cd624	-0.012502227
176	0x3dae9ed8	0.08526391
177	0x3c82da4d	0.015973235
178	0xbcc1e776	-0.02366994
179	0xbca8e985	-0.020619163
180	0x3d252d63	0.040326487
181	0xbbe8e132	-0.0071069235
182	0xbd117587	-0.035512473
183	0x3d6168c5	0.055031557
184	0x3b63b9fa	0.0034748302
185	0x3c77a25c	0.015114393
186	0xbd171c4b	-0.036892217
187	0x3dd81d7a	0.10552497
188	0xbcffc972	-0.031223986
189	0x3e03391a	0.12814751
190	0x3d168677	0.03674933
191	0x3d85b893	0.06529345
192	0xbd585ce3	-0.05282296
193	0x3dcf8d86	0.10134415
194	0xbdff13ff	-0.12454986
195	0xbdc50cf3	-0.096216105
196	0xbe07804e	-0.13232538
197	0x3da3b62d	0.07993732
198	0x3d7d6b6e	0.06187003
199	0xbe2b90bd	-0.16754432
200	0xbe080567	-0.13283311
201	0x3d998e3b	0.074978314
202	0xbde3c501	-0.1112156
203	0x3c054928	0.008135118
204	0x3d413b55	0.047175724
205	0xbcfedaf1	-0.031110259
206	0xbb879eb4	-0.004138792
207	0x3db06b71	0.08614243
208	0x3d2f8e69	0.042860422
209	0xbdbe1ef7	-0.0928325
210	0xbe28d9ff	-0.16489409
211	0x3dbbc6df	0.09168791
212	0xbe0759ed	-0.13217898
213	0x3e01066b	0.12600105
214	0xbe102031	-0.1407478
215	0x3dc16ba9	0.09444363
216	0x3dcc5cc2	0.0997863
217	0x3d8649f6	0.06557076
218	0x3deebab5	0.11656705
219	0x3e2e0a21	0.16996051
220	0x3d7398cf	0.0594719
221	0x3dd0ba71	0.10191811
222	0x3d77662a	0.060400166
223	0x3dcea2b2	0.100896254
224	0x3e0aea02	0.1356583
225	0x3e0d1abe	0.13779733
226	0xbccc1971	-0.024914475
227	0xbe002b3d	-0.12516494
228	0xbd8e6ddc	-0.06954548
229	0x3da6beb3	0.08141842
230	0x3de7de3e	0.11321686
231	0xbd51101b	-0.05104075
232	0x3d66507d	0.056229103
233	0xbd770301	-0.0603056
234	0x3e07d965	0.13266523
235	0xbca8991c	-0.02058082
236	0xbd8b1b81	-0.06792355
237	0xbd683f5a	-0.05670104
238	0x3cdab597	0.026697917
239	0x3e0e18f4	0.13876706
240	0x3d80dc8b	0.06292065
241	0x3d7a6384	0.06113006
242	0xbd7fb560	-0.062428832
243	0xbdaa61d3	-0.0831944
244	0x3e05ba99	0.13059463
245	0xbd9d0c1b	-0.076683246
246	0xbd6eb6f2	-0.05827994
247	0x3d87300a	0.066009596
248	0x3c9bc2da	0.01901381
249	0xbd645799	-0.055747602
250	0x3dc503af	0.09619843
251	0x3cf2cbb6	0.029638153
252	0xbe2d13fa	-0.16902152
253	0x3c10941b	0.008824374
254	0xbdebb30c	-0.1150876
255	0x3cb78ff1	0.022407504

network_body._body_endoder.seq_layers.2.bias f4 [256]
0	0xbdd4db24	-0.1039336
1	0xbd488572	-0.04895539
2	0xbe2092c6	-0.1568099
3	0xbde64e7a	-0.11245437
4	0xbdac66e0	-0.08418059
5	0xbce4f79d	-0.027950102
6	0xbe20734b	-0.15668981
7	0xbe14a3ef	-0.1451566
8	0xbe41baee	-0.18918964
9	0xbe5f983a	-0.21835414
10	0xbd8085e2	-0.06275536
11	0xbe19a69e	-0.15004966
12	0xbe2286a1	-0.1587167
13	0xbd1a4b92	-0.037669726
14	0xbd97dffa	-0.07415767
15	0xbe4c9817	-0.19979893
16	0xbe257d88	-0.16161168
17	0xbc6f3616	-0.014600297
18	0xbda9c372	-0.08289231
19	0xbe43523b	-0.19074337
20	0xbd590a2a	-0.05298821
21	0xbe2adc7b	-0.16685669
22	0xbdb3ace9	-0.08773214
23	0xbcee3e9f	-0.029082594
24	0x3d35ee06	0.04441645
25	0xbe37502b	-0.17901675
26	0xbd2f50e1	-0.04280174
27	0xbda6a059	-0.08136053
28	0xbde89dea	-0.11358245
29	0xbd5cdfb9	-0.053924296
30	0xbdc86d8e	-0.09786521
31	0xbe1f8141	-0.1557665
32	0xbd67aa6c	-0.05655901
33	0xbcdbf83a	-0.026851762
34	0xbe05468a	-0.1301519
35	0xbe68d779	-0.22738446
36	0xbdbc1c09	-0.09185035
37	0xbe0aec4c	-0.13566703
38	0xbd4c7950	-0.04992038
39	0xbe414d48	-0.18877137
40	0xbd88acf4	-0.06673613
41	0xbdf5e08a	-0.12005718
42	0xbe19da08	-0.15024579
43	0xbe5ff747	-0.21871673
44	0xbcd7d9e1	-0.02634901
45	0xbe3452ed	-0.17609759
46	0xbe09515c	-0.13409942
47	0xbd959093	-0.07302966
48	0xbdbc30dc	-0.09189007
49	0x3e294187	0.16528903
50	0xbdd473c0	-0.1037364
51	0x3cce0638	0.02514945
52	0x3d158034	0.036499217
53	0xbe2a5c8a	-0.16636863
54	0xbe5cabb2	-0.21549872
55	0x3c632e5a	0.013866032
56	0xbdf7ed0f	-0.12105762
57	0xbe27006a	-0.16308752
58	0xbdb31c7d	-0.08745668
59	0xbe1ae5b0	-0.15126681
60	0x3d8098aa	0.06279118
61	0x3d8d79fc	0.06908032
62	0xbe4c9fff	-0.19982909
63	0xbe23b917	-0.15988575
64	0xbd9717f0	-0.073776126
65	0xbdd87132	-0.10568465
66	0x3bc59c8d	0.006030625
67	0xbdc56c1b	-0.0963976
68	0xbdd49464	-0.10379866
69	0xbe2e4e32	-0.17022017
70	0xbdf0811b	-0.11743375
71	0xbbb2cd49	-0.005456601
72	0xbe7f06ce	-0.2490494
73	0xbe0afc8d	-0.13572903
74	0xbd6904fa	-0.05688951
75	0xbda27e5b	-0.07934257
76	0xbd50fb25	-0.05102076
77	0xbdd2b93b	-0.10289236
78	0xbc881e7f	-0.016616104
79	0xbde82b93	-0.11336436
80	0x3e5b9e43	0.21447091
81	0x37e230a6	2.6963953e-05
82	0xbd5b04d7	-0.053471413
83	0xbe324739	-0.17409982
84	0xbe0eb7b8	-0.1393727
85	0xbe06e620	-0.13173723
86	0xbe0b423f	-0.1359949
87	0xbe35735e	-0.1771979
88	0xbe2cd70f	-0.16878913
89	0xbd6bcb5a	-0.057566978
90	0xbe31f1ca	-0.17377391
91	0xbe0a73a0	-0.1352067
92	0xbca2bbcc	-0.01986494
93	0x3c5b1114	0.013370771
94	0xbd3b5a42	-0.045740373
95	0xbe2f497a	-0.17117873
96	0xbe14795f	-0.14499424
97	0xbe2b1990	-0.1670897
98	0xbdebaa6b	-0.11507114
99	0x3b56b50e	0.0032761726
100	0xbe2e4a99	-0.17020644
101	0x3e98bfcb	0.29833826
102	0xbd902140	-0.07037592
103	0xbe063c6a	-0.13108984
104	0xbde42e98	-0.111416996
105	0xbdc227d1	-0.094802506
106	0xbd5c991e	-0.05385696
107	0xbd24e234	-0.040254787
108	0xbe292f11	-0.1652186
109	0xbd67934b	-0.056536954
110	0x3ba118e4	0.0049162973
111	0xbdec3c0a	-0.11534889
112	0xbdad46b4	-0.08460751
113	0xbdc3e22a	-0.09564622
114	0xbe2ca42d	-0.16859503
115	0xbe0305cb	-0.12795179
116	0xbe01ffdf	-0.12695263
117	0xbdb19d0e	-0.08672534
118	0xbd68477b	-0.056708794
119	0xbe3352d1	-0.1751206
120	0xbd500079	-0.0507817
121	0xbdf52912	-0.11970724
122	0xbd88ac30	-0.06673467
123	0xbc9c7380	-0.019098043
124	0x3dd99226	0.10623579
125	0xbd4deb84	-0.050273433
126	0xbdb93f1e	-0.09045242
127	0xbe0713c0	-0.13191128
128	0xbe1d590b	-0.15365998
129	0xbe1cc6b2	-0.15310171
130	0xbdca0453	-0.09864106
131	0xbdee7e31	-0.11645163
132	0xbe36b3bb	-0.17841999
133	0xbc1a90f0	-0.00943397
134	0xbc7775f8	-0.01510381
135	0xbdb635b1	-0.088969596
136	0xbda26d8d	-0.079310514
137	0xbe125ef2	-0.14294031
138	0xbe06f647	-0.13179885
139	0xbcc8af2d	-0.024497593
140	0x3c8db456	0.017297905
141	0xbdc90836	-0.09816019
142	0xbd9407fc	-0.072280854
143	0xbe557abb	-0.20847599
144	0xbe194c6c	-0.14970559
145	0xbdca392b	-0.09874185
146	0xbe0ad009	-0.13555922
147	0x3d8e53af	0.06949555
148	0xbd1fbefd	-0.0390005
149	0xbe346a42	-0.17618659
150	0xbe4584c5	-0.19288929
151	0xbdb9ea1a	-0.090778545
152	0x3d8f27a0	0.0698998
153	0xbdbcdfb3	-0.09222355
154	0xbe121e5e	-0.14269397
155	0xbe8115c6	-0.25211924
156	0xbe69ce0b	-0.22832505
157	0xbce6f79d	-0.028194243
158	0xbd86c20c	-0.0657998
159	0xbdf0678c	-0.117385
160	0xbe352aff	-0.17692183
161	0x3e159a6f	0.14609693
162	0xbd674bbe	-0.056468718
163	0xbe2e8f27	-0.17046796
164	0xbe264123	-0.16235785
165	0xbdebc1da	-0.115115836
166	0xbd83aa95	-0.0642902
167	0xbd66297c	-0.056191906
168	0xbe0c116b	-0.1367852
169	0xbe52125f	-0.2051482
170	0xbc10b51f	-0.008832245
171	0xbe17308e	-0.14764616
172	0x3d05b33b	0.03264163
173	0xbde3d962	-0.11125447
174	0xbc6cf91a	-0.014463687
175	0xbe0c058e	-0.13673994
176	0xbdb9e566	-0.090769574
177	0xbe3f55d1	-0.1868508
178	0x3e37e609	0.17958845
179	0xbe085929	-0.13315262
180	0x3e5cced8	0.2156328
181	0x3c1d465a	0.009599293
182	0xbd295755	-0.041343052
183	0x3d021b01	0.031764034
184	0xbdf4873f	-0.11939859
185	0xbe495ea6	-0.19665012
186	0xbe204001	-0.15649416
187	0xbcbdd78c	-0.02317407
188	0xbdd0b5f4	-0.10190955
189	0xbd2b203b	-0.041778784
190	0xbdbab293	-0.091160916
191	0xbda91230	-0.08255422
192	0xbdc98a67	-0.09840851
193	0xbe042cab	-0.12907664
194	0xbe5cc3d9	-0.21559085
195	0xbe141880	-0.14462471
196	0xbe13b82b	-0.14425723
197	0x3cfa1406	0.030527126
198	0xbe1fa032	-0.15588453
199	0x3d0450a5	0.03230347
200	0xbde49d93	-0.111628674
201	0xbdc15cbd	-0.094415165
202	0xbd15d2b0	-0.03657788
203	0xbdbb8177	-0.09155553
204	0xbe226414	-0.1585849
205	0xbd31c037	-0.0433962
206	0xbd92a53a	-0.07160421
207	0xbce25c3d	-0.027631873
208	0xbc814b71	-0.015783044
209	0xbd96460d	-0.0733758
210	0xbdd67426	-0.10471372
211	0xbd487224	-0.048936978
212	0xbd8963f6	-0.06708519
213	0xbd84c8d5	-0.06483618
214	0xbdbdd307	-0.09268766
215	0xbe0333c4	-0.12812716
216	0xbe179b9c	-0.14805454
217	0xbdf1dbd5	-0.11809508
218	0xbd74c030	-0.059753597
219	0x3e75e9eb	0.24015014
220	0xbde064cf	-0.10956728
221	0xbdc373a4	-0.09543541
222	0xbde43803	-0.11143496
223	0xbd377af7	-0.044795003
224	0xbe0ea878	-0.13931453
225	0xbe36e72f	-0.17861627
226	0xbe26f73d	-0.16305251
227	0xbe3f3672	-0.18673113
228	0xbe1ab524	-0.15108162
229	0xbdd4a403	-0.10382845
230	0xbd724f55	-0.05915769
231	0xbe1db421	-0.15400745
232	0xbe4941c2	-0.19653991
233	0xbdd1161f	-0.102092974
234	0xbe39474f	-0.18093608
235	0xbc95152f	-0.018198578
236	0xbe1ff60b	-0.15621202
237	0x3c9dc61b	0.019259503
238	0xbdd9aa81	-0.10628224
239	0xbdc8c5a5	-0.09803323
240	0xbdee0c19	-0.11623401
241	0xbe431f69	-0.19054951
242	0xbe207746	-0.15670499
243	0xbe04911c	-0.1294598
244	0xbe33437b	-0.1750621
245	0xbd187d4a	-0.03722886
246	0xbcc314ea	-0.023813684
247	0xbe80f841	-0.25189403
248	0xbdc6f822	-0.09715296
249	0xbd591e72	-0.05300755
250	0xbe3933c6	-0.18086156
251	0xbe5944e7	-0.2121769
252	0xbe36a461	-0.17836143
253	0xbe296af8	-0.16544712
254	0xbd8f2c44	-0.06990865
255	0xbe2d46a4	-0.16921479

network_body._body_endoder.seq_layers.4.weight f4 [256, 256]
0	0x3d4c83a3	0.049930226
1	0xbc5698f6	-0.013097992
2	0x3e0b21f1	0.13587166
3	0xbe3d9d73	-0.18517093
4	0x3d8b8157	0.06811779
5	0xbd63adb6	-0.055585586
6	0x3e06be2d	0.13158484
7	0xbe144cd3	-0.14482431
8	0xbdb53316	-0.088476345
9	0xbd4c9a41	-0.049951795
10	0xbd24e18c	-0.04025416
11	0xbdd94f71	-0.10610855
12	0xbcd37f6d	-0.025817597
13	0xbe32e0b4	-0.1746853
14	0x3e3d2570	0.18471313
15	0xbda5f5a9	-0.081034966
16	0xbdda4996	-0.10658567
17	0x3d3d1f59	0.046172474
18	0xbe05483e	-0.1301584
19	0x3d01e48e	0.031712107
20	0x3d751388	0.05983308
21	0xbe68281a	-0.22671548
22	0xbd00d2d5	-0.031451065
23	0xbb9d0744	-0.004792126
24	0xbde524e5	-0.11188678
25	0x3da1cce5	0.07900409
26	0xbda2bcac	-0.079461426
27	0xbd4eaad4	-0.050455883
28	0xbddee2c0	-0.10883093
29	0x3d9e60f2	0.077333346
30	0x3d901223	0.07034709
31	0x3d70b3fb	0.058765393
32	0x3ccb6129	0.024826603
33	0xbe5862df	-0.21131466
34	0x3c62936a	0.013829092
35	0xbde2d93b	-0.1107659
36	0xbd90c674	-0.07069102
37	0x3d9cdcc5	0.07659296
38	0xbe61fbfe	-0.22068784
39	0xbe00bec3	-0.1257277
40	0xbc99e6ca	-0.018786807
41	0x3d872eb1	0.066007026
42	0xbe3c71c3	-0.18402772
43	0xbd71071b	-0.058844667
44	0xbe2a237d	-0.166151
45	0xbc8e66d4	-0.017383017
46	0xbe02cdb0	-0.12773776
47	0xbe4a1f84	-0.19738585
48	0xbc6aa0bd	-0.01432055
49	0x3c1d4ad5	0.009600361
50	0x3d2ee60d	0.042699862
51	0xbdd5d907	-0.10441785
52	0xbe25e4b0	-0.16200519
53	0xbe5182e5	-0.20460089
54	0xbe66017e	-0.22461507
55	0x3d509cd6	0.05093082
56	0xbe222ed5	-0.15838178
57	0x3e03421e	0.1281819
58	0x3cf8d4f4	0.030374981
59	0xbdab0237	-0.08350032
60	0xbdba8b68	-0.09108621
61	0x3cf00a62	0.029301826
62	0xbd5f24c0	-0.054478407
63	0xbd01e883	-0.03171588
64	0x3e42bcba	0.19017306
65	0x3dfc7005	0.123260535
66	0xbd53aec5	-0.051680345
67	0x3da87365	0.08225135
68	0xbd9c1f3b	-0.07623144
69	0x3d7fc36e	0.062442236
70	0x3dad9fb9	0.0847773
71	0x3cbc35d3	0.022974884
72	0x3d462eeb	0.04838459
73	0x3d5b79fb	0.053583127
74	0xbc8ff06c	-0.017570697
75	0x3e1c3956	0.15256247
76	0x3d259032	0.04042072
77	0x3e64e187	0.22351657
78	0xbc931ca3	-0.017957991
79	0xbea563b2	-0.32302624
80	0x3d3d4ccf	0.04621583
81	0x3dc13bec	0.09435257
82	0x3dd03881	0.10167027
83	0x3d3f1391	0.04664952
84	0x3b423513	0.0029633685
85	0xbe10b48d	-0.14131375
86	0xbd832380	-0.064032555
87	0x3d83bb18	0.0643217
88	0xbdc72a70	-0.09724891
89	0xbdfeb966	-0.12437706
90	0x3db11bef	0.08647906
91	0xbd90e6ee	-0.07075296
92	0xbe672e03	-0.22576146
93	0xbe22e03b	-0.1590585
94	0xbe332d98	-0.17497861
95	0x3cb02bcf	0.021505265
96	0x3c919723	0.017772263
97	0xbd54d3b1	-0.051959697
98	0x3d36ba76	0.044611417
99	0x3c46326e	0.012096984
100	0x3dd1ba96	0.102406666
101	0xbd062838	-0.0327532
102	0xbda768fb	-0.0817432
103	0x3d5bf20e	0.05369764
104	0xbac56e5a	-0.0015062795
105	0xbe3d1fe6	-0.184692
106	0xbcca2105	-0.024673948
107	0xbd8ebbac	-0.06969389
108	0x3c7a7edf	0.0152890375
109	0x3d53fc5b	0.051754337
110	0xbcd17165	-0.025566766
111	0xbdff006f	-0.124512546
112	0x3dbf8fd5	0.09353606
113	0xbe482528	-0.19545424
114	0xbd9f1cd6	-0.07769172
115	0xbd1ede59	-0.038786266
116	0x3e16f7eb	0.1474301
117	0xbe0d73e0	-0.13813734
118	0x3e38f414	0.18061858
119	0xbd860777	-0.065443926
120	0xbcd5d6ef	-0.026103465
121	0xbe8dce32	-0.27696377
122	0x3d0ab9fd	0.03386878
123	0xbd4842db	-0.048891883
124	0x3c8ccab8	0.017186508
125	0xbdb63933	-0.08897629
126	0xbda0107d	-0.07815645
127	0xbcc62deb	-0.024191817
128	0xbe857825	-0.26068226
129	0xbe20c95c	-0.15701813
130	0xbe29decb	-0.16588895
131	0x3dbeada9	0.09310467
132	0xbd9ddc21	-0.07708002
133	0x3b386f98	0.0028142687
134	0xbe0095cf	-0.12557147
135	0xbd641de9	-0.055692587
136	0xbde1d409	-0.110267706
137	0xbbb1391f	-0.0054084207
138	0x3d551ca1	0.052029256
139	0xbbdbaa03	-0.0067036166
140	0x3e0ca1d2	0.13733605
141	0xbe229e14	-0.15880615
142	0xbe472407	-0.19447337
143	0x3e047e8d	0.129389
144	0xbbf6b2fc	-0.007528661
145	0x3cd0ee6a	0.02550431
146	0xbd4aef0c	-0.04954438
147	0xbd9f438c	-0.077765554
148	0xbd87fc58	-0.066399276
149	0x3d5a1f0d	0.05325227
150	0x3d39c32a	0.04535214
151	0x3c98ab26	0.018636297
152	0x3d267d7b	0.04064701
153	0xbc48c34a	-0.012253592
154	0xbe23a731	-0.15981747
155	0x3ddf1a7e	0.10893725
156	0xbe1a6faf	-0.15081666
157	0x3ba4dfae	0.0050315475
158	0xbe02d287	-0.12775622
159	0x3d951f37	0.072813444
160	0xbc8bc6e5	-0.017062614
161	0x3cd7548d	0.026285434
162	0xbe415841	-0.18881322
163	0xbdbc6ca0	-0.09200406
164	0x3d8dff3f	0.0693345
165	0xbde8fb4f	-0.11376058
166	0x3e1d24ee	0.15346119
167	0xbe078ac4	-0.13236529
168	0x3d8ff059	0.070282646
169	0xbe13eb96	-0.14445338
170	0x3db580fa	0.08862491
171	0xbe779a25	-0.24179895
172	0xbc739749	-0.014867612
173	0xbcd77507	-0.02630092
174	0x3da8938e	0.08231269
175	0x3ba74a3b	0.0051052845
176	0x3c1cd4dc	0.009572234
177	0xbc61218c	-0.013740908
178	0xbe065dce	-0.13121721
179	0xbd011015	-0.031509478
180	0x3c7eefe5	0.015560125
181	0xbe1bf5ab	-0.15230434
182	0xbd9c1280	-0.07620716
183	0xb9901dd1	-0.00027488035
184	0x3c7a66ac	0.015283268
185	0xbe35f536	-0.17769322
186	0xbc9ccbac	-0.019140087
187	0x3d36813f	0.044556852
188	0xbe02ab69	-0.127607
189	0x3b3e8fef	0.002907749
190	0xbd9be6ca	-0.07612379
191	0xbd5b7417	-0.05357751
192	0xbe7eead9	-0.24894275
193	0x3d75c6de	0.060004108
194	0x3d3f0d8e	0.046643786
195	0xbd59dbb0	-0.053188026
196	0xbcde8c7c	-0.027166598
197	0xbe2a1087	-0.16607867
198	0x3c532bb9	0.012888842
199	0xbbfc8fb9	-0.0077075628
200	0x3c9a523f	0.018838046
201	0xbd6d9b0d	-0.058009196
202	0xbdeca361	-0.115545996
203	0x3d8b0fa5	0.06790093
204	0x3debed38	0.11519855
205	0xbe50b568	-0.20381701
206	0x3e262c47	0.16227828
207	0xbe901b53	-0.28145847
208	0xbd755151	-0.059892002
209	0x3d7e7f74	0.062133268
210	0xbd384fc5	-0.04499795
211	0xbd8c740c	-0.06858072
212	0x3d9aa4f5	0.07550994
213	0x3d7aad63	0.06120051
214	0x3d65f297	0.056139555
215	0xbe3ebaac	-0.18625897
216	0xbe37652e	-0.1790969
217	0xbe3b7a73	-0.1830843
218	0xbe53a032	-0.20666578
219	0x3cdc1630	0.026866049
220	0x3caf9a98	0.02143602
221	0xbd4c55ad	-0.049886394
222	0xbd9408f0	-0.07228267
223	0x3d189dbf	0.037259813
224	0x3d479d08	0.04873374
225	0x3cced1f7	0.025246603
226	0xbdc9408b	-0.09826764
227	0xbd14c1d2	-0.036317654
228	0xbe14a21c	-0.14514965
229	0xbd8fcc98	-0.07021445
230	0xbe060acd	-0.13090058
231	0x3e347baf	0.17625307
232	0xbb76f007	-0.0037679689
233	0x3e167417	0.14692722
234	0xbbe2c49c	-0.0069204103
235	0x3e1bdcad	0.152209
236	0xbbb81312	-0.0056175077
237	0xbdb72d51	-0.0894419
238	0xbc38c8b1	-0.011278317
239	0x3db9e577	0.0907697
240	0xbda48f4c	-0.08035144
241	0x3cf2f0df	0.029655872
242	0xbd801d16	-0.06255548
243	0xbd35dd88	-0.04440072
244	0xbccd778a	-0.025081415
245	0xbe4168c0	-0.18887615
246	0xbe585fbb	-0.21130268
247	0x3d2be885	0.041969795
248	0xbe364a93	-0.17801885
249	0x3e1462f3	0.14490871
250	0x3c07d715	0.008291026
251	0xbcdf3423	-0.02724654
252	0x3cd296f0	0.025706738
253	0xbe0eb029	-0.13934387
254	0xbd8628c3	-0.065507434
255	0xbdb0a49c	-0.08625147

network_body._body_endoder.seq_layers.4.bias f4 [256]
0	0x3adabbc5	0.001668804
1	0xbe19f4c2	-0.15034774
2	0xbe2f723e	-0.17133424
3	0xbe245184	-0.1604672
4	0xbe36465b	-0.17800276
5	0xbebaeddf	-0.36509606
6	0xbe915996	-0.2838866
7	0xbe841ff6	-0.25805634
8	0xbe901a25	-0.28144947
9	0xbdcbfcaa	-0.09960301
10	0xbe65cc00	-0.22441101
11	0xbdea3d64	-0.114374906
12	0xbe94881a	-0.29010087
13	0xbe020e8f	-0.12700866
14	0x3c0f9bbc	0.008765157
15	0xbeb877b0	-0.36028814
16	0xbe2e35cf	-0.17012714
17	0xbe87d171	-0.2652698
18	0xbe50439e	-0.20338294
19	0xbc8e54f3	-0.017374491
20	0xbd45e206	-0.048311256
21	0xbe02a607	-0.12758647
22	0xbddd5553	-0.1080729
23	0xbdd59e76	-0.10430615
24	0x3cef4f0a	0.029212493
25	0xbe1eb7fc	-0.15499872
26	0xbe5086e7	-0.20363961
27	0xbd4aa33d	-0.049472082
28	0xbdc109cf	-0.09425699
29	0xbe439cea	-0.19102827
30	0xbe9ab8ab	-0.30219015
31	0xbe3b8374	-0.18311864
32	0xbe0210c3	-0.12701707
33	0xbe46f4e0	-0.1942935
34	0xbd89ffd4	-0.067382485
35	0xbbbdacd7	-0.0057884264
36	0xbcea3b82	-0.028592829
37	0xbdec7231	-0.11545218
38	0xbe3607a8	-0.17776358
39	0xbe0a30e4	-0.13495213
40	0x3db07b39	0.08617253
41	0xbe7ca152	-0.24670914
42	0xbe0d692c	-0.13809651
43	0xbdb703bc	-0.08936259
44	0xbdecdb3b	-0.115652524
45	0xbd9380c1	-0.07202292
46	0xbe275978	-0.16342723
47	0xbe7c116e	-0.24616024
48	0xbe3c8266	-0.18409118
49	0xbe76057a	-0.24025527
50	0xbe94686b	-0.28985915
51	0xbe4485ba	-0.19191638
52	0xbe59c953	-0.21268205
53	0xbdc05641	-0.093914516
54	0xbe590039	-0.21191491
55	0xbdb90dc1	-0.090358265
56	0xbe54a4e4	-0.20766026
57	0xbdfd4dc8	-0.12368351
58	0xbe85c80e	-0.26129192
59	0xbe01ba58	-0.12668741
60	0xbe312170	-0.17297912
61	0xbdd6c39a	-0.10486527
62	0xbe0505c3	-0.12990479
63	0xbd7e990a	-0.06215767
64	0xbdeec5cf	-0.11658823
65	0xbe334a89	-0.17508902
66	0xbc0dfbfe	-0.008666037
67	0xbe89174c	-0.26775587
68	0xbe8683f4	-0.26272547
69	0x3d2969b3	0.04136057
70	0xbe610e05	-0.21978004
71	0xbe113234	-0.14179307
72	0xbe869fa0	-0.2629366
73	0x3d017186	0.031602405
74	0xbd74f782	-0.059806354
75	0xbe8ba516	-0.27274388
76	0xbe109288	-0.14118397
77	0xbe3032b9	-0.17206849
78	0xbd92d22b	-0.071689926
79	0xbe8e1edf	-0.27757928
80	0xbe18d564	-0.14925152
81	0xbdd285b6	-0.102794096
82	0xbdc9bc85	-0.0985041
83	0xbd8da4dd	-0.06916211
84	0xbe97b556	-0.29630536
85	0xbe46fc4b	-0.1943218
86	0xbe3acbb2	-0.18241766
87	0xbe687cc1	-0.2270384
88	0xbe1ee1b8	-0.15515792
89	0xbdbc0684	-0.0918093
90	0xbe036d60	-0.12834692
91	0xbdef71ab	-0.11691602
92	0xbe9bfdc8	-0.30467057
93	0xbe3c3bf1	-0.18382241
94	0x3ccaedf5	0.02477167
95	0xbd968e92	-0.07351412
96	0xbe1437dd	-0.14474435
97	0xbe219b70	-0.15781951
98	0xbe262777	-0.16225992
99	0xbe8b2ec7	-0.27184126
100	0xbd85d884	-0.06535438
101	0xbe3f0db1	-0.18657567
102	0xbe0a7837	-0.13522421
103	0xbe3475ed	-0.1762311
104	0xbe14cc90	-0.1453116
105	0xbc394072	-0.011306869
106	0xbe1baaf2	-0.15201929
107	0xbe8ff720	-0.2811823
108	0xbe1ba226	-0.15198573
109	0xbe4cb50d	-0.1999094
110	0xbe131e34	-0.1436699
111	0xbec2bb8b	-0.3803371
112	0xbe8b9121	-0.27259162
113	0xbdc5956c	-0.096476406
114	0xbe21ad25	-0.15788706
115	0xbdd38dd2	-0.103297845
116	0xbe4d76d6	-0.20064864
117	0xbe26fa91	-0.16306521
118	0xbde28105	-0.11059765
119	0xbe19b20c	-0.15009326
120	0xbd809ee1	-0.06280304
121	0xbdfea949	-0.12434632
122	0xbd4ad65b	-0.04952083
123	0xbe732938	-0.23746192
124	0xbe4147cb	-0.18875043
125	0xbe1df649	-0.15425982
126	0xbe20e821	-0.1571355
127	0xbdf7e87e	-0.12104891
128	0xbdc2f967	-0.09520226
129	0xbe18bd14	-0.14915878
130	0xbc5daaef	-0.013529523
131	0xbd8add94	-0.06780544
132	0xbe1b006e	-0.15136883
133	0xbe1b3347	-0.1515628
134	0xbd8fbfcd	-0.07019005
135	0xbdb18328	-0.08667594
136	0xbe8681c2	-0.26270872
137	0xbe083450	-0.13301206
138	0xbdf0e14b	-0.11761721
139	0xbe9cbe1a	-0.30613786
140	0xbe13a74a	-0.14419284
141	0xbda9d3fc	-0.08292386
142	0xbe662284	-0.22474104
143	0xbdfc929a	-0.123326495
144	0xbd6b34c1	-0.057423357
145	0xbcee4fb5	-0.029090742
146	0xbdc81d7c	-0.09771249
147	0xbda5b95d	-0.08091996
148	0xbda5bdba	-0.08092828
149	0xbe1bd8d8	-0.15219438
150	0xbe8f1e24	-0.27952683
151	0xbe473d15	-0.19456895
152	0xbe68f745	-0.22750576
153	0xbda2ba57	-0.07945698
154	0xbdf9afc8	-0.12191731
155	0xbda66958	-0.081255615
156	0xbe05a8be	-0.13052651
157	0xbda94feb	-0.08267196
158	0xbe12214d	-0.14270516
159	0xbe02d315	-0.12775834
160	0xbe752c25	-0.23942621
161	0xbccfbfe5	-0.025360057
162	0xbdbf99b8	-0.093554914
163	0xbe80271a	-0.25029832
164	0xbd942e39	-0.07235379
165	0xbe308472	-0.17238024
166	0xbdd3183a	-0.10307355
167	0xbdb8fc8f	-0.09032547
168	0xbd16a0ed	-0.036774565
169	0xbe8a7a9d	-0.27046672
170	0xbdf0a7bd	-0.117507435
171	0xbe59d57d	-0.21272846
172	0xbe09dbac	-0.13462704
173	0xbe39d36b	-0.18147056
174	0xbe56285d	-0.20913835
175	0xbe4caaf2	-0.19987085
176	0xbd029871	-0.03188366
177	0x3d27161d	0.040792573
178	0xbe2bc489	-0.16774191
179	0xbe821a65	-0.25410762
180	0xbd03ec07	-0.032207515
181	0xbe27f098	-0.16400373
182	0xbe581276	-0.21100792
183	0xbe1ef27b	-0.15522186
184	0xbd840052	-0.064453736
185	0xbe5720e7	-0.21008645
186	0xbe1a3f6b	-0.15063255
187	0xbe03ad65	-0.12859114
188	0xbe9e8fd2	-0.309691
189	0xbdfd10a4	-0.123566896
190	0xbdd1f7df	-0.10252356
191	0xbe98fb62	-0.2987929
192	0xbe1a9ab3	-0.15098076
193	0xbe133efd	-0.14379497
194	0xbea7c2c5	-0.32765785
195	0xbe539367	-0.20661698
196	0xbdc12b61	-0.09432102
197	0xbdf7263e	-0.12067841
198	0xbdbf26fc	-0.093336076
199	0xbe9b84ac	-0.30374658
200	0xbe37a752	-0.17934921
201	0xbe7c0a68	-0.24613345
202	0xbe0b86f7	-0.13625704
203	0xbe3ab2d5	-0.18232282
204	0xbde3a3b9	-0.11115212
205	0xbe17f8ec	-0.1484105
206	0xbe10bd71	-0.14134766
207	0xbe5c0f19	-0.21490134
208	0xbbb536d5	-0.005530218
209	0xbe098d97	-0.13432918
210	0xbe516264	-0.2044769
211	0xbd95bc51	-0.07311309
212	0xbe01dbca	-0.12681499
213	0xbdc0c266	-0.094120786
214	0xbdd98391	-0.106207974
215	0xbe7160ce	-0.23572084
216	0xbdc38fda	-0.09548922
217	0xbde80180	-0.11328411
218	0xbc09faec	-0.008421641
219	0xbd8323c6	-0.064033076
220	0xbd83f5d5	-0.06443373
221	0xbcb26d8d	-0.021780754
222	0xbe9b2300	-0.3030014
223	0xbe607f27	-0.21923505
224	0x3c45e643	0.012078824
225	0xbe8f670d	-0.2800831
226	0xbe4dd365	-0.20100172
227	0xbe01f825	-0.12692316
228	0xbe0c13bb	-0.13679402
229	0xbd898b86	-0.06716065
230	0xbe8bf421	-0.27334693
231	0xbda8b5db	-0.08237811
232	0xbe5fd0b2	-0.21856955
233	0xbe31e490	-0.17372346
234	0xbe53590c	-0.20639437
235	0x3c97e3f7	0.01854132
236	0xbe39c64a	-0.18142048
237	0xbd95c041	-0.0731206
238	0xbe8f6018	-0.28003
239	0xbe6a8c3f	-0.22905062
240	0xbe2d2f40	-0.16912556
241	0xbe205bd7	-0.15660034
242	0xbe526a87	-0.2054845
243	0x3cd2b03e	0.025718804
244	0xbe3d9588	-0.18514073
245	0xbd21fc8d	-0.03954749
246	0xbc30fc9a	-0.010802412
247	0xbe0170b3	-0.12640648
248	0xbcd7e9a0	-0.026356518
249	0xbe371d28	-0.17882216
250	0xbd883a7e	-0.066517815
251	0xbebfdb45	-0.37471977
252	0xbe982fb1	-0.29723886
253	0xbe54abdc	-0.20768684
254	0x3d2c7939	0.042107794
255	0xbe2df2df	-0.16987179
