Usable_Data/Versuch_4-1.2/PKWParking/PKWParking-2237440.onnx (onnx, 882958 bytes, 15 tensors)

discrete_act_size_vector f4 [1, 2]
00000000: 0000 8040 0000 4040
4.0 3.0

network_body.observation_encoder.processors.0.normalizer.running_mean f4 [315]
00000000: d5e4 0f3d d6b5 233e 45b5 4d3d ee3d e33d
00000010: 189f a23b 7051 223f 3ce1 473f 3b40 c43c
00000020: 9894 4c3e 94db 333d ff04 013e 713b d63b
00000030: 0678 133f 96f7 413f f72a d13c eced 573e
00000040: 3beb 603d c15f fa3d cb9c b63b 52aa 113f
00000050: 8dcd 3e3f dae0 a13c 1f8c 7e3e 1990 3b3d
00000060: 8893 e33d efd5 253c 12c7 093f 2cad 393f
00000070: 1c7f d33c e14b 943e 1a7c 343d 6aee b33d
00000080: 4894 1e3b 7d84 083f 9356 373f 2f7c 843c
00000090: e4b9 833e 5fdc cf3d 0134 0d3e 60ed c63b
000000a0: c682 e03e 4909 323f abbd d63c 4d4d 943e
000000b0: 52a4 ed3d bf1c c43d dd1c 3a3b 76dc de3e
000000c0: 5037 2d3f 2cee 473c b002 813e fa5c f73d
000000d0: 599b 023e ce9a 2d3b 6167 dc3e 7a3c 353f
000000e0: 823f 913c 1b1a 8f3e 154f 013e d10b 0f3e
000000f0: ce7d 5e3a 129f ca3e e433 2a3f 95e6 b73b
00000100: 3eb6 463e 1962 303e 00a9 7f3d eb5d 673b
00000110: 8dbf 033f 6b3f 443f 40dc 783c 668e 7d3e
00000120: 75c1 193e 0212 aa3d 0000 0000 f822 f03e
00000130: ba7c 373f effc c939 1fc2 033e 7f36 f53d
00000140: b1d1 ac3d 9f8e 073b 8dd7 1a3f a11c 533f
00000150: d49b c53b 037b 233e 335e 003e 5340 8d3d
00000160: 0d95 4839 5160 173f 4b98 4b3f 0000 0000
00000170: d74f 373d dcff 9d3d ec7a c93d fe23 5e3a
00000180: 4567 373f 5576 653f 7312 8b3a 5478 6a3d
00000190: 2fa1 c03d 6aba e33d 0000 0000 2f0b 303f
000001a0: f707 633f 404f 103d 5b2e 243e b015 4e3d
000001b0: 3c4a e33d f142 a43b f6a4 223f 6a46 483f
000001c0: 6b0d c53c 24ad 4d3e 269b 343d 6e0a 013e
000001d0: 0ca0 da3b 6d95 133f 9540 423f c73e d13c
000001e0: f01c 583e 2702 613d 1197 fa3d b53e ba3b
000001f0: 9910 123f f53c 3f3f d8cd a23c 1fcc 7f3e
00000200: f397 3c3d c69e e33d 6abd 273c 58d6 093f
00000210: a9df 393f e98f d33c 6a66 943e a98d 343d
00000220: 910a b43d 62c1 253b 42ea 083f 26ca 373f
00000230: bf72 853c bb5b 843e c88c d03d 5c39 0d3e
00000240: 40fc c63b c0a1 e03e 543a 323f 65ce d63c
00000250: af5b 943e c4ac ed3d 9449 c43d 4b33 3a3b
00000260: d5b2 df3e b0b2 2d3f f2b1 493c 60a6 813e
00000270: fafa f73d 0ca0 023e 820b 2e3b d789 dc3e
00000280: ca6b 353f b64c 913c 3e20 8f3e b853 013e
00000290: dc1c 0f3e cfb9 5e3a 807e cb3e feae 2a3f
000002a0: 65da b83b f806 483e c5c2 303e 25c0 7f3d
000002b0: 2674 673b 6fcf 033f 6b72 443f d0ee 783c
000002c0: 949a 7d3e f1c5 193e 0518 aa3d 0000 0000
000002d0: 8809 f13e 83f8 373f cd9c cf39 71db 043e
000002e0: 67c7 f53d 42e8 ac3d 7b9d 073b bbfd 1a3f
000002f0: 6464 533f d7aa c53b 7b85 233e ba62 003e
00000300: 5c48 8d3d c5ab 5d39 16d3 173f 6715 4c3f
00000310: 0000 0000 727e 383d 6874 9e3d 9a98 ca3d
00000320: bb5f 5e3a 0ca4 373f 31d5 653f 6d12 8b3a
00000330: 0d02 6b3d 2aa6 c03d 039a e43d 0000 0000
00000340: 3263 303f bb81 633f 9bb9 103d 16a7 243e
00000350: d575 4e3d 5956 e33d e6e6 a53b c5f8 223f
00000360: f6ab 483f bcda c53c 33c6 4e3e c95a 353d
00000370: d60f 013e bb04 df3b 2fb3 133f de89 423f
00000380: 7352 d13c e34b 583e 2b19 613d e5cd fa3d
00000390: 96e0 bd3b dc76 123f 77ac 3f3f 2cba a33c
000003a0: 3a86 803e c49f 3d3d 0aaa e33d e2a4 293c
000003b0: b7e5 093f 4b12 3a3f d7a0 d33c bf80 943e
000003c0: 6b9e 343d 8926 b43d 8bee 2c3b 3b50 093f
000003d0: ee3d 383f 4b69 863c aefd 843e 4a3d d13d
000003e0: de3e 0d3e 600b c73b b1c0 e03e 6a6b 323f
000003f0: 24df d63c 4e6a 943e 40b5 ed3d 6e76 c43d
0.03513034 0.15987334 0.0502217 0.110957965 0.004962813 0.63405514 0.78078055 0.023956409
0.19978559 0.043910578 0.12599562 0.0065378477 0.57605016 0.7576841 0.025533183 0.21086854
0.054911833 0.12225295 0.0055728904 0.56900513 0.74532396 0.019760538 0.2485814 0.04579172
0.11112124 0.0101218065 0.5381938 0.72529864 0.025817446 0.2896414 0.044063665 0.08785708
0.002419727 0.5332716 0.71616477 0.016172497 0.2572776 0.10149454 0.13789369 0.006070778
0.43849772 0.6954542 0.026213488 0.28965226 0.11603607 0.095757954 0.0028398552 0.43527573
0.67662525 0.012202781 0.25197363 0.12078281 0.12754573 0.0026489976 0.43047622 0.70795405
0.017730478 0.27949604 0.12627824 0.13969351 0.0008487374 0.39574486 0.6648543 0.0056122043
0.19405457 0.17224921 0.06241703 0.0035303782 0.5146416 0.7665927 0.01518923 0.24761352
0.15015204 0.08304216 0.0 0.4690168 0.7167469 0.00038526158 0.1286702 0.11973285
0.08438433 0.0020684374 0.60485154 0.8246556 0.006030539 0.15964894 0.12535934 0.068970345
0.00019129012 0.5913134 0.79529256 0.0 0.044753876 0.07714817 0.098378986 0.0008473991
0.7164195 0.89633685 0.0010610357 0.05724366 0.09405743 0.1111954 0.0 0.68767065
0.8868403 0.03523183 0.16033308 0.05031365 0.110981435 0.005012863 0.6353296 0.78232443
0.02405425 0.20085579 0.044093274 0.12601635 0.006671911 0.5764988 0.75879794 0.02554263
0.21104789 0.054933693 0.12235845 0.005683745 0.57056576 0.7470239 0.019873545 0.2498021
0.046043348 0.11114268 0.010238031 0.5384269 0.72606903 0.025825458 0.28984386 0.04408041
0.08791078 0.0025292267 0.5348245 0.7179283 0.016290067 0.25851235 0.10183102 0.13791412
0.006072551 0.43873405 0.6962025 0.026221463 0.289762 0.11605218 0.095843464 0.002841192
0.43691126 0.6785078 0.012310492 0.25322247 0.12108417 0.12756366 0.0026557152 0.43073913
0.708676 0.017736774 0.27954286 0.12629592 0.13975853 0.00084963156 0.3974495 0.66673267
0.005641269 0.19533908 0.17261799 0.062439103 0.0035317033 0.51488394 0.7673709 0.015193656
0.24765998 0.15016915 0.083053626 0.0 0.47077584 0.71863574 0.00039598942 0.12974335
0.120009236 0.08442737 0.002069323 0.6054341 0.8257506 0.0060323286 0.15968888 0.12537661
0.06898567 0.00021140192 0.59306467 0.7972016 0.0 0.045042463 0.077370465 0.09892388
0.0008482893 0.7173469 0.8977843 0.001061035 0.057375003 0.09406693 0.11162188 0.0
0.6890136 0.8886983 0.035333257 0.16079363 0.050405342 0.11100454 0.0050629256 0.6366084
0.7838739 0.024152152 0.20192795 0.044276033 0.12603697 0.006805984 0.5769529 0.7599162
0.02555201 0.21122698 0.054955643 0.122463025 0.005794595 0.57212615 0.74872535 0.019986235
0.25102407 0.046294942 0.11116417 0.0103542525 0.5386614 0.7268416 0.02583353 0.29004475
0.04409639 0.087964125 0.00263873 0.53638047 0.719695 0.01640763 0.25974792 0.10216768
0.13793513 0.006074354 0.43897012 0.6969515 0.026229449 0.28987354 0.11606836 0.09592901

network_body.observation_encoder.processors.1.normalizer.running_mean f4 [13]
00000000: a626 ed3c c926 ed3c f6f4 6b3f c9bc aabe
00000010: 9013 583d 538d e33e 0000 0000 f78e f23d
00000020: 3366 963d c535 a13d 31ff d13d 05ea f23b
00000030: c9c9 fb3c
0.028949093 0.028949158 0.92170656 -0.33347157 0.05275303 0.4444376 0.0 0.11843675
0.07343712 0.07871584 0.10253752 0.007413151 0.030735867

network_body._body_endoder.seq_layers.0.weight f4 [256, 328]
00000000: 76f9 493d 16ef 7abd dff7 403d ab21 80bb
00000010: 114d 2a3d 2260 103e 5367 ae3d 1111 553d
00000020: 14cc cabd f656 073e fa54 da3d 26fa 8a3c
00000030: 55bf 703d ac76 98bc 2ae3 a43d 0a91 1b3d
00000040: 4162 05bd cc4d 613d c23b 5d3e 84da 6bbd
00000050: 6161 7c3d 2bbf 0e3e 4012 483c 4c52 ca3d
00000060: 41b6 13be fd4b 113d 5682 5f3a c921 053c
00000070: d1ac bfbb 3458 60bd f9ea d63d e2ba f03d
00000080: 3068 8eba b280 3b3d f643 9ebd 0fba 99bc
00000090: 864e 0f3e 9dcb 193d 3dfb ccbd 506e 39bc
000000a0: e1f2 8bbd ce9a 35bc e552 ae3c 3293 083d
000000b0: f402 8cba 5cee df3c 465e 15bb d9ec c2bc
000000c0: 5e5a efba 0570 093d c308 4c3e b635 41bd
000000d0: 3714 f8bb 8d2f 7f3d 6951 3e3d bba7 823d
000000e0: 4416 ad3d 25a2 143e 5545 5e3d abc7 d03d
000000f0: 2785 53bd 8eec 893c fff6 a7bc 2eec d03c
00000100: a1d9 873d 1292 c6bc 465b 35bc 6ba7 de3d
00000110: 4eac 45bd 8274 46bd 3e8b d13c ebf4 513d
00000120: 01ad 083d 8220 893d 70d6 3ebd f380 c03d
00000130: f255 3e3d 98b6 333d 5d21 03bd ab5b 093e
00000140: 0d13 0e3e 6f08 a23d e157 fabc 6089 a43c
00000150: 1fbb 803d def3 f13d 4d7e f23c e720 fa3c
00000160: 87f1 b23d 83b4 683d f1e4 a93d 6557 04bd
00000170: 8bd2 263e 6a4c 3c3c a193 aebc 2851 2d3e
00000180: 3d63 843d e0e0 9bba 24cd 973d bd2b 503c
00000190: 6f3f a7bc 8394 163e affb 8f3d f242 e5bc
000001a0: cfb4 203e a80e 093e ac00 5cbd 3793 fdbd
000001b0: 8b47 e9bd ffad 3a3e a0d8 fe3d ff72 d23d
000001c0: 1184 953d 87e6 2cbe 7429 063e b27d cd3d
000001d0: 8144 223e 89c7 083c e0f8 743d 116a d63d
000001e0: b35b 06be 7b68 68bd 1e03 b93d 8367 3b3e
000001f0: 43dc e9bc 4181 d1bc 1ef7 b33d d0f8 98bd
00000200: b693 6e3d dfe5 223b c50f 793d e416 313e
00000210: 89c4 31bc 3d71 883d b04d 723d 899c 783c
00000220: 1e07 b23d 3f26 553d dcf0 833d 9506 843b
00000230: cdb1 323e b4d8 a13c c2f8 83bc 606f 17be
00000240: 5ecd 9c3d 8dd3 fabc 2b0f a03d 078f 8e3d
00000250: dc79 ef3c c4ef d33d 7f12 ea3c a2ad ac3d
00000260: 1669 d13c 5702 aebd 4591 e63d 7af8 8fbc
00000270: 5136 bfbc 1bd9 253d 2ca3 a33d 35a8 203d
00000280: 56b0 acbc b0cb 25bd 9d6a 5dbd 0c4a 423d
00000290: 1a99 7bbd 0f01 86bd 9b24 9c3d 048e b4bb
000002a0: 39f4 773d 6e91 6b3e 653d e6bd 5be3 d73d
000002b0: fb7b 003e 62b6 ee3d 74f1 ba3d bf2e 1c3d
000002c0: 83b8 69bd d638 f23d 7a5e 153d 1560 17bd
000002d0: c290 2e3d 3a5d 0d3d 2c6b 723d bc37 81bd
000002e0: f840 3c3d b1ce 093d 918d 253d 64c8 4dbd
000002f0: 3223 62bc d532 c83d 6e5e 7a3d 48c0 34bd
00000300: c485 0cbe 312f 1c3d 7cfa 24bd bfde 0d3d
00000310: 1777 34bc 670e 3b3e 8cdc 583d 2959 4bbc
00000320: 5493 233e 6fa6 9cbd d9cc 85bc 717b b63d
00000330: e25a 63bd e070 133c 10f7 b83d b5f8 acbd
00000340: 92ef eb3d 2a71 f33d 0724 8a3d 6e72 c3bd
00000350: 1370 e4bd 0410 063d 5d08 b53b b083 213e
00000360: af5f b93a 906f 173d eab8 22bd ffbc 063e
00000370: 8c79 6e3c 7f38 8c3d 50b2 8b3d 5953 02bd
00000380: 9da9 d03d df53 34bd dbc5 853d e131 9e3c
00000390: 220b 1e3e 7e39 08be dfff fcbd 485a 9b3d
000003a0: 48a3 1abd 12fd 063e 942c 053c 2e8f 9e3d
000003b0: 2a7e fc3c 3c35 923d 4f1f a73d 05b4 693d
000003c0: 5061 35ba f46d 6c3e 3ecb 023e 438d efbc
000003d0: 3c7f d7bd e79b 133d f539 043d 701f 533c
000003e0: faeb 503c d1fb 0cbe a9eb 283c 168f 81bb
000003f0: 7ebf 103d afcd b13d 3170 75bd 7a7d e3bb
0.04931017 -0.061263166 0.04711139 -0.0039102635 0.041577403 0.14099172 0.08515801 0.05201823
-0.09902206 0.13216767 0.10660739 0.016964983 0.05877622 -0.018611275 0.080511406 0.037980117
-0.032564405 0.055005834 0.21604827 -0.05758144 0.061616305 0.13940112 0.012211382 0.09878978
-0.14424993 0.03547286 0.00085261965 0.008125731 -0.0058494587 -0.054771617 0.10494036 0.11754395
-0.001086479 0.04577703 -0.07727806 -0.018765477 0.13994798 0.037547696 -0.100088574 -0.011317804
-0.06833435 -0.011084272 0.021279762 0.0333435 -0.0010682032 0.027335338 -0.0022791787 -0.023794578
-0.0018261184 0.033554096 0.19925217 -0.047170363 -0.007570769 0.062301207 0.046464358 0.06379648
0.084515125 0.14514978 0.05426534 0.10194334 -0.051640656 0.01683643 -0.02050352 0.025503244
0.06633306 -0.024239574 -0.011069125 0.10871776 -0.048260026 -0.048450954 0.025579091 0.051258963
0.033368114 0.066956535 -0.046591222 0.09399595 0.046468683 0.043875307 -0.03201424 0.13413875
0.13874455 0.07911765 -0.030559482 0.020085037 0.062856905 0.11814092 0.02960124 0.030533267
0.08737474 0.056812774 0.0829562 -0.03230991 0.16291253 0.011492828 -0.02131063 0.1692549
0.06464241 -0.001189258 0.07412174 0.0127057405 -0.02041599 0.1470509 0.07030427 -0.027986024
0.15693973 0.13384497 -0.05371158 -0.12381595 -0.11390599 0.18230437 0.12443662 0.1027584
0.0730058 -0.16884814 0.1310175 0.1003374 0.15846445 0.008348354 0.05980766 0.10469449
-0.13120918 -0.056740265 0.09033798 0.18301205 -0.028547412 -0.025574328 0.08787368 -0.07469332
0.058246337 0.0024856252 0.060806055 0.17293888 -0.01085008 0.066622235 0.05915612 0.01517404
0.08692764 0.052038427 0.06442425 0.004029105 0.17450638 0.019756652 -0.016109828 -0.1478858
0.07656358 -0.030618453 0.07815393 0.06960874 0.029232912 0.10348466 0.028573273 0.08431555
0.025562804 -0.0849654 0.11258177 -0.017574538 -0.02334133 0.04049025 0.07990107 0.039222915
-0.021080177 -0.040477455 -0.054056752 0.047433898 -0.061425306 -0.06543171 0.076241694 -0.0055100936
0.060535643 0.23004696 -0.11242179 0.105414115 0.12547295 0.116558805 0.09128085 0.038130518
-0.05706073 0.11827247 0.036467053 -0.036956865 0.04261852 0.034512736 0.05918424 -0.063094586
0.045960397 0.033644382 0.04041821 -0.050239936 -0.0138023365 0.097753204 0.06112521 -0.044128686
-0.13722903 0.038130943 -0.040277943 0.034636255 -0.011014721 0.18267213 0.052944705 -0.012411394
0.1597417 -0.07648932 -0.01633303 0.08910263 -0.055506594 0.0089990795 0.090314984 -0.084458746
0.11520304 0.11886819 0.06745153 -0.0954331 -0.11154189 0.032730117 0.0055246786 0.15772891
0.0014142896 0.03697163 -0.03972713 0.13158034 0.014555346 0.06846713 0.0682112 -0.031817768
0.10188601 -0.0440253 0.065318786 0.019310893 0.15433934 -0.13303182 -0.12353491 0.07585579
-0.037753373 0.13182476 0.008128304 0.07742153 0.030821878 0.0713906 0.081602685 0.057056446
-0.0006919103 0.23088819 0.12772843 -0.029242164 -0.10522315 0.036037352 0.032281835 0.012885913
0.012751574 -0.13767935 0.010310092 -0.0039538248 0.03533887 0.08681809 -0.059921447 -0.006942448

network_body._body_endoder.seq_layers.0.bias f4 [256]
00000000: 571b bbbd 8c46 76bd fcbd 9ebd f706 11be
00000010: 00dd 48bb 1d9b b7bd 7762 8bbd 443f 6b3d
00000020: b8a0 aabd c341 d6bc 45dd a1bc b8ab 2ebd
00000030: 6683 2ebd cc0d 04bd e632 d1bd be52 07ba
00000040: 86a1 7bbd 2e76 a7bd 428d 43bd df98 8bbd
00000050: 0423 c9bd 6c52 f6bd 9c06 f13b fadb 93bd
00000060: b5b9 c53c e757 ab3c 00da cb3d 226c 81bc
00000070: ea41 08be e18f c7bd c68c 2cbd dd14 f6bd
00000080: 2b5a a23c a609 e4bd 819b 97bd fb56 c0bd
00000090: db81 00bc 30c4 f5bd 7094 88bd 8432 cfbd
000000a0: 1e08 86bd e8a2 9cbd c23d 8abd 65f3 9bbd
000000b0: ca60 6d3d a899 f9bd 5c14 2cbd 5e2e 06bd
000000c0: a2b0 8cbb 7215 d6bd 9344 36be 495a 88bd
000000d0: 0cc4 21bd 7632 a4bd 1fb0 89bd 4e96 b0bd
000000e0: a233 8cbd 9584 aabd 45d8 99bb 05a0 40bc
000000f0: e0ca 44bd c235 07be 8f6f e03c 8e7d 3ebc
00000100: c4b1 bfbd 4f45 f6bd f65c 5fbd e360 5cbe
00000110: 0273 433c 462a 59bd 7fd6 153d 56c1 66bd
00000120: 366f 03bc 03bc 0dbe 1d00 4fbd 15b0 24bd
00000130: 6360 b1bd 0291 d9bd e6bd 1fbe b01b 1f3c
00000140: 91d4 75bd 33aa 1fbd ff0d c4bc 5b20 b2bd
00000150: f038 09bd 116b bfbd 582b 89bd 9da5 00be
00000160: 90da d63b 1cb3 e4bc c446 46bc a1ab 64bd
00000170: a12b 30bd 4eb4 1ebe 948c db3c 541a ddbc
00000180: aa49 63bd deca d03c 4a02 cdbc 6ade b3bd
00000190: 9947 a0bc 4144 05bd e0f0 8ebd 9712 6dbd
000001a0: 3599 cbbd e016 f5bd 1510 5ebc 91db 323d
000001b0: 9bb3 b1bc 3c0c 133d ffe4 3ebd c196 debc
000001c0: da22 453d acfb f6bd 71d2 053d cd13 6c3c
000001d0: 530a adbd 4f1d 993c 87dc 8d3d 437c 12be
000001e0: 0bfa d2bd 340c 0dbd a487 b4bc 4fce 213d
000001f0: 4bf9 933b dce1 28bd 5697 e7bd 25db 6f3d
00000200: d198 cb3b 1138 213d 10fb 22be 1e46 e5bc
00000210: 3a21 8ebd 713e 92bd 7133 cabd c0fa e2bd
00000220: 8a97 4ebd 4cc7 73bd 9fe2 debd 6c5d 44be
00000230: fbf2 a8bd 7f51 d5bd 8dba c6bd af8a 4dbc
00000240: fb48 3d3c 4a20 87bd 12db bcbd ab7a 7abc
00000250: bea0 51bd a8fe 283d dddf 1e3c 745f dcbd
00000260: b5fe 1cbd 97b9 05be 2540 cf3c b421 35be
00000270: f5cc e8bd 0484 00bc 2688 a9bd e0e3 90bc
00000280: 002c 52bd 5091 4abd de4e fbbc c911 3abd
00000290: 0a62 46bd 3ebd e2bc c63e b33c fdeb f2bd
000002a0: e2ad 43bd 47e9 97bd 7efe 6ebd 6ec9 0cbd
000002b0: 1931 cc3c fb5f c3bd 5bab ddbd 4021 ac39
000002c0: 6d35 9dbc eade 4fb9 1c4e 8b3d 50e2 c5bd
000002d0: ba6d 54bd d419 56bc 616e c6bd 7fd3 6abd
000002e0: 883f f0bd 7c51 b6bd 1357 40be d215 aabd
000002f0: 3c3f 7e3d 0080 80bd fda5 b9bd 8edc f4bd
00000300: 6e16 bdbc 62c5 cf3d d539 c33c 7a03 9dbd
00000310: 2bcd 14be 8c7a e0bd 3b1c ab3d 77bc 21bc
00000320: 5b61 0dbe dd33 86bd 0b6c 18be 8a3a cd3c
00000330: 81b1 d5bd a53e d6bd 496f f5bd 40cd cbbc
00000340: 3293 41bd 3050 bbbd ea0f 8bbd ee16 c1bd
00000350: d40d 9ebd 0de8 f3bd 627d 5dbd 1112 6f3d
00000360: 32b1 003d b01f a4bd 1b70 9bbd 8321 e4bd
00000370: 8b13 e43c 890a 7bbd ecec babd c915 1bbc
00000380: c573 023d 8e3d f9bd 3b04 c3bd 1a52 24bd
00000390: 954b 12bd 2adf bcbd 991d 1fbc 4435 b23b
000003a0: 6b6f f43c 06aa 493d 49b6 61bd e248 a1bd
000003b0: 246f 6abc b2bc a5bc 0416 4dbe 0694 5f3c
000003c0: 97a7 ddbd 3411 09be 1963 15be 7cae 03be
000003d0: e435 c6bd ba59 21be 2bda 0bbb 5926 41bd
000003e0: 25c6 b7bd aded 25be 3588 a7bd 38ab d5bb
000003f0: dbd7 55bd 3acc f4bd 04c5 5ebe f795 243b
-0.09136074 -0.060125872 -0.077510804 -0.14162813 -0.0030649304 -0.089651324 -0.0680589 0.05743338
-0.08331436 -0.026154405 -0.01975883 -0.042644233 -0.04260578 -0.03223972 -0.10214786 -0.0005162171
-0.061433338 -0.08176838 -0.047742136 -0.06816267 -0.09821132 -0.120274395 0.007355524 -0.072196916
0.024136404 0.020915939 0.099536896 -0.015798632 -0.13306394 -0.097442396 -0.04212644 -0.12015698
0.019818386 -0.11134653 -0.07402707 -0.0939159 -0.00784346 -0.120003104 -0.06668937 -0.10117057
-0.06544517 -0.076482594 -0.067500606 -0.07614783 0.057953633 -0.12187511 -0.042011604 -0.032759063
-0.004293517 -0.10453309 -0.17799596 -0.066578455 -0.039493605 -0.08017437 -0.067230456 -0.08622418
-0.06845786 -0.08326069 -0.004694971 -0.011756902 -0.04804504 -0.132041 0.027396945 -0.011626614
-0.09360078 -0.12024938 -0.054532014 -0.21521334 0.0119292755 -0.05301883 0.036581513 -0.056336723
-0.00802212 -0.13841252 -0.050537217 -0.040206987 -0.086609624 -0.10623361 -0.15599784 0.009711191
-0.060017172 -0.038980674 -0.023932455 -0.086975776 -0.033501565 -0.09346593 -0.0669772 -0.12563176
0.0065568164 -0.027917437 -0.012101833 -0.05582774 -0.043010358 -0.15498468 0.026800431 -0.026990093
-0.055490173 0.02548736 -0.025025506 -0.087826565 -0.01956539 -0.032535795 -0.06979537 -0.057879057
-0.09941331 -0.11967254 -0.013553639 0.043666426 -0.021692088 0.03590034 -0.046605106 -0.027171494
0.04812894 -0.12059721 0.032671396 0.014409018 -0.08449235 0.018690733 0.06926828 -0.14305215
-0.10301598 -0.034435466 -0.022037335 0.03950339 0.004515802 -0.04123102 -0.11308162 0.058558602
0.0062132855 0.03936011 -0.15916085 -0.027987536 -0.06939931 -0.07140816 -0.09873093 -0.11082983
-0.050437488 -0.059516236 -0.10883068 -0.19176263 -0.0824947 -0.10415935 -0.097035505 -0.012545272
0.011553044 -0.065979555 -0.09221472 -0.015288035 -0.051178686 0.041258484 0.009696928 -0.10760394
-0.038328845 -0.13059078 0.025299141 -0.17688638 -0.113672175 -0.007843975 -0.082779214 -0.017686784
-0.051311493 -0.049454987 -0.030677255 -0.045427117 -0.04843334 -0.027678128 0.021880519 -0.118614174
-0.04777325 -0.07417541 -0.05834817 -0.034371786 0.024925755 -0.09539791 -0.10823699 0.0003283117
-0.019190514 -0.000198241 0.068020076 -0.09662306 -0.051862456 -0.013067681 -0.09689022 -0.057330605
-0.117308676 -0.08902261 -0.18783216 -0.08304943 0.062072024 -0.06274414 -0.09064863 -0.1195613
-0.023081984 0.1014507 0.023831287 -0.07666679 -0.1453139 -0.10960874 0.08354994 -0.009871594
-0.1380667 -0.06552861 -0.14884965 0.025052328 -0.10434247 -0.10461167 -0.119841166 -0.024878144
-0.047259517 -0.09146154 -0.06790145 -0.094282016 -0.07717481 -0.119094945 -0.054074652 0.05836684
0.031418987 -0.080138564 -0.07589742 -0.11139204 0.02784135 -0.061289344 -0.091272205 -0.009465643
0.031848688 -0.12169944 -0.09522291 -0.04011736 -0.035716612 -0.09222253 -0.0097116465 0.0054384787
0.029838284 0.049234413 -0.05510548 -0.078752294 -0.014308725 -0.020231578 -0.2002793 0.013646131
-0.10822981 -0.13385469 -0.14588584 -0.1285953 -0.096782476 -0.15756884 -0.0021339755 -0.04715571
-0.0897334 -0.16203947 -0.08180276 -0.006520655 -0.05220781 -0.119530156 -0.21754843 0.00251138

network_body._body_endoder.seq_layers.2.weight f4 [256, 256]
00000000: a34a 43be 5510 163d d402 973d 958b c8bd
00000010: dd4c 5c3d 8215 55bd be01 793d 6178 fbbd
00000020: 05a8 3dbe 783a 5d3d a136 c03d 2102 d43d
00000030: f38a a7bd ac38 f73c 2dda 02be dc0d 7e3d
00000040: 3232 d2bd 18b7 9ebc c715 e33c e38f 37be
00000050: 4631 98bb 8d8e 323d 84de 9ebd 9fb8 c73c
00000060: 2cae 06be bd4a 54bd 0112 eabd 4cf7 353c
00000070: bda3 4ebd 8ba0 17bd 502d 2abe e448 01be
00000080: fe1a ad3d 000c 9b3d abb4 ce3c 4c7d 88bd
00000090: 5ded 623e ca65 be3d 0b28 99bd 6bdd 07bd
000000a0: 039d 3c3d e997 17be 22bc 1c3d e4dd b2bc
000000b0: bb39 9abd af74 88bd 349e e6bc ab3e fcbd
000000c0: c525 1e3d f7ab f73c 2349 5ebd e857 2b3e
000000d0: e55b fb3d c1e2 c93d c9b1 f2bd d3bd bfbb
000000e0: 6723 13bd c7ab 52bd 983c 7c3d 45e4 1fbc
000000f0: eabb 19be 6fd1 0f3d c508 7dbd 7ff8 93bd
00000100: c104 7fbd 256c 823c 7ba2 bfbd 90e5 93bd
00000110: 5057 0bbe c299 483c 94f1 79bb 0339 cebb
00000120: 93e6 a83d 9ffe e1bd 3c48 553c afd6 fabc
00000130: ecdd 25bd 27db 143d def7 ccbc 74e2 d8bd
00000140: 1e84 6bbc ba1d 76bd 5435 023d 5667 7c3d
00000150: 4aea 02be f1ad 243d 98c5 c93d 3db9 e23d
00000160: 29e3 97bc 6fa2 733d c5d9 1dbc e282 b43d
00000170: 8222 48bd eac2 783d ba9e 033e 1024 f1bc
00000180: eb1f e13d 1d6f 7bbd 8aa8 e2bd 5993 4bbe
00000190: cce9 adbd 02f9 b4bc ac51 02bd cf38 29be
000001a0: 4876 e13c 5f70 2abd 6733 943d 16db 75be
000001b0: a0ed 50bc 2d16 863d fcef 49bd 69fe 19be
000001c0: f785 3b3d 7f5e d93b cd02 f3bd 3a92 32be
000001d0: eeec 5abd 8387 31be 068e 4ebe 91d7 993d
000001e0: 97c5 11bd 6cfc d3bd 6bd4 293e 1c04 38bd
000001f0: 6c1f 7ebd 0127 2cbe 2dfa 67bd 13ec aabd
00000200: dac3 96bd 2877 12be 7395 89bd a744 cd3a
00000210: 52da 86bd 5345 b9bd a48e f3bd 98ca 083d
00000220: 5482 243d 0b4e 0fbe dd37 babc c372 3d3c
00000230: 4517 39bd 9385 3b3e e2c0 2c3d 1a6d a93d
00000240: 1ebe 23bd 4642 96bd 8677 ac3d 4a31 ff3d
00000250: 7eb0 81bd d49f ec3d 52c1 833d 588d f9bd
00000260: c347 9a3a cc0e 3bbe 4cea ecbd 529f 27be
00000270: e1d8 123d b692 2f3d 598f e5bc 543d 10bd
00000280: 98f6 88be fa78 31bd 9b90 31bd 3499 94bd
00000290: fc73 e63d c74c 8dbd dd73 31bd 4c1d 00bd
000002a0: 6d7d 343c de40 b8bd 594b 47bd 2043 72bc
000002b0: bbcc a6bd dd7d 1fbe c713 1dbb 4290 75bd
000002c0: 973b 813c dc92 d8bd 15fd e8bd 000d a43c
000002d0: c1e9 10bd c202 2abe 8547 3b3d 2077 93bc
000002e0: b040 fabb f660 b3bd 9c52 813d e3dc 4e3d
000002f0: cb4b 013d d062 963d b081 06bc 1253 a5bd
00000300: 4154 92bd 4815 983d ebb1 db3d e85c b43d
00000310: bc5b 623d 13ec a03d 205f 51bd 2ceb 093e
00000320: 68bd ba3d fa04 acbd f495 46bd 9918 49be
00000330: ea0c d0bd a8a8 0e3d 5d33 c6bd 10e7 4e3d
00000340: acc1 58bd 1ac1 c2bc 07c9 2d3d ca7f 0d3d
00000350: a8fa 1c3d 0664 f7bb d1cd 4abc b93b 7ebe
00000360: 68a7 6cbe bdde 48be 399f 843d dc2e bfbc
00000370: d91b 4cbc d830 2ebd 4cb9 babb 7440 3fbc
00000380: 43a8 9ebd dd58 803d 0733 b33d 80d1 7d3d
00000390: 4276 08be 7512 18bd 55bc 0b3d 4bd8 ddbc
000003a0: a9c3 e6bc f879 c4bc f59a e43d 6d2f 02bc
000003b0: 786a acbc 84c2 bcbd e1fd d83d 7147 083e
000003c0: 4bd4 533e e3a4 ae3d 1c6c 2abe e51a db3a
000003d0: 66b1 7c3d 0d17 0b3e e3f2 3e3c ff3d b33d
000003e0: be29 35be 6066 c33d 3397 abbd 19e3 a1bd
000003f0: 8a39 d3bc 534c 77bc 3bcc 27be 38ef ecbc
-0.1907144 0.03663667 0.07373586 -0.09792248 0.05378424 -0.052022465 0.060792677 -0.1227882
-0.18521126 0.05401084 0.0938542 0.103519686 -0.08180799 0.03017839 -0.1277854 0.062024936
-0.1026348 -0.019374415 0.027720345 -0.17925982 -0.0046445457 0.04359298 -0.07757285 0.024380026
-0.13152379 -0.05182909 -0.11429215 0.011106323 -0.05044912 -0.03701834 -0.16618848 -0.12625462
0.08452414 0.07570648 0.025232634 -0.066645235 0.2216086 0.092967585 -0.07478341 -0.033170145
0.046048176 -0.14804043 0.038265355 -0.021834321 -0.075305425 -0.06662881 -0.028151609 -0.123166405
0.03861024 0.030233366 -0.054268967 0.16732752 0.12273387 0.09857703 -0.11850316 -0.005851486
-0.035922434 -0.05143335 0.061581224 -0.009759014 -0.1501309 0.03511184 -0.06177594 -0.07225131
-0.062260393 0.015920708 -0.093571626 -0.0722152 -0.13607526 0.01224369 -0.0038138377 -0.0062934174
0.082471035 -0.11034893 0.01301771 -0.030619947 -0.040494844 0.036341812 -0.025020536 -0.105900675
-0.014374761 -0.060086943 0.03178914 0.061621986 -0.12784687 0.040204946 0.09852141 0.11070488
-0.018540936 0.05948108 -0.00963444 0.088140264 -0.048861034 0.06073276 0.12853518 -0.029436141
0.10992416 -0.061385263 -0.110673025 -0.19880427 -0.08491859 -0.022091392 -0.03181617 -0.16525577
0.027522221 -0.04161107 0.07236367 -0.24009356 -0.012751967 0.065471984 -0.049301133 -0.15038456
0.045782056 0.0066335793 -0.118657686 -0.17438594 -0.05344861 -0.1733685 -0.20171365 0.07511819
-0.035588827 -0.1035088 0.16584937 -0.044925794 -0.062041685 -0.16811754 -0.05663507 -0.08345809
-0.073615745 -0.14303267 -0.06717958 0.0015660719 -0.0658461 -0.09046426 -0.11892441 0.033396333
0.040163353 -0.13994615 -0.022731716 0.011563006 -0.045188207 0.18312673 0.042176135 0.082727626
-0.03997623 -0.073368594 0.08421235 0.12460573 -0.06332491 0.11553922 0.06433357 -0.12185162
0.0011770654 -0.18267363 -0.11568126 -0.1636937 0.035851363 0.042864524 -0.028022455 -0.035214737
-0.26750636 -0.043328263 -0.043350797 -0.07255784 0.11252591 -0.0689941 -0.043323386 -0.03127794
0.011016232 -0.089967474 -0.04865584 -0.014786512 -0.08144518 -0.15575357 -0.0023968087 -0.059952028
0.015775485 -0.10574886 -0.113763966 0.02002573 -0.035379175 -0.16602615 0.045722503 -0.01800114
-0.007637106 -0.08758728 0.063145846 0.050503623 0.031566422 0.07343066 -0.008209631 -0.08072485
-0.071449764 0.07425934 0.107272945 0.08806783 0.055263266 0.078575276 -0.05111611 0.13468617
0.091181576 -0.08399387 -0.04848285 -0.1963829 -0.10158713 0.034828812 -0.096777655 0.050513327
-0.052919075 -0.023773719 0.042428043 0.034545697 0.038324982 -0.0075497655 -0.012378172 -0.2482747
-0.23110735 -0.19616218 0.06475682 -0.023337774 -0.012457811 -0.04252705 -0.0056983586 -0.011673082
-0.07746937 0.06266949 0.08749967 0.061967373 -0.13326362 -0.037126977 0.034115154 -0.027080676
-0.02816947 -0.02398394 0.11162368 -0.0079458775 -0.021046862 -0.092167884 0.105952986 0.13308503
0.20686452 0.085275434 -0.16642803 0.0016716389 0.061692618 0.13583012 0.011654588 0.08752059
-0.17691705 0.09541011 -0.08378448 -0.079046436 -0.025784273 -0.015093881 -0.16386501 -0.028922662

network_body._body_endoder.seq_layers.2.bias f4 [256]
00000000: 7c2c c4bd b5ca 9dbd c5b7 95bd 167e 9a3c
00000010: c5a4 cdbd d4fc b8bd c81b e1bd 7c70 cebd
00000020: 771c 3abd ced4 debd 5403 79bc b3f1 07be
00000030: 34cc 29be 26f3 b7bd 2102 14bd 6db8 f4bd
00000040: 57be f1bd af91 a5bd ba21 cb3b 02ff 7dbd
00000050: 77d1 d8bc 1ac7 20be 4b3e 03be aa26 16be
00000060: 5bfc 00be 1d14 e6bd 197c 89bd db44 9cbd
00000070: e0c8 92bd 41b9 86bd 69fd ee3d c59a cebd
00000080: 2184 a5bd f888 0cbe cc2b 0abe a999 4ebd
00000090: f12c cc3c 4c38 03be cd9e 8abd 1a0f 6ebd
000000a0: bccc 25be 36fd 84bd dfac 04be a86e efbd
000000b0: 9956 eabc 4c52 efbd 0dbd 3cbb 64a3 cebd
000000c0: 374f d0bd da28 7cbd 5fae 15bd 0308 8ebd
000000d0: 2043 19be 93ab febd 3f36 393d 1408 06be
000000e0: 5701 04be be5c d4bd 8ddf 4fbd d50d 15be
000000f0: 67c3 8ebb 5ea3 06be f60c 0bbe fec2 eebd
00000100: c12a cdbb 2b53 f9bd c05e c43c 45a8 eebd
00000110: f0f5 b5bd c30f e23d 697d 10be 24e2 31be
00000120: 4b67 adbd 8956 38bd 0bf2 d6bd 84fa e8bd
00000130: 470b 96bd 2cf5 1ebe e568 f3bd b0a7 debc
00000140: 1d0c d4bd f629 fe3b fad3 09be b72d 223d
00000150: 89b6 98bd 2229 09bd 7499 d43c 5faa 233d
00000160: eb17 8bbd bf2b e7bc 37de fdbd cf75 04bd
00000170: 1fc8 99bd 9751 8bbd 1d0d e0bd 4e6e 90bd
00000180: 11aa 17bd 53e2 8ebd fc36 d5bd df60 6dbd
00000190: 42e4 b5bc 0d4f 5ebd 337d 79bd 3ef9 f5bd
000001a0: 6f33 b8bd 50c3 c8bd f389 4abd 7590 df3c
000001b0: 879a 9fbd 4efe 6ebd d365 bbbd 6e9b b9bd
000001c0: 02fb debc 46bd 023e 9a7c 0bbe 74af 0bbd
000001d0: 7a43 86bc ec90 bcbd 46b7 f3bd f1ba 0bbd
000001e0: bfa4 5fbd 8675 eabd 08a3 10bd 33c0 ccbd
000001f0: 1a19 04be a805 c8bd 82c5 d4bc bd5b 87bd
00000200: 6032 70bd a0f3 02be 41eb f3bd eb68 d23d
00000210: a8b2 31be 9167 e8bd cbe0 eebd 29a1 3abd
00000220: 6b82 9fbc 5db6 b6bc 0ba6 3ebd 43b2 0abe
00000230: 86ea fd3c 12f4 44bd 6149 9f3c ff55 19bd
00000240: e79f 06bc 8a97 8cbc 699e 24bd c663 15be
00000250: a034 b2bd ee54 b0bd cad2 dbbd d7f9 50bd
00000260: cf77 a6bb 26f7 5dbd 3ede adbd 0957 ccbd
00000270: 4a9c dcbd f3ea ecbd 72e0 083e 998c f7bd
00000280: f6e5 33bb e085 b8bc 9d2d 92bd b7f4 00bd
00000290: 15dd d5bd 24fe d1bd 3479 92bd 1124 30be
000002a0: 8dbd a83c c1c3 07be 962a 6bbd e4f5 83bc
000002b0: 296d 32bd 1bd4 acbd ed5c 6cbd 6e22 2fbe
000002c0: 8193 2fbd 8ab1 73bd 6b80 a6bd 512c 08be
000002d0: 257e 01be c855 94bd 0ae4 773c a0c7 f5bd
000002e0: 60af ecbd 279f 9cbd 76ce 4cbd 05aa 00be
000002f0: 24a0 e5bd c10c a9bd b26a bc3d 5fc8 623c
00000300: 3804 f9bd 2b0c 03be 455b e3bd a9a5 3fbe
00000310: 9502 aabd f3e1 e2bd 92de 58bd 8a37 6abd
00000320: 9370 29be 6767 2abc cf82 bdbd 6a04 36be
00000330: c066 463d 0b66 bbbd e9a7 d8bc e7f7 b0bd
00000340: 39e0 b03c 1326 a0bd 421c 4abd 634f b53d
00000350: 9650 a2bd 646a d6bd 7d12 1dbe 6cc2 0dbd
00000360: 222d 0e3e b754 153e c63b e5ba 3101 57bd
00000370: 8568 f8bd 9ed3 af38 ce51 9fbd e63f d2bd
00000380: be05 92bb 1518 b9bd 2ad0 06be a211 cebd
00000390: 1af1 12be 5040 aabd bb2b 16be a61a d7bd
000003a0: 0ed2 20be 26ba 72bc 33b1 cdbd 84dc 23be
000003b0: 2a01 153d 7a28 f0bd 03f5 18be 556f 45be
000003c0: d5b9 c4bd d51d 5cbd c41f a3bd 1121 9ebb
000003d0: 0c47 e5bd d76c a5bd f980 d4bd ffdc 853d
000003e0: e3ba 24be 4ef9 a5bd cb7e 5c3b faf7 dfbd
000003f0: 5fe8 35be dc19 1b3c e6ef 24bd 112c 71bd
-0.09578797 -0.07704679 -0.07310442 0.01885895 -0.10041193 -0.09032598 -0.10991627 -0.100800484
-0.045437302 -0.10880433 -0.015198547 -0.13275795 -0.16581804 -0.08981924 -0.036134843 -0.11949239
-0.118038826 -0.080844276 0.006199089 -0.062010773 -0.026467068 -0.15700951 -0.12816732 -0.14663187
-0.12596266 -0.11234305 -0.06713123 -0.07630321 -0.0716722 -0.06578303 0.11669428 -0.10088114
-0.08081842 -0.13724124 -0.1349327 -0.05043951 0.024923773 -0.12814444 -0.0676857 -0.05811987
-0.16191381 -0.06493609 -0.1295657 -0.11691028 -0.028605746 -0.11685619 -0.0028799206 -0.10089758
-0.10171359 -0.061562397 -0.036543246 -0.06935122 -0.14967012 -0.12435069 0.04521775 -0.13089019
-0.12891136 -0.10369252 -0.050750304 -0.14556058 -0.00435679 -0.13148257 -0.13579163 -0.116582856
-0.0062612 -0.12174066 0.023970962 -0.116531886 -0.088847995 0.110381626 -0.1411034 -0.17371422
-0.08466967 -0.0450044 -0.10495385 -0.11375907 -0.0732637 -0.15523213 -0.118852414 -0.027179569
-0.10353873 0.007756467 -0.13459769 0.03959438 -0.07456691 -0.033486493 0.025952078 0.0399574
-0.06791671 -0.028219102 -0.123959 -0.032338914 -0.07508873 -0.068026714 -0.10940001 -0.07052289
-0.037027422 -0.06976762 -0.10410878 -0.05795371 -0.022203568 -0.054274607 -0.060910415 -0.1201043
-0.08994185 -0.09802878 -0.049447965 0.027290562 -0.077931456 -0.058347993 -0.09150281 -0.09062849
-0.0272193 0.12767515 -0.1362175 -0.034102872 -0.016389597 -0.09207329 -0.11900191 -0.034113828
-0.054600473 -0.11448197 -0.03531173 -0.099975966 -0.129002 -0.09766704 -0.025973085 -0.066092946
-0.05864179 -0.12788248 -0.119101055 0.10273918 -0.17353308 -0.11347879 -0.116639696 -0.04556385
-0.019471368 -0.022303754 -0.04654507 -0.13544564 0.030995619 -0.048084326 0.01944417 -0.037435528
-0.008216835 -0.017162103 -0.040190134 -0.14588842 -0.08701444 -0.08609949 -0.10733564 -0.051019516
-0.0050802003 -0.054190777 -0.08489655 -0.09977538 -0.10771997 -0.115682505 0.13366869 -0.12087364
-0.00274503 -0.022524774 -0.07137606 -0.03148338 -0.10442559 -0.102535516 -0.07152024 -0.17201258
0.020598197 -0.13258268 -0.05741366 -0.01610846 -0.043561134 -0.084388934 -0.05770581 -0.17102978
-0.04286528 -0.059495486 -0.081299625 -0.13298155 -0.12645777 -0.07242924 0.015130052 -0.12000966
-0.115568876 -0.076475434 -0.050001584 -0.12564857 -0.11212185 -0.08254386 0.09200038 0.0138417175
-0.12159008 -0.1279761 -0.11101393 -0.18715538 -0.08301274 -0.11078253 -0.052946635 -0.057181872
-0.1654685 -0.01040063 -0.092534654 -0.17775121 0.048437834 -0.091503225 -0.026447253 -0.086410336
0.021591293 -0.07819762 -0.049343355 0.088530324 -0.07925527 -0.10469511 -0.15339084 -0.034609243
0.13884404 0.14583097 -0.0017489127 -0.05249137 -0.121293105 8.384067e-05 -0.07779275 -0.10266094
-0.004456251 -0.090377964 -0.13165346 -0.10061957 -0.14349785 -0.08313048 -0.1466512 -0.1050313
-0.1570513 -0.014814889 -0.10043564 -0.16002089 0.036378063 -0.1172647 -0.14937215 -0.19280751
-0.09605757 -0.053739388 -0.07965043 -0.004825719 -0.11195192 -0.080774 -0.10376162 0.06536292
-0.16086917 -0.08104192 0.003364491 -0.1093597 -0.17764424 0.009466615 -0.040267847 -0.058879916

network_body._body_endoder.seq_layers.4.weight f4 [256, 256]
00000000: eb13 b4bd 12fd e53d 9508 c63d c1cf 30bd
00000010: 1f23 003d 955a 533d 8197 e1bb 94c4 66bc
00000020: b51f 14bd 85a7 8ebe 5afc 94bd e5be ae3d
00000030: 9b35 30bc 4909 03be ba14 e3bd 2786 41bd
00000040: 5e6e ea3c cd2f b4bc 0b90 863d 73f3 57bb
00000050: a340 e83d b56b 60bd f54d 3b3d 7cdd 353c
00000060: 8e17 4cbe b1a0 b8bc d7dd acbd 8288 3a3e
00000070: 256a 953c 41fc c3bd 5bd8 1cbe 0050 d0ba
00000080: a530 5bbd 3130 8cbd a3ee 483b dcfe 2dbd
00000090: 222d e0bc 12ff 983b 3d14 4ebd 665e f7bd
000000a0: 1bdb 653d a7c1 443c 177b d83d 9a75 c53d
000000b0: 9eca 4ebd 7e77 fdbd 6899 913d cf06 e93b
000000c0: 63f8 ac3c bdef 73bd ae9a 32be 6586 0e3e
000000d0: a6d1 6b3d 0adf 61bd 3037 52be aa84 963d
000000e0: 974d 00be 5b04 eb3c a8ed 90bd 20ee ee3b
000000f0: 94a9 833d 4ed0 233c 4097 71bc c065 1b3d
00000100: 360c 113d d5da 223c 261f e6bc f2e8 343e
00000110: 65a4 c73d a042 b1bd 417b 673c 96d2 00be
00000120: acfb 753d 4bee 0d3c 8f28 1e3c a819 743d
00000130: de64 87bd 67af 533d e38a eabd 41be 3dbd
00000140: 594b 08be cac3 05bd b003 983c 49ff 15be
00000150: 8b42 0dbe 1a2f fabc bfc5 bbbd 02dd 10be
00000160: eec1 f83c a40a dc3d 8574 21be a296 5ebc
00000170: b9ba 6bbd 3f56 a0bc c3e5 b73b 864e e9bc
00000180: a75b 253c 6d4f 973d 3ed7 b7bd 991c 1f3e
00000190: 7602 e23d 0929 723c d288 2fbe 026c 0ebd
000001a0: 597c 94bd bed2 0d3b 5ad2 3eba 8f50 0bbc
000001b0: ebfc 203e 5385 a13d 5569 87bd 4205 97bc
000001c0: ce89 11be c091 10be 9736 a53a 9091 96bd
000001d0: df82 9a3c 1f5c 873d 39be e6bd 0526 323d
000001e0: 6936 963e 2eca 5c3d 4f7f 19be 6a61 34be
000001f0: e698 353e 1ac2 bebb 7147 d03c fd62 5a3e
00000200: 099f 0ebe 211a 3d3d 27f2 d4bc 7869 85bd
00000210: 10c5 24bd 874e a1bc 16b6 e53c 8d15 9fbb
00000220: 5436 423d f0c0 5cbd 6a83 3e3d c9d7 19bd
00000230: 0ec2 073c 53a7 0abc 6b83 7ebd 163d 003e
00000240: 7ea6 f9bd eac6 e33d d654 b0bd 32c4 f43c
00000250: 3657 9fbd 9ebc 2fbe 0868 233d 71f4 cabd
00000260: aa5c 08be d4c5 ffbc 20d3 2fbd 3d51 fb3c
00000270: 5036 70bc 5435 ae3d f5e0 37be 9b45 85bd
00000280: 78cb aabd 4e21 173e 2ec7 9bbd 412e 87bd
00000290: f22f b1bd 5ed0 423d 85ac 1fbd 9811 1dbd
000002a0: 81d5 8ebd b509 e4bd 0eac e33c ce08 5d3d
000002b0: daab 1a3d 351d 24bc b79f adbb 2e8e 05bd
000002c0: 6895 c63d acb6 213d 58f4 cdbd a987 b63c
000002d0: 2b34 c2bd 75cb e13d 92bf 18bd 0d17 703d
000002e0: 32ab a3bc e9a5 813e 9ee5 67bd 00dd fabd
000002f0: 40d1 c3bd 17a7 653d 1d4b 4d3c fecb 9cbd
00000300: 06cc 8f3d acc4 90bd 6b8b 8fbd ab97 bebd
00000310: d366 173e 4d05 d3bd e860 ac3c c245 06be
00000320: 77a5 563d 72c7 07bb f97e a33d ac56 0a3e
00000330: 4bae af3d a5bb c43c beae 32be 0890 723d
00000340: f149 61bd 0be8 9e3d c063 38bd 4385 983d
00000350: 404d 12be e317 c9b8 5669 a73d 39ff e03c
00000360: 78c7 5fbd 05e6 4cbd 1a61 a8bd 55f5 20be
00000370: e8a9 61bc 9ad6 0fbd 7ba7 2c3d bc06 d0bd
00000380: d977 68bd e16d 5bbd 239b f5bc d357 2a3d
00000390: 591e aabc 521a 45bc aaab ad3d 3e3b 693c
000003a0: b6e3 53be 5b1a 77bd 3dee 923d 71ae 66bc
000003b0: 3258 c83c bb28 18bd e092 223d 8365 3f3d
000003c0: ccfe 8abb 54f3 8e3d a89e 4d3e e253 13be
000003d0: 2c63 e73d 2b1c 10be 5af4 34be 8fe5 37bd
000003e0: 46fd 1c3b febe 1bbc 40a6 6abe 25b9 c4bd
000003f0: beae 163c 4db3 27be 52e9 31be 1de4 c03d
-0.087928616 0.1122991 0.09669606 -0.04316688 0.031283494 0.051600058 -0.0068845158 -0.014084954
-0.03616305 -0.27862182 -0.07274695 0.08532504 -0.010754968 -0.12796511 -0.11087938 -0.04724708
0.02861708 -0.02199545 0.06570443 -0.0032951504 0.113404535 -0.054790217 0.045728642 0.011100169
-0.1993086 -0.022537561 -0.0844075 0.18216136 0.01823909 -0.09569598 -0.15316908 -0.0015892982
-0.053513188 -0.06845129 0.0030659817 -0.04247938 -0.027365271 0.0046690786 -0.05031227 -0.12078552
0.05611716 0.012009061 0.105703525 0.09641571 -0.0504862 -0.12376307 0.07109338 0.0071114074
0.021114534 -0.059554804 -0.17441818 0.13918455 0.057572983 -0.055144347 -0.20528865 0.073495224
-0.12529598 0.0286886 -0.07076579 0.0072915703 0.06428829 0.009998394 -0.0147455335 0.037938833
0.035412036 0.009939869 -0.028091025 0.17666987 0.09748153 -0.08655286 0.014128507 -0.12580332
0.060054466 0.0086627705 0.009653225 0.05959478 -0.06611036 0.05168095 -0.11452272 -0.04632402
-0.13309993 -0.032657422 0.018556446 -0.14648165 -0.13794915 -0.030540038 -0.091685764 -0.14146808
0.03036591 0.10744217 -0.15767105 -0.013585718 -0.05755112 -0.019572375 0.0056121065 -0.028479826
0.010092652 0.07388196 -0.08976601 0.15538253 0.11035626 0.014780291 -0.17142037 -0.034770973
-0.0725028 0.0021640505 -0.00072792696 -0.008503093 0.1572148 0.07886758 -0.06611887 -0.018435124
-0.14212725 -0.14118099 0.001260477 -0.073519826 0.018861232 0.066093676 -0.11266751 0.04349329
0.29338387 0.05390375 -0.1498997 -0.17615286 0.17734107 -0.0058214786 0.02542469 0.21326824
-0.13927855 0.046167497 -0.025994373 -0.06514257 -0.040226996 -0.019690765 0.028040927 -0.004854864
0.047415093 -0.053894937 0.046512045 -0.037559304 0.008286012 -0.008462745 -0.06213705 0.12523302
-0.12189959 0.11121924 -0.08609931 0.02987871 -0.07780306 -0.17161795 0.039894134 -0.09909905
-0.13316599 -0.031222261 -0.042925954 0.030678386 -0.014661387 0.08506265 -0.17956908 -0.06507417
-0.0833959 0.14758798 -0.0760635 -0.06600619 -0.08651723 0.047561996 -0.038982887 -0.038346857
-0.069743164 -0.11134664 0.027792003 0.053963475 0.037761547 -0.010016729 -0.0052985805 -0.032606296
0.09696466 0.03948085 -0.100563705 0.022281485 -0.094826065 0.110251345 -0.03729207 0.058615733
-0.019979093 0.25321892 -0.056615464 -0.12249184 -0.09561396 0.056067552 0.012530115 -0.07656096
0.07021336 -0.07068762 -0.07009014 -0.09306272 0.14785318 -0.103037454 0.021042302 -0.13112548
0.052403893 -0.0020718244 0.079832025 0.13509625 0.085781656 0.024015257 -0.17449471 0.05921939
-0.055002157 0.077591024 -0.045017004 0.07447293 -0.14287281 -9.588876e-05 0.08174388 0.02746545
-0.054633588 -0.05002405 -0.08221646 -0.15718587 -0.013773419 -0.03511677 0.04215191 -0.101575345
-0.05675492 -0.053571586 -0.029981202 0.041587662 -0.020766424 -0.012030201 0.08480008 0.014235316
-0.20692334 -0.06032787 0.071743466 -0.014079676 0.024456117 -0.03714822 0.039690852 0.04672767
-0.0042418 0.06980005 0.20080054 -0.14387468 0.112982124 -0.14073245 -0.17671338 -0.04489666
0.0023954674 -0.009505985 -0.22914982 -0.09605626 0.009196935 -0.16376992 -0.17374161 0.09418509

network_body._body_endoder.seq_layers.4.bias f4 [256]
00000000: 35ad bbbd 68be 79be 5815 e3bc d857 bdbd
00000010: 523d 06bd c268 c5bd 07b4 05be 52d0 3abe
00000020: 07dd d5bd d276 61bd a49d 0abe 7e7f b4bd
00000030: 94e6 593d 3e0a 34be 12db 2fbe 7765 4dbe
00000040: 5a54 6cbd 7246 e5bd 8302 13bd f412 cdbd
00000050: b701 2fbe 050b 39bc 0ea0 f0bd 2332 5dbd
00000060: 4c81 34be 58d7 d9bd b572 8fbd ea78 11be
00000070: 1f2a d8bd 7fac 5b3c 9032 02be 9878 79be
00000080: 0cee 33be 79be a9bc 4758 96bd 05a0 9ebd
00000090: 1750 0bbb 27c7 36be 70d0 5dbe da29 1bbe
000000a0: fcbc 40be f9d2 b5bd 025c 01be 9828 58bd
000000b0: b0a7 c4bd 6539 2ebe f002 93bd c498 e1bd
000000c0: bc67 6fbe fbc2 39be 4c01 f2bd 0938 a3bd
000000d0: 4a13 5dbe 987b 4bbd 3c14 71bd 2166 4fbe
000000e0: cc27 84bd 3364 53be 1797 e3bd 01d0 6ebe
000000f0: 9b28 a6bd a3fd 2bbe e3bb a6bd 4c9a 3fbe
00000100: 1220 31bd 4643 2ebd fcec e6bd a801 14bd
00000110: 71bb 08be 5a3a 87bd b472 a7bd 5767 68bc
00000120: 5a85 28be 6c58 26be f87f b4bd bbad 3ebe
00000130: 49f6 00be bd0b 30bd a526 1dbb 4fae 56be
00000140: ec08 f3bc e124 a0bc a5e2 40bd 7180 6abd
00000150: 2a00 ffbc 42f8 fcbd a78c 39be 90fb 56be
00000160: 93bd 00be 54f1 27be 6091 9abd 9cfb 01be
00000170: e0cb e5bc 080f 36be ccaf 86bd 5c34 dcbc
00000180: 640c 34be 7e67 d7bd 93b9 02be d5e7 2fbd
00000190: 88c1 58be 7ea7 50be e9e3 75be d6d4 2abe
000001a0: 3c01 71bd 22c4 153a d536 03be 600e a5bd
000001b0: 0248 cebc e173 93bd ff6b 88bd 44f6 2bbe
000001c0: 3afc dfbd 33f7 a7bd 225a 2dbe c412 e5bd
000001d0: e064 cebd a5fc 3fbd 5101 78bd d823 e1bd
000001e0: c24d a4bd d1f8 4dbd 9f5f f8bd f1c2 69be
000001f0: 2dcc 06bd 963a 1a3c c27b c5bd 5a7a 34be
00000200: 47d4 7ebd 27ff b5bd 60c8 98bc 721c 0cbe
00000210: 7442 0bbe fd1a c3bd 1b3f b2bd 5139 17be
00000220: 7ca1 98bd 1bb8 10be f292 a2bd edaf 77bc
00000230: 6e59 2fbe 2c20 0cbe 4c7f 91bd 27fd e9bd
00000240: d78a 49be 962a 1fbd ca82 0ebe 272e 91bd
00000250: 4bb5 3ebe ed90 c6bd 1789 15bd 8e5b 3bbe
00000260: 68ef c0bd b315 67be d4ac cbbd 7445 43bd
00000270: cb4a 8ebd d846 75be b86a 89bd 210f 80bd
00000280: 56fa 3ebe 3cbb a3bd ac0d f8bc 917c 06be
00000290: 5950 01be 299b 1bbe 595f 04be 41c4 27be
000002a0: ce6f fdbd 40cb a0bd ba7d 3dbe eccd bcbd
000002b0: c143 17be 9d7f e8bd 73ae 56be 1907 86bd
000002c0: 3c36 eebd 3844 b6bd 2a11 bebd f2d7 e3bd
000002d0: 7d6d 49bd a62f dcbb 03ef 80be def7 0cbe
000002e0: ace3 dabd f387 2cbe 633e b0bd f881 8dbd
000002f0: 8623 0abe 27a0 17be 1df9 69bd aa08 4dbe
00000300: 9bd9 26be 19de cabd 76d5 12bd 2ee4 51be
00000310: 0ec8 e0bd 20c0 afbd 177c 2ebd 7d36 19bd
00000320: 84b9 0bbe 36cf f4bb 1864 ddbd 8a24 ae3b
00000330: cf27 37be a0e5 1bbe eeac e4bd 490e 18bd
00000340: ee57 0fbe 48a5 6dbd e424 cfbd 40d2 353d
00000350: e943 86bd 9f4d 16be 39f8 45bd d6df 32be
00000360: c209 4cbe c4c4 d2bd 34a5 2f3b 5dc1 f2bc
00000370: 830a 16be 629a ffbd 7a83 38be 4ce9 a2bd
00000380: 3623 11be b248 b7bd 5777 fbbd c7dc f1bd
00000390: a27a d5bd 5810 6dbc 0409 5fbd 7fa5 87bd
000003a0: 6cb5 48be 4d3e 63bd c9cb 24be 7a48 0bbe
000003b0: bf44 2cbe dd29 27be 643b 6abe 4081 3dbe
000003c0: 5091 febd 7850 f1bd 0dc3 dabd b679 1fbd
000003d0: 0f81 6abc e14b 15be 2b10 22be 8736 13be
000003e0: a238 fcbd ba7b d9bd f772 cbbd 9ce6 3cbd
000003f0: 8889 ffbd 04e8 02be 4bac 36be 1b03 7cbe
-0.09163896 -0.2438904 -0.027720138 -0.092452705 -0.032773323 -0.096391216 -0.13056956 -0.1824353
-0.10442548 -0.055044957 -0.13536698 -0.0881338 0.053198412 -0.17582032 -0.17173412 -0.20058237
-0.05769763 -0.11195077 -0.035891067 -0.10013381 -0.17090498 -0.011294131 -0.11749278 -0.054002892
-0.17627448 -0.10636777 -0.070043005 -0.14206281 -0.10554909 0.0134078255 -0.127146 -0.24362409
-0.17571276 -0.020720707 -0.07341056 -0.07745365 -0.0021257454 -0.17849408 -0.21661544 -0.15152684
-0.18822092 -0.088781305 -0.12632754 -0.05277309 -0.09602296 -0.17014082 -0.07178295 -0.11015466
-0.23379415 -0.18140785 -0.118166536 -0.07969672 -0.2158939 -0.049678415 -0.058857188 -0.20253803
-0.06452903 -0.20643692 -0.111128025 -0.23321535 -0.08113214 -0.16795973 -0.08141305 -0.18711203
-0.043243475 -0.042544626 -0.1127567 -0.036134392 -0.13352753 -0.066029266 -0.08176175 -0.014184794
-0.1645712 -0.16244668 -0.088134706 -0.1862096 -0.1259395 -0.042979944 -0.0023979333 -0.20964931
-0.02966734 -0.019548835 -0.047091145 -0.057251398 -0.031128008 -0.12352039 -0.18120061 -0.20994401
-0.12572317 -0.16400653 -0.07547259 -0.12693638 -0.028051317 -0.17779171 -0.06576499 -0.026880436
-0.17582852 -0.105177864 -0.12766103 -0.0429457 -0.21167576 -0.20376393 -0.24012722 -0.16682753
-0.058839068 0.0005713125 -0.12813886 -0.080593824 -0.02518082 -0.071998365 -0.066612236 -0.16793162
-0.1093678 -0.082014464 -0.16928914 -0.1118522 -0.10077834 -0.0468718 -0.06054813 -0.10993165
-0.080226436 -0.050286118 -0.12127613 -0.2282827 -0.03290956 0.009413382 -0.096427456 -0.17624798
-0.062214162 -0.08886557 -0.018650234 -0.13682726 -0.13599569 -0.09526632 -0.08703443 -0.14767958
-0.07452676 -0.1413273 -0.07938184 -0.015117628 -0.17123958 -0.13684148 -0.07104358 -0.11425238
-0.1968187 -0.038858972 -0.1391708 -0.07088881 -0.18623845 -0.09695611 -0.036507692 -0.18296644
-0.09420663 -0.22566871 -0.09945074 -0.047673658 -0.069478594 -0.23952806 -0.06709808 -0.062528856
-0.18650183 -0.079946965 -0.030279957 -0.13133456 -0.12628306 -0.15195908 -0.12926997 -0.16383459
-0.12374841 -0.07851267 -0.18504992 -0.09218964 -0.1477194 -0.11352465 -0.20964985 -0.065443225
-0.11631438 -0.088997304 -0.092806175 -0.11125173 -0.04917668 -0.0067195473 -0.2518235 -0.13766429
-0.10687956 -0.16848736 -0.08605649 -0.06909555 -0.13490114 -0.14807187 -0.05712234 -0.20022836
-0.16293947 -0.09905643 -0.035848103 -0.204972 -0.109756574 -0.08581567 -0.04259881 -0.03740548
-0.13644987 -0.0074709905 -0.10810107 0.0053144144 -0.1788628 -0.15224314 -0.11165796 -0.037123
-0.13998386 -0.058018953 -0.10114458 0.044389963 -0.065559216 -0.14678048 -0.048332427 -0.17468199
-0.19925597 -0.10291436 0.002680135 -0.029633218 -0.14652447 -0.12480618 -0.18018904 -0.07954654
-0.14173588 -0.089494124 -0.12278622 -0.11809688 -0.10423781 -0.014469229 -0.054451957 -0.06623363
-0.19600457 -0.055479337 -0.16093363 -0.13601866 -0.168231 -0.16324563 -0.22874218 -0.18506336
-0.1243006 -0.11782926 -0.10681734 -0.038934432 -0.0143129965 -0.14579727 -0.1582648 -0.1437627
-0.12315489 -0.10619302 -0.09934037 -0.046118364 -0.12477404 -0.1278382 -0.17839162 -0.2461056
