Usable_Data/Versuch_4-1.2/PKWParking/PKWParking-9999952.onnx (onnx, 882958 bytes, 15 tensors)

discrete_act_size_vector f4 [1, 2]
0	0x40800000	4.0
1	0x40400000	3.0

network_body.observation_encoder.processors.0.normalizer.running_mean f4 [315]
0	0x3b5c91b2	0.0033656177
1	0x3d21805f	0.039429065
2	0x3de581c7	0.11206394
3	0x3e84a99c	0.25910652
4	0x3a7b79d2	0.0009593043
5	0x3f12617b	0.57179993
6	0x3f3f0808	0.7462163
7	0x3b39581e	0.0028281282
8	0x3d4acfb4	0.049514487
9	0x3dfde499	0.12397117
10	0x3e82bcf0	0.25534773
11	0x3a3e8dbd	0.00072690455
12	0x3f0ed5ea	0.55795157
13	0x3f4044bc	0.7510488
14	0x3b2b0290	0.0026094057
15	0x3d1b9410	0.037983
16	0x3de29420	0.11063409
17	0x3e8540f8	0.2602613
18	0x3a3ae234	0.0007129044
19	0x3f13e1b9	0.577663
20	0x3f3e9ce1	0.7445813
21	0x3af942eb	0.0019017135
22	0x3d4a133d	0.049334753
23	0x3e24b5f7	0.16085039
24	0x3e743598	0.2384857
25	0x39f22b58	0.0004619013
26	0x3f09bd6f	0.5380468
27	0x3f413d4f	0.75484174
28	0x3ac85f1b	0.0015287133
29	0x3d1d1362	0.038348563
30	0x3e046428	0.12928832
31	0x3e88eb43	0.2674199
32	0x38b88cd3	8.800034e-05
33	0x3f0d19d6	0.5511755
34	0x3f3d5c30	0.7396879
35	0x3af02d18	0.0018323986
36	0x3d327ca4	0.043575898
37	0x3e79343a	0.24336329
38	0x3e4b9f41	0.1988497
39	0x39edde9d	0.00045370022
40	0x3efdbb34	0.49556887
41	0x3f40032e	0.7500485
42	0x3a632cfc	0.0008666066
43	0x3d2363c2	0.03989006
44	0x3e360c21	0.17778064
45	0x3e67411e	0.22583434
46	0x39c4ec4e	0.00037560094
47	0x3f095f15	0.5366071
48	0x3f3f2ecb	0.74680775
49	0x3af033f2	0.0018326028
50	0x3cfdd3fc	0.030984871
51	0x3eb20c9e	0.3477525
52	0x3e4e5034	0.20147783
53	0x395349f9	0.00020150085
54	0x3ecd2f04	0.40074933
55	0x3f3a60a4	0.7280371
56	0x39e311da	0.00043310114
57	0x3d103477	0.035206284
58	0x3e873ce5	0.26413646
59	0x3e65b447	0.22432052
60	0x39db77b1	0.00041860112
61	0x3ee8b99b	0.45454106
62	0x3f3c649d	0.73591024
63	0x3a907eb8	0.0011024093
64	0x3c82a420	0.015947402
65	0x3ecdf4bd	0.40225783
66	0x3e405a48	0.1878444
67	0x384a2acd	4.8200414e-05
68	0x3ec00e1a	0.3751076
69	0x3f3a7c3c	0.72845817
70	0x3882a6e4	6.229969e-05
71	0x3ca6709a	0.020317364
72	0x3ea8a705	0.32939926
73	0x3e416b86	0.18888673
74	0x00000000	0.0
75	0x3ee19a88	0.4406321
76	0x3f3e6f89	0.7438894
77	0x399e55db	0.00030200076
78	0x3bb8c88c	0.0056391414
79	0x3ecd2ed1	0.4007478
80	0x3e2bee6b	0.16790168
81	0x378058d3	1.5300151e-05
82	0x3ed1a3ff	0.40945432
83	0x3f3e198b	0.74257725
84	0x00000000	0.0
85	0x3c0edd48	0.00871975
86	0x3eb7eb6b	0.35921797
87	0x3e28734a	0.1645023
88	0x00000000	0.0
89	0x3ee63d9c	0.4496888
90	0x3f421728	0.75816584
91	0x00000000	0.0
92	0x3af296be	0.001850806
93	0x3eca9f0c	0.39574468
94	0x3e0fd4dc	0.14046043
95	0x00000000	0.0
96	0x3ee41f8b	0.44555315
97	0x3f44ca8a	0.7687155
98	0x00000000	0.0
99	0x3b7c7f5d	0.0038528063
100	0x3eb94f73	0.36193427
101	0x3e0ec037	0.13940512
102	0x00000000	0.0
103	0x3ef4110c	0.47669256
104	0x3f4743f1	0.77838045
105	0x3b5cae05	0.003367306
106	0x3d21c193	0.039491247
107	0x3de69656	0.11259143
108	0x3e84fa24	0.25972092
109	0x3a7b948d	0.0009597026
110	0x3f12b460	0.5730648
111	0x3f3f8035	0.74805003
112	0x3b396f63	0.0028295151
113	0x3d4b2ca9	0.049603138
114	0x3dff6432	0.124702826
115	0x3e83015b	0.25586972
116	0x3a3eaf62	0.0007274059
117	0x3f0f20d4	0.55909467
118	0x3f40b935	0.75282604
119	0x3b2b1a20	0.00261081
120	0x3d1bcad6	0.038035236
121	0x3de33fce	0.11096154
122	0x3e858a6b	0.26082167
123	0x3a3afd1a	0.0007133052
124	0x3f14469b	0.57920235
125	0x3f3f1ad4	0.7465031
126	0x3af96104	0.0019026105
127	0x3d4a73d4	0.04942687
128	0x3e25ee91	0.16204287
129	0x3e74a531	0.2389114
130	0x39f26154	0.00046230352
131	0x3f09f0d1	0.5388308
132	0x3f41ac5d	0.7565363
133	0x3ac87d44	0.0015296121
134	0x3d1d686f	0.038429674
135	0x3e049542	0.12947562
136	0x3e892d52	0.2679239
137	0x38b88cdf	8.800043e-05
138	0x3f0d8908	0.5528722
139	0x3f3de0b6	0.74171007
140	0x3af04ee3	0.0018334057
141	0x3d32d684	0.04366161
142	0x3e7aee53	0.24504976
143	0x3e4c0610	0.19924188
144	0x39ee06b7	0.000453999
145	0x3efde4c3	0.49588594
146	0x3f406865	0.75159293
147	0x3a635be5	0.0008673056
148	0x3d23fd3d	0.04003643
149	0x3e362ce7	0.17790566
150	0x3e67a749	0.22622408
151	0x39c514b7	0.00037590202
152	0x3f09d320	0.53837776
153	0x3f3fbb01	0.7489472
154	0x3af05599	0.0018336057
155	0x3cfe73de	0.03106111
156	0x3eb2f4c0	0.34952354
157	0x3e4eaad1	0.20182349
158	0x39537fcc	0.00020170136
159	0x3ecd529c	0.40102088
160	0x3f3ac5b0	0.729579
161	0x39e347b4	0.00043350237
162	0x3d10eba8	0.03538099
163	0x3e878a0a	0.26472503
164	0x3e6600c8	0.22461236
165	0x39dbad38	0.00041899993
166	0x3ee96f36	0.4559266
167	0x3f3cf20c	0.73806834
168	0x3a9092e3	0.0011030104
169	0x3c8320aa	0.016006786
170	0x3ecedfef	0.40405223
171	0x3e40a702	0.18813708
172	0x384a95e3	4.8300146e-05
173	0x3ec03a94	0.37544692
174	0x3f3af1a2	0.7302495
175	0x3882dc9f	6.239977e-05
176	0x3ca71ed3	0.02040044
177	0x3ea8e59d	0.3298768
178	0x3e41ad8f	0.18913864
179	0x00000000	0.0
180	0x3ee270f9	0.44226816
181	0x3f3efe63	0.74606913
182	0x399e7e24	0.0003023009
183	0x3bb9a7ad	0.0056657405
184	0x3ecdcc4e	0.40194935
185	0x3e2c32ac	0.16816205
186	0x37812f57	1.5400043e-05
187	0x3ed22521	0.41043952
188	0x3f3e9ce4	0.74458146
189	0x00000000	0.0
190	0x3c0f14d6	0.008732995
191	0x3eb84674	0.3599125
192	0x3e28a478	0.1646899
193	0x00000000	0.0
194	0x3ee70898	0.45123744
195	0x3f42a18f	0.7602777
196	0x00000000	0.0
197	0x3af3ad72	0.001859112
198	0x3ecb2299	0.39674833
199	0x3e100c15	0.14067109
200	0x00000000	0.0
201	0x3ee4c4b6	0.4468133
202	0x3f454d45	0.7707103
203	0x00000000	0.0
204	0x3b7ca122	0.003854819
205	0x3eb9ca55	0.3628718
206	0x3e0eeabd	0.13956733
207	0x00000000	0.0
208	0x3ef4c057	0.47802994
209	0x3f47c9de	0.780424
210	0x3b5cca60	0.003368996
211	0x3d2204ee	0.039555483
212	0x3de7a9b0	0.11311662
213	0x3e854c9f	0.2603502
214	0x3a7bb616	0.0009602023
215	0x3f130766	0.57433164
216	0x3f3ff80f	0.7498788
217	0x3b3986f8	0.0028309207
218	0x3d4b8b42	0.049693353
219	0x3e007156	0.12543234
220	0x3e8345ce	0.25639194
221	0x3a3ed11d	0.0007279085
222	0x3f0f6be8	0.56024027
223	0x3f412df0	0.7546072
224	0x3b2b31a6	0.0026122122
225	0x3d1c0116	0.038086973
226	0x3de3ebcb	0.11128958
227	0x3e85d34f	0.26137778
228	0x3a3b180e	0.00071370683
229	0x3f14ab6d	0.58074075
230	0x3f3f97d3	0.7484104
231	0x3af97f17	0.0019035068
232	0x3d4ad5cc	0.0495203
233	0x3e2726b2	0.16323355
234	0x3e7512b1	0.23932911
235	0x39f2970a	0.0004627037
236	0x3f0a2421	0.5396138
237	0x3f421b55	0.75822955
238	0x3ac89b7b	0.0015305126
239	0x3d1dbeb7	0.038511958
240	0x3e04c5e1	0.1296611
241	0x3e896fe4	0.26843178
242	0x38b88cd2	8.8000335e-05
243	0x3f0df8e5	0.5545791
244	0x3f3e6433	0.7437164
245	0x3af070e1	0.0018344187
246	0x3d33301b	0.04374705
247	0x3e7ca7ca	0.24673381
248	0x3e4c6ec5	0.1996413
249	0x39ee2f3b	0.00045430087
250	0x3efe0efc	0.49620807
251	0x3f40cd12	0.7531291
252	0x3a638aeb	0.0008680063
253	0x3d2496af	0.040182766
254	0x3e364e10	0.17803216
255	0x3e680d25	0.22661264

network_body.observation_encoder.processors.1.normalizer.running_mean f4 [13]
0	0x3aa79700	0.001278609
1	0x3aa796fc	0.0012786086
2	0x3f78d464	0.9719908
3	0xbf37b703	-0.7176363
4	0xbb106ba5	-0.0022036817
5	0x3ee38d53	0.4444376
6	0x00000000	0.0
7	0x3bd7969f	0.0065792347
8	0x3b904e20	0.0044038445
9	0x3b8b42f1	0.0042499234
10	0x3baed807	0.005335811
11	0x36995368	4.569465e-06
12	0x3aeb310b	0.0017943693

network_body._body_endoder.seq_layers.0.weight f4 [256, 328]
0	0x3d1b1b6f	0.03786796
1	0x3b5b4f13	0.003346388
2	0xbe2f3c33	-0.17112808
3	0xbe1b6f35	-0.15179141
4	0x3e4746dd	0.19460626
5	0x3e1f1e16	0.1553882
6	0x3dcd7c5e	0.10033487
7	0xbc00ef6c	-0.007869583
8	0xbde42748	-0.11140305
9	0x3e236b5a	0.1595892
10	0x3e16c646	0.14724073
11	0x3e2cf3b1	0.16889836
12	0xbe224efd	-0.15850444
13	0xbd23b8e2	-0.03997124
14	0x3e5e695f	0.21719883
15	0x3b0cf489	0.002150806
16	0xbd1a983e	-0.037742846
17	0x3dd0c770	0.1019429
18	0xbd0e3193	-0.034715246
19	0x3d96cda8	0.073634446
20	0xbd398c2e	-0.0452997
21	0x3e078e01	0.13237764
22	0x3e87d992	0.2653318
23	0x3db7240c	0.08942422
24	0xbd3274c8	-0.043568403
25	0x3db5aa2a	0.08870347
26	0x3dd278de	0.1027696
27	0x3d0a6592	0.03378827
28	0x39f384f8	0.0004644764
29	0xbdfb92b2	-0.12283839
30	0xbe032f6c	-0.12811059
31	0xbcf4bbae	-0.029874649
32	0x3dcbb96d	0.099474765
33	0x3e621beb	0.22080962
34	0x3d825e4e	0.063656434
35	0x3e31ca05	0.1736222
36	0x3d8fcd86	0.07021622
37	0xbcfb0d18	-0.030645892
38	0x3dc10301	0.09424401
39	0x3e3a1ca5	0.1817499
40	0xbdbf9863	-0.09355237
41	0xbe462529	-0.19350113
42	0x3e2858b1	0.16440083
43	0x3c93f26a	0.018059928
44	0xbd12980a	-0.035789527
45	0xbe873362	-0.2640639
46	0x3e1ba8c9	0.15201105
47	0x3dcef073	0.10104456
48	0xbdc4d0b3	-0.09610119
49	0x3e1af142	0.15131095
50	0x3d939772	0.0720662
51	0x3d078c4f	0.033092793
52	0x3e2f81ff	0.17139433
53	0x3e399558	0.18123376
54	0x3c14606d	0.009056193
55	0xbdf5f8aa	-0.120103195
56	0x3e0a7cb3	0.13524131
57	0x3d7aaa19	0.061197374
58	0x3e359480	0.1773243
59	0x3e4bad9c	0.19890445
60	0x3d590426	0.052982472
61	0xbe97b0d5	-0.296271
62	0xbd6a623e	-0.057222597
63	0x3dd8ab8a	0.105795935
64	0x3d008757	0.03137907
65	0x3df7832b	0.12085565
66	0x3d11823e	0.0355246
67	0x3e16964a	0.14705768
68	0xbdb2a511	-0.0872289
69	0xbe878ae4	-0.26473153
70	0x3d83cd46	0.06435637
71	0x3e1e9bae	0.15489075
72	0x3dae549c	0.08512232
73	0xbe5dca70	-0.21659255
74	0xbb9fcf98	-0.004877042
75	0xbdc24d6e	-0.09487425
76	0xbd11640b	-0.0354958
77	0x3e1ca0d8	0.15295732
78	0x3e656bf4	0.22404462
79	0x3e03716c	0.12836236
80	0x3d6821cf	0.056672867
81	0x3e2dfa00	0.16989899
82	0xbd21f0a7	-0.039536145
83	0xbe00406f	-0.1252458
84	0xbc7018c8	-0.014654346
85	0x3de59963	0.11210897
86	0xbba14af6	-0.004922266
87	0x3c679458	0.014134489
88	0x3d1b5fbc	0.037933096
89	0xbc78c52e	-0.01518373
90	0xbd13b6e8	-0.036063105
91	0x3d717e7f	0.058958527
92	0x3e0b562a	0.13607088
93	0xbdf2d0f7	-0.11856263
94	0x3dab9205	0.083774604
95	0x3cfe4a7a	0.031041373
96	0x3e664ef6	0.22491059
97	0x3d4bdacf	0.04976922
98	0x3d77df4c	0.060515687
99	0x3daf7ec9	0.08569104
100	0x3dda503c	0.10659835
101	0xbdad80b6	-0.08471815
102	0x3e0cb6b4	0.1374157
103	0xbdee100b	-0.11624154
104	0xbdc6612b	-0.09686502
105	0x3c8d49bb	0.017247071
106	0x3dc04404	0.09387973
107	0xbe67ad61	-0.22624733
108	0xbe22437d	-0.15846057
109	0x3e79ac46	0.24382123
110	0x3e2a6a35	0.16642077
111	0x3d21da3d	0.03951477
112	0x3dcc7c7b	0.0998468
113	0xbde45854	-0.1114966
114	0x3d8897b2	0.066695586
115	0x3e2bfe33	0.16796188
116	0x3d75827e	0.0599389
117	0xbe2e0e37	-0.1699761
118	0xbd3b1aa1	-0.045679692
119	0x3dc2d988	0.09514147
120	0xbc522aec	-0.012827616
121	0xbd1e9fb9	-0.038726542
122	0x3d6f2d29	0.058392677
123	0x3d8f4612	0.06995787
124	0x3b71abd7	0.0036876106
125	0xbe03ab6f	-0.12858365
126	0x3d9e240e	0.07721721
127	0x3e57c30b	0.21070497
128	0xbbb18a1e	-0.005418076
129	0xbdab9cea	-0.08379538
130	0x3d6b0894	0.057381228
131	0x3dd72649	0.10505349
132	0xbd5d0428	-0.05395904
133	0xbd88977e	-0.0666952
134	0xbe40f72f	-0.18844293
135	0xbe4ab735	-0.1979645
136	0x3c5fd1d1	0.013660864
137	0x3d8a78a1	0.067612894
138	0x3e2298ca	0.15878597
139	0x3cd62bbe	0.026143905
140	0x3e414642	0.18874457
141	0x3e12c9c8	0.14334786
142	0x3d8e205f	0.06939768
143	0x3d601529	0.05470768
144	0x3d453515	0.048146326
145	0xbd9d00ab	-0.07666143
146	0x3c67cfc9	0.014148661
147	0x3dbcbba1	0.09215475
148	0x3c7d6963	0.015467021
149	0x3d42c11b	0.04754744
150	0xbe5cb8a7	-0.21554814
151	0x3dae88d0	0.08522189
152	0x3e0563e9	0.13026394
153	0x3c8a9129	0.01691492
154	0x3e3a8d43	0.1821795
155	0x3d9748b1	0.07386912
156	0xbdda6504	-0.106637985
157	0x3de2eae1	0.11079956
158	0x3e46ae9c	0.19402546
159	0xbdbf41fb	-0.09338757
160	0xbe72f3e0	-0.23725843
161	0x3e1973f8	0.14985645
162	0x3d17abff	0.037029263
163	0x3df03857	0.11729496
164	0xbc014c5f	-0.007891743
165	0x3d9e0be4	0.07717112
166	0xbe884b3f	-0.26619908
167	0xbd4e186f	-0.05031627
168	0x3e20e142	0.15710929
169	0x3cf8b742	0.030360822
170	0x3da63345	0.08115248
171	0x3dfb0091	0.122559674
172	0x3e384656	0.17995581
173	0xbe265f93	-0.16247396
174	0xbeb89a53	-0.3605524
175	0x3e2530fd	0.16131969
176	0x3e00f616	0.12593874
177	0x3c07820b	0.008270751
178	0xbdcb4f2b	-0.099272095
179	0xbde42157	-0.111391716
180	0xbe1528fe	-0.14566419
181	0x3d10bce3	0.035336386
182	0x3d903380	0.07041073
183	0x3e9067bf	0.28204152
184	0x3d38ce19	0.045118425
185	0xbd77b3b6	-0.06047412
186	0x3e15534f	0.14582561
187	0xbdc16ab7	-0.09444182
188	0xbe03b511	-0.1286204
189	0x3d281c57	0.041042652
190	0x3e1733d7	0.14765869
191	0xbd8bdb5c	-0.06828949
192	0x3bec63f1	0.0072140624
193	0xbd943d97	-0.0723831
194	0x3d650016	0.055908285
195	0xbd6b6e9e	-0.05747854
196	0x3dd3b0e0	0.103364706
197	0x3e448ceb	0.19194381
198	0xbe24bbe4	-0.160873
199	0xbd2b9e34	-0.04189892
200	0xbd87189f	-0.06596493
201	0x3e5b8bc0	0.21440029
202	0xbd57ac2c	-0.05265443
203	0xbd285f46	-0.041106485
204	0x3d929c9c	0.07158777
205	0x3b0f958c	0.0021909205
206	0xbd7f860b	-0.062383693
207	0x3c8641e3	0.01638884
208	0xbe46a12a	-0.19397417
209	0xbd68d90d	-0.05684762
210	0x3e30b308	0.17255795
211	0x3dcb9063	0.09939649
212	0xbe12f30a	-0.14350525
213	0xbd2154d8	-0.039387554
214	0x3e42aa6d	0.19010325
215	0x3e040ad4	0.12894756
216	0x3e0f033c	0.13966078
217	0x3d2ee7b1	0.042701427
218	0xbd654da6	-0.055982254
219	0x3dc987ac	0.098403305
220	0x3e0f559c	0.13997501
221	0xbca6d9e2	-0.020367566
222	0xbdc6bfd5	-0.09704558
223	0x3dab52bc	0.0836539
224	0x3e476cc7	0.19475089
225	0x3d4ca635	0.049963195
226	0xbd2c58f3	-0.042077016
227	0x3d4d0b17	0.050059404
228	0x3d6e0f78	0.05812022
229	0x3db7f399	0.089820094
230	0xbd08c467	-0.03339043
231	0x3e2a46b1	0.16628529
232	0x3e64277a	0.22280684
233	0xbc9c7b16	-0.01910166
234	0xbdb2b001	-0.08724976
235	0x3e08376e	0.13302395
236	0x3d4c63a6	0.04989972
237	0x3bff7b86	0.0077967076
238	0xbc4d50c9	-0.012531468
239	0x3e0d6210	0.13806939
240	0xbd9627d0	-0.073318124
241	0x3d4cb4d2	0.04997713
242	0xbd48554a	-0.048909463
243	0x3e6daea7	0.23211156
244	0x3d2c70bf	0.04209971
245	0x3e20c0a5	0.15698488
246	0x3cf05674	0.029338099
247	0x3e25a7cc	0.1617729
248	0xbbce39d3	-0.0062935143
249	0x3e6b04a3	0.22950988
250	0xbe4a5414	-0.19758636
251	0xbdc98948	-0.098406374
252	0x3db2d5d2	0.08732189
253	0x3dbdebba	0.09273477
254	0xbcc04979	-0.023472534
255	0xbdbd87e0	-0.09254432

network_body._body_endoder.seq_layers.0.bias f4 [256]
0	0xbe051eb8	-0.13
1	0xbdbb018f	-0.09131157
2	0xbe61fc59	-0.22068919
3	0xbdf36e0b	-0.118862234
4	0xbe626a97	-0.22110973
5	0x3d240fc0	0.040054083
6	0xbe29e854	-0.16592532
7	0xbd87aa39	-0.06624264
8	0xbd9e14a9	-0.07718784
9	0xbee52f86	-0.4476282
10	0xbe24ce45	-0.1609431
11	0xbe4f84a5	-0.20265444
12	0xbd1635be	-0.036672346
13	0xbeaaf6df	-0.33391473
14	0xbd669350	-0.056292832
15	0xbea32cb0	-0.3187003
16	0xbd7bd1d5	-0.06147941
17	0xbdc98752	-0.098402634
18	0xbe65f833	-0.22457962
19	0xbdea23c9	-0.11432607
20	0xbe1ab10f	-0.15106605
21	0xbe90609b	-0.28198704
22	0xbe4c0cc0	-0.19926739
23	0xbe94df88	-0.2907679
24	0xbe162759	-0.14663447
25	0xbdfe3a00	-0.12413406
26	0x3c7d49aa	0.015459457
27	0xbed01ede	-0.4064855
28	0xbdbdc7eb	-0.09266647
29	0xbe33d89a	-0.17563096
30	0xbed976cc	-0.42473447
31	0x3b60d91e	0.00343091
32	0xbe16d5c0	-0.14729977
33	0xbdee33c1	-0.11630965
34	0xbebe60fb	-0.37183365
35	0xbdeb8ee6	-0.11501865
36	0xbecd288e	-0.40070003
37	0xbea4889f	-0.32135484
38	0xbe4c78a2	-0.19967893
39	0xbdeffe00	-0.117183685
40	0xbe5e2c02	-0.21696475
41	0xbeaefe89	-0.3417857
42	0xbceb1577	-0.028696759
43	0xbe1b5ef8	-0.15172946
44	0xbe0997bf	-0.13436793
45	0xbee57e5e	-0.44822973
46	0xbe7dc4fa	-0.24782172
47	0xbe9cb277	-0.30604908
48	0xbe89899f	-0.2686281
49	0x3cd45743	0.025920516
50	0x3e38aa42	0.18033698
51	0xbe9bf8e5	-0.3046333
52	0xbe518e46	-0.2046443
53	0xbddff25d	-0.10934899
54	0xbe9738c9	-0.2953551
55	0xbf04dbbf	-0.51897806
56	0xbe35e9c4	-0.17764956
57	0xbddfd2d9	-0.10928888
58	0xbe5f30a0	-0.21795893
59	0xbecbb31a	-0.3978508
60	0x3e0fea4c	0.14054221
61	0xbea65f09	-0.3249438
62	0xbdd85120	-0.10562348
63	0xbdd71e00	-0.10503769
64	0xbe44ad35	-0.19206698
65	0xbe37c6e3	-0.17946963
66	0xbe7a1902	-0.24423602
67	0xbe07ab37	-0.13248907
68	0xbdb543e4	-0.0885084
69	0xbe6fdc80	-0.23423958
70	0x3d5f9c25	0.05459227
71	0xbe66e76f	-0.22549222
72	0xbe84b2ff	-0.25917813
73	0xbeb2d205	-0.34925857
74	0xbeca2918	-0.39484477
75	0xbe6f3943	-0.23361687
76	0xbed1cb35	-0.40975347
77	0x3cc4adef	0.02400872
78	0x3e212b8a	0.15739265
79	0xbe6a60c7	-0.2288848
80	0xbe403634	-0.18770677
81	0xbd03af0c	-0.03214936
82	0xbe084f0f	-0.13311408
83	0xbe88d841	-0.2672749
84	0xbe84629d	-0.25856486
85	0x3dc6c26f	0.09705054
86	0x3e354f65	0.17706068
87	0xbe2d8c56	-0.16948065
88	0xbd9879b7	-0.0744509
89	0xbe957c8f	-0.29196593
90	0xbca55e1b	-0.020186475
91	0x3dcd2c60	0.100182295
92	0xbea02429	-0.31277588
93	0xbdbb1676	-0.091351435
94	0xbb869932	-0.004107618
95	0xbe616eac	-0.22014874
96	0xbd8305bc	-0.06397578
97	0xbe0ce808	-0.13760388
98	0xbcdc2198	-0.026871487
99	0x3c424247	0.011856622
100	0xbe3392e4	-0.17536503
101	0xbd8a43e8	-0.06751233
102	0xbd2512e2	-0.04030121
103	0xbe319fa9	-0.17346062
104	0xbe938687	-0.28813574
105	0xbeaa65b8	-0.3328073
106	0xbdcc43c9	-0.099738665
107	0xbe746bf5	-0.23869307
108	0xbed8db79	-0.42354944
109	0xbde93119	-0.11386318
110	0xbd58f314	-0.052966192
111	0xbe679e94	-0.22619087
112	0xbeb00178	-0.3437612
113	0x3d8780b9	0.06616349
114	0xbd484d9f	-0.04890215
115	0x3d222377	0.039584603
116	0xbecf6efb	-0.4051436
117	0xbd9ca861	-0.07649303
118	0x3d9f6cce	0.07784425
119	0xbdd6b098	-0.10482901
120	0x3c126076	0.008934131
121	0xbe685f1d	-0.22692533
122	0xbea960dd	-0.33081713
123	0xbd240eca	-0.040053166
124	0xbe195131	-0.14972378
125	0xbe84c39d	-0.2593049
126	0xbc8ad281	-0.01694608
127	0xbe33a350	-0.17542768
128	0xbd584e6d	-0.052809168
129	0xbd4152f4	-0.04719825
130	0xbdfc0611	-0.123058446
131	0xbdeff00a	-0.11715706
132	0xbe42f6ff	-0.19039534
133	0xbe0c276d	-0.13686915
134	0xbd932a60	-0.07185817
135	0x3dc0f5a6	0.09421854
136	0x3e3fc4d6	0.1872743
137	0xbe231d20	-0.15929079
138	0xbe71c721	-0.23611118
139	0xbe1e57b9	-0.15463151
140	0xbe86daac	-0.26338708
141	0xbe90834f	-0.2822518
142	0xbe567420	-0.20942736
143	0xbe237988	-0.15964329
144	0xbe853134	-0.26014102
145	0xbe978a41	-0.29597667
146	0xbe675f3e	-0.22594926
147	0xbe2c0905	-0.16800316
148	0xbebd1df9	-0.3693693
149	0xbe21cfc8	-0.15801919
150	0xbebc9f78	-0.36840415
151	0xbb481648	-0.0030530859
152	0xbd1ce04e	-0.03829985
153	0xbdd58087	-0.10424905
154	0xbe80dada	-0.2516697
155	0xbebda909	-0.37043026
156	0x3d8c7bbe	0.068595394
157	0xbdbfdb0f	-0.09367954
158	0xbe8b3819	-0.27191237
159	0xbeb628c1	-0.35577968
160	0xbe91f4b4	-0.28507006
161	0xbe2b5051	-0.16729857
162	0xbe6b56f5	-0.2298239
163	0x3e483995	0.19553216
164	0xbed42b2a	-0.41439182
165	0xbdab595d	-0.08366654
166	0xbece1ed4	-0.40257895
167	0xbe2e6892	-0.17032078
168	0xbe13ca63	-0.14432673
169	0xbe62e4a0	-0.22157526
170	0xbe050204	-0.1298905
171	0xbe8b6fb2	-0.27233654
172	0xbe41f9e5	-0.18942983
173	0xbd56852c	-0.052373096
174	0xbe212aba	-0.15738955
175	0xbac746dc	-0.0015203613
176	0xbd19170e	-0.037375502
177	0xbd80fcd2	-0.06298222
178	0xbeaaf187	-0.33387396
179	0x3c721cd9	0.014777386
180	0xbe51dbce	-0.20494005
181	0xbe6bcddc	-0.23027748
182	0xbe4d3eea	-0.20043531
183	0xbe6a2788	-0.22866642
184	0xbe05baa6	-0.13059482
185	0xbeb2ccf1	-0.34921983
186	0xbc9a4c81	-0.018835308
187	0xbe7dc142	-0.24780753
188	0xbe8f7a69	-0.2802308
189	0xbdacfb9f	-0.084464304
190	0xbe6410fb	-0.22272103
191	0xbd86b21e	-0.06576942
192	0xbe9a3a66	-0.3012268
193	0x3e268983	0.16263394
194	0xbea180e5	-0.3154365
195	0x3d87a4d1	0.06623233
196	0xbf00256e	-0.50057113
197	0xbd928520	-0.07154298
198	0xbe036b4b	-0.12833898
199	0xbdc91d90	-0.09820092
200	0xbe31a56f	-0.17348264
201	0xbe5d9215	-0.21637757
202	0xbeb62ce3	-0.3558112
203	0xbdb5d35d	-0.08878205
204	0xbe0e3254	-0.13886386
205	0xbe096a18	-0.13419378
206	0xbdbf5ef9	-0.093442865
207	0xbee73d3d	-0.4516391
208	0x3d2b846d	0.041874338
209	0xbea94364	-0.33059227
210	0xbe332f7d	-0.17498584
211	0x3e006b99	0.12541045
212	0xbe2d797e	-0.16940877
213	0xbdc040f5	-0.093873896
214	0xbe281a32	-0.16416243
215	0xbdcd3a7e	-0.10020922
216	0xbe075af2	-0.13218287
217	0xbde22be2	-0.11043526
218	0xbe220a9d	-0.15824361
219	0x3a9a9942	0.0011794942
220	0x3c8a4f30	0.016883463
221	0xbec9c5a4	-0.394086
222	0xbe20699e	-0.1566529
223	0xbe75bc00	-0.23997498
224	0xbecdbcc9	-0.40183094
225	0xbeceabcf	-0.40365455
226	0xbe6b0286	-0.22950181
227	0xbe3f7f69	-0.18700947
228	0xbb9260c1	-0.0044671004
229	0xbe4f5559	-0.20247401
230	0xbd6d4399	-0.057925794
231	0xbee8c422	-0.45462137
232	0xbc958bda	-0.018255163
233	0xbdd3083a	-0.103043035
234	0xbdf12da6	-0.11776285
235	0xbea1c9e3	-0.3159934
236	0xbe64b243	-0.22333626
237	0xbe0290d6	-0.12750563
238	0xbe935de0	-0.28782558
239	0x3d3ecdbd	0.046582926
240	0xbe8c7e5d	-0.27440158
241	0xbeb1c94b	-0.34723887
242	0xbda506f8	-0.0805797
243	0xbeae2552	-0.34012848
244	0xbe632a3d	-0.22184081
245	0x3e0ec345	0.13941677
246	0xbe8a6537	-0.27030346
247	0xbe8d33f2	-0.27578694
248	0xbe3d59a4	-0.18491226
249	0x3dcbdd3f	0.09954309
250	0xbec8d471	-0.3922458
251	0xbe53414a	-0.20630375
252	0xbe2d74d4	-0.16939098
253	0xbe735d00	-0.23765945
254	0xbf063851	-0.5242968
255	0xbe09164b	-0.1338741

network_body._body_endoder.seq_layers.2.weight f4 [256, 256]
0	0x3e273b94	0.16331321
1	0x3dbebd51	0.09313453
2	0xbd86ae78	-0.06576246
3	0xbc899105	-0.016792784
4	0xbe712666	-0.23549804
5	0xbd9b3af8	-0.07579607
6	0x3d964351	0.07337058
7	0x3cca5cce	0.024702456
8	0xbe726a8a	-0.23673454
9	0x3daea2de	0.08527158
10	0xbccff3fa	-0.025384892
11	0xbe633cfa	-0.2219123
12	0xbe86bdf1	-0.2631679
13	0x3d97cafe	0.074117646
14	0xbd787e06	-0.06066706
15	0xbcd2dece	-0.025741007
16	0xbe047f26	-0.12939128
17	0xbd9615a7	-0.073283486
18	0xbbdc0ac9	-0.006715153
19	0xbe2577f8	-0.16159046
20	0x3cec7694	0.028865136
21	0xbe80c403	-0.25149545
22	0x3e080f5e	0.13287112
23	0xbde474b9	-0.111550756
24	0xbe3f373b	-0.18673413
25	0xbddb9c25	-0.107231416
26	0xbe44036d	-0.19141932
27	0x3cfc4779	0.0307958
28	0xbdf976ce	-0.12180863
29	0xbd102ebf	-0.03520083
30	0xbcfbf403	-0.030756002
31	0x3dc8e7fb	0.09809872
32	0x3e16dffe	0.14733884
33	0x3bf6abb2	0.007527792
34	0xbda6f5fb	-0.08152386
35	0xbdabd0ac	-0.083894104
36	0xbc11264f	-0.008859231
37	0x3db91692	0.09037508
38	0xbeaedeb9	-0.341543
39	0xbc4eeecf	-0.012630179
40	0xbda57124	-0.080782205
41	0x3d8dccce	0.06923829
42	0xbe8dd487	-0.27701208
43	0xbdb053b4	-0.08609715
44	0xbd3c985a	-0.04604373
45	0xbc0b4c58	-0.0085020885
46	0xbbd42c70	-0.006475024
47	0xbc4467af	-0.011987611
48	0xbe14c708	-0.1452905
49	0xbda19549	-0.07889802
50	0xbe195712	-0.14974621
51	0xbca9281e	-0.020649012
52	0x3e375fdd	0.17907663
53	0x3de2564a	0.110516146
54	0xbdba1d65	-0.09087638
55	0x3d39ef1b	0.045394044
56	0x3d210035	0.039306838
57	0xbe9a32d0	-0.30116892
58	0xbdf4da2a	-0.11955674
59	0xbe115f27	-0.14196454
60	0xbe499d1c	-0.19688839
61	0xbd564670	-0.05231327
62	0xbdb55123	-0.08853366
63	0x3da1eda4	0.079066545
64	0x3cb85ddb	0.022505691
65	0xbe7a0e55	-0.2441953
66	0x3da3bf75	0.07995502
67	0xbda7dd06	-0.08196454
68	0x3e017b8e	0.12644789
69	0xbe30026d	-0.17188425
70	0xbda6df56	-0.08148067
71	0x3e810be1	0.25204375
72	0xbb9501fa	-0.0045473548
73	0x3df7fb80	0.12108517
74	0x3c8cf951	0.017208727
75	0xbe56ed83	-0.20989041
76	0xbe46051f	-0.19337891
77	0xbd4eda8a	-0.050501384
78	0xbdaec979	-0.085345216
79	0x3c80a01c	0.015701346
80	0x3d583d55	0.052792866
81	0xbe3aa18c	-0.18225688
82	0xbd488fa7	-0.048965123
83	0xbd8d5343	-0.069006465
84	0x3daa760a	0.083232954
85	0x3b148116	0.002265995
86	0xbc38a8f2	-0.011270748
87	0xbd149478	-0.036274403
88	0xbdcd8f52	-0.10037102
89	0xbe4ddf1c	-0.2010464
90	0xbdc3b7ca	-0.09556539
91	0xbd9b4df9	-0.075832315
92	0xbce73ef7	-0.028228266
93	0xbd2032d1	-0.039110962
94	0xbdd9b2ba	-0.106297925
95	0x3d10c7ae	0.03534668
96	0xbc9e2961	-0.01930684
97	0x3c12ad38	0.008952431
98	0xbe1c5d62	-0.15269998
99	0xbdb6b432	-0.08921088
100	0x3ce4e0c5	0.02793921
101	0x3e0052a3	0.12531523
102	0x3d0a3d4a	0.033749856
103	0xbd44ec25	-0.048076767
104	0xbe2be464	-0.16786343
105	0x3a246cb5	0.0006272302
106	0xbea9923f	-0.3311939
107	0x3d592795	0.053016264
108	0x3ce6d2fe	0.02817678
109	0x3d127058	0.03575167
110	0x3d4f4e6d	0.050611902
111	0xbe4a0e02	-0.19731906
112	0xbe5560d4	-0.20837718
113	0xbe20ca18	-0.15702093
114	0xbd3dddb3	-0.046354007
115	0xbe7f55b5	-0.24935038
116	0x3e9dfe7f	0.30858228
117	0xbdb278e7	-0.087144665
118	0xbd5e3d67	-0.054257777
119	0x3d0295d5	0.031881172
120	0x3d3f2fea	0.046676554
121	0xbe3e4599	-0.18581237
122	0xbe088dc2	-0.13335326
123	0xbe6ebebc	-0.23314947
124	0xbe292799	-0.16519012
125	0x3d8e23b7	0.06940406
126	0xbd7528b7	-0.05985328
127	0x3d9fd9d2	0.07805218
128	0xbd81621b	-0.0631754
129	0xbd32c3ff	-0.043643948
130	0x3db0430a	0.08606537
131	0xbd146134	-0.036225513
132	0xbde31f37	-0.11089938
133	0xbe12dc35	-0.14341815
134	0xbd83a00e	-0.064270124
135	0xbe1e7a2a	-0.1547629
136	0xbe017f59	-0.12646236
137	0x3d8833aa	0.06650479
138	0x3b84f9af	0.004058085
139	0x3e496440	0.19667149
140	0xbe2cb680	-0.16866493
141	0xbde9da81	-0.114186294
142	0x3bc32021	0.005954758
143	0x3d28b532	0.041188426
144	0x3e0d7e96	0.1381782
145	0x3da11fd7	0.07867401
146	0x3d035c22	0.032070287
147	0xbd2a05c8	-0.04150942
148	0x3e2875dc	0.1645121
149	0xbe1cd339	-0.1531495
150	0x3e50d19e	0.20392463
151	0xbd4900a4	-0.049072877
152	0xbd65646a	-0.056003965
153	0xbe196fe2	-0.14984086
154	0xbde7098d	-0.112811185
155	0x3c81eb7e	0.015859362
156	0xbd1a6d1a	-0.037701704
157	0xbe16cb36	-0.14725956
158	0x3d97abf9	0.07405848
159	0x3e656fa9	0.22405876
160	0xbe6c4ffb	-0.23077385
161	0xbcb34b2a	-0.021886427
162	0xbd5561a6	-0.052095078
163	0xbd75be44	-0.059995905
164	0x3e27cf98	0.16387784
165	0xbe0cc41d	-0.13746686
166	0x3dc4b92b	0.096056305
167	0xbd857267	-0.06515961
168	0xbced8f5c	-0.028999023
169	0x3e24f21c	0.16107982
170	0xbd704e5b	-0.058668476
171	0xbb545f7c	-0.0032405546
172	0xbda2411b	-0.07922574
173	0xbd7a910f	-0.061173495
174	0xbe9c9de0	-0.305892
175	0xbe608917	-0.21927296
176	0xbdc0aeae	-0.094083175
177	0xbdb1d42a	-0.08683045
178	0x3e5c7f42	0.2153292
179	0xbd765610	-0.06014067
180	0x3c61053b	0.013734157
181	0x3e33d1ba	0.17560473
182	0xbe384ae3	-0.17997317
183	0xbd094347	-0.033511426
184	0xbe0ead74	-0.13933355
185	0xbd1bcc23	-0.038036477
186	0xbe1b7e7e	-0.15184972
187	0xbd659762	-0.056052573
188	0x3d155f6d	0.03646796
189	0x3d839f58	0.06426877
190	0xbcc26dd3	-0.023734009
191	0xbd95fb6e	-0.07323347
192	0x3e80203e	0.250246
193	0xbe193b27	-0.14963971
194	0x3e452f6f	0.19256376
195	0xbe14ebf3	-0.14543132
196	0x3e7b1a05	0.24521644
197	0xbd309185	-0.04310753
198	0xbe60b126	-0.21942577
199	0xbe79e7f3	-0.24404888
200	0xbc93d537	-0.018046005
201	0x3c13b9d9	0.0090164775
202	0x3dcaca52	0.09901871
203	0xbd2f400d	-0.042785693
204	0xbe55b4ed	-0.20869799
205	0x3e02b566	0.1276451
206	0xbbe94463	-0.007118748
207	0x3b2f44c0	0.002674386
208	0xbddf163c	-0.10892913
209	0x3d30881f	0.043098565
210	0xbe0090db	-0.12555258
211	0x3d126198	0.035737604
212	0xbd9c3289	-0.07626826
213	0xbe488ed7	-0.19585739
214	0xbe880571	-0.2656665
215	0xbcd41569	-0.025889115
216	0x3e0b2684	0.13588911
217	0x3e27dd3c	0.16392988
218	0xbd81c922	-0.06337191
219	0xbe37f312	-0.17963818
220	0xbdc3e570	-0.09565246
221	0x3d6925a4	0.056920663
222	0xbe9172fd	-0.28408042
223	0x3b96de9a	0.004604173
224	0x3c248911	0.010042445
225	0xbd61beb0	-0.055113494
226	0x3d909034	0.070587546
227	0x3d20432e	0.039126568
228	0xbd85bf82	-0.06530668
229	0x3d79a268	0.0609459
230	0xbe2f2832	-0.17105177
231	0x3e12ec7f	0.14348029
232	0x3d963d9d	0.073359706
233	0xbe1207ee	-0.14260837
234	0xbd0b31c4	-0.033983007
235	0x3d47d692	0.048788615
236	0x3e1ba432	0.15199354
237	0xbd735b8c	-0.059413478
238	0xbdd8b4ce	-0.10581361
239	0xbdbe3d34	-0.09289017
240	0x3e06829c	0.13135761
241	0x3cac5f9a	0.02104168
242	0xbc97a79f	-0.018512545
243	0x3dd7ee8f	0.10543548
244	0x3cebfa0d	0.028805757
245	0xbe65e0c1	-0.22449018
246	0xbb32eadf	-0.0027300639
247	0xbdf3116d	-0.11868558
248	0x3dc69066	0.096955106
249	0xbe3a2d48	-0.18181336
250	0xbe2586ce	-0.16164705
251	0xb9f4799c	-0.00046629913
252	0xbea31ac9	-0.31856373
253	0x3d97d8e3	0.07414415
254	0x3d9eb457	0.07749241
255	0x3d9f5cdd	0.07781384

network_body._body_endoder.seq_layers.2.bias f4 [256]
0	0xbe8a6b68	-0.2703507
1	0xbe0887c5	-0.13333042
2	0xbde5df13	-0.11224189
3	0xbdf80c76	-0.12111752
4	0xbe2ebaa3	-0.17063384
5	0xbe2e618e	-0.17029402
6	0xbd9edf59	-0.07757444
7	0xbd2d1fc0	-0.042266607
8	0xbdf5156c	-0.119669765
9	0xbd8c1dab	-0.06841596
10	0xbe8ddf81	-0.27709582
11	0xbdcbc657	-0.0994994
12	0x3d09e80e	0.03366857
13	0xbe2996de	-0.16561458
14	0xbe1273b3	-0.14301948
15	0xbdd9fc58	-0.10643834
16	0xbdd398d3	-0.10331883
17	0xbe21ca82	-0.15799907
18	0xbde49c3e	-0.11162613
19	0xbe27d2f5	-0.16389067
20	0xbe56ad19	-0.20964469
21	0xbe590a69	-0.21195377
22	0xbe323a07	-0.17404948
23	0xbe3d7419	-0.18501319
24	0xbde0c679	-0.10975356
25	0xbe6029cc	-0.21890944
26	0xbdc28aef	-0.09499156
27	0xbe8c08de	-0.27350515
28	0xbdfd5862	-0.12370373
29	0x3e94ad76	0.2903859
30	0xbd197766	-0.037467383
31	0xbe282f3e	-0.16424271
32	0xbe0f7a24	-0.14011437
33	0xbe023814	-0.12716705
34	0xbe4ebb7b	-0.20188706
35	0x3e501692	0.2032111
36	0xbd68132a	-0.0566589
37	0xbe0b2a7f	-0.1359043
38	0xbda83c37	-0.0821461
39	0xbe559cac	-0.20860547
40	0xbdfbab14	-0.1228849
41	0xbd6321ab	-0.05545203
42	0xbe2a9f09	-0.1666223
43	0xbe576c9b	-0.21037523
44	0xbe12b7a0	-0.1432786
45	0xbe173623	-0.14766745
46	0xbc668572	-0.014069902
47	0xbcc56078	-0.024093851
48	0xbe37d776	-0.17953286
49	0xbda6374d	-0.081160165
50	0xbdd983d2	-0.10620846
51	0xbe1e5b5c	-0.15464538
52	0xbce4a96e	-0.027912822
53	0xbe42d015	-0.1902469
54	0xbe13f464	-0.14448696
55	0x3d17080a	0.0368729
56	0xbe6f46c2	-0.23366836
57	0xbddba22f	-0.107242934
58	0xbcb4011c	-0.021973185
59	0xbe05eee8	-0.13079417
60	0xbde0d99e	-0.10979007
61	0xbda8312f	-0.08212506
62	0xbd65feea	-0.056151308
63	0xbe24cc10	-0.16093469
64	0xbe2b728a	-0.16742912
65	0xbc09d0c0	-0.008411586
66	0xbe03c3f8	-0.12867725
67	0xbd906dd0	-0.07052195
68	0xbe2f7eff	-0.17138289
69	0xbe2829fa	-0.16422263
70	0x3e7e4127	0.24829541
71	0xbd58db60	-0.052943587
72	0xbdd030c0	-0.10165548
73	0xbdaa1285	-0.083043136
74	0xbcd5d7bb	-0.026103845
75	0xbd8d27d7	-0.068923645
76	0xbe55502c	-0.20831364
77	0xbe2a349d	-0.16621633
78	0xbdd0485b	-0.10170051
79	0xbe3f5431	-0.1868446
80	0xbe1d4f04	-0.15362173
81	0xbe5c4c45	-0.2151347
82	0xbe49e577	-0.1971644
83	0xbc84d0fc	-0.016212933
84	0xbe1ef7cc	-0.15524215
85	0xbe0b4a05	-0.13602455
86	0xbe04e341	-0.12977315
87	0xbdf8c1ef	-0.12146365
88	0xbe4f0c70	-0.20219588
89	0xbdd7f427	-0.10544615
90	0xbd3e3adc	-0.04644285
91	0xbe197470	-0.14985824
92	0x3eb760cd	0.3581604
93	0xbdc90d5a	-0.09817
94	0xbe43c52d	-0.19118185
95	0xbe64422c	-0.22290868
96	0xbe268fe8	-0.16265833
97	0xbde19e8f	-0.11016571
98	0xbe2359ce	-0.15952227
99	0xbe01cd1f	-0.12675904
100	0xbe44b44b	-0.19209401
101	0xbe6bd15e	-0.23029086
102	0xbdf385d2	-0.118907586
103	0xbe4252af	-0.18976854
104	0xbe0543f6	-0.13014206
105	0xbe1d7e75	-0.15380271
106	0xbe53ac86	-0.20671281
107	0xbddf1dbb	-0.108943425
108	0xbe4118da	-0.18857136
109	0x3c5cd27e	0.01347792
110	0xbd9ae0c6	-0.075624034
111	0xbe3d3346	-0.1847659
112	0xbe3acd0f	-0.18242286
113	0xbe25ab6c	-0.16178674
114	0xbbf74ebb	-0.007547227
115	0xbe1e8b20	-0.1548276
116	0xbe2aa646	-0.16664991
117	0x3a226a80	0.00061956793
118	0xbe4dc83a	-0.20095912
119	0xbe3473ab	-0.17622249
120	0xbd57e94a	-0.052712716
121	0xbe1e14c5	-0.1543761
122	0xbe55b49f	-0.20869683
123	0x3c746e41	0.014918865
124	0xbe85456a	-0.2602952
125	0x3cdc3441	0.026880385
126	0xbe1f11f2	-0.1553419
127	0xbe4b7fe3	-0.19873004
128	0xbe1637aa	-0.14669672
129	0xbe2947ed	-0.16531344
130	0xbe297105	-0.1654702
131	0xbdbdce32	-0.09267844
132	0xba9e3db6	-0.0012072835
133	0xbe15e98b	-0.14639871
134	0xbe483f7d	-0.19555469
135	0xbe088bd5	-0.13334592
136	0xbe6e2e77	-0.23259912
137	0xbe07e0c2	-0.13269332
138	0xbe157653	-0.14595918
139	0xbdeaf29e	-0.11472057
140	0xbda17eac	-0.07885489
141	0xbe2057d3	-0.15658502
142	0xbc984737	-0.018588645
143	0xbe2fce8e	-0.17168638
144	0xbe659845	-0.22421367
145	0xbd79a61c	-0.06094943
146	0xbe3d1569	-0.18465199
147	0xbe08eae1	-0.13370849
148	0xbe3d8d3b	-0.18510906
149	0xbe16923c	-0.14704221
150	0xbe997506	-0.29972094
151	0xbde1f57b	-0.1103315
152	0xbde4c231	-0.111698516
153	0xbe690159	-0.2275442
154	0xbe08dfd3	-0.13366632
155	0xbd20a8f8	-0.03922364
156	0xbdfbeeb7	-0.123013906
157	0xbdd55f65	-0.10418586
158	0xbe26114b	-0.16217534
159	0xbe225490	-0.1585257
160	0xbd9cac7d	-0.07650087
161	0xbdc70076	-0.09716885
162	0xbdbbb959	-0.09166212
163	0xbe815f72	-0.25268131
164	0x3d22d7c4	0.03975655
165	0xbe406379	-0.18787946
166	0xbe07d8e2	-0.13266328
167	0xbe3064d0	-0.17225957
168	0xbe5b05e7	-0.2138897
169	0xbd66c532	-0.056340404
170	0xbe2f488f	-0.17117523
171	0xbe258c77	-0.16166864
172	0xbe0cb946	-0.13742551
173	0x3b1dde1a	0.0024088682
174	0xbe027964	-0.1274162
175	0x3e27f49d	0.16401906
176	0xbdf57d85	-0.119868316
177	0x3c9a79da	0.018856931
178	0xbd902883	-0.07038977
179	0xbd80ba99	-0.06285591
180	0xbe171c13	-0.14756803
181	0xbe20e64c	-0.15712851
182	0xbdd8e339	-0.10590214
183	0xbd9085fa	-0.07056804
184	0xbd66342b	-0.056202095
185	0xbe0f3178	-0.13983715
186	0x3c931eb0	0.017958969
187	0xbe034502	-0.12819293
188	0xbe06a702	-0.13149646
189	0xbe854362	-0.26027972
190	0xbe0e04bf	-0.13868998
191	0xbe541aed	-0.20713396
192	0xbe37d9a8	-0.17954123
193	0xbda06c57	-0.07833164
194	0xbdc94e55	-0.09829394
195	0xbde8b145	-0.113619365
196	0xbe5e48b5	-0.21707423
197	0xbca14449	-0.019685881
198	0xbdd54dc9	-0.10415227
199	0xbdc97f46	-0.098387286
200	0xbe2e828f	-0.17041992
201	0xbdfc6199	-0.12323303
202	0xbe1847f2	-0.14871195
203	0xbdd80d4b	-0.105494104
204	0xbe1800cc	-0.14844054
205	0xbe7c18f5	-0.24618895
206	0xbe19c40f	-0.15016197
207	0xbccefe95	-0.025267879
208	0xbe2f6fda	-0.17132512
209	0xbd12e8e3	-0.03586663
210	0xbdbc21ec	-0.091861576
211	0xbdb2b2a2	-0.08725478
212	0xbe2ff481	-0.17183115
213	0xbdc01ae6	-0.093801305
214	0xbe136f05	-0.1439782
215	0xbd8f85e7	-0.07007962
216	0xbe66fd66	-0.22557601
217	0x3d6ba899	0.057533834
218	0x3ec15191	0.37757543
219	0xbdf4377b	-0.119246446
220	0xbe651061	-0.2236953
221	0xbe099daa	-0.1343905
222	0xbd078df0	-0.033094347
223	0x3d2e5ddd	0.042569984
224	0xbc55ea00	-0.013056278
225	0xbd59da94	-0.053186968
226	0xbd99df70	-0.075133204
227	0x3e82b896	0.25531453
228	0xbd6d8bb4	-0.05799456
229	0xbe362281	-0.177866
230	0x3c7af3bf	0.015316903
231	0xbe13905d	-0.14410539
232	0xbd8f9d3c	-0.07012412
233	0xbdeffc9c	-0.11718103
234	0xbe2efdaa	-0.17088953
235	0xbdc456f5	-0.09586898
236	0xbda61362	-0.08109166
237	0x3ec84d36	0.39121407
238	0xbe2945b3	-0.16530494
239	0xbd19a9e0	-0.03751552
240	0xbe515c8f	-0.20445465
241	0xbe22cb1d	-0.15897794
242	0xbd12a0da	-0.03579793
243	0xbe37bb9c	-0.17942661
244	0xbd8d6e9c	-0.06905863
245	0xbe5cc1d5	-0.21558316
246	0xbe05e67d	-0.13076206
247	0xbd7ea5b6	-0.062169753
248	0xbe2f000c	-0.17089862
249	0xbe1a9a7f	-0.15097998
250	0xbe43c5ae	-0.19118378
251	0xbe68d140	-0.22736073
252	0xbce1f765	-0.027583787
253	0xbdf6dbc8	-0.12053639
254	0xbe2b44b6	-0.1672543
255	0xbe33edac	-0.17571133

network_body._body_endoder.seq_layers.4.weight f4 [256, 256]
0	0x3d2e471e	0.04254829
1	0xbda45d18	-0.08025569
2	0x3c8a90ce	0.016914751
3	0x3e54833c	0.20753187
4	0x3ebc0a89	0.36726788
5	0x3e615b19	0.22007407
6	0x3e3d6f7c	0.18499559
7	0x3e06992a	0.13144365
8	0x3e25b6ca	0.1618301
9	0x3c695a8e	0.014242781
10	0x3d540554	0.051762894
11	0xbd13ab73	-0.03605218
12	0xbd99fb26	-0.07518606
13	0x3e70dab4	0.23520929
14	0x3dff21f8	0.12457651
15	0x3d4b7297	0.04966983
16	0x3e5e2687	0.21694385
17	0xbcf60e67	-0.030036164
18	0x3e966716	0.29375523
19	0x3d814962	0.06312825
20	0xbdd7119e	-0.10501407
21	0x3d300f79	0.042983506
22	0x3d161b35	0.03664704
23	0x3e90a6ff	0.28252408
24	0x3e2b2864	0.16714627
25	0xbd5a2d30	-0.05326575
26	0x3d26f0dc	0.040757045
27	0x3d3e2f3e	0.046431772
28	0x3e7c7cbc	0.24656957
29	0xbd4e2348	-0.050326616
30	0x3cc86959	0.024464296
31	0xbd0f8d31	-0.03504676
32	0x3d2d5aa3	0.042322766
33	0x3e39b21f	0.18134354
34	0x3ec22a81	0.37923053
35	0xbd690c08	-0.05689624
36	0x3d8051d9	0.06265611
37	0x3e112d0c	0.1417734
38	0x3db261f9	0.08710093
39	0x3e05bde3	0.13060717
40	0xbbe7ff6a	-0.0070800083
41	0x3da9631c	0.08270857
42	0x3cdac122	0.026703421
43	0x3ddd449e	0.10804103
44	0xbe200b30	-0.15629268
45	0x3d8d7092	0.06906237
46	0xbe7980c2	-0.24365523
47	0x3e4fd055	0.20294316
48	0x3ce24f31	0.027625652
49	0xbdb840e9	-0.08996756
50	0xbcd3a0ed	-0.025833571
51	0x3e1c6ae2	0.15275148
52	0x3cd1b813	0.025600469
53	0x3e35be73	0.17748432
54	0x3d6274bf	0.05528712
55	0xbdf014c9	-0.117227145
56	0x3e1ad848	0.15121567
57	0xbe35e87c	-0.17764467
58	0x3deb932e	0.11502682
59	0xbe49e246	-0.19715223
60	0x3d63b09f	0.05558836
61	0x3e04acc7	0.12956534
62	0x3e08e586	0.13368806
63	0x3e0f243c	0.13978666
64	0x3e7c5b41	0.24644186
65	0xbd645a70	-0.05575031
66	0x3e3df80f	0.18551658
67	0xbda4f297	-0.08054083
68	0x3d75d012	0.060012884
69	0xb91f0519	-0.0001516532
70	0xbdebbbbb	-0.11510416
71	0x3e25a1d1	0.1617501
72	0xbd61e968	-0.055154234
73	0x3d00310c	0.031296775
74	0x3dd6bad1	0.10484851
75	0x3d8219fe	0.06352614
76	0x3e33d6b6	0.17562374
77	0x3e8dfe83	0.2773324
78	0x3e63b0dc	0.22235435
79	0x3b9d73bd	0.004805057
80	0x3e29f0a2	0.165957
81	0x3d86ed9b	0.065882884
82	0x3d9be5d3	0.07612195
83	0x3d1ff47e	0.039051525
84	0xbdf1cfcf	-0.118072145
85	0x3d4ac6d8	0.04950604
86	0xbda43a38	-0.08018917
87	0x3deb5474	0.114907175
88	0xbd9a7d65	-0.07543448
89	0x3c3042ab	0.010758082
90	0xbc028348	-0.00796587
91	0x3d75ed08	0.060040504
92	0xbdf73f20	-0.12072587
93	0xbe4789c1	-0.19486143
94	0xbd577945	-0.052605886
95	0xbe23b944	-0.15988642
96	0x3cf46e45	0.029837737
97	0xbe0b9ff2	-0.13635233
98	0x3e13b6a2	0.14425138
99	0x3d863610	0.0655328
100	0x3e6225bd	0.22084709
101	0x3e700737	0.23440252
102	0x3db24988	0.08705431
103	0xbdaeb1c4	-0.0853
104	0x3d784803	0.06061555
105	0x3dd9d326	0.106359765
106	0x3ea5f415	0.32412782
107	0x3d881335	0.066442885
108	0x3e1f667c	0.15566438
109	0xbdbcf03a	-0.09225507
110	0xbe06e105	-0.13171776
111	0xbe04d216	-0.12970766
112	0xbd8c5126	-0.06851415
113	0x3d5f9bba	0.05459187
114	0xbcb771fc	-0.02239322
115	0xbd818120	-0.06323457
116	0x3d22eaba	0.039774634
117	0x3e23a1e9	0.15979733
118	0x3d87384c	0.06602535
119	0x3c4a7666	0.01235733
120	0xbcfd02ef	-0.030885188
121	0x3e8ce41d	0.27517787
122	0xbd0bd8a4	-0.03414215
123	0xbdc11753	-0.09428277
124	0xbe404d1f	-0.1877942
125	0xbe04f530	-0.12984157
126	0x3e530e6d	0.20610972
127	0xbdc1dbea	-0.094657734
128	0x3d71c0a8	0.059021622
129	0x3dca6851	0.09883178
130	0x3e666c3b	0.22502224
131	0xbdc8716b	-0.09787258
132	0x3e804300	0.25051117
133	0xbde3f32c	-0.11130366
134	0xbda1be00	-0.07897568
135	0xbe01e464	-0.1268478
136	0x3e31faf4	0.17380887
137	0x3cd3259b	0.025774768
138	0xbbce0585	-0.006287279
139	0x3d7e9714	0.062155798
140	0x3d9eae13	0.07748046
141	0x3de42352	0.11139549
142	0x3e1ed859	0.15512218
143	0xbd857ee0	-0.0651834
144	0x3e051278	0.12995327
145	0x3ceb6c95	0.0287383
146	0x3e5d325b	0.2160124
147	0x3d0aa6e4	0.033850566
148	0x3e69bc42	0.22825721
149	0x3da13181	0.0787077
150	0x3e317428	0.17329466
151	0xbd70a623	-0.05875219
152	0xbe92f137	-0.28699657
153	0x3ddf12ee	0.108922824
154	0x3e6bdf52	0.23034409
155	0xbdb36447	-0.08759361
156	0x3eb8c606	0.3608858
157	0x3e831a48	0.25605989
158	0x3d42d012	0.047561713
159	0x3e28ea82	0.16495708
160	0xbd09d7f4	-0.033653215
161	0x3d5fc2b4	0.054629043
162	0xbe1c89df	-0.15286969
163	0x3d344a22	0.04401601
164	0x3c9681c5	0.018372426
165	0x3d2dfbee	0.042476587
166	0x3d93fb1d	0.072256304
167	0xbc871e6a	-0.016493995
168	0x3e2c9a4e	0.16855738
169	0x3d25fe81	0.040525917
170	0x3de0be63	0.109738134
171	0x3e718458	0.23585641
172	0x3d2bcbd7	0.041942444
173	0xbe400844	-0.18753153
174	0x3d83fa9f	0.064442866
175	0xbdf3301b	-0.1187441
176	0xbdad623d	-0.08466003
177	0x3d20cd37	0.039258208
178	0x3e050a70	0.12992263
179	0x3ee78f7a	0.4522665
180	0x3e9f7292	0.31142098
181	0x3c8331fa	0.016015042
182	0xbd5e5983	-0.054284584
183	0x3e1c506c	0.15265054
184	0x3d4f7459	0.050648067
185	0x3c60bf15	0.0137174325
186	0xbe6881a2	-0.22705701
187	0x3d5af96f	0.053460535
188	0x3e02834c	0.12745398
189	0xbbb6d384	-0.005579414
190	0x3d800065	0.06250075
191	0x3d7e6a47	0.062113073
192	0x3e2053e0	0.15656996
193	0x3db7dd45	0.08977751
194	0xbd4d4020	-0.050109982
195	0x3d1a4bcc	0.03766994
196	0x3df2284c	0.11824092
197	0xbd3a55d3	-0.045492005
198	0x3e57344e	0.21016046
199	0x3ec169ad	0.37775937
200	0x3e331b5d	0.17490907
201	0x3e0f4f45	0.13995083
202	0x3e122667	0.14272462
203	0xbd44523f	-0.04793
204	0x3e67cfef	0.22637914
205	0x3def3ef1	0.11681927
206	0x3e00f959	0.12595119
207	0x3e1b34e5	0.15156896
208	0xbd4e3e43	-0.050352346
209	0xbe3263f0	-0.17420936
210	0x3e299198	0.16559446
211	0x3dd8e543	0.10590603
212	0x3db0e97c	0.086382836
213	0xbdb30c10	-0.08742535
214	0x3cb79066	0.022407722
215	0x3d1f2584	0.038854137
216	0x3dacfc9e	0.084466204
217	0xbd34ec61	-0.04417074
218	0xbe93c641	-0.28862193
219	0xbe35602d	-0.1771247
220	0xbd5a9179	-0.05336139
221	0x3ca9884b	0.020694872
222	0xbdc1fcfb	-0.0947208
223	0xbec4fb6f	-0.3847308
224	0xbc15e09d	-0.00914779
225	0x3d9abf8c	0.07556066
226	0xbd98ddad	-0.07464156
227	0xbe37c020	-0.17944384
228	0xbd8d2272	-0.068913355
229	0x3e7d2022	0.24719289
230	0x3d8b4ee7	0.06802159
231	0x3db95e1b	0.09051152
232	0x3e0d0d30	0.13774562
233	0xbdbcbcba	-0.09215684
234	0xbe22fae6	-0.15916023
235	0xbd39793c	-0.045281634
236	0xbc57fd09	-0.013182887
237	0xbc0997d5	-0.008398016
238	0x3d09c713	0.033637118
239	0x3db94e08	0.090480864
240	0x3e0031df	0.12519024
241	0x3e573428	0.2101599
242	0x3d597b66	0.053096198
243	0x3ddc7735	0.107649244
244	0xbd36d72e	-0.044638805
245	0x3df0e6c9	0.11762769
246	0x3d4ef1a5	0.05052342
247	0x3e081e6e	0.13292858
248	0x3e68f1f2	0.22748545
249	0xbdd31c18	-0.10308093
250	0xbc59cb52	-0.013293104
251	0x3d927c27	0.071525864
252	0x3e3b85fa	0.18312827
253	0x3deb1ef3	0.114805125
254	0x3e9acc38	0.30233932
255	0x3ddc3178	0.10751623

network_body._body_endoder.seq_layers.4.bias f4 [256]
0	0xbe217ce4	-0.15770298
1	0xbe16b212	-0.14716366
2	0xbd8eca17	-0.06972139
3	0xbe2f66bd	-0.17129035
4	0xbd584ee4	-0.05280961
5	0xbe82d976	-0.25556535
6	0x3c96bce9	0.018400626
7	0xbddfffb3	-0.10937443
8	0xbdba177b	-0.0908651
9	0xbdf83aa0	-0.12120557
10	0xbda8f4b7	-0.08249801
11	0xbdfb7ddf	-0.122798674
12	0xbe519105	-0.20465477
13	0xbe289bd2	-0.1646569
14	0xbe84621a	-0.25856096
15	0xbe5885ff	-0.21144865
16	0xbde266d4	-0.11054769
17	0xbe3632d6	-0.1779283
18	0xbd8ac0b6	-0.06775038
19	0xbdfd65d7	-0.1237294
20	0xbe6cff38	-0.23144233
21	0xbe56f2d7	-0.20991074
22	0x3c9101c1	0.017701032
23	0xbd9d9abf	-0.07695531
24	0xbe7cf392	-0.2470229
25	0xbc4f69e7	-0.012659526
26	0xbdc84b6a	-0.09780009
27	0xbd003a0c	-0.031305358
28	0xbe3b141b	-0.18269388
29	0xbd05dd46	-0.032681726
30	0xbe03041a	-0.12794533
31	0xbc761153	-0.015018779
32	0xbd3a82bb	-0.04553483
33	0xbd8176c6	-0.06321482
34	0x3d57dacc	0.052698895
35	0xbe1e39c5	-0.15451725
36	0xbd255f1c	-0.040373906
37	0xbdf1e9d4	-0.11812177
38	0xbd3e637c	-0.046481594
39	0xbc8dfc36	-0.017332178
40	0x3d85f7f8	0.06541437
41	0xbe0539c8	-0.13010323
42	0xbde71544	-0.11283353
43	0xbe758afb	-0.23978798
44	0xbe00a9b0	-0.1256473
45	0xbdc97cbe	-0.09838246
46	0xbcb6da06	-0.022320759
47	0xbd5c609b	-0.053803068
48	0xbe45a925	-0.19302805
49	0x3cf3b7f3	0.0297508
50	0xbdeadf17	-0.11468332
51	0xbd514657	-0.051092472
52	0xbd04da1f	-0.03243458
53	0xbe3da48f	-0.18519805
54	0xbdbb30d8	-0.091401756
55	0xbe418225	-0.18897302
56	0xbe1d2fe0	-0.15350294
57	0xbca9cf51	-0.020728739
58	0xbe35db1c	-0.17759365
59	0xbe0988cb	-0.13431089
60	0xbe827456	-0.25479382
61	0xbe486afd	-0.19572063
62	0xbdd1e7de	-0.10249303
63	0xbddd3a8a	-0.10802181
64	0xbe0ad785	-0.13558777
65	0xbe685d4a	-0.22691837
66	0xbc92c5e8	-0.017916635
67	0xbe09c021	-0.13452198
68	0xbe1302aa	-0.14356485
69	0xbe134af9	-0.14384069
70	0xbe171bf9	-0.14756764
71	0xbe31978a	-0.17342964
72	0xbea9b6ce	-0.3314728
73	0xbe84683e	-0.2586078
74	0xbd030e77	-0.031996217
75	0xbc80f228	-0.01574047
76	0xbe235aa8	-0.15952551
77	0xbe143682	-0.14473918
78	0xbe791f60	-0.24328375
79	0x3c087e01	0.008330823
80	0xbde1de96	-0.11028783
81	0xbe29c038	-0.16577232
82	0xbe1e0d16	-0.1543468
83	0x3da46270	0.08026588
84	0xbda2a4bf	-0.07941579
85	0xbe2e7fea	-0.17040983
86	0x3cd3d943	0.025860434
87	0xbd77008e	-0.060303263
88	0xbe206d9a	-0.1566681
89	0xbd71513b	-0.058915358
90	0xbe371695	-0.17879708
91	0xbdc90229	-0.09814865
92	0xbe76f41a	-0.24116555
93	0xbdadc12a	-0.08484109
94	0xbdc68609	-0.09693534
95	0xbc21f2e9	-0.009884574
96	0xbe013c83	-0.1262074
97	0xbe9da307	-0.30788442
98	0xbe132104	-0.14368063
99	0xbe429ef4	-0.19005948
100	0xbd137849	-0.036003385
101	0xbe29040d	-0.16505452
102	0xbdf2a3be	-0.118476376
103	0x3d8efad0	0.069814324
104	0xbdda1cf9	-0.10650057
105	0xbe065cd6	-0.13121352
106	0xbe328b32	-0.17435911
107	0xbdc97e2b	-0.09838518
108	0xbd673bbc	-0.05645345
109	0xbcb9bd8c	-0.02267339
110	0x3c906d67	0.017630292
111	0xbdf1e97f	-0.11812114
112	0xbdd0d182	-0.101962104
113	0xbdf892ea	-0.12137397
114	0xbe263b4e	-0.1623356
115	0xbe64690a	-0.22305694
116	0xbe328e3b	-0.17437069
117	0xbdb29a61	-0.08720852
118	0xbd9a5c09	-0.075370856
119	0x3cd8ff86	0.02648903
120	0xbe0e522f	-0.13898538
121	0xbd3c7d4d	-0.046017934
122	0xbe399f04	-0.18127066
123	0xbe59aae8	-0.21256602
124	0xbe76f8cb	-0.24118344
125	0xbe1ce0f0	-0.15320182
126	0xbe4949bf	-0.19657038
127	0xbde0964c	-0.10966167
128	0xbc71b7b9	-0.014753276
129	0xbd07fe9b	-0.033201795
130	0xbdad226c	-0.08453831
131	0x3c8e4d9f	0.017370997
132	0xbe8bf469	-0.27334908
133	0xbe0f08ec	-0.13968247
134	0xbdf5592c	-0.11979899
135	0xbe25bc5b	-0.16185133
136	0xbe84ce5b	-0.25938687
137	0xbe218b66	-0.15775833
138	0xbdb11f5f	-0.08648562
139	0xbe110170	-0.14160705
140	0x3c89caf6	0.016820412
141	0xbdd8e255	-0.105900444
142	0xbc60b29b	-0.013714458
143	0xbe90e9e7	-0.28303453
144	0xbd88fa22	-0.06688334
145	0x3cf9919c	0.03046494
146	0xbe43b81c	-0.19113201
147	0xbdf550dd	-0.11978314
148	0xbde94153	-0.11389413
149	0xbe027277	-0.12738977
150	0xbdd8e53a	-0.105905965
151	0xbe4432fc	-0.19160074
152	0xbbfa3f60	-0.0076369494
153	0xbe17dbb1	-0.148299
154	0xbde4fe24	-0.11181286
155	0xbd7bd538	-0.061482638
156	0xbda51244	-0.080601245
157	0xbe980e03	-0.2969819
158	0xbdd70bb6	-0.105002806
159	0xbe6ed1de	-0.23322245
160	0xbd540625	-0.051763672
161	0xbdc6b0f3	-0.09701719
162	0xbdd51c3a	-0.104057744
163	0xbd23ac47	-0.03995922
164	0xbd6b4144	-0.05743529
165	0x3c7cf6ed	0.015439731
166	0xbd91a567	-0.07111626
167	0xbe253a03	-0.16135411
168	0xbe32940f	-0.17439292
169	0xbd181a7a	-0.037134625
170	0x3d2580a3	0.04040588
171	0xbbf2079d	-0.0073861615
172	0xbd88a4b4	-0.0667204
173	0xbdf245aa	-0.118296936
174	0xbe984004	-0.2973634
175	0xbe0f1c87	-0.13975726
176	0xbe344746	-0.17605314
177	0xbdecad3a	-0.11556478
178	0xbe41ca0b	-0.1892473
179	0xbe347c8d	-0.17625637
180	0xbd925965	-0.07145957
181	0xbe5b6503	-0.21425252
182	0xbe251f53	-0.1612523
183	0xbe5091be	-0.20368096
184	0xbab56e11	-0.0013842006
185	0x3c84f704	0.016231067
186	0xbd7a5bdb	-0.061122756
187	0xbd911a25	-0.07085065
188	0xbddb2484	-0.10700324
189	0xbdc53003	-0.09628298
190	0xbd83a4ee	-0.06427942
191	0xbe8ebdd4	-0.27879202
192	0xbe4373bd	-0.1908712
193	0xbe944934	-0.289621
194	0xbdfba6e5	-0.12287692
195	0xbe65e072	-0.224489
196	0xbd9078f7	-0.07054322
197	0xbe18721b	-0.14887278
198	0xbe1d0543	-0.15334038
199	0xbe5bb8bd	-0.21457191
200	0xbda8b20c	-0.08237085
201	0xbe3de375	-0.18543799
202	0xbe80b32a	-0.2513669
203	0xbd78e720	-0.060767293
204	0xbdda873d	-0.10670326
205	0xbda75be8	-0.081718266
206	0xbd91ec57	-0.071251564
207	0xbda74680	-0.08167744
208	0x3ce14678	0.027499422
209	0xbdc36aa5	-0.09541825
210	0xbde986f3	-0.11402693
211	0xbe70de96	-0.2352241
212	0xbcb7e924	-0.022450037
213	0xbdc3b8a0	-0.09556699
214	0xbdef4b2e	-0.11684261
215	0xbe4f7d6d	-0.2026269
216	0xbe071cfe	-0.13194653
217	0xbe42d3e9	-0.1902615
218	0xbe530f8b	-0.20611398
219	0xbdb93661	-0.09043575
220	0xbda366b8	-0.079785764
221	0xbdf994fa	-0.12186618
222	0xbdfeb225	-0.12436322
223	0xbdf3412b	-0.11877664
224	0xbd1b968a	-0.037985362
225	0xbe3fc458	-0.18727243
226	0xbcf8a3de	-0.030351575
227	0xbda3afa7	-0.079924874
228	0xbe0c2ad2	-0.1368821
229	0xbd608d0e	-0.05482202
230	0xba730734	-0.00092707877
231	0xbe168a80	-0.14701271
232	0xbd775cf7	-0.060391393
233	0xbe3acfc2	-0.18243316
234	0xbb871733	-0.0041226386
235	0xbe42af9f	-0.19012307
236	0xbdbcbfc8	-0.09216267
237	0xbe6721c8	-0.2257148
238	0xbdc3c87e	-0.09559725
239	0xbe60342f	-0.21894906
240	0xbe014f63	-0.1262794
241	0xbe19e7db	-0.15029852
242	0xbdf13472	-0.11777581
243	0xbe10c056	-0.1413587
244	0xbd9c0dbd	-0.07619808
245	0xbe003a30	-0.12522197
246	0xbe12f8ad	-0.14352675
247	0xbd1c6825	-0.038185257
248	0xbd6f8274	-0.05847402
249	0xbe82e546	-0.25565547
250	0xbdf7fd82	-0.121089
251	0xbe0765fa	-0.13222495
252	0xbdfdf12c	-0.123995155
253	0xbe733694	-0.23751289
254	0x3d08fe96	0.033445917
255	0xbdc38d34	-0.09548417
