Usable_Data/one_car_self_park_2/PKWParking.onnx (onnx, 545202 bytes, 19 tensors)

discrete_act_size_vector f4 [1, 2]
0	0x40800000	4.0
1	0x40400000	3.0

network_body.observation_encoder.processors.0.normalizer.running_mean f4 [45]
0	0x00000000	0.0
1	0x385d7ba5	5.280566e-05
2	0x00000000	0.0
3	0x3c8c5878	0.017132029
4	0x3e08885d	0.13333268
5	0x3f033f67	0.5126862
6	0x3e265ec5	0.16247089
7	0x3e32800a	0.17431656
8	0x3f12e496	0.57380044
9	0x00000000	0.0
10	0x38869324	6.417025e-05
11	0x00000000	0.0
12	0x3cac794c	0.021053933
13	0x3e0a6e9a	0.13518754
14	0x3f01af38	0.5065799
15	0x3e39e5b9	0.18154038
16	0x3e1f4eb7	0.15557371
17	0x3f1106e7	0.5665116
18	0x00000000	0.0
19	0x38a133f1	7.686753e-05
20	0x00000000	0.0
21	0x3c7c1865	0.0153866755
22	0x3e0e20c6	0.1387969
23	0x3f027a79	0.5096813
24	0x3e8317e9	0.2560418
25	0x3da3e0b7	0.08001845
26	0x3f0557ad	0.5208691
27	0x00000000	0.0
28	0x38424ead	4.6326477e-05
29	0x00000000	0.0
30	0x3cafbab7	0.021451337
31	0x3e12c3a9	0.14332451
32	0x3eff2c2e	0.49838394
33	0x3e9fc523	0.3120509
34	0x3ccad7fb	0.02476119
35	0x3f002aed	0.500655
36	0x00000000	0.0
37	0x397fce32	0.00024395509
38	0x00000000	0.0
39	0x3cabc5cc	0.02096834
40	0x3e1162b6	0.14197811
41	0x3f00a8f1	0.50257784
42	0x3e9f9a67	0.31172487
43	0x3cb8a746	0.0225407
44	0x3ee522b3	0.44753036

network_body.observation_encoder.processors.1.normalizer.running_mean f4 [20]
0	0x3a5fa8ec	0.0008531946
1	0x00000000	0.0
2	0x3c3bffe8	0.011474587
3	0x3f12dcd0	0.57368183
4	0x3a2b16bc	0.000652652
5	0x00000000	0.0
6	0x3c1af744	0.009458367
7	0x3f0f0ce6	0.55879056
8	0x3a4f9f7f	0.000792019
9	0x00000000	0.0
10	0x3c23b67a	0.009992236
11	0x3f111811	0.5667735
12	0x39a2a4af	0.00031021747
13	0x00000000	0.0
14	0x3bfa8273	0.0076449453
15	0x3effafe2	0.49938875
16	0x3a2ce483	0.000659533
17	0x00000000	0.0
18	0x3c05c2eb	0.008164148
19	0x3f10ecd4	0.5661137

network_body.observation_encoder.processors.2.normalizer.running_mean f4 [15]
0	0x3ddb6811	0.107132085
1	0x3f643dae	0.89156616
2	0x3f70e3a2	0.9409734
3	0x3de2f373	0.110815905
4	0x3f4ba640	0.7955055
5	0x3f6c7fe4	0.92382646
6	0x3def54d1	0.11686099
7	0x3f604167	0.87599796
8	0x3f6e9f75	0.9321206
9	0x3dd0dd7d	0.101984955
10	0x3f103424	0.5632956
11	0x3f4cd303	0.8000948
12	0x3ded33b8	0.1158213
13	0x3f5d0bf3	0.8634636
14	0x3f6cdfb2	0.9252883

network_body.observation_encoder.processors.3.normalizer.running_mean f4 [168]
0	0x00000000	0.0
1	0x3b1b9cff	0.00237447
2	0x3cad1e17	0.021132512
3	0x3e09e9c5	0.13468082
4	0x3f4ecee6	0.8078445
5	0x3b793726	0.0038027256
6	0x3cedac2d	0.029012764
7	0x3e37e706	0.17959222
8	0x00000000	0.0
9	0x3d9600b1	0.073243506
10	0x3c02d263	0.00798473
11	0x3e1d33e5	0.15351827
12	0x3f318bf7	0.69354194
13	0x3d34bec9	0.04412726
14	0x3cd8aa2c	0.026448332
15	0x3e239071	0.15973069
16	0x00000000	0.0
17	0x3c0dd15a	0.00865587
18	0x3d15f6ac	0.036612198
19	0x3df71503	0.120645545
20	0x3f4c7358	0.798635
21	0x3be38be5	0.006944167
22	0x3ce0a1b5	0.027420858
23	0x3e32b970	0.17453551
24	0x00000000	0.0
25	0x3ea49344	0.32143605
26	0x3c43799f	0.011930852
27	0x3e1ed86f	0.1551225
28	0x3ef2a0d1	0.47388318
29	0x3b04dce5	0.0020273265
30	0x3d0d2fe0	0.034469485
31	0x3e1c9466	0.15290985
32	0x00000000	0.0
33	0x3cb46e11	0.02202514
34	0x3d0fb1a5	0.035081524
35	0x3e00f37d	0.12592883
36	0x3f043e99	0.51658016
37	0x3e8b377d	0.27190772
38	0x3ce03ee5	0.02737374
39	0x3e21b295	0.1579078
40	0x00000000	0.0
41	0x3eb1ccba	0.34726506
42	0x3ca164f0	0.019701451
43	0x3e1803e6	0.14845237
44	0x3ee6ae77	0.4505498
45	0x3b141575	0.0022595797
46	0x3cfabaf4	0.030606724
47	0x3e152683	0.14565472
48	0x00000000	0.0
49	0x3d684a48	0.056711465
50	0x3caebae8	0.021329358
51	0x3e1381bd	0.1440496
52	0x3eeb496c	0.45954454
53	0x3e22352d	0.15840597
54	0x3e229ed4	0.158809
55	0x3e8b0c1d	0.2715768
56	0x00000000	0.0
57	0x3b1baa49	0.002375262
58	0x3cad92ed	0.021188224
59	0x3e0a4810	0.13504052
60	0x3f4ed71a	0.8079697
61	0x3b795ac0	0.0038048476
62	0x3cedd5a0	0.029032528
63	0x3e3802ab	0.17969768
64	0x00000000	0.0
65	0x3d9607e8	0.07325727
66	0x3c030ea8	0.0079991
67	0x3e1d9c2c	0.15391606
68	0x3f3192d2	0.69364655
69	0x3d34c8d2	0.04413683
70	0x3cd8db99	0.0264719
71	0x3e23aca8	0.15983832
72	0x00000000	0.0
73	0x3c0dd980	0.008657813
74	0x3d166ef0	0.036726892
75	0x3df7b322	0.12094714
76	0x3f4c7ba5	0.79876167
77	0x3be3a369	0.0069469702
78	0x3ce0c41b	0.02743726
79	0x3e32d2d1	0.17463233
80	0x00000000	0.0
81	0x3ea49b95	0.3214995
82	0x3c43ce2f	0.0119510135
83	0x3e1f3d1b	0.15550654
84	0x3ef2a976	0.47394913
85	0x3b04e72c	0.002027939
86	0x3d0d4815	0.03449257
87	0x3e1caf0e	0.15301153
88	0x00000000	0.0
89	0x3cb47396	0.022027772
90	0x3d1014cc	0.035176083
91	0x3e014672	0.12624529
92	0x3f0442f1	0.51664644
93	0x3e8b3f0a	0.27196532
94	0x3ce063cd	0.027391339
95	0x3e21cbe6	0.15800437
96	0x00000000	0.0
97	0x3eb1d565	0.3473312
98	0x3ca1cb3a	0.019750226
99	0x3e1862fe	0.14881513
100	0x3ee6b78b	0.45061907
101	0x3b141ef5	0.002260146
102	0x3cfaca0d	0.030613923
103	0x3e15331e	0.14570281
104	0x00000000	0.0
105	0x3d684da0	0.056714654
106	0x3caf38e4	0.021389432
107	0x3e13df54	0.14440662
108	0x3eeb5186	0.45960635
109	0x3e223c4f	0.15843318
110	0x3e22abd3	0.15885858
111	0x3e8b1ba3	0.27169523
112	0x00000000	0.0
113	0x3b1bb93e	0.0023761536
114	0x3cae05a7	0.02124293
115	0x3e0aa44a	0.13539234
116	0x3f4edf98	0.80809927
117	0x3b797cc8	0.003806876
118	0x3cedffe7	0.029052688
119	0x3e381e49	0.17980303
120	0x00000000	0.0
121	0x3d960eaf	0.073270194
122	0x3c034b8c	0.008013617
123	0x3e1e01c6	0.15430364
124	0x3f31997c	0.69374824
125	0x3d34d314	0.044146612
126	0x3cd90e4e	0.026496079
127	0x3e23c820	0.1599431
128	0x00000000	0.0
129	0x3c0de1fd	0.008659837
130	0x3d16e8fb	0.03684328
131	0x3df84894	0.12123218
132	0x3f4c838b	0.7988822
133	0x3be3bc58	0.0069499426
134	0x3ce0e607	0.027453436
135	0x3e32eb7f	0.17472647
136	0x00000000	0.0
137	0x3ea4a3d4	0.3215624
138	0x3c4426e9	0.0119721675
139	0x3e1fa1e7	0.15589105
140	0x3ef2b258	0.4740169
141	0x3b04f2b9	0.0020286276
142	0x3d0d5eec	0.034514353
143	0x3e1cc954	0.15311176
144	0x00000000	0.0
145	0x3cb478fb	0.022030344
146	0x3d107d65	0.035275836
147	0x3e0197f5	0.12655623
148	0x3f044789	0.51671654
149	0x3e8b4688	0.2720225
150	0x3ce0899a	0.027409364
151	0x3e21e4ca	0.15809932
152	0x00000000	0.0
153	0x3eb1de57	0.34739944
154	0x3ca22769	0.019794183
155	0x3e18c347	0.14918242
156	0x3ee6c025	0.4506847
157	0x3b142842	0.0022607003
158	0x3cfad8f1	0.030621024
159	0x3e154248	0.14576066
160	0x00000000	0.0
161	0x3d685109	0.056717906
162	0x3cafb731	0.021449657
163	0x3e143db0	0.14476657
164	0x3eeb597d	0.45966712
165	0x3e224386	0.1584607
166	0x3e22b86e	0.15890667
167	0x3e8b2ae2	0.27181154

network_body.observation_encoder.processors.4.normalizer.running_mean f4 [6]
0	0x3f7fff0c	0.99998546
1	0xba8dd18a	-0.0010819894
2	0x3c22869e	0.009919791
3	0x3f7220d7	0.9458136
4	0xbcef83a0	-0.029237568
5	0x3c0e40c8	0.008682437

network_body._body_endoder.seq_layers.0.weight f4 [256, 254]
0	0xbdd4bba3	-0.10387351
1	0x3ceebc79	0.029142605
2	0xbdd2022a	-0.10254319
3	0xbbede9cd	-0.0072605372
4	0x3d6abb0f	0.0573073
5	0x3d7b196b	0.061303537
6	0xbd791095	-0.06080683
7	0x3d14e2d7	0.036349144
8	0xbcedf119	-0.029045628
9	0xbb514bb6	-0.0031935996
10	0xbd3399f9	-0.04384801
11	0x3dad8fd5	0.084746994
12	0x3c20c6cc	0.009813022
13	0xbd02cf86	-0.03193619
14	0x3da1db1d	0.07903121
15	0xbd3c45fd	-0.045965184
16	0xbe1aaec5	-0.15105732
17	0xbdc292f3	-0.095006846
18	0xbcfdcb0e	-0.030980613
19	0x3d0888a2	0.03333343
20	0xbda8ccba	-0.082421735
21	0x3ce39cdf	0.027784763
22	0x3b8f0fd3	0.0043659
23	0xbb14dd96	-0.0022715083
24	0x3c53bd20	0.012923509
25	0xbdbd132c	-0.09232172
26	0x3d22f74c	0.039786622
27	0x3c1803a6	0.009278214
28	0xbd06e51a	-0.032933332
29	0xbd5c8934	-0.053841785
30	0x3db3ac45	0.08773092
31	0xbd36652a	-0.04453007
32	0x3cf07b10	0.029355556
33	0xbe0a83f8	-0.13526905
34	0xbc05807a	-0.008148307
35	0xbdc6caa5	-0.0970662
36	0xbaa5350a	-0.0012604308
37	0xbdc25f1f	-0.09490799
38	0xbd9471b3	-0.07248249
39	0x3c1f5248	0.009724207
40	0xbc9e21e8	-0.019303277
41	0x3d3a8f99	0.0455471
42	0xbd79a0ea	-0.060944475
43	0xbd7d0a2f	-0.06177729
44	0xbdf84751	-0.121229775
45	0xbde40985	-0.11134628
46	0x3db62a17	0.08894747
47	0x3da39c89	0.07988841
48	0x3d4b4d48	0.049634248
49	0xbc88a2c6	-0.016679179
50	0x3d45fa7c	0.048334584
51	0x3cdb048e	0.02673557
52	0x3d8614e0	0.0654695
53	0x3d7f5d68	0.06234494
54	0xbda4ba3a	-0.080433324
55	0xbb2080c1	-0.0024490806
56	0x3d763cc2	0.060116537
57	0xbc3f5e37	-0.011680177
58	0xbe01a3c8	-0.12660134
59	0x3db0321c	0.086033076
60	0x3e164c13	0.14677458
61	0xbc558c50	-0.013033941
62	0xbcdead81	-0.027182342
63	0x3de03c8f	0.10949051
64	0x3e4b20ae	0.19836685
65	0x3daa71c0	0.08322477
66	0xbdc19ab9	-0.09453339
67	0xbe13aea3	-0.14422087
68	0x3d4e83c7	0.05041864
69	0x3bc4a2bf	0.006000846
70	0xbde8d927	-0.113695435
71	0xbcb879e9	-0.022519069
72	0xbde9e384	-0.11420348
73	0xbc8c9416	-0.017160457
74	0xbcae4651	-0.021273764
75	0x3d622c4b	0.055218022
76	0x3cfabd6c	0.030607902
77	0xbd8a4481	-0.06751347
78	0x3d8e06c7	0.069348864
79	0x3df4dbf5	0.11956016
80	0x3dda6685	0.10664085
81	0xbe05d4ef	-0.13069509
82	0xbd17db14	-0.037074164
83	0x3d728ae0	0.059214473
84	0xbc1f4291	-0.0097204605
85	0xbca8d6e7	-0.020610286
86	0xbcdf32e2	-0.027245943
87	0xbdac4fb8	-0.08413643
88	0xbd59f037	-0.053207602
89	0xbe2428bb	-0.16031162
90	0x3cb9517c	0.022621863
91	0x3d109946	0.035302423
92	0x3ae50c06	0.0017474897
93	0xbd80e62c	-0.06293902
94	0xbdac33b0	-0.08408296
95	0x3d915539	0.07096333
96	0xbd65fedf	-0.056151267
97	0xbd21317b	-0.03935383
98	0xbd3b4938	-0.045724124
99	0xbcc94cc8	-0.024572745
100	0x3e2bd36c	0.1677987
101	0xbd977bd3	-0.073966645
102	0xbd6010ed	-0.05470364
103	0x3d30e37f	0.043185707
104	0x3db72c83	0.08944037
105	0xbda5d515	-0.08097283
106	0x3d80d183	0.06289961
107	0xbd3cb280	-0.04606867
108	0xbd925e5f	-0.07146906
109	0xbcb9c13e	-0.022675153
110	0xbda59664	-0.08085325
111	0xbc552fd6	-0.013011893
112	0xbd536572	-0.051610418
113	0x3b408dce	0.0029381397
114	0x3d2bb36e	0.041919164
115	0xbd4d7538	-0.050160617
116	0x3c4ec750	0.012620762
117	0xbc9bed90	-0.019034177
118	0xbd5c322a	-0.053758778
119	0xbdec5219	-0.115390964
120	0xbd07f8a0	-0.03319609
121	0x3c83cdec	0.016089402
122	0xbe177cc8	-0.14793694
123	0x3b889acb	0.0041688434
124	0x3cf734db	0.03017657
125	0xbd63b1fa	-0.055589654
126	0xbe19bb57	-0.1501287
127	0x3d8ac803	0.067764305
128	0x3da745e7	0.0816763
129	0x3d455176	0.04817339
130	0xbd3537d8	-0.04424271
131	0xbdf16a2f	-0.11787831
132	0xbddab080	-0.10678196
133	0xbdab654b	-0.083689295
134	0x3d3f6dad	0.046735454
135	0x3dfbf1e5	0.12301997
136	0x3ac9199b	0.0015342714
137	0xbc91b422	-0.01778609
138	0xbe079977	-0.13242136
139	0xbd8313d3	-0.064002655
140	0x3d806984	0.062701255
141	0xbd47a4b5	-0.04874106
142	0xbc121fa0	-0.008918673
143	0x3c3d1066	0.011539554
144	0xbc866883	-0.016407257
145	0xbdb810de	-0.08987592
146	0xbbe84463	-0.0070882305
147	0xbd18a5f7	-0.03726765
148	0xbd1e9181	-0.038712982
149	0x3c9a625c	0.01884573
150	0xbda8250a	-0.0821019
151	0x3d4409b5	0.04786082
152	0xbc0bafc1	-0.00852579
153	0xbdc45f2d	-0.09588466
154	0x3d86408d	0.06555281
155	0xbdc9f6cc	-0.09861526
156	0x3d40e371	0.047091905
157	0x3c7cf2c4	0.015438739
158	0xbd4b6db8	-0.049665183
159	0xbd141baa	-0.036159195
160	0x3de32cdb	0.1109254
161	0x3c0cbce6	0.008589959
162	0xbcafc36c	-0.02145549
163	0x3d9bbcee	0.07604395
164	0xbd67469f	-0.056463834
165	0x3d9c5116	0.076326534
166	0xbd823c37	-0.06359141
167	0x3d7d3cbf	0.06182551
168	0x3dbfe411	0.09369672
169	0xbdc059cf	-0.0939213
170	0x3d1ac019	0.037780855
171	0x3d0ed8ee	0.03487485
172	0x3d613669	0.05498353
173	0xbdd40d4a	-0.10354097
174	0xbd72b596	-0.059255205
175	0x3db53b09	0.08849151
176	0x3beaa83a	0.0071611675
177	0x3dc3adf7	0.095546655
178	0xbdeab3f5	-0.11460105
179	0xbd2cdff2	-0.04220576
180	0x3bf893f1	0.0075859954
181	0x3db24f87	0.08706575
182	0x3bd315c0	0.006441802
183	0x3da58508	0.08082014
184	0xbcd6cb18	-0.02621989
185	0x3e6ef73f	0.23336504
186	0x3d836a5e	0.06416772
187	0x3d857e24	0.065182
188	0xbd55c2da	-0.052187778
189	0x3ddf3d1a	0.10900326
190	0xbc765175	-0.015034069
191	0x3c049c23	0.0080938665
192	0x3d335a39	0.043787215
193	0xbdb1c713	-0.086805485
194	0xbdf53810	-0.11973584
195	0x3d6dc3e6	0.05804815
196	0x3da7d866	0.081955716
197	0xbd8dfa7c	-0.06932542
198	0xbe21c025	-0.15795954
199	0x3e2a610f	0.16638587
200	0x3c36eb5e	0.011164514
201	0xbe056321	-0.13026096
202	0xbd344cad	-0.044018436
203	0xbdc6666b	-0.096875034
204	0x3b0effbe	0.0021819915
205	0x3d96aa96	0.073567554
206	0xbe07f613	-0.13277464
207	0x3d04c463	0.03241385
208	0x3dafa04e	0.085754976
209	0xbe09490e	-0.13406774
210	0x3dd11f63	0.10211065
211	0xbdaee692	-0.085400715
212	0x3b70b886	0.0036731078
213	0xbde8be2e	-0.11364399
214	0xbc824264	-0.015900798
215	0x3c874734	0.016513444
216	0x3d833872	0.064072505
217	0x3d3321ee	0.04373353
218	0xbcad4a72	-0.021153662
219	0xbce139c8	-0.027493373
220	0xbd8a9798	-0.067671955
221	0x3dad2ae9	0.0845545
222	0xbd2b7b4e	-0.04186564
223	0xbd62e3ad	-0.05539291
224	0xbd699cd2	-0.05703432
225	0xbe1bde4f	-0.15221523
226	0x3dcd0e0d	0.100124456
227	0x3c01ab4e	0.007914377
228	0xbbe03d1d	-0.006843223
229	0xbe161d29	-0.14659561
230	0xbe027ff8	-0.12744129
231	0x3db465da	0.08808489
232	0x3dd96e9c	0.106168
233	0xbc015160	-0.0078929365
234	0xbe195a1e	-0.14975783
235	0x3e200960	0.15628576
236	0xbdc59069	-0.09646685
237	0x3b6a32ae	0.0035735774
238	0x3cc7ccfe	0.02438974
239	0xbcc15d57	-0.023604078
240	0x3dbed9ce	0.09318887
241	0x3dc09646	0.094036624
242	0xbd3e7c23	-0.046505105
243	0x3d93711c	0.07199308
244	0xbc12fb5e	-0.008971063
245	0xbd4f7bf8	-0.050655335
246	0x3d2f44a2	0.042790063
247	0x3cdeeb86	0.027211916
248	0x3ddb2775	0.10700885
249	0xbd8810ed	-0.06643853
250	0xbc97e0ee	-0.018539872
251	0x3d84f226	0.06491499
252	0xbc1de240	-0.009636462
253	0xbc7dbe76	-0.015487304
254	0x3dd1a1fb	0.102359734
255	0xbda9b295	-0.08286015

network_body._body_endoder.seq_layers.0.bias f4 [256]
0	0xbb870d40	-0.0041214526
1	0xbc1883cb	-0.009308766
2	0xbb877a57	-0.004134457
3	0x3d7df2f5	0.06199928
4	0x3cecc736	0.028903585
5	0xbc3e9020	-0.011631042
6	0x3ccd87c0	0.025089145
7	0x3c08b535	0.008343984
8	0xbbb5f34b	-0.0055526844
9	0x3b8fb19e	0.0043851873
10	0xbd5705e3	-0.05249585
11	0xbce5726a	-0.028008658
12	0xbca166e3	-0.01970238
13	0x3a1a8410	0.00058943126
14	0x3bce520a	0.006296401
15	0xbd24af3a	-0.04020617
16	0xbca95740	-0.020671487
17	0xbd0d71da	-0.034532405
18	0xbc8c2af2	-0.017110322
19	0xbd332b62	-0.043742545
20	0xbc25ee5a	-0.010127628
21	0x39ca0f3d	0.00038539796
22	0xb913ae62	-0.00014083975
23	0x3c8e2b24	0.017354555
24	0xbcb6afa6	-0.022300553
25	0xbc840a2a	-0.016118128
26	0xbc1c41af	-0.009537145
27	0x3b620e37	0.0034493336
28	0xbb92cebf	-0.0044802125
29	0x3bcceb19	0.0062536118
30	0xbc2cb3af	-0.010540887
31	0x3c8282b1	0.01593146
32	0xbd572be8	-0.052532107
33	0xbcd7cae8	-0.02634187
34	0xbcda9f76	-0.026687365
35	0xbcaaf70d	-0.020869756
36	0xbca08747	-0.019595755
37	0x3ca3c9dd	0.019993717
38	0xba760697	-0.0009385137
39	0xbc8f2989	-0.01747586
40	0xbc83633b	-0.016038528
41	0xbcc8e716	-0.024524253
42	0xbc885c83	-0.016645676
43	0xbd304cb4	-0.0430419
44	0x3c392aca	0.011301706
45	0xbcd08951	-0.025456103
46	0xbc8fde76	-0.017562132
47	0xbd9c914b	-0.076449
48	0xbcbb33dd	-0.022851879
49	0x3c2d3a60	0.010573
50	0xbc5fc1e0	-0.013657063
51	0xbd16ce1d	-0.03681766
52	0xbd10dc77	-0.0353665
53	0x3ab931e0	0.0014129244
54	0x3cb0d9da	0.021588255
55	0x3b3a3bc3	0.0028416968
56	0xbceebed8	-0.029143736
57	0xba13a0fa	-0.00056315924
58	0x3c8b9e2c	0.017043196
59	0xb9957731	-0.000285083
60	0xbc1dc0a7	-0.009628451
61	0xbd81b595	-0.06333462
62	0x3c56ff60	0.01312241
63	0x3c5e0268	0.013550378
64	0x3ba1c572	0.0049368674
65	0xbc1ed1a1	-0.009693534
66	0xba11a08b	-0.0005555234
67	0x3cee1f61	0.029067697
68	0xbd0cc0d8	-0.034363598
69	0xbcbd79af	-0.023129312
70	0xbd005ad8	-0.031336635
71	0xbd2280b2	-0.039673515
72	0xbd1d8894	-0.03846033
73	0xbd1fcd78	-0.03901431
74	0x3ceb5737	0.02872811
75	0x3ca5f00c	0.020256065
76	0xbd457ee8	-0.04821673
77	0x3afa1772	0.0019080474
78	0x3ccdbbb7	0.025113923
79	0xbcea49dc	-0.028599672
80	0xbd429663	-0.0475067
81	0xbc1cc7d1	-0.009569124
82	0xbd049d49	-0.03237656
83	0x3bb7769d	0.0055988566
84	0x3d08b19b	0.033372503
85	0xbd4c3d5a	-0.049863197
86	0x3bf264a9	0.0073972535
87	0xbd2abbfe	-0.04168319
88	0xbbde63ec	-0.006786814
89	0x3c731381	0.014836193
90	0xbc9c0770	-0.019046515
91	0x3c95c130	0.018280596
92	0x3d0fc174	0.0350966
93	0x3d01219e	0.0315262
94	0xbd104f1e	-0.035231702
95	0xbd8465bf	-0.06464719
96	0xbd9afa31	-0.075672515
97	0xbc32749f	-0.010892062
98	0x3c16499b	0.009172822
99	0xbd23d006	-0.03999331
100	0xbd323116	-0.043503843
101	0x3c116a3b	0.008875425
102	0xbcc94ed2	-0.024573717
103	0xbd8049ad	-0.062640525
104	0xbc93bece	-0.018035319
105	0x3bd68571	0.006546669
106	0x3b7b0359	0.0038301556
107	0x3dbc2ccf	0.09188234
108	0x3b24ea80	0.0025164187
109	0xbbd961a6	-0.006633955
110	0x3c22b127	0.009929932
111	0xbc66a1d3	-0.014076668
112	0xba7f8031	-0.000974658
113	0x3c779bb8	0.01511281
114	0x3c15756e	0.009122236
115	0xbc4a2e88	-0.0123401955
116	0xbcff1fca	-0.031143088
117	0x3b6d74c6	0.0036232932
118	0x3cd7867f	0.02630925
119	0xbd1cc1fe	-0.038270943
120	0xbd350398	-0.04419288
121	0xbd508fca	-0.050918378
122	0xbd1c8eba	-0.038222052
123	0xbd401b39	-0.04690096
124	0xbbc6ab54	-0.0060629044
125	0x3be2352a	0.0069033103
126	0xbcc3f19f	-0.023918925
127	0x3aaad4fa	0.0013033443
128	0xbd745d8c	-0.059659526
129	0x38e23613	0.00010786592
130	0xbca24cbf	-0.019811986
131	0x3bd74692	0.006569692
132	0x3c7510ff	0.0149576655
133	0xbc8fb387	-0.01754166
134	0x39e51003	0.00043690213
135	0xbc123525	-0.008923803
136	0x3d149754	0.03627713
137	0x3c8429a2	0.016133133
138	0xbcd44a08	-0.025914207
139	0x3ad330d4	0.0016112574
140	0xbd415d4c	-0.047208115
141	0xbcdf8c67	-0.027288629
142	0xbc405237	-0.011738352
143	0xbccdb193	-0.025109088
144	0xbcb7ce8d	-0.022437358
145	0x3b4066fe	0.0029358263
146	0xbcdf5f02	-0.027266983
147	0xbce8f916	-0.028439086
148	0x3d9dd75b	0.077070914
149	0xbd17245c	-0.03689991
150	0xbd63b12a	-0.05558888
151	0x3c82b356	0.015954655
152	0x3c3d20e0	0.011543483
153	0x3c205e3d	0.009788093
154	0x3bc27d25	0.0059353285
155	0xbcd67c8a	-0.026182432
156	0xbd7fedf7	-0.0624828
157	0xbcbcae6b	-0.023032388
158	0x3c8bba03	0.01705647
159	0xbca98142	-0.020691518
160	0xbc1caf0f	-0.009563222
161	0xbd17e663	-0.03708495
162	0x3bb2465c	0.0054405164
163	0x3d191138	0.037369937
164	0x3c44ff16	0.012023708
165	0xbd365c27	-0.044521477
166	0x3ca60ffd	0.020271296
167	0xbd6f4ac8	-0.058420926
168	0xbc9fb236	-0.019494157
169	0xbd638f7e	-0.055556767
170	0xbd4cbe16	-0.049985968
171	0xbd50bff0	-0.050964296
172	0xbcc4bd39	-0.02401601
173	0xbcad27f1	-0.02113721
174	0xbc1e5636	-0.009664109
175	0x3cff8df4	0.031195618
176	0xbd0ac404	-0.03387834
177	0x3853c95e	5.0493858e-05
178	0x3bbf8b51	0.005845465
179	0x3bac53ce	0.0052590137
180	0x3c8f3cb0	0.017484993
181	0xbcfd1c25	-0.03089721
182	0xbd1adef4	-0.03781028
183	0xbcbe3a24	-0.023221083
184	0x3cd41d70	0.025892943
185	0xbd012a56	-0.031534515
186	0xbbf562e6	-0.0074885963
187	0xbc9b802c	-0.018982016
188	0xbd0d429b	-0.034487348
189	0xbd9b79db	-0.075916015
190	0xbc61260d	-0.013741982
191	0xb9843b41	-0.0002522115
192	0x3ca6dfc8	0.02037038
193	0xbd23cfd2	-0.039993115
194	0xbd37d1e1	-0.04487789
195	0xbbd284ae	-0.006424508
196	0x3ce35b4c	0.027753495
197	0xbca527a0	-0.020160496
198	0x3b631e37	0.003465546
199	0x3bb3f552	0.005491891
200	0x3b99881e	0.004685416
201	0xbc3bed9b	-0.011470224
202	0xbd7de4c8	-0.06198576
203	0xbc962a87	-0.018330825
204	0xbd0b6ddd	-0.03404032
205	0xbbd9caf1	-0.006646507
206	0x3b7217e2	0.0036940505
207	0xbd445d5e	-0.047940604
208	0x3c28e6f8	0.0103089735
209	0xbd6b96f6	-0.057517014
210	0xbce4c796	-0.027927201
211	0x3c24d7b4	0.010061193
212	0x3c10db65	0.00884137
213	0xbcb0091e	-0.021488722
214	0x3d6bd7f7	0.057579007
215	0xbd37d559	-0.0448812
216	0xbcec40bc	-0.028839462
217	0x3c8f336d	0.017480576
218	0xbc9647bb	-0.01834475
219	0xbd20300b	-0.039108317
220	0xbc77d7fb	-0.015127177
221	0xbc09087d	-0.00836384
222	0xbd458602	-0.048223503
223	0xbd93b7d5	-0.072127976
224	0xbd502b52	-0.050822563
225	0xbd354cbc	-0.044262633
226	0xbbad109b	-0.0052815205
227	0xbbfbd6b0	-0.007685505
228	0xbca4e084	-0.020126589
229	0xbc9fbeff	-0.019500254
230	0xbd1c21da	-0.03811822
231	0x3b9b79b0	0.004744731
232	0x3b88ac5d	0.004170938
233	0x3cadb98e	0.021206643
234	0x3c7f44d1	0.015580372
235	0xbcfbe030	-0.03074655
236	0xbcbff3ac	-0.023431621
237	0xbcd93bc7	-0.026517762
238	0x3c0b5cb0	0.008505985
239	0xbd4a99a3	-0.049462926
240	0x3b417f7c	0.002952545
241	0x3c049707	0.008092648
242	0xbd3e426e	-0.04645007
243	0xbd207aa3	-0.039179455
244	0xbca0fc1b	-0.019651463
245	0xbd19a971	-0.037515108
246	0xbb8a8302	-0.004227043
247	0xbd19fca8	-0.037594467
248	0x3c06ef8f	0.008235826
249	0xbb62dc09	-0.0034616014
250	0xbd810d07	-0.06301313
251	0xbd20beab	-0.039244335
252	0x3aa165d3	0.0012313671
253	0x3c37a622	0.011209043
254	0xbc7006b4	-0.014650036
255	0x39912aef	0.00027688543

network_body._body_endoder.seq_layers.2.weight f4 [256, 256]
0	0xbd8d5aa6	-0.069020554
1	0xbd80220f	-0.06256496
2	0xbcc88a17	-0.024479909
3	0xbc877e14	-0.01653961
4	0xbe272238	-0.16321647
5	0x3e0d06bc	0.137721
6	0xbd85e926	-0.0653861
7	0x3c55dc9e	0.0130530875
8	0x3d87d464	0.06632307
9	0x3ddce3c2	0.10785629
10	0x3d76da50	0.060266793
11	0x3d6d7c36	0.057979785
12	0xbd07145a	-0.032978393
13	0x3bf449d0	0.007455088
14	0xbd901b91	-0.07036508
15	0x3a99a9c3	0.0011723567
16	0x3cfe8cfc	0.031073086
17	0xbda967d7	-0.08271759
18	0x3dada614	0.084789425
19	0x3e2fe017	0.17175327
20	0xbd4cd241	-0.0500052
21	0xbd0777cb	-0.033073228
22	0xbcd09fe5	-0.025466869
23	0xbd12a094	-0.03579767
24	0xbd86cd6a	-0.065821484
25	0x3d0ebb5c	0.03484665
26	0x3c8d1536	0.017222028
27	0xbd95c7da	-0.07313509
28	0xbd5c4de1	-0.05378521
29	0x3d6224da	0.055210926
30	0x3e2bb600	0.16768646
31	0xbd54379b	-0.051810842
32	0xbda29ca9	-0.07940037
33	0xbd535a71	-0.051599924
34	0x3d33c23b	0.043886404
35	0x3d5018fe	0.050805084
36	0x3c83db1e	0.016095694
37	0xbd0b47dd	-0.03400408
38	0x3dc723a5	0.097235955
39	0xbca1e453	-0.019762194
40	0x3d552636	0.052038394
41	0xbd9d9b43	-0.076956294
42	0x3c3b13ab	0.011418263
43	0xbd8fd98f	-0.07023918
44	0xbe150759	-0.14553584
45	0xbd30e47a	-0.043186642
46	0x3c36237d	0.0111168595
47	0xbc977736	-0.018489461
48	0xbd6c6b71	-0.05771965
49	0xbbb40e02	-0.005494834
50	0x3c9ffcd4	0.019529738
51	0xbdd2863c	-0.102795094
52	0x3ca3eb93	0.020009791
53	0x3cfa6e5c	0.030570202
54	0xbd22f717	-0.039786424
55	0xbd54fbd4	-0.051997975
56	0x3d82c6c4	0.06385568
57	0x3ddeed29	0.108850785
58	0x3db2186d	0.08696065
59	0x3c873eae	0.01650938
60	0xbdef9289	-0.11697871
61	0x3d4d2d52	0.05009205
62	0x3d86aa3f	0.065754406
63	0x3ce68763	0.02814073
64	0xbd015923	-0.031579148
65	0x3d26c466	0.040714644
66	0xbd7200e1	-0.05908287
67	0xbde2feb2	-0.110837355
68	0xbd24efa8	-0.040267617
69	0x3da512ee	0.08060251
70	0x3db18dd2	0.08669628
71	0x3be6e28d	0.00704605
72	0xbd135fd7	-0.035980072
73	0xbdf19b91	-0.1179725
74	0x3c89874d	0.01678815
75	0xbe2d9298	-0.16950452
76	0x3c9f05d2	0.019411955
77	0x3c880222	0.01660258
78	0x3c148dbe	0.009066997
79	0xbc3aec36	-0.011408856
80	0x3cab8745	0.020938525
81	0xbd051a92	-0.032496043
82	0x3d1d736d	0.038440157
83	0xbe085ad5	-0.133159
84	0xbd12f034	-0.035873607
85	0x3c439e6e	0.011939628
86	0xbe01ec0d	-0.12687702
87	0x3ddd72c7	0.10812908
88	0x3cdaa943	0.026692038
89	0x3cc48af7	0.023992045
90	0xbdb96a5a	-0.09053488
91	0x3c1760ae	0.009239359
92	0x3b206c53	0.0024478629
93	0xbe2a036e	-0.16602871
94	0x3ddce9cc	0.10786781
95	0xbd600caf	-0.054699596
96	0xbd235249	-0.039873395
97	0x3ce639f9	0.028103815
98	0xbddf6303	-0.10907557
99	0xbd8990c2	-0.067170635
100	0x3d393f93	0.045226645
101	0x3dd6e53a	0.1049294
102	0xbd861922	-0.065477625
103	0xbde270ee	-0.11056696
104	0x3d0cd5ee	0.034383707
105	0xbd2ba47a	-0.041904904
106	0xbccc136a	-0.024911601
107	0xbda17d5c	-0.078852385
108	0xbc2e39b3	-0.010633874
109	0xbe246787	-0.16055118
110	0xbd7443f5	-0.05963512
111	0x3ce7c73f	0.02829325
112	0xbcae5697	-0.021281524
113	0x3d9d4edf	0.07681059
114	0xbdb9bb1a	-0.0906889
115	0xbc66aa02	-0.014078619
116	0xbcbcdc15	-0.023054162
117	0x3c866c2f	0.016409008
118	0xbbeccdc8	-0.0072266795
119	0xbcd8975d	-0.026439363
120	0x3bf69205	0.007524731
121	0x3cde8ed0	0.027167708
122	0x3d980398	0.074225605
123	0xbd27274e	-0.04080897
124	0x3d462573	0.048375558
125	0xbe2a5f4d	-0.16637917
126	0xbca4cb66	-0.02011652
127	0x3cd7eed9	0.026359009
128	0x3d96531a	0.07340069
129	0xbdc01a5e	-0.09380029
130	0x3b19ef50	0.0023488589
131	0xbe22a21e	-0.15882155
132	0xbca0254c	-0.019549035
133	0xbcf0747a	-0.029352415
134	0x3c7a253e	0.015267668
135	0xbd8bcdda	-0.068263724
136	0xbdc796bc	-0.09745547
137	0xbd527baa	-0.051387466
138	0xbaf007dc	-0.0018312889
139	0xbd6e6e86	-0.058210872
140	0x3bf152ca	0.0073646056
141	0x3d17375d	0.036918033
142	0x3dc7e389	0.09760196
143	0x3c98f49f	0.018671332
144	0xbcfe627e	-0.031052824
145	0xbd805a47	-0.06267219
146	0x3a32425c	0.00068000495
147	0x3c1dc2b0	0.009628937
148	0x3c04c73f	0.008104145
149	0xbcb03066	-0.021507453
150	0x3e0f0dfb	0.13970177
151	0xbe068db1	-0.13139988
152	0xbd8f18ad	-0.069871284
153	0xbc8c7134	-0.017143823
154	0xbe0d35cb	-0.13790052
155	0xbe1f73c5	-0.15571506
156	0xbd935cd8	-0.07195443
157	0xbda14587	-0.078745894
158	0xbcc5ecff	-0.02416086
159	0xbd397c8a	-0.045284785
160	0x3c596b05	0.013270144
161	0x3cddb357	0.027063055
162	0x39fe4649	0.00048499022
163	0xbd2b99ea	-0.04189483
164	0xbd960a5d	-0.073261954
165	0x3d86fee0	0.06591582
166	0xbc2f7641	-0.010709346
167	0x3c3d7c23	0.011565241
168	0x3cc5bc1c	0.02413755
169	0xbd3ba790	-0.045814097
170	0x3d0196b0	0.031637847
171	0xbcaebb6b	-0.021329602
172	0x3ce161ff	0.027512548
173	0xbdf38ce0	-0.11892104
174	0xbcdd3379	-0.027002083
175	0xbe0bba69	-0.13645329
176	0xbdb54ec1	-0.08852912
177	0xbcc81bcb	-0.024427315
178	0x3bc71e05	0.0060765767
179	0xbd84e3ec	-0.06488785
180	0x3cb5b35b	0.02218025
181	0x3db907f9	0.09034724
182	0x3d256bc2	0.04038597
183	0x3bf42d73	0.007451707
184	0x3cc6b7fa	0.024257649
185	0x3d8a5238	0.06753963
186	0x3c86e84b	0.016468188
187	0xbd953efe	-0.072874054
188	0x3b511311	0.0031902234
189	0xbcc8ddb2	-0.024519775
190	0xbcc1231d	-0.023576314
191	0x3d01dbc8	0.03170374
192	0xbd211ed6	-0.039336048
193	0x3da7c9af	0.08192765
194	0x3d407de4	0.04699506
195	0x3d5dfd27	0.054196503
196	0xbe0b32be	-0.13593575
197	0x3c8c2b7e	0.017110582
198	0x3e0292d2	0.1275132
199	0x3d96b858	0.073593795
200	0x3d5b77a4	0.053580895
201	0xbe1201d0	-0.14258504
202	0x3c756447	0.014977521
203	0xbe039919	-0.12851371
204	0x3d116863	0.03549994
205	0xbd9b29c0	-0.075763226
206	0xbc9260ce	-0.017868426
207	0x3c37aa7b	0.011210079
208	0xbd081895	-0.03322657
209	0xbb9fdf80	-0.004878938
210	0x3c8dd732	0.017314527
211	0xbcb07405	-0.021539697
212	0xbc0496ae	-0.008092565
213	0xbd9691b7	-0.07352012
214	0xbe144b83	-0.1448193
215	0x3d7b56e4	0.061362162
216	0x3cd66c98	0.026174828
217	0xbce27ae8	-0.027646497
218	0x3d6a8a86	0.057261012
219	0x3cd6437a	0.026155222
220	0x3db1ffdf	0.08691382
221	0xbd3c1514	-0.04591854
222	0x3cbb9d43	0.022902137
223	0xbc316404	-0.010827068
224	0x3d8ee9d0	0.0697819
225	0xbddf3de1	-0.10900474
226	0x3cf101fc	0.029419892
227	0x3bf910af	0.007600866
228	0x3da47779	0.080306
229	0xbcb195e3	-0.021677917
230	0xbd7522a6	-0.059847496
231	0xbd4b438a	-0.049624957
232	0xbdd09ea5	-0.10186509
233	0xbd886ff7	-0.066619806
234	0xbd7e4766	-0.06207981
235	0xbd55718b	-0.052110236
236	0x3cf96b6d	0.030446732
237	0x3dbff315	0.09372536
238	0xbc90de58	-0.017684147
239	0xbd38add8	-0.045087665
240	0x3d9a608e	0.075379476
241	0x3d01f32f	0.03172606
242	0x3b718a52	0.0036856127
243	0x3df56e6d	0.11983953
244	0x3dd287ac	0.102797836
245	0x3c95ab78	0.01827024
246	0xbdf95f2e	-0.12176357
247	0xbccce36b	-0.025010785
248	0xbd1b3c58	-0.037899345
249	0x3dfc49ed	0.12318788
250	0x3db1fdb8	0.08690971
251	0xbc192d4f	-0.009349181
252	0x3ce63780	0.028102636
253	0xbd03fc77	-0.03222319
254	0xbdc5d4dc	-0.0965974
255	0x3c5e9497	0.013585231

network_body._body_endoder.seq_layers.2.bias f4 [256]
0	0xbd853326	-0.065038964
1	0xbc559c73	-0.013037789
2	0xbd041876	-0.03224989
3	0xbcfe23a3	-0.031022852
4	0xbd771021	-0.060318116
5	0xbcd4bca2	-0.025968853
6	0xbcb1ab2f	-0.021688072
7	0xbc9aca0d	-0.018895173
8	0xbd946b77	-0.0724706
9	0x3ae35194	0.0017343038
10	0xbd4229a2	-0.047402985
11	0xbd0cad2a	-0.03434483
12	0xbcdcebdf	-0.02696794
13	0xbcddb049	-0.027061598
14	0xbcd9a686	-0.026568662
15	0xbc964710	-0.018344432
16	0xbd95a251	-0.0730635
17	0xbcd5e052	-0.02610794
18	0xbd2030c1	-0.039108995
19	0xbc5787ab	-0.013154904
20	0xbc9bc03a	-0.01901256
21	0xbcca4355	-0.02469031
22	0x3bd1eaab	0.0064061484
23	0xbc1bd846	-0.009512013
24	0x3c28aaca	0.010294626
25	0xbd04cd3c	-0.03242229
26	0xbd7303cc	-0.059329793
27	0xbd2fe9f5	-0.04294773
28	0xbd70d0f9	-0.05879304
29	0xbcbf73e7	-0.023370696
30	0xbd329a60	-0.043604255
31	0x3cb27ead	0.02178892
32	0xbd465388	-0.048419505
33	0xbd12b6e2	-0.035818942
34	0xbd5be47a	-0.05368469
35	0x3c10e1ff	0.008842944
36	0xbc188076	-0.009307971
37	0xbc93049c	-0.017946534
38	0xbcb88337	-0.022523506
39	0xbcc25315	-0.023721257
40	0x3c2aec2e	0.010432286
41	0xbb6a7d65	-0.0035780307
42	0xbd11985c	-0.03554569
43	0xbcc07c12	-0.023496661
44	0x3c13e8c3	0.009027663
45	0xbd2bd0d2	-0.041947193
46	0xbcdd5302	-0.02701712
47	0xbbb945b2	-0.0056540603
48	0xbd23d675	-0.039999444
49	0xbd0e9615	-0.034811098
50	0xbd6fc0b5	-0.05853339
51	0xbd30353e	-0.043019526
52	0xbc9b4dbd	-0.018957967
53	0x3b401c0f	0.00293136
54	0xbce9e68c	-0.028552316
55	0xbd2f9c41	-0.042873625
56	0xbc3f2f10	-0.011668935
57	0xbd2aa243	-0.04165865
58	0xbcf49d9f	-0.029860316
59	0xbc9280f9	-0.017883765
60	0xbc430859	-0.011903846
61	0xbd08a33d	-0.0333588
62	0xbceda73f	-0.029010413
63	0xbc46ac04	-0.012125973
64	0xbd87e815	-0.06636063
65	0xbd1e0828	-0.038581997
66	0xbce2eac0	-0.027699828
67	0xbcd56ec6	-0.026053797
68	0xbc83721f	-0.016045628
69	0xbac02204	-0.0014658575
70	0xbcff1cc0	-0.031141639
71	0xbcf0e231	-0.029404731
72	0xbca11ddb	-0.019667557
73	0xbb9c15d2	-0.0047633434
74	0xbcbd3949	-0.023098605
75	0xbc9a516f	-0.018837659
76	0xbd1747f2	-0.036933847
77	0xbcf4aeeb	-0.029868564
78	0xbc12d5ce	-0.008962108
79	0xbd883881	-0.06651402
80	0xbc9d5fc5	-0.019210706
81	0xbd7131fa	-0.058885552
82	0xbd485093	-0.048904967
83	0xbcecc964	-0.028904624
84	0x3bb5e74b	0.005551254
85	0xbd390642	-0.045171984
86	0xbbb4ac25	-0.0055136853
87	0xbc6e1370	-0.014531001
88	0xbbdf7149	-0.0068189246
89	0xbd0b817a	-0.034059025
90	0xbd99a755	-0.07502619
91	0xbcebe1f7	-0.028794272
92	0xbcaf3dce	-0.021391775
93	0x3c06f619	0.008237385
94	0xbd22fc93	-0.039791655
95	0xbb5b4e57	-0.0033463442
96	0x3bb541e6	0.0055315373
97	0xbd8a88a5	-0.06764344
98	0x3c7a6845	0.015283649
99	0x3cd2e7e0	0.025745332
100	0xbc9003e1	-0.017579975
101	0xbc3c67c5	-0.01149935
102	0xbc355460	-0.01106748
103	0xbd0ea896	-0.034828745
104	0xbd49618c	-0.049165294
105	0x3b7d20a2	0.0038624187
106	0xbcf5b247	-0.029992236
107	0xbd338830	-0.04383105
108	0xbb3bd933	-0.0028663396
109	0xbd8c847c	-0.06861207
110	0xbd3e5860	-0.046471
111	0xbcdcc46f	-0.026949136
112	0xbd10f474	-0.03538938
113	0xbd2c897b	-0.0421233
114	0x3c188650	0.009309366
115	0xbb535a91	-0.0032250027
116	0xbcea58d5	-0.028606812
117	0xbd0a89b8	-0.033822745
118	0xbd70bfcd	-0.058776665
119	0xbbb95bdd	-0.005656703
120	0xbd20a6ef	-0.0392217
121	0xbccebf53	-0.025237715
122	0xbbd85d9a	-0.006602955
123	0xbd7a384e	-0.061088853
124	0xbc765ff5	-0.015037526
125	0xbcccaccc	-0.02498474
126	0xbcf7cb96	-0.030248445
127	0xbcad16ff	-0.02112913
128	0xbce1b800	-0.027553558
129	0xbb97cde9	-0.0046327007
130	0xbcabb747	-0.020961417
131	0xbc96f61a	-0.018427897
132	0xbcad03d1	-0.021119984
133	0xbbb68c8b	-0.0055709532
134	0x3c05b218	0.008160137
135	0xbd0cc6ae	-0.034369163
136	0xbd43dfc6	-0.04782083
137	0xbcfb8415	-0.03070263
138	0xbbb87d83	-0.0056301965
139	0xbc86dfeb	-0.016464194
140	0xbc802a47	-0.01564516
141	0xbd2d29dd	-0.042276252
142	0xbb4f5e32	-0.0031641838
143	0xbd507d92	-0.050901003
144	0x3c8527ef	0.016254393
145	0xbc9a00fa	-0.018799294
146	0xbbf80ad6	-0.007569651
147	0xbd8376ec	-0.06419167
148	0xbc5b706c	-0.013393503
149	0xbd78c4e4	-0.060734645
150	0x3cff55cd	0.031168843
151	0x3c1f774f	0.009733035
152	0xbd16f424	-0.036853924
153	0x3ac54680	0.0015050918
154	0xbd45f74a	-0.048331536
155	0xbd6db130	-0.058030307
156	0xbc816d32	-0.015799139
157	0xbc75e1ee	-0.015007479
158	0xbd3213da	-0.043475963
159	0x3c4dacc8	0.012553401
160	0xbcc74164	-0.024323173
161	0xbc93da22	-0.01804835
162	0xbd838d2d	-0.064234115
163	0xbccc604b	-0.02494826
164	0x3cc56a4c	0.024098538
165	0xbc7e532a	-0.015522758
166	0x3b8a23ec	0.004215708
167	0xbce2d79a	-0.027690697
168	0xbcf30197	-0.029663844
169	0xbd5dca66	-0.0541481
170	0x3c21d5d0	0.009877637
171	0xbd2105de	-0.039312236
172	0xbc8e429f	-0.017365752
173	0xbc31f186	-0.010860806
174	0xbc5717d2	-0.013128238
175	0xbb68b045	-0.0035505455
176	0xbcfbb0c6	-0.03072394
177	0xbd245548	-0.040120393
178	0xbc9bad16	-0.019003432
179	0xbb5bbc03	-0.0033528812
180	0xbd145424	-0.036213055
181	0xbd8dc126	-0.06921606
182	0xbd6da626	-0.05801978
183	0xbd39ad05	-0.04533102
184	0xbcce6d8b	-0.025198719
185	0xbd150e49	-0.036390577
186	0x3a1afd11	0.00059123436
187	0xbca93c5d	-0.020658666
188	0xba3a459d	-0.000710571
189	0xbce6d1bc	-0.028176181
190	0xbd98814f	-0.07446539
191	0xbb0a2cd0	-0.002108384
192	0xbcf74378	-0.030183539
193	0xbcd0c3e8	-0.02548404
194	0xbd243c1a	-0.04009638
195	0xbd2ae9c6	-0.04172685
196	0xbd7dc605	-0.061956424
197	0xbd15af8b	-0.036544364
198	0xbb94a612	-0.0045363987
199	0x3bfd2a37	0.0077259797
200	0xbca66f12	-0.020316634
201	0xbc97e797	-0.018543048
202	0xbd26f15c	-0.040757522
203	0xbc88f48c	-0.016718172
204	0xbd3baf10	-0.04582125
205	0xbb9af87d	-0.004729329
206	0xbd2a780b	-0.04161839
207	0xbc24d657	-0.010060868
208	0xbd45289c	-0.04813443
209	0x3b498171	0.003074732
210	0xbd4d9cd7	-0.050198402
211	0x3c43b04f	0.011943891
212	0xbd31ade1	-0.043378714
213	0xbd14af8c	-0.036300227
214	0x3cbffc07	0.023435606
215	0x3cfc481e	0.030796107
216	0xbd34031a	-0.04394827
217	0xbce380eb	-0.027771434
218	0x3a678805	0.0008832219
219	0xbd11cbf3	-0.03559489
220	0xbd7e8c27	-0.06214538
221	0x3c4f86a6	0.01266638
222	0xbd2e4a29	-0.042551193
223	0xbc8668ba	-0.01640736
224	0xbcb699ad	-0.022290075
225	0xbb4dd824	-0.0031409347
226	0xbd484546	-0.04889419
227	0xbd55e732	-0.05222244
228	0xbd1e662a	-0.03867165
229	0xbcd06756	-0.0254399
230	0x3b8360c8	0.00400934
231	0xbc8ff76f	-0.01757404
232	0xbcb10ff4	-0.021614052
233	0xbcc9bd3c	-0.024626367
234	0xbc1667f2	-0.009180056
235	0xbd808a97	-0.06276434
236	0xbbcec45a	-0.006310028
237	0xbcd9aba1	-0.026571097
238	0xbc40e904	-0.011774305
239	0xbd7a178f	-0.061057623
240	0xbb276c4a	-0.0025546723
241	0xbd6e1726	-0.058127545
242	0xbd411c36	-0.047146045
243	0xbc07832c	-0.00827102
244	0xbcb423fd	-0.021989817
245	0x3b2cc348	0.0026361514
246	0xbc82b2d1	-0.015954407
247	0xbca3b873	-0.019985413
248	0xbc383c20	-0.011244804
249	0xbd696058	-0.056976646
250	0xbc6c29cf	-0.014414265
251	0xbd05e5c0	-0.03268981
252	0xbd0aeab9	-0.033915255
253	0x3af404b2	0.0018617122
254	0xbcbd97c3	-0.023143655
255	0xbc9ef089	-0.019401805

action_model._discrete_distribution.branches.0.weight f4 [4, 256]
0	0xbc51ce4c	-0.012805533
1	0x3cc5c09b	0.024139693
2	0x3c0bc7a4	0.008531485
3	0xbb8a8b3d	-0.0042280243
4	0xbbefa29f	-0.007313087
5	0xbb4afd26	-0.0030973642
6	0xbcb4ecc1	-0.02208555
7	0xbb3956f8	-0.0028280597
8	0xbc882aaf	-0.016621916
9	0xbbca04c5	-0.0061651194
10	0xbc52f0fd	-0.012874839
11	0xbb103c07	-0.0022008435
12	0xbc22a9ee	-0.00992821
13	0x3b016d82	0.001974911
14	0xbc5bb3ec	-0.013409596
15	0x3abf982f	0.0014617498
16	0xbcffe2e9	-0.031236129
17	0xbc96ce99	-0.01840906
18	0xbc37cdcf	-0.011218502
19	0xbd185d63	-0.037198436
20	0xbcbd4cdd	-0.02310794
21	0xbd2921fc	-0.041292176
22	0xbc7507e1	-0.014955492
23	0xbbcb612f	-0.0062066535
24	0xbc56bf4f	-0.013107135
25	0xbc545164	-0.012958858
26	0x3cc04aa4	0.023473091
27	0xbce7f4f3	-0.028315043
28	0x3b008eab	0.0019616287
29	0x3ccd1dd7	0.025038643
30	0xb99dede9	-0.0003012263
31	0xb9b7ca0d	-0.0003505502
32	0xbbd5551f	-0.0065103914
33	0xb985027e	-0.00025369594
34	0x3c9ecc99	0.01938467
35	0x3c90d240	0.01767838
36	0xbc2b2dad	-0.010447902
37	0x3b8614ad	0.00409182
38	0xbb82e9a0	-0.0039951354
39	0xbc3dbac5	-0.011580174
40	0xbcf1c2a4	-0.029511757
41	0xbd15b13a	-0.03654597
42	0x3c88dad1	0.016705902
43	0xbc93caff	-0.018041132
44	0x3d8c57c8	0.068526804
45	0x3c413913	0.011793393
46	0xbcf0c5af	-0.029391138
47	0x3b507396	0.0031807176
48	0xbcaef2b4	-0.021355964
49	0x3bb60fc4	0.0055560786
50	0xbc877cc0	-0.016538978
51	0x3bd2eef5	0.0064371773
52	0x3d7219d6	0.05910667
53	0xbd0981ce	-0.033571057
54	0xbc174a24	-0.009233985
55	0xbc779396	-0.015110871
56	0x3bea50d1	0.0071507473
57	0x3c16c342	0.0092018265
58	0xbb0ee796	-0.0021805516
59	0x3bc5c6ec	0.006035676
60	0x3cd704f7	0.026247485
61	0x3c9e4521	0.019320073
62	0xbba78297	-0.005112003
63	0xbcd9711b	-0.02654319
64	0xbcfcecdd	-0.030874664
65	0xbc067cd0	-0.008208469
66	0x3d0d15b6	0.034444533
67	0x3d12d220	0.035844922
68	0x3c5c0861	0.013429732
69	0x3d40e7e4	0.047096148
70	0x3b24e4ef	0.002516087
71	0x3d035827	0.03206649
72	0xbd74de85	-0.059782524
73	0xbd12c206	-0.035829566
74	0xbce91214	-0.028451003
75	0xbd59d6d9	-0.05318341
76	0xbcfa6afa	-0.030568589
77	0xbcf1eafd	-0.029530996
78	0x3d0c1bbc	0.034206137
79	0xbc1f924a	-0.009739468
80	0xbcc083c1	-0.023500325
81	0xbb8f4fc9	-0.004373525
82	0x3c6cd584	0.014455203
83	0x3a5b106f	0.0008356636
84	0xbb4c1828	-0.0031142328
85	0x3c9524e0	0.01820606
86	0x3b2d1d54	0.0026415186
87	0x3d79295d	0.060830463
88	0xbb9f4221	-0.004860178
89	0xbcfbadf3	-0.030722594
90	0xbcbf8741	-0.023379924
91	0xbd4b03aa	-0.04956404
92	0x3d193a35	0.037409026
93	0x3cb3a458	0.021928951
94	0x3c825391	0.015908988
95	0x3d5d1946	0.05397918
96	0xbbca4c0f	-0.0061736177
97	0x3b2adcdd	0.0026071586
98	0xbd5a3f77	-0.05328318
99	0xbb3a74a3	-0.0028450869
100	0x3c2ac35e	0.010422556
101	0xbcb5150d	-0.022104764
102	0xbb4b3141	-0.00310047
103	0xbc9f0ab9	-0.019414293
104	0xbb582548	-0.0032981206
105	0xbd30fa66	-0.04320755
106	0xbc200b26	-0.009768283
107	0x3c2e21a3	0.010628137
108	0x3c26a2ce	0.010170652
109	0x3bc17315	0.0059036114
110	0xbc249370	-0.010044917
111	0xbc8a4ff7	-0.016883833
112	0xba797e8e	-0.00095174543
113	0xbccd6f96	-0.025077622
114	0x3d89a164	0.06720236
115	0x3c809592	0.01569632
116	0xbc52547e	-0.012837527
117	0x3b80f023	0.0039348765
118	0xbc90d4a2	-0.017679516
119	0x3d8a2d31	0.06746901
120	0x3c265d3e	0.010154067
121	0x3c8762a8	0.016526535
122	0x3c00a135	0.007850935
123	0xbcf7536e	-0.03019115
124	0xbbcc1de9	-0.0062291515
125	0x3d5c6a94	0.05381258
126	0x3bd48712	0.006485828
127	0xbc48540b	-0.012227069
128	0x3c27ef3d	0.01024991
129	0x3d7da3d8	0.06192383
130	0x3d80c0df	0.06286787
131	0x3d1b57aa	0.0379254
132	0x3c4f5e87	0.012656814
133	0xbcf861e7	-0.030320121
134	0x3d88c9e5	0.06679133
135	0x3bec2d30	0.007207535
136	0xbc1624e2	-0.009164067
137	0x3c9bd4be	0.019022342
138	0x3c6b009b	0.014343406
139	0xbce8a2b8	-0.028397903
140	0x3b270e9c	0.0025490886
141	0xbcbbf865	-0.022945592
142	0x3d69ec51	0.057110135
143	0xbc41a4ce	-0.011819078
144	0xbcd0e66e	-0.025500502
145	0xbbe54e36	-0.006997849
146	0x3adec016	0.0016994502
147	0x3b66a178	0.0035191458
148	0x3d293530	0.04131049
149	0xbd3acda0	-0.045606256
150	0xbcff436e	-0.031160083
151	0x3d788860	0.060676932
152	0xbbb71253	-0.005586901
153	0x3ca89445	0.020578513
154	0xbce746cf	-0.028232006
155	0xbc8f8bd5	-0.017522732
156	0x3a9c941a	0.0011945993
157	0x3cbedf2c	0.023299776
158	0x3c4b6b5d	0.012415734
159	0xbd54bcf3	-0.05193801
160	0x3c4921b7	0.012276105
161	0x3d3c3b62	0.04595507
162	0xba8f05de	-0.0010911783
163	0x3be07eb9	0.006851044
164	0xbba1c669	-0.0049369824
165	0x3cfd45b2	0.030917022
166	0x3d89a2fc	0.0672054
167	0xbdb2b4bf	-0.08725881
168	0xbca9ef58	-0.02074401
169	0x3bb5ddf1	0.005550139
170	0xbcb023a0	-0.021501362
171	0xbcf65e50	-0.030074269
172	0xba88f66e	-0.0010449418
173	0x3c3523f3	0.011055934
174	0xbc2f0ac4	-0.010683719
175	0x3d761cce	0.060086064
176	0xbd3c2827	-0.04593673
177	0x3b01f496	0.0019829622
178	0xbcf8a0c0	-0.03035009
179	0xbcc5bbee	-0.024137463
180	0xbc8782c8	-0.016541854
181	0xbbcc7cc4	-0.006240459
182	0xbcdff958	-0.027340576
183	0x3bb3863c	0.0054786485
184	0x3d6568b7	0.056008067
185	0xbb4d2083	-0.0031299896
186	0xbc9c4467	-0.019075586
187	0x3ca72422	0.020402972
188	0xbcf5a24e	-0.02998462
189	0xbd1ca25c	-0.038240775
190	0x3c20c627	0.009812868
191	0xbbb69522	-0.0055719772
192	0x3c33aafc	0.010966059
193	0xbc9a4a57	-0.018834276
194	0xbc47d15d	-0.012195912
195	0x3cb10b18	0.021611735
196	0xbc88c462	-0.016695205
197	0xbd29817e	-0.04138326
198	0x3c1eb9ae	0.009687824
199	0x3d266ee0	0.040633082
200	0x3d42b45d	0.04753529
201	0x3cbd9dcd	0.023146534
202	0xbcfca393	-0.030839717
203	0xbc569cf4	-0.013098944
204	0xbcf4b7bb	-0.029872766
205	0xbcc5c214	-0.024140395
206	0xbd259d00	-0.04043293
207	0x3d0dab18	0.034586996
208	0x3cc5ead0	0.024159819
209	0xbd25caca	-0.040476598
210	0xbcb80d9e	-0.02246743
211	0x3bcf49dd	0.006325944
212	0x3ca554f2	0.020182107
213	0xbc852140	-0.016251206
214	0xbd0a405e	-0.03375279
215	0xbd155cba	-0.036465384
216	0x3cd49134	0.025948144
217	0x3bc3889c	0.005967213
218	0xbc49dcea	-0.012320736
219	0x3c383c40	0.0112448335
220	0xbc5d5779	-0.013509625
221	0x3d76ffdf	0.06030261
222	0xbd37eefc	-0.044905648
223	0xbcb46bfb	-0.022024145
224	0xbd8bd7af	-0.06828248
225	0x3cc8e2a2	0.02452213
226	0x3c52be50	0.012862757
227	0x3c36e6bf	0.011163413
228	0x3ca536fb	0.020167818
229	0xbcb8378d	-0.022487426
230	0x3d0c05df	0.034185287
231	0xbd53a39c	-0.051669702
232	0xbcfdeeb8	-0.030997619
233	0x3b93c4df	0.004509553
234	0xbce64ca7	-0.028112723
235	0xbbb0f162	-0.005399869
236	0xbcb2b9d6	-0.02181713
237	0xbc4e578b	-0.012594114
238	0x3d610be7	0.05494299
239	0xbc73703e	-0.014858304
240	0x3c830c55	0.015997091
241	0xbcb7e506	-0.022448074
242	0x3bbcad6e	0.005757979
243	0xbd1bdded	-0.03805344
244	0x3d42914f	0.04750186
245	0xbc94de8c	-0.018172525
246	0xbce337f1	-0.027736636
247	0xbc9f9d05	-0.019484052
248	0xbc1a870d	-0.009431613
249	0xbcbee24c	-0.023301266
250	0x3bbcadae	0.005758009
251	0xbcd53f05	-0.026031027
252	0xbd05af79	-0.032638047
253	0xbc9297b8	-0.01789461
254	0x3d126e0a	0.035749473
255	0x3d541600	0.051778793

action_model._discrete_distribution.branches.0.bias f4 [4]
0	0x3d35ed93	0.04441602
1	0xbccaa049	-0.024734633
2	0xbcbc5fae	-0.022994842
3	0x3c732c86	0.014842158

action_model._discrete_distribution.branches.1.weight f4 [3, 256]
0	0xbc76e4fc	-0.015069243
1	0x3c817304	0.015801914
2	0x3cc85f46	0.024459492
3	0x3d2b971b	0.041892152
4	0xba4ec7d6	-0.0007888054
5	0x3b5aa46b	0.003336216
6	0xbb70f5ba	-0.0036767558
7	0x3cce5d6f	0.025191037
8	0xbd01aff9	-0.03166196
9	0x3d3fe912	0.046853133
10	0x3b3e177b	0.0029005695
11	0xbc9eb2d9	-0.01937239
12	0x3d03c127	0.032166626
13	0xbaf984ac	-0.0019036732
14	0xb9d9ca60	-0.00041540246
15	0x3cd650f3	0.026161646
16	0xbcc3be9f	-0.023894606
17	0xbbb188fd	-0.0054179416
18	0xbd0353d0	-0.03206235
19	0x3c3a2bd4	0.0113629885
20	0x3d1af8b3	0.037834834
21	0xbb4201da	-0.0029603154
22	0x39a9f6c7	0.00032418055
23	0x3cfe8200	0.031067848
24	0x3cfdf7de	0.031001981
25	0x3d22132e	0.039569072
26	0x3c44cb2a	0.012011329
27	0xbba3c0e2	-0.0049973587
28	0xbca2cbb4	-0.019872524
29	0x3d1079a9	0.035272274
30	0xbcb239db	-0.021756103
31	0x3d5b0501	0.05347157
32	0x3b839294	0.004015276
33	0x3b890ddb	0.00418256
34	0x3c9b7af5	0.018979529
35	0x3c5bbfae	0.013412399
36	0x3d33f58a	0.043935336
37	0x3cb194f1	0.021677466
38	0x3c5d9987	0.013525373
39	0xb95fe5c7	-0.00021352536
40	0x3cae9930	0.02131328
41	0xbc2ed152	-0.010670023
42	0x3ce91227	0.028451039
43	0xbc7eb10a	-0.015545139
44	0x3cf3ddb5	0.029768804
45	0xbb929d63	-0.0044743284
46	0x3cc97ca5	0.024595568
47	0x3d155b8a	0.03646425
48	0xbc1b8411	-0.009491936
49	0x3b4fd57d	0.0031712942
50	0xbc819b73	-0.015821194
51	0xbbb2a9f2	-0.005452388
52	0x3d043d26	0.03228488
53	0x3cb94b97	0.022619052
54	0xbc1f4cf2	-0.009722935
55	0x3bb2db9d	0.005458309
56	0x3c1d6ae5	0.009608005
57	0x3bacc105	0.005272033
58	0xbbfe6d04	-0.0077644605
59	0xbaf3d885	-0.0018603957
60	0x3b4439db	0.002994171
61	0xbc0f3569	-0.008740761
62	0x3c575508	0.013142832
63	0xbb83989c	-0.004015995
64	0x3c836a5e	0.01604193
65	0xbc5fd73e	-0.013662158
66	0x3b0f9a71	0.0021912123
67	0xbc365f9c	-0.0111311935
68	0x3bf9aebb	0.0076197064
69	0xbb82149e	-0.003969743
70	0x3b307741	0.002692655
71	0x3ca1945c	0.019724064
72	0xbd068400	-0.03284073
73	0x3c9663d1	0.018358143
74	0xbcd2966c	-0.025706492
75	0x3ce48a58	0.027897999
76	0xba9e0a7d	-0.0012057569
77	0x3a5b83bf	0.0008373819
78	0x3ced1ddc	0.028944902
79	0x3ca0a392	0.019609246
80	0x3cc7095b	0.024296453
81	0xbbfbd5b6	-0.0076853884
82	0x3cfc2322	0.030778471
83	0xbca34445	-0.019930014
84	0x3c09de10	0.00841476
85	0xbc2d98c6	-0.010595506
86	0x3cecebe3	0.028921073
87	0x3d4e1f37	0.050322738
88	0xbc9e4e0f	-0.01932433
89	0x3bbf5865	0.005839395
90	0xbc7f7af1	-0.015593276
91	0xbcaa8d26	-0.020819258
92	0x3d625230	0.05525416
93	0x3d24e3f1	0.040256444
94	0xbc09985a	-0.00839814
95	0x3c33c0bd	0.010971245
96	0x3d090292	0.033449717
97	0xba5ebafa	-0.00084964896
98	0x3d0d2ecf	0.03446847
99	0x3ce7566c	0.028239451
100	0x3b42094f	0.00296076
101	0x3badce04	0.0053041
102	0x3c5273aa	0.012844959
103	0x3d0d2f2e	0.034468822
104	0x3bb09712	0.0053891027
105	0xbd58e5cf	-0.052953538
106	0x3a72bcca	0.0009259699
107	0xbbb208ca	-0.0054331766
108	0x3d107632	0.03526897
109	0xbc9b9476	-0.01899169
110	0x3bf232a5	0.007391291
111	0xbcc0b6cd	-0.023524666
112	0x3b868d30	0.0041061863
113	0x3cdada3a	0.026715387
114	0x3c600506	0.013673073
115	0x39b38c3d	0.00034246026
116	0x3c93bc11	0.018034013
117	0xbd22eb78	-0.03977534
118	0xbcb55f72	-0.022140238
119	0x3d5b05d7	0.053472366
120	0x3ca09f74	0.019607283
121	0x3b1f846a	0.00243404
122	0xbc3c3cfb	-0.011489148
123	0xbcb96a7a	-0.02263378
124	0x3cb22599	0.021746444
125	0x3beb7328	0.0071853586
126	0xbd36cde0	-0.04462993
127	0x3d2821cd	0.04104786
128	0x3ac41582	0.0014960023
129	0x3cd1fb68	0.025632575
130	0x3bdfde54	0.0068319235
131	0xbc81d56b	-0.015848836
132	0x3be7bcff	0.0070720906
133	0x3cb76e23	0.022391384
134	0x3d18c5d9	0.037298057
135	0xbcee75a5	-0.029108832
136	0x3c2587bd	0.010103163
137	0xbcd1116e	-0.025521006
138	0x3a37b0ea	0.0007007258
139	0x3bbfee63	0.0058572753
140	0x3d086f7f	0.033309456
141	0xbb6a1b29	-0.0035721755
142	0x3bb6f282	0.0055831084
143	0xbcce989e	-0.025219258
144	0xbb3d587d	-0.0028891854
145	0x3cce3a0d	0.025174165
146	0x3aa523c4	0.001259916
147	0x3a24e899	0.0006290763
148	0x3d6ae77e	0.057349674
149	0x3cbb37ee	0.022853818
150	0x3d3d5a5e	0.04622876
151	0x3d47a8db	0.048745017
152	0x3d06e586	0.032933734
153	0x3c0ffd39	0.0087884
154	0xbb5a7d5c	-0.003333888
155	0x3b2a5919	0.0025993048
156	0xb9a9718e	-0.00032318797
157	0x3c895bdb	0.016767433
158	0xbcaac641	-0.020846488
159	0x3c975566	0.018473338
160	0x3c1ee51b	0.009698178
161	0xbd07940d	-0.033100177
162	0x3bace48d	0.005276269
163	0x3cb5f36a	0.022210795
164	0x3d83c006	0.0643311
165	0x3d9273a8	0.07150966
166	0x3d84b523	0.064798616
167	0xbb876449	-0.004131828
168	0xba54ea18	-0.0008122041
169	0xbc056f8f	-0.008144273
170	0x3d0d5588	0.034505397
171	0xbc862ca3	-0.016378706
172	0xbc815b72	-0.015790675
173	0x3ab2b7d0	0.0013635103
174	0xbc5432a6	-0.012951529
175	0x3b9659b6	0.004588331
176	0xbc1b2189	-0.009468445
177	0xba312171	-0.00067569973
178	0x3cb09b74	0.0215585
179	0x3ccf87d9	0.025333332
180	0x3bedf9a7	0.007262427
181	0x3b3f31f4	0.0029174061
182	0xbc569fbe	-0.013099609
183	0xbc4fa121	-0.0126726935
184	0x3d50b87a	0.05095718
185	0xbbe2d975	-0.0069228956
186	0x3b5d39ef	0.0033756455
187	0xbbf981bb	-0.007614342
188	0x3c6ee37e	0.014580606
189	0xbd034f46	-0.032058023
190	0xbca01e88	-0.019545808
191	0x3c2f37e6	0.01069448
192	0x3bd49df0	0.006488554
193	0xbce144ab	-0.027498564
194	0xbd281b9d	-0.04104196
195	0x3c22f72b	0.009946625
196	0xbb0de137	-0.002164913
197	0x3c360285	0.011108999
198	0x3cef613a	0.029221166
199	0x3d827f1f	0.06371903
200	0x3d0f6d97	0.035016622
201	0x3c3177d5	0.010831793
202	0xbce66dc5	-0.028128514
203	0xbc6cd5d6	-0.014455279
204	0xbc4cba88	-0.012495644
205	0x3c8133c9	0.015771763
206	0xbce76c09	-0.028249757
207	0xbd2bb6e5	-0.04192247
208	0xbc31bcf7	-0.010848275
209	0x3be79703	0.0070675625
210	0xbc62aafe	-0.013834713
211	0x3d728636	0.059210025
212	0xbc505b07	-0.012717015
213	0x3bb381a5	0.0054781013
214	0xbaf03a9c	-0.0018328014
215	0x388b07f1	6.629516e-05
216	0xbc0c8c4f	-0.008578374
217	0x3c9f7f10	0.019469768
218	0xbbb4eb59	-0.0055212197
219	0xbaa41494	-0.001251834
220	0xbc4d9e89	-0.012550005
221	0x3d7fa4b2	0.062412925
222	0xbbe532f1	-0.006994598
223	0xbbb1c213	-0.005424747
224	0xbbb9a01f	-0.00566484
225	0x3cd4bde2	0.02596945
226	0x3ab8e305	0.0014105743
227	0xbb0f6705	-0.0021881473
228	0x3d094376	0.0335116
229	0x3c3d3016	0.011547109
230	0x3d47a39b	0.04874001
231	0xb9b3c503	-0.00034288326
232	0xbc560b60	-0.013064235
233	0x3bf6bb6f	0.007529668
234	0x3cf737d3	0.030177986
235	0xbc200510	-0.009766832
236	0x3a3f702b	0.0007302786
237	0x3c4b5e24	0.012412582
238	0x3a93b5b3	0.001126936
239	0x3a9cfeef	0.0011977832
240	0x3cb43c94	0.022001542
241	0xbc05f0b8	-0.008175068
242	0x3bb97c62	0.0056605795
243	0x3cecffbc	0.028930537
244	0x3c5db3e7	0.013531662
245	0xbba46889	-0.0050173444
246	0x3a9f83a2	0.0012169967
247	0x3c5f63d9	0.013634645
248	0x3d23321d	0.039842714
249	0xbcc11fa9	-0.023574667
250	0x3c0f9236	0.008762887
251	0xbcf129f7	-0.029438956
252	0xbb2d44e3	-0.0026438765
253	0x3cb5860f	0.02215865
254	0x3d0dfe8b	0.03466658
255	0x3d03ff32	0.032225795

action_model._discrete_distribution.branches.1.bias f4 [3]
0	0x3d57cd4e	0.05268603
1	0xbcb24a6a	-0.021763999
2	0xbd08db25	-0.033412118

onnx::Div_108 f4 [45]
0	0x393f26df	0.0001822966
1	0x3bee2f73	0.00726884
2	0x393f26df	0.0001822966
3	0x3e04dda2	0.12975171
4	0x3eae0aa3	0.3399249
5	0x3effe738	0.49981093
6	0x3ebcde31	0.3688827
7	0x3ec23dde	0.37937826
8	0x3e4ab05a	0.19793835
9	0x393f26df	0.0001822966
10	0x3c03469d	0.008012441
11	0x393f26df	0.0001822966
12	0x3e12f7d9	0.14352359
13	0x3eaf0cd7	0.34189484
14	0x3efff8ab	0.49994406
15	0x3ec56373	0.38552436
16	0x3eb9940b	0.3624576
17	0x3e40135b	0.18757384
18	0x393f26df	0.0001822966
19	0x3c0fa8b7	0.008768252
20	0x393f26df	0.0001822966
21	0x3dfbea5c	0.1230056
22	0x3eb10b60	0.3457899
23	0x3efff4cf	0.49991462
24	0x3edf7680	0.43645096
25	0x3e8ae26b	0.27125868
26	0x3e14784f	0.14499019
27	0x393f26df	0.0001822966
28	0x3bdf19b0	0.006808482
29	0x393f26df	0.0001822966
30	0x3e14557b	0.14485733
31	0x3eb366f5	0.35039487
32	0x3efffed3	0.49999103
33	0x3eed3a81	0.46333697
34	0x3e1f1ef3	0.1553915
35	0x3da7317b	0.081637345
36	0x393f26df	0.0001822966
37	0x3c7fd605	0.015614991
38	0x393f26df	0.0001822966
39	0x3e12af83	0.14324765
40	0x3eb2b358	0.34902453
41	0x3f00019d	0.5000246
42	0x3eed2888	0.46319985
43	0x3e17ec04	0.14836127
44	0x3dcf0853	0.101090096

onnx::Div_111 f4 [20]
0	0x3ceeff24	0.029174395
1	0x393f26df	0.0001822966
2	0x3dda3d95	0.10656277
3	0x3d564561	0.05231226
4	0x3cd11826	0.02552421
5	0x393f26df	0.0001822966
6	0x3dc639c8	0.0967899
7	0x3d737845	0.05944087
8	0x3ce647bd	0.02811038
9	0x393f26df	0.0001822966
10	0x3dcbbd07	0.099481635
11	0x3d5c68d2	0.053810902
12	0x3c903f60	0.017608345
13	0x393f26df	0.0001822966
14	0x3db27767	0.087141804
15	0x3daf681a	0.08564778
16	0x3cd21e24	0.025649138
17	0x393f26df	0.0001822966
18	0x3db85c46	0.09001975
19	0x3d4e33af	0.050342258

onnx::Div_114 f4 [15]
0	0x3e9e5621	0.30925086
1	0x3e9f2ea7	0.3109028
2	0x3e44483c	0.1916818
3	0x3ea0b92c	0.31391275
4	0x3ece77de	0.40325826
5	0x3e52e065	0.20593412
6	0x3ea4793d	0.32123747
7	0x3ea8c9f8	0.3296659
8	0x3e51c58d	0.20485516
9	0x3e9af780	0.30266953
10	0x3efdf1d7	0.49598572
11	0x3e81874a	0.2529853
12	0x3ea3d8d0	0.32001352
13	0x3eafd3ee	0.34341377
14	0x3e5f35f7	0.2179793
