Usable_Data/one_car_self_park_final_3/PKWParking/PKWParking-6019448.onnx (onnx, 354523 bytes, 15 tensors)

discrete_act_size_vector f4 [1, 2]
000000 00 00 80 40 00 00 40 40
       4.0 3.0

network_body.observation_encoder.processors.0.normalizer.running_mean f4 [45]
000000 00 00 00 00 7a db cd 3e 67 9d 0f 3e 6e f9 b6 3e
       0.0 0.4020651 0.14024888 0.35737175
000010 96 d5 15 3f 00 00 00 00 32 31 09 3f ee 04 95 3d
       0.5852903 0.0 0.5359069 0.07276331
000020 71 61 8d 3e 4e 77 06 3f 00 00 00 00 02 e4 0a 3f
       0.27613404 0.52525795 0.0 0.5425416
000030 99 07 cd 3d 73 cc 64 3e cc 2f 02 3f 00 00 00 00
       0.10011215 0.22343616 0.5085418 0.0
000040 e0 1e da 3e 5f 47 bb 3d 30 bd bb 3e 99 5c 12 3f
       0.4260168 0.09144472 0.36667776 0.5717254
000050 45 76 95 38 66 3d f8 3e 00 28 ab 3d b9 71 8f 3e
       7.126903e-05 0.48484343 0.08357239 0.2801645
000060 d7 2e 0a 3f 00 00 00 00 98 c7 c5 3e f4 b1 75 3d
       0.5397772 0.0 0.3862884 0.059984162
000070 4e df dd 3e a7 29 18 3f 6e 7a 9f 39 8f c8 ce 3e
       0.4333443 0.59438556 0.0003041806 0.4038739
000080 b9 51 ad 3d b4 ba bc 3e 05 df 1e 3f 00 00 00 00
       0.08462853 0.36861193 0.6205905 0.0
000090 7d 32 be 3e e6 5d a4 3b ad 0d 03 3f cc ea 36 3f
       0.37147895 0.0050160764 0.5119274 0.7145202
0000a0 00 00 00 00 f7 9d 84 3e fa a9 01 3d 2b 93 15 3f
       0.0 0.25901768 0.031656243 0.58427685
0000b0 f5 eb 55 3f
       0.83563167

network_body.observation_encoder.processors.1.normalizer.running_mean f4 [6]
000000 ef c8 28 3f ea c1 52 3f de 18 29 3f 89 1f 53 3f
       0.659316 0.8232714 0.6605357 0.82469994
000010 8f 69 29 3f 79 7d 53 3f
       0.66176695 0.8261333

network_body.observation_encoder.processors.2.normalizer.running_mean f4 [20]
000000 f4 3e 50 3d 0b ff 7f 3f 56 aa 94 3e 55 61 cd bc
       0.050841287 0.9999854 0.29036206 -0.025070826
000010 e9 38 99 3c 4f 4a 01 3f 00 00 00 00 cc 1a 2e 3f
       0.018703895 0.5050401 0.0 0.6800964
000020 3a 15 0f 3f 35 be df 3e e8 6e be 3e 00 00 00 00
       0.55891764 0.43699804 0.3719399 0.0
000030 00 00 00 00 00 00 00 00 00 00 00 00 00 00 00 00
       0.0 0.0 0.0 0.0
000040 00 00 00 00 00 00 00 00 00 00 00 00 00 00 00 00
       0.0 0.0 0.0 0.0

network_body._body_endoder.seq_layers.0.weight f4 [256, 71]
000000 91 0d 3e 3d 9a e7 d5 bc c2 8c 09 3e a7 50 0d be
       0.046399657 -0.026111413 0.13432601 -0.13800298
000010 62 2e bf be c8 51 d9 bd 10 ef 11 be c8 23 ea bd
       -0.37340075 -0.10611302 -0.14251351 -0.11432606
000020 ec ee cf 3d 7d c9 bf bc 5a 08 e6 3d aa 33 95 3c
       0.101529926 -0.023411507 0.11232062 0.018213112
000030 12 c1 72 bd fd 81 2d 3e bd 30 24 bd fa 47 4f bd
       -0.059266157 0.16944118 -0.040085543 -0.05060575
000040 5f f7 a0 3d d3 b5 f4 bd 34 ce 9c bd 6a 26 5f 3d
       0.07859682 -0.11948743 -0.076565176 0.054479994
000050 8a be 01 bd 6e cb 8e 3e 28 84 7b bd ab fc 54 3e
       -0.031675853 0.2788958 -0.06140533 0.2079951
000060 37 96 7a 3d 94 d8 03 be 75 ac 93 bd 38 38 29 3d
       0.061178412 -0.12875587 -0.07210628 0.04131338
000070 c5 36 ba bd cb 75 ba bc 13 81 73 3d 63 92 34 bd
       -0.09092478 -0.022761246 0.059449267 -0.044084918
000080 73 42 02 3d 6e cf 45 bd bf 5e f5 bd c8 7c 40 be
       0.031801652 -0.048293523 -0.11980962 -0.187976
000090 85 ae 16 bd 7c 3b 8f bd 2a 43 2c be 0c bb 24 3d
       -0.03678753 -0.069937676 -0.16822496 0.040217444
0000a0 f0 47 8f bc 39 ad 84 be a7 ba ac 3b 7b be 2f 3b
       -0.017490357 -0.25913408 0.005271274 0.0026816416
0000b0 90 80 96 be 92 2a e9 3c 5b da 13 3e 5a e4 91 be
       -0.2939496 0.028462682 0.14438765 -0.2849453
0000c0 28 6e 73 be ac 3f 3a be 7f 16 b7 bd 19 36 63 be
       -0.2377249 -0.18188351 -0.08939838 -0.22188605
0000d0 a3 ef b0 3d 94 e2 b7 3d bf f7 ea bd ca 61 ce 3d
       0.08639457 0.08978763 -0.11473035 0.100772455
0000e0 a7 a5 ee bd de f7 13 3e 4e 53 47 be 10 dc f5 bd
       -0.116526894 0.14450023 -0.19465372 -0.12004864
0000f0 29 22 5c be 80 64 93 bd aa fa 4f 3e 99 dd 2b 3d
       -0.21497406 -0.07196903 0.20310465 0.04195938
000100 58 dc 0a 3d 45 3f 57 3e 2f fc c2 bd dd b7 05 bc
       0.033901542 0.21020229 -0.095207565 -0.008161512
000110 21 9b 79 bd 1c 3e 04 bc ed 7a c0 3c 38 c4 f1 3d
       -0.060938958 -0.008071449 0.023496116 0.11805004
000120 23 d0 5c 3c fb dd 2e 3b f3 d7 d7 bd 89 01 9e 3e
       0.013477358 0.0026682604 -0.10539236 0.30860546
000130 86 e8 4e 3d a3 e7 28 3d 0b 2f 13 3e 4a 7e cd bd
       0.05051472 0.04123653 0.14373414 -0.10033853
000140 56 4e 9d bc 12 41 2f be 36 12 e8 bd 6f 52 91 3d
       -0.019202393 -0.17114666 -0.113315985 0.07095801
000150 c1 db 03 be 9f 66 9d 3d d9 fd 5e bc 31 a5 b8 bc
       -0.12876798 0.07685589 -0.013610327 -0.022539707
000160 53 6f 95 bd 13 d3 a9 bd c1 da 9d 3d 6d 0c 53 3e
       -0.07296624 -0.08292212 0.077077396 0.20610209
000170 6b f5 f4 3d 93 49 40 bd 25 31 00 bd f9 8f 4a 3e
       0.11960872 -0.046945166 -0.031296868 0.19781484
000180 9e f5 1b 3e 01 f4 02 bc fe f4 aa 3d a4 81 fe bd
       0.15230414 -0.007992745 0.0834751 -0.12427071
000190 50 b4 df bd ba 3a af 3d d7 cf 9f bd 78 a8 46 3d
       -0.10923064 0.08556123 -0.07803314 0.048500508
0001a0 f0 ab 43 bc 31 c0 82 bd cd a2 66 3d 26 2b 03 be
       -0.011942849 -0.06384314 0.056307603 -0.12809429
0001b0 0c 3c 50 bd a5 f6 cc 3d e5 04 ab 3d 52 3e 56 3b
       -0.050838515 0.10007981 0.08350543 0.0032690954
0001c0 c6 2d 8b 3d 60 76 e2 bd 86 53 fd bd 5f b4 e6 3d
       0.0679584 -0.110577345 -0.123694465 0.11264872
0001d0 c9 3d 11 be 0a b0 88 3d 36 67 a5 be 7b 40 8b 3d
       -0.14183725 0.06674202 -0.32305306 0.06799408
0001e0 d5 a9 54 3d 24 66 52 ba a0 28 0e 3e 57 e4 41 3b
       0.051919777 -0.00080260844 0.13882685 0.0029585564
0001f0 29 d3 06 be 83 a5 87 bd 56 33 83 3e 33 ae 06 be
       -0.13166489 -0.06623366 0.25625104 -0.13152389
000200 a2 c0 ed 3d b8 66 24 3e ca 03 65 bd 82 c2 a9 bd
       0.116090074 0.16054809 -0.055911817 -0.082890525
000210 5f 50 41 bd 52 5b ab bd 1d eb 43 3c 7b 2a c4 3b
       -0.04719579 -0.08367027 0.011957911 0.0059865094
000220 39 b0 79 bd ae bb 91 3d 41 96 6d 3d af 9b 81 3d
       -0.060959075 0.07115875 0.05800462 0.063285224
000230 ee 8a 12 3e b9 a0 d5 3c 41 27 30 bd 40 85 05 bd
       0.1431081 0.026077615 -0.043006185 -0.03259778
000240 39 3e 1c be 9e eb cf bd b1 3e ae bd a3 4b 38 3e
       -0.15258111 -0.10152362 -0.08508051 0.17997603
000250 f7 cf b0 3b 59 62 88 be 9f 86 00 be 8e d0 dd bd
       0.005395885 -0.26637533 -0.12551354 -0.10830794
000260 05 97 3e 3e b0 9c 06 be 6f 5e 7f bd 83 5a 27 be
       0.18612297 -0.13145709 -0.06234592 -0.16343121
000270 96 f0 5c 3d 7f 2b 54 bd e7 0f 37 bd 91 c2 d2 ba
       0.053940378 -0.051799294 -0.0446929 -0.0016079714
000280 57 c2 74 be 77 fd c8 3d 4c da 1d 3d 0d 1d d4 3e
       -0.2390226 0.098139696 0.038538262 0.41428414
000290 73 63 2a be f7 e5 83 bd 13 fd 2f 3e fb 47 69 bc
       -0.166395 -0.06440347 0.17186384 -0.014238353
0002a0 6b ec 93 bd a9 1e 0e bd 23 2c be 3d 1b e0 6a bc
       -0.072228275 -0.03469721 0.09285762 -0.0143356575
0002b0 ae 5b f5 3b 93 ff f7 3d 22 9e f2 3d 5c 1f 4f bd
       0.0074877357 0.12109294 0.11846568 -0.050567016
0002c0 0c 04 bd bd 47 42 75 3b 26 4c 74 bb d8 4c db bd
       -0.092292875 0.0037423538 -0.0037276833 -0.10708016
0002d0 44 2b ad bd 98 7b e4 bb 6e 4e a7 bd 18 1e 0e ba
       -0.08455518 -0.0069727413 -0.08169256 -0.00054213544
0002e0 d2 99 e5 bc 2d 96 cd 3d 62 93 7d bc 7a 34 c0 bc
       -0.028027449 0.100384094 -0.015477033 -0.023462523
0002f0 9a fe 06 be b7 79 77 be d5 49 12 3e 3c 39 04 bd
       -0.1318306 -0.24167524 0.14285977 -0.032281145
000300 93 aa 1c be c2 7e 4c 3e 43 d9 f5 bc 82 63 39 3c
       -0.15299444 0.1997023 -0.030010825 0.011315228
000310 69 6f ed 3b 00 90 36 be e7 12 2c be 61 ff 21 be
       0.007245947 -0.17828369 -0.16804086 -0.15820076
000320 56 df c6 3d e9 c3 7f 3d f7 3a be bd e5 63 63 bc
       0.09710567 0.062442694 -0.092885904 -0.013878797
000330 e8 11 33 bd e3 80 c8 bb 1c 41 98 bd d0 6e 13 be
       -0.04371825 -0.00611888 -0.07434294 -0.1439774
000340 06 a7 24 be f5 66 3b be b0 40 f5 3d 0b 54 5e 3d
       -0.1607934 -0.18300994 0.11975229 0.05427937
000350 22 01 5e be 60 38 b8 bd 80 c3 3e bc d8 f6 0b 3e
       -0.2168012 -0.08995128 -0.0116432905 0.13668382
000360 e8 65 fd 3d 53 7c 23 3d 11 6f 1e bc c6 44 b9 3c
       0.12372953 0.039913487 -0.009670035 0.022615802
000370 6f bd a1 3d 81 40 81 3c 6b 64 83 be f3 f7 2d 3d
       0.0789746 0.015777828 -0.2566255 0.04247279
000380 3e a9 33 3c 58 43 cf 3d 28 83 66 3c ae 5d 75 bb
       0.010965643 0.10120267 0.014069356 -0.003743987
000390 33 93 ee 3d ff 8a ad 3e 80 9a 94 bc 78 21 39 3e
       0.1164917 0.33895108 -0.018140078 0.18079174
0003a0 be f7 9d 3d 4c 19 9a 3d 3d d5 ce 3d 2a 37 c4 3d
       0.07713269 0.07524356 0.10099266 0.09580834
0003b0 78 40 99 3d 6a ec e4 3d 45 20 07 3e 0c 4b df 3c
       0.074829996 0.11177905 0.13195904 0.027257465
0003c0 46 8b 9c 3d d4 2a 2d 3d 3f 63 50 bc 22 37 a2 3e
       0.07643752 0.042277172 -0.012718975 0.31682688
0003d0 a9 36 57 3e 6b a8 56 be d3 25 79 3d 78 78 05 3e
       0.21016945 -0.20962684 0.060827088 0.13034236
0003e0 46 28 99 be 19 e1 17 3c 9b cf cd 3c ec 0e 6a 3c
       -0.2991354 0.009269976 0.025123408 0.014285784
0003f0 9a 5e a6 bd 74 a7 cf bb d5 17 9c bc 60 41 10 bd
       -0.081235126 -0.0063371006 -0.019054333 -0.035218596

network_body._body_endoder.seq_layers.0.bias f4 [256]
000000 fe a1 6c 3c 58 cc 9b bb 16 df ab 39 2e 7f 75 bc
       0.014442919 -0.0047545843 0.00032781874 -0.014983935
000010 0d 7f b2 bb cf ff 12 bb 76 5e b2 bc 00 95 9b 3c
       -0.0054472745 -0.0022430306 -0.021773558 0.018991947
000020 f6 d7 34 bd 34 27 6e bc d8 2b 09 3d c8 36 6b bd
       -0.04415127 -0.014535714 0.03348908 -0.05742529
000030 4f ea 7a bc eb 2a 06 bb 0f c1 0c 3d 80 2d b3 3c
       -0.015314653 -0.0020472358 0.034363803 0.021872282
000040 f6 54 81 bb 6a 9e 9f bc ea 8b 67 3d a9 f8 0f bc
       -0.0039468957 -0.019484717 0.056529917 -0.008787313
000050 17 e6 88 ba 15 06 21 3d 34 aa 05 bd 17 01 64 bd
       -0.0010444549 0.03931244 -0.03263302 -0.0556651
000060 10 ba 69 bb 13 36 96 bc 10 2e 36 3d 35 c8 0f bc
       -0.003566388 -0.018336331 0.044477522 -0.00877576
000070 70 90 58 bc d1 59 b7 bc 99 3e 42 3c ae c2 0e bd
       -0.01321803 -0.022381695 0.011855745 -0.03485363
000080 2a 91 4d bc 47 aa 7a bc 98 36 60 3c 54 68 1e 3c
       -0.012546817 -0.015299386 0.013684891 0.009668428
000090 58 6b 9f 3c ff 64 ba bc c8 5a 2a bd 00 68 3f bb
       0.019460365 -0.022753237 -0.041590482 -0.0029206276
0000a0 f2 10 f9 3a c5 f5 03 3d dc 48 70 bd 54 e6 f0 bc
       0.0019002242 0.032216806 -0.058663234 -0.029406704
0000b0 12 3b c8 bc f5 bd 38 bb 9e 08 6c 3c 09 6f 2e 3d
       -0.02444223 -0.0028189395 0.014406351 0.04258636
0000c0 8f 43 30 3d ef e0 41 bd fd d0 3b bc d1 b2 02 bd
       0.04303318 -0.047333654 -0.011463401 -0.031908814
0000d0 3e f3 45 bc 08 60 31 bc a5 28 7c 3d a5 3e ac bb
       -0.012081919 -0.010826118 0.0615622 -0.0052564912
0000e0 02 d3 f9 bc 8a c5 b0 bc 0a 75 68 3d f1 70 1c 39
       -0.030496124 -0.021578569 0.056752242 0.00014919393
0000f0 2d 22 25 bd 24 98 60 3d 22 b3 f5 bc 37 18 7e bd
       -0.040315796 0.054832593 -0.029992644 -0.06203481
000100 0a d2 a6 3b a8 d2 ad bb d8 da 23 bd 46 6c 45 bc
       0.0050909566 -0.005304653 -0.040003628 -0.01204974
000110 72 e9 95 bc 1b eb af 3d 14 3f 60 bd 51 64 31 bb
       -0.018299792 0.08589765 -0.054747656 -0.002706785
000120 e2 f2 31 3d fb 85 97 3b 68 73 b4 3d c3 02 c6 bc
       0.04344452 0.004624126 0.088110745 -0.024171239
000130 ff 0d 79 bd 6a da 2b 3c 47 2f 37 bd 88 b2 e2 3b
       -0.060804363 0.010489086 -0.04472282 0.0069182552
000140 4a 6f 6c 3c 76 12 f9 bb b0 2f 69 bc e9 a3 6a 3d
       0.01443083 -0.0076010777 -0.014232561 0.057285223
000150 79 96 4f 3c e9 60 5d 3c b6 19 92 3c 72 8f c0 3c
       0.012670153 0.013511875 0.017834526 0.0235059
000160 ae f1 21 3d 14 00 66 3d db 32 e9 3c d8 8c ba bc
       0.039537124 0.05615242 0.028466633 -0.022772238
000170 87 84 68 bc 9d 7e 42 3c a1 1f d7 3c 74 36 6f ba
       -0.014191753 0.011871007 0.026260199 -0.00091252406
000180 28 e9 14 bc be b9 e5 bc 9b ef 0e 3d b2 7a ae bb
       -0.009088792 -0.02804267 0.034896474 -0.005324685
000190 5a 29 95 3d 1f 31 38 bc b4 2c 4d bc ac b8 50 3d
       0.07283278 -0.01124218 -0.012522865 0.050957367
0001a0 dc f3 84 b9 71 b7 2b 3d 51 3a a1 3c ab 5e 23 3c
       -0.0002535869 0.04192299 0.019681128 0.009971301
0001b0 92 2d 83 bb fc 76 82 ba a9 9d 43 bd da 93 e3 bc
       -0.004003235 -0.0009953673 -0.04775778 -0.027780462
0001c0 99 80 c9 bc f4 15 a2 bb 2e 90 12 bd b6 f1 5b bb
       -0.024597453 -0.0049464647 -0.03578203 -0.003356082
0001d0 c4 28 41 3c 2e 62 69 3d 07 a0 a3 bc f4 4e f2 3c
       0.011789504 0.056978397 -0.019973768 0.029578663
0001e0 1e 67 a5 bc f7 91 42 ba 7c 4e 5f bc f5 3c bd bc
       -0.020190772 -0.0007422263 -0.013629552 -0.023100356
0001f0 fd 86 1c 3d 39 ed 4b 3c ce fd 27 3d 24 6f db 3b
       0.038214672 0.012446695 0.04101353 0.0066965986
000200 4c e3 d8 3c 6d 59 f9 bc 85 2d e7 3c ef 22 8b bd
       0.026475571 -0.03043815 0.028219948 -0.067937724
000210 82 1c 18 3d 7f e5 9e bc b1 fa a1 3d 3e 7b 81 3d
       0.037136562 -0.019396542 0.07909144 0.06322335
000220 7f 3f 74 bb 1c b0 64 3d 07 fb c6 bb 96 b6 9f bb
       -0.0037269292 0.055832013 -0.0060724053 -0.004874061
000230 b4 3d 59 3c aa 18 ab 3d 16 82 b2 3c a1 95 34 3d
       0.01325934 0.08354314 0.021790545 0.04408801
000240 59 1a cb 3c 03 0b bf bb 32 24 4c 3d a5 6c 79 bd
       0.024792837 -0.00583017 0.049839206 -0.060894627
000250 8b 5d 35 3c 53 75 29 bc d7 2d 3b bd 59 55 8d bb
       0.011069666 -0.010342914 -0.045698013 -0.0043131527
000260 c5 1e 92 3c b8 e9 35 3c a3 9f 13 bc 9b ba a4 bc
       0.017836938 0.011103086 -0.009010228 -0.020108512
000270 07 87 56 3c 1a 5a aa 3d a7 29 40 bc ad a3 78 bd
       0.013093716 0.08317967 -0.011728681 -0.06070297
000280 d3 2d 14 bc aa b0 20 bd 2e 3b 09 3b fe d9 07 3c
       -0.0090441285 -0.03923098 0.0020939815 0.0082917195
000290 01 d2 02 3d cf 7d 15 bd f9 ee 88 3d 58 5f f1 3c
       0.031938557 -0.036496934 0.066862054 0.029464409
0002a0 1f e1 0a 3d 5c 52 68 3b b9 07 b0 3c 0f aa 9b 3d
       0.0339061 0.003544948 0.021488057 0.076007955
0002b0 ee 13 14 bd 34 8b 8a b9 38 07 37 bc 05 33 02 bd
       -0.03615182 -0.00026425126 -0.011171155 -0.031786937
0002c0 ae 14 8f bc d1 74 0d bc cf d3 e9 bc 4d cc a5 bb
       -0.017465916 -0.008633808 -0.028543381 -0.005059755
0002d0 29 4d 95 bc f3 b1 40 bd 04 bd df bc 03 42 33 bd
       -0.01822527 -0.047044706 -0.02731181 -0.043764126
0002e0 00 a4 4f bc d4 c0 df bc d5 87 cb 3c a3 4d 1e bd
       -0.012673378 -0.027313627 0.024845043 -0.03864826
0002f0 59 8c 95 3c 18 a9 ca 3c 17 24 ef bc c8 4a 74 3b
       0.0182554 0.024738833 -0.029192014 0.0037276018
000300 72 65 64 3c e0 45 58 bc 81 5a 60 bc 1f 44 b0 bc
       0.013940202 -0.013200253 -0.013693453 -0.021516858
000310 1a d2 de bc bb 3b 8a 3a d7 ae 0e 3d cb c8 8b bc
       -0.027199794 0.0010546366 0.03483471 -0.017063519
000320 2a 54 79 3d 3d 06 cb bc c9 f5 82 3c 89 84 e8 bc
       0.06087128 -0.024783248 0.01598634 -0.02838351
000330 bd a3 1e bd 3f fe 48 bd 42 8f eb 3b 35 b2 51 3d
       -0.03873037 -0.049070593 0.0071887085 0.051195342
000340 21 9e 6f 3d 59 30 5b bc 9e 3e b4 3c 83 1b ab 3d
       0.058500413 -0.013378226 0.022002514 0.08354857
000350 f2 dd 14 bd 65 2d 0d bd 19 3c fd 3b 23 d2 f4 3b
       -0.036344476 -0.03446712 0.0077281115 0.0074713393
000360 32 23 3c 3c 1f 8e 88 bc b3 a2 88 3d a3 b3 82 3d
       0.011483001 -0.016669331 0.066716574 0.06381919
000370 fc c0 68 3d 7a 9b e7 bc ce 7a d7 bc af cb 83 bc
       0.05682467 -0.02827238 -0.026303675 -0.016088335
000380 8e d4 96 bc 72 f4 a0 bb 22 71 9d bc a5 7a 99 3c
       -0.0184119 -0.0049119527 -0.019218985 0.01873524
000390 fd a8 fe 3c 92 57 36 3d 3e 2b 4e 3d a0 36 04 3d
       0.03108644 0.044517107 0.050334208 0.032278657
0003a0 85 dd 74 bd 83 f6 ab 3c 12 b3 da bc bb ed 0f 3d
       -0.05978157 0.02099157 -0.026696716 0.035138827
0003b0 9a df 92 3c 0c 5f 02 3d 0b 37 10 bd 20 fb 8d 3c
       0.017928887 0.031828925 -0.035208743 0.01733166
0003c0 99 9d 1b 3d 35 af b0 3c 09 2c ea 3b 0f d2 d2 3c
       0.037992094 0.02156792 0.0071463627 0.02573493
0003d0 84 9e 43 bd 56 8e 49 3b f9 cf 57 3d ee 12 de 3c
       -0.047758594 0.0030755005 0.052688573 0.027108636
0003e0 07 32 19 3d 3b 7a 78 bb e1 bf 97 bd 4b 71 5e bc
       0.037401225 -0.0037914652 -0.07409645 -0.013576816
0003f0 6b a2 ad 3d a0 38 b5 3c fd 1c 38 3b a3 4b 63 3c
       0.084782444 0.022121727 0.002809345 0.013873014

network_body._body_endoder.seq_layers.2.weight f4 [256, 256]
000000 3b f7 8e bd 9f 5d 36 bb 92 01 d4 3d ec c3 a9 bd
       -0.06980749 -0.0027826799 0.10351862 -0.08289322
000010 e4 89 5f be 65 80 ca bd 38 23 0e bd 99 92 d6 bd
       -0.21829945 -0.098877706 -0.034701556 -0.1047718
000020 10 fe c7 3d 9a e2 b0 bb 6b 54 63 3b 17 a5 76 bd
       0.097652555 -0.0053981068 0.0034687768 -0.060216036
000030 30 06 4e bc e5 0d b5 bb b1 b6 62 3c 65 dc 9b 3d
       -0.012574717 -0.005525338 0.013837502 0.07610396
000040 27 ac f1 3a c6 ca 14 be 26 1e 53 bd bc d0 92 bc
       0.0018438146 -0.14530477 -0.051542424 -0.017921798
000050 82 3b 44 bd 4d 60 80 bc 09 49 b3 bc d1 46 81 3c
       -0.047908314 -0.01567092 -0.021885412 0.015780838
000060 87 0c 47 bd 55 42 22 bc b1 05 b7 bc e0 4c 41 be
       -0.04859593 -0.00990351 -0.022341581 -0.18876982
000070 87 ca 9a 3b 45 9a 7f 3c 8f d2 3a bb fa 50 b9 3d
       0.00472385 0.015600746 -0.002850685 0.09048648
000080 7f 43 af bd 21 56 81 bd 2a 88 aa bd f1 42 93 bd
       -0.08557796 -0.06315256 -0.083267525 -0.071905024
000090 f5 62 16 bd e4 4d fc bb e1 00 50 3d 83 00 7c bc
       -0.036715467 -0.007699715 0.05078209 -0.015380981
0000a0 72 a3 b7 bd 7f a9 9c 3c c0 1a 76 bc f2 14 e4 3d
       -0.089667216 0.01912379 -0.015021026 0.111368075
0000b0 81 17 a6 3d 5a cb b5 3d a1 9e 93 bd 5a 5f 93 3c
       0.08109952 0.08876677 -0.072079904 0.017989803
0000c0 ca 03 6e bd b5 14 1b 3c 45 12 9f bd 92 2a 15 3d
       -0.058109082 0.009465386 -0.077671565 0.03641755
0000d0 11 e6 82 bd 5a f3 df 3c c6 43 cb 3d 9c 88 20 3b
       -0.06391538 0.027337719 0.09925036 0.0024495488
0000e0 a2 a9 76 bd 81 ef 8b 39 bf 57 a5 bc 0c 9d 0b 3d
       -0.06022037 0.0002669059 -0.020183442 0.03408532
0000f0 87 1a 3f 3d 4f 25 96 bc 00 de 94 3b ea 07 05 bd
       0.046656158 -0.018328337 0.004543066 -0.03247825
000100 6e 92 24 3b b3 67 9c 3d e6 09 fc 3c 9a c0 0d 3d
       0.0025111693 0.076369666 0.030766439 0.034607507
000110 64 7d ed 3d e5 68 09 bd 5c 5b 98 3d 52 83 5e 3d
       0.11596182 -0.0335473 0.074393004 0.054324456
000120 60 d4 1e bd 85 cb 91 3c d3 25 82 bd c5 80 ef bb
       -0.038776755 0.017797241 -0.06354871 -0.0073090517
000130 d1 f1 84 bc f2 da 0b 3d d9 26 b1 bd 56 aa 06 be
       -0.016228588 0.03414435 -0.08649988 -0.13150916
000140 be 13 2f be 96 4b f4 3d b2 d1 97 bc 00 a2 1a be
       -0.17097375 0.119284794 -0.018532608 -0.1510086
000150 02 bc fc 3c 2a 64 22 bd 72 da 0a bd 03 c0 ba 3c
       0.030851368 -0.039646305 -0.033899732 0.022796636
000160 23 75 86 bd 0b a3 b3 bd fb ed b4 3b 46 07 4c bc
       -0.06565311 -0.08771332 0.0055215335 -0.012452906
000170 1e 14 ca bc 6d db 91 3d 7e e9 ea bd 2e a8 f8 bc
       -0.024667796 0.0712193 -0.11470316 -0.030353632
000180 d7 34 56 3c e6 d4 8b 3d d4 cc 97 bd 20 d6 44 3c
       0.013074121 0.068277165 -0.07412115 0.012013942
000190 eb 77 41 3d 52 d0 d8 bd 6f bc 20 bd 38 8d cc bd
       0.047233503 -0.10586609 -0.039242204 -0.09987873
0001a0 c3 30 6f bd 90 3f 68 bd 62 91 ce bc 75 dc c7 3b
       -0.058396112 -0.056701243 -0.025215808 0.0060992786
0001b0 88 8e 7d bd 19 91 60 bc 0b 0a 88 3d 8b e8 75 3d
       -0.061903507 -0.013706469 0.066425405 0.060036223
0001c0 91 66 8c bd 74 0a b8 bd e9 f3 fc bd 24 c6 a1 3b
       -0.068555005 -0.08986369 -0.1235121 0.0049369503
0001d0 30 1f 05 3d 7e 01 ee bd 01 d6 51 bd 1d 9e 56 bc
       0.032500446 -0.11621378 -0.05122948 -0.013099221
0001e0 27 37 61 bd 15 78 a9 bd 3e 2c 9d 3d 1d de 8a bd
       -0.054984238 -0.08274857 0.07674454 -0.06780646
0001f0 3e 10 0d bd 6c 53 a9 bc 21 b9 a7 3b fb 8b 71 3d
       -0.034439318 -0.020669661 0.0051185046 0.058971386
000200 d1 cb cc bd 67 99 7b bd bd 9c 02 3d 04 a3 ea bd
       -0.099998124 -0.061425593 0.03188776 -0.11456874
000210 c1 61 8f bd 2f d2 af 3d 9e 4c 17 be 12 fa b8 bb
       -0.07001067 0.08585011 -0.14775321 -0.005645045
000220 11 18 a8 bd 9e c1 5a 3d 95 5d a3 bc 40 1b e2 3c
       -0.08207715 0.053407304 -0.019942084 0.027600884
000230 33 73 8c bd 9d 18 9a bd a9 ad 37 bd 9f 48 91 3d
       -0.0685791 -0.07524226 -0.04484335 0.070939295
000240 7b af 6f bd dd da 78 3d 89 42 a5 bd b6 7a 52 be
       -0.05851696 0.0607556 -0.08069331 -0.20554623
000250 a0 e0 d8 bd cf 09 06 3d 11 d6 c0 bc 9f ee ea 3d
       -0.10589719 0.032724198 -0.023539575 0.114712946
000260 2e 26 15 be 86 a9 55 3c 28 19 df bc 96 a0 36 3d
       -0.14565346 0.013040906 -0.027233675 0.04458674
000270 66 0f 22 be 8b 63 5b bd 64 df 38 be 29 7a c8 bd
       -0.15826187 -0.05356173 -0.18053967 -0.09788925
000280 67 94 e4 3d 33 27 df bb 19 c9 cf 3b 33 41 00 3c
       0.11161118 -0.006810093 0.0063411114 0.007828045
000290 04 6c 43 bd 4b 86 91 3d 57 f7 ba bd 8c d5 b5 bd
       -0.047710434 0.071056925 -0.091292076 -0.088786215
0002a0 ed 45 18 bd 5a 29 92 3c 93 bc 05 bd a4 9b 1f be
       -0.03717606 0.017841984 -0.03265054 -0.15586716
0002b0 3a 44 69 bd 64 71 d0 bd a2 d9 08 bd 62 e6 d7 3c
       -0.05694983 -0.101778775 -0.033410676 0.026354972
0002c0 2b 1b b0 bd 73 e2 8a 3d 65 dc 95 3d bd 5a 36 3d
       -0.08598932 0.06781473 0.073174275 0.04452013
0002d0 ce 40 9b 3d 96 e5 dc bd ae 19 0c bd 56 f1 bc 3b
       0.0758072 -0.107859775 -0.034204178 0.005766074
0002e0 4e 4b 37 3c d4 1e b2 39 97 75 6b bd d0 f4 95 3d
       0.011187388 0.00033973774 -0.05748519 0.07322085
0002f0 28 70 49 39 a7 55 80 3d f0 21 7f bc d5 10 f6 bb
       0.00019210635 0.06266337 -0.015572056 -0.0075093308
000300 40 08 05 3c 8b 7f e0 3b b8 b4 23 bd 7a 69 e1 bc
       0.008119643 0.006851142 -0.03996727 -0.027516115
000310 fa 99 d1 3c 41 84 d6 3b 66 d2 82 bc cb 48 af 3d
       0.025586117 0.0065465276 -0.015969466 0.08558806
000320 b9 0a ce 3d 50 29 9e bd 01 70 a3 bc 5b 15 34 bd
       0.10060639 -0.077227235 -0.019950869 -0.04396568
000330 fc 8a cb 3d c2 47 72 bd 2f 17 11 3d d1 56 bf bd
       0.099386185 -0.059150465 0.0354225 -0.09342731
000340 fa f2 c5 bd 00 29 e0 3d ee 07 60 39 7f 9d 0b be
       -0.09665485 0.1094532 0.00021365259 -0.13634299
000350 37 25 02 3e d1 2e 1e bd 95 f5 5d 3c 9e 2a 7e 3c
       0.12709509 -0.038618866 0.013547321 0.01551309
000360 82 c7 c1 bd 2a c7 90 bd 73 8d 9f 3d 6d 7f 3b bc
       -0.09461881 -0.070692375 0.07790651 -0.011443955
000370 a1 d7 f1 bd 4b b5 b3 bc ad ac 57 3c 3a f9 1f 3c
       -0.11808706 -0.021937033 0.013163728 0.00976401
000380 fe ba c9 bd df cc fb bc a2 f0 83 bc 6b af 6e 3d
       -0.09850119 -0.030737339 -0.016105954 0.05827276
000390 1f de 8f bd a0 46 7e 3c b3 13 a9 3c 05 ab c9 3d
       -0.07024788 0.015519768 0.020639276 0.098470725
0003a0 5a c8 84 3d e5 b9 d8 bd 5f 02 56 3d bc 70 0e bd
       0.064835265 -0.105823316 0.052248355 -0.03477548
0003b0 0f a9 12 be 6f c1 07 3c e3 01 90 3d e8 25 6a bd
       -0.14322303 0.008285864 0.0703161 -0.057165056
0003c0 a5 fb 3d 3c d3 a8 d8 3d 47 5c 87 ba 8c 3e a0 bd
       0.011595641 0.10579076 -0.0010327183 -0.0782443
0003d0 28 19 d7 3d b6 fb bd bc 1c c9 73 bd bd 72 52 bb
       0.10502845 -0.023191314 -0.059517965 -0.0032111846
0003e0 cc 11 a6 bc 56 c2 1a bd 51 d4 cf bd 1f 7d be bd
       -0.020272158 -0.03778299 -0.10147918 -0.09301209
0003f0 72 3e a6 3d 60 0d 97 3c 9b 76 9c 3d f0 56 c2 3c
       0.08117379 0.018438995 0.0763981 0.023723096

network_body._body_endoder.seq_layers.2.bias f4 [256]
000000 0c 85 7c bd 53 ad 17 bd fc dc 65 bc 67 00 37 bd
       -0.06165032 -0.03703053 -0.014029738 -0.044678118
000010 32 b9 9c 3b 9e 9c e9 bc de 18 85 bc a5 ad 16 bd
       0.004782819 -0.028517064 -0.01624721 -0.036786694
000020 63 0e 2d bd 79 1b b0 bb 1e 01 30 bc 57 d5 b3 bc
       -0.04225005 -0.0053743687 -0.010742454 -0.021952314
000030 d6 db 90 bc da a7 ee bb 18 c4 b2 ba 92 8c 20 bd
       -0.017682951 -0.007283193 -0.0013638763 -0.03919656
000040 57 2c 50 bc db d8 10 bd 33 cb 47 bc 4b 9c 89 bb
       -0.012705884 -0.03536306 -0.012194443 -0.00419954
000050 20 e7 2b bc 1e 92 2f 3d 05 0f c4 bc 1b fc 8e bc
       -0.010492116 0.042863958 -0.023932943 -0.017454198
000060 2b 64 ca 3b d4 7e b4 bc 52 7f ad bc 9d 73 80 bc
       0.0061764917 -0.022033133 -0.021178875 -0.015680129
000070 7d b3 e6 bb 78 9b db bc 45 81 ce bc c5 1f cc bc
       -0.0070404396 -0.026807532 -0.025208125 -0.024917493
000080 32 4e fc bc 5f fd 71 bc 3d 59 47 3b 9e b5 95 bc
       -0.030799005 -0.014769881 0.003041818 -0.018275078
000090 ba 94 17 bd 1f c5 b3 bc 7a f0 d3 bc e5 43 43 bc
       -0.03700707 -0.02194458 -0.025871504 -0.011918043
0000a0 ad 3b b3 bc 38 12 5f bc a6 7a ee bc ee b1 31 bd
       -0.021879042 -0.0136151835 -0.029111218 -0.043382578
0000b0 08 0f a5 3a 54 ec cf bc bd f6 83 bc 73 de cb bc
       0.0012592981 -0.025381245 -0.016108865 -0.024886345
0000c0 7d 96 7f bb 99 6a 84 bc cb bc ff bb 94 07 a4 bc
       -0.003899961 -0.016164111 -0.0078044883 -0.020023145
0000d0 e5 ac 58 bd b1 cf 50 ba 3f 46 f1 3b 66 fe 32 bd
       -0.05289926 -0.0007965519 0.0073631103 -0.043699645
0000e0 67 56 b4 bc af a5 30 bc 2a 2f 1c bd 86 e7 03 bc
       -0.022013856 -0.01078169 -0.038130917 -0.008050805
0000f0 74 fc b3 ba 44 22 f6 bc ab 35 cf bc 8a eb 8b bc
       -0.0013731853 -0.030045636 -0.025294146 -0.017080087
000100 5a dd 02 bc 89 27 fb bc 57 ae e4 bc d7 e2 15 bd
       -0.007987345 -0.0306585 -0.027915163 -0.036593284
000110 71 d9 04 bd fc 0c 54 bd 5a 5b 0a bd 44 49 23 bc
       -0.03243393 -0.051770195 -0.033778526 -0.009966198
000120 4d 1a 00 bd 01 bf b3 bc ee 83 19 bc 0c a6 d2 bb
       -0.031275082 -0.021941664 -0.009369833 -0.0064284857
000130 a6 ab b0 bc ba fb 95 ba 42 60 d4 bc d6 98 85 bc
       -0.021566223 -0.0011442818 -0.025924806 -0.01630823
000140 3d b8 db bc 87 c4 2b bd 7d 88 02 bd b2 94 8f bc
       -0.02682125 -0.04193547 -0.031868447 -0.017526958
000150 a2 63 7b 3c 80 01 67 bd e8 03 4c bc b6 68 1a bd
       0.0153435785 -0.056397915 -0.012452103 -0.037697516
000160 cd 8f 2f bc d4 d1 e1 bc 17 20 fd bc 94 a5 ea bc
       -0.010715437 -0.027565874 -0.03089909 -0.028643407
000170 91 29 7e bc 30 f9 ee bb 86 f7 eb bc 61 bd 77 bc
       -0.01551284 -0.007292889 -0.028804552 -0.015120835
000180 57 25 ab bc c4 24 cb bc 6e f9 a1 bc 2d 47 3b 3c
       -0.020891828 -0.024797805 -0.019772258 0.011430544
000190 e0 15 ae bc c6 92 c0 bc 80 fe 35 bd 14 9d 59 bd
       -0.021250665 -0.023507487 -0.044432163 -0.053128317
0001a0 f3 d1 e2 bb 7e 46 96 bc 60 c9 1e bb 6a ff f0 bc
       -0.0069220006 -0.01834416 -0.0024228916 -0.029418666
0001b0 db da a0 3a 44 9f 52 bd 75 18 7b bc 20 4b 17 bd
       0.0012272255 -0.05142142 -0.015325655 -0.03693688
0001c0 eb 64 ca bc a3 fb cb bc 1e db ea bc 35 e9 ee bb
       -0.024706325 -0.024900263 -0.028668936 -0.007290984
0001d0 2d c9 c2 bc 86 ee d9 bc 02 3f 33 bc 9e a5 7d bc
       -0.023777569 -0.026602995 -0.010940315 -0.015481381
0001e0 e3 0f bc bc fa 9a 39 bd 66 a9 cb bc ac de 08 bd
       -0.022956794 -0.045313813 -0.024861049 -0.03341548
0001f0 cb 6c e1 bc 1b 91 70 bb 96 fe 48 bd 9a 79 32 bd
       -0.027517697 -0.0036707583 -0.049070917 -0.043573
000200 07 0c cf bc 14 ae de bc 65 e6 df bc b0 db d1 bc
       -0.02527429 -0.027182616 -0.02733154 -0.02561745
000210 5f ba 67 bc 45 3d bc bc bd df 90 bc e4 e6 32 bd
       -0.014143555 -0.022978434 -0.017684812 -0.043677226
000220 90 c8 0b bd d9 e6 50 bd 76 b5 a0 bc 37 2f f8 bb
       -0.03412682 -0.051001403 -0.019617777 -0.007573988
000230 6f e8 89 bb e1 86 a3 bc b6 3d 40 bd 96 b7 c4 bc
       -0.0042086164 -0.019961776 -0.046933852 -0.024013322
000240 cb 51 26 bd 99 de 40 bc 82 94 52 bd ca 33 ed bc
       -0.040605348 -0.011771821 -0.05141116 -0.028955359
000250 43 e9 76 bd e9 bb 99 bc e8 d5 e3 bc 8f 2a 17 bd
       -0.06028105 -0.01876636 -0.02781196 -0.03690582
000260 28 ad c9 bc fb e6 ad bc 50 26 e2 bb 58 f8 ea bc
       -0.0246187 -0.021228304 -0.00690154 -0.028682873
000270 de ac a2 bc ec 46 f7 3c 0f 54 96 3b a3 b6 25 bd
       -0.01985782 0.030185185 0.0045876573 -0.04045738
000280 f9 3c 8a bd 73 16 25 3a 27 2b e3 bc bc 8f 97 bc
       -0.06749911 0.00062975957 -0.027730538 -0.018501155
000290 0a 6e 01 bd 15 36 3c bd c4 1c a7 bc bc 95 f5 bc
       -0.031599082 -0.045950014 -0.020399459 -0.029978625
0002a0 78 08 33 bc 97 6b 40 bc 2e 60 0b 3a 6e 92 17 bd
       -0.010927312 -0.011744401 0.0005316761 -0.03700488
0002b0 f2 5e a8 ba e4 de 54 bc ca 3e 04 bd 7f fc aa 3b
       -0.0012845679 -0.012992594 -0.032286443 0.005218088
0002c0 24 8c 0e bd 2e 9a 59 bb 4d 58 13 bd a6 f4 8e 3a
       -0.034801617 -0.003320347 -0.035972882 0.0010906651
0002d0 2e 4f 1a bd b4 9d dd bc 74 e5 a5 bc ab 99 f9 3b
       -0.037673168 -0.027052738 -0.020251013 0.0076171956
0002e0 9a b4 98 bc 5b 1f d8 bc 3f 66 60 3b 8e bf 2d bd
       -0.018640805 -0.026382139 0.003424063 -0.04241901
0002f0 2a bb 5a bd cb 93 ac bc 42 81 a1 bb f3 3a 19 bd
       -0.05340115 -0.021066567 -0.004928739 -0.037409734
000300 16 b4 b0 3c 1a 78 1a bc 40 5a 20 bd 84 ca 8e bc
       0.021570247 -0.0094280485 -0.03914857 -0.017430551
000310 36 64 e3 bc 47 aa cd bb c4 e8 47 bd 47 b4 76 bc
       -0.027757745 -0.006276402 -0.048805967 -0.01505763
000320 0e 41 8b bd b0 d2 91 bc ff 26 4b bc 19 72 e4 bb
       -0.067995176 -0.017800659 -0.012399434 -0.0069716093
000330 dd c5 07 bd c2 81 9c bc 16 68 97 bc 80 19 ec bc
       -0.03314768 -0.019104842 -0.01848225 -0.028820753
000340 8b c7 cd bc fb 7a aa 3b ca 3c 7d bd 74 b8 c1 bc
       -0.025119564 0.0052026487 -0.06182555 -0.023647524
000350 95 5f 82 3c 2e f1 51 bc e1 18 34 bd c7 e5 89 bc
       0.015914718 -0.012813849 -0.04396904 -0.0168332
000360 6f 59 b2 bc a5 61 f5 bb 30 26 83 bb 37 7d 0f 3c
       -0.02177116 -0.007488447 -0.004002355 0.008757881
000370 32 9f d0 bc 08 46 c9 bc 72 30 2d bd 97 bd ec 3b
       -0.025466535 -0.024569526 -0.04228253 0.0072247493
000380 95 5c bd bc 36 59 c1 bc 36 81 bf bc 13 44 b5 bc
       -0.023115436 -0.02360211 -0.023377042 -0.022127187
000390 8b 06 54 bc 6a 25 ec bc e0 c1 8c bd b2 73 49 3c
       -0.012941013 -0.028826434 -0.06872916 0.01229565
0003a0 b1 37 f3 bb a8 3f 78 ba ee 3f a2 bc 6b b0 ea bc
       -0.0074224104 -0.0009469935 -0.019805875 -0.028648576
0003b0 33 99 4e bc d5 b9 ce bc e0 95 bb 3c bc 0d 14 3b
       -0.012609768 -0.025235096 0.022898614 0.0022591194
0003c0 b0 ea 47 bc 4c 8e d4 3b 86 d1 0d bc 55 4e eb bb
       -0.01220195 0.0064866897 -0.008655911 -0.0071809688
0003d0 67 83 97 ba 68 15 a2 bc 01 8a 10 bd 8c 0f 00 bc
       -0.0011559547 -0.019785598 -0.03528786 -0.007816207
0003e0 b6 9b a6 bb 82 80 46 bd 68 42 cb bc 61 05 f6 bc
       -0.00508448 -0.0484624 -0.024811938 -0.030031862
0003f0 15 f3 c2 bc 80 7f 58 bd 47 1e 21 bc e2 b7 31 bd
       -0.023797551 -0.05285597 -0.009833879 -0.043388255

action_model._discrete_distribution.branches.0.weight f4 [4, 256]
000000 e8 34 57 bc 12 34 8a bd 0b 1b 37 bd 42 fa 63 3b
       -0.013135172 -0.06748213 -0.044703525 0.0034786616
000010 a8 83 c4 3c eb 8a 64 3c 13 93 fc bc 19 f2 b9 3b
       0.02398856 0.013949136 -0.03083185 0.0056746122
000020 18 a8 ec 3c 60 05 1d 3d 02 89 8d bc 65 42 42 3d
       0.028888747 0.038335204 -0.017277244 0.0474266
000030 dc 76 89 ba 2e 15 4f 3c ec ca 09 3c 82 9c 4e 3b
       -0.0010487693 0.012639327 0.008410197 0.0031526391
000040 c5 53 03 3d 12 5c 90 3b 52 67 1d bc 95 e4 02 3d
       0.03206231 0.004405507 -0.009607153 0.031956274
000050 a5 e3 d5 3c 54 e9 5d bd 4a 0b 13 3c 72 ef 87 bc
       0.026109526 -0.054177597 0.0089748595 -0.016593669
000060 5f 58 48 bc 42 b4 9d bc 53 9d 55 3c 24 bc 7a b9
       -0.012228101 -0.019250993 0.013037997 -0.00023911946
000070 6f 96 bb 3b b2 17 0d bd 92 8d 6f bd 44 8b 15 3d
       0.00572472 -0.034446426 -0.05848462 0.036509767
000080 b5 5d b7 bb 5a 8b 9a 3b d6 37 12 bc d5 d8 da ba
       -0.0055958875 0.004716319 -0.008924445 -0.0016696701
000090 c3 22 b8 bc ff 79 41 bc 8a 2f 3b bd 32 f1 2c bd
       -0.022477513 -0.011808871 -0.045699634 -0.04222221
0000a0 b3 a7 24 3c c2 5f 0f 3d 96 1c 72 bc 33 ac 11 bc
       0.010049748 0.03500343 -0.014777323 -0.008891153
0000b0 f4 51 2e 3d 84 57 09 3c b8 02 e5 bc db e1 ac bc
       0.042558625 0.008382682 -0.027955398 -0.02110379
0000c0 dc 11 7b 3c 48 3b a5 3c f8 9d a6 3c 10 b2 a3 3c
       0.015324082 0.020169869 0.020338997 0.019982368
0000d0 da 8f 4d 3d 19 0a cd 3b 02 1f b5 bc 44 50 59 bb
       0.050186016 0.0062573073 -0.022109512 -0.0033159414
0000e0 f3 43 0a 3d 78 76 03 3d 32 ff f4 bc 86 58 90 bc
       0.033756208 0.032095402 -0.029906843 -0.017620336
0000f0 1b ab 22 bd 02 e1 e7 3c c6 9f 57 3c 17 fa 94 bc
       -0.03971396 0.028305534 0.013160652 -0.018185658
000100 fa e0 f8 3c 8b 9f b8 bb 07 75 ed 3b 7b 4f 08 3c
       0.030380715 -0.0056342534 0.0072466168 0.008319731
000110 13 ff 25 bb 99 06 59 3d b8 10 ed bc 1a 39 9c bb
       -0.0025329038 0.052984808 -0.028938636 -0.004767549
000120 95 d7 40 3a 2b 6e 1b ba 9c ec 1e bc 18 a8 30 bc
       0.0007356343 -0.0005929197 -0.009699967 -0.010782264
000130 5c 60 09 3d bd e7 54 3d 62 5e fd 3b 7a cf 06 3c
       0.03353916 0.051978815 0.0077321986 0.008228177
000140 e4 22 b9 bc 79 74 56 bd a5 27 24 38 75 7c 22 3d
       -0.022599645 -0.05235717 3.913757e-05 0.039669473
000150 0b 04 59 3d 58 07 82 bc 14 ad 88 3a d1 73 02 3c
       0.05298237 -0.015872642 0.0010427558 0.007962183
000160 72 7c 14 bc 61 27 b1 3c 39 cf bf bc 44 3e d2 3c
       -0.009062873 0.021625223 -0.023414241 0.025664456
000170 d4 af 81 bc 10 14 09 3c c4 ff 86 3a 6c 8d 81 3b
       -0.015830912 0.0083666 0.0010299613 0.0039536264
000180 50 ab 66 3c 51 89 f0 bc 69 c2 5d 3c 15 fe 88 3d
       0.01407893 -0.029362353 0.0135351205 0.06689087
000190 10 7c db bc bf b3 4e 3c 61 a5 cf bb 45 05 5c 3c
       -0.026792556 0.012616097 -0.0063368534 0.013428991
0001a0 5a 5d b5 3c 29 f3 ce 3c c3 7d 19 3c 34 da 25 bd
       0.02213924 0.025262432 0.009368363 -0.040491298
0001b0 47 4e b4 3c 62 44 71 bc 50 e3 3d 3d cc 61 f1 bb
       0.022009982 -0.014725776 0.04635936 -0.0073663946
0001c0 df 7d 94 bb 95 19 0e 3b f7 5f 92 bb 9b 4b c6 bc
       -0.0045316066 0.0021682729 -0.0044670063 -0.024205973
0001d0 64 ae 7c 3d c9 09 ee 3b f0 ea 04 3d 5f e2 e6 3c
       0.06168975 0.00726435 0.032450616 0.028184114
0001e0 69 fe 3b 3c c1 7f 46 bd a6 1a 08 3d 82 64 28 bd
       0.01147423 -0.04846168 0.03322854 -0.041111477
0001f0 df 3f 39 3d 94 6f d5 ba 83 f5 aa ba 02 df c7 3c
       0.045226928 -0.0016283863 -0.0013043139 0.02439833
000200 b2 0e 3d 3d 96 94 7a bb 7b 36 0b 3d 49 75 57 bd
       0.046156593 -0.0038235537 0.033987503 -0.052602086
000210 5b b7 22 3c 38 1c c7 bb 64 ec c1 3c 32 61 ed 3b
       0.009931411 -0.006076362 0.02367229 0.0072442526
000220 3c cd d7 bb a0 e9 02 bd a1 6b 0f bd 44 38 8a 3c
       -0.006585745 -0.031961083 -0.035014752 0.016872533
000230 f9 69 5c bd db 7f 11 3c d2 68 03 bd bc 67 cf bb
       -0.053812 0.008880581 -0.032082386 -0.006329505
000240 c2 2a 43 bc 43 1f cc 3c e7 6f 82 3b f6 f8 e3 3c
       -0.01191205 0.02491725 0.003980625 0.027828675
000250 5d 55 4d bc b8 c4 79 bc 56 37 85 3c c8 2e f0 39
       -0.012532559 -0.015244655 0.016261738 0.00045811222
000260 c0 0f 13 3d 89 df cd bc be 06 14 3c 0e 5b 1d 3c
       0.035903692 -0.025131004 0.009034811 0.009604229
000270 c1 95 a6 3c da f0 83 3c eb 08 3d bd 0f 2e 02 3c
       0.02033508 0.016106058 -0.046151083 0.007945552
000280 20 71 b1 3b 95 9a 16 3c 94 b8 79 3c 13 97 1d bb
       0.005415097 0.009192129 0.015241761 -0.0024046346
000290 d7 1a 8c bc fd 2c 34 3c e1 1f 91 bb 5f 36 20 3d
       -0.017102642 0.010997054 -0.004428849 0.039114352
0002a0 fd 03 83 3c 11 a3 c9 3b 82 5c 81 bc 90 02 d7 3c
       0.015993113 0.0061534722 -0.015791181 0.02624634
0002b0 78 e0 60 3d af 09 0b bd b0 56 03 bc 09 96 45 3d
       0.05490157 -0.033944782 -0.008016273 0.048238788
0002c0 08 65 b8 bc a1 66 cd 3c c3 73 9f bc 2e 15 0c 3c
       -0.022509113 0.025073351 -0.01946438 0.0085499715
0002d0 83 47 76 3c c2 2d 1e 3a 19 41 fb 3b 80 df 20 3c
       0.015031698 0.000603404 0.0076676724 0.009818912
0002e0 75 a4 9a 3c da 46 aa 3c bf 47 fa 3a c9 a3 3c bc
       0.018877247 0.020785738 0.0019094868 -0.011513659
0002f0 b0 c9 81 bb 6e 8e 5e bc df 61 d6 3c 12 8c 2d 3c
       -0.0039608106 -0.013583763 0.026169715 0.010592477
000300 03 64 09 bd b2 78 7a 3c 91 e9 07 bc 4e 76 09 3d
       -0.033542644 0.015287565 -0.008295433 0.03356009
000310 51 3b 36 bc ca 0c 4f bc 0a 6f db 3c 20 13 fd bc
       -0.011122541 -0.0126373265 0.026786346 -0.030892909
000320 1c df 60 3d dd 08 82 3c 3c aa 11 3c 6d 2a 43 3d
       0.054900274 0.015873367 0.008890685 0.047647882
000330 55 09 0e 3c ee cc 03 bd af 16 31 bd 3e 9e cc 3c
       0.008669217 -0.032177858 -0.043234523 0.0249778
000340 67 90 d6 3c c7 f5 c6 3c 8c 22 09 bb 2b ec 54 bc
       0.026191903 0.024287118 -0.0020925133 -0.01299576
000350 52 5b a4 bc 4f e5 c6 3c 88 af 82 bb 15 67 aa 3c
       -0.020063076 0.024279265 -0.00398821 0.020801106
000360 11 00 46 3d 41 08 f1 3a 30 4e a6 3c af 94 b0 bb
       0.048339907 0.0018389301 0.020300955 -0.005388818
000370 32 63 88 bb 92 4d 85 3c d5 60 70 3d 5e 05 03 bd
       -0.0041622156 0.01627234 0.058686096 -0.03198754
000380 33 15 fe 3c 0a 96 f0 3c 60 ba 1a 3d 89 d8 29 3d
       0.031015968 0.02936842 0.037775397 0.04146627
000390 71 90 71 bc 5d 13 e4 bc 27 62 15 bd df 82 69 bd
       -0.01474391 -0.027841264 -0.03647056 -0.057009574
0003a0 80 56 cf bc d5 ed 1d 3d ac 49 39 bd 2b 83 cd 3b
       -0.025309801 0.038556892 -0.045236275 0.00627174
0003b0 5b 81 03 3b d2 e5 66 3d 05 9f 1d bd cd af b0 3c
       0.0020066116 0.056371517 -0.03848173 0.021568203
0003c0 b8 28 a9 3c 3e 7e 3d 3c 60 91 d7 3a df bd ec 3c
       0.020649299 0.011565743 0.0016446523 0.028899131
0003d0 3e 3b 9d 3c cf a5 45 3c 7b 31 a1 3c 89 98 32 3c
       0.019193288 0.012063458 0.019676914 0.010900625
0003e0 2d 31 b8 3c d1 66 18 3a 9a a1 f9 3c 7f 02 35 3d
       0.022484386 0.00058136607 0.030472565 0.044191834
0003f0 b2 f2 78 bc bd 4b a9 b9 82 10 88 bb 85 dd 66 bc
       -0.015194582 -0.0003229062 -0.0041523585 -0.0140909

action_model._discrete_distribution.branches.0.bias f4 [4]
000000 86 f3 14 3d 46 b2 d8 bb 7b 3d 1b bc dc 97 59 bc
       0.036365055 -0.0066130487 -0.009475107 -0.013280835

action_model._discrete_distribution.branches.1.weight f4 [3, 256]
000000 b8 9a 8d bb d6 9c a9 3c 2b 90 a0 bb 3a ba b6 3a
       -0.0043214224 0.020704668 -0.0048999987 0.0013940998
000010 11 54 2d 3d ed 40 3c bb c6 da ff ba 31 ff d8 bc
       0.0423165 -0.0028725222 -0.0019520156 -0.026488872
000020 d8 8c 5d 3d 1c 7e 92 3c 52 63 a0 3c 2a ea 76 bc
       0.054089397 0.0178824 0.01957861 -0.0150704775
000030 4d f6 b3 3a 1f dd 16 3d 67 3b af 3b de 78 83 bb
       0.001373002 0.03683197 0.0053476575 -0.004012211
000040 9e 80 3f 3c 09 d6 80 3c e8 34 e1 3c 06 c3 1c bc
       0.01168838 0.01572706 0.027491048 -0.009567982
000050 16 fe 9f 3c 74 c3 dc 3c dc c8 b8 3b a7 e1 da 3b
       0.019530337 0.026948668 0.0056391787 0.006679732
000060 e3 4b b0 3c 5f 98 f8 bb b3 6f f2 bb 6d f4 76 bc
       0.02152056 -0.0075865234 -0.0073985695 -0.015072924
000070 b7 17 72 3c 49 59 83 3c d0 ca c5 bc bd f8 7e 3d
       0.014776162 0.016033785 -0.02414456 0.062248934
000080 be 38 c7 39 7f 1f 13 3a e4 8c c0 bb 48 5f 84 3b
       0.00037998514 0.0005612298 -0.0058761705 0.0040396787
000090 c4 19 90 bc af 86 a6 bb 49 29 a1 3c 92 21 e1 3b
       -0.017590411 -0.0050819735 0.019673007 0.006870457
0000a0 78 86 5a bc 59 79 81 3c 0a b0 e9 3c fc 4d 43 3b
       -0.013337724 0.015804933 0.028526325 0.002980112
0000b0 4d 4a 2b 3c 27 d3 29 3c 89 d9 03 3c 48 de ff bb
       0.010454726 0.010365284 0.00804747 -0.0078084804
0000c0 cf 8a 02 3c 53 9e 5a bc 30 b6 44 bc 24 e6 32 3c
       0.007967665 -0.0133434115 -0.0120063275 0.010919128
0000d0 16 d5 85 3d 1a 52 28 3c 3e cd 5b bb 4b c6 0a bc
       0.065347835 0.010273481 -0.0033539082 -0.008470128
0000e0 24 90 2e 3d 24 e4 1f 3c ea b6 1b 3d 63 95 ac bb
       0.042617932 0.009758983 0.038016237 -0.0052668317
0000f0 c0 7e 60 ba 9e 8c 12 3d 95 a1 01 bc bd 3a 67 3a
       -0.0008563809 0.035778634 -0.007912059 0.00088207034
000100 fd eb 1e bc 84 73 82 bc 98 a6 05 3d be a0 f7 3b
       -0.009699819 -0.015924223 0.03262958 0.0075570038
000110 3f f6 85 ba c5 be 08 3d 1a f8 2a bd 6a 9b c2 3c
       -0.0010220482 0.033385057 -0.041740514 0.023755748
000120 e7 e8 08 3b e4 2b 8f 3c 08 a4 13 bc b7 ae c5 3c
       0.0020890774 0.017476983 -0.009011276 0.024131162
000130 5b 22 dd bb c6 ea 57 3c a6 94 07 3b e9 70 c8 3a
       -0.0067484803 0.013178533 0.0020687967 0.0015292439
000140 7c 00 16 bd 8d e9 ff bb c9 dd 3c 3c 19 fb 05 bc
       -0.036621556 -0.007809824 0.011527487 -0.008177542
000150 90 b6 61 3c 93 f0 22 bd 33 ca 38 3c 3e 65 b4 bb
       0.013776436 -0.03978021 0.011278677 -0.005505233
000160 37 50 6a 3b b2 20 06 3d d5 a3 9d bc 72 31 64 3c
       0.0035753378 0.032746024 -0.01924316 0.013927804
000170 00 f1 94 3b 89 c2 24 bb 39 91 5e 3c 4f cc d9 3b
       0.004545331 -0.0025140366 0.0135844285 0.00664667
000180 3d 7b ad 3c a4 ec bc bb 06 4e 8c 3a ae 0f db 3c
       0.021176929 -0.0057655144 0.0010704405 0.026740875
000190 f2 6d be bc 9a c5 95 bc e5 97 8e ba c5 d3 24 3a
       -0.023245785 -0.0182827 -0.0010879008 0.00062876596
0001a0 46 35 43 bc 9e 6c d3 3c 41 71 b8 3a 71 37 97 bc
       -0.011914557 0.025808629 0.0014071838 -0.018459054
0001b0 5d e8 9d b9 71 da 8a 3b 23 87 01 3d b0 6e 46 bc
       -0.00030118498 0.004237466 0.031623017 -0.012111351
0001c0 4b f3 1e 3b 90 e9 c3 bb fb 5e a3 bc 17 63 07 bb
       0.00242539 -0.0059787706 -0.019942751 -0.0020658427
0001d0 b2 65 e1 3c f5 d4 98 bb 6d 5f b5 39 b4 bd 19 bb
       0.027514312 -0.0046640583 0.00034594108 -0.002345902
0001e0 c3 14 fd ba 80 e0 87 bc f6 f1 3d 3d 2b 4e 7a bc
       -0.0019308556 -0.016586542 0.04637333 -0.015277426
0001f0 1f 62 6e 3d 21 9c b9 3b dd 4e 39 3c 6d 30 7b 3c
       0.058199044 0.005664364 0.011310306 0.01533137
000200 24 8b c3 3c f9 c5 d3 3b 56 93 3c bb d2 41 6c 3c
       0.023870058 0.006462809 -0.0028774342 0.01441999
000210 f6 01 e4 3c 8f ae a6 3c 55 db b1 3b 1f cb dd bb
       0.027832966 0.020346908 0.0054277577 -0.0067685987
000220 35 a6 8a ba 19 b7 56 3c 9d 3a 86 bb 00 d6 1a 3c
       -0.0010578098 0.013105177 -0.0040963427 0.009450436
000230 24 10 7d 3c 09 60 8d bc 4b 9f 07 3c 85 93 ba 3c
       0.015445743 -0.017257707 0.0082777245 0.02277542
000240 a5 57 ee bc 33 1d 7d bb be 6a 94 3c 54 ab 30 3c
       -0.029094527 -0.003862214 0.018117305 0.010783035
000250 c2 34 91 bb 65 c0 07 3d ec 01 69 3c 9e 57 92 3b
       -0.004431338 0.033142466 0.01422165 0.004466011
000260 2e 7f e1 3c b1 b0 a4 3b 00 a4 da 3a a8 ac a7 3c
       0.027526464 0.005025946 0.0016680956 0.020468071
000270 ec b9 bb 3c be c7 b4 bc fb 50 db bc bb ab c6 3c
       0.022915803 -0.0220679 -0.026772013 0.02425181
000280 59 93 fc 3b 57 3f f0 3b 8f 82 23 3c 0a 38 b8 37
       0.007707995 0.0073317694 0.009979858 2.1960604e-05
000290 41 86 ea bc eb a9 21 bc ac 79 13 bc 08 2e 1f 3d
       -0.02862847 -0.009867172 -0.009001177 0.03886226
0002a0 3f 83 e1 bc 78 73 ab 3b 7a ad 45 bb d3 2f 06 3d
       -0.027528403 0.005232271 -0.0030163215 0.032760452
0002b0 25 29 48 3d 52 86 dc bb 33 38 0a bb 77 a9 57 bc
       0.048867363 -0.0067298794 -0.0021090626 -0.013162962
0002c0 a3 c6 0a 3c b0 d2 50 3c 24 e2 15 3a 09 03 a1 3c
       0.00847021 0.012745544 0.00057175965 0.019654768
0002d0 cf 92 cd ba 6c 4a 07 bd ac 51 0b 3b f8 de 61 3c
       -0.0015684011 -0.03302996 0.0021258397 0.01378607
0002e0 4a 45 15 3c 27 4f 0d 3c 59 79 bb 3c 57 a8 ba bb
       0.009110758 0.008624828 0.022885012 -0.005696337
0002f0 f3 f6 93 ba d4 04 f2 3c 14 64 2f 3c 41 bf 90 3c
       -0.0011288807 0.029543318 0.010705013 0.017669322
000300 29 b4 3b bc de ec 40 3c ac 3f b7 3b cf 6b 1a 3d
       -0.011456528 0.011775224 0.005592307 0.03770047
000310 89 e0 b2 bc 84 36 de 3b 66 69 fc 3c 77 dc bf 3b
       -0.021835582 0.006781401 0.030811977 0.005855139
000320 2b d1 60 3d 59 67 56 3c 11 5d ac 3c 71 7f 80 3c
       0.054886978 0.013086163 0.021040471 0.015685769
000330 56 1c 9d 3c 88 04 f4 bc 5d 81 18 bc d0 ba da 3b
       0.01917855 -0.029787317 -0.009308186 0.006675102
000340 d5 43 2f bc 4d ed 19 3c 70 23 bb bc a4 d5 86 bc
       -0.010697325 0.009394956 -0.022844046 -0.016459294
000350 a7 81 b2 3c fe fa 37 3c f1 6f 4a bc 97 23 62 3c
       0.021790339 0.011229275 -0.0123557905 0.013802431
000360 ce 0b 5e 3b e2 53 a5 3c b9 b4 d3 bc d4 dd d7 bb
       0.0033881548 0.0201816 -0.025843011 -0.0065877233
000370 7b 2f ba 3b 54 6e 82 3a d7 3b 50 3d 02 bf 7d 3c
       0.0056819296 0.0009951093 0.050838318 0.015487434
000380 12 1d c0 bb f0 61 54 3d ac ac b2 3c 46 e5 70 3d
       -0.0058628405 0.051851213 0.021810852 0.058812402
000390 4d 4c 10 3d fb 45 3b bb 39 55 a0 bb 65 a4 05 3d
       0.035229016 -0.0028575647 -0.004892972 0.032627482
0003a0 bb c7 00 3d e9 0b 89 3c ea 15 36 bd 1b 3f 21 3c
       0.031440478 0.016729312 -0.044454493 0.009841706
0003b0 6f 1b a0 bc 3a 80 68 3d 16 b5 af 3c 0a 4d 92 3c
       -0.019544331 0.05676291 0.021448653 0.017859
0003c0 aa 5a c7 3c 55 ee c5 3c 17 13 7f bc 41 c3 23 bb
       0.024335224 0.024161497 -0.015568516 -0.0024988207
0003d0 52 a7 38 3c 38 d0 f9 3b aa 37 b1 b7 24 06 d4 3c
       0.011270361 0.0076236986 -2.1125965e-05 0.025881834
0003e0 7d 1e 25 3b cd 7f 7a bb 98 bc 8c 3c 15 ea 0b 3c
       0.0025195174 -0.0038223148 0.017179772 0.008539696
0003f0 fd 68 72 bc 21 1a e9 3c a7 86 89 3c 3e 4d d3 bc
       -0.014795539 0.028454842 0.01678784 -0.025793668

action_model._discrete_distribution.branches.1.bias f4 [3]
000000 2e 76 ae 3c 0e ce 7b 38 b7 0d a4 bc
       0.021296587 6.0034967e-05 -0.020026071

onnx::Div_88 f4 [45]
000000 91 b1 d5 39 b8 0a fb 3e 87 ca b1 3e 6d 5c f5 3e
       0.00040758823 0.49031615 0.3472483 0.47922078
000010 22 61 bc 3e 91 b1 d5 39 cf 56 ff 3e 4a fd 84 3e
       0.36792856 0.00040758823 0.49870917 0.25974494
000020 a3 e8 e4 3e 61 04 be 3e 91 b1 d5 39 97 12 ff 3e
       0.44708738 0.37112716 0.00040758823 0.4981887
000030 f7 ac 99 3e dd 45 d5 3e c0 4d a8 3e 91 b1 d5 39
       0.30014774 0.41654864 0.3287182 0.00040758823
000040 cf 2e fd 3e 18 94 93 3e 30 bb f6 3e 13 01 cd 3e
       0.49449775 0.28823924 0.48189688 0.40039882
000050 a8 78 0a 3c 34 e2 ff 3e 40 b1 8d 3e cf ed e5 3e
       0.008451618 0.49977267 0.27674294 0.44907996
000060 ad 90 b3 3e 91 b1 d5 39 9c 4a f9 3e 03 28 73 3e
       0.35071316 0.00040758823 0.48689735 0.23745732
000070 fc b6 fd 3e b2 da d1 3e 32 e4 8e 3c 85 39 fb 3e
       0.49553668 0.40987164 0.017442796 0.4906732
000080 c0 81 8e 3e e9 00 f7 3e fd 7c b1 3e 91 b1 d5 39
       0.27833366 0.48242882 0.3466567 0.00040758823
000090 ee 65 f7 3e c3 af 90 3d 56 ed ff 3e 52 23 b0 3e
       0.48319954 0.07064774 0.4998576 0.34401947
0000a0 91 b1 d5 39 3e 4e e0 3e b3 49 33 3e 49 56 fc 3e
       0.00040758823 0.43809694 0.17508583 0.4928458
0000b0 95 b2 8e 3e
       0.27870622

onnx::Div_91 f4 [6]
000000 74 a8 f2 3e 8f 9a 9c 3e a3 71 f2 3e 69 c4 9b 3e
       0.47394145 0.3058667 0.47352323 0.30423287
000010 50 3b f2 3e 31 ec 9a 3e
       0.47310877 0.30258325

onnx::Div_94 f4 [20]
000000 ec f1 60 3e 10 1a 17 3a f1 64 0c 3f 57 3f bd 3e
       0.21967286 0.00057640765 0.54841524 0.36962387
000010 e9 ab 18 3f eb 66 ef 39 91 b1 d5 39 21 d1 ee 3e
       0.59637314 0.00045662312 0.00040758823 0.46643928
000020 a5 37 fe 3e 20 36 ba 3e 94 c2 a6 3e 91 b1 d5 39
       0.49651828 0.3636942 0.32570326 0.00040758823
000030 91 b1 d5 39 91 b1 d5 39 91 b1 d5 39 91 b1 d5 39
       0.00040758823 0.00040758823 0.00040758823 0.00040758823
000040 91 b1 d5 39 91 b1 d5 39 91 b1 d5 39 91 b1 d5 39
       0.00040758823 0.00040758823 0.00040758823 0.00040758823
