Usable_Data/one_car_self_park_final_3/PKWParking/PKWParking-18432.onnx (onnx, 353491 bytes, 15 tensors)

discrete_act_size_vector f4 [1, 2]
4.0 3.0
00000000: 0000 8040 0000 4040

network_body.observation_encoder.processors.0.normalizer.running_mean f4 [45]
0.0 0.011772364 0.06406988 0.90457344 0.96323115 0.0 0.2497152 0.058699075
0.63277817 0.7469727 0.0 0.17474094 0.10855533 0.6328867 0.8502335 0.0
0.38143557 0.120381914 0.34508753 0.5831658 0.0 0.5534097 0.043183424 0.19692944
0.61898977 0.0 0.7261976 0.019204687 0.15238973 0.49849775 0.0 0.7787662
0.0 0.17924374 0.5556561 0.0 0.9506862 0.0 0.04079639 0.48853895
0.0 0.118428886 0.0 0.8628547 0.9694426
00000000: 0000 0000 e0e0 403c 1237 833d 2092 673f
00000010: 5196 763f 0000 0000 57b5 7f3e 716e 703d
00000020: c0fd 213f 9a39 3f3f 0000 0000 4aef 323e
00000030: 4252 de3d dd04 223f e7a8 593f 0000 0000
00000040: 864b c33e cb8a f63d 50af b03e 5b4a 153f
00000050: 0000 0000 42ac 0d3f 1ae1 303d dfa7 493e
00000060: 1d76 1e3f 0000 0000 16e8 393f 2653 9d3c
00000070: 0e0c 1c3e 193b ff3e 0000 0000 395d 473f
00000080: 0000 0000 ac8b 373e 7a3f 0e3f 0000 0000
00000090: 2c60 733f 0000 0000 1e1a 273d c721 fa3e
000000a0: 0000 0000 d88a f23d 0000 0000 0ce4 5c3f
000000b0: 642d 783f

network_body.observation_encoder.processors.1.normalizer.running_mean f4 [6]
0.74268967 0.85336566 0.7432323 0.85399055 0.7437748 0.854615
00000000: e920 3e3f 2c76 5a3f 7944 3e3f 209f 5a3f
00000010: 0668 3e3f 0cc8 5a3f

network_body.observation_encoder.processors.2.normalizer.running_mean f4 [19]
0.8635056 0.031837735 0.0073960377 0.01217412 0.50502294 0.0 0.6830142 0.65626854
0.4061147 0.18077633 0.050163493 0.006883151 0.028134722 0.0 0.0 0.0
0.0 0.0 0.0
00000000: b40e 5d3f 4968 023d 765a f23b f675 473c
00000010: 2f49 013f 0000 0000 05da 2e3f 3701 283f
00000020: 44ee cf3e 6e1d 393e 3c78 4d3d 0e8c e13b
00000030: ca7a e63c 0000 0000 0000 0000 0000 0000
00000040: 0000 0000 0000 0000 0000 0000

network_body._body_endoder.seq_layers.0.weight f4 [256, 70]
-0.12159599 0.10570172 0.16237314 0.18066525 0.032748945 -0.04204666 -0.14819965 -0.3442055
-0.03151934 0.02911206 0.010685909 -0.15894423 0.16114177 -0.12597148 -0.17909735 -0.09233816
-0.011676109 0.031782884 -0.057005975 -0.16620524 0.040974267 0.25735256 0.30326313 0.024694499
0.10809991 -0.021073762 0.14348817 0.11265188 0.08656229 0.1920098 0.19051538 -0.10336707
-0.0027218924 -0.08968462 0.23674677 0.021594541 -0.08787867 -0.23318627 -0.020337382 0.06210396
-0.04449959 -0.05975862 -0.16617967 -0.21853475 0.13187248 -0.07414392 0.15467815 -0.07648858
-0.1632233 0.17658073 -0.10381839 -0.19224414 0.044066284 0.21810335 0.2108328 0.06853888
0.020600645 0.065512255 -0.21782993 0.086283416 -0.13699774 0.12577197 -0.06966861 0.13807455
0.10928689 -0.1321709 0.114832014 0.023821993 0.096903734 -0.022589805 -0.13923848 -0.067619495
0.09463363 0.05105574 0.02127823 0.0007139413 -0.15072335 0.249684 -0.01718744 0.0866703
-0.092769906 0.12609255 0.021588208 0.21858582 0.08995135 -0.02388945 -0.1517925 -0.046257883
-0.19593152 -0.11157176 0.020897217 0.06367391 0.019926947 -0.28345078 0.17429692 -0.28692222
-0.01693505 -0.1265738 0.16892147 0.011200051 0.20646949 -0.01263849 0.12914795 -0.13600178
0.13767467 -0.12211833 0.09035581 0.102361605 0.22380647 0.019117925 0.056595817 0.13121183
-0.11048417 0.03929916 0.25315624 -0.09957125 -0.0025542288 0.058366142 -0.037053727 0.030174196
-0.049986187 -0.08007668 -0.00825695 0.12162164 -0.10985728 -0.041565377 0.042193342 0.094426446
0.28159398 -0.06781239 -0.0347984 0.22957267 0.16373716 0.16689914 0.08136083 0.1795011
0.014446731 0.28512046 0.11379863 -0.03513229 0.070030116 -0.19515707 0.04499203 0.010009482
-0.03162091 -0.051048 -0.09729128 0.006323444 0.10614908 0.04605588 -0.14230041 0.27421218
-0.026339248 0.22142166 -0.07543062 0.02253421 -0.060061596 -0.008124042 -0.1369596 0.19077703
0.066767834 -0.07023623 0.13852836 0.17518593 0.06909836 0.0981167 0.040673498 0.14231572
0.16190831 0.20288798 0.05525663 -0.09096692 -0.01804026 0.066086814 0.026822282 -0.08063963
-0.008558065 0.12638831 -0.014739761 -0.029760063 -0.061298132 -0.26427543 0.005105073 0.09159079
0.14212246 0.017279921 -0.10965512 -0.10331086 0.12717262 -0.28755566 -0.0030531904 0.05215744
0.03873574 -0.19422428 0.11339952 -0.22819842 -0.10569446 -0.14860216 0.05282007 0.030973839
-0.16966422 0.1812791 0.057224657 -0.015235072 -0.08992838 0.11267355 0.06025482 -0.07685311
0.0037955528 -0.019184712 0.1011103 0.16198477 0.07706686 0.033229273 -0.013318947 -0.022067973
-0.05841991 0.08999578 -0.08853959 0.2178991 -0.15221696 -0.08173879 -0.085044496 -0.14046559
-0.13619515 0.077069074 0.04174756 0.13483001 0.05694593 0.09768669 -0.10318955 0.0036257762
0.033496924 -0.23376921 -0.010906284 -0.007196718 0.0058844276 0.02059679 0.083773926 -0.009178127
0.07743481 -0.008054769 -0.22526161 -0.069826804 0.18992499 -0.03426974 -0.037488528 0.19536597
0.052999534 -0.12920408 -0.030067641 -0.060063075 -0.14442188 -0.0056728316 -0.056610253 0.14444311
00000000: 5207 f9bd 257a d83d 2545 263e 5000 393e
00000010: c223 063d 1e39 2cbd a6c1 17be b43b b0be
00000020: 6c1a 01bd 6a7c ee3c f313 2f3c 47c2 22be
00000030: 5902 253e abfe 00be 4c65 37be ca1b bdbd
00000040: 274d 3fbc c52e 023d 197f 69bd b531 2abe
00000050: a2d4 273d b7c3 833e 4e45 9b3e 1e4c ca3c
00000060: 7c63 dd3d e2a2 acbc 90ee 123e 07b6 e63d
00000070: 9247 b13d 389e 443e 7716 433e 1db2 d3bd
00000080: c761 32bb 92ac b7bd bf6d 723e 09e7 b03c
00000090: bbf9 b3bd 62c8 6ebe 959a a6bc b960 7e3d
000000a0: 3445 36bd 74c5 74bd 012b 2abe 93c7 5fbe
000000b0: 9409 073e c4d8 97bd f363 1e3e 0ba6 9cbd
000000c0: 0224 27be 94d1 343e bc9e d4bd a6db 44be
000000d0: d97e 343d 7c56 5f3e 8ee4 573e 1d5e 8c3d
000000e0: afc2 a83c 4a2b 863d cf0e 5fbe 5cb5 b03d
000000f0: 2349 0cbe 5eca 003e 6bae 8ebd 6a63 0d3e
00000100: ced1 df3d cf57 07be 0c2d eb3d 5726 c33c
00000110: 7775 c63d 410e b9bc 8894 0ebe 177c 8abd
00000120: 47cf c13d d31f 513d af4f ae3c ca27 3b3a
00000130: 3957 1abe 2aad 7f3e adcc 8cbc 3380 b13d
00000140: 26fe bdbd 681e 013e c1d9 b03c f6d4 5f3e
00000150: 6a38 b83d cfb3 c3bc 7e6f 1bbe e878 3dbd
00000160: 46a2 48be bc7f e4bd a430 ab3c 7867 823d
00000170: d63d a33c 7620 91be e47a 323e 78e7 92be
00000180: 60bb 8abc 909c 01be c0f9 2c3e 6b80 373c
00000190: bd6c 533e ab11 4fbc 5c3f 043e 0d44 0bbe
000001a0: 97fa 0c3e 2d19 fabd 780c b93d f6a2 d13d
000001b0: 862d 653e 329d 9c3c 04d1 673d 655c 063e
000001c0: 8645 e2bd 28f8 203d b29d 813e 03ec cbbd
000001d0: d964 27bb 5611 6f3d a6c5 17bd e02f f73c
000001e0: 51be 4cbd 3eff a3bd 2948 07bc c414 f93d
000001f0: dbfc e0bd 7540 2abd edd2 2c3d a762 c13d
00000200: 162d 903e 39e1 8abd c488 0ebd 1915 6b3e
00000210: b7aa 273e 9ce7 2a3e 82a0 a63d 23cf 373e
00000220: fbb1 6c3c 4ffb 913e 420f e93d e0e6 0fbd
00000230: f36b 8f3d 41d7 47be 9049 383d cffe 233c
00000240: ed84 01bd b517 51bd a740 c7bd e534 cf3b
00000250: b064 d93d 17a5 3c3d 33b7 11be 8a65 8c3e
00000260: 68c5 d7bc 5cbc 623e 5e7b 9abd aa99 b83c
00000270: 2603 76bd b41a 05bc 233f 0cbe 0e5b 433e
00000280: 93bd 883d 03d8 8fbd 61da 0d3e f163 333e
00000290: 7183 8d3d 69f1 c83d 4199 263d 36bb 113e
000002a0: 4bcb 253e dec1 4f3e c754 623d dd4c babd
000002b0: 2bc9 93bc 8658 873d 67ba db3c 6426 a5bd
000002c0: 2037 0cbc f06b 013e 0a7f 71bc 60cb f3bc
000002d0: c013 7bbd 1c4f 87be 7548 a73b f493 bb3d
000002e0: 8d88 113e 9f8e 8d3c dd92 e0bd a594 d3bd
000002f0: 8a39 023e 7f3a 93be 0918 48bb 0aa3 553d
00000300: 5ea9 1e3d bbe2 46be 023e e83d d9ac 69be
00000310: 5676 d8bd 2a2b 18be dc59 583d d9bc fd3c
00000320: 75bc 2dbe 3aa1 393e 6764 6a3d 869c 79bc
00000330: 5f2c b8bd 64c1 e63d c2cd 763d 2a65 9dbd
00000340: cfbe 783b 4229 9dbc eb12 cf3d 56df 253e
00000350: 3bd5 9d3d 6b1b 083d b637 5abc e5c7 b4bc
00000360: b749 6fbd b54f b83d 3f54 b5bd f120 5f3e
00000370: c3de 1bbe ab66 a7bd cf2b aebd 36d6 0fbe
00000380: be76 0bbe 64d6 9d3d 7dff 2a3d e110 0a3e
00000390: 2340 693d f60f c83d 0b55 d3bd 6e9e 6d3b
000003a0: 1234 093d 3261 6fbe 45b0 32bc 72d2 ebbb
000003b0: 28d2 c03b 99ba a83c aa91 ab3d db5f 16bc
000003c0: 2496 9e3d 26f8 03bc fbaa 66be 5b01 8fbd
000003d0: b27b 423e 6d5e 0cbd 928d 19bd 040e 483e
000003e0: 0a16 593d 134e 04be 6a50 f6bc b304 76bd
000003f0: 54e3 13be 29e3 b9bb 27e0 67bd e5e8 133e

network_body._body_endoder.seq_layers.0.bias f4 [256]
-0.0007913015 -0.0018712612 -0.00046898547 -0.0010252916 -0.0013933607 0.0050992114 0.0024649196 -0.0029551776
-0.004693581 0.00055821607 -0.002082508 0.00018688639 0.0016579693 0.0040153926 9.7408025e-05 0.004374687
0.0023941204 -0.0013292572 0.0016983703 -5.1855644e-05 0.004070776 0.0007861942 0.00060184364 0.0018940074
0.0022661118 -4.6007484e-05 0.00093492074 0.0029312447 0.0017337636 -0.0026727705 6.856074e-05 0.0038870487
0.00044223276 -0.0030641677 0.0018120793 -0.0012671787 -0.0025075397 0.0032258 0.001778612 0.0042911777
0.004395083 -0.001303062 0.0049893693 0.0012318232 0.0013927104 -0.0026601965 0.0030624566 6.525832e-05
0.002294607 -0.0028892993 0.0029622049 0.0007943352 -0.0046017123 0.0009850048 0.0010606608 -0.0024543596
-0.004103801 0.000860231 0.001673339 0.001796701 0.0027084823 0.0037612931 -0.0010838059 0.0031234294
-0.002153168 4.960205e-05 -0.00063474785 0.0058600004 0.0046768407 0.003434197 0.0020416756 0.00023000383
0.0001964783 -0.0005704513 -0.0012119306 -0.0010837927 0.004089696 0.0008940175 -0.0024172103 -0.0014306589
0.0036832173 0.0025616898 0.0028155274 0.002489858 0.0033548595 0.00261978 0.0021709201 0.001999406
0.0016001519 0.0018326119 -0.00019310832 0.0026646995 -0.0003999773 0.0013448291 5.181151e-05 -0.0015493201
-0.00022200242 0.0010674618 -0.002270928 0.00068809843 -0.0007322603 0.0011037422 0.00031249208 -0.0013150853
-0.00030161356 0.0022197803 0.00011287299 0.0035277999 -0.0008629458 0.0029997153 0.0037318 -0.00023956446
0.0019651093 -0.001221793 0.004531363 -0.001193816 0.003915024 -0.0007466727 0.005064394 -0.003247755
0.0019966888 0.0035724428 -0.003386758 0.0011818439 0.0036660575 0.00507994 0.0029302589 8.664978e-05
-0.0028488087 -0.002724581 -4.9217982e-05 -0.00046631903 0.0024439774 0.0015536668 -0.0005630968 0.0059562433
-0.002159644 0.001911757 0.0033522085 -0.0006533953 0.0016543682 0.0029602074 0.002977327 0.00013103368
-0.0044455035 -0.0034086346 0.00420828 -0.00019525208 -0.00095619407 0.0021677634 0.001976162 -0.0035605943
0.0016341492 -0.0032875147 -0.00053834304 0.0014145812 -0.0006357757 -0.0017593418 -0.0021886714 0.0015106295
0.0005202612 0.0008270246 0.0050936947 0.0032818278 0.002777254 0.0029090897 0.0023228803 -0.0026950096
0.0027837045 -0.0012987284 -0.0012796052 -0.0005141923 -9.785735e-06 -0.00018058783 -8.872808e-05 -0.0018777228
0.002441496 -0.0020126926 5.5119606e-05 -0.0022175307 -0.0023763536 0.0029857678 -0.00421865 -0.0024428212
0.003018946 -0.0026746835 -0.0005685973 0.0008302707 0.00011016305 1.42827e-05 -0.00010187125 0.004911759
0.0011112533 0.0015916968 0.0010969101 0.0013890434 0.0022800164 0.0029108247 0.0010896745 0.0013595457
0.0049973736 0.0046388838 -0.001637022 -0.0006073847 -0.0032187144 0.0020495243 0.00102403 0.0051690927
0.0037991952 0.0020383191 -0.0018882832 -0.003699211 0.0043665217 0.0045959624 0.00023423706 -0.0012317838
0.0021754755 -0.0012352612 -0.0026436318 -0.0027206407 0.0013901528 -0.0009469625 0.0021420217 -0.003132571
0.0019105354 0.0010390127 -0.0022926203 0.0040138527 0.0016630231 0.004337263 -0.002655555 0.0022516479
-0.0029553524 0.000524557 0.002863995 -0.0025421758 0.0011511849 -0.0025968594 0.0024016146 -0.0011208992
-0.0018631895 -0.0040010493 0.004488597 -0.0038524424 0.0015382908 0.0032733008 -0.0014320847 -0.00026621507
-0.0014362534 0.001410839 -0.0009835565 0.002012601 0.005035722 0.0010432475 -0.0024173455 0.0017830692
00000000: 586f 4fba 1b45 f5ba 2ae2 f5b9 1463 86ba
00000010: 6da1 b6ba 4917 a73b 7d8a 213b a7ab 41bb
00000020: 9ccc 99bb 3f55 123a b07a 08bb eff6 4339
00000030: 3850 d93a 8e93 833b 8947 cc38 8959 8f3b
00000040: ade6 1c3b 783a aeba da9b de3a 937f 59b8
00000050: 2564 853b 9a18 4e3a 0bc5 1d3a 5840 f83a
00000060: 0c83 143b 29f8 40b8 7815 753a 201a 403b
00000070: 743f e33a a629 2fbb 44c8 8f38 dbbd 7e3b
00000080: 7adb e739 34d0 48bb 4b83 ed3a 7617 a6ba
00000090: 8955 24bb f267 533b 5120 e93a 029d 8c3b
000000a0: a104 903b 81cb aaba dd7d a33b 2175 a13a
000000b0: 9b8b b63a b156 2ebb 7fb3 483b 4bdb 8838
000000c0: 1e61 163b 665a 3dbb 8d21 423b ef3a 503a
000000d0: f6c9 96bb 471b 813a df05 8b3a 52d9 20bb
000000e0: 2e79 86bb 2081 613a f153 db3a 487f eb3a
000000f0: cb80 313b 0780 763b 7e0e 8eba 73b2 4c3b
00000100: 2a1c 0dbb cc0b 5038 3565 26ba 3f05 c03b
00000110: 2f40 993b 4410 613b a2cd 053b 2f2d 7139
00000120: be05 4e39 578a 15ba a5d9 9eba 0c0e 8eba
00000130: db02 863b 805c 6a3a 0f6a 1ebb f284 bbba
00000140: 2262 713b 06e2 273b b684 383b e32c 233b
00000150: 34dd 5b3b 9db0 2b3b ff45 0e3b 7708 033b
00000160: 30bc d13a 4034 f03a 1f7d 4ab9 3da2 2e3b
00000170: 0bb4 d1b9 fa44 b03a 2f50 5938 8e12 cbba
00000180: 52c9 68b9 13ea 8b3a d9d3 14bb 8161 343a
00000190: 28f5 3fba 71ab 903a fad5 a339 f15e acba
000001a0: e321 9eb9 bc79 113b 3ab6 ec38 a932 673b
000001b0: 5037 62ba df96 443b 3791 743b 9833 7bb9
000001c0: 10c9 003b 9224 a0ba d47b 943b d179 9cba
000001d0: 9a49 803b 5bbc 43ba 37f3 a53b 4ad8 54bb
000001e0: e1da 023b a51f 6a3b 5ff4 5dbb 1ae8 9a3a
000001f0: 3d42 703b a075 a63b 9609 403b bfb7 b538
00000200: 14b3 3abb e28e 32bb 686f 4eb8 487c f4b9
00000210: 232b 203b 68a4 cb3a c99c 13ba 972c c33b
00000220: d088 0dbb ec93 fa3a bab0 5b3b 9e48 2bba
00000230: 63d7 d83a 0a00 423b 421f 433b 1666 0939
00000240: 96ab 91bb 6663 5fbb 9ce5 893b 95bc 4cb9
00000250: 19a9 7aba 0911 0e3b 7f82 013b dc58 69bb
00000260: f330 d63a 5873 57bb 971f 0dba 7869 b93a
00000270: 2faa 26ba b799 e6ba d06f 0fbb 5100 c63a
00000280: 2362 083a aecc 583a 02e9 a63b ef13 573b
00000290: 9702 363b 6da6 3e3b 773b 183b c29e 30bb
000002a0: d06e 363b 183a aaba 6db8 a7ba dcca 06ba
000002b0: 692d 24b7 2d5c 3db9 8613 bab8 ec1d f6ba
000002c0: 8101 203b 61e7 03bb 3a30 6738 fe53 11bb
000002d0: 99bc 1bbb dfac 433b 9a3c 8abb bd17 20bb
000002e0: 82d9 453b be49 2fbb eb0d 15ba 86a6 593a
000002f0: 5607 e738 bb9f 6f37 b6a3 d5b8 d2f2 a03b
00000300: 79a7 913a 7ba0 d03a 32c6 8f3a 9010 b63a
00000310: 546c 153b 89c3 3e3b 69d3 8e3a c932 b23a
00000320: 02c1 a33b c701 983b 5891 d6ba e638 1fba
00000330: 11f1 52bb 5051 063b bf38 863a 7e61 a93b
00000340: ebfb 783b 5295 053b 4580 f7ba 766e 72bb
00000350: 0a15 8f3b ba99 963b 889d 7539 ce73 a1ba
00000360: 6c92 0e3b 7de8 a1ba c840 2dbb c74c 32bb
00000370: ca35 b63a 943d 78ba 2961 0c3b d24b 4dbb
00000380: ee6a fa3a 7b2f 883a c93f 16bb a386 833b
00000390: ccf9 d93a 991f 8e3b d208 2ebb 6290 133b
000003a0: 96ae 41bb 6d82 093a ddb1 3b3b a29a 26bb
000003b0: 5be3 963a 1230 2abb 6864 1d3b 23eb 92ba
000003c0: 4436 f4ba 3c1b 83bb 1515 933b 4279 7cbb
000003d0: 79a0 c93a e084 563b cab4 bbba c892 8bb9
000003e0: ab40 bcba e7eb b83a aeea 80ba d7e5 033b
000003f0: b302 a53b 94bd 883a 546c 1ebb e0b5 e93a

network_body._body_endoder.seq_layers.2.weight f4 [256, 256]
0.07797812 -0.053541914 -0.13278915 -0.03387092 0.00922943 -0.07833029 -0.004036698 -0.030165546
-0.03048311 -0.05097118 0.08089546 0.054751024 -0.003610375 0.08824868 0.06706444 -0.04195743
-0.015020781 0.04301974 -0.05553612 0.008497807 -0.06272267 0.02537745 -0.051740244 0.0050561996
0.07973885 0.14440584 0.0014900889 -0.00049831386 -0.12817124 0.0674464 0.07371687 -0.014990678
-0.014821604 -0.006721054 0.038413856 0.037764966 -0.19224463 -0.03566264 0.033125713 -0.07565429
0.0798732 0.025965298 0.031699333 -0.0033655572 -0.13023002 -0.13138671 0.020901786 0.029165044
0.07221232 -0.16713637 -0.013730768 -0.0684766 -0.0027029908 -0.051513314 0.1335385 -0.07139374
-0.21335359 0.17561232 0.12951857 -0.057651598 0.08179574 0.025549687 -0.039239015 0.018847853
-0.023875844 0.040937584 0.06110423 0.06228003 0.0122693265 -0.0040492094 -0.020065272 -0.09704396
-0.031463988 0.02512535 -0.019255651 -0.0062256134 0.0333485 -0.05362096 -0.00279937 -0.08453259
0.023054432 -0.007632839 -0.11330839 0.021413049 0.056453284 0.060109984 0.01761389 0.028646942
0.0069792233 0.058410216 -0.093154855 0.06290091 0.026797106 0.067428626 -0.068602905 0.088556655
-0.016289935 0.084974304 0.012320753 -0.060879763 -0.029409451 -0.025040574 -0.011400085 0.059540924
-0.030793667 -0.11090929 -0.0700427 -0.002169207 0.108001284 -0.1848458 0.021484219 -0.0031107687
-0.08412714 0.023679668 0.06384483 -0.05902958 -0.12602158 0.069392905 0.06137873 0.01586535
0.03430286 0.01699934 -0.05398405 -0.10364241 -0.044241276 -0.01611816 -0.040536586 -0.059986666
0.008615244 0.0671568 0.052747607 -0.039646275 0.06415505 0.050776504 -0.024254797 -0.04957671
0.0009728089 0.07214989 0.018279694 -0.03136429 0.02825547 -0.026410852 0.014975491 -0.016649397
-0.02358169 -0.020907914 0.03597299 0.018623084 -0.022703778 0.1228909 0.036694843 -0.1520545
0.094399564 -0.033622332 -0.02755649 -0.066467114 -0.058391675 -0.024895689 -0.041232023 0.040541776
0.07873152 -0.12026291 -0.03491908 -0.026970144 -0.016031552 0.061546747 -0.023654863 0.006134038
-0.0025990705 0.013507698 -0.0060522007 -0.042663537 -0.07880313 -0.017910894 0.06912747 0.017301999
-0.072248 0.023703773 -0.004645397 -0.06300422 -0.059291605 0.03558721 0.07001798 0.08963905
0.026836084 0.03261741 -0.038952578 -0.07776547 -0.08853085 0.0597948 -0.07665647 0.006795672
0.008725598 -0.12267812 -0.006739735 0.04830975 -0.060395733 0.013785814 0.090913646 0.015896376
-0.03901585 -0.02675763 0.0013454129 -0.046404224 0.04128154 0.056622397 -0.009516073 -0.049462214
-0.006478043 -0.0014845672 0.095545515 -0.037340082 0.0008334931 0.11886869 0.0032760336 -0.1003812
-0.041328814 -0.0009511769 -0.033345725 0.048109334 0.0002120682 0.08906127 0.043773167 0.1003106
-0.009311534 0.0010084491 -0.1185299 -0.022998594 -0.06515665 0.005958812 -0.046920255 -0.04454949
0.0027506186 -0.11229327 0.05580483 -0.028563062 0.0028588916 0.0027017454 -0.028277969 0.0055807554
-0.04840804 -0.02984446 0.01783477 -0.019869976 -0.07796613 -0.046389595 -0.07428685 -0.028173512
-0.047874562 -0.0699012 -0.13436739 -0.02667828 -0.007328281 -0.0028998558 0.016292334 0.003970256
00000000: feb2 9f3d c44e 5bbd e1f9 07be 3cbc 0abd
00000010: 0937 173c a26b a0bd 4746 84bb bc1d f7bc
00000020: b7b7 f9bc 28c7 50bd 85ac a53d 9c42 603d
00000030: 0b9c 6cbb b9bb b43d 1559 893d 8edb 2bbd
00000040: b919 76bc 7835 303d d879 63bd 633a 0b3c
00000050: be74 80bd 5fe4 cf3c 94ed 53bd 7aae a53b
00000060: 1f4e a33d 20df 133e 164f c33a 47a1 02ba
00000070: 523f 03be 5721 8a3d dff8 963d 769b 75bc
00000080: 50d6 72bc 4a3c dcbb d957 1d3d 70af 1a3d
00000090: c7db 44be fd12 12bd d4ae 073d a3f0 9abd
000000a0: 8f94 a33d 2db5 d43c 29d7 013d ae90 5cbb
000000b0: 055b 05be 3d8a 06be 393a ab3c 88eb ee3c
000000c0: 0ee4 933d cc25 2bbe 04f7 60bc 763d 8cbd
000000d0: a924 31bb a0ff 52bd 51be 083e e236 92bd
000000e0: 5d79 5abe b7d3 333e 84a0 043e 1524 6cbd
000000f0: 8684 a73d 944d d13c 17b9 20bd d066 9a3c
00000100: 4697 c3bc 2bae 273d 6e48 7a3d 5819 7f3d
00000110: 4905 493c 3baf 84bb ed5f a4bc fcbe c6bd
00000120: 62e0 00bd aed3 cd3c 07be 9dbc 3b00 ccbb
00000130: 7098 083d a7a1 5bbd a375 37bb 6c1f adbd
00000140: a6dc bc3c e51c fabb 3b0e e8bd 6b6a af3c
00000150: 8f3b 673d e335 763d 014b 903c feac ea3c
00000160: f8b1 e43b 8d3f 6f3d f9c7 bebd 31d2 803d
00000170: 9b85 db3c 0518 8a3d ae7f 8cbd 315d b53d
00000180: 7872 85bc 0207 ae3d fcdc 493c 0f5d 79bd
00000190: 17ec f0bc e421 cdbc 6cc7 3abc 2fe1 733d
000001a0: 0043 fcbc 6924 e3bd 8c72 8fbd 4129 0ebb
000001b0: c72f dd3d 3848 3dbe acff af3c 0ade 4bbb
000001c0: da4a acbd ddfb c13c 14c1 823d 00c9 71bd
000001d0: cd0b 01be de1d 8e3d 4368 7b3d 0df8 813c
000001e0: 2881 0c3d 3342 8b3c 611e 5dbd 7942 d4bd
000001f0: 5736 35bd 3b0a 84bc b109 26bd 94b4 75bd
00000200: f426 0d3c 8189 893d e00d 583d 2264 22bd
00000210: b963 833d 06fb 4f3d ffb1 c6bc f310 4bbd
00000220: 1a04 7f3a 52c3 933d 4cbf 953c d777 00bd
00000230: 0478 e73c 925b d8bc c35b 753c 5164 88bc
00000240: 632e c1bc 1347 abbc 6a58 133d 708f 983c
00000250: 46fd b9bc 39ae fb3d 554d 163d 2db4 1bbe
00000260: 8f54 c13d 92b7 09bd 26be e1bc e91f 88bd
00000270: 1c2c 6fbd 0bf2 cbbc e9e2 28bd 220f 263d
00000280: fe3d a13d 674c f6bd 4f07 0fbd 7ef0 dcbc
00000290: 9a54 83bc 7118 7c3d d8c7 c1bc 0a00 c93b
000002a0: 2b55 2abb 644f 5d3c 8a51 c6bb f6bf 2ebd
000002b0: 8963 a1bd deb9 92bc b492 8d3d ecbc 8d3c
000002c0: c2f6 93bd 6a2e c23c 6a38 98bb 5b08 81bd
000002d0: c1db 72bd e5c3 113d 9665 8f3d ae94 b73d
000002e0: 59d7 db3c d599 053d bd8c 1fbd 8143 9fbd
000002f0: aa4f b5bd 64eb 743d 11fe 9cbd 3aae de3b
00000300: d0f5 0e3c ab3e fbbd ffd8 dcbb 72e0 453d
00000310: 8461 77bd e5dd 613c ef30 ba3d 1e39 823c
00000320: 15cf 1fbd d132 dbbc 9158 b03a 5b12 3ebd
00000330: d516 293d e3ec 673d 4ee9 1bbc e498 4abd
00000340: c345 d4bb cf95 c2ba 5ead c33d eaf1 18bd
00000350: c67e 5a3a 6e71 f33d b9b2 563b a994 cdbd
00000360: 6748 29bd 6758 79ba 8795 08bd 4b0e 453d
00000370: a05e 5e39 c165 b63d 7e4b 333d a56f cd3d
00000380: 688f 18bc f02d 843a cebf f2bd 8c67 bcbc
00000390: da70 85bd 2342 c33b 742f 40bd 8779 36bd
000003a0: b943 343b 04fa e5bd 9b93 643d 15fd e9bc
000003b0: 3e5c 3b3b c40f 313b 33a7 e7bc c5de b63b
000003c0: 8247 46bd 5e7c f4bc 391a 923c 5cc6 a2bc
000003d0: b5ac 9fbd 0403 3ebd b423 98bd 23cc e6bc
000003e0: 1e18 44bd 5c28 8fbd 9b97 09be 698c dabc
000003f0: 1422 f0bb 820b 3ebb 8077 853c ec18 823b

network_body._body_endoder.seq_layers.2.bias f4 [256]
-0.0009848949 -0.0002906444 0.004074239 0.0015259344 -0.0006872108 -0.003712517 0.0014835985 0.0014743481
-6.6851724e-05 0.00041269162 0.0024582616 0.0038984786 -0.001311657 -0.0022016207 0.0016167305 0.0018974462
-0.00018697481 -4.2161246e-05 0.00068428507 0.0019360265 0.0018624574 -0.0024074155 0.0047562574 0.0012881414
0.0006528621 -0.0016851933 0.003519325 0.0057635154 0.0013844664 -0.000907767 -0.00012783609 -0.002413652
-0.0010435533 0.0031545518 0.003489598 0.0037056443 0.0048422473 0.0021694258 0.0007165748 0.0020767206
-0.0014693156 0.00014610271 0.0017096518 0.0010397191 0.00046339983 0.0028067508 0.0025186753 0.0006711157
0.0014764717 0.002807597 0.00034092524 0.004085388 -0.0038433475 0.00083785027 0.005150434 -0.0040282737
0.0010780756 -0.0022520956 0.00072403456 -0.000935568 -0.0005537912 0.0047997 0.0013765008 0.0049575563
-0.00078093086 -0.0014370132 0.001882583 0.0012687419 0.0020236613 -0.0022962193 -0.0020484102 -0.00062165456
-0.0030346597 -0.00091692084 0.0025047103 -0.0013019842 -0.002995606 -0.0012700137 0.0016252941 -0.00288112
0.0020877777 -0.0010537191 -0.0016081948 -0.00069459947 0.0005541417 0.0004311249 -0.00037138013 0.0010871516
-0.0018706536 -0.00084597094 6.951635e-05 -0.0021701183 -0.00013633523 0.0033779915 0.0003642285 0.00034829232
0.0010792975 0.005596368 0.0016935448 -0.0016341939 0.0026023781 0.0020245095 0.0005117572 -0.000104702056
0.0018758301 0.004765267 0.0041413335 2.1448692e-05 0.000723016 0.004367539 -9.6229516e-05 -0.00014251204
0.00012538163 -0.0012885015 -0.0021610553 -0.0007083607 0.003160181 -0.0029735938 -0.0030585018 -0.0010295981
0.001389779 0.0009491237 0.0006796807 0.0021509945 -0.0012241477 0.00036251917 0.002349839 0.0047512804
0.004984318 -0.0011108612 -0.0017717024 0.0031730412 0.004752754 0.0007881569 0.00017902906 0.001882402
0.0032100317 -0.0012767713 0.001987555 -0.0008828478 0.0009404384 0.003968946 0.0022402888 0.002654445
0.0033814632 0.0010358873 0.0007776121 -0.00029509206 0.0043576416 0.0041305837 -0.00032570725 0.0013133436
-0.00022393397 0.003286566 0.00073101895 0.00077561144 -0.0015305319 0.0020109727 -0.00031580016 0.00089133956
0.00045779688 -0.0021318977 -0.0028604094 0.0042143045 0.0003784139 -0.0009400869 0.0020451355 -0.00033710114
-0.0045979293 -0.0026708902 0.0036601068 0.0035772338 0.0046207313 -0.00031326446 0.0020232433 0.0002054543
0.0025951506 -0.00035315787 0.0005600108 0.0025882672 -0.0013931958 -0.00087309425 -2.6519405e-05 -0.00096373813
0.0053716316 -0.0024833416 0.0044565606 0.0028176773 0.0022948834 -0.00065914536 -0.0022369293 0.0055854805
-0.0016830525 -0.00090573274 -0.0017103484 0.0015045694 0.0003652846 0.0035381347 -0.00027787217 -0.0021006602
0.00057484955 0.0004954388 0.0010555213 0.0051756916 -0.0004047516 0.0020747485 0.0030335423 0.00011017358
0.000427401 0.0026550917 0.0052873003 -0.00012425032 -0.003873372 -1.3445461e-05 3.390632e-05 0.0024758475
0.003082443 -0.0015831047 0.0018714957 0.0016241265 0.001713081 0.0029338726 0.0036264032 -0.00093059614
0.003979867 8.757225e-05 -0.002525845 8.510905e-06 -0.0038647666 0.0015943277 0.0005929388 -0.0028546175
0.0027194726 0.0009391044 -0.0013441162 -0.001647592 -6.672801e-05 0.001495595 -0.0022122178 0.0016391876
0.0030175583 -0.00017190928 0.000117832555 -0.0008050737 -0.00256853 0.0030321383 -0.0026548821 -0.0026158087
-0.0014465621 -0.0013661789 -0.0024478529 0.003531197 0.0013958414 -0.0010417363 0.0010483536 0.00036693833
00000000: 9717 81ba a261 98b9 3281 853b dd01 c83a
00000010: f025 34ba b34d 73bb 4e75 c23a ea3e c13a
00000020: bf32 8cb8 885e d839 c91a 213b 9e7d 7f3b
00000030: e8eb abba 1149 10bb 79e8 d33a bbb3 f83a
00000040: ab0e 44b9 4bd6 30b8 9861 333a 45c2 fd3a
00000050: b31d f43a bbc5 1dbb 61da 9b3b dad6 a83a
00000060: d524 2b3a b4e1 dcba 7aa4 663b dfdb bc3b
00000070: fc76 b53a 36f7 6dba bd0b 06b9 5c2e 1ebb
00000080: d7c7 88ba 99bc 4e3b bdb1 643b 65da 723b
00000090: b7ab 9e3b ed2c 0e3b 85d8 3b3a 9719 083b
000000a0: 0d96 c0ba 2633 1939 6516 e03a 2f47 883a
000000b0: 79f4 f239 77f1 373b 5c10 253b d0ed 2f3a
000000c0: 2b86 c13a a9ff 373b 36be b239 b8de 853b
000000d0: ace0 7bbb 2ea3 5b3a f9c4 a83b 9cff 83bb
000000e0: 374e 8d3a e597 13bb 23cd 3d3a e840 75ba
000000f0: 4c2c 11ba cd46 9d3b b46b b43a ff72 a23b
00000100: 62b7 4cba 295a bcba 01c1 f63a ea4b a63a
00000110: 679f 043b 2b7c 16bb 9f3e 06bb 88f6 22ba
00000120: 24e1 46bb 845d 70ba 1126 243b 57a7 aaba
00000130: ee51 44bb 9776 a6ba d207 d53a 2cd1 3cbb
00000140: 19d3 083b f21c 8aba 10ca d2ba c815 36ba
00000150: d243 113a 9b08 e239 ccb5 c2b9 c17e 8e3a
00000160: b830 f5ba 26c4 5dba 4ec9 9138 8b38 0ebb
00000170: 36f5 0eb9 4b61 5d3b ecf5 be39 019b b639
00000180: 3777 8d3a bd61 b73b eff9 dd3a 7332 d6ba
00000190: a98c 2a3b a2ad 043b 7227 063a 7d93 dbb8
000001a0: 6ade f53a f525 9c3b 06b4 873b b7ec b337
000001b0: c888 3d3a 931d 8f3b d4ce c9b8 496f 15b9
000001c0: e078 0339 f0e2 a8ba 7ea0 0dbb 48b1 39ba
000001d0: 0a1b 4f3b a0e0 42bb 2571 48bb 94f3 86ba
000001e0: 3f29 b63a 9dce 783a 9a2c 323a b3f7 0c3b
000001f0: 9573 a0ba 8010 be39 c2ff 193b a1b0 9b3b
00000200: 7d53 a33b 519a 91ba 7838 e8ba ccf2 4f3b
00000210: fdbc 9b3b 509c 4e3a bfb9 3b39 eeba f63a
00000220: 655f 523b 5659 a7ba a441 023b ea6e 67ba
00000230: c187 763a ef0d 823b cfd1 123b 32f6 2d3b
00000240: 8a9b 5d3b 9cc6 873a aad8 4b3a 96b6 9ab9
00000250: 8cca 8e3b d959 873b b0c3 aab9 8024 ac3a
00000260: d1cf 6ab9 6d63 573b daa1 3f3a 6752 4b3a
00000270: 219c c8ba 86ca 033b fb91 a5b9 c9a8 693a
00000280: 7504 f039 4fb7 0bbb b575 3bbb 2618 8a3b
00000290: db65 c639 2a70 76ba ae07 063b f3bc b0b9
000002a0: 3aaa 96bb 1a0a 2fbb 67de 6f3b 0670 6a3b
000002b0: 8169 973b a53d a4b9 6498 043b 386f 5739
000002c0: 6713 2a3b 0c28 b9b9 b0cd 123a eb9f 293b
000002d0: e59b b6ba 5de0 64ba fd75 deb7 5fa3 7cba
000002e0: 8304 b03b 8fbf 22bb 5708 923b c8a8 383b
000002f0: c165 163b 7fca 2cba 7299 12bb 6806 b73b
00000300: df99 dcba b26e 6dba c52d e0ba f934 c53a
00000310: ab83 bf39 0de0 673b 5faf 91b9 3bab 09bb
00000320: 80b1 163a 56e0 013a 6b59 8a3a d998 a93b
00000330: d734 d4b9 81f8 073b 65ce 463b fe0c e738
00000340: cb14 e039 0c01 2e3b 1741 ad3b 3149 02b9
00000350: 66d8 7dbb d193 61b7 a236 0e38 d441 223b
00000360: d002 4a3b 2e80 cfba fa4c f53a a4e0 d43a
00000370: 7689 e03a 3746 403b f3a8 6d3b 40f3 73ba
00000380: 8b69 823b fea6 b738 a688 25bb 0fca 0e37
00000390: 0648 7dbb c3f8 d03a 736f 1b3a 8914 3bbb
000003a0: 2e39 323b 3b2e 763a 0e2d b0ba 04f4 d7ba
000003b0: 54f0 8bb8 d707 c43a dbfa 10bb 02da d63a
000003c0: 3ac2 453b 8c42 34b9 df1c f738 950b 53ba
000003d0: c854 28bb d7b6 463b 88fd 2dbb fd6d 2bbb
000003e0: 929a bdba 5b11 b3ba 286c 20bb a86b 673b
000003f0: aaf4 b63a df8a 88ba e968 893a a161 c039

action_model._discrete_distribution.branches.0.weight f4 [4, 256]
0.00060943724 -0.003707895 0.0096946135 -0.0050533265 0.003081729 -0.0049610343 -0.0109755015 0.00812287
0.009359338 0.0050381823 0.010389924 0.009238157 0.0048516486 0.0069030393 -0.002910426 0.0008971992
0.0009245608 -0.0010123311 -0.0004153847 -0.004758597 0.0078031705 -0.014396688 0.0028687068 -0.016015649
-0.010334142 -0.0041531827 0.006492442 0.015236227 0.008819933 -0.006342903 0.00089326093 0.0004675058
-0.0029980857 0.014057485 -0.0032486785 0.003133492 0.015560563 0.008902554 -0.008634046 0.010768169
-0.006787028 -0.00047979603 0.00030226956 -0.0020299791 0.0024546639 0.0009993204 -0.0062309625 -0.0062351874
-0.00012603107 0.003919191 -0.005568921 0.0075502438 0.0078088576 0.0019205831 0.0019059179 -0.0055863704
-0.011041019 -0.0036447102 -0.00014311992 -0.0016023976 -0.007636364 0.004276037 -0.011126782 0.008530661
0.0024797653 -0.014431314 0.0035920178 0.0022935653 0.009414993 -0.0049748393 -0.0065933606 -0.0060181236
-0.00075972505 -0.0026048676 0.0136072915 -0.0034463834 -0.007672105 0.0023429627 -0.004976228 -0.008742428
5.029138e-05 -0.0006366743 -0.0074862777 -0.015961932 -0.005378635 0.006492393 0.015691783 0.0024518124
0.0010231193 0.00038636907 0.004749379 -0.00051859976 0.00015291074 0.014068577 0.0021700847 -0.0020939137
0.0056660026 0.0026281483 0.005291544 0.0011153095 0.008915454 0.010135784 0.00328559 0.0050412957
0.00018564425 -0.0017921684 0.010419887 -0.0019349671 -0.013192152 0.0078045963 -0.0036363222 0.0077654547
-0.0067637824 -0.0035180838 -0.019336484 0.0016735205 0.0006196221 -0.0021942172 -0.0040323194 -0.005803331
0.001907791 0.004316044 0.0039371047 0.005202334 -0.0152633935 0.008114841 0.0060247444 0.0009882328
0.006713883 -0.00090237486 0.007152862 0.0077145104 0.009248879 0.00015725453 -0.0019759494 0.011865384
0.011593651 -0.0049314927 0.0012170136 -0.0013164718 -0.0013976456 0.0021593352 -0.005950296 -0.006077674
0.0078139575 -0.00697232 -0.008710722 -0.017394979 0.0036165914 0.0068497197 -0.00801033 0.0021981366
0.00015771255 -0.0001975375 -0.004907585 0.004453987 -0.0034607516 0.0049544517 -0.007808772 -0.014041032
0.0057836906 -0.0135514485 0.0053023966 0.004563486 -0.00058623636 -0.0038973133 0.003953194 -0.011983085
-0.0048589404 -0.0014729244 0.009074143 0.0016390545 0.0047514564 -0.0107634235 -0.005975109 -0.008936024
-0.00030466766 0.003970914 -0.0017592835 -0.0011198578 -0.0037486383 0.0034879344 -0.0016119326 0.0069534318
0.0062727 -0.0045971004 0.002281072 0.0056303297 0.006698813 0.00804321 -0.009112826 0.008121903
-0.0004654477 8.318145e-05 -0.00059606356 -0.011931865 0.006429954 0.008152791 -0.004923621 -0.003954067
-0.0066001066 -0.0008554125 0.0037740436 0.017636104 0.013333656 -0.006163859 -0.0064293486 0.00588501
0.004413371 -0.007649312 0.009149094 0.005588449 -0.00017412429 -0.0022133556 0.001290589 -0.007918848
0.0049377955 -0.009475675 0.0144923115 -0.007273338 0.0064982995 0.010971917 0.004487376 -0.0036809908
0.006826193 -0.009285444 -0.0024707809 -0.0040511168 -0.005095911 0.011166555 0.0015495771 -0.00066533586
-0.009251144 -0.0002441657 0.003750138 -0.0092518525 0.00095801405 0.0061661676 -0.0060892985 0.0096362755
0.0044803065 -0.0065408 0.0020747771 -0.00096523785 -0.011117303 0.00038121137 -0.0012540589 -0.00086918136
-0.005002854 0.0058510597 -0.0140770795 0.0068289614 -0.0054106005 -0.0035190515 -0.006042531 0.0019206535
00000000: a4c2 1f3a 2800 73bb 28d6 1e3c 6096 a5bb
00000010: d5f6 493b 2c90 a2bb 97d2 33bc c915 053c
00000020: e957 193c 5617 a53b 803a 2a3c a45b 173c
00000030: 94fa 9e3b e432 e23b d8bc 3ebb 0532 6b3a
00000040: 3a5e 723a 32b0 84ba fec7 d9b9 01ee 9bbb
00000050: bdb1 ff3b 16e0 6bbc ea00 3c3b 4033 83bc
00000060: 8850 29bc 6c17 88bb 8dbe d43b 5ea1 793c
00000070: 7b81 103c 20d8 cfbb ba29 6a3a 911b f539
00000080: 887b 44bb 5e51 663c c8e7 54bb 465b 4d3b
00000090: bbf1 7e3c 05dc 113c d075 0dbc f96c 303c
000000a0: b865 debb 228d fbb9 ef79 9e39 6609 05bb
000000b0: 6dde 203b a1fb 823a 1a2d ccbb 8b50 ccbb
000000c0: 3527 04b9 8f6c 803b 7f7b b6bb 0968 f73b
000000d0: 72e1 ff3b 13bc fb3a fecf f93a df0d b7bb
000000e0: 64e5 34bc 17dc 6ebb 7612 16b9 8b07 d2ba
000000f0: 773a fabb 001e 8c3b 1b4d 36bc 30c4 0b3c
00000100: 8f83 223b 5171 6cbc 0f68 6b3b a44f 163b
00000110: 5841 1a3c fa03 a3bb 1e0d d8bb ae33 c5bb
00000120: 4928 47ba 6db6 2abb 1ef1 5e3c b8dc 61bb
00000130: 4866 fbbb 648c 193b a00f a3bb 673c 0fbc
00000140: f5ef 5238 7de6 26ba 734f f5bb 99c2 82bc
00000150: 433f b0bb 24be d43b 0e8c 803c 96ae 203b
00000160: 301a 863a 9491 ca39 aea0 9b3b a4f2 07ba
00000170: aa56 2039 e47f 663c fb37 0e3b 0b3a 09bb
00000180: e0a9 b93b 033d 2c3b b064 ad3b 942f 923a
00000190: 2012 123c 8f10 263c 0e53 573b 7431 a53b
000001a0: 80a9 4239 31e7 eaba 2cb8 2a3c b99e fdba
000001b0: e523 58bc b3bd ff3b 5d4f 6ebb 5b75 fe3b
000001c0: b8a2 ddbb a78f 66bb 8c67 9ebc 085a db3a
000001d0: 236e 223a dbcc 0fbb 8c21 84bb de29 bebb
000001e0: d80e fa3a 9a6d 8d3b d402 813b 5778 aa3b
000001f0: 5013 7abc 1cf4 043c 386b c53b 9787 813a
00000200: 2200 dc3b 5a8d 6cba 8e62 ea3b 01ca fc3b
00000210: 9c88 173c b1e4 2439 ee7e 01bb 0767 423c
00000220: 4cf3 3d3c 5c98 a1bb 3384 9f3a 778d acba
00000230: 3431 b7ba a283 0d3b b3fa c2bb 3a27 c7bb
00000240: 1d06 003c 0f78 e4bb 6bb7 0ebc ea7f 8ebc
00000250: 5604 6d3b 9d73 e03b c23d 03bc 9d0e 103b
00000260: a45f 2539 1222 4fb9 cfcf a0bb c0f2 913b
00000270: c7cd 62bb f458 a23b bae0 ffbb 5b0c 66bc
00000280: 1d85 bd3b e506 5ebc babf ad3b 4c89 953b
00000290: a8ad 19ba 116a 7fbb cb89 813b b454 44bc
000002a0: bf37 9fbb 240f c1ba b7ab 143c 8bd5 d63a
000002b0: 1bb2 9b3b 1259 30bc d9ca c3bb 6768 12bc
000002c0: cdbb 9fb9 711e 823b c297 e6ba 31c8 92ba
000002d0: b7ab 75bb d495 643b 7c47 d3ba 9dd9 e33b
000002e0: 398b cd3b 46a3 96bb 0a7e 153b a17e b83b
000002f0: b781 db3b abc7 033c f64d 15bc bb11 053c
00000300: 5507 f4b9 b371 ae38 2641 1cba de7d 43bc
00000310: 5db2 d23b 4993 053c 5456 a1bb 1e91 81bb
00000320: b545 d8bb c33d 60ba f255 773b 9779 903c
00000330: 6875 5a3c 32fa c9bb 49ad d2bb 0bd7 c03b
00000340: 0a9e 903b 14a7 fabb 15e6 153c 4f1f b73b
00000350: 2295 36b9 f20d 11bb fb28 a93a 0ebe 01bc
00000360: 3bcd a13b dd3f 1bbc 2971 6d3c 2e55 eebb
00000370: b0ef d43b 8ec3 333c d70a 933b c73c 71bb
00000380: 42ae df3b fa21 18bc d3ec 21bb 3bbf 84bb
00000390: 9afb a6bb edf3 363c 2e1b cb3a ef69 2eba
000003a0: 1c92 17bc 5e03 80b9 e0c4 753b 1595 17bc
000003b0: 3c23 7b3a 900d ca3b bd88 c7bb 78e1 1d3c
000003c0: 89cf 923b 3554 d6bb fcf8 073b 0408 7dba
000003d0: 5925 36bc 53dd c739 3c5f a4ba c6d9 63ba
000003e0: fbee a3bb 3fba bf3b 8da3 66bc 7bc5 df3b
000003f0: 684b b1bb e39f 66bb 6d00 c6bb 70be fb3a

action_model._discrete_distribution.branches.0.bias f4 [4]
0.0021329173 -0.0027956073 0.0011824276 3.9657938e-05
00000000: 6ac8 0b3b 8236 37bb b0fb 9a3a 6356 2638

action_model._discrete_distribution.branches.1.weight f4 [3, 256]
-0.009907569 -0.006759658 0.004812774 0.0031466556 -0.0057245214 -0.004317887 0.0029495426 -0.0002688479
0.0020060206 0.002424673 0.0056571546 0.008103047 0.0015285965 -0.0037244142 0.0020264022 -0.0021885273
0.009186726 -0.0021195975 0.00030712568 0.008759966 -0.009190936 0.0020927042 0.003823605 0.0032698936
0.010088939 -0.0050157798 -0.0051806686 0.0026724036 -0.002730809 -0.008743681 0.0015049558 0.0111764325
0.002661302 0.010347112 0.0008247611 -0.0034639072 0.00021018331 0.003371159 -0.0030171413 0.00099986
-0.00078003015 -0.0031865633 0.0013418297 0.0031689545 0.008091775 0.0051663537 0.014796239 0.0072226753
-0.0028062789 0.0015621675 0.007581568 0.004321072 -0.010001654 0.0037193173 0.0096478965 -0.0140456315
-0.004277303 -0.0023168446 0.0040963925 -0.0036575655 0.008419351 0.011221544 0.0068509714 -1.163693e-05
0.004352503 0.0028565866 0.007955122 -0.0056312843 -0.001947039 -0.015754284 -0.0032171998 -0.002672533
0.003465014 -0.00078780134 -0.0037756737 -0.003360067 0.0068187388 0.0010712272 0.0076192506 -0.0048073335
-0.020221626 0.0012929634 -0.00087170885 -0.008232887 0.0041070203 -0.009384557 0.0042656716 0.008612266
-0.01221626 -0.0017976657 0.009658799 0.009499008 0.0051060924 0.0057233754 0.0013160452 -0.0005779358
-0.0035365827 0.00227645 -0.00396602 -0.013819687 0.012244253 -0.003540115 -0.004961768 -0.0030143708
0.0022056699 0.0063461517 0.0026637225 -0.007637169 -0.006388548 0.009402593 -0.0017660011 0.005629535
-0.005955294 0.0027910834 -0.0049816743 0.0020599654 0.0014471073 0.0040808325 -0.0030576172 0.0059070084
0.0024514927 -0.0023625016 0.001832829 0.012205238 0.009447061 0.0019363096 -0.0023754258 0.011516572
-0.009247981 -0.0025260434 -0.0006113248 0.0037925127 0.0018662065 0.002490976 0.009850414 -0.002533485
-0.0045683547 -0.011657681 -0.00095398223 -0.0012041407 -0.0043858574 0.0066537247 -0.0057448717 -0.0049613467
-0.003627807 -0.007891846 -0.0009272286 -0.0040336405 0.007386435 0.0042771916 0.000622348 -0.002115319
0.006127681 0.0014778662 0.008301052 0.002746314 -0.0010706084 0.008059178 0.0069894916 0.008258684
-0.0074129524 -0.009492373 -0.0057120346 0.0102964025 -0.007037391 0.006470895 -0.0011878784 0.0012364683
-0.003272141 -0.00434962 -0.0017092845 0.004501416 0.013948605 0.0041128458 -0.0023843045 -0.0022846423
0.0040690396 0.008619278 -0.0034645936 -0.0034279963 0.008693801 0.0026094108 -0.0002626035 -0.00032249533
-0.0039839954 -0.00085608294 0.004345913 0.0041299197 0.0114716105 -0.0057890182 0.0018170673 0.010088365
0.008181653 0.00071015087 -0.00047864692 0.0043103504 -0.0017298996 -0.0021666214 -0.0016641326 -0.00033639188
0.003018482 0.009957349 0.0074204183 0.007676547 1.0502494e-06 0.0023347521 0.005563032 -0.014870494
-0.008271238 0.0039714766 0.0048600254 0.0013109054 -0.0060095033 -0.0005917416 0.008832858 0.003338417
0.0035113536 -0.0024526038 0.0023976325 -3.6121884e-05 -0.0147903105 0.0009458921 0.0046535484 -0.018842006
0.002717588 0.0007205778 -0.010521618 0.00061146286 -0.002868331 0.00815168 -0.00012623705 -0.00012684084
0.0036146455 0.0046925833 -0.011923751 0.0054250094 -0.0046780026 0.0038001756 0.0037042587 -0.002717218
-0.0020370064 0.0013462332 0.0033834458 0.005368526 0.002316951 -0.0009488933 -0.0017796567 -0.0073711756
-0.0022728485 -0.0010683031 -0.0076176445 0.004264879 -0.012548439 0.013831447 0.010672605 0.005986298
00000000: 5b53 22bc 1f80 ddbb 79b4 9d3b 1f38 4e3b
00000010: c494 bbbb 107d 8dbb 1d4d 413b 28f4 8cb9
00000020: 7177 033b 43e7 1e3b a75f b93b a4c2 043c
00000030: 305b c83a 4d15 74bb 63cd 043b 656d 0fbb
00000040: ec83 163c f2e8 0abb b605 a139 f685 0f3c
00000050: 9495 16bc c025 093b 7295 7a3b b64b 563b
00000060: 144c 253c 695b a4bb 99c2 a9bb 7e23 2f3b
00000070: 5ff7 32bb a841 0fbc f041 c53a 5b1d 373c
00000080: 3d69 2e3b ef86 293c c834 583a b802 63bb
00000090: a764 5c39 aaee 5c3b 3bbb 45bb bc0d 833a
000000a0: f07a 4cba a9d5 50bb 55e0 af3a 3cae 4f3b
000000b0: 5d93 043c 844a a93b ed6b 723c 31ac ec3b
000000c0: 8ce9 37bb a5c1 cc3a cd6e f83b c797 8d3b
000000d0: fadd 23bc cabf 733b 3612 1e3c a61f 66bc
000000e0: 9e28 8cbb 34d6 17bb 083b 863b c4b3 6fbb
000000f0: 51f1 093c 91da 373c 1d7e e03b 3c3c 43b7
00000100: 719f 8e3b 9235 3b3b 3356 023c a386 b8bb
00000110: ca33 ffba 210f 81bc a8d7 52bb aa25 2fbb
00000120: 4a15 633b 7484 4eba 4b71 77bb 9234 5cbb
00000130: ba6f df3b 6c68 8c3a e8aa f93b d686 9dbb
00000140: d3a7 a5bc a778 a93a 6483 64ba 3be3 06bc
00000150: 2f94 863b afc1 19bc 0cc7 8b3b 761a 0d3c
00000160: b526 48bc a79f ebba f03f 1e3c baa1 1b3c
00000170: 0251 a73b 278b bb3b 267f ac3a 9d80 17ba
00000180: 03c6 67bb 7e30 153b 63f5 81bb f86b 62bc
00000190: 1f9c 483c 4601 68bb 5496 a2bb c08c 45bb
000001a0: 008d 103b 61f3 cf3b d991 2e3b 3841 fabb
000001b0: 0657 d1bb 550d 1a3c 2a79 e7ba f677 b83b
000001c0: a024 c3bb 9cea 363b 503d a3bb 7c00 073b
000001d0: ddac bd3a 81b8 853b 4e62 48bb 948f c13b
000001e0: 39a9 203b 33d4 1abb 893b f03a 7bf8 473c
000001f0: d9c7 1a3c c5cb fd3a 08ad 1bbb 01b0 3c3c
00000200: d884 17bc fa8b 25bb 5041 20ba ce8b 783b
00000210: 809b f43a a43f 233b a163 213c d308 26bb
00000220: 23b2 95bb dcff 3ebc aa14 7aba 42d4 9dba
00000230: 3db7 8fbb 7d07 da3b 7a3f bcbb cb92 a2bb
00000240: 80c0 6dbb cd4c 01bc 4211 73ba a12c 84bb
00000250: e809 f23b af27 8c3b 1125 233a 2aa1 0abb
00000260: b7ca c83b f6b4 c13a 2301 083c 81fb 333b
00000270: a853 8cba a40a 043c 1b08 e53b 6e4f 073c
00000280: 5ae8 f2bb e685 1bbc 052c bbbb 3eb2 283c
00000290: ea99 e6bb cd09 d43b 96b2 9bba fe10 a23a
000002a0: 6b71 56bb 4287 8ebb 120a e0ba 9d80 933b
000002b0: b188 643c 0dc5 863b fe41 1cbb f0b9 15bb
000002c0: 9455 853b df37 0d3c 3c0e 63bb 3ca8 60bb
000002d0: 7270 0e3c a602 2b3b 0cae 89b9 9714 a9b9
000002e0: 2d8c 82bb c16a 60ba 2968 8e3b 4754 873b
000002f0: 6cf3 3b3c ceb1 bdbb a92a ee3a ab49 253c
00000300: 570c 063c 6b29 3a3a e7f2 fab9 d73d 8d3b
00000310: ccbd e2ba e0fd 0dbb 061f daba c15d b0b9
00000320: b9d1 453b 2624 233c fb26 f33b 8b8b fb3b
00000330: 4bf6 8c35 a402 193b 184a b63b 5fa3 73bc
00000340: 1684 07bc 2923 823b d940 9f3b b0d2 ab3a
00000350: 5eeb c4bb 1b1f 1bba b1b7 103c 58c9 5a3b
00000360: bd1e 663b ddbb 20bb 9921 1d3b 9481 17b8
00000370: 0f53 72bc bff5 773a cb7c 983b 8d5a 9abc
00000380: 9019 323b 28e5 3c3a dd62 2cbc 944a 203a
00000390: 9cfa 3bbb a08e 053c 805e 04b9 9400 05b9
000003a0: b0e3 6c3b 3ec4 993b d65b 43bc 47c4 b13b
000003b0: ee49 99bb 5e0c 793b 26c3 723b 5a13 32bb
000003c0: 4c7f 05bb 1774 b03a cdbc 5d3b 76ea af3b
000003d0: fdd7 173b 27bf 78ba 5f43 e9ba e789 f1bb
000003e0: 12f4 14bb 4e06 8cba 6f9d f9bb 66c0 8b3b
000003f0: f897 4dbc 4b9d 623c 26dc 2e3c b528 c43b

action_model._discrete_distribution.branches.1.bias f4 [3]
0.0017146689 0.0020616471 -0.002930504
00000000: bebe e03a b31c 073b b30d 40bb

onnx::Div_88 f4 [45]
0.007365496 0.108111165 0.2449881 0.2938957 0.14114368 0.007365496 0.4329108 0.235176
0.48210385 0.3769969 0.007365496 0.37981674 0.3111677 0.48207408 0.25001594 0.007365496
0.48579505 0.32549095 0.4754539 0.39255828 0.007365496 0.49719378 0.20340317 0.3977467
0.2974122 0.007365496 0.44596964 0.13744132 0.3594737 0.38520822 0.007365496 0.4151428
0.007365496 0.383627 0.2695705 0.007365496 0.2166475 0.007365496 0.19795534 0.22818914
0.007365496 0.32319924 0.007365496 0.34407955 0.105297156
00000000: 425a f13b 6369 dd3d 29de 7a3e 7f79 963e
00000010: f887 103e 425a f13b 7ca6 dd3e fad1 703e
00000020: 51d6 f63e bd05 c13e 425a f13b 5777 c23e
00000030: 5f51 9f3e 6ad2 f63e 1702 803e 425a f13b
00000040: 21ba f83e c0a6 a63e b26e f33e 66fd c83e
00000050: 425a f13b 2f90 fe3e ec48 503e 75a5 cb3e
00000060: 6946 983e 425a f13b 2256 e43e 6bbd 0c3e
00000070: f00c b83e 033a c53e 425a f13b 998d d43e
00000080: 425a f13b c26a c43e 2505 8a3e 425a f13b
00000090: d8d8 5d3e 425a f13b ceb4 4a3e 6aaa 693e
000000a0: 425a f13b 5f7a a53e 425a f13b 322b b03e
000000b0: 09a6 d73d

onnx::Div_91 f4 [6]
0.43721387 0.2910648 0.4369122 0.2902722 0.43660983 0.28947654
00000000: 7fda df3e 7206 953e f5b2 df3e 8f9e 943e
00000010: 538b df3e 4536 943e

onnx::Div_94 f4 [19]
0.34339172 0.19887511 0.3281728 0.60746527 0.008251586 0.007365496 0.46536022 0.4750098
0.3696948 0.15843019 0.04075204 0.18802063 0.7636314 0.007365496 0.007365496 0.007365496
0.007365496 0.007365496 0.007365496
00000000: 0ad1 af3e eba5 4b3e 4406 a83e d882 1b3f
00000010: a931 073c 425a f13b b243 ee3e 7c34 f33e
00000020: a348 bd3e 863b 223e 9ceb 263d 7b88 403e
00000030: 597d 433f 425a f13b 425a f13b 425a f13b
00000040: 425a f13b 425a f13b 425a f13b
