Usable_Data/Versuch_4-2/PKWParking/PKWParking-19999951.onnx (onnx, 882958 bytes, 15 tensors)

discrete_act_size_vector f4 [1, 2]
00000000: 0000 8040 0000 4040
4.0 3.0

network_body.observation_encoder.processors.0.normalizer.running_mean f4 [315]
00000000: 6100 d13a bd0d b73d 3187 113e ec2d 583d
00000010: 81e0 3f3d a8dd 273f 6a77 5a3f 66fd bf3a
00000020: 8335 5a3e 7616 0e3e b13c 653d 5357 243d
00000030: 757e 023f 52b4 443f 5d41 963a 82f0 773d
00000040: 3a9e 063e a052 833d eb36 c53c 6d2e 303f
00000050: 4a6c 5c3f ef6f 983a e6f1 273e 944a 763e
00000060: ffe8 ae3d 365e c13c 1869 e73e 94a7 303f
00000070: 0838 9a3a 5448 953d 1bd7 1a3e a1f1 b43d
00000080: e646 083d 516d 1f3f 0978 553f 0211 9b3a
00000090: 0ad4 153e bc40 8c3e 2e1a 0d3e 0d4b ac3c
000000a0: ed1b bb3e f626 2f3f 1e68 3f3a 7b44 6f3d
000000b0: 47b7 2b3e fff2 ea3d 99f1 8d3c b460 153f
000000c0: a94b 543f fee6 883a db49 273e ccbd 7d3e
000000d0: 8c29 073e 280e 2e3c 3b37 c23e 0fbc 393f
000000e0: 2f0e 193a 64d7 7d3d 30e3 233e ef4f b33d
000000f0: e3d1 593c 46dd 1c3f 574b 593f ec99 2e3a
00000100: ec60 263e 486f 593e a071 963d 2edf 173c
00000110: ceed fd3e dea3 4a3f 43d3 1a3a 444e ae3d
00000120: e48a ce3d fd94 7d3d 58f4 623c f2a3 2f3f
00000130: fe20 5f3f 5af3 8039 7a53 1a3e fe45 973d
00000140: 9a89 003d efa6 713b ccbc 343f ac68 593f
00000150: ea74 1a3a 06e0 a83d fff2 c43d afbc 303d
00000160: 9fbe 4b3b 0499 3a3f 715f 643f 9a6a db39
00000170: f07a f03d 017e a63d 9ea0 9f3c cb30 7f3a
00000180: 81f1 3f3f 11b3 6a3f 2ecb 253a 901c 9c3d
00000190: 518d c03d d422 d23c d9e3 503a cf94 413f
000001a0: d07c 6c3f df17 d13a 84a1 b73d 28e9 113e
000001b0: 20b4 583d 2c5d 403d 6759 283f b918 5b3f
000001c0: bb16 c03a d9b9 5a3e d369 0e3e 4e03 663d
000001d0: d6c6 243d b6e3 023f e447 453f 8d53 963a
000001e0: 8ca7 783d e7f8 063e 3f9c 833d 97a8 c53c
000001f0: baae 303f b50e 5d3f c085 983a e263 283e
00000200: 6ed0 763e 0995 af3d d9ff c13c 4319 e83e
00000210: 9527 313f dc48 9a3a 7bd1 953d 2e49 1b3e
00000220: df44 b53d e7cc 083d 43dd 1f3f 6312 563f
00000230: e526 9b3a a539 163e 9490 8c3e bd9b 0d3e
00000240: d5b6 ac3c f2ae bb3e 5ca6 2f3f 677f 3f3a
00000250: 2725 703d 5f45 2c3e 6c86 eb3d 0f36 8e3c
00000260: 64c8 153f 57e2 543f ddfa 883a d6c4 273e
00000270: fd44 7e3e 41a7 073e 3f8e 2e3c c4ca c23e
00000280: a53e 3a3f 741b 193a f0d0 7e3d 9a68 243e
00000290: 72c3 b33d 604e 5a3c 9b47 1d3f 12e6 593f
000002a0: 41b8 2e3a cecd 263e 64de 593e d01d 973d
000002b0: 5738 183c e4af fe3e ba31 4b3f 8ce0 1a3a
000002c0: 9eff ae3d 7f15 cf3d a835 7e3d 9c6d 633c
000002d0: 9f22 303f b5c6 5f3f f114 8139 c3ab 1a3e
000002e0: 7aa4 973d 89fb 003d 21cb 723b ae3f 353f
000002f0: b101 5a3f 7282 1a3a ee80 a93d 2482 c53d
00000300: 1117 313d d2f6 4b3b ef1b 3b3f 5e01 653f
00000310: 1d78 db39 08d7 f03d 5a1a a73d f741 a03c
00000320: 5198 803a 2182 403f 2a69 6b3f 35d5 253a
00000330: a39c 9c3d d251 c13d 5bad d23c 2e2d 513a
00000340: 9b1b 423f f924 6d3f 652f d13a 8535 b83d
00000350: 0b49 123e 883a 593d 2ee9 403d d7d2 283f
00000360: 65b6 5b3f 962f c03a 033c 5b3e 6bbe 0e3e
00000370: 0bd0 663d 2a3a 253d e648 033f efd9 453f
00000380: 1266 963a b569 793d 2a54 073e 27df 833d
00000390: 3b2c c63c 2730 313f 1fae 5d3f b799 983a
000003a0: 5cd9 283e 3c55 773e fb40 b03d c3aa c23c
000003b0: 34c9 e83e 00a8 313f b559 9a3a 785a 963d
000003c0: ddbb 1b3e 5b96 b53d 1152 093d cb4d 203f
000003d0: 19ab 563f bc3c 9b3a cf9f 163e 84df 8c3e
000003e0: a31b 0e3e 2820 ad3c 8342 bc3e 0024 303f
000003f0: 5796 3f3a ce06 713d c8dc 2c3e e318 ec3d
0.0015945547 0.08938167 0.14211728 0.05277817 0.046844963 0.65572596 0.8533846 0.0014647662
0.21309476 0.13875756 0.055966083 0.04012234 0.5097421 0.76837647 0.0011463572 0.0605321
0.13146296 0.06412244 0.024074038 0.6882084 0.86102736 0.0011630038 0.1640087 0.24051887
0.08540534 0.023604494 0.45197368 0.69005704 0.0011765966 0.07289186 0.15121119 0.088351496
0.03327074 0.6227618 0.83386284 0.001183063 0.14631668 0.27393138 0.13779518 0.02103188
0.36544743 0.68418825 0.00073015864 0.058414917 0.16769134 0.11472129 0.017327117 0.5835068
0.8292795 0.0010444818 0.16336767 0.24779433 0.13199443 0.010623492 0.37932763 0.7255258
0.00058386003 0.06197299 0.16004634 0.087554805 0.01329467 0.61275136 0.84880584 0.00066605094
0.1624791 0.21233857 0.07345891 0.009269519 0.49595493 0.7915629 0.0005906114 0.08511022
0.10085085 0.061909664 0.013852201 0.68609536 0.8715972 0.00024595374 0.15070906 0.07386397
0.031381227 0.0036873182 0.7060058 0.8492534 0.00058920553 0.08245854 0.0961666 0.043148693
0.003108896 0.72889733 0.8920813 0.0004185036 0.117421985 0.08129502 0.019485768 0.0009734749
0.7497788 0.91679484 0.00063245266 0.07622635 0.09401954 0.025651373 0.0007968522 0.7561769
0.9237795 0.0015952549 0.089663535 0.14249098 0.052906156 0.046963856 0.6576142 0.855846
0.0014655212 0.21359958 0.13907556 0.056155495 0.040228687 0.5112871 0.7706282 0.0011468992
0.06070666 0.13180886 0.06426286 0.024128241 0.6901661 0.86350566 0.001163654 0.16444352
0.24102947 0.08573348 0.023681568 0.45331773 0.6920102 0.0011770981 0.07315346 0.15164635
0.08851027 0.033398535 0.62446994 0.83621806 0.0011837153 0.14670427 0.27454054 0.1382894
0.021083275 0.3665691 0.6861322 0.0007305056 0.05862918 0.16823338 0.11500248 0.017359762
0.58508897 0.8315787 0.001045074 0.1638368 0.24831004 0.13247396 0.010654031 0.38045323
0.7275184 0.00058405777 0.062210977 0.16055527 0.087775126 0.01332435 0.61437386 0.85116684
0.0006665029 0.16289446 0.21276242 0.07378733 0.009290776 0.4974357 0.7937275 0.0005908094
0.08544849 0.10111522 0.06206289 0.013881113 0.6880283 0.8741258 0.000246204 0.15104584
0.07404418 0.031489883 0.0037047344 0.7080029 0.8515883 0.00058940717 0.082765445 0.09643963
0.04323489 0.0031122458 0.730895 0.8945521 0.00041860426 0.11759764 0.08159323 0.019562704
0.0009811019 0.7519856 0.9195734 0.0006326021 0.076470636 0.09439434 0.025717428 0.00079794496
0.7582337 0.9263454 0.0015959559 0.08994583 0.14285676 0.053034335 0.047097377 0.65946716
0.85825187 0.0014662619 0.21409611 0.13939826 0.05635075 0.040338673 0.5128311 0.77285665
0.0011474511 0.060891826 0.132157 0.06439047 0.024191013 0.692141 0.8659381 0.001164249
0.16489166 0.24153608 0.08606144 0.023763066 0.45466006 0.6939697 0.0011776002 0.07341474
0.15208383 0.08866569 0.03352553 0.626187 0.83854824 0.0011843662 0.147094 0.2751428
0.1387773 0.021133497 0.36769494 0.6880493 0.0007308474 0.05884438 0.16881096 0.11528184

network_body.observation_encoder.processors.1.normalizer.running_mean f4 [13]
00000000: b9b1 533d fbb0 533d 7f75 713f e9ac 64be
00000010: 13a4 8ebd 518d e33e 0000 0000 84f5 f03e
00000020: 950c bc3e 8750 ac3e e322 d13e 39b6 80bc
00000030: 3e6f ff3d
0.05168316 0.051682454 0.9431991 -0.22331585 -0.069648884 0.44443753 0.0 0.47062314
0.3672835 0.33655187 0.4084693 -0.01571189 0.1247239

network_body._body_endoder.seq_layers.0.weight f4 [256, 328]
00000000: a42f 533d 1cee 803d 726d 8e3c cbf0 89be
00000010: b197 16be fe24 183d c72d 62bc e2ff 573d
00000020: d33b 853d adcb 5dbc 4a07 1d3e 2552 993d
00000030: 615c 04be 5e2b b5bd d51f 8ebc d557 ec3d
00000040: 6f95 9a3d 8bd3 1abe 0087 9fbd c9e6 88be
00000050: 38b6 e5bd d801 d63d 3bd8 083c d945 4bbd
00000060: 90de 6bbe ea7c 213b e795 383e 848a 213e
00000070: db50 2c3e c817 7cbd e5d9 dabd 1914 67be
00000080: 69bc e0bd 8da2 54bd 0a35 a5bd 27b7 ddbd
00000090: 458d 67bc f69d 18bc a9ae fd3d 3db7 f2bd
000000a0: dc36 053e 18aa aabc 61c4 4c3d dc63 0c3d
000000b0: 5ed9 2a3d d497 c4bd f491 c43d 4740 60bc
000000c0: 3276 8ebd 0db4 563d d250 8a3d 4814 b43d
000000d0: 28e2 88bd e4b0 893d e58d a3bc 94cb 85bd
000000e0: 9e13 d83c 6be2 333d 341f 5c3e 837b 613e
000000f0: d392 a03d 1526 34be 27d1 30be ea78 98bd
00000100: 1a61 8d3c d79d dfbd e4ed 733c e2f7 febc
00000110: 9640 df3d 52b4 cbbd a075 4c3d 204c 66bd
00000120: 4cd4 1f3d 400f 653c 0d83 00bd 54da 263d
00000130: 8666 dfbb 6108 d83b c7f4 b7bc 32e9 edbb
00000140: 0fab 28be b4a5 c13c 6f4d 913c 1051 82bd
00000150: ca4c fc3c 4843 843d 0fc0 19be 4749 0ebe
00000160: 63b6 a7bd 42b5 353e 8e64 b5bc 65d2 e93d
00000170: bd1b 8ebd ddcc 913d de05 88bd 8280 b43d
00000180: 7115 95bd 1d4c 0ebd 1642 99bd a416 04be
00000190: 1617 b7ba 1368 743d 5b9e 5c3d b22c 01be
000001a0: c555 7bbe 3b6e d13d 71aa 1cbc 8c3b 153d
000001b0: 6788 e6bd d611 21be 9acf dcbb 9e9b 41bd
000001c0: 30b9 163d 6c56 243c 930a 1f3d 8732 353e
000001d0: 7803 e7bd f041 09be 4ace 65bd f696 af3c
000001e0: 3ccb 093e 0520 9ebc faa3 3fbe ee93 18be
000001f0: 42be 24be fa96 8cbd e6b9 08bd 6a6d 9fbd
00000200: 080e a93d 7bcb 45be 5ee3 863d 3632 803e
00000210: 4b2b 8e3d dc89 2d3e 7fcd afbd 064a 19be
00000220: e27c a1bd d522 a7bd 5f6f 2b3d fd23 013c
00000230: 43c4 87bd d876 543b 0dc6 193c c316 0c3c
00000240: a91d 0fbe 096c c2bc 5822 0b3d 5d81 103e
00000250: f138 74bc 604c 1f3d f1d3 2cbe 27e0 093d
00000260: dd1d dcbc ed54 8b3d 746d 9d3c dbe9 56bd
00000270: 4a31 b43d 0d8d c53c 015a 92bc 81bc 993d
00000280: 72c8 733a 5558 aa3c aab4 f23d f6b2 373e
00000290: ef72 a23d 03d7 aebc eb97 65be e1db 02be
000002a0: 8b00 9d3d 0016 07bd f740 31bd 01bb 4cbd
000002b0: a7ff 393b e364 ad3d 8558 d4bd 236e 33bc
000002c0: c0c8 e33d 62a3 953d cb22 29be a796 cdbc
000002d0: 26f7 db3d 0b6e db3d c246 e53d 278b 2bbd
000002e0: 97fb 5fbd d382 f5bd 6e70 eebd 9d44 34be
000002f0: 73cd f93c f5e0 89bc bda6 89bd 83e5 05be
00000300: 2353 58be 5a31 8dbc ee72 423e 6744 093e
00000310: b38e 653d 6422 fbbd 573b d4bd 52ef a5bd
00000320: f7a4 633d 3f5b cbbd f21a bfbc 212a b23d
00000330: 7b67 c93d a87f 513c 7ca3 7dbb 67ff d6bc
00000340: baf5 32be 5089 05be 280d 763c 17ee 6d3c
00000350: b191 03bc 0920 2abe 142e 76bd 1c78 293d
00000360: be31 71bd e1ac 253d 63fe e3bc 65ff 9b3d
00000370: 5390 6f3e b690 593d d705 47be 5b62 9b3c
00000380: b31d d23d 8809 7e3e 53d5 2dbb bb1e 15be
00000390: 2361 61be dd13 973c b02c 33bd 7a7b d8bd
000003a0: 0fb1 ccbd a38d 04bd aff7 85be fdbe 803d
000003b0: 71a5 743e 2b6b 833d 19e2 e6bb 97c4 453d
000003c0: cbd5 7b3c 385e 11be 8c25 dfbd 7e89 eb3d
000003d0: 1c2f a13c 7f27 64bd 679a 95bc eb59 383d
000003e0: 897b 1f3e a58b 2dbe e740 60bd 5ccb 223c
000003f0: b78d 8a3a 93d3 94bb 2699 e03d 59c5 22be
0.051559106 0.06295416 0.017386172 -0.26941523 -0.14706303 0.037144653 -0.0138048595 0.052734263
0.06505551 -0.01353733 0.15334812 0.07486371 -0.12925865 -0.08846162 -0.017349163 0.1154019
0.075480334 -0.1511976 -0.07789421 -0.26738575 -0.11216396 0.104495704 0.008352335 -0.04962716
-0.2303412 0.0024641105 0.18025933 0.15775496 0.16827719 -0.061546117 -0.10686091 -0.2256626
-0.109734364 -0.051912833 -0.08066757 -0.10825949 -0.014132802 -0.009315005 0.123868294 -0.11851356
0.13009208 -0.02083306 0.04999197 0.03427492 0.041711204 -0.095992714 0.09598151 -0.0136872
-0.06956138 0.052417804 0.067536965 0.08792931 -0.06683761 0.06723192 -0.019965122 -0.0653297
0.026376542 0.0439171 0.21496278 0.22019772 0.078405045 -0.17592652 -0.17267285 -0.074449375
0.017258216 -0.109187774 0.0148882605 -0.03112406 0.10900991 -0.09946503 0.049916863 -0.056224942
0.03902082 0.013980687 -0.03137498 0.040735558 -0.0068176417 0.0065927957 -0.022455586 -0.007260465
-0.16471504 0.023638584 0.017737119 -0.06363118 0.030798335 0.064581454 -0.15014671 -0.1389514
-0.081890844 0.17744926 -0.022142675 0.11417083 -0.069388844 0.07119153 -0.06641744 0.088135734
-0.0727948 -0.034740556 -0.07483308 -0.12899262 -0.0013968672 0.059669565 0.053861957 -0.12614706
-0.24544437 0.10226103 -0.009562121 0.03643374 -0.112564854 -0.1572946 -0.006738615 -0.04726755
0.036797702 0.01003037 0.038828444 0.17695056 -0.112799585 -0.1340406 -0.056104936 0.021434288
0.13456434 -0.019302377 -0.18714896 -0.1490018 -0.16088203 -0.06864734 -0.03338041 -0.07784541
0.082546294 -0.19315903 0.065863356 0.25038308 0.06941851 0.1694712 -0.08584117 -0.14969644
-0.07885148 -0.081609406 0.04185426 0.007882115 -0.06629231 0.003241947 0.009385598 0.008550349
-0.13976158 -0.023733156 0.0339683 0.14111848 -0.014906154 0.038891196 -0.16877724 0.033661034
-0.026869709 0.06803308 0.01921723 -0.052469116 0.08798464 0.02411511 -0.017865183 0.075066574
0.0009299583 0.020794073 0.11850865 0.17939362 0.07932078 -0.02134276 -0.22421233 -0.1277919
0.07666119 -0.032979965 -0.043274846 -0.04998303 0.002838114 0.08466508 -0.10368446 -0.010951552
0.111222744 0.073065534 -0.16517179 -0.02509625 0.10740499 0.107143484 0.111951366 -0.041880753
-0.054683294 -0.11987843 -0.11642538 -0.17604299 0.030493474 -0.0168309 -0.06721256 -0.13075833
-0.21125464 -0.017235447 0.18989155 0.13405 0.05604429 -0.12262419 -0.10362881 -0.08102287
0.055577245 -0.09929513 -0.023328278 0.08699442 0.098341905 0.012786783 -0.003870218 -0.026244832
-0.1747655 -0.13040662 0.015017785 0.014522097 -0.008030341 -0.16613783 -0.060102537 0.04137431
-0.05888533 0.040448073 -0.027831262 0.07617072 0.23394899 0.053116523 -0.19435821 0.018967798
0.10259571 0.24808323 -0.0026524856 -0.14562504 -0.22009711 0.018442089 -0.04374379 -0.10570426
-0.09994709 -0.032361638 -0.2616553 0.06286428 0.23891236 0.06416925 -0.007045996 0.048283186
0.015370796 -0.14196098 -0.108958334 0.11500834 0.019675784 -0.05570173 -0.018262101 0.045007627
0.15574469 -0.16947801 -0.054749396 0.00993618 0.0010570799 -0.004541823 0.10966711 -0.15895595

network_body._body_endoder.seq_layers.0.bias f4 [256]
00000000: 5ad9 a1bc 4ef0 04be e1d0 febd 2b9b c3bd
00000010: eb41 3dbe 29b0 373d a43e 83bd f5ea 58be
00000020: 06fe 713d 29e6 02be 53b5 b2bc a258 b5bd
00000030: cc3d 9fbd d7db 39be b5e2 94bd 256d 51be
00000040: 9143 34bd ded5 26be 0f27 12be 6772 46bd
00000050: 57b6 42be d4d3 01be 7cb8 7ebd 738e c3bb
00000060: 4cd1 15bd 946d a03c 7324 083d db08 13be
00000070: b530 8fbe 2833 d6bd 83db 3abe 6e45 0a3b
00000080: decf 07be 87df 95bd 7f17 223e 7f0e b3bd
00000090: 08de 21be 1c33 61bd 7053 b9be 9c78 b5bd
000000a0: 9109 383c c8a2 39be d209 98bd c4b1 a6bd
000000b0: 829f d43d 3c41 78bd be75 39be 91f6 2ebe
000000c0: a5a6 7ebe 8a11 f1bd d0b9 87be 2e1d febc
000000d0: a620 193c dee3 bdbd 4b9b fdbd 8254 93bd
000000e0: 6daa c0bd c3c4 72be f73e 12be f233 eabd
000000f0: 52cc 3cbe 1060 54be 02b0 b3bc 049f 01be
00000100: c645 12be 2c8b cdbd b42c bbbd 1934 0e3d
00000110: 53da d8bd 18e2 243e f484 a13d ac56 17be
00000120: 00e1 cebd 2635 e8bc 5d35 dcbd 3290 53be
00000130: fb8c 01bc 9e29 20be 00e2 6abe cbde 19be
00000140: 2fc8 7cbe d13a c7bd 5d23 67be 4e36 06be
00000150: 8d87 98be 68c2 32be 592f d4bd fbc6 0dbe
00000160: d640 87be 230b 0abe c976 1ebd b72a 15bd
00000170: 2b1f 45be a377 01be e1bf 00be b5e7 bdbd
00000180: 4b8c b2bd c678 8cbd 2d8f 2fbe 9783 dd3b
00000190: c600 27be d9fb 473c 50ed 76be c912 77be
000001a0: a990 35be e636 46bd b0c7 8cbd 2557 513d
000001b0: aa82 84bd 6036 66bc 2c31 43be 549e 29be
000001c0: 99ca 98bd 0798 34be 3e76 ddbd ea8f 79be
000001d0: fecb 703c 40ac f9bd 55f1 95bd c1a7 10be
000001e0: e428 18be 2316 82be 7e4a 39be 8d9d edbd
000001f0: c332 3cbd c18d 8bbe 95a6 adbd 7163 8fbe
00000200: 6d39 e4bc 4b5a 57be dd78 f23c 7499 a2bd
00000210: af22 09be 316e d1bd b7ed f6bc f962 f2bc
00000220: b4f5 6bbe 3d37 a5bd e775 c3bd 924a b7bc
00000230: dfb7 983b 8cf4 aabd 0fc6 34be 31a2 39be
00000240: 207b 98bd aa80 87be b757 d0bd 0635 95be
00000250: 68c2 faba 1f34 dbbd af3d 78bd fddc 0abe
00000260: 4b17 3cbe 8381 90be 8df0 9fbd 9987 8bbe
00000270: a977 63be 2dfb 68be 3ade 63be ebec 17be
00000280: e016 5cbd 5827 e1bd 3c1f 88be 5a76 afbd
00000290: 54ed a03d 9c21 d4bd f1c2 e5bd 09d7 c8bd
000002a0: cf0c 91be c747 64be 1b84 84bd 6a51 b03c
000002b0: 6bc2 7bbe bf0a a4bd 540f 34be 3d71 5dbe
000002c0: 06af bebd 7a79 06be eb08 adbd bd1f 6abe
000002d0: 9b0d 15be ec98 a4be ad15 69be ad12 2dbe
000002e0: f4e7 87bd 93a0 38bd 4925 e6bd dc10 80be
000002f0: d616 94bd 88c0 8f3d e521 d4bd 2e8d bc3d
00000300: 66cb 49be 0cce 23be 2ed2 e2bd 18f9 8fbe
00000310: 3ed0 6a3d 9375 efba ab20 edbd 5f82 42bd
00000320: c613 31be 9059 8bbe d995 97be f815 0dbd
00000330: 652a 29be 33f1 5a3d ee4e 62be 10bc c4bd
00000340: 04ed d5bd ffd0 03bc efd6 94bd 020e a4bd
00000350: 286f 9c3c 9030 8c3d 28b0 4dbe 0f9f c9bb
00000360: d59e 0abe 01a2 d13c a7b9 04be ef3d 7bbe
00000370: 4e0a ddbd 3925 1cbd 5d03 8abd 7de3 b6bd
00000380: 7db3 4fbd 08f1 56bd c1bd 5abe 69f5 1dbe
00000390: 593e d5bd c516 7cbe 97b9 4fbe 0e64 b5bd
000003a0: 0f55 f9bd 004e 79bd 0fe5 dfbd bdd1 b43c
000003b0: 1c2c ddbd 6e8d 50bd 921a 373e 8f06 09be
000003c0: 0d5f 49bc ebb5 ccbd 1d54 89be 1aa2 99bd
000003d0: 2997 d2bd af67 48be 3181 1cbe 4a60 efbd
000003e0: fa5a 67bd 33a3 2fbd 2349 f2bd fdb8 c3bd
000003f0: cd3f ffbd f942 83be a9a5 a1be 47b9 f2bd
-0.019756962 -0.12982294 -0.12442184 -0.0955108 -0.18482177 0.044845734 -0.06408432 -0.21183379
0.059080146 -0.12783112 -0.021814978 -0.08854796 -0.07775459 -0.18150268 -0.072698034 -0.20451792
-0.04400975 -0.16292521 -0.14272712 -0.048448946 -0.1901487 -0.12678462 -0.062187657 -0.005967909
-0.036576554 0.0195835 0.033237886 -0.14358847 -0.27966848 -0.10458976 -0.182478 0.0021098512
-0.13262889 -0.07318025 0.15829276 -0.08742999 -0.15807354 -0.054980382 -0.3619647 -0.08860895
0.01123275 -0.18128502 -0.07423748 -0.08139375 0.10381986 -0.060609087 -0.18111321 -0.17086245
-0.24868257 -0.117709234 -0.2650895 -0.031019773 0.009346163 -0.09271978 -0.123831354 -0.07193853
-0.09407506 -0.23707871 -0.14281832 -0.11435689 -0.18437317 -0.2073977 -0.021934513 -0.12658316
-0.14284429 -0.100363106 -0.09139386 0.034717653 -0.10588517 0.16101873 0.07886687 -0.14779156
-0.10101509 -0.028345656 -0.10752366 -0.20660475 -0.0079071475 -0.15640876 -0.22937775 -0.15026395
-0.24685739 -0.09728015 -0.22572084 -0.13106653 -0.29790917 -0.17456973 -0.10360593 -0.13845436
-0.26416653 -0.13480811 -0.0386875 -0.03641769 -0.19250171 -0.12643294 -0.12573196 -0.0927271
-0.08718165 -0.06858973 -0.17144461 0.0067600715 -0.16308889 0.012206041 -0.24113965 -0.2412826
-0.17730965 -0.0483922 -0.06874025 0.051108498 -0.06470235 -0.01405105 -0.19061726 -0.16564304
-0.074605174 -0.17636119 -0.108135685 -0.24371305 0.014697073 -0.12191057 -0.07321421 -0.14126493
-0.14859349 -0.25407514 -0.18094823 -0.11602316 -0.045946848 -0.27256587 -0.084790386 -0.28005555
-0.027859414 -0.21030538 0.029598648 -0.07939425 -0.13392137 -0.102260955 -0.030142648 -0.02958821
-0.23042947 -0.080671765 -0.095439725 -0.022374425 0.004660591 -0.08347425 -0.17653678 -0.18128277
-0.07445359 -0.2646535 -0.1017298 -0.29142016 -0.0019131424 -0.10703301 -0.0606057 -0.13560863
-0.1836826 -0.2822381 -0.07809553 -0.2725189 -0.22213615 -0.22752066 -0.22252741 -0.14836471
-0.053732753 -0.10993832 -0.2658633 -0.08567496 0.07857767 -0.10357973 -0.11218823 -0.0980664
-0.28330085 -0.22293006 -0.064705096 0.021523196 -0.24585883 -0.08009862 -0.17583972 -0.21625228
-0.09310727 -0.13132277 -0.084489666 -0.2286367 -0.14555971 -0.3214792 -0.22762175 -0.16901655
-0.066360384 -0.04507501 -0.1123758 -0.25012863 -0.07230918 0.07019144 -0.10358027 0.092066154
-0.19706497 -0.1599657 -0.11075245 -0.2811973 0.0573275 -0.0018269293 -0.115784965 -0.047487613
-0.17292699 -0.27216768 -0.29606512 -0.03444478 -0.16520078 0.05345268 -0.22100422 -0.096061826
-0.10445598 -0.008045434 -0.07267558 -0.08010484 0.019095972 0.068452 -0.2008673 -0.0061529945
-0.13537152 0.025589945 -0.12961446 -0.24535345 -0.10792981 -0.038121436 -0.06738923 -0.08930109
-0.050708283 -0.05247596 -0.21361448 -0.15425648 -0.104122825 -0.24618061 -0.2028564 -0.088569745
-0.12174427 -0.060865402 -0.10932361 0.022072667 -0.10799429 -0.050916128 0.1788123 -0.13381408
-0.012290728 -0.099956356 -0.26821986 -0.075016215 -0.10282738 -0.19570802 -0.15283658 -0.116882876
-0.056483246 -0.04288025 -0.11830356 -0.09556768 -0.12463341 -0.25637034 -0.315717 -0.11851745

network_body._body_endoder.seq_layers.2.weight f4 [256, 256]
00000000: a898 4b3a 3fdb cebb e23f cabd 8d97 25be
00000010: e73a 90bd 58fc f7bd b477 9cbe 0989 683d
00000020: beb5 65bc 247b debd 4fbf f33d f5f2 6e3b
00000030: 158e b5be f1bb 13bb b098 653d 622e e6bc
00000040: 4d66 babd 11d2 85bd 9ea9 753c ea85 2bbe
00000050: 33e6 08be b4af bdbe 9dda 55bd 10fa e83d
00000060: e2cb 81bd 004d 46bd 0e57 c3bd 4cee 2fbe
00000070: 4ebb b0bd 2949 253e eac1 3dbe 2808 883d
00000080: 8506 0ebe 397a bbbc 4ae8 71bc fd7f 143e
00000090: 782e 28be 2f1b 693e 5aa3 503b 1f8f 8dbd
000000a0: 1083 48bd f54e 053e fb4a dcbd c17b 0c3d
000000b0: 4c1a 20bd 687d f2bd df7d acbd 3d31 e23c
000000c0: 96f6 f13c f762 31be 2744 fdbd 7f7f 0a3e
000000d0: f35d dc3d eb4b e2bd c430 0abe 1b38 aa3b
000000e0: bb79 c9bc e1c1 9d3c 40eb a93d b3d3 a0bd
000000f0: 816a ef3c 088b 2cbc 175e 5cbe 4939 10bd
00000100: 8236 bbbd 7178 54bd 48a7 a13d 7804 023e
00000110: 11ec ed3d e34d c53d 8264 f9bc 175c d23d
00000120: cbfb 18be 7c9e 833c 1540 0f3e dcb3 cfbc
00000130: 24f0 bebd 8da7 7fbe d029 69bd 00cf bdbd
00000140: 0c1e bcbd b922 153d 8131 afbd fcc9 023e
00000150: cd81 223c 5da8 3cbe 1b01 07bd 72eb 23be
00000160: bbda b03d 78fb be3d 13be 4bbe c1e3 623e
00000170: 6c4c 8abe 6a5c b4bc 3ad1 97bd 0713 9abd
00000180: 69fa 7bbd dfc1 28be e59f 3cbe b3e4 34bd
00000190: f6a6 23be 6338 30bc cd6e dbbd df11 a83d
000001a0: c11d 41bd ddf9 0c3d f224 e2bd fb74 e7bd
000001b0: 2a56 08bc 816a 513e e598 fe3d 0ca1 49bd
000001c0: 5e85 b8bd 093f 77be 087d 8abe aae8 7bbd
000001d0: 6925 82be 685a 99bc 6701 20be c870 b1bd
000001e0: 6958 89be 29d6 35bd e04e 393d 2a11 c9bd
000001f0: 17fd 9dbc 110b 863b e552 8dbc 3817 1dbd
00000200: 09ff 3bbe edcb 413d da5d a2bc dd5c 45bd
00000210: bd1c 76bd b3e6 bf3d 36f1 38bd fc6b cbbd
00000220: 24e0 133e ea9b 8abd d497 633d 6518 4a3d
00000230: 1878 61be 5067 1cbe 9aa7 bdbc 4663 46be
00000240: 8c0b f3bd 414b 563d 8e3f 1f3e 2385 1a3d
00000250: 6847 c73d d5c2 8abe 2bad 29bd a1b9 b6bd
00000260: d61b f9bd b1a4 adbd 239f ddbd 31fd 05be
00000270: 0dbd d3bc aaab 13bd 7239 a8bc 3d29 dfbc
00000280: 4337 31be 3739 babb 610a 9cbd 94ed febb
00000290: 0f2e 38be 30c0 4ebd c8fe 073e 4666 1b3e
000002a0: 3e7d d4bd 2308 113d 466d 5bbd 88f5 aabd
000002b0: e9ab 82bd 7c19 0abd fe1d 27bd 52f2 b1bd
000002c0: 7aeb 22bd 2b30 1cbd cc71 dd3c 9f05 ae3c
000002d0: 1a59 a93d 8975 a33c 6021 bdbc 624b 04bc
000002e0: ce3f f2bc 96f6 1abb f6ba 1a3e 7d91 25bd
000002f0: e221 31be 6c4c 0dbe 8028 f23d 9875 af3d
00000300: c37e be3d 4d72 2bbd 4ede bf3d 3799 0bbe
00000310: 9dcb 113e 701a 87bd 1b65 9cba 985c 143e
00000320: 3e5d 9e3d 3923 80bd f6ab 35bd 518a 34be
00000330: 1584 ccbd 45ca c03d 55c1 e8bd 6f6a 933d
00000340: 87f3 4f3e c8d8 cebd 1a5e a83d 36ba c9bb
00000350: 0b40 76bd dd10 b23d cc4b cb3d 568b bb3d
00000360: 4259 a2bd 772e 903d dcb7 393e f6b4 58be
00000370: 6303 70bd 0c6e 26be b3f0 48bc 56cc 283e
00000380: 812d 19bc ad77 153e 2948 00be 8301 e6bc
00000390: c21f 3f3b 0d0b e1bd 8a31 143d 62dd b7bd
000003a0: b771 92bd 2451 383d a2dc bdbd 1914 993c
000003b0: 842d 5b3d 789c 8e3c c122 533e 1b5e 10be
000003c0: c57d 233c 92fa 363c 71b4 2fbd 8588 063e
000003d0: 8762 a8bc 72c3 c8bd 3e94 1b3e 1ae6 0b3e
000003e0: f304 18be a396 4bbd 7848 48be 55c6 31bd
000003f0: d952 183e af75 85bd 0a26 3fbd 8489 dbbd
0.0007766583 -0.0063127573 -0.09875466 -0.16171093 -0.07042485 -0.121086776 -0.30560076 0.056771312
-0.0140203815 -0.10863331 0.119017236 0.0036460732 -0.35459962 -0.0022542442 0.056053817 -0.028098289
-0.091015436 -0.065342076 0.014994053 -0.16750303 -0.13369064 -0.37048113 -0.05221044 0.11375821
-0.06337716 -0.048413277 -0.09538089 -0.17180747 -0.086294755 0.1614119 -0.18531004 0.06642181
-0.13869675 -0.022885429 -0.014764855 0.14501949 -0.16423976 0.22764276 0.0031835646 -0.06912064
-0.048953116 0.13018401 -0.10756489 0.03429771 -0.03908758 -0.118403256 -0.084224455 0.02761137
0.029536527 -0.17322908 -0.12366515 0.13525198 0.10760107 -0.110496365 -0.13495165 0.0051946766
-0.024594178 0.019257488 0.082968235 -0.078528784 0.02922559 -0.0105311945 -0.21520267 -0.03521088
-0.09141256 -0.051872674 0.078932345 0.12697017 0.11617292 0.09633996 -0.030443434 0.10271471
-0.14939801 0.016066782 0.13989289 -0.025354318 -0.09323147 -0.2496626 -0.05692464 -0.09267998
-0.091854185 0.036410067 -0.08554364 0.12772363 0.009918642 -0.184236 -0.03296004 -0.16007784
0.086354695 0.093253076 -0.19896726 0.22157194 -0.2701143 -0.022016723 -0.07412954 -0.075231604
-0.061518107 -0.16480206 -0.1842037 -0.044163417 -0.1598166 -0.010755631 -0.10714493 0.08206534
-0.047147516 0.034417976 -0.11042203 -0.11301609 -0.008321324 0.20450784 0.12431506 -0.049225852
-0.09009813 -0.2414514 -0.27048516 -0.061501183 -0.25419167 -0.018719867 -0.15625535 -0.086640894
-0.26825264 -0.044393692 0.045241237 -0.09817727 -0.019285722 0.0040906747 -0.017251441 -0.03835222
-0.18359007 0.04731362 -0.019820143 -0.048184264 -0.060086 0.09370174 -0.04515191 -0.09932706
0.14440972 -0.067680195 0.055564716 0.04933967 -0.22018468 -0.15273786 -0.023151208 -0.19373807
-0.11867437 0.05231786 0.15551588 0.037724625 0.097304165 -0.2710177 -0.04142491 -0.08922125
-0.121635124 -0.08478678 -0.108213685 -0.13084866 -0.025846982 -0.036052383 -0.020535205 -0.027241344
-0.17306237 -0.00568309 -0.07619167 -0.0077797864 -0.1798632 -0.050476253 0.13280785 0.15175733
-0.103754506 0.03540815 -0.05357101 -0.083476126 -0.063804455 -0.03371571 -0.040800087 -0.08688797
-0.03977535 -0.038131874 0.027031802 0.021242915 0.08268948 0.019953506 -0.023087204 -0.008074613
-0.02957144 -0.0023645512 0.15110382 -0.04042195 -0.17298082 -0.13798684 0.11824131 0.08567351
0.09301522 -0.041857053 0.09368573 -0.13632666 0.14237829 -0.065968394 -0.0011931987 0.14488447
0.07732628 -0.06256718 -0.044353448 -0.17630889 -0.0998613 0.0941358 -0.11365 0.07198035
0.20307742 -0.100999415 0.082210734 -0.0061562313 -0.06011967 0.08694623 0.099265665 0.091574356
-0.07927181 0.070401125 0.18136543 -0.21162781 -0.05859698 -0.16252917 -0.012264418 0.16484198
-0.009349228 0.14596434 -0.12527527 -0.028076893 0.0029163216 -0.10988436 0.036180057 -0.08977772
-0.07150596 0.044999257 -0.09270598 0.018686341 0.053510204 0.017408594 0.20618726 -0.14098398
0.009978716 0.011168139 -0.04289669 0.13138016 -0.020554794 -0.09802903 0.15193269 0.13661996
-0.14845638 -0.049704205 -0.19558895 -0.043402035 0.14875354 -0.06516587 -0.046667136 -0.107195884

network_body._body_endoder.seq_layers.2.bias f4 [256]
00000000: 9ef6 e4bc 1ec7 84be 8db2 933e 0ece 5dbe
00000010: 2e15 fabd 1211 d1bc 0c6c 26bd e9de a8bd
00000020: 7c57 efbd 52b6 abbd 986d 49bc 3383 b8bc
00000030: 87ee 04be 32a0 43be 2728 c8bd a21d 83be
00000040: acf5 4abe 2714 8dbd b67f 13bd b808 63be
00000050: 856a 8a3b b9cc babd 9e66 80bd f786 30bd
00000060: b063 52be 5f18 97bd 1afb ecbd d2b8 e83c
00000070: 63a8 fd3a b209 b8bd 7b3b c53b 2bcf e1bc
00000080: 15d0 583b 4c7a 01be e204 51be 8ad2 31be
00000090: c662 8bbd 3b0a bf3b e6b0 a7bd bff5 93bd
000000a0: bf8d febd dd92 04be cd99 f4bd 8ec0 9a3c
000000b0: 607f ecbc 49ea 0dbe a0a0 33be db2a fabd
000000c0: e19f f4bd 423a aabd 5048 dfbd ec5e 05be
000000d0: ff58 a2bd 0a5b 2abe 80ab ef3d 2e78 47be
000000e0: 0214 30be 6d99 cdbd 5152 09be 9e72 92bc
000000f0: 0b07 bb3d 2733 14bc b8cf 27bd 040d 0ebe
00000100: 4188 ccbd 428e 02be 7717 b23d df87 9ebd
00000110: a243 74bd 8b03 e8bd 9e2a 00be 3daf 14be
00000120: ab1d a6bc 926f 49be a3df 1abe 6a2c c4bd
00000130: ee82 37bd 3d76 2ebe c31a 55be a988 d3bc
00000140: 6b19 2ebe 62d8 44bc 4f32 94bc f173 f4bd
00000150: 8114 71be 591d 0fbe ac48 093b f11d 00be
00000160: b0cf 93bd 2b82 383d a733 e1bd ea97 22be
00000170: aef6 16ba c798 33be ae40 41bd 8d75 cabb
00000180: 9301 e9bd 82de 81bd 1d57 563c 5880 263e
00000190: 1125 03be f45b d4bd ae67 99bd 67ab c5bd
000001a0: 441c 083e e5c7 1cbe 2518 a6bd 3e8c 14be
000001b0: 1279 41be b55f 09be e99e 92bd cabf fbbd
000001c0: a515 14be b1d4 b8bd 0166 f23c 4f4f b7bd
000001d0: 0cac 1fbc 8f94 adbd df40 19bd 1195 f2bd
000001e0: 08e9 ddbd 4174 1cbe f9dd 0fbe a8c0 fbbd
000001f0: 3ef6 11bd 4ba1 04be d55d 63bd 7b7a 85be
00000200: 4745 95bd eaf9 02be 7ff7 aabc 5579 623d
00000210: 28db 9abd 3bcf 73bd 7b43 b5bd 6eab 28be
00000220: 2369 933d 38f6 90bc 58bd 9ebd 3d17 a33d
00000230: a203 183d 3522 bbbd 260d 0ebe 4d48 adbd
00000240: 5fc2 62bd 7689 64bc 358c 37be 8cd1 d23b
00000250: 732e 5bbe 47bd fabd 97ba 7b3c bdba 65bd
00000260: 4720 5fbd a0f8 07be 5513 1dbe be8f 4abd
00000270: d915 04be cbfd e7bb f02e 25be 0866 68be
00000280: 1586 86bd effd 77bd 7e2a 19be 4cbb f3bd
00000290: f6c8 21be c46d bcbd 0cb8 d8bd 20eb 28be
000002a0: 9c57 cfbd 6505 4dbe 6d47 06bd b843 e4bd
000002b0: 450d c3bd f569 e2bd 632f 63be cba6 c8bd
000002c0: 7076 83bd ec4b 67be 72c9 12be e0a2 31be
000002d0: 7d6f 1ebe 52b5 24be 7689 323e ab2a 1fbe
000002e0: dad2 e1bd 9852 88be f7d3 4dbe e486 07bd
000002f0: 7d77 14be c065 e8bd a0e2 a6bb 53f0 05be
00000300: 1ea2 98bd 7be8 2dbd 092c ca3a 4346 a1bd
00000310: 5c60 39be 0cff b3bd 89e6 0bbe f2d5 96bd
00000320: 71cd 80bd 809d abbd 4ff9 48bd 2547 033c
00000330: 57d1 abbd 4309 413e 4106 39be 0b88 cebd
00000340: 4218 8c3c 706e 72bd 0cbc d8ba 1e5f a03d
00000350: e3c6 17be 7cd1 50be 4a8c 78bd e7bc 14be
00000360: 19b7 11be 7935 06be a3ac 07be f9b8 e9bd
00000370: 4d88 d1bd 073a 0ebe 43f1 c4bd b0d9 f7bd
00000380: e614 25bd 1b03 0b3e cfb3 d2bd 4bca 113e
00000390: f5b6 fbbd 44fe 02be a7f9 6abe d203 24be
000003a0: 81d8 76be 2889 babd 8d73 08be 6919 25bd
000003b0: fb40 73bc 6076 07bd 569c 5bbd fb12 bdbd
000003c0: b190 a3bd 7659 183e 6b84 c9bd 69ad 0cbe
000003d0: 97d9 f0bd 59a9 24bd 4c2f 1cbe 4c60 4ebe
000003e0: f443 0bbe a71d ecba 71ee 9a3c 7b82 b1bd
000003f0: 2593 dcbd b849 a2bc 0047 d03d 39c1 0dbe
-0.027949627 -0.25933164 0.2884716 -0.21660635 -0.12211071 -0.025520835 -0.040630385 -0.08245642
-0.11686608 -0.08384384 -0.012294196 -0.022523498 -0.12981616 -0.19104078 -0.097732835 -0.25608546
-0.19820279 -0.068886094 -0.036010467 -0.22171295 0.004224124 -0.09121079 -0.06269573 -0.043097463
-0.2054584 -0.07377695 -0.11571331 0.028408442 0.0019352551 -0.08986224 0.0060190535 -0.027564606
0.003308301 -0.12644309 -0.20412019 -0.1736547 -0.06805949 0.005830077 -0.081880376 -0.07224607
-0.1242938 -0.12946649 -0.11943398 0.018890645 -0.02886933 -0.13858904 -0.17541742 -0.12215205
-0.11944557 -0.08311893 -0.109024644 -0.13024491 -0.07927131 -0.16636291 0.11702633 -0.19479439
-0.17195132 -0.10039029 -0.13410307 -0.01787692 0.09132203 -0.009045399 -0.04096958 -0.13872153
-0.09986926 -0.1274958 0.08695882 -0.07740759 -0.059634812 -0.11328801 -0.12516257 -0.14519973
-0.020277819 -0.19671467 -0.15124373 -0.09578784 -0.0448026 -0.17037292 -0.2081099 -0.025822
-0.17001884 -0.01201448 -0.018090395 -0.119361766 -0.23542978 -0.13976039 0.0020947857 -0.12511422
-0.072173476 0.045046013 -0.1099618 -0.15878263 -0.0005758804 -0.17538749 -0.047180824 -0.006178564
-0.113772534 -0.06341268 0.013082293 0.16259897 -0.12807108 -0.10369101 -0.074904785 -0.09651833
0.13292032 -0.15310629 -0.08110074 -0.14506623 -0.18893841 -0.13415416 -0.07159216 -0.1229244
-0.14461382 -0.09024943 0.029589655 -0.08950674 -0.009745609 -0.08475601 -0.03741538 -0.118448384
-0.10835463 -0.15278722 -0.1404952 -0.12292606 -0.035635225 -0.12952153 -0.055509407 -0.26070008
-0.07288604 -0.12790647 -0.020869968 0.055291492 -0.07561332 -0.059523802 -0.088507615 -0.16471645
0.071977876 -0.017695531 -0.07750958 0.07963417 0.03711284 -0.09137384 -0.13872203 -0.08461056
-0.055361148 -0.013948789 -0.17924578 0.0064336713 -0.21404438 -0.12243133 0.015364311 -0.05608629
-0.05447414 -0.13278437 -0.15339406 -0.04945349 -0.12898959 -0.007079815 -0.16131186 -0.22695172
-0.06568543 -0.060544904 -0.14957616 -0.119009584 -0.15799317 -0.09200624 -0.10581979 -0.16495943
-0.10124132 -0.20021589 -0.03278296 -0.11145729 -0.09524015 -0.11055366 -0.22186045 -0.09797438
-0.064190745 -0.22587556 -0.14334658 -0.17347288 -0.15472217 -0.16084793 0.1743525 -0.1554362
-0.11026545 -0.26625514 -0.2010039 -0.033087626 -0.14498706 -0.11347532 -0.005092934 -0.13079958
-0.074527964 -0.04245804 0.00154245 -0.078747295 -0.18103164 -0.08788881 -0.13662161 -0.073650256
-0.06289185 -0.0837965 -0.049065884 0.008012568 -0.08389538 0.1885119 -0.18068792 -0.10084542
0.01710141 -0.059187353 -0.0016535535 0.07830642 -0.14821963 -0.20392412 -0.060680665 -0.14525186
-0.14230002 -0.13106336 -0.1324945 -0.11412234 -0.102310754 -0.13889323 -0.096163295 -0.121020675
-0.040303133 0.13575403 -0.10288202 0.14237325 -0.12290756 -0.12792307 -0.22946797 -0.16017082
-0.24106027 -0.09108192 -0.13325329 -0.040307436 -0.0148470355 -0.033071876 -0.05361589 -0.09232136
-0.07986582 0.14877877 -0.0983971 -0.13738026 -0.11760252 -0.040200565 -0.15252417 -0.20153922
-0.13600141 -0.0018014208 0.018912526 -0.08667465 -0.10770253 -0.019810542 0.10169792 -0.1384324

network_body._body_endoder.seq_layers.4.weight f4 [256, 256]
00000000: f0d4 c6bd 5f6c f8bd 1674 1abe 524d 13be
00000010: 2b18 d23d 1cf5 293d 67dd 6cbd 5b0d 583e
00000020: be36 16be 4183 b23d ae4a 323e 3326 91be
00000030: 90ef 373e 88dd 01bd b52c 833d f712 02bd
00000040: 7a6c a5bc c5b3 53be 7aad 64be 04a1 e83c
00000050: f5f0 0cbe 3b2c 84be 66bb 163e 7520 c73d
00000060: ebed 25be ac0a 3b3e 82bc a23e fe51 0dbe
00000070: cd6b f2bd 2e40 a4be 83a3 19bd 740d 87be
00000080: 4307 593d d03b 42bd 8733 263e 2394 9abd
00000090: 5a4f 003e 024a d23d 1ee2 87bc 7b79 2cbc
000000a0: c881 57bd eaa6 3cbe 6aa1 9f3e 3ebe 243e
000000b0: a707 0fbd 38a5 d0bc fc2d 213e ede3 413b
000000c0: e56f 12be 9f9b c53c a3ce 0bbe c651 09bd
000000d0: fb52 cd3d a979 b0bd 2852 0c3c c5a4 1e3b
000000e0: c601 acbd a1eb 073e fe38 0f3d d4fd 1bbd
000000f0: fd75 a2bc 1e6d 63bd 681f 71bc bf7d e0bc
00000100: bc16 c9be 5526 08bd 9c55 62be 9170 bb3d
00000110: 39cc c13d 3d59 6bbe e54c cabd 6340 5cbe
00000120: 9ec2 163e a365 43be 1353 8bbc 4e63 1abe
00000130: 7705 213c 4d8c 8fba cf3d efbd c34b ab3d
00000140: 30da b8bd 16d9 6bbe 2a8a 813d 14f5 c13d
00000150: 7a0d cc3b 375f 64bc 1e2d 7b3e 37d5 ac3d
00000160: 2cf8 47be 2d7a 333e d1cf 0cbe fec2 2fbd
00000170: 6fb9 cbbd dc65 79bd f8c5 c7bd fe4f 2bbe
00000180: 2dfb 1c3e 9193 073c 0f39 c4bd b5f7 9fbd
00000190: 5d0a 39be f99e 3ebe b6ec 3d3e 3835 87be
000001a0: 5796 8cbe d22f b1bc e2c9 26bd 636a 233d
000001b0: af31 8abd 9bf6 94bd ec61 6cbd 3bf5 21bd
000001c0: e4ad 133d dc42 8b3b 926c 76ba 7cc7 4f3e
000001d0: b703 c43d c42e 19be cac3 d0bd 8945 ddbb
000001e0: f18f ef3d 4288 34be ba37 abbc fadc de3c
000001f0: 4325 2dbe ecad 83be a1d9 41be 53b2 aabe
00000200: 2bbb 103e d9b1 fabd d409 563e 755f e1bd
00000210: f33e a0bd 6891 e13c d591 9fbd 0b8c cebd
00000220: ba2d afbe 652e cdbe 594e 43bd 1259 953d
00000230: 33aa 7dbc e739 50be 8048 bd3d 84c2 49be
00000240: 8268 afbc dc3e 723d 9ace 5bbe bfff 133b
00000250: 3d5f 753c 3fd7 48be eb61 69be 38ed 72bc
00000260: 2d83 433d 225f 3abe 7748 a1bd 613d 253d
00000270: c1d6 f53c 3ad3 633c 9789 5a3d 1a18 41be
00000280: 4f52 1fbe 42c6 203b 09a0 1fbe 2e62 29bd
00000290: 6eae 0fbe 5cc2 90be 1b9a 453d a66f e1bc
000002a0: 3b30 bbbc a7ae fc3c 982b d13d fee2 19bd
000002b0: 16b8 d83d ad0c 99bc c0a1 1bbd 0eca bfbd
000002c0: abff 843c 523f 26be 963b f9bd 6a88 4b3b
000002d0: 3728 ec3d 61e3 303e a5a8 0bbe 91e1 c9bd
000002e0: 80ba 403d e776 b7bd bdd7 14be f1a9 42bd
000002f0: aec8 bcbd edef 79be ec7d 5c3e ba6b 49be
00000300: 9cd3 053e ad4f 82be 9cab 193d c3b1 febd
00000310: 67f7 a13d 1ab0 9fbd fb5d d4ba 031d 223d
00000320: 7d8e 70bd e8ae 2ebd f7c7 2bbe 7580 8bbe
00000330: 2f00 893a 6d1f 79be 4b71 edbd c08a c2bd
00000340: 217d 243d e20a ba3e a5cf 19be 67e7 49be
00000350: 1056 d63d c116 cb3b 01b7 563d 9a81 d0bd
00000360: d1e8 b9bd 5449 a23c 79cd 53be 4b23 e33d
00000370: b2b8 99bd 5e5c 3d3d 1890 37be 8c30 fa3a
00000380: 39a4 ccbd 93b3 19bd 963f bf3d fe0e 23bd
00000390: 0dbc 8abd f276 c1bd e1f2 2bbc 356e c2bd
000003a0: 9a6a 11bc cbd0 a6bd f9fa d53b 408e a23c
000003b0: 0f44 3b3d b446 45be c2d3 d23d d0d1 4ebe
000003c0: bf19 1bbd eb56 99bd ded0 1dbe 3246 573d
000003d0: f502 e4bd 77d0 6b3d 213f 3abe 3587 4b3d
000003e0: 82ed aebe e590 bfbd a506 0339 a744 76be
000003f0: af9c 2bbe 0059 213c e70e a23b ddb1 ce3d
-0.09708583 -0.12130045 -0.15083346 -0.14384964 0.10258516 0.04149352 -0.057828333 0.21098845
-0.1466932 0.08716441 0.174113 -0.28349456 0.1796248 -0.03170541 0.064050116 -0.031756368
-0.020193327 -0.20674045 -0.22331801 0.02839709 -0.13763793 -0.25814995 0.14719924 0.097229876
-0.1620404 0.1826579 0.31784445 -0.13800809 -0.118369676 -0.32080215 -0.037509453 -0.2637745
0.05298544 -0.047420323 0.16230594 -0.07547786 0.1253027 0.10268022 -0.016587313 -0.01052701
-0.052614003 -0.18423048 0.31177837 0.16088197 -0.034919407 -0.025469407 0.15740198 0.0029585317
-0.14300497 0.024122057 -0.13653044 -0.03352525 0.10025593 -0.08616955 0.008564509 0.0024207097
-0.08398776 0.13273479 0.03496646 -0.038083866 -0.019831652 -0.055523984 -0.0147169605 -0.02740371
-0.39275157 -0.03323968 -0.2210297 0.0915233 0.094627805 -0.2298326 -0.09877948 -0.21508937
0.14722678 -0.1908174 -0.017007386 -0.15076944 0.009827963 -0.0010951847 -0.11681711 0.0836406
-0.09025991 -0.2303203 0.06325181 0.09470573 0.0062271925 -0.013938717 0.2452893 0.08439105
-0.19528264 0.17527075 -0.1375115 -0.04291057 -0.09947478 -0.060888156 -0.097545564 -0.16729733
0.15330191 0.008274929 -0.095811956 -0.07810918 -0.1807036 -0.18615331 0.1854733 -0.2640779
-0.2745845 -0.021629248 -0.040719874 0.03989638 -0.06747758 -0.07273599 -0.057710573 -0.03954051
0.036054507 0.0042499136 -0.00094003335 0.20290941 0.09571021 -0.14959246 -0.10193594 -0.006752674
0.116973765 -0.17630103 -0.020900596 0.02720498 -0.16908745 -0.2571863 -0.18930675 -0.33339176
0.14133899 -0.12240953 0.20902187 -0.11004535 -0.078245066 0.027535155 -0.07791487 -0.10085305
-0.34214574 -0.4007446 -0.04768214 0.072923794 -0.015482473 -0.20334588 0.09242344 -0.19703108
-0.021412138 0.05914198 -0.21465531 0.0022582856 0.01497632 -0.1961336 -0.22791259 -0.014827065
0.04773252 -0.18200353 -0.0787515 0.04034174 0.03000963 0.013905341 0.053353872 -0.1885685
-0.15558742 0.0024532233 -0.15588392 -0.041353397 -0.14031383 -0.28273284 0.04824267 -0.027519058
-0.022850147 0.030845 0.10213393 -0.037569992 0.105819866 -0.018682802 -0.037996054 -0.09364711
0.016235193 -0.16235092 -0.12169568 0.003105665 0.11531108 0.17274238 -0.13638552 -0.098574765
0.04705286 -0.08958226 -0.14535423 -0.04752535 -0.09217964 -0.2440793 0.2153241 -0.1967
0.13069004 -0.25451413 0.037517175 -0.12436249 0.079085164 -0.077972606 -0.0016202325 0.03957845
-0.058729637 -0.042647272 -0.167755 -0.27246442 0.0010452325 -0.24328394 -0.115938745 -0.09499121
0.040158395 0.36336428 -0.15020616 -0.19717179 0.10465634 0.006197781 0.05242062 -0.101809695
-0.09077609 0.019810356 -0.2068385 0.11090716 -0.07505931 0.046230666 -0.17926061 0.0019087954
-0.099922605 -0.03752477 0.093383 -0.03980922 -0.06774149 -0.09446515 -0.010494919 -0.094936766
-0.008875513 -0.08145293 0.0065301624 0.01984322 0.045719203 -0.19265252 0.10294296 -0.20197225
-0.03786635 -0.074872814 -0.15411708 0.052557178 -0.111333765 0.057571854 -0.18188144 0.04968949
-0.3416558 -0.09353808 0.00012495609 -0.24049626 -0.16758989 0.009847879 0.004945624 0.100925185

network_body._body_endoder.seq_layers.4.bias f4 [256]
00000000: 960b 2d3c 7a87 48be 5fc4 f7bb f8da 31bd
00000010: 6c98 043d c7da 61be f998 2ebd 769a 25be
00000020: a2cf babd 4e23 3cbe 2491 04be 52c9 bbbd
00000030: 00fa 50be c22b b5bd b414 58bd 94ad 34be
00000040: f448 603a 01f8 53bd 234e 43be fff4 6ebe
00000050: d263 acbd ee2e 4fbd c577 49be 232c c6bd
00000060: c1c1 27be fd4d 3cbe e39d 01be 8c9a c0bd
00000070: 595f 56bd 5846 c8bd 47ee 86bd d682 2abe
00000080: 5e8e f6bb 3700 433d 0186 123a bb1d 02be
00000090: bcf9 a6bd 45bb 69ba db58 07be 919e 1cbe
000000a0: 8cb1 8ebd 0362 67be cf6d 4cbd 9865 0ebd
000000b0: 556e d6bd a844 ffbd a138 b8bd ad99 cfbd
000000c0: b4d4 0cbe 34bb 8cbe cbd5 dcbd 1b6e 8fbd
000000d0: 7082 43be e6bb d5bb e61b 1ebe 908f a2bd
000000e0: bb75 813d 929d 3dbd bfe8 aa3c 2f7a 25be
000000f0: 559e c6bd 07e1 48be b304 27be 1091 69be
00000100: 7076 0e3c 9ead a73c 7a8f f6bd 29be 2dbd
00000110: 507d 97bc a942 47be c03e 4ebe e579 18be
00000120: 16a6 a9ba 445e a8bc e95a 4fbd ee53 90bc
00000130: d253 973d f232 2fbe 89db 9e3c 7809 41be
00000140: 69b1 a3bd eba3 7dbd 5ffb c1bd ba01 00be
00000150: 1969 3bbd 9b40 2bbe 0bd5 52be 08d9 e7bd
00000160: b809 fcbc 7966 12be f9af 19be 0a80 99bd
00000170: cc40 f23c dd43 ddbc e150 5abe f5ad 09be
00000180: 0f57 b9bd da57 65bd ce04 aebd 26a0 acbd
00000190: b339 ffbd bbab 933c 943e f6bd fcb9 30bb
000001a0: d602 a0bd c046 d8bd 1fcd 96bd 0dc2 a8bd
000001b0: 734d 63bd 541d 67bd e626 11bd ba9b 42be
000001c0: a053 7fbd 34a4 abbc d8ba 023d f6e3 54bd
000001d0: a468 b4bd 6a2e 0abe 4b27 ebbd 0284 20be
000001e0: ff62 7dbb 7735 b6bd b54e 6d3d dc7f f3bd
000001f0: af5a adbd 9ec2 65bd 67e2 7bbd 71bb 5ebe
00000200: 2fcf e9bd e448 85bd e551 3abe ac51 b93d
00000210: be82 d23c ad92 90bd 0fce 81bd 5c7d 6dbe
00000220: a114 5ebd b4de 94be 2e41 50be 63b3 7a3d
00000230: 5186 23bd 33b2 6bbe 7fa1 45be 51ec 12be
00000240: 3452 7abd ff1d 38be ad74 35be 79e8 603c
00000250: 496a c5bc 189b 1cbe afa9 443c af56 b4bd
00000260: 1cdf 8fbc 4ba4 e1bd d12e 88bd 1893 8dbd
00000270: 35d1 383d 42bc 11bd b1df 89bd c872 a0bd
00000280: 9361 703c ea31 2dbe 4d77 40be 2a69 a2bd
00000290: 5be4 98bd 5e54 4fbe 30b8 5cbd f297 80bd
000002a0: df9f 36bc e674 c1bd beec 59bd ce0a 24be
000002b0: f2bc 1dbe e933 cdbd ecc3 a1bd 5149 7bbd
000002c0: 0cec f5bc 468a 38be 9ce9 a9bd c371 02be
000002d0: 8b55 81bc 908c 84bd 39e4 243c 829c a83d
000002e0: 6724 c1bd 24f0 37bd beab 07be 2b33 d5bd
000002f0: d568 f3bd 673b 0abd 6f11 9fbd 7311 e1bd
00000300: e56d 11be 2e9e 1d3d 5604 d03b 2299 07be
00000310: 3e21 5d3c e825 58bd b3ae 8bbd e685 c6bc
00000320: 4978 ccbd 0cc4 66be 73a3 b4bd c643 d6bd
00000330: 130d a6bd d255 49bd d365 27be 9e33 32be
00000340: 85de 65be d8a9 e6bc 8ecb efbd de73 c4bd
00000350: e754 19be f6c8 80bc 62f2 06be 1423 0bbe
00000360: 8957 31be 4fc3 5abe 5542 48be cfa7 28be
00000370: 43a0 b1bd f965 17bd 6dce 8cbd a076 1abe
00000380: 5fa1 0abe a71a 1a3d f426 0fbe 8bd2 10be
00000390: cee1 7fbd 7e8b e5bb 7047 06be b020 53be
000003a0: 0a6d 98bb d6e6 28be 15b1 24be f745 753d
000003b0: 799d 1abc 9be1 1fbe 1df7 133d a205 87bc
000003c0: faa5 aabd 8893 2bbe 3764 7fbd d531 12bd
000003d0: ae72 32be 6e4c 27bd c98a f43b b8f0 80bd
000003e0: f8e9 d6bc a178 bd3b 5936 9ebd 102d 37be
000003f0: b9eb 0cbe c2cc 27be a14e 1cbe c2ce 59bd
0.010561844 -0.1958293 -0.007561251 -0.043421715 0.032371923 -0.22056113 -0.042626355 -0.16172203
-0.09121634 -0.18372843 -0.12945992 -0.09169258 -0.20407867 -0.08846237 -0.05275412 -0.1764434
0.0008555793 -0.051750187 -0.19072776 -0.23335646 -0.08417477 -0.050581865 -0.19674595 -0.09676387
-0.16382505 -0.18389125 -0.12657885 -0.094044775 -0.052337024 -0.09779042 -0.065884165 -0.16651472
-0.0075242957 0.047607627 0.0005589426 -0.12706654 -0.08153102 -0.000891615 -0.1321749 -0.15294863
-0.06967458 -0.22595982 -0.04990941 -0.034764856 -0.10470263 -0.12464267 -0.08995176 -0.10136733
-0.13753015 -0.27486575 -0.10782965 -0.07003423 -0.19092727 -0.0065226434 -0.1544033 -0.079375386
0.063212834 -0.04629285 0.020862935 -0.1615989 -0.09698168 -0.19617091 -0.16310386 -0.22809243
0.00869523 0.02046853 -0.12039085 -0.04241768 -0.01849237 -0.19459023 -0.20141125 -0.14890249
-0.0012943174 -0.020552762 -0.050623808 -0.017618146 0.07389034 -0.17109278 0.019391792 -0.18851268
-0.07992823 -0.061923902 -0.09471773 -0.12500659 -0.045754526 -0.16723864 -0.20589082 -0.11320692
-0.030766353 -0.14296903 -0.15008534 -0.07495125 0.029571913 -0.027009899 -0.21319915 -0.13445266
-0.09049808 -0.055991985 -0.0849701 -0.084289834 -0.12462177 0.018026223 -0.120236546 -0.0026966324
-0.07813041 -0.105603695 -0.073633425 -0.08240137 -0.055493783 -0.056424454 -0.035437487 -0.19004717
-0.06233561 -0.020952322 0.03191647 -0.051975213 -0.08809021 -0.13494268 -0.11482104 -0.15675357
-0.0038663743 -0.08896916 0.05793639 -0.118896216 -0.08464562 -0.056093805 -0.06149521 -0.2175119
-0.1141647 -0.065080434 -0.18195303 0.09048781 0.025697108 -0.07059226 -0.06338131 -0.23192352
-0.054218892 -0.2907616 -0.20337364 0.061206233 -0.039923016 -0.23017196 -0.19299887 -0.1434796
-0.06111355 -0.17980193 -0.1772029 0.013727301 -0.024098532 -0.15293539 0.012003346 -0.08805596
-0.017562442 -0.110176645 -0.066495545 -0.069128215 0.04512139 -0.035579927 -0.06732119 -0.07834393
0.014671701 -0.16913572 -0.1879551 -0.07930215 -0.0746543 -0.20247027 -0.053886592 -0.06278981
-0.011146515 -0.09446125 -0.05320429 -0.16019747 -0.15404108 -0.10019667 -0.07898697 -0.061349217
-0.030019782 -0.18021497 -0.082965106 -0.12738709 -0.01578786 -0.06472123 0.010064178 0.082329765
-0.09430771 -0.04490675 -0.13249108 -0.1041015 -0.118852295 -0.033748057 -0.07766997 -0.10989656
-0.14202078 0.03848093 0.006348173 -0.1324201 0.013496695 -0.052770525 -0.068204306 -0.02423377
-0.0998388 -0.22535723 -0.08820238 -0.104621455 -0.081079625 -0.04915411 -0.16347437 -0.17402503
-0.22448166 -0.02815716 -0.11708747 -0.095924124 -0.14973794 -0.015720826 -0.13178399 -0.135876
-0.17318548 -0.21363567 -0.19556554 -0.16470264 -0.086731456 -0.036962483 -0.0687531 -0.15084314
-0.1353812 0.037623074 -0.13979703 -0.14142816 -0.062471204 -0.007005154 -0.13113189 -0.20617938
-0.0046516703 -0.16494307 -0.16083176 0.059881177 -0.0094369585 -0.15613405 0.036124337 -0.016482178
-0.08332439 -0.16755497 -0.06235143 -0.035692055 -0.1742656 -0.040844373 0.0074628335 -0.062959135
-0.026234612 0.0057822024 -0.0772521 -0.17888284 -0.13761796 -0.16386703 -0.1526437 -0.053175695
