Assets/Trained Models/OneCarPark/PKWParking_New_sensor.onnx (onnx, 549026 bytes, 9 tensors)

discrete_act_size_vector f4 [1, 2]
00000000: 0000 8040 0000 4040
4.0 3.0

network_body._body_endoder.seq_layers.0.weight f4 [256, 264]
00000000: edc2 233d b4e5 06be 93c1 1b3e 6305 233e
00000010: d590 1b3e 19d3 cbbd ba87 07bd 07f9 843d
00000020: 6f25 15be 8c47 873c d742 e7bd a4e3 5bbe
00000030: b44f 013f b236 04bc 8ca2 0abe 0635 f53d
00000040: b75b 9a3d 35f1 27bc 688c 80bd 4bf1 02be
00000050: bbcb 5cbe 658a 983e 0ba7 95bd f7ce 4abd
00000060: ff4c 8e3c b362 50bd 37c2 82bd e2cf 5abd
00000070: 0c22 5abd 1a46 b4bd 41e5 163e d865 1e3e
00000080: 8904 cb3b 02d6 1dbd 349b 60bd b766 9cbd
00000090: 8df2 d33c 5949 c2bc 80f6 cfbd 96cf 453e
000000a0: 5db5 863d 0d3e 26bd 726c 5c3d 3cb8 3a3d
000000b0: 01de 09bd 7cb9 abbb 1de1 523e 69dd 0bbe
000000c0: e660 edbd c54c 85bc 8f88 0c3e 510a d03c
000000d0: 093c 57bd ea84 00bd bb2f ad3d ec68 903d
000000e0: 5f73 9ebd f047 85bd 26bb 0dbd b9a3 0dba
000000f0: 2ede babd 7a84 0e3d afb0 933d 692b 1bbd
00000100: a9ee cbbc 8bd4 09bd 0246 a43c b135 d5be
00000110: e75f 4a3d 4dee 94be 2090 0a3e f6aa 6cbe
00000120: bd05 283d ca23 dd3c ca05 9cbd 1cf5 0bbd
00000130: 8083 39bf 54d4 aa3d 9158 b2be 01b3 b7bc
00000140: 4bb9 9a3c 5aa9 cc3d 0ca7 2c3c c73e b5bc
00000150: 79e7 033e 1034 ffbe 7635 803d d1f4 8bbe
00000160: 6e9e 533c 9be7 063e 6bfe 48bd da94 40be
00000170: bb2c da3c 83a6 9ebd 96a9 9fbe de8e 61bd
00000180: eec4 ce3d 8d09 a73c be4c 843c 0e65 cebc
00000190: cc3a 163c 864a 5abd 4d4f 19be f848 65be
000001a0: 1af9 47bd 28d9 b5be 5d8b 463c 0678 343e
000001b0: 9873 853d c072 d53c cf43 f03d d987 69bc
000001c0: 77fb a4bd 02eb 913d 44e8 51bd f636 5b3c
000001d0: 9c95 0dbe 4718 643e 2750 eb3d 358c 9a3c
000001e0: 517c 21be e7f2 89be ce38 a4bd 5b18 fd3d
000001f0: e98c 46bd 87a0 883c a159 1d3d a43e 73bb
00000200: 8c79 92bd 4e32 273d c47f 88be caa9 29bc
00000210: f6f9 97be b396 3cbd ea8a 2bbd 018c 093d
00000220: db54 543d 10cc 603d 5a5f 14be 6159 11bf
00000230: 90fa 8d3d 3d7c aabe 9a4e 893d 0ba4 0c3e
00000240: c81e a43d 0380 da3d 9b93 903c c34d 963d
00000250: 3acd e4be e3a4 8abd c471 7abe 7583 c1bd
00000260: 7c01 153e e901 8dbd 555d 14be 9c9d 8b3d
00000270: 0567 113d 02bb 74be c35a a83b af0f 1d3e
00000280: b0e4 a43d 32ca 2c3e 0b87 c13c 2c45 fc3c
00000290: 1210 3c3d c89e 273d 8ca0 c0be 3774 01be
000002a0: e975 a7be afd7 a23c c72f 0d3e 26c2 4f3d
000002b0: 5085 eb3d 258f 05bd b927 f2bd 7238 55be
000002c0: 5d1c c23d a0d8 363d cd3f 1f3c 9a9b 74be
000002d0: 40a5 a43c df32 893b 4693 e2bc 63ae f4bd
000002e0: 7209 7dbe 53d3 0abd c3ff b63d e2ba 0c3e
000002f0: 5f28 643d eb98 613d 38b3 90bd 4830 49bc
00000300: c2b1 0a3d fe37 63be 5749 6cbd 1fcc 9dbe
00000310: 0cb3 66bd b9cd e2bd b4a5 523d 957c 92bd
00000320: b3cb ab3d ab33 b9bc 84dc 1cbf d192 d1bb
00000330: 87ac b1be 21a5 913d 8ff7 903e d7b6 0c3e
00000340: 5be4 a73d d3d6 c1bc 8650 023d 4589 31bf
00000350: 9707 d63d 2698 c9bd f3af c9bc f934 193e
00000360: c3f8 6d3d 2871 e139 bde9 dcba dafd f03d
00000370: 4763 1bbe 7c81 dfbc b19d 3a3e cfd1 f33d
00000380: 85e7 803d 73b1 7abd 8868 80bc 9b8c b23d
00000390: 398a 313d a575 4bbe 7779 713b 151d ffbd
000003a0: 375a 293e 72e2 b23d f6c6 043e 0b1a cabd
000003b0: bd5e 4f3d 7c05 29be 1907 98be a569 f6ba
000003c0: 6a60 acbd f49e fc3d b786 26be ef9f ec3d
000003d0: 03fa 803d 9781 09be 6da7 3bbe cabb dfbe
000003e0: eb80 b0bd ec5c 7c3d 1767 bf3d 4c46 ce3d
000003f0: 287f 233e 5eab f3bc 61eb 99bd d824 323d
0.039980818 -0.13173562 0.15210561 0.15920024 0.15191968 -0.09952373 -0.033088423 0.06492811
-0.14565061 0.016513608 -0.112920456 -0.21473557 0.5051224 -0.008069681 -0.13538569 0.11973004
0.075370245 -0.010250379 -0.0627678 -0.12787358 -0.21562092 0.29793087 -0.073072515 -0.049513783
0.017370699 -0.050875377 -0.063847 -0.05342091 -0.053255126 -0.08802433 0.14735891 0.15468538
0.006195609 -0.038534172 -0.054835513 -0.07636779 0.025872493 -0.023716616 -0.10154438 0.19317469
0.06577561 -0.04058652 0.05381436 0.045585856 -0.033658985 -0.0052406173 0.20593686 -0.1365868
-0.115907475 -0.016271958 0.13723968 0.025395544 -0.05254749 -0.031376757 0.084563695 0.07051262
-0.07736849 -0.065078616 -0.034602307 -0.000540312 -0.09124409 0.03479431 0.07211434 -0.037883196
-0.024894075 -0.033649962 0.020052914 -0.41642526 0.049407866 -0.2908806 0.13531542 -0.23112091
0.041021097 0.026994605 -0.07618292 -0.0341693 -0.7246628 0.083412796 -0.34833196 -0.022424223
0.018887183 0.09993239 0.010537874 -0.022124661 0.12881269 -0.49844408 0.06260197 -0.27335218
0.012916191 0.13174288 -0.049070757 -0.18806782 0.026632657 -0.07746603 -0.3118407 -0.05506789
0.10096155 0.020390296 0.016149875 -0.025194671 0.009169292 -0.053293727 -0.14971657 -0.22391117
-0.048821546 -0.3551724 0.012118188 0.1762391 0.065161884 0.026055694 0.117316835 -0.01425358
-0.080557756 0.07124902 -0.051246896 0.013379803 -0.13826603 0.22274886 0.11489897 0.018865684
-0.15770079 -0.26943132 -0.08018647 0.12358161 -0.048474226 0.016678108 0.038415555 -0.0037116194
-0.071520895 0.04081946 -0.26659977 -0.010355422 -0.29682893 -0.046042155 -0.041880526 0.033580784
0.051838737 0.05488211 -0.14489499 -0.56777006 0.06932557 -0.3329791 0.06704445 0.13734452
0.080136836 0.106689475 0.017648509 0.073390506 -0.44687825 -0.06769731 -0.2445746 -0.094489016
0.14551347 -0.0688513 -0.14488728 0.06817171 0.035498638 -0.23899463 0.0051377728 0.15338014
0.08051431 0.16874006 0.023623964 0.030794702 0.045913763 0.04092291 -0.37622488 -0.12641989
-0.32707146 0.019878237 0.13787757 0.050722264 0.11500037 -0.032607216 -0.11823983 -0.20822313
0.09478066 0.044640183 0.009719801 -0.23887482 0.020098329 0.0041869725 -0.027658116 -0.11947324
-0.24710634 -0.03389294 0.089355014 0.13743165 0.055702563 0.055077475 -0.07065433 -0.012279578
0.03386093 -0.22189328 -0.05768713 -0.30819795 -0.056323096 -0.11074395 0.051427558 -0.071526684
0.08388462 -0.022607645 -0.6127398 -0.0063956757 -0.3470194 0.07111574 0.28313872 0.13741623
0.08197852 -0.023662006 0.031815074 -0.6935008 0.104506664 -0.09843473 -0.024620032 0.14961614
0.058098566 0.00042999652 -0.0016854327 0.11767168 -0.1517459 -0.027283423 0.18224217 0.11905252
0.06294159 -0.061204385 -0.015674844 0.087182246 0.04334471 -0.19869097 0.003684608 -0.12456719
0.1653832 0.08734597 0.12966523 -0.098682486 0.05062746 -0.16505998 -0.29692915 -0.0018799795
-0.08416827 0.123350054 -0.16262327 0.115539424 0.06297686 -0.13428341 -0.18325587 -0.4369796
-0.08618339 0.061612055 0.09345835 0.10072002 0.15966475 -0.0297448 -0.07515598 0.04349217

network_body._body_endoder.seq_layers.0.bias f4 [256]
00000000: edf6 69bd c527 babc 7e31 a5bd 0d43 8e3d
00000010: f5da eabc 2870 b3bc 7b9e b5bc c92e a83d
00000020: 8f13 a639 9bfb f53a ea4a 76bd b3f1 c0bd
00000030: cca3 ab3d 0a1f 923b 2ce6 323c 0501 00bd
00000040: 158b 08bb e0db b63d 49b1 cc3d 3be9 0e3c
00000050: 79bc 073e 1bb4 62bc 4826 efbb ff0a 37bd
00000060: 7f46 2abd d358 063d ec64 5c3b 0235 3f3d
00000070: 8c2b 573d adab da3c 00cc fbbc 4b6d 743d
00000080: b558 91ba 2ca4 803d bc3e d9bc cb69 393d
00000090: 1fa2 89bd 142c 91bd de0e 67bc 6154 ab3b
000000a0: fde5 a3bc 500a b7bd 7ea4 3bbc ae2b f43b
000000b0: e533 9ebc fc2c 40bb 9ad8 683b 1cdc 16bd
000000c0: 034b 52bb e970 20bc 4c6a 2ebd 3d20 ccbc
000000d0: 4479 7cbd 4556 6ebd 67fd 26bc 61e7 4f3c
000000e0: 2e5a 013d d136 64bd 9951 afbd 0d7e 24bd
000000f0: 86ba f23c 9c4c e0bc 098e 663d f80c 4cbb
00000100: 5a14 fc3c c559 bd3d 4e08 dabb 74f1 94bc
00000110: db3d e3bc 8162 21bc a204 3a3c bcfb c7bc
00000120: 9ea4 893d 4537 cc3b 79b0 85bd cf06 afbc
00000130: 6133 993b 9a12 1bbd 47ff 8a3d 01c9 01bd
00000140: 81eb edbd 5e1a 453c 3d45 86bd 9ddc 813c
00000150: 38b9 54bd db5b 80bd 0879 de3c 1429 053d
00000160: 6751 a7bd 8d1c 8c3d 1f79 a6bc 74a7 ee3d
00000170: 91dc c63d 783f 9f3d 5341 80bc b829 0d3b
00000180: 5a0f b2bc fb38 ff3c 7cbd ba3d 7973 2dbd
00000190: fa42 53bc 60ac 133d 491e bf3c 59f4 75bc
000001a0: 5758 13bd d837 20bd 883e 643d e7d1 76bd
000001b0: a02e f63c 56f0 f83c 2848 a7bc 25f2 b5bc
000001c0: 9765 cabb c1b6 463d b424 3a3c ffaf a83c
000001d0: 8d13 0fbd d5b5 123d bf5a ca3b 4ff8 e1bc
000001e0: 146e 88bd 3392 7bbc afa7 25bd f040 20bd
000001f0: 6677 09bd 81a5 1ebc cfd7 743c 0312 00bd
00000200: ca3a 2cbb 1bde 80bc 2d2e e5bb 05b7 25bc
00000210: e581 cebc 8c7f 2f3d 18e2 dc3b e03a 55bc
00000220: 8733 853c 8e35 743c 3744 9d3d 7bb4 f4bb
00000230: a983 cfbc 2c7e b43d 8ce1 12bd 5f05 433d
00000240: 21b1 84bc 4ca5 6c3c e683 0dbd 070e d0bd
00000250: 230c b9bc 8c0e a0bb db87 5ebc 27e3 b63d
00000260: e6bb 593c 6c3c 4cbc a929 abbc 4fa1 e2bd
00000270: c99f a5bc 99b7 c23d 2614 15bd d0ca 09bd
00000280: f9c1 0fbd 2a8d f2bd 94ec 473d 80c6 bbbc
00000290: f042 193d 9a03 9ebb 37ca 8dbc e840 fa3b
000002a0: 3901 f53c aee7 52bb dd7f d7bc 9e7b 01bd
000002b0: fa2e 84bc 135b 0c3d 16fa b53c 9fbb ee3b
000002c0: b833 7abd 7494 a4bc 5936 a8bd 4af4 da3d
000002d0: 8a99 51bc 985a 6a39 e683 513b fbd8 6bbc
000002e0: e8a2 15bd 5e6f 3f3c 92b0 f5bc 6543 553d
000002f0: 88e4 fa3b 4ec0 0ebd 4a46 273d 3ff6 0e3d
00000300: d6aa 46bc 81b2 e43c d571 c5bd a9e5 57bc
00000310: 78ed 82bc 818a 9bbc 21e0 4e3c 7574 bfbd
00000320: 9fa9 f83c 1f61 b4bd 1715 a3bd 3879 973c
00000330: e20b 83ba 01d1 023d 1097 ffbc 971a d7bd
00000340: 2a83 37ba 0100 803d 6ea7 70bc 69d2 62bd
00000350: d6ae 863c 2431 3abd 37fd a4bd 9e1c 58bd
00000360: 1555 5fbd b28e 3abd 592a 7fbd f0b3 cfbc
00000370: ce10 ab3c 7d52 4dbd 6cc2 0dbd 521f 4abc
00000380: 0246 5fbd 854b 3e3c 9c6f 5bbc fa65 37bd
00000390: 1b4a 943d 8cf4 383c 78ec 3cbc df1e 903b
000003a0: dbbc 0dbd 0435 1abd 9970 11bd 23aa 24bd
000003b0: 6c54 c1bd ef27 dcbd 29ec 593d b4a1 673d
000003c0: 1569 29bd 808f 11bd 999a 493d 212d 07bd
000003d0: b8d5 c2bb f62b 1cbd d03a 6c3c af18 60bc
000003e0: 296a 2a3c c719 283d 40d4 4d3c 980e d3bd
000003f0: 5459 a43d e492 8bbd 6206 dabd 376b 063c
-0.057120252 -0.022724042 -0.080660805 0.06946383 -0.02866886 -0.021904066 -0.022170296 0.082120486
0.0003167656 0.0018767001 -0.060130037 -0.094211005 0.08380851 0.0044592666 0.010919135 -0.031250972
-0.0020834852 0.089286566 0.09994752 0.008722599 0.1325549 -0.013836886 -0.0072982647 -0.04468822
-0.041571137 0.032799553 0.003362949 0.04668141 0.052531764 0.02669319 -0.030736923 0.059674542
-0.0011089059 0.06281313 -0.026519172 0.045266908 -0.06720375 -0.07088485 -0.014102666 0.0052285646
-0.020007128 -0.08937514 -0.011452792 0.007451496 -0.019311855 -0.0029323688 0.0035529495 -0.036831006
-0.0032088167 -0.009792545 -0.04258184 -0.024917716 -0.061639085 -0.05818774 -0.010192252 0.012689442
0.031580143 -0.05571634 -0.085604854 -0.040159274 0.029629957 -0.02738028 0.0562878 -0.003113566
0.030771423 0.09245638 -0.006653822 -0.01818154 -0.027739456 -0.009850145 0.011353644 -0.024412028
0.06720851 0.0062321746 -0.065278 -0.021365551 0.0046753143 -0.037859537 0.067869715 -0.031685833
-0.116171844 0.012030212 -0.06556175 0.015852267 -0.05193445 -0.0626752 0.027157322 0.03250988
-0.08169823 0.06841383 -0.020321427 0.11653033 0.097100385 0.077757776 -0.015656149 0.002153976
-0.021735836 0.0311551 0.091181725 -0.04234645 -0.012894386 0.03605306 0.02332987 -0.01501187
-0.03597292 -0.039115757 0.055723697 -0.060258772 0.03005153 0.030388039 -0.020420149 -0.02221019
-0.0061766612 0.04851413 0.01136129 0.020591734 -0.034930754 0.03581794 0.0061753686 -0.027584223
-0.06661621 -0.015354681 -0.04044312 -0.03912443 -0.033561133 -0.009683014 0.014944031 -0.031267177
-0.0026280158 -0.015730908 -0.00699403 -0.010114436 -0.025208423 0.042846248 0.0067408197 -0.013014525
0.016259922 0.014905347 0.076790266 -0.007467804 -0.025331335 0.08813128 -0.03585963 0.047612544
-0.016197743 0.014443707 -0.034549616 -0.101589255 -0.022588795 -0.0048845466 -0.013582195 0.089300446
0.013289427 -0.012465578 -0.020893889 -0.110659234 -0.020217793 0.09507675 -0.03639617 -0.033640683
-0.035097096 -0.11843331 0.048809603 -0.0229218 0.037417352 -0.0048222067 -0.017308338 0.007637132
0.02990781 -0.003218155 -0.026306087 -0.03161203 -0.016135681 0.034266543 0.022213977 0.00728555
-0.06108448 -0.02009032 -0.08213491 0.10691126 -0.012792954 0.00022349728 0.0031969487 -0.014394994
-0.036532313 0.011684267 -0.029991422 0.052066226 0.0076566376 -0.034851365 0.040838517 0.034902807
-0.012125691 0.027917149 -0.09640852 -0.013177314 -0.015982375 -0.018986942 0.012626679 -0.09348384
0.03035432 -0.08807587 -0.07963007 0.018490419 -0.0009998048 0.031937603 -0.031199962 -0.105031185
-0.0007000441 0.06250001 -0.014688356 -0.055376444 0.01644079 -0.04545702 -0.080561094 -0.052761666
-0.0545245 -0.04554624 -0.062296245 -0.025354356 0.020882037 -0.050127495 -0.034609243 -0.012336569
-0.054510124 0.011614685 -0.013393309 -0.044774987 0.07240697 0.011288773 -0.011530988 0.0043982114
-0.034603935 -0.037648216 -0.035507772 -0.040201318 -0.0943993 -0.10749804 0.053203736 0.056550696
-0.04135998 -0.035537243 0.0492197 -0.033002023 -0.0059458874 -0.038127862 0.014418319 -0.01367776
0.010401287 0.04104021 0.012562811 -0.10305518 0.080248505 -0.068151265 -0.10645749 0.008204273

network_body._body_endoder.seq_layers.2.weight f4 [256, 256]
00000000: ebb8 4bbd cf8f cdbb 7852 943d f4bb 0a3e
00000010: a1a5 0dbe 4091 eebc abf5 bfbd ff04 a7bd
00000020: 4b2f 103e 8a1f dc3d e2bd 9cbd a0fc 94bd
00000030: 5423 0cbe 4d25 d5bd 1eea 163e cee1 9b3e
00000040: 5409 a63d 5c9c bebd 283c e4bd 9516 9f3d
00000050: 7f42 b03a e578 253d bed9 f93d 7426 583d
00000060: 7d92 0c3d f743 2bbe 70fa e93c 6708 04bd
00000070: d5b6 a5be 7805 993d d2ea 0b3c f8b2 cbbb
00000080: 8419 f23d aca7 1cbd 955a a0bd 9f88 1fbd
00000090: 0078 6d3d e2cf cb3d ceea 8fbd 242b 9d3c
000000a0: f38c 5a3e cd52 8a3c 7ab9 533e a059 e23d
000000b0: b2cd 99bd f53d ca3d 9301 df3c c578 373d
000000c0: 9585 b83d 2483 38bd e824 803e 1dfa aa3d
000000d0: ba28 063e 12e0 75bc 51ea e5bc 0638 b9bd
000000e0: d4c9 fb3a 3142 153e a2de bebd 2625 fdba
000000f0: 6a0b d6bd 9f70 c43c 2f30 89be ce0b a2bd
00000100: d220 313e 8581 983d 0816 16bd fc00 14bd
00000110: 46d8 e13c 2700 7cbd 2921 f93d aeb2 783e
00000120: aae0 43be 34e1 e03d 7f92 223e 2f54 e83c
00000130: b983 85bd 1fb9 f1bc 4a13 1ebc e298 923d
00000140: 56c8 70bd 4a80 183e 8724 083d fcbd b6bc
00000150: 748a f93d 008d 273e 32e2 38be 7778 1ebe
00000160: 3968 ba3d b99a f6bd 1f3b 4ebc a7f0 acbc
00000170: 4e1e d0bd 1d38 babd 9327 ad3d 74d6 a7bd
00000180: 0302 fc3d c848 5f3d 03ab 82be 0fa9 393e
00000190: ce3d c7bd 9e48 d3bd 433c 0b3c 58a1 27bb
000001a0: 3e17 333d 32cd e73d 0e56 9abd f770 54bd
000001b0: 814a 9ebd ebc7 943d 594d 363d 5d23 95bd
000001c0: ad68 023e ba1a 7dbe 1569 39be 6bf1 24be
000001d0: a920 613e 27e6 193e 111a 453d 79b7 5a3c
000001e0: 1bc9 353d 3292 dc3d 3499 be3c 175b 0f3e
000001f0: 381b 023e 6ea9 8abd 2d9b f1bd 3e30 dd3c
00000200: d219 ffbd eec4 093d 74d1 de3d fe67 07be
00000210: 3db1 34bc 720f 393e 3885 c73d c301 fc3d
00000220: 68a8 fc3d 3ab6 16bd 02aa 3fbe 88b3 02bd
00000230: 6511 b33d 48b7 1b3a 68e4 f83c 8fbe a73d
00000240: 046e 673d 7b64 f9bd 75ff da3d cfaa 063e
00000250: 092e 60bd 617d 413c be58 f43d 485c 13be
00000260: 3eba 273e 6d93 adbd ee9d 58bd 2293 e73d
00000270: dce1 3dbe cbeb d3bd 3bba c1bc 0ffd 393d
00000280: 51a0 853e bb06 eb3d 363f 0fbe aa6d 3d3e
00000290: 8fe7 45bd df09 db3b 0e22 f8bc 1ed3 e23c
000002a0: 73b7 26be 2b32 26bc 558c a4bd 7037 e53d
000002b0: ec3d 073d 4072 093d cfb0 f83d 75f3 463d
000002c0: 350a 0c3e e4fa 1dbe 7d1d 3e3d 6846 38be
000002d0: 0d78 f93d 1077 443d 96f1 b0bb 7ce5 0dbd
000002e0: 7f49 d1bb e58d 2d3e a084 ca3b d903 823d
000002f0: 2e5f 833d 0bf7 87bd eae0 bdbd 0cfd 64be
00000300: f53f 27bd 575e 40be 11fc 313e 0258 84bd
00000310: 97b7 873c 20fc 96bd c277 87bd 548d 4c3d
00000320: 13df 73be 8617 acbc a9e6 d938 ce68 e9bd
00000330: 499e 643d 4ef9 fe3d 6823 e0bd a881 0bbb
00000340: 602d adbd 84a2 b4bd 3dc4 a93d 0baf 713d
00000350: cde4 01be 9c83 42bd 4209 e2bc af91 ed3d
00000360: 4360 153e f84b 1a3d 2105 433e 11e7 a63d
00000370: 9359 11be 0f28 6e3d eec5 07bd 28f1 043d
00000380: cea3 3f3d 2f92 8fbe 59ee f8bc 6187 483d
00000390: e3c5 3fbe daca 793c 81f7 ddbc 65ba 2cbd
000003a0: 4860 77bd 0ed2 bb3d 7df0 09bc ce62 0e3e
000003b0: 2a39 e83c ef7d 253d 56c6 113d a014 fbbd
000003c0: 329b dbbd 0004 a53c dd39 4cbe d294 e5bc
000003d0: 6d19 44be 55a7 81bc 9672 05be 8246 053d
000003e0: da9c 51bc 4e34 403e 54e4 23be 4433 8f3e
000003f0: 56a0 a23c 61ff 163e 5b05 a63d 8572 d9bd
-0.0497369 -0.006273247 0.07242292 0.13548261 -0.13832714 -0.029121995 -0.09373029 -0.0815525
0.14080541 0.10748203 -0.07653405 -0.07274747 -0.13685352 -0.10407505 0.14737746 0.30445713
0.08107248 -0.09307167 -0.111442864 0.07767979 0.0013447552 0.040398497 0.12199734 0.052771047
0.03431939 -0.16725145 0.0285618 -0.032234576 -0.32366052 0.07471746 0.008539872 -0.006216403
0.11821273 -0.03824584 -0.07829777 -0.03894865 0.05797577 0.0995176 -0.07027207 0.01918561
0.2134283 0.016885186 0.20676222 0.11052251 -0.075099364 0.098750986 0.02722243 0.04479291
0.09009854 -0.04504694 0.25028157 0.083484866 0.13101473 -0.015007036 -0.028065832 -0.09043889
0.001920993 0.14576031 -0.093198076 -0.0019313439 -0.10451396 0.023979483 -0.26794574 -0.07912408
0.17297676 0.07446579 -0.036642104 -0.03613375 0.027568948 -0.061523583 0.12164528 0.24286911
-0.19128671 0.10980454 0.15876196 0.028360454 -0.06519265 -0.029507218 -0.009648154 0.07158066
-0.058784805 0.14892688 0.03323796 -0.022307388 0.12184611 0.16362381 -0.18055037 -0.15475641
0.0910191 -0.1204123 -0.012587338 -0.021110846 -0.1016203 -0.09092734 0.08454814 -0.081952006
0.12305071 0.05451277 -0.25521097 0.18130897 -0.09728585 -0.10316585 0.008498254 -0.0025578346
0.043723337 0.11318435 -0.07535945 -0.051865544 -0.07729054 0.07264694 0.04450736 -0.07282136
0.12735243 -0.24717227 -0.18106492 -0.16107719 0.21985115 0.15029202 0.048120562 0.013349407
0.044381242 0.10770072 0.023266412 0.13999592 0.12705696 -0.067705974 -0.117971756 0.027000543
-0.12456097 0.033635072 0.10879794 -0.13223264 -0.011028585 0.18072298 0.09742206 0.123050235
0.123368084 -0.03679488 -0.18717197 -0.031909496 0.08743552 0.0005940092 0.03038235 0.08190643
0.056501403 -0.12177368 0.10693256 0.13151096 -0.054731403 0.011809678 0.11930989 -0.14390671
0.1637964 -0.08475385 -0.05288499 0.1130736 -0.1854319 -0.10347708 -0.023648372 0.04540735
0.26098874 0.11475893 -0.13988957 0.18498865 -0.048316535 0.0066845263 -0.030289676 0.02768856
-0.16280918 -0.010143797 -0.08034579 0.111922145 0.033018038 0.033556223 0.121430986 0.048572022
0.13675769 -0.15427738 0.04641484 -0.17995608 0.12181101 0.04796511 -0.005399893 -0.03464268
-0.0063869352 0.1694866 0.006180361 0.0634839 0.064146385 -0.066389166 -0.092714146 -0.22362155
-0.04083248 -0.18785988 0.17381312 -0.06462099 0.016567035 -0.07372308 -0.06614639 0.04993947
-0.23815565 -0.02100731 0.0001039033 -0.11396943 0.055815015 0.12449895 -0.10944253 -0.0021286998
-0.0845592 -0.0882006 0.082893826 0.059004825 -0.12684937 -0.047488794 -0.027592305 0.116000526
0.14587502 0.037670106 0.19044925 0.08149541 -0.14194326 0.05814367 -0.033147745 0.032456547
0.046787076 -0.28041217 -0.03038709 0.048957232 -0.18727832 0.0152461175 -0.027095558 -0.042169947
-0.060394555 0.09170924 -0.008419153 0.13904878 0.02834757 0.040403303 0.03558954 -0.12259793
-0.107229605 0.020143509 -0.19943948 -0.028025065 -0.19150324 -0.01582686 -0.13031992 0.032537945
-0.012793744 0.18769953 -0.16005069 0.279688 0.019851845 0.14745857 0.0810649 -0.10617546

network_body._body_endoder.seq_layers.2.bias f4 [256]
00000000: 9a38 17bd 28fa 70bd 5b3a fbbd dec6 19be
00000010: bff9 83bd 1156 e6bd 8c5c 3cbc 4dcb 82bd
00000020: 5a05 cbbb dea4 22bd 28c3 e6bd 364c e1bd
00000030: 253f a3bd 6c6b 20be f49d a4bd b30c 3bbd
00000040: a644 98bc d6fa 18be 927d 41bd 930c d0bd
00000050: 10e2 eabd 04a8 87bc ea5d 50bd fd0c b03c
00000060: 4b81 19be f8d6 30be 4eb0 f2bd 123e b7bd
00000070: 9e9c 13be 24d8 d3bd 46d3 0abe ce87 d4bd
00000080: 3b1c 03be ed23 00be e918 babd 8765 f4bd
00000090: 87aa d1bd 6f6f 223d f6db d1bd 991d 0abe
000000a0: 733e 68bd 5aea 873d 1c00 14bc b0b1 15be
000000b0: 66d1 b3bd e302 753c 3333 fcbd 7b12 01be
000000c0: 9c48 87bd 31f7 08be 8707 9ebd 5cae c6bd
000000d0: fcea 203d 595d 1dbe c5aa 02be 3202 b03c
000000e0: bff9 0fbe f4b3 30bd 6c52 bcbc 73b4 13be
000000f0: 142d f3bd a449 bebc 496d 01bd 6315 82bd
00000100: c2f2 d8bd 14a7 c6bd ac1f adbd 567e 6cbd
00000110: 2583 2cbe cf10 9abd 04f5 1cbe 7f88 11be
00000120: c4d2 ecbd 3547 f7bd 96ae 18be 1830 4fbd
00000130: 008a 5dbd deba 30bd 4c32 833d 6704 abbd
00000140: ddb1 9abd 6ea9 a5bd 55df 063c 2a1b bdbd
00000150: 0b64 cdbd e6de dfbc 055c 50bc b184 34be
00000160: 924a 0ebe f4ed c3bd 4cbe 94bd 4b94 9e3d
00000170: d81a a3bc 8a4d 04be 3ec4 98bd dbcd cabd
00000180: d104 03be 4b44 083d 2906 fcbd ec09 b8bd
00000190: bd1e 16be 2dda 0abd deae fdbd 9caf 20be
000001a0: 6149 93bd f63e 45bd f6e0 49bd 8028 8cbc
000001b0: e748 05be e359 cbbd 5363 76bd 2e76 d9bd
000001c0: 49d5 45bd e442 e1bd 94c8 77bd b639 22be
000001d0: c91a b13d 3198 b5ba 1c75 3e3d 13c1 fcbd
000001e0: 90d7 c3bd 9bc5 e9bd 66cb 88bd 8032 f5bd
000001f0: 60cf 03bc 8144 08be 4cb1 22be 54ac b1bd
00000200: 68f2 09bd a425 72bd 5079 a3bd 0f1e 9cbd
00000210: a0d1 c5bd d71e 8a3d d906 efbd 6931 a4bc
00000220: e4d7 ccbd 1ea8 1cbd 688a cabd 9d4d 02be
00000230: 82a9 e6bd 0f33 b63c e2af af3c 702c 633c
00000240: 85d9 44bc 1d70 a6bd 1a0c ecbd c5d2 88bd
00000250: 0c9d 4fbd 6fd7 8abc 0234 dcbd 39e6 303d
00000260: be26 a0bd b74c 0dbe a640 e8bd fd8d f3bd
00000270: f0e4 aabc d5e4 e2bd a0d5 78bd 55b2 91bd
00000280: b3af b5bd 13d8 0ebe 6199 33bd 80ad 03be
00000290: 6146 53bd af45 05be 4dd0 0abd 692b b4bd
000002a0: de80 d1bd e3fb 7bbd 0edd 743b 471c 2ebd
000002b0: 7f47 0bbe afcf 28be cfe7 e0bd 1ed5 2cbe
000002c0: 738a 213d b4d6 17bd 205c 90bd 38ac abbd
000002d0: 5368 22be 0686 0cbc 7bc6 01be 2e84 c23c
000002e0: e582 7ebd 7de9 283d be75 8b3d 7113 91bd
000002f0: e5ba 00be 840e e0bd d303 1e3d e289 803d
00000300: a9af e2bc bec4 fdbd 6533 10be a83f e2bd
00000310: 44b2 2dbc 125a 1c3b f757 15be 54c9 4dbd
00000320: fe77 6bbd 649f 033d 124f efbd c362 363c
00000330: 72c0 b1bd eaae e6bc 9d6c 9cbd f7e3 3ebd
00000340: 2a6d 26be 952d b53c 04a7 cfbd 8a09 07be
00000350: 0fb0 bdbd 4e8f b6bc 27ff cdbd fb81 a0bd
00000360: c586 edbd cc0d 06bd 20a2 52bd a43f f43b
00000370: 1257 0bbd f14e 1abe 49f9 2d3b 3403 22be
00000380: 170d 0fbb a4d8 adbd 9e8c 8fbd 77bd 11be
00000390: 0235 93bd 19be 163d a267 9dbd 6f70 8dbd
000003a0: 4381 953b af12 eebd fb05 2cbd cd42 f0bc
000003b0: c0d0 c63c cbe7 13bd c18e e3bd 096c 00be
000003c0: 3132 d7bd fce5 7abd 1a14 f4bc 7a07 1ebe
000003d0: 42f6 d5bd 840a 8abd 7210 11be 8197 503d
000003e0: c4a1 babc ac7c 27be a74c cdbd cac6 f0bd
000003f0: f4b5 1cbd b256 7bbd e46f d9bd 5f08 f5bd
-0.036919214 -0.058832318 -0.1226699 -0.15017268 -0.0644412 -0.112468846 -0.011496674 -0.06386433
-0.0061957063 -0.03970801 -0.11267692 -0.11000864 -0.07971028 -0.15665978 -0.0803794 -0.045666408
-0.018587422 -0.14939436 -0.047238894 -0.10158648 -0.11468899 -0.016559608 -0.050870813 0.021490568
-0.14990728 -0.17269504 -0.11850034 -0.08947386 -0.14415213 -0.1034396 -0.13557157 -0.10377465
-0.12803738 -0.12513705 -0.090867825 -0.11933427 -0.10237604 0.039657053 -0.10247032 -0.13487853
-0.05670018 0.06636496 -0.009033229 -0.14618564 -0.08780174 0.0149543015 -0.12314453 -0.12604706
-0.06605646 -0.13375546 -0.077162795 -0.09701225 0.0392866 -0.1536764 -0.12760456 0.021485422
-0.14060114 -0.043140367 -0.02298852 -0.14424305 -0.11873832 -0.023228474 -0.031598363 -0.063517354
-0.105931774 -0.096998364 -0.084533066 -0.05773767 -0.16846903 -0.07522737 -0.15327841 -0.14212225
-0.11563638 -0.120741285 -0.14910349 -0.050582975 -0.054086685 -0.04314696 0.06406078 -0.08350449
-0.07553456 -0.08088957 0.008231957 -0.09233697 -0.10028847 -0.027327966 -0.012717252 -0.17628743
-0.13895634 -0.0956687 -0.07262859 0.077431284 -0.019910261 -0.12920204 -0.07459305 -0.09902545
-0.12794806 0.033268254 -0.123058625 -0.089862674 -0.14660163 -0.033899475 -0.12386869 -0.1569199
-0.0719173 -0.048155747 -0.049286805 -0.017109156 -0.13016091 -0.09929254 -0.060153317 -0.10618244
-0.048299108 -0.109990865 -0.06049402 -0.15842327 0.08647687 -0.0013854561 0.046498403 -0.123415135
-0.095626 -0.114146434 -0.0667942 -0.11972523 -0.0080450475 -0.13307382 -0.15887946 -0.08675447
-0.033678442 -0.05911793 -0.07982123 -0.07622921 -0.096591234 0.067441635 -0.11671228 -0.020043092
-0.10002115 -0.038246267 -0.0988968 -0.1272492 -0.112628 0.022241144 0.021446172 0.013865575
-0.012014751 -0.08126853 -0.11525746 -0.06680826 -0.05068688 -0.01694843 -0.10752107 0.043188307
-0.078198895 -0.13798796 -0.11340456 -0.118923165 -0.020861119 -0.110788025 -0.060750604 -0.07114092
-0.088714026 -0.13949613 -0.043847445 -0.12859154 -0.05158079 -0.13014863 -0.033890057 -0.08797342
-0.102296576 -0.061519515 0.0037363204 -0.042507436 -0.13601492 -0.16485475 -0.10981714 -0.16878173
0.039438676 -0.03706999 -0.070488214 -0.083824575 -0.15860109 -0.008576876 -0.1267337 0.023744669
-0.06213655 0.041238297 0.06809567 -0.07083786 -0.12571295 -0.10940269 0.038577866 0.06276299
-0.027671652 -0.12391041 -0.14082105 -0.11047298 -0.010601584 0.0023857397 -0.14584337 -0.05024083
-0.05748748 0.03213443 -0.11685003 0.011131945 -0.08679284 -0.028159577 -0.07637904 -0.046604123
-0.1625258 0.022116462 -0.101392776 -0.13187233 -0.09262096 -0.02228513 -0.10058432 -0.07837292
-0.11597971 -0.032728 -0.051424146 0.0074538756 -0.034018584 -0.15069176 0.002654629 -0.15821534
-0.002182787 -0.084885865 -0.070092425 -0.14232431 -0.07187845 0.036802385 -0.07685782 -0.06906211
0.0045625283 -0.11624657 -0.04199789 -0.029328728 0.024269462 -0.036109727 -0.111112125 -0.12541212
-0.1050762 -0.061254486 -0.029794741 -0.1543254 -0.104473606 -0.06740287 -0.1416643 0.050925735
-0.022782214 -0.16356152 -0.10024386 -0.11756666 -0.03825946 -0.061361976 -0.106170446 -0.11964487

action_model._discrete_distribution.branches.0.weight f4 [4, 256]
00000000: cdb5 95bd 60f9 9bbd ac24 3fbd 7712 6cbd
00000010: 3f07 38bd 4a45 8dbb 6884 00bd 4e54 34bd
00000020: 8279 bebc 277e 7ebc 71b0 c0bd a6c1 1bbd
00000030: 3e78 2bbc b3db 8ebd 414c e5bd 4ed3 9ebd
00000040: 3f02 a6bd 95a7 b9bc c828 cbbc bb9e 00bd
00000050: 3ea6 acbd 562e 65bd 8e72 dfbc 3922 1d3d
00000060: 6f7b 56bd db4e 48bd 5e76 1bbd 01d7 babc
00000070: e97b 13bd 4c70 08be e0e1 81bc 808a f7bc
00000080: 4391 e3bc 7e5c 4cbd 625f dbbc 0c11 e8bc
00000090: 2ea0 3abd db67 003d 2303 5e3b 9574 aebc
000000a0: d50f 4cbd dfda 493d c9f9 8a3b f554 7fbd
000000b0: 3bd3 d1bd 545f d53d f4c9 5abd dd96 51bd
000000c0: a046 a5bd 16cd 9bbd 9387 e6bd 13c3 4dbd
000000d0: bef7 00be 25b0 e7bc 70db ebbc 8bd1 d83c
000000e0: b5d1 afbc d9cf b13c 4d56 56be dde9 a6bb
000000f0: 56cf 86bc e41c bdbd add3 f8bb c68a 9ebd
00000100: e922 11bd 128c d8bd d251 9cbc c63b 05be
00000110: fa41 7dbd 8b46 45bd 9e66 0fbd 0502 1fbd
00000120: bb0e 10bd 5995 c9bc dc35 d2bd e067 24be
00000130: 62f4 2ebd 995f c2bc 1acb f13c 57b1 90bd
00000140: 8bca 0bbe 20fb 10bd 60dd ca3d 9625 ddbc
00000150: 9ba7 25bd f762 babd 1fb9 543d f325 17bd
00000160: bf69 6abd 874e 6dbd 444b 15bd e151 e83d
00000170: 2150 95bd 845f f1bc 997c a3bb 7aa7 30bd
00000180: c5f9 b8bd 002d 3d3d 08c8 4bbc b0bb 4fbd
00000190: 735e edbc 10b7 c1bc 6939 28bd 5e3e 1cbc
000001a0: a46e 6abd b5e4 edbc f684 0ebd 3114 60bd
000001b0: b14b 05bd 0b50 c4bc 4f38 91bb a76c e0bc
000001c0: ea62 53bd fb4c 29bd d925 413d 3eb9 90bd
000001d0: 4a8d da3d ac86 a9bd d084 44bd a57e 83bd
000001e0: 0e50 81bc 0ce3 61bd dbd0 82bd 3d25 9abb
000001f0: 51c9 b2bc 0359 c1bd 433e bcbb cb01 83bc
00000200: 47e7 a8bd 3b25 74bd c851 92bb ba68 febc
00000210: ee7c 863d 5f64 673d bf06 a7bd 2f84 6cbd
00000220: 9946 babd cdc6 10bc 7cc5 22bd c7dd 38bd
00000230: 9ed1 0bbc 18e9 b5bd 6c64 02be 5e9d 1cbc
00000240: ee2b b63c 310d 32bd 4ac0 e0bd 121b a7bd
00000250: a92e 5fbb 4877 4bbc e316 30be 4a44 3b3d
00000260: 8a51 abbd 2c19 8ebd 5263 433c d3f1 22bd
00000270: 655f 3abc 657f 55bd f88b a1bd 92f7 acbc
00000280: 7850 8bbc 6f05 12bd 9b2b d2bd 2220 45bd
00000290: 0142 5fbd 8982 19bd 60c5 71bd 6fa5 9ebd
000002a0: 8252 bcbd 5cb3 c9bc a37a d9bb 0d24 a73c
000002b0: ad8d f1bc 4208 90bd 4bcf c5bd d29b 1bbd
000002c0: 9a7f 88bc 46fe b1bc 0dac 68bd b237 dbbd
000002d0: 9d53 2abd d02c 2b3d 41c2 85bc cd5a bbbd
000002e0: a7a6 63bd 2078 bf3d eb52 ce3d 4f68 73bd
000002f0: 3a4b 5dbd 19da 3fbd 523d 6b3d f2d1 293d
00000300: 4031 09bd b04c d2bd edd7 8fbd fd19 8dbd
00000310: 1c26 8ebd 154e f13d 9df3 65bd 3147 60bd
00000320: 99fb c0bd 43a1 8b3d 5d90 45bc 6dc7 cfbc
00000330: cab2 9abd 6f2e c8bd 27e5 6fbd aab3 15bd
00000340: ad2a cdbc 6e23 b63c ae77 2f3d f204 b4bd
00000350: bba3 10bd 9b68 793c c8b1 393b fca8 87bd
00000360: 84f6 46bd 2081 11be 3b7c 32bd b590 d73c
00000370: 14ad 20be 9f8f 10bd 08a7 d6bd c382 38bd
00000380: 9940 35bd fefb 44bd 06ed 92bd e162 1cbd
00000390: cd77 a6bd bf52 bb3d bbb1 cebd ce3d 22bd
000003a0: bf09 0fbd 7b62 c3bc b35a a1bd dce6 90bd
000003b0: f25a 78bd 37d6 4c3c cb6a 46bd 50a7 8dbb
000003c0: 5e73 48bd be2f 6ebc dd38 20be f12d 92bc
000003d0: fb3b a2bd 0329 90bd ce1e 10be 13f6 453d
000003e0: caae a9bd 4d0f 83bd 639b da3b 5c0c 86bd
000003f0: c2e6 b53d 76d2 a3bd a3a6 10bd 1306 17bd
-0.07310066 -0.07615924 -0.046665832 -0.057634797 -0.044928785 -0.0043112384 -0.031376272 -0.04402571
-0.023251299 -0.015533007 -0.094086535 -0.038026474 -0.01046568 -0.06975498 -0.11196185 -0.07755147
-0.08105897 -0.022662917 -0.02479972 -0.031401377 -0.08430146 -0.055952393 -0.027276304 0.038362715
-0.05236381 -0.048903327 -0.03795468 -0.0228076 -0.03600684 -0.13324088 -0.015854776 -0.03021741
-0.027779227 -0.049892895 -0.02677888 -0.028328441 -0.045562916 0.031349044 0.0033876381 -0.021295825
-0.049819786 0.049280997 0.0042412025 -0.06233688 -0.10245367 0.10418573 -0.053415254 -0.051169265
-0.08070111 -0.076074764 -0.112563275 -0.050234865 -0.12594506 -0.028282234 -0.02879116 0.026467105
-0.0214623 0.021705555 -0.20931359 -0.0050937966 -0.016456287 -0.09234026 -0.007593593 -0.07741313
-0.035433684 -0.10573591 -0.019081984 -0.13011083 -0.0618305 -0.04816298 -0.035009973 -0.038820285
-0.035170298 -0.024607347 -0.10264179 -0.1605525 -0.04271353 -0.023727225 0.029515792 -0.07065075
-0.13651483 -0.03539574 0.09905505 -0.026995461 -0.040443044 -0.09100907 0.051934358 -0.036901426
-0.057229754 -0.057936218 -0.036448732 0.11343742 -0.07290674 -0.02946449 -0.0049892184 -0.043128468
-0.09032015 0.046185493 -0.012437828 -0.050716102 -0.028975701 -0.023646861 -0.041070376 -0.009536354
-0.05723442 -0.02903972 -0.03479477 -0.054706756 -0.032542888 -0.023963949 -0.0044317613 -0.02739556
-0.051608004 -0.04133318 0.047155235 -0.07066582 0.1067148 -0.0827764 -0.047978222 -0.0642064
-0.015785243 -0.05514817 -0.06387492 -0.004704146 -0.02182451 -0.09440806 -0.005744727 -0.015992066
-0.08247238 -0.05960582 -0.0044653155 -0.031055797 0.06566797 0.056492206 -0.081555836 -0.057743248
-0.09095497 -0.00883646 -0.039739117 -0.04513338 -0.008533863 -0.0888235 -0.1273362 -0.009559004
0.022237744 -0.04346961 -0.10974176 -0.0815946 -0.0034054911 -0.012418576 -0.1719623 0.045719422
-0.08365162 -0.06938395 0.011925535 -0.039781403 -0.011375283 -0.052123446 -0.07888025 -0.021114144
-0.017006144 -0.035649713 -0.10262223 -0.048126347 -0.054506306 -0.037478004 -0.059026122 -0.07746398
-0.091954246 -0.024621658 -0.006636934 0.020402933 -0.029486502 -0.07032825 -0.096586786 -0.0379904
-0.016662408 -0.021727692 -0.056804705 -0.107039824 -0.041583646 0.041790783 -0.016327979 -0.09148178
-0.055578854 0.09349084 0.10074409 -0.05942565 -0.05402682 -0.046838854 0.057431526 0.041459985
-0.033494234 -0.10268533 -0.070236064 -0.068897225 -0.069408625 0.11782471 -0.05614053 -0.054755393
-0.094229884 0.068178676 -0.012058345 -0.025363648 -0.075536326 -0.097744815 -0.058568146 -0.036548294
-0.025044763 0.022233691 0.042838745 -0.08790006 -0.035312396 0.015222694 0.0028334726 -0.06624028
-0.04857494 -0.14209414 -0.043575507 0.026314119 -0.15691024 -0.035293218 -0.104810774 -0.04504658
-0.04425106 -0.04809188 -0.07174115 -0.038180236 -0.08128319 0.09146642 -0.10092493 -0.039609723
-0.034921404 -0.02385067 -0.07878628 -0.07075283 -0.060633607 0.012502245 -0.04844169 -0.0043229237
-0.048938148 -0.01453775 -0.15646692 -0.017844172 -0.079215966 -0.07039072 -0.14074251 0.048330378
-0.082852915 -0.06399403 0.0066713556 -0.06545326 0.08881904 -0.079991266 -0.035315167 -0.036871027

action_model._discrete_distribution.branches.0.bias f4 [4]
00000000: 044c 273e 236d 2cbe 2c24 debd 522d 873d
0.16337591 -0.16838507 -0.10846743 0.06600441

action_model._discrete_distribution.branches.1.weight f4 [3, 256]
00000000: d996 a4bc 977a 56bc ea92 e7bc 4c6f 3dbd
00000010: 4a98 d8bc cea9 14bd f966 063c 2a86 2e3d
00000020: e3ae c13c 3e38 d4bd 31aa 5a3b 930a 07bc
00000030: 538c 0cbd 3ad6 b4bc d315 21bd 7c4c 093c
00000040: 3a8c cd3c faa0 1abd d259 943c 3992 25bd
00000050: 63ad bd3b 1b56 003d 0def c13b 5284 383d
00000060: 143e 32bd d385 2dbd 7769 21bd a5c0 a0bc
00000070: 43d9 d3bd 618f a43b 41ac 17bd 729f b2bc
00000080: 98ba 3bbd 7b78 023d c231 953d 42e1 9cbc
00000090: ad35 a63b d801 b2bc 62b2 03bd fcf1 b23b
000000a0: 909d 373c 3543 b93c d7c3 87bc b245 4dbd
000000b0: 1b8c 143c 9578 c63d 8695 dbba 2984 73bd
000000c0: a566 a13c 204e 4ebc f16b 0fbd f3bf 49bd
000000d0: 1078 91bc 59b0 4abd 4c49 40bd 6e8d 6a3d
000000e0: e1a4 2abd cb68 2a3d 2edd c13b fa48 a3bb
000000f0: f67d 7f3a 57b1 693d 710c 05bd 8ac6 203d
00000100: 00e7 14bd 2ced 1cbd b875 04bc dea8 13bd
00000110: 7589 a63b e3ae 94bd 962d 38bd d69e 43bc
00000120: 4a71 3abc 546b 003c bd79 4dbd c2ac 4ebd
00000130: 40c2 4bbd 7566 133d 2d15 be3c 9280 06bd
00000140: 0f9a 363c 9fd2 5c3d 78ea 95bd b100 43bd
00000150: 6537 9abd 16ce 2bbb caed 77bd 0553 23bd
00000160: 9ddf afbd 3415 5e3c c805 8bbc 1133 90bd
00000170: 700f aa3c e6f2 46bd bac5 e5bb b1f8 17bc
00000180: b86b e83b d16f 57bd 0af5 0cbd 582b c7bd
00000190: 33d4 73bd deb4 1f3c a38f 923c c77e b4bc
000001a0: 82a8 3ebc b039 aebc 44fb 3ebc 602e 053e
000001b0: ddd2 0ebd a967 473d cdf9 343d bd98 03bd
000001c0: ec7c 87bd 0619 2f3d b666 4bbc 879c bcbb
000001d0: 8008 de3d 5ac0 213c 7750 9b3d 558d 6bbd
000001e0: bfed 533d 90e0 ecbc ef5f 413c b0d5 523d
000001f0: 2921 7d3b d2c6 1cbd d924 65bd 6a6a c2bc
00000200: 4266 acbd 5004 383d 0edf 1dbd 8103 1ebd
00000210: bd8d f6bc c6d7 123d 0036 00bd a4a0 d9bc
00000220: 78e3 4dbd 55c9 5cbd 9131 d53c 0656 ba3a
00000230: f26f fcbc 3cce ac3d 8f25 e43c a2ea d83c
00000240: a548 b7bc 3b93 aabc 2f6c a03b 35d5 88bd
00000250: 589b d43c 0bb0 0bbc b15f 00bd f095 f03c
00000260: da98 1b3b 134e 1abd 3be9 7bbc 4423 febc
00000270: 57ff 6a3d 6988 b5bd c0a2 27bd f642 12bc
00000280: 90c6 21bd a40b 8fbd 9bb8 96bd 4ee3 76bd
00000290: 875d ad3c 19d3 0dbc c0dc 2e3c 9899 70bd
000002a0: b9ac a73c 99c9 9d3c e10a 763c bccb 6bbc
000002b0: 061a 21bd fcde d0bc cc92 6cbd eef3 d5ba
000002c0: 4b55 4abc 1a12 323d 413f a4bd 595c 873b
000002d0: 5095 a33b 5629 813d 441d 06bd 277a 363d
000002e0: 5fbc ddbc e0ff 1abd 0029 9c3d 1bc0 333c
000002f0: 2ce2 d23b d8f9 2bbd 23b3 b03d 205a 03bb
00000300: 39cb 0d3c 30b5 b7bd 2ed4 a139 a8ee 2bbc
00000310: 276d 143e 8063 25bc 39cf 38bd 869c e53c
00000320: dc13 c63d eecc bebd 4e1a 22bd 46df 263d
00000330: 8d63 e63b 0b2f 8d3c fb21 98bb adcb b0bc
00000340: d138 11bd 0470 373d 31c9 0dbd 9ffa b33b
00000350: dfb2 41ba 145f 253c a559 7dbd ac5c e53a
00000360: b0d0 a3bb e944 793d 7dad 0a3d 02a6 b53d
00000370: 2440 933c b385 11bd 4204 98bc 08ca 11bd
00000380: 2d9d 98bb cde5 fdbc b0c9 a73b 3180 24bd
00000390: 6b1d cfbc 1836 d43d 72cc 9dbd 5cfb 433c
000003a0: eed2 45bb 30d2 b0bc 80bc 263d 536c 45bc
000003b0: 0214 513d ec0c d3bc 2565 6dbd 7450 693d
000003c0: 3b48 3ebd 86c3 babb a6ee 053d 6b77 27bd
000003d0: 03e3 07bd f0c9 393d be89 53bd 47d7 273d
000003e0: 0451 38bd ab90 40bd 59a2 353d 860b c63c
000003f0: 92c1 7b3c 5902 603c 3c0f fb3c fc27 e5bb
-0.020091461 -0.013090751 -0.028268296 -0.04624872 -0.026439805 -0.03629475 0.0082032615 0.042608418
0.023642963 -0.1036229 0.0033365602 -0.008242267 -0.03431351 -0.022074807 -0.039327454 0.008380052
0.02509128 -0.037751175 0.018109236 -0.040422652 0.0057884916 0.031332117 0.0059183897 0.045048065
-0.043516234 -0.042363953 -0.03940722 -0.01962311 -0.10344174 0.005021975 -0.03702951 -0.021804545
-0.045832247 0.03185318 0.07284881 -0.01915038 0.0050723166 -0.021729395 -0.03215254 0.0054609757
0.011206999 0.022615055 -0.016572876 -0.050115295 0.009066607 0.09690968 -0.0016752935 -0.05945221
0.019702265 -0.012591869 -0.03501505 -0.049255323 -0.017757446 -0.049484584 -0.0469449 0.057263784
-0.041661147 0.041603845 0.0059162593 -0.0049830647 0.00097462477 0.05705389 -0.03248257 0.03925184
-0.03635311 -0.038312122 -0.008084707 -0.036049716 0.005082304 -0.072599195 -0.04496535 -0.011939725
-0.011379549 0.007838089 -0.050164927 -0.050457723 -0.049745798 0.035986383 0.023203457 -0.032837458
0.011145129 0.0539118 -0.07320112 -0.04760808 -0.07530097 -0.0026215366 -0.060529508 -0.039874095
-0.08587573 0.01355486 -0.01697053 -0.0704099 0.020759314 -0.04857149 -0.0070120962 -0.009275601
0.007092919 -0.05259687 -0.034413375 -0.09725064 -0.05952854 0.009747712 0.017890757 -0.022033108
-0.011636855 -0.021267742 -0.011656586 0.13005972 -0.034869064 0.048682842 0.04418354 -0.032128084
-0.06615624 0.042748474 -0.012414625 -0.005755964 0.10841465 0.00987252 0.07583707 -0.05750783
0.051740404 -0.028915673 0.0118026575 0.05147332 0.0038624501 -0.038275547 -0.055943344 -0.023732383
-0.08417942 0.044925988 -0.0385428 -0.03857756 -0.030096883 0.03585031 -0.0313015 -0.026565857
-0.05026576 -0.053902943 0.026024612 0.0014216311 -0.030815098 0.084377736 0.02784994 0.02647907
-0.022373507 -0.020822158 0.004895709 -0.06681291 0.02595298 -0.008525859 -0.03134126 0.02936837
0.002374223 -0.037672114 -0.015375431 -0.031022675 0.057372417 -0.08863909 -0.040926695 -0.008927098
-0.039496005 -0.06984642 -0.073594294 -0.06027537 0.021162761 -0.008656287 0.010672748 -0.05874023
0.020468103 0.019261168 0.015017242 -0.014391836 -0.03933146 -0.025496952 -0.057757184 -0.0016323307
-0.012349437 0.043474294 -0.08019877 0.0041308817 0.0049921647 0.06306712 -0.032742754 0.044550087
-0.027067361 -0.037841678 0.07625008 0.0109710945 0.006435653 -0.041986316 0.086279176 -0.0020042732
0.008654409 -0.08970106 0.000308664 -0.010493912 0.14494763 -0.010094523 -0.045119498 0.028028738
0.096717566 -0.09316431 -0.039575867 0.040740274 0.0070309103 0.017234346 -0.0046427227 -0.021581495
-0.035454575 0.04478456 -0.0346157 0.005492523 -0.00073890196 0.010093469 -0.06185307 0.0017498932
-0.0049992427 0.060856733 0.033856858 0.08869554 0.01797492 -0.035527896 -0.018556718 -0.035593063
-0.0046574087 -0.030993367 0.0051204786 -0.040161315 -0.025282582 0.1036188 -0.077050105 0.011961784
-0.0030185538 -0.0215846 0.04070711 -0.012049752 0.05104447 -0.025762998 -0.057957787 0.05696149
-0.046455603 -0.0056995777 0.032698296 -0.04088537 -0.03317548 0.0453586 -0.051645033 0.04097679
-0.044999138 -0.047012966 0.04434428 0.024175417 0.015365975 0.013672435 0.030646913 -0.006993292

action_model._discrete_distribution.branches.1.bias f4 [3]
00000000: aa22 d33d e197 c1bd e7b6 e43b
0.10309346 -0.09452797 0.0069798115
