ML-Agents_Package/results/one_car_self_park/PKWParking.onnx (onnx, 825906 bytes, 19 tensors)

discrete_act_size_vector f4 [1, 2]
00000000: 0000 8040 0000 4040
4.0 3.0

network_body.observation_encoder.processors.0.normalizer.running_mean f4 [45]
00000000: 0000 0000 f127 d139 0000 0000 ba6b 023c
00000010: 3dea f83d 2c5f 5e3f 0c4e 4c3a ef03 2f3a
00000020: 54bb f93e 0000 0000 b358 cb39 0000 0000
00000030: 38a4 d63b ca81 0c3e b8d3 5a3f c734 293a
00000040: 9220 ed39 3fe3 f93e 0000 0000 0427 d439
00000050: 0000 0000 adb9 c63b ad97 f93d 7ec6 5e3f
00000060: 008b 473a 65c9 283a 1762 f63e 0000 0000
00000070: fb72 383a 0000 0000 bca6 493c 8dbe 133e
00000080: d0a7 573f 5b09 8c39 efcf 1938 9ac0 f93e
00000090: 0000 0000 df21 bc39 0000 0000 6cee d63b
000000a0: 3b6c 073e 8d1a 5c3f 5da1 bd39 be36 303a
000000b0: b3bf da3e
0.0 0.00039893345 0.0 0.007960254 0.121540524 0.8686397 0.00077936123 0.00066763064
0.48775733 0.0 0.00038785263 0.0 0.006550338 0.13721386 0.8547931 0.0006454703
0.0004522843 0.48806188 0.0 0.0004046486 0.0 0.0060646147 0.12187133 0.87021625
0.000761196 0.00064387015 0.48121712 0.0 0.00070361764 0.0 0.012307819 0.14428158
0.84240437 0.0002670985 3.6671696e-05 0.48779756 0.0 0.0003588339 0.0 0.006559184
0.1322488 0.85978013 0.00036169114 0.00067220244 0.4272438

network_body.observation_encoder.processors.1.normalizer.running_mean f4 [20]
00000000: e6de a639 0000 0000 f6e6 833c a93f d23e
00000010: 4981 a939 0000 0000 90b9 4f3c d315 d03e
00000020: b9f8 8e39 0000 0000 d7b8 803c 9051 d13e
00000030: 5c79 8d39 0000 0000 f406 233c 969b c83e
00000040: 4695 d839 0000 0000 35c6 3d3c 2bfc cf3e
0.0003182806 0.0 0.016101342 0.41064194 0.00032330517 0.0 0.012678519 0.4064165
0.00027269663 0.0 0.015713139 0.4088254 0.00026984036 0.0 0.009950388 0.39181203
0.00041309948 0.0 0.011582901 0.40622076

network_body.observation_encoder.processors.2.normalizer.running_mean f4 [15]
00000000: dd0c 3f3d bcb8 733f fbb1 793f 1b79 333d
00000010: 37b8 733f 6e8f 793f dd80 a13d 1668 6a3f
00000020: 71c2 753f 5527 2b3d f9d7 503f a725 733f
00000030: f620 b13d cdc1 653f beb8 733f
0.046643127 0.9520376 0.975372 0.043816667 0.95202965 0.9748448 0.07885907 0.9156507
0.9599982 0.041785557 0.8157955 0.9497933 0.08648865 0.8974884 0.9520377

network_body.observation_encoder.processors.3.normalizer.running_mean f4 [440]
00000000: 0000 0000 ab8f f63b cb07 043c 660f eb3d
00000010: 2e0b 4b3f 0e00 3836 1cec 973d 7a13 a43e
00000020: 0000 0000 cca1 f03b 6edb 2c3c 5d51 e73d
00000030: c975 4a3f 1fe8 a838 286f 9b3d 79cf 9e3e
00000040: 0000 0000 faab 843c 3b10 123c f103 063e
00000050: cdf7 453f e44f d338 8deb 8b3d 3afe 9e3e
00000060: 0000 0000 1789 cb3d 21cb c53b abe4 103e
00000070: 52be 2f3f b7ba 9b39 0404 833d 64f8 973e
00000080: 0000 0000 7c7b 7d3d e925 053c 7c45 113e
00000090: 320f 3b3f 0dd0 de38 5f4d 613d 31d2 923e
000000a0: 0000 0000 4497 2b3e 8525 cd3b 8dd6 0f3e
000000b0: 1215 243f 710d 763a 5b00 2a3d 8191 8c3e
000000c0: 0000 0000 6b62 5d3e 6030 153c 8de9 193e
000000d0: 1512 143f 48bd ac39 718c 313d 95ab 8d3e
000000e0: 0000 0000 d927 493e 9938 e63b 364d 173e
000000f0: c76b 1f3f db03 a13a 3b3d b83c 7c83 823e
00000100: 0000 0000 372e 703e 616c 143c 3e7e 1e3e
00000110: 7cbe 113f b6b1 9e3a 20bb eb3c 7fa0 883e
00000120: 0000 0000 3173 603e e155 163c 161e 013e
00000130: 4a27 203f af13 b43a 8311 853c 45a0 7d3e
00000140: 0000 0000 713a 6b3e bb6c 8f3c 4de1 163e
00000150: 0999 123f 4fb1 383c 3035 9d3c 26fa 843e
00000160: 0000 0000 c2ce f63b 7256 043c c889 eb3d
00000170: fb16 4b3f 1100 3836 2c32 983d 7433 a43e
00000180: 0000 0000 37d9 f03b 5641 2d3c cec6 e73d
00000190: 5481 4a3f 1fe8 a838 d4b7 9b3d 2df1 9e3e
000001a0: 0000 0000 3ebb 843c a85f 123c d644 063e
000001b0: 7903 463f 428d d338 7c2d 8c3d 4f1c 9f3e
000001c0: 0000 0000 3c91 cb3d dd37 c63b 012b 113e
000001d0: f7c8 2f3f f4c9 9b39 413d 833d e814 983e
000001e0: 0000 0000 9d84 7d3d 4775 053c 4789 113e
000001f0: 671a 3b3f 10d0 de38 ccc7 613d 6af3 923e
00000200: 0000 0000 de9e 2b3e 2bc5 cd3b a51b 103e
00000210: ac1f 243f e72b 763a fe61 2a3d 28b1 8c3e
00000220: 0000 0000 d86b 5d3e 0595 153c 6a2f 1a3e
00000230: 7a1b 143f 4dbd ac39 47fa 313d b3c7 8d3e
00000240: 0000 0000 9032 493e cfbd e63b 7293 173e
00000250: 0b77 1f3f 0b17 a13a 66d6 b83c 0c9b 823e
00000260: 0000 0000 df39 703e d7b7 143c ead0 1e3e
00000270: cdc7 113f bac8 9e3a 0325 ec3c e9b6 883e
00000280: 0000 0000 3a80 603e 6fc7 163c bf5f 013e
00000290: b433 203f b926 b43a e295 853c f3cc 7d3e
000002a0: 0000 0000 af46 6b3e 26c5 8f3c ad30 173e
000002b0: baa2 123f f8c6 383c b381 9d3c 7a10 853e
000002c0: 0000 0000 4f21 f73b 30a7 043c 2105 ec3d
000002d0: 5623 4b3f 1100 3836 2e7a 983d ca54 a43e
000002e0: 0000 0000 0225 f13b 83a4 2d3c 0041 e83d
000002f0: a98c 4a3f 1fe8 a838 6bfd 9b3d f011 9f3e
00000300: 0000 0000 1fcd 843c 9fa9 123c a184 063e
00000310: 300f 463f c5ca d338 2c6d 8c3d 0a3c 9f3e
00000320: 0000 0000 8f9a cb3d 54ad c63b 0975 113e
00000330: 8fd3 2f3f 48d9 9b39 8076 833d b032 983e
00000340: 0000 0000 078f 7d3d dfc3 053c 82cc 113e
00000350: 1a26 3b3f 12d0 de38 1b43 623d 0913 933e
00000360: 0000 0000 c2a6 2b3e 9665 ce3b 5164 103e
00000370: 462a 243f 9c4a 763a b9c6 2a3d 76d3 8c3e
00000380: 0000 0000 1275 5d3e 0502 163c 0278 1a3e
00000390: dc24 143f 51bd ac39 f469 323d 7de6 8d3e
000003a0: 0000 0000 873d 493e ee4b e73b 88dd 173e
000003b0: 9b82 1f3f 2a2a a13a be6f b93c 89b9 823e
000003c0: 0000 0000 ad45 703e a403 153c c224 1f3e
000003d0: 32d1 113f b1df 9e3a 3994 ec3c 17d4 883e
000003e0: 0000 0000 228d 603e 043a 173c 7aa0 013e
000003f0: 6740 203f 263a b43a 1f19 863c 6400 7e3e
0.0 0.007524451 0.008058499 0.114775464 0.79313934 2.7418168e-06 0.07418081 0.3204611
0.0 0.0073435064 0.010550363 0.11294816 0.79085976 8.0541e-05 0.07589561 0.31017664
0.0 0.016195286 0.008915002 0.13087441 0.7733124 0.00010076145 0.06832037 0.31053334
0.0 0.09938257 0.0060361777 0.1414973 0.6864978 0.00029703017 0.0639725 0.29681695
0.0 0.061885342 0.008126714 0.14186662 0.7307006 0.000106245374 0.055005427 0.28675988
0.0 0.16756922 0.006260576 0.14046688 0.6409465 0.0009386158 0.041504245 0.2745476
0.0 0.21619575 0.009105772 0.15030499 0.5784009 0.00032947422 0.043346826 0.2766997
0.0 0.19644107 0.00702579 0.14775547 0.6227383 0.0012284474 0.022490134 0.2549094
0.0 0.2345513 0.009059043 0.15477845 0.5693128 0.0012107405 0.028775752 0.2668495
0.0 0.21918942 0.009175749 0.12609133 0.6255995 0.0013738776 0.016243702 0.24768169
0.0 0.22971512 0.017507901 0.14734383 0.57264763 0.011272742 0.0191904 0.25972098
0.0 0.0075319717 0.008077251 0.11500889 0.7933194 2.7418175e-06 0.074314445 0.32070506
0.0 0.007350113 0.010574659 0.11317216 0.7910359 8.0541e-05 0.07603422 0.31043378
0.0 0.016202565 0.008933939 0.13112196 0.7734905 0.00010087575 0.06844613 0.31076285
0.0 0.09939811 0.00604914 0.14176561 0.68666023 0.0002971437 0.06408168 0.2970345
0.0 0.061894048 0.008145637 0.14212523 0.7308716 0.000106245396 0.05512218 0.28701335
0.0 0.16759822 0.006279608 0.14073046 0.6411083 0.0009390697 0.04159736 0.2747891
0.0 0.2162317 0.009129767 0.1505715 0.57854426 0.00032947437 0.043451574 0.2769142
0.0 0.19648194 0.00704167 0.1480234 0.6229102 0.0012290193 0.02256317 0.25508916
0.0 0.23459576 0.009077034 0.15509382 0.56945497 0.0012114265 0.028826242 0.2670205
0.0 0.21923915 0.009202822 0.1263418 0.6257889 0.001374445 0.016306821 0.24785213
0.0 0.22976182 0.017550062 0.14764662 0.5727955 0.011277907 0.019226884 0.25989133
0.0 0.0075418125 0.008096501 0.11524416 0.79350793 2.7418175e-06 0.07445179 0.3209594
0.0 0.007359148 0.010598305 0.11340523 0.7912088 8.0541e-05 0.07616695 0.31068373
0.0 0.01621109 0.008951574 0.13136531 0.77366924 0.00010099033 0.068567604 0.31100494
0.0 0.09941589 0.006063143 0.14204802 0.6868219 0.0002972579 0.064190865 0.29726171
0.0 0.06190398 0.008164375 0.1423817 0.73105013 0.00010624541 0.055239778 0.2872546
0.0 0.16762832 0.006298731 0.14100768 0.64127004 0.0009395273 0.041693423 0.27505082
0.0 0.2162669 0.009155755 0.15084842 0.5786874 0.00032947448 0.043558076 0.2771491
0.0 0.19652377 0.007058612 0.14830601 0.62308663 0.0012295891 0.02263629 0.25532177
0.0 0.23464079 0.009095106 0.15541366 0.5695983 0.0012121109 0.028879272 0.26724312
0.0 0.21928838 0.009230141 0.12658873 0.6259827 0.001375024 0.0163694 0.24804837

network_body.observation_encoder.processors.4.normalizer.running_mean f4 [6]
00000000: 0cff 7f3f f708 07bc 0133 43bc 01a0 853f
00000010: 506f d8bc 48dc 09bd
0.99998546 -0.0082418835 -0.011914016 1.0439454 -0.026420265 -0.033657342

network_body._body_endoder.seq_layers.0.weight f4 [256, 526]
00000000: 49fe c63a de20 803c c47e fa3c dfa3 11bd
00000010: 57db 44bd a792 953d 412f 573c b99f 3f3b
00000020: b194 ee3c b6b3 953d bb30 b13d 9eeb cdbb
00000030: d405 bcbb 957d dcbc 820b 923d ac16 2d3d
00000040: 739a 6abc bbf6 13bc 300c 8fbd 5055 7abd
00000050: fbfb 7bbb a8bd 25bd f538 bcbc 146d ef3d
00000060: 28a9 50bb 5a11 64bd a058 9e3c fd77 8e3d
00000070: 87e6 683d d824 873c 4a54 d0bd 2a83 31bd
00000080: f671 563d 291b 05bc fea5 99bd 1aa5 243d
00000090: 2fe7 143d 4787 9bbc c45e 96bc d36b a9bc
000000a0: 9fb4 c6bb dcb9 cb3c 49c8 c03c 9ab8 233d
000000b0: 7ab7 86bd 2ab7 9bbd c9b6 78bc 5679 3dbd
000000c0: a1e4 3bbd bccf b23c 267d 653c 261e 02bd
000000d0: ae4e 353d 825a b93d 23f0 edbd 8c15 ff3c
000000e0: 6415 273b d01b 973d b437 373c 72b1 c3bb
000000f0: 248c 753d 2c3f c0bd c8ad 82bc 9e2b b03c
00000100: 7931 e13d c505 bb3d ed0b 68b9 2822 753b
00000110: 0ead aaba 5cc2 f73a 13b9 2e3d db16 99b9
00000120: 8ebd a53d d716 b5bb e6ad a2bd 2760 d33b
00000130: 8504 0fbd bbce 58bc c1e4 593d 1bb6 0f3e
00000140: bf4c e1bb 0d74 b33b 7a02 97bd bcfe 10bc
00000150: affa 2b3b a605 05bd efc0 3f3c 35f7 e0bc
00000160: 0ccf 16bb ae73 b8bd c510 02bd 7de2 9fbd
00000170: abf8 9fbb dff0 3db9 bebe c03d b99d 0abd
00000180: 8136 3e3c b5de a1bc 1ac0 733d f86a aabb
00000190: a1f1 8fbd f82f 0bbd 45d4 743b d5ff cabc
000001a0: a171 36bd 0e0e 323d 286d 003d f0b4 b23d
000001b0: fb25 79bc 808f 23bd aeae 8a3d 8f26 303c
000001c0: bf33 b1bd 1456 c33c 26b6 cabc 158b f3bc
000001d0: 81bb cbbc f5fa 793c 7eb6 4abd 6aa5 86bc
000001e0: 5aff 893d 4011 73bd 8299 0d3d f929 343d
000001f0: 8720 1abd 56ce 2b3d 36ce c13c d651 71bc
00000200: d803 64bc bd49 513d 0704 af3d b737 b2bc
00000210: 21c7 e9bd 24c1 80bd 2578 93bd 8952 d8bc
00000220: 63b3 06bc 9173 2dbd 104b dfbc b429 5e3c
00000230: fd10 f2bc d94a d0bc 1c91 5bbd 44c5 113d
00000240: a94d 923c 14aa 633d c0cc a63b 05e1 893c
00000250: 00d9 4e3c 014d c43c 4e01 da3c 2810 65bc
00000260: 9a24 a13a 8bb9 54bd 9c35 f8bc 9709 f5bd
00000270: e287 ce3b 7866 5a3c fc37 603d 2a6b 173c
00000280: 0ec6 85bd 59a2 913d cb19 a6bd cb23 3fbd
00000290: 58c2 ce3d 16c7 d6bd 0e57 413d a7ba 85bc
000002a0: ae61 cdbb 0e4a aebc 5107 a03b 24aa af3b
000002b0: 3188 1e3d 6388 03bd 28d3 ac3b 04df b13d
000002c0: d6c2 5cbd 97dc 033c bc26 74bd 36c1 093e
000002d0: 8e8c a4bd 3a88 19bd c265 77bc 3b53 43bc
000002e0: 91f3 26bd 4bbd 8cbd ee6c 633d 18d1 47bd
000002f0: d895 0fbc 47d2 20be 2d1b a9bc d5a0 60bd
00000300: 45de 87bd da57 843d 7eb1 a23d bfe6 8c3c
00000310: 13fa 0a3d 46fb 4c3d a3a2 1ebd f390 8c3c
00000320: 5e79 32bd c82f 3d3d a886 b0bc 93f3 40bd
00000330: 272b d73b 9514 df3c b760 3b3c 0836 a63d
00000340: 7bbb 923d 7da7 413d fabd 693c fb3c d1bc
00000350: 3cf4 5e3a 5c3d d8bb bd2d aabd 0e97 803d
00000360: ca8b 07bd 094c 523d 6778 b4bc 8365 303d
00000370: 8663 18bc f568 203c 2811 20bc 4d66 603c
00000380: e825 883c 633c e13c 64e1 6abd 8017 93bd
00000390: 2772 5cbd 9ad8 51bc f0cf 8b3b 2ced 01bc
000003a0: ad51 6b3d 6923 713c 3df0 9e3d d199 893c
000003b0: f2dd 15b9 f67a 25bd 48d8 0fbd f817 99bd
000003c0: 5d29 a73d 2101 813d 4cfc 13bc b788 d8bb
000003d0: e1dd 873d 44a9 803d 2aae 8a3c f823 d53d
000003e0: 2b2f 973d 71a6 2f3b 08d2 7cbc 3cac 98bd
000003f0: e501 373b 2a83 c6bc 9f6a d53c eff6 943d
0.0015181984 0.015640672 0.030578025 -0.03555667 -0.04806074 0.07303362 0.013133825 0.002923949
0.029123636 0.07309668 0.08651873 -0.0062841913 -0.0057379995 -0.02691535 0.07131101 0.04225795
-0.01431905 -0.009030993 -0.069847465 -0.061116517 -0.0038449753 -0.040464073 -0.022976378 0.11690727
-0.0031839106 -0.05568061 0.019329369 0.0695648 0.056860473 0.01649706 -0.10172327 -0.04333798
0.052354775 -0.008124151 -0.075023636 0.040196516 0.036353286 -0.018985404 -0.018355735 -0.020681297
-0.006064012 0.024868898 0.023533003 0.03997097 -0.06577964 -0.07603295 -0.015180298 -0.046258293
-0.045872334 0.021827571 0.0140068885 -0.031767033 0.044264488 0.09050466 -0.11618068 0.031138204
0.0025494928 0.07378352 0.011182714 -0.005972081 0.0599481 -0.09387049 -0.015952006 0.021505173
0.10995764 0.0913196 -0.00022129687 0.0037404392 -0.0013021545 0.0018902528 0.04265697 -0.00029199463
0.08092795 -0.0055264044 -0.07943325 0.0064506712 -0.03491642 -0.013232882 0.053196672 0.14034311
-0.006875604 0.005476481 -0.07373519 -0.008849796 0.0026241948 -0.03247609 0.011703714 -0.027461627
-0.0023011593 -0.09006439 -0.031754274 -0.07806871 -0.0048819385 -0.00018114176 0.09411381 -0.033841822
0.011609674 -0.019759515 0.059509374 -0.00520074 -0.07028509 -0.033981293 0.0037357968 -0.024780193
-0.04454196 0.043470435 0.0313541 0.08725917 -0.015206809 -0.039931774 0.06771599 0.010751381
-0.08652448 0.023844756 -0.024745058 -0.029729405 -0.024869682 0.015257587 -0.049490444 -0.016436297
0.067381576 -0.059342623 0.034570225 0.04398534 -0.037628677 0.041944824 0.0236579 -0.014728984
-0.013916932 0.051095713 0.0854569 -0.021755083 -0.11414934 -0.06286839 -0.0720065 -0.026406543
-0.00822148 -0.04234654 -0.027257472 0.0135597475 -0.029549116 -0.025426315 -0.053605184 0.035588518
0.017859297 0.05558212 0.005090326 0.01683093 0.012624979 0.0239625 0.02661195 -0.013980903
0.0012294233 -0.05193476 -0.030299 -0.1196472 0.0063028196 0.0133300945 0.05474089 0.0092418585
-0.065319166 0.071110435 -0.08110388 -0.046664994 0.10095662 -0.104871914 0.047202162 -0.016324354
-0.006267748 -0.021275546 0.0048836847 0.0053608585 0.0387041 -0.03211249 0.005274195 0.08685115
-0.053896748 0.008048198 -0.059607252 0.1345261 -0.08034621 -0.03748343 -0.015099945 -0.011921699
-0.040759627 -0.06872042 0.055523805 -0.04878339 -0.008763753 -0.15705214 -0.020642841 -0.05484088
-0.066341914 0.06462069 0.0794401 0.017199872 0.033929896 0.05004432 -0.03872932 0.01715896
-0.043572776 0.046188146 -0.021548584 -0.04710729 0.0065664235 0.027231494 0.011436633 0.081157744
0.07164665 0.04727887 0.014266485 -0.025541773 0.00085050217 -0.0065991115 -0.08309505 0.062788114
-0.033092298 0.051342044 -0.022030069 0.04306556 -0.009301072 0.009790649 -0.009769715 0.013696265
0.016619638 0.027494615 -0.057343856 -0.07182217 -0.0538198 -0.0128079895 0.0042667314 -0.007930081
0.05745094 0.014717915 0.077606656 0.016796978 -0.00014292428 -0.040400468 -0.03511837 -0.07475275
0.08162186 0.062990434 -0.00903232 -0.0066080946 0.06634117 0.06282285 0.016928751 0.10407251
0.073820435 0.0026802088 -0.015430935 -0.07454726 0.0027924713 -0.024232466 0.026051817 0.07273661

network_body._body_endoder.seq_layers.0.bias f4 [256]
00000000: e9a2 31bc f084 05bd 2a1b c6bc 4607 7fbc
00000010: 1734 ffbc 8eb4 213d c391 6cbd 7635 fdbc
00000020: b1a1 cbba 4772 82bc da8c edbc 1845 52bc
00000030: dcc1 763c ffc6 ac3b 8cd3 bbbc d17c 5d3b
00000040: 94e1 92bc a810 42bc 1b72 07bd ac85 85bb
00000050: 97e7 5b3c 3a8f f2bc 31cd dcbc 60f6 c3bc
00000060: 3971 553c 9665 a8bc d41a 39bd 333d 11bd
00000070: d18e d4bc b9af a0bc 4743 393a d592 aebc
00000080: cc1d 84bc dc86 81bb e75c 0ebd fa76 8bbc
00000090: 3310 a93c e2f8 c13b 19e8 1c3b 2abb afbc
000000a0: 52e6 873c eebf 8b3b 45a3 acbb 18c1 5fbc
000000b0: 25d5 0ebd ccd0 863c 95ff 433b 3b50 c0bc
000000c0: 3ba0 36bb fc2f c7bc e1f2 15bc b83b 29bc
000000d0: 9266 53bb 6f4c 543b 8eec a2bc b079 2a3c
000000e0: de37 b2bc ce9f 9bbb 07fa 493c 8ab3 48bc
000000f0: f299 cc3c d4e0 2bbb daeb e43b 2a02 15bb
00000100: b19c 95b9 327f 62bc 9931 8a3c ab61 503c
00000110: 5ff2 46bc 064b d13c 5d78 7ebb dfc0 efbb
00000120: a902 1bbc 43ad 2ebc 3f66 083c 536f 08ba
00000130: 3a94 64bd 94e5 bd3b db88 bd3b 7e18 17bd
00000140: baeb f1bc 122d e7b9 dee2 2bbc 187b 78bc
00000150: b06a b43c fd00 53bb baaf bd3b 577b 9cbc
00000160: 15db 8ebb 2789 a4bc de9a c23b 25a4 5dbd
00000170: c003 0ebc a531 033a c8bf 34bc 32da abbc
00000180: eb5c 05bc a376 fcbb 5a40 e13b ef64 b8ba
00000190: b4b6 a2bb 584e dabc cb75 0a3b 27a4 84bb
000001a0: 2050 99b9 907d 24bd 1e88 22bd f08e 713c
000001b0: 9fb5 f7ba ba47 bfbb 2384 e2bb abdc 89bc
000001c0: 3c91 eabc 85e7 d43b fb55 7dbc eb6d 53bc
000001d0: dd2a 6fbc 94be 5fbc 53e8 00bb d885 3dbc
000001e0: a98c 293c 5b67 efbb 9996 133c d251 83bc
000001f0: 2c91 8b3b d1e5 d03c cd33 493c 33bd 02bd
00000200: 5d9f 273c 7490 69bc e9fb 163c 37a7 c2bb
00000210: 0e2b 83bd e7bb 1d3b 94ce e3bb bfa1 fabc
00000220: b3dc dcbc b40c 8a3b d613 f9bc 5c04 ca3b
00000230: 451f 20bb 91ef a63b 457d 9ebb f55c 19bc
00000240: be55 393c 62b6 85bc f87b 143b 4e7f 7239
00000250: 3a48 27b9 c091 8c3c 9054 a1bb b54c 95bb
00000260: 556d a6bb f54c f7bc e13b ffbc a786 0abd
00000270: 32f6 32bd 7672 503b 5532 51bc b797 f3b7
00000280: b600 563c 1b1d e73b 192b 3a3c 88bf 26bc
00000290: afcf 93bb 2873 ac3b 29c3 acbb b7e1 dfbb
000002a0: 3b30 b0bc 219e cdbc 76c4 87bc f5f2 e23b
000002b0: 1311 18bc e1cf 24bd be66 a1b9 544a cbba
000002c0: db70 00bb 9748 223b a438 3abc 435b 5ebd
000002d0: 3bc0 9f3c c3ce 71bc 4079 b3bc 11ab 103c
000002e0: 8efe 64bc 9fa7 71bc d0ff ee3b 737b 0abd
000002f0: 2d71 823c 459e 88bc 8adb 263a 2819 81bc
00000300: 90f6 11ba deff 2bbc 0498 95bc 7257 343a
00000310: 7e2f 15bd 41a4 3e3b 9ff4 40bc 3e07 a63c
00000320: 94f4 cfbc e2e3 b1bb 1206 72bc c16c 8c3b
00000330: 66a4 babb 6ddd 2e3b d42b b3bc 5777 2ebc
00000340: 9cac 8fbc 0393 28bd 8468 edb9 3211 e4bb
00000350: 4578 443c ea4e 69bc c3bf 1fbd 710f 0fbc
00000360: 7c07 20ba 5167 943a b56e 79bc 1a38 24bd
00000370: 87ad b9bb 91df 0e3c 4040 213c 2baf 97ba
00000380: 39c4 86bc f442 d0bc 7c2b da3b 31f4 55bc
00000390: b90d 0236 cde5 e0bb 6970 24bc ae31 f2bc
000003a0: f6cf 4cba c254 dcbb c1a1 52bc 8669 b5bc
000003b0: c2a1 b5bc c000 a8bc c73f 14bc ea61 35bd
000003c0: 9591 9c3c 612e ebbb 0b99 8cba 4197 0bbc
000003d0: 6e52 143b e57d 543b cb08 67bd 8855 69bc
000003e0: 400a 87bc 2859 043c a27e 15bc 7f7b 193c
000003f0: 846d fd3c f9f7 e13c ac76 0bbd a80c bcbb
-0.010842063 -0.032597482 -0.024182875 -0.015565699 -0.031152768 0.03947883 -0.057756197 -0.030909281
-0.0015535859 -0.015923632 -0.028997827 -0.012833856 0.015060868 0.0052727456 -0.022928022 0.003379632
-0.01792983 -0.0118447915 -0.033067804 -0.004074773 0.013421915 -0.029609311 -0.026953312 -0.023921192
0.013027483 -0.020556252 -0.0451916 -0.035458755 -0.025947006 -0.019615041 0.0007067215 -0.02131025
-0.01612749 -0.003952844 -0.034756567 -0.017024506 0.020637607 0.0059195617 0.0023942052 -0.021451551
0.016589317 0.004264823 -0.0052684867 -0.013656877 -0.03487124 0.016456984 0.0029906977 -0.023475757
-0.00278665 -0.024314873 -0.009152145 -0.0103291795 -0.0032257182 0.003239419 -0.019888189 0.010404989
-0.021755155 -0.004749275 0.012327678 -0.012249837 0.02497575 -0.0026226537 0.0069861235 -0.0022736886
-0.0002853624 -0.013824271 0.016869353 0.012718598 -0.012142747 0.02554847 -0.0038829066 -0.007316693
-0.009461083 -0.010661426 0.008325159 -0.0005204577 -0.055805422 0.00579519 0.0057841367 -0.036888592
-0.029531348 -0.00044093333 -0.010491101 -0.015166067 0.022023529 -0.0032196634 0.0057887705 -0.019101782
-0.0043596127 -0.02008493 0.0059388718 -0.05411162 -0.008667886 0.0005004651 -0.011032052 -0.020978067
-0.008139829 -0.0077045723 0.0068741264 -0.0014068166 -0.0049656276 -0.026648685 0.002112734 -0.004047889
-0.00029242132 -0.04015881 -0.039680593 0.014743552 -0.0018898732 -0.005837408 -0.0069127246 -0.016828855
-0.028633706 0.006497326 -0.015462394 -0.012904624 -0.014597622 -0.013656277 -0.0019669726 -0.011567555
0.010348477 -0.007306022 0.009008073 -0.016030226 0.004259249 0.02550021 0.012280417 -0.031918716
0.010230866 -0.014255632 0.0092153335 -0.0059403437 -0.064046964 0.0024068297 -0.0069521163 -0.030594705
-0.026960706 0.00421294 -0.030404966 0.0061650705 -0.00244327 0.0050944765 -0.0048367106 -0.009360542
0.011311946 -0.016322318 0.00226569 0.00023126343 -0.00015953268 0.017159343 -0.0049234107 -0.0045562633
-0.0050789514 -0.030188063 -0.031156482 -0.03381982 -0.04369182 0.0031806505 -0.012768348 -2.9038505e-05
0.013061693 0.00705303 0.011362814 -0.010177501 -0.004510842 0.005262751 -0.0052722883 -0.006832327
-0.021507373 -0.025099816 -0.016573172 0.0069259354 -0.009281415 -0.04023731 -0.00030784862 -0.0015509822
-0.0019598517 0.0024762505 -0.011366043 -0.054286253 0.019500842 -0.0147587685 -0.021908402 0.008829848
-0.013976706 -0.014749437 0.007293679 -0.033809137 0.015923107 -0.016677031 0.00063651113 -0.015759066
-0.0005568052 -0.010498015 -0.018260963 0.00068794854 -0.036422245 0.0029089602 -0.011777072 0.020267125
-0.025385179 -0.005428777 -0.014771955 0.0042854254 -0.0056958674 0.0026682273 -0.021871485 -0.01064857
-0.017538361 -0.041155826 -0.00045282033 -0.0069600577 0.011991565 -0.014240006 -0.039001238 -0.008731709
-0.0006104631 0.0011322295 -0.0152241485 -0.040092565 -0.005666438 0.008720295 0.009841979 -0.001157259
-0.016450988 -0.02542255 0.006658016 -0.013058708 1.9379497e-06 -0.006863332 -0.010036566 -0.029564705
-0.0007812971 -0.006723971 -0.012855948 -0.022145044 -0.022171859 -0.02050817 -0.009048409 -0.04428283
0.019112388 -0.0071771597 -0.0010726763 -0.008519948 0.002263214 0.0032423672 -0.05640487 -0.014241584
-0.01648438 0.008077897 -0.00912443 0.009367823 0.03093601 0.027584063 -0.03404872 -0.0057388134

network_body._body_endoder.seq_layers.2.weight f4 [256, 256]
00000000: 67fc 233d 8c6a c9bd a878 bf3d 842c db3c
00000010: 5175 00bd 5673 d2bd 0610 4abe 53db 873c
00000020: 3111 fdbd 11a4 d1bd a252 b23d 4d70 9fbc
00000030: c940 493c 16d0 2e3d 7b78 d5bc 7d18 dbbd
00000040: f1b9 073d bfb7 48be 249f b93d 0468 c13c
00000050: 39d7 cdbd fa52 88bd aae4 593c b9c4 e2bd
00000060: 52eb 853c 8a74 b4bc 6328 dbbb b765 abbb
00000070: 93c4 73bd d55c 8b3c 8ad7 b53d e100 b73d
00000080: db59 95bd fc74 29bc 21b9 f13c 1f47 96bc
00000090: 4237 4e3d 3ff3 82bd 720a feba d240 283d
000000a0: b596 483c a714 9fbd d102 26bd 12c6 c2bc
000000b0: ff41 40bd e324 17be 2de6 fbbb a81e 8bbc
000000c0: f9c5 b7bd 27af b039 df5b 2bbd 6622 563d
000000d0: 8965 013e 9424 f8bc c612 0dbd 3e31 ad3d
000000e0: 8d08 0f3d 2e32 09bd b702 6bbc 947f a4bd
000000f0: 58f5 14bd c322 70bd 9ef8 bcbd 2b4e a3bd
00000100: 6577 9b3d 038f 63bd c937 113b 4d3d c13c
00000110: 713e cdbc ecd3 e1bd 82a2 06bd a7aa 8a3d
00000120: 2554 f7bd 42f0 ac3c 5507 96ba 8b84 adbd
00000130: 953e 33bd c857 c0bd 870f a2bc b9f0 a4bd
00000140: 880e 933c b215 b43d 3b97 013d 4ef3 ca3b
00000150: 4bca 19bd ad5f 06bd db0b afbb 17a5 ee3c
00000160: 5fe6 61bd 2fc4 04bd a68a babd 50bc a83c
00000170: b5a0 1fbd 45dd 95bd ad9c b23d 983e 4d3d
00000180: 6c88 2fbe 5214 b23c ca5b 4c3d 3086 1dbd
00000190: 1c6a 9abd a6f7 0c3d 5f58 833d 7990 83bd
000001a0: 0f87 50bd 4f91 4a3d 87fc ed3d 7b04 26bc
000001b0: 470a 3cbd e5ad 9bbc c3a7 023d 7102 843d
000001c0: 023f 873c f0ff a6bd 1edb e03c e2dd 72bb
000001d0: bcf9 12bd 2fa8 c23b a2e0 7e3d a0c3 93bd
000001e0: 9bf9 9fbd b672 483d b52a 00be 5b83 b8bd
000001f0: a4df 213d 85ba 1fbd 617c 02bd 2f27 573b
00000200: 44b9 423d 6966 40bc 368f 9ebc fc15 4bbd
00000210: 36cf cc3c 46a0 ffba ce2f 49bb b961 e0bc
00000220: 84b3 44bc 8486 823a 1360 0e3d 8d52 24bd
00000230: f72c bfbd 2454 ee3d 78f8 3d3d b1f4 a9bd
00000240: 20e1 4bbc de12 b93c 3f0f 363e d3ee 863d
00000250: c65f b63b 16f1 28bd 3952 0cbd f1e9 593c
00000260: 000e 353b 1361 023e 8bef 90bc 9551 d33d
00000270: c3db 6c3d 1c88 91bb 056d d53c 0a97 273d
00000280: fd75 44bd 9f30 9b3d f285 05bd f51c 0e3d
00000290: 2c05 fcbd 8cd8 e23d ca95 003e 8b9e 75bd
000002a0: f1bd 87bd 71b3 73bd d7e7 4ebd 37df 9cbc
000002b0: be15 99bd f636 073d 7638 b2bd 8ea9 5fbd
000002c0: fa67 89bd b419 2bbb 9831 f4bc 770a 08bd
000002d0: c8b6 32bd 269f 24bd cace 303d bf6d 45bd
000002e0: 815a 103c 31e9 903c 8da7 52bd c973 0e3e
000002f0: 9b2c 81bc 3a34 203d df8d 033d f88d d83c
00000300: bdb5 dbbb 82c2 ca3d aa83 143e 8cc9 13be
00000310: a69e 6b3d 3638 aa3c 320f edbc b98d 943d
00000320: 1c97 9d3d 6d77 31bd c982 76bc 347a 3c3c
00000330: 2437 ea3d f95c 8cbd bda3 30bd 8fdf 9cbc
00000340: 22e5 a73c e6f6 3c3d 267c 96bd 7953 7cbc
00000350: ab37 f3bd 5ba3 d63d bbe7 53bd 9270 31bd
00000360: 7184 85bc c9ca ddbc 3762 5d3d 2549 413d
00000370: 27b8 503d aef5 39bd 9a85 1a3e 4f30 bc3d
00000380: 5fb2 c1bd d590 8a3b 8f88 e13c faa9 afbd
00000390: 820c eebd c857 a3bd 183c 863d 45d6 48bd
000003a0: 6b2b cfbc 3595 1cbc 5729 a33d 98d6 d53c
000003b0: a5e8 c6bc 803a f3bd 7b3d 993c 6d48 2b3e
000003c0: 7e05 6d3d d6fc ae3d 0a18 833c 711d 1b3a
000003d0: e121 94bd 3609 c7bd 5b28 8f3d 7a0a 9bba
000003e0: a8ac bfbc 1d6a adbd 2372 843d 8c4c f4bc
000003f0: 5435 cdbc 3bb2 113c ad8d c03c 7045 05be
0.04003563 -0.09834775 0.09349185 0.026754625 -0.03136188 -0.10275905 -0.19732675 0.016584074
-0.123567946 -0.10236371 0.08707167 -0.019462729 0.012283512 0.042678915 -0.026058426 -0.1069803
0.033136312 -0.19601344 0.09063557 0.023609169 -0.10050816 -0.066564515 0.013299147 -0.11072678
0.016347561 -0.022028226 -0.006688164 -0.005230631 -0.05951364 0.01701204 0.088790014 0.089357145
-0.07292529 -0.010342833 0.029507222 -0.01834446 0.050345667 -0.06394052 -0.0019381775 0.041077442
0.012242963 -0.07767611 -0.04053003 -0.023776088 -0.04693794 -0.14760165 -0.007687351 -0.016982391
-0.08973307 0.00033699835 -0.041835662 0.0522789 0.12636389 -0.03029088 -0.034441732 0.08456658
0.034920264 -0.03349512 -0.014343909 -0.08032146 -0.03636679 -0.0586269 -0.092271075 -0.07973894
0.07591132 -0.05555631 0.0022158495 0.0235888 -0.025054188 -0.11026749 -0.032869823 0.067708306
-0.12076596 0.021110658 -0.0011446277 -0.08472546 -0.043760855 -0.09391743 -0.019782795 -0.08053727
0.017951265 0.087932006 0.031638365 0.006193555 -0.037546437 -0.032806087 -0.0053419895 0.029131455
-0.05515134 -0.032413658 -0.09108476 0.020597607 -0.03897162 -0.073175944 0.0872129 0.050108522
-0.17141885 0.021738205 0.049892224 -0.03845805 -0.0753977 0.034415863 0.0641334 -0.0642404
-0.050910052 0.049454983 0.116204314 -0.010132904 -0.04590824 -0.019003818 0.03189827 0.06445778
0.016509537 -0.08154285 0.027448233 -0.0037058522 -0.035882697 0.005940459 0.062225945 -0.07215047
-0.0781128 0.048937522 -0.12516291 -0.09009429 0.03951992 -0.03899624 -0.0318569 0.0032829752
0.047539964 -0.0117431665 -0.019355398 -0.049581513 0.02500115 -0.0019502721 -0.003069866 -0.027390348
-0.0120056905 0.0009958302 0.034759592 -0.04011779 -0.09334748 0.11637142 0.046379536 -0.08298624
-0.012443811 0.022592004 0.17779253 0.06588521 0.0055656163 -0.041245542 -0.0342581 0.013300405
0.0027626753 0.12732343 -0.017692348 0.10318295 0.05782677 -0.0044412743 0.026052961 0.040915526
-0.047964085 0.07577633 -0.032598443 0.034695584 -0.12305674 0.11076459 0.1255714 -0.05996565
-0.06628025 -0.0594973 -0.05051407 -0.019149406 -0.0747485 0.0330114 -0.08702175 -0.05460506
-0.06709285 -0.002610785 -0.029808804 -0.033213105 -0.043631345 -0.04019084 0.04316596 -0.048200365
0.00881064 0.01768932 -0.05142932 0.13911356 -0.01576834 0.039112307 0.03211772 0.026434883
-0.0067050145 0.09900381 0.14503351 -0.14432353 0.057524346 0.020778757 -0.02893791 0.07253594
0.076948375 -0.043326784 -0.01504583 0.011503745 0.114362985 -0.068536706 -0.043124903 -0.01914957
0.020495001 0.0461339 -0.07347898 -0.015400761 -0.11875852 0.10480376 -0.051734667 -0.043320246
-0.016298505 -0.027074235 0.054048743 0.047188897 0.05095687 -0.045400314 0.15090027 0.09188902
-0.0945785 0.004228691 0.027530937 -0.08577342 -0.116234794 -0.07975727 0.06554431 -0.04903247
-0.025289258 -0.009557058 0.07966869 0.026103303 -0.024280855 -0.11876392 0.018706074 0.16726847
0.057866566 0.085443184 0.016002674 0.0005917168 -0.072330244 -0.09718554 0.06990119 -0.0011828684
-0.023397759 -0.08467505 0.06467082 -0.029821657 -0.025049843 0.008892591 0.023505056 -0.1301477

network_body._body_endoder.seq_layers.2.bias f4 [256]
00000000: 24d5 ccbc 7f1b 13bd c1b1 afbb 90ad e53b
00000010: 64b2 4cbd 31a0 f9bc b15c febc d702 b9bc
00000020: 7092 b2bc 60e4 5fbb 0ef3 753c a1b7 afbb
00000030: 6c12 01bc d209 bdbc 0b1a a8bb 6534 e8bc
00000040: 0bea 6cbd f13e 0dbd 811d 14bd badc 4abd
00000050: b4fe 82bb c78c 83bc e1a3 6abc bcd3 58bd
00000060: 7aed d2bc 702f d6bc 2d71 abbc cc98 36bd
00000070: 253b 0dbd 8bae 31bd 47c9 9b3b 8afd f5bc
00000080: 24fe 12bd 4d9c 98bb baf0 27bd d679 e7bc
00000090: 668d f1bc 9f62 483c 1fcd 1cbc e2f3 c7bc
000000a0: bfa8 f3bb 1789 57bc cde5 2cbc 9a5c 183c
000000b0: 7656 21bd 132c 0cbd b62e cdbc ef93 1abc
000000c0: 2a75 e53b 7d45 1b3c ebd8 24bd b87d 5cbc
000000d0: bc50 b6bc b4f5 03bc a0fb 883c 0105 06bc
000000e0: d7bf 97bc 6289 cabc af1f 70bc f8e8 e2bc
000000f0: ab5b f9bb 781f 01bd abb1 a5bc 9fe7 ac3c
00000100: c09d cebc 1600 ad3c 5d05 c0bc 81e2 aebc
00000110: 9383 2abc 59c3 ebbc b9bb 40bc 24bf 05bd
00000120: 30ef 1bbd fc18 a3bc 2469 35bd ffce 513c
00000130: b9ce 2cbd 8519 c3bc 2329 61bc 607e c6bc
00000140: 02f0 353d 503b 233b cc55 c3bc f56c 753b
00000150: 5c02 16bd aa27 47bc 73e2 0fbd 923d 33bc
00000160: df7c 33bc f753 b3bc 0204 ae3c c6fd 13bd
00000170: e178 7dbd fcf5 63bd 4da5 55bc 0139 02bd
00000180: ad4a 1cbd 5f64 f6bc 93e3 9abb d1c4 d0bc
00000190: ebee 39bd 5bff 95bc 9928 49bc fd73 a13a
000001a0: eba5 5bbc 79f5 15bc 7ed1 6f3b 61a2 5cbd
000001b0: 8ed2 b7bc 84c2 27bd 36ef 12bc 51be 9ebc
000001c0: a080 0cbc f437 263b 7b92 85bc 3182 dfbc
000001d0: 51aa 5abd 5ede 3ebd 7f87 d9bc 1575 3abc
000001e0: 5439 4bbc 058a 4ebd 473e 6a3c c6d2 3bbc
000001f0: 8f67 3bbc 644c bcbc f48d 053c 1adb fdbb
00000200: e8aa 70bc 929d 82bc a6bc 8cbc b399 89bc
00000210: e326 4bbd c15f 803b bd58 b1bc bec6 04bd
00000220: 6df0 84bc d4ea 85bc 275e c9bb 133b 04bd
00000230: eb89 ddbb 4d05 81bc 313b d9bc 87d4 60bc
00000240: 576e b13b f929 10bd c3fc 91bc d3af 3ebd
00000250: 2657 4abd f7d9 e63b 17b2 6cbc 18d2 1fbc
00000260: b244 21bd bb9b ecbc 3ac1 f63b 9fe4 773c
00000270: 270c 6dbc 9baa ffbc 8c32 cebb d2db ea3a
00000280: fb90 41bd e59c 3dbd 74a3 503c 9658 11bc
00000290: 0f6f 9ebc 335a d3bc b909 9cbc 857f 31bd
000002a0: 3d3d d9bc 7348 a8bc 61ca 1cbc 32bf fcbc
000002b0: 77bd e4bb 3304 80bc 2a4c 0a3c 1cd1 20bd
000002c0: a8ed c6ba 0d4c 0abd b2dd 08bd 6ab2 59bc
000002d0: 775a 56bc 62ad eebc f9bc f23b 36f4 c8bc
000002e0: 4fe2 14bd 2f2f 613b df70 ddbc 9f75 8d3b
000002f0: 18d8 20bd e1ab c6bc 6ce7 163b 98df 00bc
00000300: d02d 0fbd 6ee7 93bb 612f 753b 596b 24bd
00000310: 6b3c ffba af88 aebc 367e b9bc 4eaa 503c
00000320: ed3c 58bc b690 35bd a56c b63b 8e57 28bd
00000330: ed6b 77bb 2d6e 23bc 39f3 b8bc fac2 dcbc
00000340: f35e 63bc ab95 d5bc 2dd9 f9bc 948b d3bc
00000350: 51cc afbc b95d 0ebd 4019 1abd 7dd7 28bc
00000360: 6e45 f9bc 9525 863a c0ed 22bd 5eb7 30bc
00000370: 68f8 81bd b87d cabc 5577 25bd 8d46 7dbc
00000380: 29c5 2f3c a230 1cbd fc86 37bd 66ec 86bd
00000390: 9fc5 0ebd d660 fdbc afa4 1c3c d71e 473c
000003a0: b648 17bd 018e 9bbc dd8b 22bd 0e26 53bc
000003b0: a652 35bc 0b5b eabb 1151 a9bc ff0f 9ebc
000003c0: cb74 08bd d9fe 02bd 883f bdbc c031 e5bc
000003d0: a1c4 9f39 edc7 bbbc 4c4d 6b3b a1d9 93ba
000003e0: 5c55 85bc 359f 55bd 3556 a5bc 2467 5ebc
000003f0: 231c 9bbb 9d2a 99bc 0288 aabc 557e 43bd
-0.025003977 -0.035914894 -0.005361766 0.0070092157 -0.049974814 -0.030471893 -0.031050058 -0.022584362
-0.021798342 -0.0034163222 0.015011562 -0.0053624664 -0.007877927 -0.023075972 -0.0051300577 -0.028345296
-0.05784039 -0.034483854 -0.03616095 -0.049526908 -0.003997648 -0.016058339 -0.014321298 -0.0529363
-0.025748003 -0.026145667 -0.02092799 -0.044579312 -0.034480233 -0.043379348 0.0047542187 -0.030028123
-0.0358869 -0.0046573044 -0.04100106 -0.028256338 -0.02948637 0.012230544 -0.009570389 -0.024408285
-0.0074358876 -0.013155243 -0.010552836 0.009299422 -0.039389096 -0.03422172 -0.025046688 -0.009434684
0.0070024924 0.0094770165 -0.04024593 -0.013457708 -0.022255294 -0.008054186 0.016721547 -0.008179904
-0.018524094 -0.024723712 -0.014655991 -0.027698979 -0.0076098046 -0.03152415 -0.02022632 0.02110654
-0.025221705 0.021118205 -0.023440057 -0.02134824 -0.010407346 -0.028779672 -0.011763507 -0.03265299
-0.038069904 -0.019909374 -0.044289723 0.012805699 -0.042189334 -0.02381588 -0.013742718 -0.024230182
0.044418342 0.002490718 -0.023844622 0.0037448977 -0.036623344 -0.012155453 -0.03512807 -0.0109399725
-0.010955065 -0.021890623 0.021242145 -0.03613069 -0.061882857 -0.05565451 -0.013039899 -0.031792644
-0.038157154 -0.030077158 -0.004726836 -0.025484474 -0.045393866 -0.01831024 -0.012277746 0.0012317892
-0.013406257 -0.0091527635 0.0036593373 -0.053865794 -0.022439267 -0.04095699 -0.008968165 -0.01937786
-0.008575588 0.002536294 -0.016305199 -0.02728376 -0.053385083 -0.046598785 -0.026553867 -0.011380454
-0.012403805 -0.050424594 0.014297075 -0.0114638265 -0.0114382645 -0.022985645 0.00815152 -0.007747066
-0.014689185 -0.015944276 -0.017179798 -0.016796922 -0.049597632 0.0039176648 -0.021648759 -0.032416098
-0.016227925 -0.016347326 -0.006145257 -0.0322829 -0.006760826 -0.015749598 -0.026517482 -0.0137225455
0.005414765 -0.03519628 -0.017820721 -0.046554398 -0.049399517 0.0070450264 -0.014446757 -0.00975468
-0.039372154 -0.028882852 0.0075303586 0.015130191 -0.014468229 -0.03120928 -0.0062926468 0.0017918295
-0.047257405 -0.046292204 0.012734283 -0.008871218 -0.019340066 -0.025799846 -0.019047605 -0.043334503
-0.026518459 -0.020542359 -0.009569735 -0.030852888 -0.006980594 -0.015627002 0.0084410105 -0.039261922
-0.0015177028 -0.033763934 -0.03341455 -0.013287166 -0.013083092 -0.02913541 0.007407781 -0.024530511
-0.036348637 0.00343604 -0.02703136 0.004317 -0.039268583 -0.02425188 0.0023026122 -0.007865809
-0.0349558 -0.0045136726 0.0037412273 -0.040141437 -0.0019472962 -0.02130541 -0.02264319 0.012735916
-0.01319812 -0.04432746 0.0055671507 -0.041099124 -0.0037753538 -0.009974998 -0.022576915 -0.02694844
-0.013877618 -0.026072344 -0.030499065 -0.025823392 -0.02145973 -0.03475735 -0.037621737 -0.010305283
-0.030428614 0.0010234589 -0.039777517 -0.010785906 -0.06346208 -0.02471815 -0.040397007 -0.015458715
0.010728159 -0.038132317 -0.044806466 -0.06588058 -0.034856435 -0.030929964 0.009560748 0.012153349
-0.036934577 -0.018988611 -0.039684165 -0.012887491 -0.011067068 -0.0071519664 -0.020668538 -0.019294737
-0.033314507 -0.031981323 -0.023101583 -0.027977824 0.00030473343 -0.02292248 0.0035904227 -0.0011280068
-0.016276054 -0.052153785 -0.020182708 -0.013574395 -0.004733579 -0.018697077 -0.020816807 -0.0477279

action_model._discrete_distribution.branches.0.weight f4 [4, 256]
00000000: b014 0fbc 3b78 a9bb a823 ee3c 5461 103b
00000010: 5a6c 483b 02a0 f63c d6a5 22bc 77db 10bd
00000020: b850 28bc 129b 0ebb 2fab a9bc 9dcf 31bc
00000030: d25c 863c 121f 29bc b86f 043c 2e96 1b3c
00000040: 4b93 abbc 0245 24bb 4d22 4d3b eb3a 2b3c
00000050: 8291 7c3a 3a36 5c3b 2deb 113a 1023 bfba
00000060: dd12 073a 53f8 c6ba ef81 a63c dfe9 9ebc
00000070: b2b7 d1bc c8ab 0c3c 4e4e 113d 87d9 84bc
00000080: 8183 c1bb 9384 b2bc 6d64 37bd 1271 b33c
00000090: 2830 05bd 59ed 5fba 9c12 863c 5586 98bc
000000a0: ea25 e53c 1cf2 0a3c 3c53 5e3c d1c8 64bc
000000b0: 123d 8f3c 13b9 0fbc d07a 773c 214b df3b
000000c0: 541a 053d ee9f bbbb efed 833c 73a2 cbbc
000000d0: 410e 7e3b 533a e7bb d625 563c 74a9 113c
000000e0: ef59 093b b0a7 993c 1e71 91bd 225a 17bc
000000f0: 5f88 b93c 9035 1f3c b110 05bc e3ce 033d
00000100: a779 813c 04ac 0abc 8781 de3a 201d 9e3c
00000110: 153b 41bc 7970 3bbc 53c2 bb3c 8468 b43b
00000120: 52dc 123c 2f67 553a f498 55bc a30d 813c
00000130: b9d0 c53a b527 2dbc ef0f 853b 5bad a1bc
00000140: a4b1 0e3b 3c41 2fbb 1385 9b3b bf8c 883b
00000150: 01d9 a53c efef f13c f2ec 243c 1f68 24bd
00000160: a1be 3fbc cc94 a23c 5796 3838 2475 f5bc
00000170: 2d7b 92bc 0e96 3e39 de1d 11bd 626e 58bc
00000180: 375c 803c 61e5 df3b f068 8e3c ba68 adbc
00000190: 05bc c8bb f1d2 86bc f8e4 e43c 70e6 dc3c
000001a0: 90d1 493a 0dbe bb39 3186 33bc a74c 9cbc
000001b0: dcae 7a39 0d2d 95ba 5ae4 313c 86dd 6cbb
000001c0: 0c74 6a3c 9686 3d3c 1850 c93c 9397 9dbb
000001d0: f874 ba3b f152 b5bc 3e7b 733b b675 593b
000001e0: 472b bfbb e06d a6bc f9b3 f93c e7f7 edbb
000001f0: ea4a b9bc b76d c13c e6e3 51bb 0f88 943c
00000200: 6657 14bc 414c a23c 9563 053c d659 ff3b
00000210: da01 27bc 14de 163c 0a5f 02bc a158 263c
00000220: 7e90 8bbc edc6 0a3c e4ab 83bc 5241 8aba
00000230: 8cf2 74ba f857 0cbc 3485 073c 8aa9 00bd
00000240: a3e8 1cbc 9f9e 01bc fd7d 6d3c fced 4c3c
00000250: 5d6d 9b3b 8193 203c d230 18bd 371b 4ebd
00000260: fc8d debc f024 fc3a 7840 e53b 2fd6 f7ba
00000270: 39af a639 4821 5b3c 0cab bebc 1dfc b4bb
00000280: aed7 0abd 1d79 cfbb 6960 c3bb 0e46 3fbc
00000290: 35ca dc3b e08c 4e3c d9b3 d43c 8217 a4bc
000002a0: 57fd a6bb 08a9 153d 647b ab3b f6eb adbc
000002b0: 2930 013a 5419 a13c 53e5 ea3c b874 9cbc
000002c0: 4a7b 59bc 770e 543c 9316 c038 80e9 42bc
000002d0: 5c90 cfbc edcf 943b d32b 883c 17e9 abbb
000002e0: aa9d adba 0fe1 35bc 4074 853c b4b4 3abc
000002f0: 0080 743c 7c27 a33c 0962 05bc b40c 663b
00000300: fb27 903c eb3b c3ba 5bf5 c5bc 6e67 3dbc
00000310: 6948 43bd f51e 9e3c 755e 743c 8640 b53c
00000320: 76b7 dc3b 0e0a a3bb 3d40 2a3b 858a 30bd
00000330: 8d65 ff3c 979c f13a b5ed 8abc e9e3 febc
00000340: 3679 c3bc 98ec 383c 6e5b d9bb dd0f a5bc
00000350: aea7 283b 5bd9 c5bb a3f0 34bb 3c46 223c
00000360: 0a4b 41bd 769d b0bc b1b6 f6ba b723 67bc
00000370: b39a 5dbc f75e ca3c 9dc7 3e3b 97a4 933a
00000380: 29b9 363b 74e9 7b3b 883b 24bc 639a 193b
00000390: 7004 e0bc 4de1 22bc ec22 23bc 60f6 78bb
000003a0: 5f3e ffbb e06d 02bc a775 5b3c 38d8 55bc
000003b0: 3ab5 c9bc 31d1 cb3c ebab 95b9 783c 043c
000003c0: 9bf3 0cbb 7e19 853c c53d 953b 770f c3bb
000003d0: 9feb 89ba 4c10 95bc a792 563c 1d9d d53c
000003e0: a24d 3d3b 902b 42bc 16c3 20bd 2890 843c
000003f0: 54e3 8f3c 7b10 f13b 94b3 c7ba 1e5a a93b
-0.00873296 -0.0051718033 0.029069737 0.0022030668 0.003058216 0.030105595 -0.009927234 -0.035365548
-0.010273151 -0.002175991 -0.02071151 -0.0108527215 0.016401682 -0.010322349 0.008083276 0.009496255
-0.020944258 -0.0025065546 0.0031300962 0.010451059 0.00096347195 0.0033601657 0.0005566355 -0.0014582593
0.0005152652 -0.0015180208 0.020325629 -0.019398628 -0.025600288 0.008585878 0.035475068 -0.016217006
-0.005905569 -0.021791732 -0.044773508 0.021904502 -0.03251663 -0.00085421425 0.016366296 -0.018618742
0.02797218 0.008480575 0.013569649 -0.013963894 0.017485175 -0.0087721525 0.015104964 0.006814376
0.03249581 -0.005725852 0.016104667 -0.024857735 0.003876582 -0.0070565133 0.013070544 0.008890498
0.0020958146 0.018756717 -0.071016535 -0.009237798 0.022648035 0.00971736 -0.008121655 0.032179724
0.015805079 -0.008463863 0.0016975858 0.019300997 -0.011793871 -0.01144039 0.02291981 0.0055056233
0.008963661 0.0008140681 -0.013036955 0.015753573 0.0015092111 -0.010568549 0.0040607373 -0.019735983
0.0021773363 -0.0026741764 0.0047460883 0.004167169 0.020245077 0.029533355 0.010066258 -0.04013836
-0.011703164 0.019846343 4.4009033e-05 -0.029963084 -0.017881 0.00018175712 -0.035428874 -0.013209911
0.015668971 0.006832764 0.017384022 -0.021168102 -0.0061259293 -0.016458007 0.027941212 0.02696535
0.0007698769 0.00035809018 -0.010957287 -0.01907952 0.00023906998 -0.0011381224 0.010857666 -0.003614278
0.014309894 0.011567732 0.024574324 -0.004809329 0.0056902133 -0.022134276 0.0037152315 0.0033181733
-0.0058340165 -0.020316064 0.030481325 -0.0072622183 -0.02261873 0.023611886 -0.0032026707 0.018131284
-0.009054041 0.019811751 0.008141418 0.0077926917 -0.010193313 0.009208221 -0.007957229 0.010152967
-0.017036673 0.008470279 -0.016073175 -0.0010548031 -0.00093440036 -0.008565895 0.008271504 -0.031411685
-0.009576949 -0.007911353 0.01449537 0.012507912 0.0047432617 0.009800793 -0.037155934 -0.050318923
-0.027167313 0.0019237082 0.0069962107 -0.0018908436 0.00031792538 0.013374634 -0.02327492 -0.0055232183
-0.033897094 -0.0063315765 -0.0059624207 -0.011674417 0.006737972 0.012606829 0.025964664 -0.02003074
-0.0050961184 0.036538154 0.005233215 -0.021230679 0.0004928136 0.019665398 0.028673803 -0.019098625
-0.013274023 0.012942902 9.159478e-05 -0.011896491 -0.02533739 0.0045413882 0.01662246 -0.0052462923
-0.001324584 -0.011101021 0.016290784 -0.011395622 0.014923096 0.019916289 -0.008141049 0.0035102786
0.01759719 -0.0014895176 -0.024164846 -0.011560304 -0.047676478 0.01930187 0.014915098 0.022125494
0.0067357374 -0.004975564 0.002597823 -0.043100853 0.031176353 0.0018433508 -0.01695905 -0.031114535
-0.023861509 0.011286877 -0.0066332137 -0.020149166 0.002573471 -0.0060378737 -0.002760925 0.0099044405
-0.047190703 -0.021559458 -0.0018822757 -0.014107636 -0.013525653 0.024703486 0.0029110678 0.0011264262
0.002788136 0.003843871 -0.010023959 0.002343797 -0.027345866 -0.009941411 -0.0099570565 -0.0037988648
-0.0077894176 -0.007960767 0.01339475 -0.013052039 -0.024622548 0.024880024 -0.00028547583 0.0080710575
-0.0021507505 0.016247507 0.0045544826 -0.0059527713 -0.0010522491 -0.018196248 0.013096488 0.026075894
0.0028885384 -0.011851206 -0.03924855 0.01618202 0.017564453 0.007356701 -0.0015236014 0.0051682135

action_model._discrete_distribution.branches.0.bias f4 [4]
00000000: 82f9 443c 6577 6a3c c820 6bbd e2a9 cb3c
0.012022378 0.014310692 -0.05740431 0.02486128

action_model._discrete_distribution.branches.1.weight f4 [3, 256]
00000000: 07c3 083b 19b6 e83b 3f9e 87bc 2757 e23b
00000010: 7d41 83bc ae1e 4b3c 5604 6e3c 226e 033d
00000020: 1862 33bc 8177 dc3c 10ea 0fbc f316 ee3b
00000030: 9cbd 04bc ac83 993b f222 d5bc 0186 e83b
00000040: a5b8 85ba ae4f fe3b a537 b3bb 9e7c 153c
00000050: 23c6 6cbb ae1e 063a 1dc4 08bc fe19 ecbb
00000060: 5157 133c a3f3 243c 01bd d8bb a204 953b
00000070: 11ee a23c f566 2c3c 95b1 3fbc 94e6 043c
00000080: af3c 173c c854 f43c eaaf 913c d05d 32bc
00000090: 4b45 3c3c 6894 a03b f59c c23b c1a7 313b
000000a0: 9619 993c 552d a4bc f16f 17bc 54d5 4d3c
000000b0: b8a7 a8bb 0b36 d13c 59bc babb 9e6f 85bc
000000c0: 83ca d5bc 2cb8 ccbc 6b2e 68bc 8f77 223c
000000d0: 0223 d13b e688 53bb 9c84 a53d 4a81 4b3a
000000e0: 395b ef3b 788d bd3c e6c6 adbc ca7d a93b
000000f0: c14a 27bc ef0f 2d3c abf7 393c 89a3 bb3b
00000100: 142d 473b 8f89 6d3c 6c12 253d cbfa 87bb
00000110: 4d65 9c3c 9014 ffbc 8c65 19bc ba4c b6bc
00000120: b337 d13a 9d49 853c c1c8 133c 525f 5bbd
00000130: 01dc d83b 7a1f d13c 3ae5 d63c c712 643c
00000140: 33e7 35bc 3981 2abd 9b89 1abc 85f5 b33c
00000150: 980f 87bc 98fb 6138 844f 5f3c 74a4 193c
00000160: 6b82 8d3b 454d 32bc 96c2 4fbc f86a 233c
00000170: 29eb 87b9 4eb4 443b 36e3 143c 1b43 04bb
00000180: 1c0b 54bc 15e9 8c3a 7c5f 3b3c a111 313c
00000190: ab87 243d 697e c53c 16cb dc3c 4758 30bc
000001a0: 5483 6a3c 04b8 4f3c 5978 85bb 47ef 9bbb
000001b0: 20bb 643c cbaf 92bc ffde 3f3c 91ae b93b
000001c0: 7365 e1bc 6e50 b4bc f68e b33b 04d1 003c
000001d0: 614a ae3b c401 e53b 1a58 303c a030 733c
000001e0: 95e5 24bd 0b3f 01bc 9b63 563b ca73 0f3d
000001f0: aca3 d63c 4948 57ba 5112 58bc bb39 55bb
00000200: 294f 063c 1006 d5bb 9e20 ccba 6bbb a03b
00000210: 3904 513b d200 63bc 1a33 0c3c e111 a9bc
00000220: ab51 d43c bb93 0cbc 075a 163d 11e6 853c
00000230: 89d1 bcbb 5d53 9ebc c193 3138 a87a c63b
00000240: eaeb 713c f0bf 8ebc ec51 91bc 4e88 683c
00000250: ae67 063c 4ece 1fbc 0d8b 573c 8cc0 2dbc
00000260: 1f82 c5bc f921 91bc 2177 debc dec6 d53c
00000270: 4c21 0c3c 7ea2 dcbc 5cbb 713c 88e2 d53b
00000280: 10cb bd3b c841 4d3b a676 6e3b f2d2 9c3c
00000290: 163c a0bc 7ff3 80bc ab49 85bc 6d95 1ebb
000002a0: 37b6 413c ac37 bdbb 2ec6 573c 4a89 1dbb
000002b0: 1ee3 7ebc b8b8 7abc 6a02 37bd c317 7bbc
000002c0: 9d02 0dbd 2869 913b ac25 703a 9c22 983c
000002d0: 805c ca3c 3756 7dbc 9def 03bd 0e82 64bc
000002e0: 0ec6 f1bb e467 1a3c 1c9d 833b d052 943c
000002f0: 24c6 64bc 0d2a 053c 6b27 993b e256 b73c
00000300: e198 64bc a293 95bb 9f0b a63c 88f3 c13c
00000310: 75cb b03c ee42 84bc c9d3 f6bb 445a c93b
00000320: 68a8 db3c 6346 6b3c 302e 6eb9 a5dd 503b
00000330: 5ac9 e1bb 4853 37bc e5d6 00bd 9ec0 063d
00000340: aab6 073c 26e1 d43a 9238 adbb 9a5f 473d
00000350: d64f 233b ae4c 803a 842c 3a3c 63d4 a03c
00000360: b4e9 3f3b dff4 a93c c70f 3b3c 2edc febb
00000370: 81c2 8c3c 55c6 62bc 7d26 97ba 117b 193c
00000380: eb8d 4cbc cae6 ba3c 556c 40bb c6f3 ac3b
00000390: d885 ecba ac76 ab3b 3ef7 bf3c 48a8 483a
000003a0: 34df 16bc b1bb 46bc d298 453b e94c e23c
000003b0: 99e5 db3c 27d1 d5bc ee4a a8bb 06e9 b4bb
000003c0: ab51 f83b 4a63 f3ba 0936 583b 282a 373c
000003d0: 7cba a23c ae0c 2b3b 938d 90bc 16fd 89bc
000003e0: d67b 893a b528 773c 47ae 433d 5cdb 8ebb
000003f0: b77c 03bd f1f7 dfbc 5795 763c ddd7 0bbc
0.0020868198 0.007101786 -0.01655495 0.006907362 -0.016022438 0.012397451 0.014527401 0.032087453
-0.01094868 0.026912453 -0.008783832 0.0072659194 -0.008101847 0.004684886 -0.02601764 0.0070960526
-0.0010202123 0.0077609634 -0.00546928 0.009123949 -0.003612884 0.0005116266 -0.008347538 -0.007205247
0.008992986 0.010067853 -0.006614328 0.0045476714 0.01988891 0.010522594 -0.011700054 0.008111615
0.009230777 0.029825583 0.017784078 -0.010886624 0.01149113 0.004900504 0.005939121 0.0027108046
0.018688958 -0.020041147 -0.0092429975 0.012563068 -0.0051469468 0.025538465 -0.0056987223 -0.016288575
-0.026097542 -0.024990164 -0.014171223 0.0099162 0.006382347 -0.0032277643 0.08081934 0.0007763101
0.0073045758 0.023138747 -0.021213006 0.005172466 -0.010210694 0.010562881 0.011350553 0.005726282
0.003039186 0.014498129 0.04030077 -0.00414977 0.019091273 -0.031137735 -0.00936259 -0.022253383
0.0015962034 0.016270453 0.009020031 -0.0535577 0.0066180234 0.025527705 0.02623235 0.0139204925
-0.0111024855 -0.041627143 -0.009432222 0.021967659 -0.016486928 5.3878495e-05 0.013629798 0.009377588
0.0043185255 -0.01088268 -0.01268067 0.009974234 -0.00025924415 0.0030014697 0.009087374 -0.00201816
-0.012942102 0.0010750616 0.0114363395 0.010807426 0.040168446 0.024108129 0.026952308 -0.010763234
0.014313538 0.01267815 -0.0040731844 -0.0047587487 0.01396063 -0.01790609 0.011710881 0.005666562
-0.027514195 -0.022011008 0.0054796888 0.007862333 0.0053189253 0.006988736 0.010763193 0.014843136
-0.04025801 -0.007888566 0.0032713178 0.035022534 0.026201092 -0.00082123704 -0.013187961 -0.003253563
0.008197584 -0.006500967 -0.0015573686 0.0049051545 0.0031893386 -0.013855176 0.008557105 -0.020638408
0.025917849 -0.008580144 0.03670695 0.016345056 -0.005762283 -0.01932686 4.2337695e-05 0.0060571022
0.014765719 -0.017425507 -0.017739259 0.014192654 0.00820343 -0.009753777 0.013155711 -0.010604989
-0.024109898 -0.017716395 -0.027156414 0.026095804 0.0085528605 -0.026932951 0.014754143 0.006527249
0.005792029 0.0031319726 0.0036386638 0.019143555 -0.019559901 -0.015741108 -0.01627048 -0.0024197951
0.011823229 -0.005774459 0.013169808 -0.002403813 -0.015557079 -0.015302829 -0.044680037 -0.015325489
-0.03442632 0.0044375844 0.0009160887 0.01857119 0.02470231 -0.01546245 -0.032210935 -0.013947023
-0.0073783463 0.0094241835 0.0040165316 0.018105894 -0.013963256 0.0081277015 0.0046738884 0.022380296
-0.013952465 -0.0045647183 0.020269213 0.023675695 0.02158139 -0.016145196 -0.007532571 0.0061447937
0.0268137 0.014360043 -0.00022714655 0.0031870392 -0.006890458 -0.011189289 -0.03145494 0.032898538
0.008283297 0.0016241416 -0.0052862847 0.048675157 0.0024919412 0.0009788477 0.011363152 0.019632524
0.0029283585 0.020746646 0.011417336 -0.0077777123 0.01718259 -0.013841231 -0.0011531856 0.00936772
-0.012485008 0.022815127 -0.0029361446 0.0052780835 -0.001804526 0.0052326526 0.023433324 0.00076544704
-0.009208489 -0.01212971 0.0030150902 0.027624564 0.02684288 -0.026100708 -0.0051358854 -0.0055209426
0.007578095 -0.0018569019 0.0032991192 0.011179484 0.019864313 0.0026100087 -0.017645633 -0.016844314
0.0010489176 0.015085389 0.047773626 -0.004359646 -0.03210136 -0.027339907 0.015050254 -0.008535353

action_model._discrete_distribution.branches.1.bias f4 [3]
00000000: c3b2 51bc 3b95 1b3c a2e2 673b
-0.012798968 0.009496029 0.0035382886

onnx::Div_108 f4 [45]
00000000: 3d35 b139 8f93 a33c 3d35 b139 a204 b63d
00000010: 014d a73e 52f2 ac3e 6f96 e43c fa8f d33c
00000020: 83d3 cf3c 3d35 b139 084a a13c 3d35 b139
00000030: 8338 a53d cc29 b03e 8367 b43e 1905 d03c
00000040: 012b ae3c fb81 bb3c 3d35 b139 65bd a43c
00000050: 3d35 b139 7a03 9f3d a37e a73e c10a ac3e
00000060: 1ee9 e13c 37c3 cf3c c543 0c3d 3d35 b139
00000070: 1230 d93c 3d35 b139 a3ca e13d 15e7 b33e
00000080: a48c ba3e 8cdc 853c 3bb8 c63b c9d8 9e3c
00000090: 3d35 b139 f220 9b3c 3d35 b139 b853 a53d
000000a0: 1870 ad3e b4c2 b13e 13bf 9b3c d448 d43c
000000b0: ddb5 6b3d
0.00033799736 0.019967822 0.00033799736 0.088876024 0.32675937 0.33778626 0.027903764 0.02582549
0.025369411 0.00033799736 0.019688621 0.00033799736 0.080674194 0.34406888 0.35235223 0.025393056
0.02126074 0.022889128 0.00033799736 0.020109842 0.00033799736 0.07764335 0.32713804 0.33601955
0.02757698 0.02536164 0.034244318 0.00033799736 0.02651218 0.00033799736 0.11024978 0.3513724
0.36435425 0.016340517 0.0060644425 0.01939048 0.00033799736 0.018936608 0.00033799736 0.08072609
0.33874583 0.3471886 0.01901201 0.025913633 0.057546485

onnx::Div_111 f4 [20]
00000000: 271e 923c 3d35 b139 2ce2 003e a3b9 9f3d
00000010: 1f43 933c 3d35 b139 f522 e53d 0fa4 913d
00000020: 6d43 873c 3d35 b139 3cb0 fe3d 4caf a03d
00000030: df8a 863c 3d35 b139 f146 cb3d a619 933d
00000040: cc75 a63c 3d35 b139 aa21 db3d 028c 8d3d
0.017836643 0.00033799736 0.12586278 0.07799079 0.017976342 0.00033799736 0.11188308 0.0711137
0.016511643 0.00033799736 0.12435958 0.07845935 0.01642364 0.00033799736 0.099256404 0.071826264
0.020319842 0.00033799736 0.1069978 0.0691147

onnx::Div_114 f4 [15]
00000000: e8ed 573e 92fa 5a3e 44be 013e eb99 513e
00000010: b2f2 5a3e b33d 033e 0dfe 893e 2a37 8e3e
00000020: f622 1c3e a5e7 4c3e f77a c63e 4f4e 113e
00000030: 98e8 8f3e 8750 9b3e 1bd7 2a3e
0.21086848 0.21384647 0.12670237 0.20468871 0.21381643 0.12816505 0.26951638 0.27776462
0.15247712 0.2001024 0.3876569 0.14190029 0.28107142 0.30334875 0.16683619
