Usable_Data/Versuch_4-1.4/PKWParking/PKWParking-1653863.onnx (onnx, 882958 bytes, 15 tensors)

discrete_act_size_vector f4 [1, 2]
0	0x40800000	4.0
1	0x40400000	3.0

network_body.observation_encoder.processors.0.normalizer.running_mean f4 [315]
0	0x3bc3cfda	0.0059757056
1	0x3df67179	0.12033362
2	0x3f079eeb	0.52976865
3	0x35f3760a	1.8139265e-06
4	0x3c38e79b	0.011285688
5	0x3ea62ca7	0.32455942
6	0x3f2ae85c	0.667608
7	0x3b58d55e	0.003308616
8	0x3de5fa84	0.11229423
9	0x3f03be7e	0.51462543
10	0x35a24ee7	1.2092904e-06
11	0x3c8757a6	0.016521286
12	0x3eabe0cb	0.3356994
13	0x3f2bdb7a	0.6713177
14	0x3b8a9285	0.0042288923
15	0x3dd917e9	0.106002636
16	0x3efc3128	0.49256253
17	0x00000000	0.0
18	0x3c17ad90	0.009257689
19	0x3ebfc263	0.37452993
20	0x3f2f231c	0.6841295
21	0x3b2e1de6	0.0026568114
22	0x3daa8f88	0.08328158
23	0x3efea8c0	0.4973812
24	0x00000000	0.0
25	0x3cbf3216	0.023339313
26	0x3ebe27cc	0.37139738
27	0x3f33bcfa	0.7021023
28	0x3b994af8	0.0046781264
29	0x3ddb085e	0.10694955
30	0x3eeeb195	0.4661986
31	0x35224edc	6.046446e-07
32	0x3c301e21	0.010749371
33	0x3ecbf47e	0.3983497
34	0x3f357448	0.70880556
35	0x3b2e13ae	0.0026562023
36	0x3d88ef24	0.066862375
37	0x3ef0c504	0.4702531
38	0x00000000	0.0
39	0x3cb21a97	0.021741195
40	0x3ecd5c96	0.401097
41	0x3f3c12ae	0.73466
42	0x3b993bdd	0.0046763257
43	0x3dce4b4a	0.10072954
44	0x3ec99564	0.39371789
45	0x35a24edc	1.2092892e-06
46	0x3c37afb0	0.011211321
47	0x3eeed07c	0.46643436
48	0x3f41eb48	0.75749636
49	0x3b210017	0.0024566704
50	0x3d9ab92a	0.075548485
51	0x3ed62683	0.41826257
52	0x00000000	0.0
53	0x3c423510	0.011853471
54	0x3ee7021f	0.45118806
55	0x3f47252f	0.7779111
56	0x3b837ab5	0.0040124306
57	0x3d721474	0.059101537
58	0x3eafcada	0.3433445
59	0x35224edc	6.046446e-07
60	0x3c70b2ce	0.014691068
61	0x3f0d3794	0.5516293
62	0x3f51e7db	0.8199441
63	0x37d50792	2.5395104e-05
64	0x3d978a72	0.07399453
65	0x3e98fd98	0.29880977
66	0x00000000	0.0
67	0x3c1eb3b9	0.009686404
68	0x3f15568b	0.5833518
69	0x3f5632b9	0.83671147
70	0x3ae79305	0.0017667717
71	0x3cbaea69	0.022816854
72	0x3e6c4c02	0.2307587
73	0x35224edc	6.046446e-07
74	0x3c866079	0.016403424
75	0x3f33298e	0.6998528
76	0x3f6262b1	0.8843184
77	0x00000000	0.0
78	0x3d2ee3cd	0.042697717
79	0x3e622d73	0.2208765
80	0x35224ef2	6.0464583e-07
81	0x3baac4bc	0.005211441
82	0x3f328733	0.6973755
83	0x3f6224b3	0.8833725
84	0x364ae29e	3.0232254e-06
85	0x3cbf6ed8	0.023368284
86	0x3e1bae84	0.15203291
87	0x35224edc	6.046446e-07
88	0x3c48d597	0.012257955
89	0x3f483f92	0.78222
90	0x3f6b79b6	0.9198259
91	0x00000000	0.0
92	0x3cd8ec18	0.026479766
93	0x3e168c6b	0.14702003
94	0x00000000	0.0
95	0x3ad2cf69	0.0016083542
96	0x3f4ab514	0.79182553
97	0x3f6e6e2a	0.93136847
98	0x00000000	0.0
99	0x3c5d00f4	0.013488997
100	0x3dc74228	0.09729415
101	0x00000000	0.0
102	0x3b18a38e	0.0023290846
103	0x3f5b730e	0.85722435
104	0x3f744a98	0.9542632
105	0x3bc3f35f	0.00597994
106	0x3df68607	0.120372824
107	0x3f07f51f	0.531084
108	0x35f3760a	1.8139265e-06
109	0x3c3abf61	0.011398167
110	0x3ea692c9	0.32533863
111	0x3f2b521e	0.66922176
112	0x3b59081b	0.0033116404
113	0x3de60c6e	0.112328395
114	0x3f0418fe	0.51600635
115	0x35a24ee7	1.2092904e-06
116	0x3c885033	0.016639804
117	0x3eac3b7b	0.3363913
118	0x3f2c463b	0.67294663
119	0x3b8ab0e6	0.0042325137
120	0x3dd92ce3	0.106042646
121	0x3efcd2a1	0.49379447
122	0x00000000	0.0
123	0x3c18f49d	0.009335664
124	0x3ec034e2	0.37540346
125	0x3f2f8d4d	0.6857498
126	0x3b2e3217	0.002658015
127	0x3daaa455	0.08332125
128	0x3eff487d	0.49859992
129	0x00000000	0.0
130	0x3cbfde94	0.023421563
131	0x3ebe9bc3	0.37228212
132	0x3f342f52	0.70384705
133	0x3b99645a	0.0046811523
134	0x3ddb449d	0.10706446
135	0x3eef44e1	0.46732238
136	0x35224edc	6.046446e-07
137	0x3c310f1c	0.010806825
138	0x3ecc6e04	0.39927685
139	0x3f35e243	0.71048373
140	0x3b2e280d	0.0026574165
141	0x3d8920da	0.06695719
142	0x3ef1627a	0.47145444
143	0x00000000	0.0
144	0x3cb27d77	0.021788342
145	0x3ecdce48	0.40196443
146	0x3f3c891b	0.73646706
147	0x3b995015	0.004678736
148	0x3dce803b	0.10083052
149	0x3eca15df	0.3946981
150	0x35a24edc	1.2092892e-06
151	0x3c388ec2	0.011264505
152	0x3eef5d56	0.46750897
153	0x3f425f24	0.75926423
154	0x3b211466	0.0024578809
155	0x3d9b2368	0.075751126
156	0x3ed6ab0a	0.41927367
157	0x00000000	0.0
158	0x3c4288b1	0.01187341
159	0x3ee7828a	0.4521678
160	0x3f47a160	0.77980614
161	0x3b8389e1	0.004014239
162	0x3d726c0b	0.05918507
163	0x3eb055d0	0.3444047
164	0x35224edc	6.046446e-07
165	0x3c714d7d	0.014727947
166	0x3f0d7b00	0.5526581
167	0x3f5262f4	0.8218224
168	0x37da19ff	2.599973e-05
169	0x3d97ee9f	0.0741856
170	0x3e9954ba	0.29947454
171	0x00000000	0.0
172	0x3c1ee900	0.009699106
173	0x3f15b001	0.58471686
174	0x3f56b825	0.8387473
175	0x3ae7bba3	0.0017679821
176	0x3cbb1ab8	0.022839889
177	0x3e6d328e	0.23163816
178	0x35224edc	6.046446e-07
179	0x3c86ced5	0.016456047
180	0x3f337bce	0.70110786
181	0x3f62e563	0.88631266
182	0x00000000	0.0
183	0x3d2f258c	0.042760417
184	0x3e62847d	0.22120853
185	0x35224ef2	6.0464583e-07
186	0x3baafc7e	0.0052180877
187	0x3f32ff0f	0.6992044
188	0x3f62b0bc	0.88550925
189	0x36737606	3.627852e-06
190	0x3cbfb350	0.023400933
191	0x3e1c1f2a	0.15246263
192	0x35224edc	6.046446e-07
193	0x3c494f34	0.01228695
194	0x3f48b123	0.7839529
195	0x3f6c02f7	0.92192024
196	0x00000000	0.0
197	0x3cd93999	0.026516723
198	0x3e16df84	0.14733702
199	0x00000000	0.0
200	0x3ad2e3bb	0.0016089597
201	0x3f4b3024	0.7937033
202	0x3f6efc62	0.93353856
203	0x00000000	0.0
204	0x3c5d38df	0.013502329
205	0x3dc7fbf1	0.09764851
206	0x00000000	0.0
207	0x3b1931c2	0.0023375605
208	0x3f5bec40	0.85907364
209	0x3f74d856	0.956426
210	0x3bc416da	0.0059841694
211	0x3df699ce	0.12041055
212	0x3f084b30	0.5323973
213	0x35f3760a	1.8139265e-06
214	0x3c3c999c	0.011511233
215	0x3ea6fa53	0.32612857
216	0x3f2bbc6f	0.670844
217	0x3b593ac7	0.0033146606
218	0x3de62011	0.11236585
219	0x3f047392	0.51738846
220	0x35a24ee7	1.2092904e-06
221	0x3c894f2a	0.016761381
222	0x3eac96d0	0.3370881
223	0x3f2cb14d	0.6745804
224	0x3b8acf4d	0.004236138
225	0x3dd94200	0.106082916
226	0x3efd7449	0.4950278
227	0x00000000	0.0
228	0x3c1a57d5	0.009420355
229	0x3ec0a793	0.3762785
230	0x3f2ff7fb	0.68737763
231	0x3b2e4683	0.0026592321
232	0x3daab9c4	0.08336213
233	0x3effe921	0.4998255
234	0x00000000	0.0
235	0x3cc093bd	0.023507947
236	0x3ebf0fbd	0.37316695
237	0x3f34a203	0.7055971
238	0x3b997dbb	0.0046841777
239	0x3ddb8317	0.10718363
240	0x3eefd7f8	0.4684446
241	0x35224edc	6.046446e-07
242	0x3c320cbc	0.010867294
243	0x3ecce845	0.40020958
244	0x3f3650b0	0.7121687
245	0x3b2e3c4b	0.002658623
246	0x3d895420	0.06705499
247	0x3ef2009e	0.47266096
248	0x00000000	0.0
249	0x3cb2e1b3	0.021836137
250	0x3ece40f1	0.4028392
251	0x3f3d0013	0.7382824
252	0x3b996466	0.004681158
253	0x3dceb6c8	0.100934565
254	0x3eca96c5	0.39568153
255	0x35a24edc	1.2092892e-06

network_body.observation_encoder.processors.1.normalizer.running_mean f4 [13]
0	0x3d36790d	0.044549037
1	0x3d36790d	0.044549037
2	0x3f7fff0a	0.99998534
3	0xbee3f097	-0.44519493
4	0xbd8f006c	-0.06982502
5	0x3ee38d51	0.44443753
6	0x00000000	0.0
7	0x3e5f1513	0.21785383
8	0x3e43d080	0.19122505
9	0x3de66c48	0.11251122
10	0x3dc1c707	0.094617896
11	0x3afc7bb8	0.0019262945
12	0x3dad2adc	0.084554404

network_body._body_endoder.seq_layers.0.weight f4 [256, 328]
0	0xbbc1be11	-0.0059125503
1	0x3d97260b	0.07380303
2	0x3c512810	0.012765899
3	0xbda64df7	-0.08120339
4	0xbdba7efa	-0.0910625
5	0xbcad8acc	-0.021184348
6	0xbb951c27	-0.004550475
7	0x3ba217f4	0.004946703
8	0x3d5f8222	0.054567464
9	0x3c45a2a3	0.012062701
10	0x3d2b90d2	0.04188616
11	0x3d7796bf	0.060446497
12	0xbdc0eeb0	-0.09420526
13	0xbd141bf7	-0.03615948
14	0xbda9ae71	-0.08285225
15	0xbd823037	-0.063568525
16	0x3c11d1c3	0.008900109
17	0xbc69288f	-0.014230861
18	0x3d029bc8	0.031886846
19	0xbe2ce5d0	-0.16884542
20	0xbdb5ea98	-0.08882636
21	0x3d7ed0f1	0.06221098
22	0x3d807f11	0.06274236
23	0xbdff410f	-0.12463581
24	0x3c88e875	0.016712407
25	0xbd40c402	-0.047061928
26	0xb8dcddae	-0.000105317085
27	0x3d94625d	0.07245324
28	0x3dcfe040	0.10150194
29	0xbdc95b1d	-0.098318316
30	0xbdf90a51	-0.12160171
31	0xbdfd437e	-0.12366389
32	0xbdcc5332	-0.09976806
33	0x3c2f1345	0.010685747
34	0xbc0cf03a	-0.008602196
35	0xbe030d9d	-0.12798162
36	0x3d876b2a	0.06612237
37	0x3caa3f9c	0.020782284
38	0x3d0c99f2	0.0343265
39	0xbdb8c4c6	-0.090219066
40	0x3d39de0e	0.045377783
41	0xbd369998	-0.044580072
42	0xbccb7eb7	-0.024840696
43	0x3ba7fbf5	0.005126471
44	0xbc91a77a	-0.017780054
45	0x3aab0000	0.0013046265
46	0x3d743c86	0.059628032
47	0xbcac104b	-0.021003863
48	0x3c9701f1	0.018433543
49	0x3ca9a262	0.020707313
50	0x3dac1789	0.084029265
51	0x3cd2097a	0.025639284
52	0xbd37450c	-0.044743583
53	0x3d84afe0	0.06478858
54	0xbdcc6b17	-0.09981363
55	0xbda437b2	-0.080184355
56	0xbd23e279	-0.040010903
57	0x3b82eef1	0.003995769
58	0x3d4eef94	0.05052145
59	0x3d38bac3	0.045099985
60	0x3c99fac9	0.018796341
61	0xbc5db8ef	-0.013532861
62	0xbdc83592	-0.09775843
63	0xbdec05cb	-0.115245424
64	0x3cc19c70	0.023634166
65	0xbd325929	-0.04354206
66	0x3c3ab021	0.0113945315
67	0xbd082860	-0.03324163
68	0x3c0faa2f	0.008768602
69	0xbd9a7457	-0.07541721
70	0xbbdba9b0	-0.006703578
71	0xbe0477d7	-0.1293634
72	0xbdaf1fb1	-0.085509665
73	0x3d27054b	0.040776532
74	0xbe17e41a	-0.14833108
75	0x3db18cf8	0.08669466
76	0xbd1ef4a5	-0.03880753
77	0xbd5fbc7d	-0.054623116
78	0xbd6428b0	-0.055702865
79	0xbd25746a	-0.040394224
80	0xbdd67246	-0.10471015
81	0xbccd9d60	-0.025099456
82	0x3d462b54	0.048381165
83	0xbd882c39	-0.0664906
84	0xbbbd0702	-0.0057686577
85	0x3d146e53	0.036238026
86	0xbddb4348	-0.10706192
87	0xbd1a6ee3	-0.037703406
88	0xbd7c3110	-0.061570227
89	0x3daa14cb	0.08304747
90	0xbd3ec441	-0.04657388
91	0x3dbbf504	0.091775924
92	0x3c72f6c1	0.0148293385
93	0x3d223533	0.039601516
94	0xba523663	-0.00080189685
95	0x3d68d413	0.056842875
96	0xbdb3f1e3	-0.087863706
97	0xbd3d8743	-0.046271574
98	0xbd8c47dc	-0.068496436
99	0xbe27cb61	-0.16386177
100	0xbbead19f	-0.007166102
101	0x3d31ff56	0.043456398
102	0xbc7ed3d3	-0.0155534325
103	0xbd8ef8ba	-0.069810346
104	0xbdd0053f	-0.101572506
105	0x3d3674e2	0.044545062
106	0x3cb5ab12	0.0221763
107	0x3cb474b4	0.022028305
108	0xbc8718ad	-0.016491259
109	0xbe05f59a	-0.13081971
110	0xbd1ab400	-0.037769318
111	0xbcb23e6a	-0.021758277
112	0xbc423a46	-0.011854714
113	0x3d10ae17	0.035322275
114	0x3d164c0f	0.03669363
115	0x3d2148b6	0.039375983
116	0xbe2ffbdb	-0.17185919
117	0xbd854bed	-0.06508622
118	0x3a115a95	0.0005544809
119	0xbd2ea085	-0.042633552
120	0xbc48f8df	-0.012266367
121	0xbdbf82aa	-0.09351094
122	0xbd57b7d4	-0.052665547
123	0xbc80dbdf	-0.015729843
124	0xbdd191b9	-0.102328725
125	0xbd92da91	-0.071705945
126	0xbdb9b5f2	-0.090679064
127	0x3b2363e8	0.0024931375
128	0xbc69b804	-0.014265064
129	0x3d992490	0.07477677
130	0x3d155b49	0.03646401
131	0x3d96b3ab	0.07358488
132	0xbb950ac5	-0.004548403
133	0x3dd6e02f	0.104919784
134	0xbdd38ca5	-0.1032956
135	0xbe30dae8	-0.17271006
136	0x3d049b1b	0.032374483
137	0xbddb4088	-0.10705668
138	0x3daca7b1	0.08430422
139	0x3d80d225	0.06290082
140	0xbdc40b4c	-0.09572467
141	0x3d8e33b4	0.06943455
142	0x3d0f3d25	0.03497042
143	0xbdbb7ae7	-0.09154301
144	0xbe0da01a	-0.13830605
145	0xbd854f2a	-0.0650924
146	0x3c4e60ba	0.012596304
147	0x3d8b29e7	0.067951016
148	0xbd10d9f3	-0.035364103
149	0xbd2a1070	-0.041519582
150	0xbd9f7104	-0.07785228
151	0xbd43f89b	-0.04784451
152	0xbd2e073f	-0.04248738
153	0x3e10d4d7	0.14143692
154	0xbcbb561f	-0.022868214
155	0xbd2ef876	-0.04271742
156	0x3c12b52d	0.0089543285
157	0x3d3a8624	0.045538083
158	0xbd12443f	-0.035709616
159	0x3cc8b5f8	0.024500832
160	0xbc3093e9	-0.010777452
161	0xbd318fb2	-0.04334993
162	0x3d89e1c9	0.06732518
163	0x3c90720d	0.017632509
164	0xbdba3f6b	-0.09094127
165	0xbd8cb6bb	-0.068707906
166	0xbd4b1341	-0.04957891
167	0xbd1e0cda	-0.038586475
168	0x3ce2a899	0.027668284
169	0xbd6af662	-0.057363875
170	0x3cba1cad	0.022718752
171	0xbc44c851	-0.01201065
172	0xbb4bc9a8	-0.0031095538
173	0x3c2639a8	0.010145582
174	0xbd9b6d10	-0.075891614
175	0xbd899bf4	-0.06719199
176	0x3d54693a	0.051858164
177	0xbd01b431	-0.031665985
178	0xbe21cfc4	-0.15801913
179	0xbdb07319	-0.08615703
180	0x3e23792f	0.15964197
181	0x3db4d56e	0.08829771
182	0x3d054113	0.032532763
183	0xbda35e48	-0.07976967
184	0xbda9899a	-0.082781985
185	0xbda26fce	-0.07931481
186	0xbe25aab8	-0.16178405
187	0xbe0ee41b	-0.13954203
188	0x3d71afe0	0.059005618
189	0xbd57e574	-0.052709058
190	0xbd7c35d0	-0.061574757
191	0xbdcdff57	-0.10058468
192	0xbdee7f5a	-0.11645384
193	0x3cd37306	0.025811683
194	0x3db8687b	0.09004303
195	0x3df6facd	0.12059555
196	0x3c919c66	0.017774772
197	0xbd5e0fe7	-0.054214384
198	0xbe0ad7bc	-0.13558859
199	0xbd219da8	-0.039456993
200	0x3cb19c60	0.02168101
201	0xbde5ce95	-0.11221043
202	0xbc45a5f9	-0.012063497
203	0x3dc08df9	0.09402079
204	0x3dc06786	0.093947455
205	0xbc621b82	-0.013800504
206	0xbcd23f69	-0.025665002
207	0xbda8b03c	-0.08236739
208	0xbdd18a5b	-0.10231467
209	0x3cf40bc1	0.029790761
210	0xbce04e3e	-0.027381059
211	0x3d0699f2	0.032861657
212	0xbc9f4e90	-0.019446641
213	0xbd71f5c9	-0.05907229
214	0xbcc7485e	-0.0243265
215	0xbc0fd483	-0.008778694
216	0xbd85b7c2	-0.0652919
217	0xbad246e7	-0.0016042859
218	0x3c836e86	0.016043913
219	0x3d798003	0.060913097
220	0x3cebf09a	0.028801251
221	0xbbb782af	-0.0056002955
222	0xbe04ae4e	-0.12957117
223	0x3d9381dc	0.07202503
224	0x3d491965	0.049096484
225	0x3d98cef1	0.07461346
226	0xbd8a3c07	-0.067497306
227	0xbc5eff64	-0.013610695
228	0xbd763faf	-0.060119327
229	0x3d5d4d61	0.054028872
230	0xbd9a243e	-0.07526444
231	0xbe163018	-0.14666784
232	0xbd3cb55d	-0.0460714
233	0xbde70908	-0.112810194
234	0x3c751159	0.014957749
235	0x3c282b55	0.010264237
236	0x3d35db53	0.044398617
237	0xbcd5c898	-0.026096627
238	0xbd7f68df	-0.062355872
239	0x3c3d0883	0.011537674
240	0xbc9e3b28	-0.019315317
241	0xbd1e8125	-0.03869738
242	0xbde25b82	-0.1105261
243	0x3e081bc9	0.13291849
244	0x3d04dce9	0.03243724
245	0xbd91a96f	-0.07112395
246	0x3d52a76a	0.05142919
247	0x3dc087d0	0.09400904
248	0x3d27ba11	0.04094893
249	0xbe225004	-0.15850836
250	0xbd8e6fcc	-0.06954917
251	0xbb808e2c	-0.003923198
252	0xbd7e41fb	-0.062074643
253	0xbd053a5d	-0.032526363
254	0x3ce5d9e6	0.028058004
255	0xbd9166f0	-0.07099712

network_body._body_endoder.seq_layers.0.bias f4 [256]
0	0x3cf20c37	0.02954684
1	0xbc8cef1d	-0.017203862
2	0x3bf0c492	0.0073476518
3	0xbd59acb5	-0.053143222
4	0x3cbe20f6	0.023209076
5	0x3d276260	0.040865302
6	0x3cbc21a9	0.02296527
7	0xbd5c4bc6	-0.0537832
8	0x3c429284	0.011875752
9	0xbc6ff8e4	-0.0146467425
10	0xbc1399bb	-0.00900882
11	0xbd137a96	-0.03600558
12	0xbd1bb88f	-0.038017806
13	0xbced26f9	-0.028949248
14	0x3cc9c1b3	0.024628496
15	0xbdb12eff	-0.08651542
16	0xbc832594	-0.01600913
17	0xbd354636	-0.04425641
18	0xbd27b77e	-0.040946476
19	0xbc0e3fb4	-0.00868218
20	0xbd0f33c3	-0.034961473
21	0x3c81ea39	0.015858756
22	0x3bff7652	0.0077960873
23	0x3cd8cf2a	0.026465971
24	0x3a9f3370	0.0012146067
25	0xbc01b354	-0.00791629
26	0x3d591646	0.052999757
27	0x3b880eeb	0.004152169
28	0xbd94ea91	-0.072713025
29	0xbc17eb51	-0.009272412
30	0xbddbcfdc	-0.107330054
31	0xbc514252	-0.01277216
32	0xbba01dfc	-0.004886387
33	0xbc576d28	-0.0131485835
34	0x3d6c5ec8	0.057707578
35	0xb996b87e	-0.00028747687
36	0xbd33f72e	-0.0439369
37	0xbd20d03d	-0.03926109
38	0xbd6bd77a	-0.05757854
39	0xbc9b9d1c	-0.018995814
40	0x3c5c0d9b	0.013430978
41	0x3c7fd145	0.015613859
42	0xbcb17309	-0.021661298
43	0xbcb3fc81	-0.02197099
44	0x3c988d91	0.018622192
45	0x3c23bb6b	0.009993414
46	0xbd831921	-0.06401277
47	0xbcb00677	-0.021487458
48	0xbd2e96a3	-0.042624127
49	0xbda3e3f0	-0.0800246
50	0xbd64ff12	-0.055907317
51	0xbd8bfd48	-0.06835419
52	0x3c854cdb	0.016272
53	0xbd034a18	-0.032053083
54	0xbc3eb3d0	-0.01163955
55	0xbc5c8574	-0.013459552
56	0x3c6bc8c7	0.014391131
57	0xbcdc79c9	-0.02691354
58	0xbd071c05	-0.032985706
59	0xbce4d858	-0.027935192
60	0xbd1f0b29	-0.038829003
61	0xbc56dd44	-0.013114277
62	0x3bf9761c	0.0076129567
63	0xbd50ef15	-0.051009256
64	0xbc12cd6c	-0.008960109
65	0x3c3670fc	0.011135336
66	0xbc281c22	-0.010260614
67	0xbca612c6	-0.020272624
68	0x3cbd89a1	0.023136916
69	0xbbc948f3	-0.0061427294
70	0xbbea9a64	-0.007159518
71	0xbcd08236	-0.025452714
72	0xbbbbda3c	-0.0057328027
73	0xbcdfa8c5	-0.027302155
74	0x3ce45572	0.027872775
75	0xbbfbeed7	-0.007688384
76	0x3d176bb3	0.036967944
77	0xbd63188b	-0.055443328
78	0xbd314b61	-0.043284778
79	0xbd1071df	-0.035264846
80	0xbdc4eb35	-0.09615175
81	0xbc0a0552	-0.00842412
82	0xbd47b0ec	-0.04875271
83	0xbd3bd010	-0.04585272
84	0xbd33510a	-0.043778457
85	0xbd28eb8d	-0.041240264
86	0xbced08ae	-0.028934803
87	0xbc079bb8	-0.008276872
88	0xbd72499d	-0.059152234
89	0xbd8620b4	-0.065492064
90	0xbd5a0650	-0.053228676
91	0xbcaa9869	-0.020824628
92	0xbd2c525d	-0.042070735
93	0xbc67a36f	-0.014138087
94	0xbd3256e1	-0.043539885
95	0xbd0df5aa	-0.03465811
96	0xbd392fc7	-0.04521158
97	0xbcf90793	-0.03039912
98	0xbd870757	-0.06593197
99	0x3ce6a217	0.028153462
100	0xb81c7a6f	-3.7307324e-05
101	0x3d3c62c1	0.045992617
102	0xbd1e023f	-0.03857636
103	0xbd68c894	-0.05683191
104	0xbd64adde	-0.055829875
105	0xbc3eb833	-0.011640596
106	0xbbd505fd	-0.006500958
107	0x3cfe578d	0.031047607
108	0xbce1104b	-0.02747359
109	0xbcffdc8c	-0.031233095
110	0xbccbe999	-0.024891661
111	0xbd83bc4c	-0.06432399
112	0xbcfed116	-0.03110556
113	0xbd8c25b5	-0.068431295
114	0xbc4d6176	-0.0125354435
115	0xbdab8330	-0.083746314
116	0x3a83e0e7	0.0010061533
117	0xbc8e8061	-0.0173952
118	0xb99b8d10	-0.00029669004
119	0xbd9af3fb	-0.07566067
120	0x3c4c52fb	0.012470956
121	0xbde6281b	-0.11238118
122	0xbdac11ae	-0.0840181
123	0xbd04f6ea	-0.032462038
124	0xbd045b0d	-0.032313395
125	0xbd4a47f1	-0.049385015
126	0x3c40ddd3	0.011771637
127	0xbdccf9cf	-0.10008585
128	0xbd34fab0	-0.044184387
129	0xbd9e535d	-0.07730744
130	0xbcde4ed5	-0.0271372
131	0x3d83b2bf	0.064305775
132	0x3b0a1a57	0.0021072829
133	0xbd8d6ee0	-0.06905913
134	0x3d1d0225	0.038332123
135	0x3cec2093	0.028824126
136	0xbd632963	-0.05545939
137	0xbce6e410	-0.02818492
138	0xbd4577e0	-0.048210025
139	0x3c87a3fc	0.016557686
140	0x3d260b5c	0.040538177
141	0xbd1b7d7b	-0.037961464
142	0xbc8701bf	-0.016480325
143	0xbcb49b77	-0.022046788
144	0xbc1e5319	-0.009663367
145	0xbd1c3bbb	-0.0381429
146	0xbc97b328	-0.018518046
147	0xbd67e0c0	-0.056610823
148	0x3c71ccea	0.014758328
149	0x3c640fdf	0.0139198
150	0xbcb3fab7	-0.021970136
151	0x3c8a2153	0.016861593
152	0xbd736c63	-0.059429538
153	0xbdc29f46	-0.09503035
154	0xbd498c8c	-0.0492063
155	0xbca7940a	-0.020456333
156	0xbd69b740	-0.057059526
157	0xbd4f90d3	-0.050675225
158	0xbd773491	-0.060352866
159	0xbd6f1c71	-0.058376733
160	0xbc54ab1e	-0.012980251
161	0xbd06de63	-0.03292693
162	0xbd5e1740	-0.05422139
163	0x3c22dee0	0.009940833
164	0x3cc20558	0.023684189
165	0xbc594ce3	-0.01326296
166	0x3c3cb72c	0.011518281
167	0xbc5617ab	-0.013067166
168	0xbd295704	-0.04134275
169	0xbcd68d73	-0.026190495
170	0xbbd4bdd1	-0.0064923544
171	0x3cad9d05	0.021193037
172	0xbce9c9d8	-0.02853863
173	0x3cead5da	0.028666425
174	0xbcee62ed	-0.029099906
175	0xbdb146f5	-0.08656112
176	0xbccffed6	-0.02539007
177	0xbd3c5949	-0.045983586
178	0xbd0454db	-0.032307487
179	0xbd88a286	-0.06671624
180	0xbd308dea	-0.04310409
181	0xbd9f7f10	-0.07787907
182	0xbdbd5e37	-0.09246486
183	0x3d15d576	0.036580525
184	0xba872198	-0.0010309694
185	0xbcc50549	-0.024050372
186	0x3bc16ecf	0.005903102
187	0xbd078037	-0.03308126
188	0xbca7718b	-0.020439884
189	0x3d48322f	0.048875984
190	0x3c1685cf	0.009187176
191	0x3d0e86e0	0.034796596
192	0xbd6bb307	-0.05754378
193	0xbb2899b8	-0.002572639
194	0xbcf54d15	-0.029943982
195	0xbd50bab0	-0.05095929
196	0x3c9efb7d	0.019407028
197	0x3cf20bf4	0.029546715
198	0xbd86bf2f	-0.06579434
199	0xbd2a6dd7	-0.041608658
200	0x3c3dcd10	0.011584535
201	0xbbfa6fae	-0.007642708
202	0xbdddcc22	-0.10829951
203	0x3cb1bfd8	0.021697924
204	0xbd9fb031	-0.07797278
205	0x3d115e0f	0.035490092
206	0xbd6283ba	-0.055301405
207	0xbcd930ef	-0.026512591
208	0xbd5bfc76	-0.053707562
209	0x3d60d65d	0.054891933
210	0xbc47a108	-0.012184389
211	0xbd14da8a	-0.036341228
212	0xbb012a96	-0.001970922
213	0xbc2ee172	-0.010673868
214	0xbc7f7369	-0.015591481
215	0xbc6f0476	-0.014588466
216	0xbcda24c6	-0.026628863
217	0x3d9aa52e	0.07551037
218	0xbc51562f	-0.012776895
219	0xbd2ee4e3	-0.042698752
220	0x3c9033aa	0.01760276
221	0x3d53d8d2	0.051720448
222	0xbd15a9c7	-0.036538865
223	0xbcbc1664	-0.022959895
224	0x3b38c0b1	0.0028191025
225	0x3c2d5dcf	0.010581448
226	0xbcbff73e	-0.023433324
227	0xbc813b0e	-0.01577523
228	0xbcff336f	-0.031152455
229	0x3c97adf5	0.018515566
230	0xbd0fddcb	-0.035123628
231	0xbcc71974	-0.02430413
232	0xbd49e566	-0.049291037
233	0xbb19f2f6	-0.0023490763
234	0xbd3f4051	-0.046692196
235	0xbbcd0046	-0.006256136
236	0x3ce7976b	0.028270444
237	0x3cfc8497	0.030824943
238	0x3d58f4c2	0.052967794
239	0x3ce6be6f	0.028166978
240	0x3cb58a04	0.022160538
241	0xbcb70ca3	-0.022344893
242	0xbd41f79c	-0.04735528
243	0x3c8c0ee8	0.017096952
244	0xbd011e37	-0.031522956
245	0x3b067334	0.0020515444
246	0xbcd0b6c2	-0.02547777
247	0xbd430abc	-0.04761766
248	0x3be550fe	0.0069981804
249	0x3d005caf	0.03133839
250	0xbcab0e0a	-0.020880718
251	0x3c254936	0.010088256
252	0xbd77579b	-0.06038628
253	0xbd13aaf5	-0.03605171
254	0xbdc26497	-0.09491842
255	0xbd71750a	-0.058949508

network_body._body_endoder.seq_layers.2.weight f4 [256, 256]
0	0xbddc50eb	-0.107576214
1	0xbcd3178b	-0.025768062
2	0xbe1aac09	-0.15104689
3	0xbdd9d1d9	-0.106357284
4	0xbcc42ac1	-0.023946168
5	0xbdc44c02	-0.0958481
6	0xbe04f90a	-0.12985626
7	0x3cc383de	0.02386659
8	0x3a60ee37	0.00085804187
9	0xbb4e2d6b	-0.0031460177
10	0x3d8e0a34	0.0693554
11	0x3d9e0720	0.07716203
12	0xbe070960	-0.1318717
13	0xbc85ede1	-0.016348781
14	0xbbe6a08d	-0.007038182
15	0xbd0a6aca	-0.03379325
16	0xbda06e8b	-0.078335844
17	0xbd9d8638	-0.07691616
18	0x3dd051f2	0.1017188
19	0xbd92146f	-0.07132804
20	0xbd8a0fa4	-0.067412645
21	0xbe4176a3	-0.18892913
22	0xbdd3c6f6	-0.10340683
23	0x3cd1c33a	0.025605787
24	0x3d6ccdb2	0.057813354
25	0x3d56726e	0.052355222
26	0xbdb9bf7f	-0.09069728
27	0xbd52ef61	-0.05149782
28	0xbcb8f29d	-0.022576625
29	0x3e346e71	0.17620255
30	0x3a52f40d	0.00080472307
31	0x3d9e2fb8	0.077239454
32	0xbc2f2403	-0.010689738
33	0xbd6a57d0	-0.05721265
34	0xbd473ace	-0.048640065
35	0x3db4d33f	0.088293545
36	0xbd2c0a0b	-0.042001765
37	0x3da3f1f8	0.08005136
38	0x3cb05836	0.021526437
39	0xbcd015b5	-0.025400976
40	0xbdc845e9	-0.09778959
41	0x3e275036	0.16339192
42	0xbe111a99	-0.14170302
43	0x3dac187d	0.08403108
44	0xbd9bf790	-0.07615578
45	0xbd6ea2e4	-0.058260813
46	0xbce392e5	-0.027780006
47	0x3ce4267f	0.027850388
48	0x3d0f5a78	0.034998387
49	0xbd6db2fb	-0.058032017
50	0xbd4a2568	-0.04935208
51	0x3b1eb700	0.0024217963
52	0x3d9ae080	0.07562351
53	0xbde8a1d2	-0.1135899
54	0xbb7dae97	-0.00387088
55	0x3b03e9d2	0.0020128381
56	0x3cf97872	0.03045294
57	0xbda53989	-0.080676146
58	0x3bab228e	0.005222625
59	0x3ccb381c	0.024807028
60	0x3d83654e	0.06415807
61	0xbd3beb09	-0.045878444
62	0xbdb1bba4	-0.08678368
63	0xbd8984e2	-0.067147985
64	0xbda9a460	-0.08283305
65	0xbd8798d3	-0.06620946
66	0x3cf84c71	0.030309888
67	0x3d693f7b	0.056945305
68	0x3cce2c88	0.025167719
69	0xbd27863d	-0.040899504
70	0x3d96a92c	0.07356486
71	0x3dba3e2a	0.09093888
72	0xbd1bf208	-0.038072616
73	0xbcb712ab	-0.022347769
74	0x3d8d845b	0.069100104
75	0xbca22074	-0.019790865
76	0xbd8b504c	-0.06802425
77	0xbde52848	-0.11189324
78	0xbc818d59	-0.01581447
79	0xbd858ab3	-0.065205954
80	0xbce94f6d	-0.028480256
81	0x3d03d7f2	0.032188363
82	0xbe0a3a9a	-0.13498917
83	0x36a4b3e7	4.9085243e-06
84	0xbd4acdfb	-0.049512845
85	0xbdc059c3	-0.09392121
86	0x3ceeb05c	0.02913683
87	0xbdc09f84	-0.09405425
88	0x3dea9e55	0.11455981
89	0x3daba073	0.08380213
90	0xbd897bdf	-0.0671308
91	0x3d9a05d9	0.075206466
92	0xbd4168aa	-0.047218956
93	0x3d03da58	0.03219065
94	0xbd48e208	-0.049043685
95	0xbd888721	-0.06666399
96	0x3d6b0923	0.05738176
97	0xbd740008	-0.059570342
98	0xbe09b562	-0.13448098
99	0xbda55601	-0.080730446
100	0xbd015a99	-0.03158054
101	0xbd9563d5	-0.07294432
102	0xbdd92463	-0.10602643
103	0x3c7f5ed0	0.01558657
104	0x3d51f5de	0.051259868
105	0x3cca0a8c	0.024663232
106	0x3cc406d4	0.023929037
107	0xbdff3abb	-0.12462374
108	0xbd27ef74	-0.040999845
109	0xbd39f1f4	-0.04539676
110	0x3ddeeef2	0.10885419
111	0x3d58b8a3	0.05291046
112	0xbdb48837	-0.088150434
113	0xbdbcbb21	-0.092153795
114	0xbc8ffe85	-0.017577419
115	0xbb032893	-0.0020013198
116	0xbd894f9e	-0.06704639
117	0x3d75e71c	0.060034856
118	0x3d946cce	0.07247315
119	0xbd2c6ed5	-0.042097885
120	0xbda2a8e2	-0.07942368
121	0xbc93e7ba	-0.018054832
122	0x3a893d4d	0.001047054
123	0xbccc9b8d	-0.024976516
124	0xbd619ddf	-0.0550822
125	0x3cf9a07e	0.030472036
126	0xbc8746e8	-0.016513303
127	0x3b6fa02f	0.0036563983
128	0xbdc94324	-0.09827259
129	0xbd103ea2	-0.03521598
130	0xbc812510	-0.015764743
131	0xbdb36784	-0.087599784
132	0x3a59584e	0.00082910515
133	0x3d902835	0.07038919
134	0xbd5289cb	-0.05140094
135	0xbc8c3602	-0.017115597
136	0x3d9f7bf8	0.07787317
137	0xbd4f907d	-0.050674904
138	0x3d7e2ef9	0.062056515
139	0x3c3bcaac	0.011461895
140	0xbddf6077	-0.10907071
141	0xbdc7d6b0	-0.09757745
142	0xbcef4353	-0.029206907
143	0xbdd2da12	-0.102955
144	0xbba935b8	-0.0051638745
145	0x3d938f47	0.07205062
146	0x3d8e6e5e	0.069546446
147	0x3d296e0a	0.041364707
148	0x3e098e8c	0.13433284
149	0xbde6d2b0	-0.11270654
150	0xbd9b6074	-0.07586756
151	0xbd2cd3de	-0.04219424
152	0xbd770776	-0.06030985
153	0xbd01412e	-0.0315563
154	0xbaf9ddcb	-0.0019063292
155	0xbd6d911a	-0.057999708
156	0xbb968595	-0.004593561
157	0x3c04e3f9	0.008110994
158	0xbde1a06a	-0.11016925
159	0xbd8e9d02	-0.069635406
160	0xbdbed6b5	-0.09318296
161	0x3aae4244	0.0013294895
162	0xbc830903	-0.015995508
163	0xbd4a615f	-0.049409267
164	0xbdb85a7c	-0.090016335
165	0xbbebd7e8	-0.007197369
166	0x3d6ebc35	0.058284957
167	0x3db8531d	0.090002276
168	0x3cfd47a8	0.030917957
169	0x3d14839d	0.03625833
170	0xbd988c9f	-0.07448696
171	0xbd15afa7	-0.03654447
172	0xbcdc8e45	-0.026923308
173	0x3c130a6d	0.008974654
174	0x3a9c38aa	0.0011918743
175	0xbdcf223b	-0.10113951
176	0xbd9fc25b	-0.07800742
177	0xbd8793cd	-0.06619988
178	0xbb2b94f5	-0.0026181315
179	0xbdbfbef0	-0.0936259
180	0xbd4610b5	-0.048355777
181	0x3ca8b89b	0.02059584
182	0x3bc70cdf	0.0060745324
183	0xbc120e58	-0.008914553
184	0x3c362c5b	0.011118974
185	0x3d99f083	0.07516577
186	0x3d718fb7	0.058974948
187	0xbc1cd5ee	-0.009572489
188	0xbdb8fb4c	-0.09032306
189	0xbe22e101	-0.15906145
190	0x3cfeabeb	0.031087836
191	0x3c7a39e7	0.015272594
192	0xbd84232b	-0.0645202
193	0xbd35bd01	-0.0443697
194	0x3d3988d2	0.045296498
195	0xbde8b449	-0.11362512
196	0x3da383fa	0.07984157
197	0xbd1fa77e	-0.038978092
198	0x3daa302e	0.08309971
199	0x3d96a905	0.07356457
200	0x3d3e7221	0.04649556
201	0x3aac9c20	0.0013169087
202	0x3d05cf9f	0.032668706
203	0xbd7e1050	-0.062027276
204	0x3d39e9d9	0.04538903
205	0xbd1a8dad	-0.03773277
206	0xbdbbeb28	-0.09175712
207	0xbbf5741c	-0.007490648
208	0x3c846c77	0.016165001
209	0x3bdaf289	0.0066817445
210	0x3d28a509	0.041173015
211	0x3ca1c529	0.019747334
212	0x3bda4a4c	0.006661689
213	0x3d875ba8	0.06609279
214	0x3dea829f	0.11450695
215	0xbc6edf4d	-0.014579606
216	0xbd2e2462	-0.042515166
217	0x3bc86eb6	0.0061167134
218	0x3e1d3a66	0.15354308
219	0xbe15e00f	-0.14636253
220	0xbda879f6	-0.08226387
221	0xbdb34bef	-0.087547176
222	0x3caae2cc	0.020860098
223	0x3d5687c1	0.05237556
224	0xbcf8c8cd	-0.030369187
225	0x3d8b93b5	0.06815282
226	0xbd59e7c0	-0.05319953
227	0xbd4f1922	-0.050561078
228	0xbc2a5d50	-0.010398224
229	0xbcc4597a	-0.023968447
230	0x3a094878	0.0005236934
231	0x3cfe381c	0.031032614
232	0xbd01427c	-0.031557545
233	0x3d2394c4	0.039936796
234	0xbd56cd4d	-0.052441884
235	0xbd05ac14	-0.03263481
236	0xbcab529e	-0.020913418
237	0xbc768596	-0.015046498
238	0xbcdafd13	-0.026732003
239	0xbd5366ba	-0.05161164
240	0xbd5e013d	-0.0542004
241	0x3d210d02	0.039319046
242	0x3cac896e	0.021061625
243	0x3d63bdd5	0.05560096
244	0xba99ead9	-0.0011742964
245	0xbcea3348	-0.028588906
246	0x3e162e53	0.14666109
247	0x3d774ecc	0.06037788
248	0xbe12b435	-0.14326556
249	0xbc25845c	-0.010102358
250	0xbd5e7606	-0.054311775
251	0xbc112541	-0.00885898
252	0xbb286259	-0.0025693385
253	0xbd4fe1fd	-0.05075263
254	0x3d3372cc	0.04381065
255	0xbc525b83	-0.012839201

network_body._body_endoder.seq_layers.2.bias f4 [256]
0	0xbd86c546	-0.06580596
1	0xbdace7b5	-0.08442632
2	0x3d121f59	0.035674427
3	0xbd41b5b6	-0.047292434
4	0xbd4372f4	-0.04771705
5	0xbc8efd09	-0.017454641
6	0xbcb0ec11	-0.02159694
7	0xbd7610f8	-0.060074776
8	0xbd2f9513	-0.042866778
9	0xbced937e	-0.029000994
10	0xbd015deb	-0.031583708
11	0xbce90e41	-0.02844918
12	0xbd3c7140	-0.04600644
13	0xbd62ce33	-0.05537243
14	0xbc18f6b2	-0.0093361605
15	0xbd2a6fff	-0.041610714
16	0xbd72a5f7	-0.059240308
17	0xbcc0bf26	-0.023528647
18	0xbd3cf091	-0.04612786
19	0xbd9bcb10	-0.076070905
20	0xbab8afbc	-0.0014090459
21	0xbd86d62e	-0.0658382
22	0xbda6228b	-0.08112057
23	0xbd2f7100	-0.042832375
24	0xbd552474	-0.052036718
25	0xbd9e82dc	-0.07739803
26	0xbd80b3f9	-0.06284327
27	0x3cb4ee8b	0.022086402
28	0x3cd15dbb	0.02555739
29	0xbd089d7f	-0.033353325
30	0xbb3edfec	-0.0029125167
31	0xbc148ed1	-0.009067253
32	0xbc888176	-0.016663294
33	0xbd0e38e3	-0.03472222
34	0xbd5f132b	-0.05446164
35	0xbd0db798	-0.034598917
36	0xbcc2817d	-0.023743385
37	0xbd1ad541	-0.03780103
38	0xbc336bf5	-0.010951032
39	0xbda89f8e	-0.08233558
40	0xbd206c6a	-0.03916589
41	0xbc1e774c	-0.009671997
42	0xbd20e80a	-0.03928379
43	0xbc7495fc	-0.014928337
44	0x3cedf6f5	0.029048422
45	0xbccb4de4	-0.024817415
46	0xbd8aa09d	-0.06768916
47	0xbd216afd	-0.039408673
48	0xbc395fe4	-0.011314366
49	0xbcc60226	-0.024170946
50	0xbd74d3ca	-0.05977229
51	0xbdac623e	-0.08417176
52	0xbd57332c	-0.052539036
53	0xbd1e38c9	-0.038628373
54	0x3b088382	0.0020830338
55	0xbdc70ba7	-0.097190194
56	0xbc4732d6	-0.012158116
57	0xbd3065fb	-0.043066006
58	0xbd030884	-0.031990543
59	0xbd46bbd2	-0.048518963
60	0x3cbab783	0.022792583
61	0x3d386e06	0.0450268
62	0xbd05936f	-0.032611307
63	0xbd340b25	-0.04395594
64	0x3b7b9e88	0.0038394053
65	0xbd939d17	-0.07207697
66	0x3bf39dbd	0.0074345754
67	0xbcf658a6	-0.030071568
68	0xbc36d783	-0.01115978
69	0xbd2b471c	-0.041815862
70	0xbd32ad42	-0.043622263
71	0xbd65ed61	-0.056134585
72	0xba942e2b	-0.0011305263
73	0xbd83baec	-0.06432137
74	0xbd6d5530	-0.05794257
75	0xbd30a588	-0.043126613
76	0xbcc4704d	-0.02397933
77	0xbd9e946d	-0.07743154
78	0xbd0714db	-0.032978874
79	0x3bc7e6a4	0.0061004926
80	0xbd2f5947	-0.04280975
81	0xbcf1373b	-0.029445281
82	0x3c948aad	0.018132532
83	0xbd13449b	-0.0359541
84	0xbd83996d	-0.06425748
85	0xbd66c8a6	-0.056343697
86	0xbcaf8304	-0.021424778
87	0xbd870283	-0.06592276
88	0x3c51c3d4	0.012803037
89	0x3a8eb715	0.0010888303
90	0xbd50d481	-0.05098391
91	0xbc928e6c	-0.017890178
92	0x3a108008	0.0005512242
93	0xbcbbcf5e	-0.022926029
94	0xbb2d7e6f	-0.0026473065
95	0xbcfeff22	-0.031127516
96	0xbaec4a83	-0.0018027577
97	0xbc6513a0	-0.01398173
98	0xbbc7a51a	-0.0060926797
99	0x3cebf697	0.028804107
100	0xbd3a0066	-0.045410536
101	0xbcdd7037	-0.027031047
102	0xbd4687d4	-0.04846938
103	0xbd4313bb	-0.04762624
104	0xba97c041	-0.0011577682
105	0x3bbd1e28	0.005771417
106	0xbd455a43	-0.048181783
107	0xbd789ca7	-0.06069627
108	0xbd762569	-0.06009427
109	0xbd86f331	-0.06589354
110	0xbd6967c4	-0.056983724
111	0x3cf50c84	0.029913194
112	0xbd3df83b	-0.04637931
113	0x3c5dc397	0.013535402
114	0xbcedcfd9	-0.029029774
115	0xbd493454	-0.04912217
116	0x3c0019e5	0.007818674
117	0xbd4ac0b4	-0.049500182
118	0x3c04ae53	0.008098203
119	0xbda45de5	-0.080257215
120	0xbc6baed0	-0.01438494
121	0xbcb2df2f	-0.021834938
122	0xbdc926cf	-0.09821855
123	0xbc865396	-0.016397279
124	0xbd38db9d	-0.045131315
125	0xbc3ae918	-0.011408113
126	0xbb4ec617	-0.0031551176
127	0xbcf36acb	-0.029714009
128	0xbda0e803	-0.07856753
129	0xbccc293d	-0.024922008
130	0xbc247d1c	-0.010039594
131	0xbbf7ae13	-0.007558593
132	0xbd37e1ab	-0.044892948
133	0xbce2d58a	-0.027689714
134	0xbd2d018e	-0.04223781
135	0xbd12a9d3	-0.03580649
136	0x3d0c353a	0.03423045
137	0xbd4053ea	-0.046955027
138	0xbd3bf05e	-0.04588353
139	0xbb659e2a	-0.00350369
140	0x3c92e76a	0.017932612
141	0xbd413ee3	-0.047179114
142	0xbcd6d39d	-0.026223952
143	0xbce3e5b2	-0.027819488
144	0x3cc5ed9b	0.02416115
145	0x3cfc8227	0.03082378
146	0xbd001c52	-0.03127701
147	0xbd0e705b	-0.03477512
148	0xbd4b599a	-0.049645998
149	0xbc108c65	-0.008822535
150	0x3c80faec	0.015744649
151	0xbce103df	-0.027467666
152	0xbd8bbb31	-0.06822813
153	0xbcb5e760	-0.022205055
154	0xbd139320	-0.03602898
155	0xbb139a0d	-0.0022522241
156	0xbdbb6708	-0.09150511
157	0x3bd15b78	0.0063890778
158	0xbd976009	-0.07391364
159	0xbd395a12	-0.045251913
160	0x3bbb6037	0.005718257
161	0xbce5dc5c	-0.028059177
162	0xbd886011	-0.06658948
163	0xbd4093dc	-0.04701601
164	0xbdbd2581	-0.09235669
165	0xbdbc89c7	-0.092059664
166	0xbd3bdd69	-0.04586545
167	0xbcb789be	-0.022404548
168	0xbd359e0c	-0.04434018
169	0xbd3b4faf	-0.04573029
170	0xbd61e828	-0.055153042
171	0xbcb2b33b	-0.02181398
172	0xbd801457	-0.062538795
173	0xbd80eb99	-0.06294937
174	0xbd4c1702	-0.04982663
175	0xbd8732bf	-0.06601476
176	0xbd01187f	-0.031517502
177	0xbd4755c5	-0.04866578
178	0xbd05c472	-0.032658048
179	0xbc07cc8d	-0.008288515
180	0xbd87c169	-0.06628687
181	0xbd957c7a	-0.07299133
182	0x3d434b89	0.047679458
183	0xbd3688e3	-0.04456414
184	0xbce15da4	-0.027510472
185	0xbd36d8ae	-0.044640236
186	0xbd5189b4	-0.051156715
187	0xbd1b4d3a	-0.037915446
188	0xbcc00d8d	-0.023443962
189	0xbd14cf3a	-0.03633044
190	0x3cb5f861	0.022213163
191	0xbdaedb77	-0.08537953
192	0xbd243502	-0.040089615
193	0xbd3a8385	-0.045535583
194	0xbd097ef6	-0.033568345
195	0xbd6348d2	-0.05548937
196	0xbd231308	-0.03981307
197	0xbd60364c	-0.05473928
198	0xbd1780be	-0.036988012
199	0xbc096549	-0.008385965
200	0xbd49caa2	-0.04926551
201	0xbd5cd0ad	-0.053909946
202	0xbd461b07	-0.04836562
203	0x3d1e2788	0.03861192
204	0xbd7207dc	-0.059089527
205	0x3d35e4c5	0.044407625
206	0xbdec7d35	-0.11547319
207	0xbb9790fb	-0.0046254373
208	0xbc971aa2	-0.018445317
209	0xbd206932	-0.039162822
210	0xbd1d33c8	-0.03837946
211	0x3c77ab06	0.015116459
212	0xbd106377	-0.035251107
213	0xbd28934f	-0.04115611
214	0xbd4a4cca	-0.049389638
215	0xbd2e8ff9	-0.04261777
216	0xbd3b809b	-0.045776945
217	0xbc620156	-0.013794264
218	0xbbecb6f0	-0.0072239563
219	0xbcd0232f	-0.025407402
220	0xbd26402f	-0.040588554
221	0xbd7ec8b2	-0.062203117
222	0xbd314213	-0.043275904
223	0xbd5f161f	-0.054464456
224	0xbd077768	-0.03307286
225	0x3d18bb21	0.037287835
226	0xbd53dfd8	-0.051727146
227	0xbbc09b7a	-0.0058779093
228	0xbd411bca	-0.047145642
229	0xbd00ab10	-0.031413138
230	0xbd8e6343	-0.069525264
231	0xbdc85900	-0.097826004
232	0xbd74a83c	-0.059730753
233	0xbce97a9c	-0.028500848
234	0xbd27b6d9	-0.04094586
235	0xbdcf4386	-0.10120301
236	0x3ca0ca5c	0.019627742
237	0xbd04f56e	-0.032460622
238	0xbd52a1b6	-0.05142375
239	0xbd1e491e	-0.03864395
240	0xbcee4b17	-0.02908854
241	0x3d2dca93	0.042429518
242	0xbd27480b	-0.04084019
243	0xbbc7e9b0	-0.006100856
244	0xbb933eca	-0.004493569
245	0xbd224249	-0.039613996
246	0xbd1ff7f2	-0.03905482
247	0xbd2d5622	-0.04231847
248	0xbd199366	-0.037494086
249	0x3afebecf	0.0019435528
250	0x3cebfd2f	0.02880725
251	0xbd71d081	-0.059036735
252	0xbcc89efd	-0.024489874
253	0xbd109ef6	-0.035307847
254	0xbb6673b2	-0.0035164175
255	0xbce243bb	-0.027620187

network_body._body_endoder.seq_layers.4.weight f4 [256, 256]
0	0x3d30738a	0.043078937
1	0xbce55f07	-0.027999414
2	0xbd36f645	-0.044668455
3	0xbdbe756c	-0.0929974
4	0x3d292a5d	0.041300166
5	0xbd13b2cd	-0.03605919
6	0x3d73cd02	0.059521683
7	0x3da44f03	0.08022883
8	0xbc47b852	-0.0121899415
9	0x3e68cc89	0.22734274
10	0x3da53e00	0.08068466
11	0xbde969f1	-0.1139716
12	0x3d5ee69b	0.05441914
13	0x3d2456f9	0.040122006
14	0x3d1ef129	0.038804207
15	0x3dd98f89	0.1062308
16	0x3d843a87	0.06456476
17	0xbda5c238	-0.08093685
18	0xbce26647	-0.02763666
19	0x3e3ab84d	0.18234368
20	0xbd4391be	-0.047746412
21	0xbe2040ea	-0.15649763
22	0x3de3f600	0.11130905
23	0xbc992c97	-0.01869802
24	0xbd1d6ecf	-0.038435753
25	0x3c0cbc05	0.008589749
26	0x3e05a8e7	0.13052712
27	0xbd79c847	-0.060982015
28	0x3d616cd2	0.05503542
29	0xbd6ea52c	-0.05826299
30	0xbce4ea88	-0.027943864
31	0xbdcd1426	-0.10013609
32	0xbd985e11	-0.07439817
33	0xbad8a3ef	-0.0016528348
34	0x3e2a7d87	0.16649447
35	0xbd562270	-0.052278936
36	0xbc8037e5	-0.015651653
37	0x3dd6e2a5	0.10492448
38	0x3d1af2c7	0.037829187
39	0x3d89f3e2	0.0673597
40	0x3c352d8c	0.0110582225
41	0xbd13795d	-0.036004413
42	0x3e1684ed	0.14699145
43	0xbce9f7a8	-0.028560475
44	0xbddd5a8c	-0.10808286
45	0x3d60ce0c	0.054884
46	0x3e09b7bb	0.13448994
47	0x3cd06284	0.0254376
48	0xbcc9f637	-0.024653537
49	0x3cf14722	0.029452864
50	0x3d38a36b	0.045077723
51	0x3c885923	0.016644066
52	0x3dd64155	0.1046168
53	0x3c33e887	0.010980732
54	0xbdd5b0f1	-0.104341395
55	0x3ced28c8	0.02895011
56	0xbd4b0057	-0.04956087
57	0x3dcb275e	0.09919618
58	0x3e140c02	0.14457706
59	0xbd0eba23	-0.034845483
60	0xbe022405	-0.12709053
61	0xba46423f	-0.0007562972
62	0xbd334308	-0.043765098
63	0xbc6d5c66	-0.014487362
64	0xbda1f29c	-0.07907602
65	0x3ce2f98c	0.027706884
66	0xbd78818b	-0.060670417
67	0x3cb7dfe4	0.022445627
68	0xbc825aea	-0.015912492
69	0xbdfc2e14	-0.12313476
70	0xbd9e9cc1	-0.07744742
71	0xbd859234	-0.06522027
72	0x3e176a11	0.14786555
73	0xbcdbc987	-0.026829494
74	0xbd14f2fe	-0.036364548
75	0xbbddeed5	-0.0067728558
76	0xbd1b9d57	-0.037991848
77	0xbd29690c	-0.041359946
78	0x3d1a808f	0.03772026
79	0x3d26bbc5	0.040706415
80	0xbcc69a54	-0.024243511
81	0xbbee2256	-0.0072672768
82	0xbd159e4b	-0.036527913
83	0x3ddc7292	0.1076404
84	0x3d62f1e1	0.055406455
85	0x39cbca4e	0.00038869906
86	0x3ccd0d51	0.025030764
87	0x3deaeb8b	0.114707075
88	0x3d71e3e4	0.059055224
89	0xbce6531b	-0.0281158
90	0x3d347aaa	0.044062294
91	0x3b5c436b	0.003360952
92	0x3c0d5760	0.008626789
93	0x3cf03c29	0.029325562
94	0xbda36e6a	-0.07980044
95	0xbcb70c75	-0.022344807
96	0xbb2058db	-0.0024467024
97	0x3d1628c1	0.03665996
98	0x3ddc6992	0.107623234
99	0xbd721ef5	-0.059111554
100	0xbe001629	-0.12508453
101	0x3d5f14a8	0.05446306
102	0x3dda0b3a	0.106466725
103	0x3d1f736a	0.038928427
104	0xbe101cfc	-0.14073557
105	0x3d8279b6	0.06370871
106	0xbd881d03	-0.066461585
107	0x3c3a8cab	0.011386077
108	0xbd6d93ec	-0.058002397
109	0xbd7fbae1	-0.06243408
110	0x3d38a3c9	0.045078073
111	0xbd489a13	-0.04897506
112	0x3c36a686	0.011148101
113	0x3d68aa48	0.056803018
114	0x3c433371	0.01191412
115	0x3dc8f395	0.098120846
116	0x3d8d2bb1	0.06893099
117	0xbcbd9b3c	-0.02314531
118	0xbd2987d7	-0.041389313
119	0x3d3b4d88	0.045728236
120	0x3cd3215e	0.025772747
121	0xbd2a34d0	-0.041554272
122	0x3cf4c063	0.029876893
123	0x3d7f7ea8	0.06237665
124	0xbc8903a9	-0.016725378
125	0xbdd631f4	-0.104587466
126	0xbc6e5405	-0.014546399
127	0xbdb8e473	-0.09027948
128	0x3def2e71	0.1167878
129	0xbca016e5	-0.019542167
130	0x3c87161e	0.016490038
131	0xbe1f8d39	-0.15581216
132	0x3d3c7fb7	0.046020236
133	0x3d2e52ea	0.04255954
134	0x3de09bc8	0.10967213
135	0xbd147ff6	-0.036254846
136	0xbe07f992	-0.13278797
137	0xbda03adb	-0.07823726
138	0x3c06bd95	0.008223911
139	0xbc784380	-0.015152812
140	0xbb6348d3	-0.0034680858
141	0xbd078aa6	-0.03309121
142	0x3d409465	0.04701652
143	0xbd47b8e4	-0.04876031
144	0x3c6c151e	0.014409332
145	0x3d8e1d9b	0.069392405
146	0xbe6c5c3e	-0.23082063
147	0x3d5bfb03	0.05370618
148	0x3db2cf54	0.08730951
149	0xbcf3f75e	-0.02978104
150	0x3ca9e4fe	0.020739075
151	0x3c2173c3	0.00985426
152	0x3ce2a319	0.027665662
153	0xbbaba3dc	-0.0052380394
154	0x3c542c3c	0.012949999
155	0x3d2ee894	0.042702273
156	0x3d9f8c06	0.07790379
157	0xbbe4f373	-0.006987029
158	0xbc351bd5	-0.011053999
159	0xbdecfb80	-0.11571407
160	0x3d481919	0.04885206
161	0x3db812ea	0.089879826
162	0xbca8c44a	-0.02060141
163	0x3d5b8427	0.053592827
164	0xba9c2c3c	-0.0011915038
165	0xbe49d56b	-0.19710319
166	0xbd03dd81	-0.032193664
167	0x3ca2df02	0.019881729
168	0x3cd73ae0	0.026273191
169	0xbc84d9bd	-0.016217107
170	0x3c50fa15	0.012754937
171	0xbdee7ac2	-0.11644508
172	0x3df4dd36	0.11956255
173	0x3d64dbfd	0.05587386
174	0x3cae0c93	0.02124623
175	0x3d66a4db	0.056309562
176	0x3c9467ab	0.018115839
177	0x3d17b916	0.037041746
178	0x3b219ac3	0.0024658896
179	0xbcfa0ca2	-0.030523602
180	0x3defac36	0.117027685
181	0x3d9e9121	0.07742525
182	0xbd23d988	-0.040002376
183	0xbbd80d24	-0.0065933634
184	0x3d9e5d1b	0.07732602
185	0x3ceadd61	0.028670015
186	0x3d219962	0.039452918
187	0x3c7e20d0	0.015510753
188	0xbc489a2a	-0.012243787
189	0xbdd5f97f	-0.10447978
190	0x3df0c1db	0.11755725
191	0x3b3ea352	0.0029089046
192	0xbccbd258	-0.024880573
193	0xbd099a35	-0.03359433
194	0x3d9be699	0.076123424
195	0x3c87238a	0.016496439
196	0x3dbceef2	0.09225263
197	0xbbbb92c8	-0.005724285
198	0xbb4c5d0c	-0.003118339
199	0xbdc7981e	-0.09745811
200	0x3d161471	0.03664059
201	0xbce432e7	-0.027856303
202	0xbe39e7e3	-0.18154864
203	0xbd86bac1	-0.06578589
204	0xbda601ac	-0.08105788
205	0xbd47fa10	-0.048822463
206	0x3d06dba8	0.032924324
207	0xbd2c19fa	-0.04201696
208	0xbd7d0f79	-0.061782334
209	0x3def73e3	0.116920255
210	0xbd3386fb	-0.0438299
211	0xbdc3c15b	-0.09558364
212	0x3e25eabe	0.16202828
213	0x3cb2b7d8	0.02181618
214	0xbe3a8f61	-0.18218757
215	0xbd487913	-0.04894359
216	0xbdab94b7	-0.083779745
217	0x3e4f87f2	0.20266703
218	0xbe1106f9	-0.14162816
219	0x3d64d6f9	0.055869076
220	0x3d2a461d	0.04157077
221	0x3d9acf6f	0.07559096
222	0xbd986eb7	-0.07442992
223	0x3de6d0c5	0.112702884
224	0xbcf7e777	-0.030261738
225	0xbc7cb971	-0.015425072
226	0xbd46fbb6	-0.048579894
227	0x3caeacb6	0.02132259
228	0x3c860370	0.016359061
229	0xbd8a6c89	-0.06758983
230	0xbd329372	-0.043597646
231	0x3d01c30e	0.03168016
232	0xbd106acb	-0.035258096
233	0x3d423154	0.047410324
234	0x3d2759ce	0.04085713
235	0xbda748d9	-0.081681915
236	0x3ba339f5	0.0049812743
237	0xbd9c574c	-0.07633838
238	0xbc8d32bb	-0.017236104
239	0xbd799fd4	-0.06094344
240	0xbbf9d24a	-0.0076239454
241	0xbcf2dd62	-0.02964658
242	0xbda7f680	-0.08201313
243	0xbad053bd	-0.0015894097
244	0xbd2aba2f	-0.041681465
245	0xbd2c4bc1	-0.042064432
246	0xbd51918b	-0.05116419
247	0x3e354e5d	0.17705674
248	0xbde433f7	-0.11142724
249	0xbdbbde3f	-0.091732495
250	0xbc74ac93	-0.014933723
251	0xbd46d6ec	-0.04854481
252	0x3d5cade0	0.053876758
253	0xbd41f4b5	-0.04735251
254	0x3d870c14	0.065941006
255	0x3d99d0c3	0.07510521

network_body._body_endoder.seq_layers.4.bias f4 [256]
0	0xbb403a56	-0.0029331646
1	0xbdf7fcef	-0.1210879
2	0xbc7b2ddb	-0.015330757
3	0xbd94c65c	-0.072643965
4	0xbd057641	-0.03258348
5	0xbd988599	-0.07447357
6	0xbd93f268	-0.0722397
7	0xbd403e9e	-0.046934716
8	0xbd4a86fc	-0.049445137
9	0xbd7b0578	-0.061284512
10	0xbd6224e8	-0.055210978
11	0x3bec63df	0.007214054
12	0xbd31383b	-0.043266516
13	0xbd121387	-0.035663154
14	0xbc57c15d	-0.01316866
15	0xbd1a4ec3	-0.03767277
16	0xbcb5620c	-0.022141479
17	0xbc98ab42	-0.01863635
18	0xbd4747c0	-0.04865241
19	0xbda08ad7	-0.078389816
20	0xbc9ff18a	-0.019524354
21	0xbcc1f9df	-0.023678718
22	0xbc5bb665	-0.013410185
23	0xbd39919b	-0.045304876
24	0xbd8bee92	-0.06832613
25	0xbd215a6f	-0.039392885
26	0xbbd3d1fb	-0.0064642406
27	0xbd5ed27b	-0.05439995
28	0xbc16c1db	-0.009201492
29	0xbd10719a	-0.03526459
30	0xbd9a7e01	-0.075435646
31	0xbbd14b01	-0.006387115
32	0xb983e40f	-0.00025156184
33	0xbd22343e	-0.039600603
34	0xbd7e4127	-0.062073853
35	0xbc6c9796	-0.014440438
36	0xbce18298	-0.027528092
37	0xbd34aa10	-0.044107497
38	0xbcdb16bd	-0.02674424
39	0xbd37f80a	-0.044914283
40	0xbd3b863b	-0.04578231
41	0xbd3d3aae	-0.04619854
42	0xbd0212bf	-0.03175616
43	0xbd620a2b	-0.05518548
44	0xbcc5ed98	-0.024161145
45	0xbd88d3f8	-0.06681055
46	0xbaa3af9c	-0.0012488249
47	0xbd8772c6	-0.06613688
48	0xbd654a8d	-0.0559793
49	0xbdb8c1d9	-0.090213485
50	0xbd25e034	-0.04049702
51	0xbc4ed05b	-0.012622918
52	0xbd7cb79a	-0.061698534
53	0xbcf96b95	-0.030446807
54	0xbd82bcce	-0.06383668
55	0xbcada840	-0.021198392
56	0x3c9a1342	0.018808011
57	0xbc3e272e	-0.011606021
58	0xbd1ba65c	-0.03800045
59	0xbd9aa028	-0.07550079
60	0xbd5b6d18	-0.053570837
61	0xbd603962	-0.054742225
62	0xbd3c3928	-0.045952946
63	0xbda4675a	-0.08027525
64	0xbc9b112f	-0.018929092
65	0xbd3555e2	-0.044271357
66	0xbd3a4f3f	-0.04548573
67	0xbce414f9	-0.027842032
68	0xbc06d8a8	-0.008230366
69	0xbdddbedd	-0.1082742
70	0xbd114629	-0.0354673
71	0xbd7d0472	-0.061771818
72	0xbc7ae6ba	-0.015313799
73	0xbcd0d838	-0.025493726
74	0xbc0cd1c9	-0.008594939
75	0xbd0ea7f6	-0.03482815
76	0xbce88a5e	-0.028386291
77	0xbb608df3	-0.0034264296
78	0x3c388e5f	0.011264413
79	0xbd311e75	-0.043241937
80	0xbdd47efd	-0.103757836
81	0xbd348400	-0.044071198
82	0xbcf7271c	-0.030170016
83	0xbc88195e	-0.016613659
84	0xbd2ab2db	-0.041674476
85	0xbd052249	-0.0325034
86	0xbd8c75bf	-0.06858396
87	0xbd36177d	-0.044455994
88	0xbcccbec0	-0.0249933
89	0xbdada66e	-0.084790096
90	0xbd2e3647	-0.04253223
91	0xbd35d437	-0.044391837
92	0xbba48fb4	-0.0050220136
93	0xbd1dbf53	-0.03851254
94	0xbd3a5c31	-0.045498077
95	0xbd69c951	-0.057076756
96	0xbd87157e	-0.06595896
97	0xbd87a9e1	-0.06624199
98	0xbcc4cd7f	-0.02402377
99	0xbc88b338	-0.01668702
100	0xbc7d8efb	-0.015475984
101	0x3b1f45e2	0.0024303128
102	0xbd7242e4	-0.059145823
103	0xbd039638	-0.03212568
104	0xbd84019c	-0.064456195
105	0xbbde4f93	-0.0067843883
106	0xbd66f136	-0.05638238
107	0xbd3d80a0	-0.046265244
108	0xbd409100	-0.047013283
109	0xbd848f28	-0.064726174
110	0xbd71ce14	-0.059034422
111	0xbd8c2c34	-0.068443686
112	0xbc9f1fad	-0.019424284
113	0xbd857d67	-0.06518059
114	0xbce231fc	-0.027611725
115	0xbcd9ee82	-0.026602987
116	0xbc81ce87	-0.01584555
117	0xbcf65548	-0.030069962
118	0x3c4783e0	0.012177438
119	0xbd168499	-0.03674755
120	0x390fcdd2	0.00013714217
121	0xbd857a63	-0.06517484
122	0xbd22d5bc	-0.039754614
123	0xbc8fe741	-0.017566325
124	0xbcd106ae	-0.02551588
125	0xbd9ea355	-0.07745997
126	0xbd789c7b	-0.060696106
127	0xbd33e2dd	-0.043917526
128	0x3c15d20b	0.009144316
129	0xbd62eb96	-0.055400454
130	0xbd343700	-0.043997765
131	0xbca1e472	-0.019762252
132	0xbc935e94	-0.017989434
133	0xbd26322c	-0.04057519
134	0xbd152a9a	-0.03641758
135	0xbd8c4d07	-0.06850629
136	0xbd52fc47	-0.05151012
137	0xbd4a13bf	-0.049335238
138	0xbda4a5e9	-0.08039457
139	0xbcd53111	-0.026024373
140	0xbd8b1c63	-0.06792524
141	0xbd334ecf	-0.04377633
142	0xbc7d41d1	-0.015457586
143	0xbd3c464a	-0.04596547
144	0xbca5d052	-0.020240936
145	0xbd52b5e2	-0.05144299
146	0xbd1679ac	-0.03673713
147	0xbc91a471	-0.017778607
148	0xbdaa5b8f	-0.08318245
149	0x3b9d4917	0.0047999728
150	0x3c7a6f8b	0.015285383
151	0xbd0a9376	-0.033832036
152	0xbd71115a	-0.05885444
153	0xbd4184da	-0.047245838
154	0xbdabb369	-0.08383829
155	0x3c1b89ca	0.009493301
156	0xb8c5ba47	-9.428389e-05
157	0xbd44fd2e	-0.048093013
158	0xbce37aaf	-0.027768461
159	0xbd0294f3	-0.03188033
160	0xbc8038e7	-0.015652133
161	0xbdb6fb5f	-0.08934664
162	0xbd89ccfc	-0.06728551
163	0xbd97af88	-0.07406527
164	0xbd02b9c8	-0.031915456
165	0xbdae27e4	-0.08503702
166	0xbc8e8db8	-0.017401561
167	0xbd897708	-0.067121565
168	0xbdc01dd0	-0.09380686
169	0xbd826a92	-0.06367983
170	0xbc2b17ee	-0.010442717
171	0xbd28926b	-0.04115526
172	0xbd94ae9f	-0.07259869
173	0xbcca9925	-0.024731228
174	0xbd516010	-0.051117003
175	0xbca66846	-0.020313393
176	0xbd6f9160	-0.05848825
177	0xbd06e513	-0.032933306
178	0xbb8675c8	-0.004103396
179	0xbca6de47	-0.020369662
180	0xbbcc71fc	-0.006239174
181	0xbca8c96f	-0.020603864
182	0xbd6d1a15	-0.057886202
183	0x3bb00951	0.0053722044
184	0xbda115e9	-0.07865507
185	0xbd46796f	-0.04845565
186	0xbd7d8ad7	-0.061899986
187	0xbd3c4967	-0.04596844
188	0xbd05a599	-0.03262863
189	0xbbc4843f	-0.0059972103
190	0xbc3d1927	-0.011541641
191	0xbdafc79e	-0.08582996
192	0xbd196e2f	-0.037458595
193	0xbcbd0c1c	-0.023077063
194	0xba490cf9	-0.00076694746
195	0xbd55e79e	-0.05222284
196	0xbc64e740	-0.01397115
197	0xbd784428	-0.060611874
198	0xbd53109d	-0.051529516
199	0xbc894e9b	-0.016761115
200	0x3c9ad202	0.018898968
201	0xbd9bc14f	-0.0760523
202	0xbd3d8753	-0.046271633
203	0xbbc0e4e2	-0.00588666
204	0xbd8bc0eb	-0.068239056
205	0xbd3a393b	-0.045464735
206	0xbdcef801	-0.10105897
207	0xbd7ca322	-0.061679013
208	0xbdc2260c	-0.09479913
209	0xbc5236de	-0.012830464
210	0xbc035755	-0.008016427
211	0xbcaf4fe6	-0.021400403
212	0xbdb24dd5	-0.087062515
213	0xbc5762ae	-0.013146086
214	0xbd5cc3ef	-0.053897794
215	0xbd398072	-0.04528851
216	0xbcbd4b1b	-0.023107102
217	0xbd73de1d	-0.059537996
218	0xbd135a2f	-0.035974678
219	0xbcf8ffb8	-0.030395374
220	0xbd3d3b01	-0.04619885
221	0xbd6f913f	-0.058488127
222	0xbcb6b749	-0.022304194
223	0xbd213d2b	-0.039364975
224	0xbd4a6d7b	-0.049420815
225	0xbc5472c3	-0.012966814
226	0xbd2424b6	-0.040074073
227	0xbc94051e	-0.018068846
228	0xbdb904d6	-0.090341255
229	0xbc68527a	-0.01417982
230	0xbc70f288	-0.014706261
231	0xbdb1812c	-0.08667216
232	0xbd018b33	-0.03162689
233	0xbd9b7642	-0.07590915
234	0xbceaee88	-0.028678194
235	0xbd6435cd	-0.05571537
236	0xbcd409a2	-0.0258835
237	0xbd6799b3	-0.056543063
238	0xbccf1658	-0.025279209
239	0xbcddb337	-0.027062995
240	0xbc9a4fa3	-0.018836802
241	0xbd8b8a2f	-0.06813466
242	0xbd2c8142	-0.042115457
243	0xbc435598	-0.011922263
244	0xbdb1958d	-0.08671103
245	0xbd3e7d53	-0.046506237
246	0xbd09b505	-0.0336199
247	0xbd6a1ac5	-0.057154436
248	0x3b96ed54	0.0046059284
249	0xbd004207	-0.03131297
250	0xbcdaa8ff	-0.026691912
251	0xbdab4092	-0.08361925
252	0xbc8a0c40	-0.016851544
253	0xbd9f96cf	-0.07792436
254	0xbdc7dcb6	-0.09758894
255	0xbd0e33c1	-0.034717325
