Usable_Data/Versuch_4-1.4/PKWParking/PKWParking-9216.onnx (onnx, 882958 bytes, 15 tensors)

discrete_act_size_vector f4 [1, 2]
4.0 3.0
00000000: 0000 8040 0000 4040

network_body.observation_encoder.processors.0.normalizer.running_mean f4 [315]
0.0 0.0 0.0 0.00010849518 0.0 0.9958773 0.995889 0.0
0.0 0.0 0.0002169904 0.0 0.99576867 0.99579924 0.0 0.0
0.0 0.0004339807 0.0 0.99555165 0.9957794 0.0 0.0 0.0
0.00010849517 0.0 0.9958773 0.9958905 0.0 0.0 0.0 0.00021699035
0.0 0.99576867 0.9959407 0.0 0.0 0.0 0.0007594665 0.0
0.99522626 0.9954762 0.0 0.0 0.0 0.0 0.0 0.99598557
0.99598557 0.0 0.0 0.0 0.00021699024 0.0 0.99576867 0.9958561
0.0 0.0 0.0 0.0 0.0 0.99598557 0.99598557 0.0
0.0 0.0 0.0004339805 0.0 0.99555165 0.9956763 0.0 0.0
0.0 0.0008679614 0.0 0.9951178 0.995576 0.0 0.0 0.0
0.0003254855 0.0 0.9956601 0.99570155 0.0 0.0 0.0 0.001193447
0.0 0.9947922 0.9950165 0.0 0.0 0.0 0.00021699035 0.0
0.99576867 0.9958683 0.0 0.0 0.0 0.0014104368 0.0 0.99457514
0.99488413 0.0 0.0 0.0 0.00010849518 0.0 0.9978303 0.99784195
0.0 0.0 0.0 0.0002169904 0.0 0.9977216 0.997752 0.0
0.0 0.0 0.0004339807 0.0 0.99750465 0.99773216 0.0 0.0
0.0 0.00010849517 0.0 0.9978303 0.9978435 0.0 0.0 0.0
0.00021699035 0.0 0.9977216 0.99789363 0.0 0.0 0.0 0.0007594665
0.0 0.99717915 0.9974289 0.0 0.0 0.0 0.0 0.0
0.9979385 0.9979385 0.0 0.0 0.0 0.00021699024 0.0 0.9977216
0.99780893 0.0 0.0 0.0 0.0 0.0 0.9979385 0.9979385
0.0 0.0 0.0 0.0004339805 0.0 0.99750465 0.9976291 0.0
0.0 0.0 0.0008679614 0.0 0.99707067 0.99752885 0.0 0.0
0.0 0.0003254855 0.0 0.99761313 0.9976544 0.0 0.0 0.0
0.001193447 0.0 0.9967451 0.9969693 0.0 0.0 0.0 0.00021699035
0.0 0.9977216 0.99782103 0.0 0.0 0.0 0.0014104368 0.0
0.9965282 0.996837 0.0 0.0 0.0 0.00010849518 0.0 0.99978304
0.9997948 0.0 0.0 0.0 0.0002169904 0.0 0.9996745 0.99970496
0.0 0.0 0.0 0.0004339807 0.0 0.9994576 0.9996852 0.0
0.0 0.0 0.00010849517 0.0 0.99978304 0.9997964 0.0 0.0
0.0 0.00021699035 0.0 0.9996745 0.9998465 0.0 0.0 0.0
0.0007594665 0.0 0.99913174 0.99938184 0.0 0.0 0.0 0.0
00000000: 0000 0000 0000 0000 0000 0000 e887 e338
00000010: 0000 0000 d1f1 7e3f 95f2 7e3f 0000 0000
00000020: 0000 0000 0000 0000 eb87 6339 0000 0000
00000030: b2ea 7e3f b3ec 7e3f 0000 0000 0000 0000
00000040: 0000 0000 e787 e339 0000 0000 79dc 7e3f
00000050: 66eb 7e3f 0000 0000 0000 0000 0000 0000
00000060: e787 e338 0000 0000 d1f1 7e3f aef2 7e3f
00000070: 0000 0000 0000 0000 0000 0000 e787 6339
00000080: 0000 0000 b2ea 7e3f f8f5 7e3f 0000 0000
00000090: 0000 0000 0000 0000 ef16 473a 0000 0000
000000a0: 26c7 7e3f 87d7 7e3f 0000 0000 0000 0000
000000b0: 0000 0000 0000 0000 0000 0000 e9f8 7e3f
000000c0: e9f8 7e3f 0000 0000 0000 0000 0000 0000
000000d0: e087 6339 0000 0000 b2ea 7e3f 6df0 7e3f
000000e0: 0000 0000 0000 0000 0000 0000 0000 0000
000000f0: 0000 0000 e9f8 7e3f e9f8 7e3f 0000 0000
00000100: 0000 0000 0000 0000 e087 e339 0000 0000
00000110: 79dc 7e3f a4e4 7e3f 0000 0000 0000 0000
00000120: 0000 0000 e787 633a 0000 0000 0ac0 7e3f
00000130: 12de 7e3f 0000 0000 0000 0000 0000 0000
00000140: eda5 aa39 0000 0000 95e3 7e3f 4ce6 7e3f
00000150: 0000 0000 0000 0000 0000 0000 706d 9c3a
00000160: 0000 0000 b4aa 7e3f 67b9 7e3f 0000 0000
00000170: 0000 0000 0000 0000 e787 6339 0000 0000
00000180: b2ea 7e3f 3af1 7e3f 0000 0000 0000 0000
00000190: 0000 0000 68de b83a 0000 0000 7a9c 7e3f
000001a0: bab0 7e3f 0000 0000 0000 0000 0000 0000
000001b0: e887 e338 0000 0000 ce71 7f3f 9272 7f3f
000001c0: 0000 0000 0000 0000 0000 0000 eb87 6339
000001d0: 0000 0000 af6a 7f3f ad6c 7f3f 0000 0000
000001e0: 0000 0000 0000 0000 e787 e339 0000 0000
000001f0: 775c 7f3f 606b 7f3f 0000 0000 0000 0000
00000200: 0000 0000 e787 e338 0000 0000 ce71 7f3f
00000210: ac72 7f3f 0000 0000 0000 0000 0000 0000
00000220: e787 6339 0000 0000 af6a 7f3f f575 7f3f
00000230: 0000 0000 0000 0000 0000 0000 ef16 473a
00000240: 0000 0000 2247 7f3f 8057 7f3f 0000 0000
00000250: 0000 0000 0000 0000 0000 0000 0000 0000
00000260: e678 7f3f e678 7f3f 0000 0000 0000 0000
00000270: 0000 0000 e087 6339 0000 0000 af6a 7f3f
00000280: 6870 7f3f 0000 0000 0000 0000 0000 0000
00000290: 0000 0000 0000 0000 e678 7f3f e678 7f3f
000002a0: 0000 0000 0000 0000 0000 0000 e087 e339
000002b0: 0000 0000 775c 7f3f 9f64 7f3f 0000 0000
000002c0: 0000 0000 0000 0000 e787 633a 0000 0000
000002d0: 0640 7f3f 0d5e 7f3f 0000 0000 0000 0000
000002e0: 0000 0000 eda5 aa39 0000 0000 9363 7f3f
000002f0: 4766 7f3f 0000 0000 0000 0000 0000 0000
00000300: 706d 9c3a 0000 0000 b02a 7f3f 6139 7f3f
00000310: 0000 0000 0000 0000 0000 0000 e787 6339
00000320: 0000 0000 af6a 7f3f 3371 7f3f 0000 0000
00000330: 0000 0000 0000 0000 68de b83a 0000 0000
00000340: 791c 7f3f b630 7f3f 0000 0000 0000 0000
00000350: 0000 0000 e887 e338 0000 0000 c8f1 7f3f
00000360: 8df2 7f3f 0000 0000 0000 0000 0000 0000
00000370: eb87 6339 0000 0000 abea 7f3f aaec 7f3f
00000380: 0000 0000 0000 0000 0000 0000 e787 e339
00000390: 0000 0000 74dc 7f3f 5feb 7f3f 0000 0000
000003a0: 0000 0000 0000 0000 e787 e338 0000 0000
000003b0: c8f1 7f3f a8f2 7f3f 0000 0000 0000 0000
000003c0: 0000 0000 e787 6339 0000 0000 abea 7f3f
000003d0: f1f5 7f3f 0000 0000 0000 0000 0000 0000
000003e0: ef16 473a 0000 0000 19c7 7f3f 7dd7 7f3f
000003f0: 0000 0000 0000 0000 0000 0000 0000 0000

network_body.observation_encoder.processors.1.normalizer.running_mean f4 [13]
0.0 0.0 0.9998916 1.3835531 -0.16513067 0.44439626 0.0 0.0
0.0 0.0 0.0 0.0 0.0
00000000: 0000 0000 0000 0000 e5f8 7f3f 4518 b13f
00000010: 0418 29be e887 e33e 0000 0000 0000 0000
00000020: 0000 0000 0000 0000 0000 0000 0000 0000
00000030: 0000 0000

network_body._body_endoder.seq_layers.0.weight f4 [256, 328]
-0.06401012 -0.0075467224 -0.06614638 0.03480074 0.09715728 -0.012284104 0.048124153 0.0247412
-0.021592649 -0.03600896 0.0672647 -0.005551853 0.09652463 -0.038104106 0.029568281 0.027002148
-0.07722172 -0.023563128 -0.036183428 -0.045976896 0.1006332 -0.03274969 -0.013234786 0.054553125
-0.07137529 0.0020554876 -0.03163014 -0.02387464 -0.08322939 0.007186841 0.087666854 -0.053215757
0.031552136 0.06396629 -0.060860187 0.06766718 -0.017678708 -0.035274763 0.0075103566 -0.019358847
0.047966853 -0.066171914 0.026177486 0.13866723 -0.0026048713 0.05687521 -0.044171147 0.022579284
-0.084185466 -0.0061325287 -0.020529198 0.0018335986 -0.04254469 0.11352069 0.036640134 -0.0054465244
-0.05511508 -0.0036861685 -0.013951775 -0.107613415 -0.034873575 -0.020999396 -0.029501854 -0.03867309
0.026710205 0.10193593 0.023264747 -0.04345384 0.074338526 0.093463756 0.03004287 -0.11669921
-0.07795093 -0.022732444 0.04535119 0.042748816 -0.07395975 -0.07302356 0.059146002 0.026164768
-0.105980136 0.018356232 -0.059316147 -0.045282993 0.0029424918 0.0036185994 0.094038785 -0.10308405
0.0016682919 0.0069727595 0.11815734 -0.082056805 0.041477785 -0.028259207 0.17823279 -0.024898646
-0.01838644 -0.052549057 -0.013752387 0.024964586 -0.023505654 -0.013347311 0.003717576 0.017979637
-0.06361835 0.01486504 0.007957498 -0.111986026 -0.04527691 0.0017887703 -0.053728048 -0.15561041
-0.020116398 0.054771952 -0.029072883 -0.05462095 -0.048102427 -0.0008137212 -0.003942489 -0.039888512
-0.062264297 -0.025316091 0.0059216465 -0.044638935 -0.104403794 -0.014800766 -0.060423553 0.060845938
0.0053391177 -0.071704075 0.050271668 -0.04196686 -0.063597165 0.12711105 -0.009030167 -0.058743455
-0.047464155 0.085502915 -0.10733633 -0.004532431 0.072231844 0.025282165 -0.06621065 -0.015677378
-0.06800817 0.021743603 -0.018884866 0.055796344 -0.09249953 0.026930096 0.06208781 0.1307608
0.004377923 -0.09549165 0.016732773 0.031041665 -0.07343835 -0.013815208 0.07258989 -0.051415436
-0.08170327 -0.077435024 -0.028127613 -0.037816074 -0.0049319663 -0.10961834 -0.036012728 -0.06155024
0.03229024 -0.045614235 -0.030432818 -0.08502691 0.044692997 -0.045881204 -0.008076771 0.05345188
-0.020372301 -0.13637882 0.010705038 -0.013310826 -0.0045580957 0.02072657 -0.01257298 -0.0051940302
-0.031147556 0.014570375 0.030130997 0.0045518335 -0.00762433 0.058503136 -0.0057803476 -0.0064914776
0.0026668338 0.006701072 -0.024593016 -0.078255355 0.058528174 0.075682946 0.096657336 0.010209378
0.04444832 0.07422079 -0.06292526 -0.021514803 -0.025051273 0.008907555 -0.021986399 0.010110953
0.08065012 -0.00017344573 0.07065141 -0.064814396 0.011980765 -0.015575813 0.103915974 0.003021358
-0.07145379 0.060337484 0.028746042 0.026632397 0.020170642 -0.006286439 0.0023330743 0.09859589
0.040408928 -0.013941677 0.058961935 -0.08499811 -0.008781668 -0.024574915 -0.03558724 -0.020509722
0.011301969 -0.029981265 0.034920704 0.01965478 0.051345747 0.038552247 -0.018390175 0.100966424
0.05306633 -0.013098068 0.11955428 0.031843834 -0.013090985 -0.017516285 0.010672427 -0.00311563
-0.061259072 0.020453809 -0.027685711 -0.08439227 -0.0124171935 0.0073984377 -0.06669522 0.011643941
00000000: bd17 83bd 7f4a f7bb c177 87bd 398b 0e3d
00000010: 65fa c63d 4443 49bc d51d 453d 0fae ca3c
00000020: 11e3 b0bc 227e 13bd 13c2 893d 52ec b5bb
00000030: b5ae c53d 0d13 1cbd 2e39 f23c 9c33 dd3c
00000040: 6c26 9ebd 7607 c1bc 1335 14bd 4552 3cbd
00000050: c718 ce3d 8a24 06bd b7d6 58bc 1973 5f3d
00000060: 352d 92bd 5cb5 063b 9b8e 01bd c094 c3bc
00000070: 2c74 aabd 987f eb3b ae8a b33d c4f8 59bd
00000080: d03c 013d c200 833d 8848 79bd 1795 8a3d
00000090: f0d2 90bc 457c 10bd 7019 f63b 7296 9ebc
000000a0: e478 443d 2485 87bd 2b72 d63c c8fe 0d3e
000000b0: 7db6 2abb fbf5 683d ceec 34bd 31f8 b83c
000000c0: 6e69 acbd 61f3 c8bb d92c a8bc 5c55 f03a
000000d0: 5743 2ebd 897d e83d f713 163d c278 b2bb
000000e0: 5ac0 61bd a593 71bb fc95 64bc 6c64 dcbd
000000f0: 98d7 0ebd ed06 acbc dfad f1bc ad67 1ebd
00000100: 5ccf da3c c9c3 d03d b695 be3c a7fc 31bd
00000110: cc3e 983d ed69 bf3d 771c f63c ffff eebd
00000120: bda4 9fbd 6439 babc 2bc2 393d 6219 2f3d
00000130: 3678 97bd 608d 95bd 1443 723d 7f57 d63c
00000140: 1d0c d9bd cf5f 963c 7df5 72bd a97a 39bd
00000150: d2d6 403b 0626 6d3b 6897 c03d bb1d d3bd
00000160: 96aa da3a bf7b e43b 7afc f13d 660d a8bd
00000170: 9ce4 293d da7f e7bc a882 363e 3ff8 cbbc
00000180: 299f 96bc ae3d 57bd b151 61bc 8882 cc3c
00000190: ee8e c0bc aeae 5abc 93a2 733b 084a 933c
000001a0: 564a 82bd 7f8c 733c 2a60 023c ee58 e5bd
000001b0: 4874 39bd 2c75 ea3a f111 5cbd 5658 1fbe
000001c0: 25cb a4bc 8e58 603d 412a eebc 38ba 5fbd
000001d0: 0d07 45bd e84f 55ba ff2f 81bb 2362 23bd
000001e0: d908 7fbd b163 cfbc 5f0a c23b 51d7 36bd
000001f0: a8d1 d5bd e97e 72bc b07e 77bd 9739 793d
00000200: c4f3 ae3b 96d9 92bd aae9 4d3d 71e5 2bbd
00000210: 3b3f 82bd 6629 023e 44f3 13bc fa9c 70bd
00000220: c669 42bd 271c af3d 26d3 dbbd c984 94bb
00000230: 4aee 933d 8b1c cf3c 7399 87bd d86d 80bc
00000240: de47 8bbd a41f b23c 6fb4 9abc b58a 643d
00000250: 6570 bdbd 819c dc3c ca4f 7e3d 29e6 053e
00000260: ae74 8f3b 2091 c3bd 2b13 893c 174b fe3c
00000270: d866 96bd 2f59 62bc 02aa 943d fe98 52bd
00000280: 0b54 a7bd 4196 9ebd e16b e6bc 07e5 1abd
00000290: 559c a1bb 957f e0bd 1582 13bd 1b1c 7cbd
000002a0: c542 043d fed5 3abd 3f4e f9bc 9722 aebd
000002b0: 0110 373d eeed 3bbd 6f54 04bc 5cf0 5a3d
000002c0: d0e3 a6bc e4a6 0bbe 2f64 2f3c a715 5abc
000002d0: 145c 95bb c5ca a93c e6fe 4dbc af32 aabb
000002e0: 2929 ffbc 95b8 6e3c 48d5 f63c 8c27 953b
000002f0: 84d5 f9bb fca0 6f3d 1269 bdbb 76b6 d4bb
00000300: 0cc6 2e3b ab94 db3b 4b77 c9bc 5844 a0bd
00000310: 3dbb 6f3d a9ff 9a3d 48f4 c53d 3c45 273c
00000320: 710f 363d 1201 983d f5de 80bd d03f b0bc
00000330: 5438 cdbc fef0 113c d21c b4bc 69a8 253c
00000340: e42b a53d fcde 35b9 b0b1 903d 69bd 84bd
00000350: f84a 443c b231 7fbc e6d1 d43d fa01 463b
00000360: 5d56 92bd 7024 773d d27c eb3c 2f2c da3c
00000370: e73c a53c 79fe cdbb 7ee6 183b a4ec c93d
00000380: d583 253d a26b 64bc 1282 713d 7d13 aebd
00000390: fce0 0fbc 5551 c9bc edc3 11bd 0104 a8bc
000003a0: e52b 393c 459b f5bc 0309 0f3d 1003 a13c
000003b0: eb4f 523d f6e8 1d3d fea6 96bc 7cc7 ce3d
000003c0: 145c 593d 4799 56bc e0d8 f43d ae6e 023d
000003d0: 927b 56bc 507e 8fbc 67db 2e3c 992f 4cbb
000003e0: cbea 7abd bf8e a73c 25cd e2bc dbd5 acbd
000003f0: 7c71 4bbc 986e f23b 8197 88bd 3ac6 3e3c

network_body._body_endoder.seq_layers.0.bias f4 [256]
-0.0017582495 -0.0015925504 0.0030414572 -0.0002040809 0.0004443657 0.0021301948 -0.003301915 0.004820991
0.00060037716 0.0020876336 0.0050026514 0.0002802431 -0.0010185224 0.000292552 0.0010504692 0.0022689165
0.0018993438 -0.0035655773 0.001219501 0.0036637986 -0.0005393861 0.002287549 0.0037963097 0.0039557386
-0.0025528383 0.0034554387 0.002392871 -0.0042236713 0.0048956894 0.0025078582 -0.0014680586 -0.0046991175
0.00096170115 0.0010681688 -0.0024932108 0.0046107136 -0.001394826 0.0025759668 -0.00035955786 0.00048197538
0.0046772254 -0.0016254177 0.00031439765 0.002347693 0.00082839123 0.0013783188 0.0012518656 0.0020452763
0.0007388971 0.0009482339 0.0031288525 0.001555214 -0.0023177303 -0.0012805456 0.0038601428 0.001523704
-0.0009247295 0.0023224682 0.001857751 0.00040925114 0.0039391364 -0.0011265419 -0.0015935211 -0.0021951722
-0.0029381115 0.0028129339 -0.0022855103 0.0042054346 0.00062607805 -0.001112485 0.0036666968 -0.00021421738
-0.0024762724 -0.0037271506 0.0005254228 -0.0006696503 0.0029628603 0.00086358277 0.0028685147 -0.0013053097
0.0029181684 -0.00026332273 -0.0026021125 0.00063463266 -0.0022685397 -0.0053927614 0.004164275 -0.0033820865
-0.00010677789 0.0013119396 -0.003241414 -0.0007396537 0.002958206 -0.0031089354 0.0029524819 -0.0019916175
-0.000958009 0.0058778576 0.0020758684 0.0027743948 -0.0017998958 0.0026703316 -0.0009313986 0.0028158186
0.0009793615 -0.00071184203 -0.0003535711 0.0010388505 0.00073286146 0.00061972067 -0.0035348942 0.0013033546
0.0048538363 0.0024963068 0.0024400274 0.0021599375 0.00050047284 -0.0031672379 -0.001253047 -0.004089954
-0.0022051942 -0.0023376003 0.0019314494 -0.004640577 0.003668114 0.0042968043 0.004363279 0.002910474
0.0031277693 0.0025859592 -0.0022233333 0.005325348 0.0023507224 -0.0003264466 -0.0028277459 -0.0027910245
-0.0014505296 -0.00028022163 0.00053999864 -0.002909177 0.004307487 -0.0024988789 -0.0012437681 0.0017124452
0.00405972 -0.0010350774 -0.0042852103 -0.00087859505 0.0027895817 -0.000660214 -0.0062720557 -0.0022375344
0.002475614 -0.00016362302 0.0025750084 0.0014010518 -0.0001599482 0.0040760436 -0.0028936455 0.0027915854
-0.004529556 -8.706938e-05 0.0036317138 -0.0047452324 0.0042212787 -0.0031509572 0.0011896569 -0.0021610013
-0.0017162309 0.0017683919 -0.0015236584 -0.0011472633 -0.0007447711 -0.00041179557 -0.0018844166 0.0022179806
0.0002802976 0.0013573032 0.0007249408 0.0032321184 0.00012582417 -0.0031515455 0.0032710545 -0.0025370193
0.005118972 -0.001289015 0.0044187703 -0.0027999238 -0.0040942733 -0.00061811163 -0.00041123736 0.0020810603
0.0028455998 0.0025693146 -0.0018740407 0.0055555655 -8.993692e-05 -0.00053836626 -0.0006694784 0.0033266647
-0.00038437062 0.002422989 0.0008384686 -0.0011392791 0.004457215 0.0023219492 0.0011621636 -0.0032763968
-0.00015256461 3.9511113e-05 0.0020061845 0.00019465911 0.0018954454 -0.0037063044 0.0011992203 2.4847068e-05
-0.0028896919 0.0030875823 -0.0013833208 0.002407217 0.005779056 0.0010061156 -0.0026151687 0.0008109835
-0.0022010456 -0.0012844657 -0.0003092073 -0.0035597638 -0.0015650311 -0.0021067676 -0.0017763831 -0.00316009
0.0026992373 0.0034177443 -0.00059536553 0.0034238738 -0.003642139 0.00033181277 -0.00317712 -0.0042157075
0.002024184 0.005340356 -0.0032613364 0.0006560925 -0.0028879782 -0.0018551047 0.0062151207 0.0055894535
0.0003876388 -0.0025927138 0.0031408293 0.0007508573 -0.0010039741 0.0020577884 0.0055034226 -0.002902652
00000000: 1075 e6ba 20bd d0ba 2f53 473b 8dfe 55b9
00000010: c1f9 e839 bd9a 0b3b f164 58bb 67f9 9d3b
00000020: a162 1d3a aed0 083b 48ed a33b 98ed 9239
00000030: f17f 85ba aa61 9939 e6af 893a 1ab2 143b
00000040: 67f3 f83a 76ac 69bb aad7 9f3a 571c 703b
00000050: 9765 0dba b4ea 153b 82cb 783b 249f 813b
00000060: 854d 27bb a474 623b b7d1 1c3b b966 8abb
00000070: 056c a03b e15a 243b df6b c0ba 0efb 99bb
00000080: ac1a 7c3a cc01 8c3a 2365 23bb 7815 973b
00000090: 98d2 b6ba 8dd1 283b 0a83 bcb9 a4b1 fc39
000000a0: 6943 993b f80b d5ba bdd5 a439 c1db 193b
000000b0: 6528 593a b4a8 b43a a415 a43a 0b0a 063b
000000c0: 8cb2 413a e692 783a 6f0d 4d3b 53d8 cb3a
000000d0: 10e5 17bb fbd7 a7ba 73fa 7c3b 06b7 c73a
000000e0: 8c69 72ba 8d34 183b c87f f33a c290 d639
000000f0: df13 813b 79a8 93ba b2dd d0ba e1dc 0fbb
00000100: 558d 40bb 3359 383b 80c8 15bb becd 893b
00000110: 631f 243a cdd0 91ba f74c 703b 8a9f 60b9
00000120: f548 22bb 3643 74bb 87bc 093a 798b 2fba
00000130: 8c2c 423b 0f62 623a b1fd 3b3b ed16 abba
00000140: be3e 3f3b 940e 8ab9 3488 2abb 7a5d 263a
00000150: c8ab 14bb c3b5 b0bb 7874 883b ffa5 5dbb
00000160: f1ed dfb8 63f5 ab3a e76d 54bb 52e5 41ba
00000170: 76de 413b 48bf 4bbb 6d7e 413b cc85 02bb
00000180: e522 7bba 0b9b c03b 4b0b 083b 9fd2 353b
00000190: 7bea ebba bb00 2f3b 1a29 74ba 9989 383b
000001a0: eb5d 803a e99a 3aba 825f b9b9 0a2a 883a
000001b0: 801d 403a c074 223a afa9 67bb 53d5 aa3a
000001c0: ee0c 9f3b 1499 233b dee8 1f3b bd8d 0d3b
000001d0: 2a32 033a 6f91 4fbb 483d a4ba 0505 86bb
000001e0: 0585 10bb 6d32 19bb b028 fd3a fb0f 98bb
000001f0: be64 703b 35cc 8c3b d6f9 8e3b a7bd 3e3b
00000200: 43fb 4c3b 3279 293b 58b5 11bb 4280 ae3b
00000210: 940e 1a3b ec26 abb9 b451 39bb 9fe9 36bb
00000220: b21f beba b6ea 92b9 b28e 0d3a e4a7 3ebb
00000230: d225 8d3b 3bc4 23bb ef05 a3ba 2074 e03a
00000240: 6607 853b 6fab 87ba f36a 8cbb 8451 66ba
00000250: 6ad1 363b 3612 2dba d185 cdbb 99a3 12bb
00000260: e93d 223b 3892 2bb9 79c1 283b 7fa3 b73a
00000270: c5b7 27b9 5590 853b 51a3 3dbb 08f3 363b
00000280: ab6c 94bb 0499 b6b8 0c02 6e3b e57d 9bbb
00000290: a752 8a3b 4a80 4ebb 43ee 9b3a 969f 0dbb
000002a0: 27f3 e0ba 63c9 e73a 7eb5 c7ba c55f 96ba
000002b0: be3c 43ba 44e6 d7b9 87fe f6ba 8a5b 113b
000002c0: e8f4 9239 8ae7 b13a f409 3e3a f3d1 533b
000002d0: abef 0339 298a 4ebb 305f 563b 1f44 26bb
000002e0: 0dbd a73b 2bf4 a8ba 55cb 903b ed7e 37bb
000002f0: 4129 86bb c508 22ba 589b d7b9 6662 083b
00000300: 3e7d 3a3b f261 283b 5fa2 f5ba 760b b63b
00000310: 849c bcb8 2621 0dba ef7f 2fba 2c04 5a3b
00000320: 5a85 c9b9 03cb 1e3b adcc 5b3a dd53 95ba
00000330: d40d 923b d82b 183b bd53 983a d1b8 56bb
00000340: c0f9 1fb9 bcb8 2538 317a 033b 681d 4c39
00000350: 9870 f83a 78e5 72bb 282f 9d3a ac6e d037
00000360: fc60 3dbb 0959 4a3b 8b50 b5ba 66c2 1d3b
00000370: 3c5e bd3b a3df 833a 4063 2bbb 2e98 543a
00000380: 6b3f 10bb 845b a8ba 1a1d a2b9 ed4a 69bb
00000390: bb21 cdba b211 0abb 87d5 e8ba 8319 4fbb
000003a0: b0e5 303b 3cfc 5f3b 4e12 1cba 1263 603b
000003b0: f4b0 6ebb 28f7 ad39 3a37 50bb eb23 8abb
000003c0: 2ca8 043b 27fe ae3b 25bc 55bb 9ffd 2b3a
000003d0: 3c44 3dbb fc26 f3ba 36a8 cb3b bc27 b73b
000003e0: 003c cb39 85ea 29bb 5fd6 4d3b 2ed5 443a
000003f0: c897 83ba f6db 063b 0e56 b43b 6b3a 3ebb

network_body._body_endoder.seq_layers.2.weight f4 [256, 256]
0.007020079 0.06938024 0.0839321 0.007996131 -0.0439253 0.045526523 -0.032891378 0.10317656
-0.062211834 0.050635397 0.015497745 -0.053130608 -0.05657508 -0.0656784 0.027090477 0.061766014
0.03679393 0.028772058 -0.06787015 -0.032332435 -0.115999654 -0.01209622 0.048129085 -0.06105149
-0.07128836 -0.047702424 -0.13435824 0.008269181 0.034768816 -0.06828226 -0.18114531 0.019312117
-0.008577789 0.057294868 0.033440594 0.09941717 0.05162742 0.026264617 0.0795445 -0.049429968
0.056100618 -0.018872999 -0.05163783 0.074139506 -0.0259811 0.099177495 0.05705964 0.026021097
-0.06119342 0.005460839 -0.12692335 0.041378167 -0.030347949 -0.047901575 0.013288394 -0.098861486
-0.07506102 -0.0058176895 -0.060643163 0.00074496015 -0.07290354 0.008070291 -0.055464394 -0.02751592
0.07003482 -0.056796934 0.0777723 -0.04004178 0.03242244 0.019511756 -0.053023923 -0.1143562
0.01059837 -0.04965177 -0.03894018 0.05119118 -0.0957976 0.095131606 0.08799745 0.041904107
-0.1473313 -0.1474537 -0.048923496 0.020678936 -0.05690043 -0.11608249 0.11585375 0.021060623
-0.040385507 -0.026553333 0.10658858 -0.021344777 0.12205069 0.09916935 -0.0675583 0.0915445
0.021611411 -0.05624587 -0.0037788893 -0.091914564 0.0066271764 0.0141456 0.012596041 -0.077357434
-0.11173442 0.018220853 -0.0205393 -0.017500473 0.0014392585 -0.016575182 -0.05503686 -0.02136945
-0.07095557 0.066550106 0.026000418 -0.0356413 0.009483488 -0.032999218 0.09744105 0.055934045
0.019313164 0.0053214654 -0.0060546645 0.0024946383 -0.07510699 0.028981457 0.046485867 -0.035843503
0.045518897 0.010232911 0.08284002 -0.03450246 -0.16736774 -0.021667399 0.080027424 0.042357303
0.0071767964 -0.090926416 -0.032041937 -0.032259665 -0.05916454 -0.02273174 -0.093033604 0.043570973
-0.031204227 -0.010303381 -0.09547317 -0.052347697 -0.043063946 0.07035216 0.1608573 -0.021405328
0.038606174 -0.017627418 -0.0018602785 0.06468584 0.0693333 0.022605136 -0.053809393 -0.02623974
0.06658523 0.09701516 -0.13012876 -0.07950197 0.07260104 -0.14601912 0.037141852 0.02845059
-0.04431846 -0.09611243 0.07566594 0.041240364 -0.10639835 0.07773039 0.025674298 0.03829281
0.018199127 -0.01849272 -0.027862465 -0.07321206 0.06637342 -0.069660805 0.017446065 -0.023709312
0.033265933 0.032104384 -0.04958875 -0.09165566 0.01721119 0.0051374193 0.030053739 -0.0472524
-0.016530264 -0.11938108 -0.06180792 -0.06543277 -0.015069234 -0.0655317 0.04847545 0.0058269086
0.0014170406 0.06712505 -0.102758124 0.03300844 -0.17162207 0.008516255 0.0672023 0.047796536
-0.01515241 -0.008059787 0.07327361 0.019811481 -0.038016446 0.011182294 0.02025507 4.0737465e-05
-0.014728367 0.046503972 0.007992289 -0.028560864 -0.06404263 0.06512876 0.028094852 -0.12990737
-0.032707565 -0.028427787 0.07842019 0.08581655 -0.0048911143 0.07877674 0.09619894 0.13047391
-0.12826727 -0.06530499 0.007278893 -0.010063683 -0.048153426 -0.015821364 -0.013762799 -0.03912181
-0.07219534 -0.030264633 -0.012473434 0.13755687 0.024399737 0.08645677 0.03675159 0.040057678
0.024010891 -0.029753702 -0.019416088 -0.02788536 0.037683923 -0.06647246 -0.057128564 0.10719009
00000000: b108 e63b 3a17 8e3d 98e4 ab3d 3402 033c
00000010: 04eb 33bd 057a 3a3d 1cb9 06bd 3b4e d33d
00000020: d6d1 7ebd 1067 4f3d 41ea 7d3c 7b9f 59bd
00000030: 45bb 67bd 6682 86bd d9ec dd3c 5cfe 7c3d
00000040: 3bb5 163d 61b3 eb3c 81ff 8abd 046f 04bd
00000050: 3a91 edbd 392f 46bc 0123 453d 2111 7abd
00000060: a2ff 91bd 9e63 43bd 3595 09be 757b 073c
00000070: bf69 0e3d 92d7 8bbd 287e 39be 7234 9e3c
00000080: db89 0cbc 06ae 6a3d 01f9 083d 3b9b cb3d
00000090: 4677 533d e528 d73c 3ae8 a23d 1477 4abd
000000a0: c3c9 653d 8c9b 9abc 3082 53bd 74d6 973d
000000b0: 51d6 d4bc 921d cb3d 5eb7 693d 322a d53c
000000c0: f4a5 7abd d6f0 b23b 32f8 01be 277c 293d
000000d0: 439c f8bc 7134 44bd 90b7 593c e477 cabd
000000e0: 98b9 99bd 51a2 bebb f764 78bd 6e49 433a
000000f0: 744e 95bd 4139 043c a22e 63bd 1169 e1bc
00000100: 6a6e 8f3d e7a3 68bd 1547 9f3d d902 24bd
00000110: 64cd 043d 1ed7 9f3c 9d2f 59bd 9533 eabd
00000120: c9a4 2d3c a85f 4bbd bd7f 1fbd d8ad 513d
00000130: 8831 c4bd 5cd4 c23d 0238 b43d a4a3 2b3d
00000140: 04de 16be 1afe 16be 0164 48bd df66 a93c
00000150: 6d10 69bd a8bc edbd bb44 ed3d 5487 ac3c
00000160: 466b 25bd 6086 d9bc 1d4b da3d 3edb aebc
00000170: b6f5 f93d 4d19 cb3d 025c 8abd af7b bb3d
00000180: 6a0a b13c 1262 66bd 3ea7 77bb b43d bcbd
00000190: c928 d93b f2c2 673c a05f 4e3c 936d 9ebd
000001a0: 04d5 e4bd e643 953c 0942 a8bc 275d 8fbc
000001b0: 80a5 bc3a adc8 87bc 556e 61bd fc0e afbc
000001c0: 2751 91bd 6c4b 883d d4fe d43c 9dfc 11bd
000001d0: a260 1b3c 302a 07bd 2c8f c73d 191b 653d
000001e0: a436 9e3c b05f ae3b 3566 c6bb 167d 233b
000001f0: b2d1 99bd 856a ed3c f767 3e3d a3d0 12bd
00000200: 0672 3a3d f1a7 273c 07a8 a93d 7452 0dbd
00000210: 7362 2bbe d47f b1bc 6be5 a33d da7e 2d3d
00000220: 552b eb3b a137 babd 683e 03bd b622 04bd
00000230: 8456 72bd ea37 babc 6788 bebd 7a77 323d
00000240: 02a0 ffbc 83cf 28bc 7087 c3bd 8a6a 56bd
00000250: d263 30bd cb14 903d c7b7 243e 3a5a afbc
00000260: 8221 1e3d 6067 90bc 97d4 f3ba 027a 843d
00000270: 9efe 8d3d 682e b93c 3d67 5cbd b9f4 d6bc
00000280: d65d 883d e2af c63d 7940 05be eed1 a2bd
00000290: dbaf 943d 0986 15be 0e22 183d 3611 e93c
000002a0: 4687 35bd 98d6 c4bd bff6 9a3d a8eb 283d
000002b0: 61e7 d9bd 1c31 9f3d e852 d23c ecd8 1c3d
000002c0: 5616 953c 0b7e 97bc d33f e4bc 34f0 95bd
000002d0: caee 873d 53aa 8ebd 0deb 8e3c 083a c2bc
000002e0: dc41 083d e37f 033d 931d 4bbd f6b5 bbbd
000002f0: 7bfe 8c3c cc57 a83b 4233 f63c bc8b 41bd
00000300: 7a6a 87bc 117e f4bd 4d2a 7dbd 9e01 86bd
00000310: f3e4 76bc 7c35 86bd 328e 463d a7ef be3b
00000320: febb b93a dc78 893d da72 d2bd dc33 073d
00000330: b2bd 2fbe c387 0b3c 5ca1 893d 4dc6 433d
00000340: d041 78bc 320d 04bc 7910 963d b04b a23c
00000350: 22b7 1bbd f135 373c f6ed a53c 85dd 2a38
00000360: 404f 71bc f37a 3e3d 17f2 023c 79f8 e9bc
00000370: c828 83bd 3a62 853d 2d27 e63c 7006 05be
00000380: 5ef8 05bd 64e1 e8bc c49a a03d 96c0 af3d
00000390: a445 a0bb b355 a13d f303 c53d f49a 053e
000003a0: 7f58 03be 9fbe 85bd c883 ee3b 25e2 24bc
000003b0: 873c 45bd ce9b 81bc 5d7d 61bc 313e 20bd
000003c0: 27db 93bd 89ed f7bc 605d 4cbc b5db 0c3e
000003d0: f5e1 c73c 3f10 b13d d688 163d 8513 243d
000003e0: 7db2 c43c 09be f3bc 7d0e 9fbc d76f e4bc
000003f0: 755a 1a3d b722 88bd a4ff 69bd 7a86 db3d

network_body._body_endoder.seq_layers.2.bias f4 [256]
-0.0010367791 0.004262984 -0.0029106059 -0.0010354536 -0.002421273 -0.0014491561 -0.005499678 -0.0015275733
-0.0047171344 0.0002506499 0.00011179663 -0.004897535 0.0011288252 0.0008379281 -0.0021973383 -0.0022096653
0.0025407532 0.0030249597 0.0013651376 0.0014108754 0.004686817 0.0010106788 0.0028484964 0.0034015398
-0.002028883 0.0009128339 0.0027604178 0.0009992251 -7.944319e-05 0.0027491325 0.0016299349 0.0020293954
-0.0019204781 0.0024243144 -8.493289e-05 -0.0024598488 -0.0016734073 -0.00094961835 -0.0024973168 0.00460765
0.0076943417 0.003442133 0.0045944024 0.00026817695 0.00336729 -0.0010219681 0.0011181113 -0.0026250118
0.0007479835 -0.0020800123 0.0024864723 -0.0011682898 0.0032453882 0.0022179876 -2.6458529e-05 0.0062409565
0.0029628838 0.00082824385 -0.0042476156 0.0009108471 0.0038858955 0.0036731933 0.002677247 0.0048220255
0.00057861424 0.003931323 0.0004180554 0.002566812 -0.00282704 0.0034649856 -0.0021531114 0.0017349325
0.000879685 0.005570776 0.00047123464 -0.0034413792 0.0012653926 0.0002587874 -0.00028365338 0.0006395544
0.0021578753 0.0011707391 -0.0015351779 0.00097433856 -0.0036221987 -0.0025391285 -0.0009674622 0.00094636064
0.00091670867 -0.0019242424 0.0026847764 -0.0018067127 0.0031949764 -0.0010019594 -0.0023756565 -0.0017160925
-0.0021360745 0.0049237525 0.0041075307 -0.0009374303 0.0017887008 -0.0022754152 0.0023533234 0.0018921781
0.0022545767 0.0050007757 -0.0022486318 -0.001882144 0.0018105527 0.0009537563 0.0017252128 0.0016860844
-0.0061100936 -0.0013482379 -0.00090591266 0.0010096836 -0.0010716954 0.0019570624 0.00243009 0.0010514207
-0.0003773063 -0.00059144414 -0.00033488745 0.0018345534 -0.001618719 0.0023544403 0.0033403132 0.0014138265
-0.0008790964 0.0015533619 -0.00056964904 0.0013044827 -0.0013099358 0.0031555763 0.0049202894 -0.0022477414
0.0004918433 -0.0016485242 -0.002174939 0.003946266 0.0017220643 0.000572317 0.0033832977 0.0029697227
-0.0047032284 -0.0005638735 -0.0003067038 -0.0008323028 0.0029337704 -0.00013668697 0.00038894304 0.00084464246
0.0018778926 0.004155898 0.0045760777 0.0024519272 0.0011317787 0.0018759326 -0.0005229321 -0.00083401357
0.0002616146 -0.0015106887 -0.001962156 0.0012521674 0.000861199 -0.0028713986 -0.0012452203 0.00052994397
0.00042041767 0.0015829146 -0.00095051056 -0.002297239 -0.003805729 -0.0003001463 0.0010889616 -0.0044642305
0.0023974294 -0.0038770318 -0.0031619808 0.0025790362 0.0017106993 -0.0019733491 -0.0023778223 -0.0029261485
-0.0014413372 0.0007984327 0.0025758573 -0.0010629587 0.00081036135 -0.0025443826 0.0011905538 -0.0055174325
0.0011360944 5.991004e-05 0.0039103283 0.003194546 0.0017282793 0.0036650936 0.0016082934 -0.0017896465
0.0017352026 0.003760154 0.0021522124 -0.004568573 -0.0019203953 0.0014604789 -0.0023771434 0.0015204999
0.0024053177 -0.0012099001 0.0022532346 -0.0021379082 -0.0022631616 -0.0014532628 0.0016445111 0.0017771464
5.1457126e-05 2.0407506e-05 0.00044083435 -0.0041582556 -0.00051745545 -0.0007778837 0.0015780879 0.00055656617
0.004963195 0.00074699655 0.00092342985 0.004502228 -0.0033001094 0.0040451833 -0.0038126493 0.0030430898
-0.0006215151 0.0035227942 -0.0010074729 -0.0036119635 -0.0006311013 0.0027885672 -0.00062916655 0.005951674
0.0019257484 -0.00010988153 0.0022796786 0.0022819736 0.0024998914 -0.0031673126 -0.0010765917 0.0031367026
0.004160447 -0.001614836 0.0047107763 0.00068419805 -0.00513075 0.0019368159 0.0027564585 -0.0034520184
00000000: 89e4 87ba 80b0 8b3b ddbf 3ebb 0fb8 87ba
00000010: 38ae 1ebb 9cf1 bdba a536 b4bb db38 c8ba
00000020: 3192 9abb a969 8339 5c74 ea38 807b a0bb
00000030: 17f5 933a 67a8 5b3a 3801 10bb 08d0 10bb
00000040: c482 263b 673e 463b 6bee b23a 1fed b83a
00000050: df93 993b c178 843a d7ad 3a3b 5eec 5e3b
00000060: 02f7 04bb 3f4b 6f3a 20e8 343b 6ef8 823a
00000070: bd9a a6b8 ca2a 343b 8aa3 d53a 9bff 043b
00000080: 8db8 fbba 3fe1 1e3b 001e b2b8 6a35 21bb
00000090: 3b56 dbba cfef 78ba 06aa 23bb c5fb 963b
000000a0: d120 fc3b 6995 613b a48c 963b 1a9a 8c39
000000b0: c0ad 5c3b 8ff3 85ba 978d 923a 6408 2cbb
000000c0: 5314 443a d150 08bb 15f4 223b 4d21 99ba
000000d0: 94b0 543b a85b 113b 42f3 ddb7 f080 cc3b
000000e0: f12c 423b 811e 593a 952f 8bbb eac5 6e3a
000000f0: 82aa 7e3b f5b9 703b c074 2f3b 1502 9e3b
00000100: 25ae 173a 54d2 803b 722e db39 f637 283b
00000110: dc45 39bb d014 633b 371b 0dbb ad66 e33a
00000120: a99a 663a 0e8b b63b 0b10 f739 c388 61bb
00000130: 88db a53a dbad 8739 50b7 94b9 c5a7 273a
00000140: 246b 0d3b 7c73 993a 0638 c9ba c16a 7f3a
00000150: 6962 6dbb 8267 26bb 4a9d 7dba 3015 783a
00000160: 474f 703a dc36 fcba 13f3 2f3b 38cf ecba
00000170: cf62 513b 2e54 83ba e7b0 1bbb 82ee e0ba
00000180: 62fd 0bbb 6e57 a13b 7798 863b e2bd 75ba
00000190: d772 ea3a 221f 15bb 373a 1a3b f602 f83a
000001a0: 85c1 133b 8cdd a33b c85d 13bb 46b2 f6ba
000001b0: 1150 ed3a 8005 7a3a 8920 e23a 9bff dc3a
000001c0: 2e37 c8bb 5bb7 b0ba c57a 6dba 5c57 843a
000001d0: 2178 8cba 0f42 003b 2542 1f3b d3cf 893a
000001e0: 32d1 c5b9 250b 1bba d593 afb9 6675 f03a
000001f0: 322b d4ba f44c 1a3b 28e9 5a3b 2550 b93a
00000200: 2973 66ba 2d9a cb3a 8054 15ba 2dfb aa3a
00000210: 27b2 abba c9cd 4e3b 613a a13b d84e 13bb
00000220: 0cef 003a 4b13 d8ba 6c89 0ebb ae4f 813b
00000230: e4b6 e13a 8b07 163a 51ba 5d3b ae9f 423b
00000240: 8a1d 9abb e9d0 13ba 16cd a0b9 e52e 5aba
00000250: 8044 403b a153 0fb9 0deb cb39 ff6a 5d3a
00000260: 9f23 f63a 332e 883b ecf2 953b 83b0 203b
00000270: 3158 943a dae1 f53a 6115 09ba b4a1 5aba
00000280: 5129 8939 4d02 c6ba 8497 00bb c41f a43a
00000290: 16c2 613a 132e 3cbb a936 a3ba f0eb 0a3a
000002a0: 816b dc39 cd79 cf3a af2b 79ba 468d 16bb
000002b0: 8a69 79bb f45c 9db9 7dbb 8e3a ae48 92bb
000002c0: 311e 1d3b cd15 7ebb 3c39 4fbb 0c05 293b
000002d0: 8b39 e03a 4e53 01bb 3dd5 1bbb a0c4 3fbb
000002e0: 40eb bcba e94d 513a b7cf 283b fa52 8bba
000002f0: 6e6e 543a a8bf 26bb 5b0c 9c3a 94cb b4bb
00000300: 01e9 943a ea47 7b38 3622 803b 975b 513b
00000310: 6e87 e23a 1132 703b 5fcd d23a 9292 eaba
00000320: bd6f e33a ea6c 763b 220c 0d3b f8b3 95bb
00000330: c6b5 fbba 8a6d bf3a d9c9 1bbb 834b c73a
00000340: 89a2 1d3b 8395 9eba 01ab 133b 261c 0cbb
00000350: 8d51 14bb 687b beba a38c d73a 23ef e83a
00000360: abd3 5738 c930 ab37 c91f e739 fa41 88bb
00000370: d9a5 07ba e4ea 4bba d8d7 ce3a 86e6 113a
00000380: 4ca2 a23b 17d2 433a 5412 723a 6d87 933b
00000390: a646 58bb 758d 843b a4dd 79bb 936e 473b
000003a0: 2ced 22ba aede 663b 2e0d 84ba b1b6 6cbb
000003b0: 7e70 25ba 65c0 363b a7ee 24ba 4306 c33b
000003c0: 6569 fc3a 3270 e6b8 a966 153b 2a8d 153b
000003d0: 38d5 233b b092 4fbb 6c1c 8dba 2391 4d3b
000003e0: 5c54 883b e8a8 d3ba db5c 9a3b c15b 333a
000003f0: da1f a8bb c2dc fd3a b3a5 343b 423b 62bb

network_body._body_endoder.seq_layers.4.weight f4 [256, 256]
-0.041863505 -0.080112904 0.11896432 -0.10122734 0.0123464335 -0.044565927 -0.035533912 0.023683881
-0.038495786 -0.027911898 -0.102117546 0.071440294 -0.09226089 0.09511814 -0.050507322 -0.10091463
-0.041097246 0.06421679 -0.011873135 -0.046161067 -0.02621794 0.046477985 0.033117253 0.0875337
0.026091626 0.09809385 -0.11925536 -0.022345422 0.019285517 0.0036441116 0.039185714 -0.053692676
-0.050992608 0.017720168 0.06997706 0.04586255 -0.019549387 -0.05989591 0.026883056 0.09151184
-0.06073805 -0.0018431537 0.120057166 0.019732745 0.014682192 0.09198982 -0.10580067 -0.0065345233
-0.030102609 -0.09058659 0.045621905 -0.050286487 -0.092439435 -0.017743247 -0.0083117215 0.0022026186
-0.047561023 -0.03373893 0.00075831404 -0.089845486 -0.042892534 -0.025457159 0.015659634 0.03812884
0.0108570745 0.048270214 -0.011790635 -0.032037925 -0.017781062 0.0017806769 0.092211686 -0.05527853
0.012167597 -0.023702465 0.06729013 0.016085403 -0.0034922326 0.013466822 0.052959986 -0.08733327
-0.062158525 0.02244142 -0.04621395 -0.02881584 -0.03518648 0.014963824 -0.102820046 -0.08228442
-0.12021142 0.008213989 0.018669575 0.07540737 0.018961374 -0.0033581716 0.027491199 -0.055134032
-0.037434056 0.06789899 -0.029167792 0.038188964 0.039754324 -0.061801273 -0.14396325 -0.057861213
-0.022623159 -0.11847867 0.07555857 -0.019094588 -0.019228136 0.018104866 -0.044795543 -0.0046800906
-0.002192505 -0.061347608 -0.05385645 0.019926567 -0.023176342 -0.009645417 0.0118960515 -0.014531504
-0.107314706 0.12719066 0.033630963 -0.03315697 -0.056178756 -0.016526962 0.076965734 0.04662701
0.015864577 -0.060351353 -0.04449539 -0.02105819 -0.07271239 -0.08897763 -0.084597655 0.040463462
0.03138293 0.047183346 0.0043253074 -0.024604442 0.09148818 -0.04586379 -0.01680755 -0.03728832
0.08902761 -0.053911667 -0.07156894 -0.066765904 -0.06851049 0.068469845 -0.10833237 0.01967061
-0.0012831537 0.088686444 -0.029999403 -0.033744786 0.035798278 0.10958569 -0.0688362 -0.037422277
-0.03175399 -0.12273267 0.08375657 -0.02209 -0.091047235 -0.05045384 0.09220931 -0.007628511
0.12468016 -0.10972945 -0.0025603636 0.052592773 -0.05800541 -0.084110916 -0.042453356 -0.14539243
0.040525045 0.046892904 0.037629332 0.041033488 -0.047083978 0.015129124 0.04053128 0.082818806
0.078114 -0.0279137 -0.057644524 -0.008185752 0.051341616 -0.10757103 0.08404418 0.048842147
-0.031771686 -0.12431969 0.013750406 0.03954796 0.031075379 -0.07209341 0.018027265 -0.0680845
-0.067295834 -0.052623842 0.051024865 -0.07106373 0.03938916 0.07124443 -0.023072686 -0.038925495
-0.012039957 0.09735469 0.012765993 -0.06008068 0.06958376 0.000105782994 0.03762311 -0.0056183846
-0.0068295337 -0.057839826 -0.0464965 -0.11488655 -0.041600715 -0.059866823 0.0030057437 0.03782203
0.038951654 -0.017582763 -0.006029529 -0.048678964 -0.06404332 -0.037567377 0.08433248 0.03182757
-0.022475861 0.07548438 -0.057105698 -0.015586307 0.021701088 0.006026019 0.09028275 -0.028851774
0.13861005 0.098786175 -0.07841234 0.038194317 0.14226206 0.046936445 -0.06602067 -0.09349342
-0.013179468 -0.013473952 0.015322325 0.013179191 -0.08377951 0.039925534 -0.051998302 0.07784557
00000000: 1179 2bbd 3c12 a4bd 91a3 f33d 4850 cfbd
00000010: b248 4a3c c38a 36bd 028c 11bd b304 c23c
00000020: c2ad 1dbd 7ea7 e4bc 0123 d1bd 4a4f 923d
00000030: 47f3 bcbd 4dcd c23d c4e0 4ebd 54ac cebd
00000040: 9655 28bd 1884 833d 8a87 42bc 6313 3dbd
00000050: 01c7 d6bc b35f 3e3d f5a5 073d de44 b33d
00000060: 1bbe d53c 6ee5 c83d 273c f4bd bf0d b7bc
00000070: a9fc 9d3c 0cd2 6e3b 3381 203d daec 5bbd
00000080: a0dd 50bd e329 913c 2250 8f3d 5fda 3b3d
00000090: 0926 a0bc 6a55 75bd db39 dc3c 8f6a bb3d
000000a0: 76c8 78bd fa95 f1ba 88e0 f53d 91a6 a13c
000000b0: 948d 703c 2965 bc3d 06ae d8bd 8e1f d6bb
000000c0: bf99 f6bc 7685 b9bd 09de 3a3d 34f9 4dbd
000000d0: e350 bdbd 495a 91bc e32d 08bc cf59 103b
000000e0: 59cf 42bd d531 0abd 98c9 463a e900 b8bd
000000f0: 15b0 2fbd 888b d0bc a248 803c fd2c 1c3d
00000100: dfe1 313c fdb6 453d 822d 41bc 333a 03bd
00000110: 97a9 91bc 9a65 e93a 7bd9 bc3d bd6b 62bd
00000120: 9a5a 473c ac2b c2bc 68cf 893d 89c5 833c
00000130: f1dd 64bb f2a3 5c3c 92ec 583d c9db b2bd
00000140: f099 7ebd 12d7 b73c d74a 3dbd 320f ecbc
00000150: b31f 10bd d42a 753c 5193 d2bd bc84 a8bd
00000160: 6831 f6bd f893 063c f0f0 983c 2e6f 9a3d
00000170: e254 9b3c c514 5cbb 3935 e13c 39d4 61bd
00000180: 7454 19bd a00e 8b3d 4bf1 eebc 086c 1c3d
00000190: 6ed5 223d 5523 7dbd 1a6b 13be e1ff 6cbd
000001a0: 3454 b9bc f2a4 f2bd 74be 9a3d 416c 9cbc
000001b0: 5384 9dbc a850 943c 887b 37bd 725b 99bb
000001c0: 21b0 0fbb a147 7bbd 9598 5cbd 0a3d a33c
000001d0: 50dc bdbc d007 1ebc a8e7 423c 8c15 6ebc
000001e0: d0c7 dbbd 453e 023e 9fc0 093d 9acf 07bd
000001f0: b21b 66bd 8d63 87bc 36a0 9d3d f7fb 3e3d
00000200: 6ef6 813c fb32 77bd cc40 36bd 3a82 acbc
00000210: 3cea 94bd e739 b6bd 8941 adbd 04bd 253d
00000220: 638b 003d 5343 413d 4fbb 8d3b 418f c9bc
00000230: 285e bb3d abdb 3bbd fdaf 89bc a3bb 18bd
00000240: 1c54 b63d 7bd2 5cbd bd92 92bd 90bc 88bd
00000250: 3a4f 8cbd eb39 8c3d 5ddd ddbd 4224 a13c
00000260: 7e2f a8ba 3da1 b53d 4fc1 f5bc f937 0abd
00000270: 37a1 123d 766e e03d fef9 8cbd 1a48 19bd
00000280: 7910 02bd 445b fbbd 9188 ab3d 16f6 b4bc
00000290: f976 babd b0a8 4ebd 3cd8 bc3d 97f8 f9bb
000002a0: 5058 ff3d d5b9 e0bd c6cb 27bb 856b 573d
000002b0: 1597 6dbd 5842 acbd 92e3 2dbd c1e1 14be
000002c0: 97fd 253d c612 403d 3721 1a3d bb12 283d
000002d0: 21db 40bd 25e0 773c 2104 263d e89c a93d
000002e0: 3cfa 9f3d 46ab e4bc aa1c 6cbd 881d 06bc
000002f0: 964b 523d 334e dcbd 5b1f ac3d b40e 483d
00000300: 0723 02bd 529b febd 6249 613c 0bfd 213d
00000310: cb91 fe3c b6a5 93bd eaad 933c e36f 8bbd
00000320: 66d2 89bd 198c 57bd 73ff 503d dc89 91bd
00000330: 8756 213d 9ae8 913d ee02 bdbc 5770 1fbd
00000340: 3d43 45bc e561 c73d 7528 513c 2917 76bd
00000350: ee81 8e3d d0d7 dd38 b11a 1a3d 6d1a b8bb
00000360: 48ca dfbb 74e9 6cbd 1d73 3ebd a449 ebbd
00000370: 8365 2abd ea36 75bd 03fc 443b 46eb 1a3d
00000380: c58b 1f3d ba09 90bc 5b93 c5bb 9863 47bd
00000390: 2529 83bd 40e0 19bd 82b6 ac3d a05d 023d
000003a0: 4c1f b8bc 8e97 9a3d aae7 69bd b65d 7fbc
000003b0: 7bc6 b13c e975 c53b 2ae6 b83d 8e5a ecbc
000003c0: cbef 0d3e 6850 ca3d a696 a0bd a571 1c3d
000003d0: 25ad 113e 6e40 403d d835 87bd 7a79 bfbd
000003e0: b2ee 57bc dac1 5cbc 7d0a 7b3c 89ed 573c
000003f0: 9794 abbd f588 233d 2cfc 54bd 806d 9f3d

network_body._body_endoder.seq_layers.4.bias f4 [256]
-0.00049894996 0.0021271028 -0.003434406 -0.0008123802 -8.336536e-05 -0.003996239 -0.002494246 -0.004112919
-0.0011209528 0.005410228 -0.0036967031 -0.0017875881 0.000945193 -0.0017279098 -0.0022791647 -7.289041e-05
0.0035757641 -0.0042614657 0.0012012537 -0.0026175184 -0.0021337373 0.002297288 0.002844235 0.0023597577
-0.0035793686 -0.00044637776 -0.0020641612 -7.5054586e-06 0.0018960471 0.001062487 -0.0039241174 0.00042691402
0.00054663356 -0.00471017 0.0016997625 0.0018144693 0.0013158688 -0.0018708826 -0.0013589322 -0.00039416147
0.0029638037 0.00017233023 0.0031830065 -0.00015830073 -0.0007398004 0.0013713657 -0.004376916 -0.0020240045
0.00023669431 0.0003311302 0.000869773 -0.0046655554 -0.0028967708 0.0024676037 0.002482987 -0.000902024
0.00053608284 0.0023553283 0.0004028514 -0.0015160849 0.0030693035 -0.0017947382 0.00020773645 -0.0022677642
0.0006068297 0.0056157815 0.0012638969 -0.0026312263 -0.003682191 0.0035603403 -0.00029754452 0.0021906989
0.0016711769 -0.00076628034 0.0020092875 0.0020729704 0.00019226395 0.0028197158 0.0036288302 0.0025783472
-0.0015112504 -0.0020168796 -0.0036144378 0.0027500605 0.00040585536 0.0013646901 -0.0009708802 0.0017716227
0.0005163815 0.003601887 0.0003276691 0.0029339085 -0.0024440577 0.001251787 0.0009858086 -0.0018720311
-0.002935502 -0.0005267601 -0.0006598331 0.0037051248 0.0023414155 0.0036569955 0.0004153606 0.000283137
0.0016511218 0.004844314 -0.0026439494 -0.0033144017 -0.0027887921 0.0037675146 0.0025970708 0.0020288166
0.00012160554 0.0042347144 0.0025363786 -0.0013722735 -0.0023147983 0.0038207325 -0.0007827782 -0.001132763
-0.001004174 0.0038211509 0.0050274716 -0.0027593032 0.0020693466 0.0012005229 -0.000626922 -0.0024352598
-0.00023413824 0.0022053567 0.0018574054 0.004006947 0.0012136275 -0.00012972236 0.00013829797 -0.00031089594
0.003899253 0.0036511535 -9.8466895e-05 0.0005156945 -0.0032558914 -0.00041631723 0.0014025229 -0.0013386325
-0.0016000338 -0.00369376 0.0040255836 0.0031913035 -0.0032428263 -0.0039011717 -0.0035435827 -0.0007495858
0.0019991342 -0.0017833035 -0.0027947281 0.0010596617 -0.0032773688 0.00053978025 0.0027386642 0.0030988716
0.0011673372 0.0009505589 -0.0009854309 0.0022673917 0.0033575746 -0.0024405718 0.00024817724 -0.0016500868
0.0033980869 0.0019485764 -0.00068533316 -0.0009393686 -0.0015800504 0.002918269 0.0001460839 0.003138984
-0.003350524 -0.0021370011 0.001366079 0.00089584145 -0.0035353943 -0.0021584088 -0.0011937473 -0.0013204403
0.00092994777 0.0039835954 -0.00097500946 -0.00097523787 -0.0012755254 0.0024113967 0.00040902785 -0.0030693216
0.0024412978 0.0015032172 0.0025870115 -0.0020375906 -0.0044829785 0.0018700496 0.0050848485 0.0019688893
0.0010357047 -0.0028090405 0.0005255199 -0.0009510668 -0.0015955323 -0.0028601645 -0.003139939 -0.00060097675
0.00065858674 0.002602489 0.0020378442 -0.0036308912 -0.002455718 0.0004057557 0.0035919247 0.0045773415
0.0021316723 -0.003037625 -0.0017579575 0.0008962796 -0.0017510148 -8.385055e-05 -0.0014636843 0.0052170893
0.001000256 0.002179725 0.00054510776 -0.0022751603 0.000558262 -0.0008703062 0.004547712 0.003347664
0.00190053 -0.0009271816 0.0017318296 0.0037058508 -0.002305002 -0.0007400833 0.0032412885 0.0019907975
0.00041698653 -0.0021239955 0.00015840938 0.00436072 -0.00042880344 -0.0029863922 0.00478541 0.0012843143
-0.00026170618 0.0001738701 -0.003809049 0.00094275526 0.0017428269 -0.0015787773 0.0016973161 -0.002538707
00000000: f7cb 02ba dd66 0b3b c513 61bb eaf5 54ba
00000010: 70d4 aeb8 e2f2 82bb 8176 23bb aac5 86bb
00000020: efec 92ba 4848 b13b 6344 72bb 814d eaba
00000030: d4c6 773a 087b e2ba 0a5e 15bb bedc 98b8
00000040: 5e57 6a3b c4a3 8bbb 6373 9d3a ac8a 2bbb
00000050: 2cd6 0bbb 198e 163b 5866 3a3b 2aa6 1a3b
00000060: d793 6abb cf07 eab9 e146 07bb 66d7 fbb6
00000070: c984 f83a 2643 8b3a e295 80bb 6ed3 df39
00000080: f54b 0f3a c557 9abb 91ca de3a 7dd3 ed3a
00000090: 3b79 ac3a 6738 f5ba 331e b2ba 75a7 ceb9
000000a0: 603c 423b 8bb3 3439 fd99 503b 87fd 25b9
000000b0: 2aef 41ba 66bf b33a 3c6c 8fbb 29a5 04bb
000000c0: 2531 7839 8b9b ad39 7a01 643a 84e1 98bb
000000d0: c0d7 3dbb 85b7 213b 9cb9 223b ce75 6cba
000000e0: e987 0c3a da5b 1a3b cd35 d339 5eb7 c6ba
000000f0: 5e26 493b 6c3d ebba d4d3 5939 c59e 14bb
00000100: a713 1f3a 9704 b83b 58a9 a53a a770 2cbb
00000110: ea50 71bb 9954 693b c0ff 9bb9 d491 0f3b
00000120: 640b db3a 34e0 48ba 40ae 033b acda 073b
00000130: 769a 4939 fbca 383b abd1 6d3b 7df9 283b
00000140: 2615 c6ba a02d 04bb 34e0 6cbb 5c3a 343b
00000150: fcc8 d439 67df b23a ab82 7eba cb35 e83a
00000160: c75d 073a a30d 6c3b 01cb ab39 d146 403b
00000170: 7c2c 20bb 0013 a43a 3f36 813a f15e f5ba
00000180: 8d61 40bb 4616 0aba a6f8 2cba aed1 723b
00000190: 6f72 193b 34aa 6f3b c2c4 d939 0172 9439
000001a0: 746a d83a 0dbd 9e3b 1c46 2dbb 6f36 59bb
000001b0: 2bc4 36bb 68e8 763b 9e33 2a3b e5f5 043b
000001c0: 7a06 ff38 5cc3 8a3b 5f39 263b dcdd b3ba
000001d0: dfb3 17bb 4165 7a3b 5b33 4dba 3879 94ba
000001e0: 7d9e 83ba 466c 7a3b 7dbd a43b 6dd5 34bb
000001f0: e09d 073b dd5a 9d3a 0658 24ba e198 1fbb
00000200: 0183 75b9 bf87 103b 2f74 f33a b54c 833b
00000210: 9512 9f3a 1506 08b9 1404 1139 bfff a2b9
00000220: 9c8a 7f3b 3148 6f3b 0380 ceb8 ac2f 073a
00000230: cb60 55bb 2745 dab9 dcd4 b73a 0e75 afba
00000240: 3ab8 d1ba 0213 72bb 0be9 833b 3025 513b
00000250: 9985 54bb cdaa 7fbb 743b 68bb da7f 44ba
00000260: e803 033b bcbd e9ba c227 37bb 59e4 8a3a
00000270: 20c9 56bb 0a80 0d3a 297b 333b 7016 4b3b
00000280: 5601 993a ee2e 793a 9329 81ba 8598 143b
00000290: c10a 5c3b 00f2 1fbb c91d 8239 ba47 d8ba
000002a0: 70b2 5e3b 6067 ff3a eea7 33ba f63f 76ba
000002b0: b219 cfba 6e40 3f3b 192e 1939 6ab7 4d3b
000002c0: 7794 5bbb ee0c 0cbb 010e b33a e7d6 6a3a
000002d0: 13b2 67bb 1774 0dbb 8377 9cba a012 adba
000002e0: bdc7 733a d288 823b c797 7fba 1ba7 7fba
000002f0: 882f a7ba 8608 1e3b ca72 d639 ac26 49bb
00000300: 2efe 1f3b 9907 c53a da8a 293b 1989 05bb
00000310: f3e5 92bb 741c f53a cd9e a63b 7b08 013b
00000320: 7cc0 873a e117 38bb 0bc3 093a 0351 79ba
00000330: 2e21 d1ba 9971 3bbb 6fc7 4dbb de8a 1dba
00000340: 02a5 2c3a 858e 2a3b 5a8d 053b 3ff4 6dbb
00000350: 1cf0 20bb 9cbb d439 7f66 6b3b 86fd 953b
00000360: 87b3 0b3b e412 47bb 446b e6ba 4ef4 6a3a
00000370: 4f82 e5ba ecd8 afb8 18d9 bfba 1ef4 aa3b
00000380: 061b 833a b8d9 0e3b 90e5 0e3a db1a 15bb
00000390: 5458 123a 4325 64ba f904 953b 7b64 5b3b
000003a0: 341b f93a 1b0e 73ba 8ffe e23a dcdd 723b
000003b0: 840f 17bb 2602 42ba cc6b 543b 0a78 023b
000003c0: fc9e da39 bb32 0bbb b21a 2639 5fe4 8e3b
000003d0: 06d1 e0b9 59b7 43bb eece 9c3b 7056 a83a
000003e0: 9c35 89b9 e650 3639 3da1 79bb 3c23 773a
000003f0: 916f e43a faee ceba 7a78 de3a 7060 26bb
